model/BLSTM_1_-1_6.pt (torch, 15459 bytes, 41 tensors)

weight_ih_l0 f4 [16, 1]
0.80038786 0.6442312 0.07954125 0.40940526 -0.5121994 0.025523465 0.042652354 0.1186077
0.20523609 -0.16464055 -0.13398042 -0.5498019 0.84068877 0.36635444 0.50252545 0.29893777
00000000: 38e6 4c3f 56ec 243f 86e6 a23d 919d d13e
00000010: 801f 03bf 9616 d13c 3cb4 2e3d 98e8 f23d
00000020: 6929 523e 8897 28be 2a32 09be d1bf 0cbf
00000030: 6137 573f cf92 bb3e 82a5 003f 5f0e 993e

weight_hh_l0 f4 [16, 4]
-0.042383887 0.074135475 0.25833738 0.0035115825 -0.04522865 -0.01215081 0.057220854 -0.068988495
0.13672368 -0.029505234 0.454752 0.35291138 -0.012464742 0.08331909 0.307322 0.02755932
-0.23865925 -0.09195595 -0.25804466 -0.07315299 -0.07492964 0.7569501 0.2302843 -0.25699133
-0.10840637 0.14037368 -0.069472 0.14246327 -0.037641823 0.24313301 -0.28175068 -0.07756614
-0.72716904 1.4957392 1.4257402 0.5970031 -0.31643948 -0.42107746 -1.6494443 -0.017965384
0.075931944 -0.06861655 -0.6979941 0.092224136 0.37991518 -0.67681485 0.15272488 -1.0427121
-0.065930195 0.081692114 0.24372849 0.0035844003 -0.57307875 -0.4181069 -0.27346876 0.010211499
0.1368765 -0.29644263 0.21380818 -0.09574976 0.119708635 0.19304426 0.42485118 0.019094625
00000000: ba9a 2dbd 57d4 973d cc44 843e 9422 663b
00000010: ad41 39bd 3114 47bc 6a60 6a3d d749 8dbd
00000020: 4b01 0c3e f6b4 f1bc 41d5 e83e cdb0 b43e
00000030: eb38 4cbc 33a3 aa3d 4f59 9d3e 15c4 e13c
00000040: 1763 74be 6753 bcbd 6e1e 84be 3cd1 95bd
00000050: b674 99bd 7bc7 413f a6cf 6b3e 5e94 83be
00000060: 2904 debd 1ebe 0f3e 5647 8ebd e4e1 113e
00000070: 502e 1abd dcf7 783e a041 90be ffda 9ebd
00000080: c027 3abf 6274 bf3f a87e b63f 32d5 183f
00000090: 5b04 a2be 7797 d7be fe20 d3bf 242c 93bc
000000a0: 3582 9b3d d586 8cbd beaf 32bf 02e0 bc3d
000000b0: 3e84 c23e bd43 2dbf e963 1c3e 9777 85bf
000000c0: 6906 87bd 324e a73d f693 793e 42e8 6a3b
000000d0: 4ab5 12bf 1c12 d6be 1904 8cbe 224e 273c
000000e0: 5a29 0c3e 54c7 97be 88f0 5a3e 7318 c4bd
000000f0: cd29 f53d 65ad 453e 1886 d93e 556c 9c3c

bias_ih_l0 f4 [16]
0.45171326 0.24931753 0.34562904 0.46490392 -0.30292764 0.13555194 0.36556166 -0.18804912
-0.42211264 0.70254576 0.5827034 0.42195752 0.45544755 0.17082655 0.53572595 0.47556326
00000000: f646 e73e 184d 7f3e 4af6 b03e e307 ee3e
00000010: 5519 9bbe 21ce 0a3e e62a bb3e f38f 40be
00000020: 261f d8be 0ada 333f 0d2c 153f d10a d83e
00000030: 6c30 e93e 28ed 2e3e 5625 093f 077d f33e

bias_hh_l0 f4 [16]
0.45171326 0.24931753 0.34536743 0.46490392 -0.30298242 0.13559183 0.3705949 -0.19060202
-0.74326915 0.6583303 0.7151533 0.38703796 0.45544755 0.17082655 0.53572387 0.4959005
00000000: f646 e73e 184d 7f3e 00d4 b03e e307 ee3e
00000010: 8320 9bbe 96d8 0a3e 9dbe bd3e 2d2d 43be
00000020: e346 3ebf 5688 283f 4914 373f d729 c63e
00000030: 6c30 e93e 28ed 2e3e 3325 093f ace6 fd3e

weight_ih_l0_reverse f4 [16, 1]
0.26132032 0.260237 0.22809622 0.21451202 -0.18110566 0.13516876 0.10162806 0.10893265
0.08218921 0.18490396 -0.16826628 -0.15478143 0.28230086 0.2921414 0.2683838 0.23554362
00000000: c7cb 853e c93d 853e 0e92 693e 0aa9 5b3e
00000010: c373 39be ae69 0a3e 5f22 d03d 1518 df3d
00000020: d152 a83d 7757 3d3e ff4d 2cbe 067f 1ebe
00000030: bd89 903e 8f93 953e 9a69 893e 5932 713e

weight_hh_l0_reverse f4 [16, 4]
-0.033141367 0.029784147 -0.029102841 -0.027188385 0.008261068 -0.0033546053 0.0021432212 0.002665519
0.006427501 -0.0033693984 0.002650369 0.0026472688 0.014868093 -0.00038689407 0.00013057873 -0.0016996115
-0.036285438 0.03664071 -0.03596909 -0.035640057 0.012520768 0.013650832 -0.014169531 -0.01210315
0.0097747175 0.007334653 -0.007957366 -0.006375409 0.024841897 0.0034545832 -0.0044286484 -0.003558494
-0.42116272 -0.5588342 0.58226734 0.49682808 0.018331135 -0.016097696 0.013390707 0.011983591
-0.015810562 0.015224216 -0.012952566 -0.011343005 -0.02272851 0.0026611804 -0.002524788 0.0035552778
-0.042781852 0.045023154 -0.043278795 -0.042003546 0.0028818392 0.046800356 -0.04550836 -0.045581643
0.0034545958 0.024570415 -0.023670074 -0.024093043 0.031917326 0.03273308 -0.031126043 -0.03435537
00000000: 3ebf 07bd e2fd f33c 1569 eebc 2dba debc
00000010: 6e59 073c f0d8 5bbb 4975 0c3b fdaf 2e3b
00000020: c99d d23b 20d1 5cbb d0b1 2d3b cd7d 2d3b
00000030: 4d99 733c 0bd8 cab9 f6eb 0839 80c5 deba
00000040: 0aa0 14bd 9214 163d 5354 13bd 4ffb 11bd
00000050: e823 4d3c bda7 5f3c 5227 68bc 4a4c 46bc
00000060: 2326 203c 8757 f03b 9d5f 02bc cfe8 d0bb
00000070: 3c81 cb3c 4a66 623b 321e 91bb 9f35 69bb
00000080: a4a2 d7be c20f 0fbf 790f 153f 4060 fe3e
00000090: 2d2b 963c 51df 83bc b264 5b3c d356 443c
000000a0: 2785 81bc fd6e 793c 0037 54bc 03d8 39bc
000000b0: 2431 babc 3367 2e3b ea76 25bb aaff 683b
000000c0: 063c 2fbd 336a 383d 1b45 31bd e90b 2cbd
000000d0: 3ddd 3c3b bbb1 3f3d f966 3abd d1b3 3abd
000000e0: 8066 623b e547 c93c bee7 c1bc c65e c5bc
000000f0: bebb 023d 1f13 063d 0bfc febc 37b8 0cbd

bias_ih_l0_reverse f4 [16]
0.010244567 0.05415327 0.036408857 0.09500827 0.030670239 0.01254935 0.0046136547 0.020482183
0.13400733 0.21895203 -0.18249866 -0.29332477 0.023177812 0.10757459 0.067497686 0.13359687
00000000: d4d8 273c d2cf 5d3d 7421 153d b293 c23d
00000010: 2740 fb3c ca9b 4d3c 242e 973b 40ca a73c
00000020: 3839 093e f634 603e eee0 3abe aa2e 96be
00000030: 65df bd3c 1150 dc3d 3a3c 8a3d 9ecd 083e

bias_hh_l0_reverse f4 [16]
0.010883724 0.054264944 0.035891064 0.0948866 0.030670239 0.01254935 0.0046136547 0.020482183
-0.15960658 0.2133637 -0.19146147 -0.290998 0.023329396 0.09742217 0.06400316 0.18568625
00000000: a651 323c eb44 5e3d 8202 133d e853 c23d
00000010: 2740 fb3c ca9b 4d3c 242e 973b 40ca a73c
00000020: e86f 23be 047c 5a3e 7a0e 44be b1fd 94be
00000030: 4a1d bf3c 4685 c73d 1714 833d 8924 3e3e

weight_ih_l1 f4 [16, 8]
0.01975058 -0.007342374 0.01089511 0.0030975244 -0.013197247 0.07422885 -0.07038923 -0.07311796
-0.003102784 -0.015785078 0.049869236 -0.0028061823 -0.0282961 0.031682987 -0.027486168 -0.030505976
-0.033988625 0.0018694913 0.21831393 -0.34219745 0.07071133 0.38837987 -0.3583635 -0.38790396
-0.08952879 -0.016807398 -0.13336612 -0.1706862 -0.06078416 0.1916731 -0.1884871 -0.19630851
0.058883853 -0.024856467 -0.018787095 -0.005512393 0.017296584 0.09136742 -0.08684793 -0.09536039
-0.010689269 -0.03524116 0.060131904 0.030605856 -0.026445422 -0.0042991536 0.006946157 0.005464605
0.2708707 0.012444455 -0.16368693 0.03223127 -0.1570164 -0.04556336 0.04855293 0.044588532
0.051177416 0.008592642 -0.47210556 -0.14246775 -0.0394616 0.17357732 -0.18594906 -0.17781945
0.093562394 0.11589215 -0.37474447 -0.32659465 0.108907044 0.016604744 -0.16514347 -0.14378335
-0.029851737 -0.13883682 0.15530547 -0.045568563 -0.10223793 0.12019902 -0.11047421 -0.11343249
2.007654 -0.47840905 -0.7750463 -0.53560954 -0.14943734 -0.26837936 0.14928895 0.35427794
0.7009404 -0.3229926 -0.29703733 -0.05089399 0.40015432 -0.23943853 0.08719958 0.061051507
0.06826636 0.05336816 -0.050459232 0.03618461 0.052909672 0.042386524 -0.017509276 -0.060200315
-0.05976591 -0.042274483 0.08038845 0.0057421774 -0.08100424 0.013966976 -0.0013457283 -0.024983317
0.034737993 -0.021655735 0.18479647 -0.37024423 0.06612686 0.41655394 -0.38694653 -0.41746014
0.0461869 -0.017709283 -0.30093703 -0.30464414 0.005640735 0.28706312 -0.28566054 -0.2892307
00000000: f8cb a13c 4c98 f0bb 6781 323c d6ff 4a3b
00000010: 4439 58bc 4c05 983d 3b28 90bd debe 95bd
00000020: 1458 4bbb b54f 81bc af43 4c3d ede7 37bb
00000030: 39cd e7bc 05c6 013d ac2a e1bc abe7 f9bc
00000040: a837 0bbd b809 f53a b08d 5f3e 8134 afbe
00000050: 1ad1 903d bad9 c63e 6c7b b7be 599b c6be
00000060: df5a b7bd abaf 89bc 2191 08be 5dc8 2ebe
00000070: d0f8 78bd f445 443e c302 41be 1905 49be
00000080: 3230 713d ca9f cbbc 65e7 99bc 4ea1 b4bb
00000090: 91b1 8d3c d81e bb3d 54dd b1bd 4f4c c3bd
000000a0: 0b22 2fbc 0959 10bd df4c 763d 22b9 fa3c
000000b0: 12a4 d8bc eadf 8cbb 979c e33b 6e10 b33b
000000c0: 90af 8a3e d4e3 4b3c 8c9d 27be f004 043d
000000d0: e8c8 20be a5a0 3abd 70df 463d 77a2 363d
000000e0: 699f 513d 27c8 0c3c d2b7 f1be 11e3 11be
000000f0: 7da2 21bd 41be 313e 6e69 3ebe 4d16 36be
00000100: a49d bf3d dd58 ed3d 82de bfbe 6a37 a7be
00000110: a80a df3d ac06 883c 5f1b 29be f13b 13be
00000120: a18b f4bc 3d2b 0ebe 6608 1f3e 1aa6 3abd
00000130: 1f62 d1bd e72a f63d 4d40 e2bd 4b4f e8bd
00000140: 677d 0040 08f2 f4be 6f69 46bf b51d 09bf
00000150: 1a06 19be 0569 89be 34df 183e eb63 b53e
00000160: d470 333f 495f a5be 4715 98be 3776 50bd
00000170: 07e1 cc3e 602f 75be b295 b23d 2511 7a3d
00000180: 3ccf 8b3d 9298 5a3d 57ae 4ebd 5036 143d
00000190: d0b7 583d 7e9d 2d3d 9d6f 8fbc 9b94 76bd
000001a0: 19cd 74bd 0228 2dbd b3a2 a43d e028 bc3b
000001b0: 8de5 a5bd bed5 643c 2663 b0ba d0a9 ccbc
000001c0: 6d49 0e3d 5e67 b1bc 493b 3d3e a790 bdbe
000001d0: 856d 873d 8f46 d53e db1d c6be 56bd d5be
000001e0: 7a2e 3d3d 0f13 91bc 6b14 9abe 51fa 9bbe
000001f0: ead5 b83b f0f9 923e 1942 92be 0c16 94be

weight_hh_l1 f4 [16, 4]
-0.005190982 0.025162406 -0.020224812 0.042299222 -0.012166509 0.0018306564 -0.0037990895 -0.0041883765
-0.01959553 0.21006787 -0.0073062438 -0.10029964 0.018277183 0.071391076 -0.1512194 0.042907074
-0.012858511 0.03319751 0.003665652 0.026164705 -0.018981932 -0.009631844 0.008122131 -0.0010922275
0.22173752 -0.06800365 -0.074708425 0.14206414 0.13487765 -0.0077549694 -0.2689738 0.279929
0.16043584 0.07852124 0.22913343 0.13007048 -0.04353981 -0.0035631196 0.06626916 0.0005820532
-0.2959735 0.12791874 -0.9450032 -0.97098684 0.013007672 0.013698923 0.29048124 0.0818909
-0.01769752 0.032358438 -0.061254684 0.045892745 -0.017736321 -3.622025e-05 -0.015594742 0.016176669
-0.0017915012 0.21099766 -0.017186105 -0.07844828 0.112733565 0.091352485 -0.30679092 0.18788826
00000000: 1d19 aabb 6421 ce3c 81ae a5bc f341 2d3d
00000010: 0a56 47bc a3f2 ef3a 25fa 78bb a63e 89bb
00000020: ce86 a0bc 081c 573e 3769 efbb e669 cdbd
00000030: 08ba 953c 7c35 923d 42d9 1abe 54bf 2f3d
00000040: 81ac 52bc 1dfa 073d 6f3b 703b 5d57 d63c
00000050: ff7f 9bbc e2ce 1dbc b012 053c 1329 8fba
00000060: 290f 633e 7f45 8bbd bb00 99bd 4379 113e
00000070: 5e1d 0a3e 661d febb efb6 89be db52 8f3e
00000080: 4b49 243e becf a03d f4a1 6a3e 3231 053e
00000090: cd56 32bd 3a83 69bb 20b8 873d ee94 183a
000000a0: d789 97be 21fd 023e bbeb 71bf 9892 78bf
000000b0: 211e 553c 7371 603c f5b9 943e 6bb6 a73d
000000c0: 64fa 90bc 488a 043d 31e6 7abd 08fa 3b3d
000000d0: c34b 91bc 33eb 17b8 1781 7fbc ef84 843c
000000e0: ced0 eaba c50f 583e e0c9 8cbc 7ea9 a0bd
000000f0: dbe0 e63d 0317 bb3d b313 9dbe c865 403e

bias_ih_l1 f4 [16]
0.10433577 0.05775841 0.7666061 0.19330761 0.15992965 -0.0031049808 -0.25922948 0.06827704
-0.10614839 0.15640157 0.100088194 0.16104294 0.20241313 0.09943316 0.78987795 0.32596752
00000000: fead d53d 1594 6c3d 4c40 443f 6ef2 453e
00000010: 99c4 233e ef7c 4bbb bab9 84be d5d4 8b3d
00000020: 5464 d9bd bc27 203e 0afb cc3d 71e8 243e
00000030: 6345 4f3e 9da3 cb3d 7135 4a3f 37e5 a63e

bias_hh_l1 f4 [16]
0.10043231 0.05389252 0.7648836 0.20778148 0.16992503 0.011355168 -0.2188359 0.07816518
-0.18831311 0.119595125 0.009038932 0.087742224 0.11584554 0.0032639634 0.78941005 0.3144305
00000000: 74af cd3d 67be 5c3d 69cf 433f abc4 543e
00000010: d400 2e3e 070b 3a3c 8516 60be 1115 a03d
00000020: 27d5 40be 4aee f43d 0718 143c 32b2 b33d
00000030: 6d40 ed3d 38e8 553b c716 4a3f 09fd a03e

weight_ih_l1_reverse f4 [16, 8]
0.43675637 -0.13107465 0.34116852 -0.10822033 0.4193519 0.12335223 -0.08999819 -0.12668559
0.05622592 -0.12498699 0.0050135646 -0.080524325 -0.03594935 0.15094063 -0.15295054 -0.14796336
0.01601792 -0.14249103 -0.09163592 -0.305583 0.025497688 0.26212 -0.2571142 -0.25614327
-0.057757206 -0.38379306 0.10556401 -0.39766845 -0.005296938 0.33342442 -0.3139956 -0.31100827
0.00073893555 0.18760528 -0.41867203 0.09354972 0.057115808 0.06604627 -0.06458807 -0.06539724
0.06113097 -0.08908634 -0.13312167 -0.11324813 0.0073476555 0.12980095 -0.13178577 -0.13035381
0.027271146 -0.07168793 0.013281653 -0.15478247 -0.11241032 0.1587432 -0.15213922 -0.15438497
0.1857615 -0.0726911 0.18251161 0.07100587 0.11940777 -0.11032076 0.11225296 0.11153155
2.1807783 -0.7873929 0.46967596 -0.6963722 0.1671254 -0.41817105 0.33483243 0.5413181
0.2947288 0.08472341 0.32669765 0.40174666 -0.20033689 0.14546572 -0.34025568 -0.22210704
0.6933912 -0.40292007 -0.1452788 0.17860413 0.4428491 -0.18603553 0.16602354 0.19427858
0.01900442 1.6801722 0.6280887 0.13777289 -0.5589157 0.3892863 -0.25231767 -0.2025233
0.10541375 -0.05309013 0.18735947 -0.29421923 0.09507622 0.36567092 -0.3400613 -0.3682063
0.10433709 -0.12674567 0.008978945 -0.10947355 -0.072755665 0.20483582 -0.18734983 -0.19727151
0.041953947 -0.1614109 -0.12382488 -0.3692877 -0.052291483 0.32840577 -0.32102036 -0.32009032
-0.054338273 -0.69786423 0.04070009 -0.3029603 -0.13372482 0.33666375 -0.31579295 -0.31108823
00000000: 889e df3e 6f38 06be a4ad ae3e 9fa2 ddbd
00000010: 4bb5 d63e 18a0 fc3d f950 b8bd deb9 01be
00000020: 264d 663d 2ef9 ffbd d448 a43b f0e9 a4bd
00000030: a03f 13bd 2e90 1a3e 119f 1cbe b583 17be
00000040: 0338 833c 2be9 11be 9dab bbbd 6075 9cbe
00000050: 87e0 d03c 9834 863e 79a4 83be 3625 83be
00000060: d292 6cbd 8680 c4be f231 d83d 339b cbbe
00000070: f091 adbb 9bb6 aa3e 08c4 a0be 7a3c 9fbe
00000080: 20b5 413a 991b 403e 2e5c d6be ff96 bf3d
00000090: 44f2 693d 4443 873d c046 84bd fdee 85bd
000000a0: 7864 7a3d e672 b6bd 0c51 08be a3ee e7bd
000000b0: 9ac4 f03b 8aea 043e d9f2 06be 787b 05be
000000c0: bd67 df3c 1fd1 92bd 4a9b 593c 4c7f 1ebe
000000d0: 6237 e6bd 948d 223e 62ca 1bbe 1817 1ebe
000000e0: 4338 3e3e 12df 94bd 53e4 3a3e 876b 913d
000000f0: 108c f43d daef e1bd e1e4 e53d a76a e43d
00000100: df91 0b40 9592 49bf 5e79 f03e 7345 32bf
00000110: ec22 2b3e 841a d6be 286f ab3e d393 0a3f
00000120: b1e6 963e 7883 ad3d ea44 a73e bdb1 cd3e
00000130: 1d25 4dbe f7f4 143e fe35 aebe 0770 63be
00000140: 1682 313f 8a4b cebe f7c3 14be 00e4 363e
00000150: 1ebd e23e 1980 3ebe 1302 2a3e f7f0 463e
00000160: 28af 9b3c e20f d73f 6cca 203f 5614 0d3e
00000170: 1915 0fbf 8950 c73e c82f 81be 4562 4fbe
00000180: 2ae3 d73d 0975 59bd 29db 3f3e e7a3 96be
00000190: 52b7 c23d 3839 bb3e 841c aebe 8985 bcbe
000001a0: afae d53d 9ec9 01be 6d1c 133c ab33 e0bd
000001b0: ec00 95bd 7bc0 513e a2d8 3fbe 8b01 4abe
000001c0: e7d7 2b3d e648 25be e697 fdbd 4713 bdbe
000001d0: 982f 56bd cd24 a83e c85c a4be e1e2 a3be
000001e0: cf91 5ebd 3ba7 32bf 23b5 263d 9d1d 9bbe
000001f0: 29ef 08be 315f ac3e 9daf a1be f546 9fbe

weight_hh_l1_reverse f4 [16, 4]
-0.45517507 -0.16359891 -0.33755887 0.40867624 0.04106436 0.045131333 0.061772596 -0.01607797
0.023510082 0.014555178 -0.0002827614 -0.0014482519 0.13303034 0.075732276 0.07958129 0.0069019864
0.43799883 0.06410575 0.42047265 -0.16072655 -0.024188936 0.034594614 0.085289076 -0.057665296
0.12671019 0.15362762 0.095992126 0.05522316 -0.017863626 -0.05353275 0.0033157722 -0.0106662465
-0.4369819 -0.46415356 -0.8736237 0.12866522 0.38544476 0.16784355 0.5313097 -0.12510957
0.42019954 -0.14230025 0.35006925 -0.10867351 0.4316983 0.25854844 0.7321904 -0.14989386
-0.055641554 0.01611436 0.009681956 0.027098091 0.014263428 0.09489083 0.116495565 -0.02222782
-0.07290403 0.07101663 -0.0067789815 0.013688192 0.13546503 0.112604715 0.088375516 -0.01551316
00000000: b50c e9be 7986 27be 84d4 acbe 033e d13e
00000010: 1a33 283d a2db 383d 4305 7d3d f2b5 83bc
00000020: 3798 c03c d778 6e3c 983f 94b9 45d3 bdba
00000030: 1b39 083e 8619 9b3d 84fb a23d 0f2a e23b
00000040: 6241 e03e e049 833d 3148 d73e 8095 24be
00000050: e027 c6bc 15b3 0d3d 0aac ae3d 7232 6cbd
00000060: 51c0 013e 8f50 1d3e 8597 c43d ae31 623d
00000070: bd56 92bc 2845 5bbd 6d4d 593b 7bc1 2ebc
00000080: 17bc dfbe 89a5 edbe cea5 5fbf d1c0 033e
00000090: 0459 c53e 2edf 2b3e ea03 083f b91c 00be
000000a0: 6524 d73e 28b7 11be 473c b33e 3890 debd
000000b0: 8f07 dd3e 7660 843e d470 3b3f c77d 19be
000000c0: 66e8 63bd 4302 843c 11a1 1e3c d1fc dd3c
000000d0: 27b1 693c 2056 c23d 3a95 ee3d 1e17 b6bc
000000e0: b54e 95bd 2b71 913d 3822 debb 7044 603c
000000f0: 58b7 0a3e 4d9d e63d 39fe b43d e92a 7ebc

bias_ih_l1_reverse f4 [16]
0.6472244 0.1875054 0.32590738 0.40698385 0.074857734 0.12562744 0.19029084 -0.106204234
-0.2189632 0.28458467 0.23968822 -0.0018742045 0.7447982 0.24795943 0.3818126 0.3492583
00000000: 80b0 253f 6a01 403e 55dd a63e 3060 d03e
00000010: 034f 993d 7ba4 003e 9adb 423e 9b81 d9bd
00000020: e437 60be 15b5 913e d470 753e dea7 f5ba
00000030: 18ab 3e3f 14e9 7d3e f17c c33e fcd1 b23e

bias_hh_l1_reverse f4 [16]
0.61179084 0.22968647 0.32592538 0.39417008 0.062562086 0.12563886 0.19029051 -0.107070975
0.20630084 -0.031503227 0.16916636 0.03775691 0.7437966 0.2783345 0.38179916 0.29497457
00000000: 539e 1c3f ee32 6b3e b1df a63e a9d0 c93e
00000010: 8d20 803d 79a7 003e 84db 423e 0748 dbbd
00000020: 8740 533e 8709 01bd f239 2d3e fda6 1a3d
00000030: 7469 3e3f dc81 8e3e 2e7b c33e e806 973e

weight_ih_l2 f4 [16, 8]
0.10192053 0.11738451 0.07170101 0.17698923 -0.08327029 0.2934377 0.11740211 0.18675017
0.05203156 0.098092824 0.053132836 0.0848946 -0.027713988 0.15642127 0.062715314 0.14662479
0.112091236 0.10625403 0.058684625 0.13543124 0.15308468 0.115919665 0.038209356 -0.1874338
0.09204473 0.10433613 0.6129974 0.27201313 0.39822462 0.12750833 0.15931737 0.038903464
-0.032601766 -0.06032749 0.120842285 0.08319495 0.23639773 -0.08658602 -0.08131438 -0.28895366
0.04393534 0.067307144 0.07119102 -0.0025088266 0.13941105 0.12222028 -0.0066548665 0.1730342
0.06864849 0.10494494 0.074773185 0.08832563 0.086630255 0.014889279 -0.1560994 -0.14095391
-0.1069684 0.00062105904 -0.65488416 0.1739273 -0.021549392 0.009720645 0.07966211 0.34833288
-0.14493501 0.15228458 -0.96735835 -0.5578659 0.25535518 0.4300374 -0.007601574 0.9373973
-0.0435507 0.045416035 0.13590229 0.089599885 0.078418344 -0.11753887 0.11288326 -0.83051735
0.12574454 -0.080114715 0.28296107 -0.11608569 -0.5484312 0.065356076 -0.4330006 -0.19398087
-0.122895956 0.088706486 -1.7586117 0.14409 -1.4676719 0.15927093 0.076431684 0.35106876
0.13169824 0.18067412 0.037011456 0.1833168 -0.056613535 0.22013158 0.11731834 -0.058104906
0.08419477 0.13075788 -0.09275085 0.13076909 -0.04344884 0.1141404 0.070405275 -0.030620024
0.17285208 0.13833168 0.18938778 0.21351343 0.11905983 0.08122659 -0.011983525 -0.19585922
0.10419356 0.18827742 0.16753474 0.112076916 0.08023594 0.23257984 0.113677695 0.16452484
00000000: b6bb d03d 4a67 f03d fbd7 923d aa3c 353e
00000010: 9d89 aabd 773d 963e 8470 f03d 703b 3f3e
00000020: 0c1f 553d e4e4 c83d d1a1 593d 38dd ad3d
00000030: 7208 e3bc e62c 203e e370 803d cf24 163e
00000040: 1790 e53d b69b d93d 4a5f 703d 7dae 0a3e
00000050: 3bc2 1c3e 4a67 ed3d 6a81 1c3d a5ee 3fbe
00000060: f381 bc3d 2eae d53d 66ed 1c3f 4e45 8b3e
00000070: 19e4 cb3e 8b91 023e 1824 233e 3d59 1f3d
00000080: 6e89 05bd f519 77bd 297c f73d 1d62 aa3d
00000090: 3f12 723e 0354 b1bd 2788 a6bd bcf1 93be
000000a0: 8bf5 333d 54d8 893d 99cc 913d 206b 24bb
000000b0: c5c1 0e3e a04e fa3d 1111 dabb e12f 313e
000000c0: 9497 8c3d 5fed d63d af22 993d 11e4 b43d
000000d0: 346b b13d 2af2 733c 85d8 1fbe 3956 10be
000000e0: 4012 dbbd 91ce 223a 7da6 27bf 001a 323e
000000f0: 5a88 b0bc 5743 1f3c e325 a33d b058 b23e
00000100: d869 14be 7df0 1b3e cca4 77bf 4dd0 0ebf
00000110: eabd 823e dd2d dc3e a016 f9bb 45f9 6f3f
00000120: 3862 32bd 2a06 3a3d f829 0b3e 2580 b73d
00000130: cc99 a03d 38b8 f0bd 572f e73d c99c 54bf
00000140: 2dc3 003e 2f13 a4bd 46e0 903e 56be edbd
00000150: fd65 0cbf 68d9 853d 41b2 ddbe eca2 46be
00000160: e0b0 fbbd bfab b53d 301a e1bf 548c 133e
00000170: acdc bbbf eb17 233e 3788 9c3d 49bf b33e
00000180: e7db 063e a302 393e 5399 173d 66b7 3b3e
00000190: 98e3 67bd 2c6a 613e 9944 f03d 69ff 6dbd
000001a0: 4f6e ac3d 65e5 053e 28f4 bdbd 55e8 053e
000001b0: 69f7 31bd 71c2 e93d a430 903d d8d6 fabc
000001c0: 2300 313e d2a6 0d3e dfee 413e 44a3 5a3e
000001d0: a4d5 f33d 205a a63d 8c56 44bc 528f 48be
000001e0: 6f63 d53d cccb 403e 3a8e 2b3e 9588 e53d
000001f0: be52 a43d 6929 6e3e dacf e83d 3379 283e

weight_hh_l2 f4 [16, 4]
-0.18847728 -0.08936274 0.014283848 0.67141587 0.092733026 -0.07950507 -0.0443427 0.3878251
-0.087601714 0.067662 -0.030147232 -0.09063373 0.24288318 -0.049731493 0.066274256 0.63997704
-0.10998109 -0.017251436 0.17468925 0.110084385 0.1423113 -0.18086693 -0.051700108 0.0504947
-0.11441268 0.16619703 -0.16662578 -0.22513491 -0.16493909 0.20192656 -0.14507599 -0.4522754
-0.41770783 0.36037844 0.34114552 0.2899189 -0.009447897 0.11193693 -0.22737418 -0.5878496
-0.2777062 0.2181867 0.69527036 -0.28815633 -0.63056713 0.38114712 0.008592391 0.25442243
-0.18985473 -0.042866956 -0.13406995 0.36943677 -0.014028919 -0.10251992 -0.1624259 0.1893073
-0.12156073 0.16393018 -0.1094962 -0.0921666 0.31326798 -0.16257764 -0.015770596 0.31448936
00000000: 3000 41be d003 b7bd cd06 6a3c e9e1 2b3f
00000010: d0ea bd3d 8ed3 a2bd b1a0 35bd 0391 c63e
00000020: 8768 b3bd 6092 8a3d 54f7 f6bc 2d9e b9bd
00000030: 5eb6 783e 40b3 4bbd ccba 873d 89d5 233f
00000040: c43d e1bd e252 8dbc bde1 323e ec73 e13d
00000050: 0eba 113e 2e35 39be 7ec3 53bd 88d3 4e3d
00000060: 3251 eabd 8e2f 2a3e f39f 2abe c489 66be
00000070: cbe5 28be d6c5 4e3e cd8e 14be a490 e7be
00000080: cddd d5be 8683 b83e a0aa ae3e 4070 943e
00000090: 5acb 1abc 303f e53d c7d4 68be 507d 16bf
000000a0: 822f 8ebe 566c 5f3e 3dfd 313f 3a89 93be
000000b0: d96c 21bf b725 c33e 1ac7 0c3c a843 823e
000000c0: 4769 42be 4395 2fbd a249 09be d126 bd3e
000000d0: 8dd9 65bc f7f5 d1bd fa52 26be c6d9 413e
000000e0: d5f4 f8bd 50dd 273e 8b3f e0bd d8c1 bcbd
000000f0: a964 a03e c17a 26be 5631 81bc c004 a13e

bias_ih_l2 f4 [16]
0.28305662 0.3025544 0.40309432 0.49727565 -0.1300253 0.12832601 0.38640568 0.035178415
-0.1344025 0.16056414 -0.30851915 0.017492497 0.49779847 0.32894155 0.47395405 0.74727064
00000000: ccec 903e 69e8 9a3e 6162 ce3e ea9a fe3e
00000010: 5a25 05be e567 033e f7d6 c53e 3e17 103d
00000020: cfa0 09be ed6a 243e 39f6 9dbe 6d4c 8f3c
00000030: 71df fe3e 076b a83e 1baa f23e 214d 3f3f

bias_hh_l2 f4 [16]
0.42437482 0.3130813 0.4010847 0.4965587 0.020037362 0.14395578 0.38728535 0.039154563
0.22286227 0.087291986 -0.000870211 0.08224576 0.5511794 0.3387619 0.47602442 0.7479261
00000000: a847 d93e 314c a03e f95a cd3e f13c fe3e
00000010: 6525 a43c 2569 133e 444a c63e 8960 203d
00000020: 0236 643e 24c6 b23d df1e 64ba 7770 a83d
00000030: 181a 0d3f 3372 ad3e 79b9 f33e 1678 3f3f

weight_ih_l2_reverse f4 [16, 8]
-0.065164335 0.16590266 0.1932008 0.017049497 0.09383391 0.19397774 0.19486211 0.056426827
0.08852986 0.07177115 0.06496046 0.1487786 0.12296559 0.10268272 0.0640188 0.06627207
-0.03918308 0.09334006 0.21041332 0.042198848 0.24599317 0.083656296 0.11753322 -0.0009323711
0.03414108 0.16310945 0.058928955 0.1268757 0.09751368 0.057812434 0.044686478 0.012084718
0.11985205 0.02413575 0.1339081 0.14561422 -0.14953622 0.09900625 0.15059595 -0.034247596
0.097889975 0.0347818 0.04997807 0.16439833 0.048292622 0.118251 0.03205386 -0.057955537
0.018732248 0.08115864 0.059845723 0.12910657 0.0075860335 0.22240901 0.21812841 -0.069804065
-0.10045572 -0.022300294 0.06481283 0.013169194 0.13162805 -0.029706042 0.018011194 -0.046291176
0.35583335 0.027775502 -1.2164752 0.06722295 -1.7034776 0.14897668 -0.0852478 0.6136366
-0.2221341 -0.11922802 -0.07813988 0.36892512 -0.09400039 -0.22303659 0.41800392 -0.63655734
-0.4390914 -0.074252896 0.3934929 0.07749962 1.0523908 0.10343307 0.036449723 0.2135105
0.20033881 -0.10841933 1.0989265 0.38221818 0.038265143 -0.1420923 0.19896483 -0.6069347
-0.08858841 0.17069672 0.23341045 0.024061589 0.025742065 0.25361517 0.22671843 0.0453745
0.07757974 0.07093767 0.09815695 0.1771593 0.095685296 0.12935758 0.1536092 -0.034423135
-0.0076700263 0.11755339 0.17009826 0.09015317 0.10872135 0.19972362 0.16677523 -0.05710119
0.06744851 0.14683168 0.10860674 0.15744089 0.14259157 0.06318328 0.07278775 -0.0074098236
00000000: e174 85bd 63e2 293e 6ed6 453e 63ab 8b3c
00000010: fe2b c03d 1aa2 463e ef89 473e d11f 673d
00000020: 254f b53d c1fc 923d fd09 853d 6b59 183e
00000030: 62d5 fb3d 514b d23d 4a1c 833d a7b9 873d
00000040: 707e 20bd 1329 bf3d 9776 573e b3d8 2c3d
00000050: a2e5 7b3e fe53 ab3d 42b5 f03d 5e6a 74ba
00000060: 84d7 0b3d 2a06 273e 7d5f 713d b4eb 013e
00000070: 41b5 c73d bbcc 6c3d 2b09 373d fbfe 453c
00000080: fe74 f53d 56b8 c53c 341f 093e e51b 153e
00000090: 0620 19be cac3 ca3d d335 1a3e 3547 0cbd
000000a0: 8a7a c83d 5c77 0e3d ceb5 4c3d 0958 283e
000000b0: 7cce 453d 952d f23d e94a 033d c962 6dbd
000000c0: 5f74 993c 8036 a63d ca20 753d 8334 043e
000000d0: 4394 f83b 30bf 633e 0e5d 5f3e 6ff5 8ebd
000000e0: bbbb cdbd 1baf b6bc 97bc 843d 9ac3 573c
000000f0: 81c9 063e 165a f3bc 368c 933c d19b 3dbd
00000100: ca2f b63e 7389 e33c 76b5 9bbf 30ac 893d
00000110: 8e0b dabf 588d 183e 6696 aebd 4a17 1d3f
00000120: 1f77 63be d22d f4bd cd07 a0bd c1e3 bc3e
00000130: 4783 c0bd b463 64be 9c04 d63e 6cf5 22bf
00000140: 97d0 e0be e711 98bd e777 c93e 1fb8 9e3d
00000150: beb4 863f b8d4 d33d 4e4c 153d 7fa2 5a3e
00000160: 9e25 4d3e f40a debd a0a9 8c3f 1ab2 c33e
00000170: e9bb 1c3d a580 11be 70bd 4b3e 1360 1bbf
00000180: d76d b5bd 1fcb 2e3e 2603 6f3e cf1c c53c
00000190: 06e1 d23c d9d9 813e e028 683e 9dda 393d
000001a0: 20e2 9e3d c547 913d 8306 c93d 3f69 353e
000001b0: a7f6 c33d 5076 043e bb4b 1d3e 46ff 0cbd
000001c0: d854 fbbb d5bf f03d 3d2e 2e3e 3aa2 b83d
000001d0: 4da9 de3d 5984 4c3e 20c7 2a3e f0e2 69bd
000001e0: 7222 8a3d 0b5b 163e 366d de3d 2f38 213e
000001f0: 8603 123e 3c66 813d be11 953d 1bce f2bb

weight_hh_l2_reverse f4 [16, 4]
-0.0019458995 8.303832e-05 -0.019073112 0.03526511 -0.09730523 0.0006562328 -0.0148600545 0.041544497
0.021115318 -0.03929883 -0.0074907052 -0.01746604 -0.06143485 0.079258345 -0.035991136 0.06589531
-0.08114455 0.16358653 0.027004912 0.11301837 -0.08154687 -0.015121414 0.037927978 -0.018481584
-0.1555427 0.11233936 0.068755046 0.09394843 0.015940307 -0.00890498 0.059474654 -0.05463312
-0.32320973 0.16725145 -0.2055385 0.30660495 0.05890019 0.33766058 0.21828857 -0.04335295
0.23217869 -0.31324208 0.76302016 -0.29566184 0.39082998 -0.14030099 0.08946225 -0.3093189
-6.7658e-05 0.062139336 -0.030811379 0.0696497 -0.11360612 0.047868412 -0.021337116 0.03687711
-0.04448191 0.081765495 -0.017568484 0.0848482 -0.09129922 0.072303616 0.002699555 0.056909673
00000000: 8d0d ffba dc24 ae38 373f 9cbc 2672 103d
00000010: f747 c7bd 0a07 2c3a 9677 73bc 902a 2a3d
00000020: 08fa ac3c cff7 20bd 9774 f5bb f114 8fbc
00000030: 1ca3 7bbd 3352 a23d 716b 13bd 1ff4 863d
00000040: 1d2f a6bd 3a83 273e 6839 dd3c 2d76 e73d
00000050: 0c02 a7bd cfbf 77bc 5e5a 1b3d b166 97bc
00000060: 9646 1fbe 2e12 e63d 72cf 8c3d 0968 c03d
00000070: 3f95 823c 31e6 11bc b29b 733d fac6 5fbd
00000080: bf7b a5be f743 2b3e af78 52be 53fb 9c3e
00000090: 5341 713d d9e1 ac3e 0a87 5f3e dd92 31bd
000000a0: 40c0 6d3e 4461 a0be 4a55 433f fd60 97be
000000b0: de1a c83e 10ab 0fbe fc37 b73d 0c5f 9ebe
000000c0: 9de3 8db8 d185 7e3d 2568 fcbc 80a4 8e3d
000000d0: 53aa e8bd ab11 443d 2dcb aebc 740c 173d
000000e0: aa32 36bd ab74 a73d c8eb 8fbc e5c4 ad3d
000000f0: 16fb babd eb13 943d 04eb 303b 1e1a 693d

bias_ih_l2_reverse f4 [16]
0.668374 0.28812024 0.40408367 0.4401688 0.14427905 0.18021257 0.25147694 -0.108441144
-0.10153831 -0.019511824 -0.29903987 -0.09232863 0.68967426 0.30865508 0.45525134 0.49758732
00000000: 8f1a 2b3f 7f84 933e 0ee4 ce3e ce5d e13e
00000010: e3bd 133e a589 383e 96c1 803e 6416 debd
00000020: 51f3 cfbd 43d7 9fbc c11b 99be cb16 bdbd
00000030: 7e8e 303f 0a08 9e3e b416 e93e c4c3 fe3e

bias_hh_l2_reverse f4 [16]
0.66584754 0.29079124 0.4060119 0.42449763 0.14524113 0.18021236 0.2515113 -0.12047279
-0.04959987 0.06695564 0.20320413 0.11528415 0.6775916 0.31334996 0.45730236 0.49226764
00000000: fc74 2a3f 97e2 943e cbe0 cf3e c157 d93e
00000010: 17ba 143e 9789 383e 17c6 803e 70ba f6bd
00000020: 3c29 4bbd 0a20 893d be14 503e 191a ec3d
00000030: a576 2d3f 686f a03e 8923 ea3e 810a fc3e

weight_ih_l3 f4 [16, 8]
-0.04882722 0.013786364 -0.19829918 -0.08830399 -0.27440807 0.13014655 0.1294851 0.04125462
-0.072350435 -0.08505383 -0.24122927 0.02162431 -0.23206533 0.21735084 -0.04725679 0.10720205
-0.08906499 0.14513035 -0.03029069 0.15053006 0.020530518 0.20887895 -0.08956657 0.11333948
-0.06557699 0.10992805 -0.30324793 -0.29838613 -0.49298072 0.28915408 0.2628537 0.10090996
-0.10927074 0.12634748 -0.076981604 -0.4085722 -0.26357424 0.009855792 0.14881112 0.042738046
-0.19656228 0.056398317 -0.045914236 -0.4448216 -0.37674704 0.058278214 0.13955939 0.09833248
-0.0710682 0.06250754 -0.021889156 0.13534309 0.033579525 0.095213085 -0.036707137 0.07671217
-0.030530674 0.15092014 -0.15705608 -0.38365063 -0.28752288 0.08499212 0.15611923 0.020254467
0.5858202 -0.031642493 -0.118290454 -0.043119412 -0.072989464 -0.045097273 -0.6081531 -0.27757528
-0.59173787 -0.005091631 0.028759541 0.3048614 0.1956286 0.16672076 0.3302469 0.6765296
0.25799257 0.09212691 -0.47139052 -0.0009479035 -0.33980733 0.5628297 0.39496005 0.030911352
-0.79370224 0.08944923 0.29096735 0.23679873 -0.48171538 -0.07411386 0.292336 0.119009025
-0.09880152 0.087401435 -0.3027583 -0.26504135 -0.27213213 0.10952919 0.1379268 0.026784278
-0.16983786 0.065044284 -0.3873054 -0.19134544 -0.1903354 0.22250186 -0.00083662325 0.059332866
-0.09264634 0.11382169 -0.15396854 0.015432018 -0.12605062 0.19777519 0.02279384 0.16246428
-0.11061865 0.13986123 -0.29693225 -0.49404708 -0.5679819 0.16521472 0.22630392 0.037364215
00000000: 0dff 47bd 34e0 613c f10e 4bbe b9d8 b4bd
00000010: 377f 8cbe 2345 053e be97 043e 9bfa 283d
00000020: 772c 94bd b430 aebd ce04 77be 7725 b13c
00000030: 89a2 6dbe 3891 5e3e 5690 41bd c08c db3d
00000040: b567 b6bd 0d9d 143e 2e24 f8bc 8d24 1a3e
00000050: 9e2f a83c 5de4 553e ae6e b7bd 871e e83d
00000060: 3b4d 86bd f521 e13d 5043 9bbe 11c6 98be
00000070: f867 fcbe 010c 943e c394 863e e2a9 ce3d
00000080: 56c9 dfbd 3c61 013e 88a8 9dbd 6030 d1be
00000090: 34f3 86be 307a 213c f161 183e 170e 2f3d
000000a0: 9f47 49be ec01 673d 9110 3cbd a8bf e3be
000000b0: fde4 c0be 23b5 6e3d a8e8 0e3e 8a62 c93d
000000c0: 348c 91bd f403 803d e350 b3bc 6197 0a3e
000000d0: af8a 093d 14ff c23d 395a 16bd 451b 9d3d
000000e0: 771b fabc cf8a 1a3e 4fd3 20be db6d c4be
000000f0: 3336 93be 5910 ae3d b8dd 1f3e b2ec a53c
00000100: 50f8 153f 8f9b 01bd 4442 f2bd fb9d 30bd
00000110: 807b 95bd ebb7 38bd ecaf 1bbf 591e 8ebe
00000120: 227c 17bf b2d7 a6bb 2199 eb3c cb16 9c3e
00000130: dd52 483e d9b8 2a3e 1f16 a93e 0b31 2d3f
00000140: 9a17 843e 09ad bc3d 195a f1be ba7c 78ba
00000150: 3afb adbe 9b15 103f 3438 ca3e ce39 fd3c
00000160: 1230 4bbf 2831 b73d acf9 943e 5e7b 723e
00000170: 66a3 f6be 02c9 97bd 10ad 953e 01bb f33d
00000180: 7458 cabd 86ff b23d 2303 9bbe 80b3 87be
00000190: e754 8bbe d750 e03d af3c 0d3e b46a db3c
000001a0: fae9 2dbe f035 853d e54c c6be 0ff0 43be
000001b0: 48e7 42be 87d7 633e d650 5bba 0507 733d
000001c0: 5dbd bdbd 591b e93d eea9 1dbe 93d6 7c3c
000001d0: 6a13 01be 9485 4a3e 26ba ba3c 095d 263e
000001e0: 088c e2bd c837 0f3e 8107 98be bdf3 fcbe
000001f0: 4367 11bf 0c2e 293e 37bc 673e 380b 193d

weight_hh_l3 f4 [16, 4]
-0.09415162 0.17171934 0.19636655 0.08600509 -0.027208421 0.09344028 0.083856046 0.017891366
-0.0942464 0.21099652 0.14473997 0.10920249 -0.06655365 0.19064908 0.212338 -0.040314335
-0.16868544 0.1775745 0.1433158 0.18517354 -0.15440351 0.12742294 -0.040444355 0.18245643
-0.07644316 0.174707 0.24582474 0.047880325 -0.10598497 0.13284357 0.18641342 -0.00064910547
0.14729096 0.13163462 0.36014748 -0.34501037 -0.12966421 -0.34776604 -0.25018677 0.54406273
-0.2343827 0.42800516 0.48152158 0.13039038 -0.29993135 0.4939255 -0.32829276 0.5973836
-0.22301432 0.26100406 0.2966402 0.22758701 -0.13822514 0.15823719 0.21114425 0.09130273
-0.18625431 0.30838087 0.34874818 0.17477477 -0.23475602 0.30745918 0.265151 0.1745642
00000000: 91d2 c0bd 32d7 2f3e 5014 493e 7023 b03d
00000010: 32e4 debc 9e5d bf3d b8bc ab3d ea90 923c
00000020: 4204 c1bd 790f 583e b736 143e 8ea5 df3d
00000030: 484d 88bd 8339 433e 226f 593e a520 25bd
00000040: e0bb 2cbe 17d6 353e 61c1 123e 229e 3d3e
00000050: f41b 1ebe 297b 023e fba8 25bd dcd5 3a3e
00000060: 3b8e 9cbd 64e6 323e 7bb9 7b3e 291e 443d
00000070: a60e d9bd 2508 083e 29e3 3e3e bb28 2aba
00000080: 71d3 163e 3acb 063e 4065 b83e 33a5 b0be
00000090: b2c6 04be 640e b2be 7b18 80be b247 0b3f
000000a0: 0502 70be 7e23 db3e ff89 f63e 0e85 053e
000000b0: 9a90 99be cee3 fc3e fd15 a8be 22ee 183f
000000c0: de5d 64be 53a2 853e 39e1 973e 920c 693e
000000d0: e48a 0dbe ee08 223e 3336 583e edfc ba3d
000000e0: 73b9 3ebe 19e4 9d3e 1f8f b23e 28f8 323e
000000f0: e263 70be 4a6b 9d3e dfc1 873e f5c0 323e

bias_ih_l3 f4 [16]
0.06852946 0.27856132 0.25690043 -0.12605558 0.05969306 0.081003435 0.3536657 0.14589725
0.26498744 -0.09243156 0.17834558 -0.017832251 0.27687618 0.44983602 0.455617 0.1580788
00000000: 2c59 8c3d 979f 8e3e 7488 833e b714 01be
00000010: b680 743d 21e5 a53d ac13 b53e 1766 153e
00000020: 6fac 873e c24c bdbd 39a0 363e f114 92bc
00000030: b7c2 8d3e e850 e63e a246 e93e 69df 213e

bias_hh_l3 f4 [16]
0.13403708 0.28544906 0.2791154 0.14817156 -0.006747056 0.12019976 0.35828903 0.15151931
-0.3001546 0.098579235 0.0680808 -0.36633655 0.1827269 0.5119762 0.44254142 0.27871898
00000000: 0441 093e 6126 923e 37e8 8e3e 49ba 173e
00000010: 6816 ddbb 4b2b f63d a971 b73e e127 1b3e
00000020: ddad 99be e9e3 c93d f26d 8b3d 7790 bbbe
00000030: c31c 3b3e df10 033f ca94 e23e 41b4 8e3e

weight_ih_l3_reverse f4 [16, 8]
-0.015333243 -0.0015772587 -0.024101062 -0.009678908 -0.00075395394 0.0115085915 0.018577676 0.008674473
0.0126833655 -0.053990737 -0.4161185 0.1800387 -0.44992822 0.09379311 0.19150329 0.15828559
-0.043112952 -0.011375567 -0.1336997 0.0046320674 0.0309478 0.050440297 0.05485484 0.06234272
-0.00014819937 -0.04600458 -0.31321043 0.09325491 0.123451 0.045218367 -0.02795799 -0.033012774
-0.004751981 0.00012111119 -0.006501257 -0.0027332974 -0.0064921225 0.0054169428 0.008192968 0.004324872
-0.047379747 0.04394261 -0.06932211 0.047393914 0.0060097156 0.026613269 0.02913501 0.01987431
-0.025170298 0.00032659946 -0.028581994 0.025247086 0.0047088643 0.023377473 0.018765569 0.011635116
-0.012062637 -0.0129828295 -0.06390303 0.018711803 0.013892326 0.012472725 0.00635231 0.017724602
-0.18068002 0.052425973 0.008827997 -0.06005336 0.11730322 0.0717159 0.031640213 0.20166545
-0.4046155 0.35696205 -0.33932734 -1.4611098 -1.219493 0.11740262 0.30073327 0.6856532
-0.6386536 0.36229402 0.1051825 -0.13286549 0.24668224 0.23531269 -0.03977633 0.60999984
-0.78296214 0.63789105 -0.034144398 0.23742351 0.6468917 0.42338243 -0.19938596 0.55911046
-0.01681302 -0.0009959264 -0.024024656 -0.008093043 -0.006698889 0.012977069 0.02217423 0.01131784
0.01794286 -0.015451425 -0.53953606 0.075530745 -0.70815015 0.09886225 0.41231206 0.173375
-0.07032166 -0.0061468617 -0.15267457 -0.009570306 0.016109476 0.07294375 0.07060172 0.08782363
-0.03272328 -0.065904565 -0.28876275 0.042915672 0.09718039 0.06981927 -0.0014327107 0.016282208
00000000: 4838 7bbc 05bc ceba 976f c5bc 4894 1ebc
00000010: fea4 45ba 888e 3c3c 3630 983c 601f 0e3c
00000020: e4cd 4f3c 6425 5dbd 7c0d d5be 115c 383e
00000030: fe5c e6be 9a16 c03d 7019 443e 9e15 223e
00000040: 3597 30bd 9660 3abc 93e8 08be 99c8 973b
00000050: 3e86 fd3c 7c9a 4e3d 78af 603d 145b 7f3d
00000060: f765 1bb9 4c6f 3cbd 1e5d a0be 6efc be3d
00000070: e1d3 fc3d e536 393d 2808 e5bc 6738 07bd
00000080: 81b6 9bbb 13fd fd38 7f08 d5bb 1f21 33bb
00000090: dfbb d4bb 9c80 b13b cc3b 063c a8b7 8d3b
000000a0: 4411 42bd 2bfd 333d c0f8 8dbd 1f20 423d
000000b0: 26ed c43b 1204 da3c 8bac ee3c 73cf a23c
000000c0: f131 cebc 703b ab39 c924 eabc fad2 ce3c
000000d0: d14c 9a3b 1d82 bf3c 40ba 993c 37a1 3e3c
000000e0: 5ea2 45bc efb5 54bc 97df 82bd 7f49 993c
000000f0: a39c 633c 665a 4c3c 0a27 d03b 2f33 913c
00000100: 2f04 39be 9ebc 563d 4ea3 103c 83fa 75bd
00000110: ac3c f03d c9df 923d 2b99 013d 6381 4e3e
00000120: c329 cfbe bbc3 b63e 50bc adbe a505 bbbf
00000130: 5918 9cbf c970 f03d b6f9 993e f886 2f3f
00000140: cd7e 23bf 9a7e b93e ec69 d73d e40d 08be
00000150: 459a 7c3e cff5 703e 81ec 22bd f328 1c3f
00000160: 3570 48bf d44c 233f ffda 0bbd 261f 733e
00000170: b29a 253f 95c5 d83e d52b 4cbe dd21 0f3f
00000180: 75bb 89bc bf89 82ba 5bcf c4bc af98 04bc
00000190: 5b82 dbbb c69d 543c bba6 b53c 766e 393c
000001a0: e8fc 923c f927 7dbc 091f 0abf ddaf 9a3d
000001b0: 5449 35bf 4b78 ca3d 911a d33e 3789 313e
000001c0: cd04 90bd 9d6b c9bb b956 1cbe c6cc 1cbc
000001d0: 05f8 833c 8863 953d a297 903d e0dc b33d
000001e0: d908 06bd f9f8 86bd b6d8 93be 58c8 2f3d
000001f0: 8306 c73d 68fd 8e3d cbc9 bbba 4462 853c

weight_hh_l3_reverse f4 [16, 4]
0.00026632374 0.007403083 0.00012859875 -0.0005162177 0.0042292844 -0.022206249 0.0052163783 0.0053008655
0.00040602958 0.013151814 0.0012951853 0.0017515834 0.004896265 0.04165013 0.026949022 0.026373895
0.0008160839 0.00461061 0.00072908186 0.0010882613 0.0045251586 0.0023366222 0.015527395 0.016968073
0.0012326856 0.005434609 0.0018009094 0.007334223 0.004334559 -0.0060794847 0.0127443755 0.02691816
-0.0039953473 0.03463711 -0.002783567 0.010466934 -0.074199274 -0.18731903 -0.24892712 -0.26913708
-0.01689206 -0.010248142 -0.030052923 0.018684486 -0.020027818 -0.005400926 -0.019732548 0.082548
0.00018363992 0.010402871 -0.00029361763 -0.00044263582 0.005862635 -0.032252904 -0.006707253 -0.017260136
0.0033291804 0.031096851 0.010312771 0.014355672 0.008016899 0.0646604 0.032898255 0.037101705
00000000: 5ea1 8b39 9095 f23b 77d8 0639 c952 07ba
00000010: cf95 8a3b e1e9 b5bc 27ee aa3b e2b2 ad3b
00000020: 5ee0 d439 b57a 573c 35c3 a93a 6395 e53a
00000030: d970 a03b 5499 2a3d 32c4 dc3c 110e d83c
00000040: 77ee 553a 9a14 973b db1f 3f3a fda3 8e3a
00000050: c847 943b 0422 193b 9d66 7e3c a100 8b3c
00000060: 1192 a13a ce14 b23b 7e0c ec3a ec53 f03b
00000070: eb08 8e3b 6a36 c7bb c9cd 503c 7983 dc3c
00000080: 67eb 82bb a4df 0d3d 816c 36bb 817d 2b3c
00000090: caf5 97bd 8fd0 3fbe c0e6 7ebe 56cc 89be
000000a0: 3861 8abc d3e7 27bc 8c31 f6bc 3510 993c
000000b0: 6111 a4bc 40fa b0bb 27a6 a1bc ed0e a93d
000000c0: 778f 4039 ce70 2a3c b1f0 99b9 9311 e8b9
000000d0: 591b c03b 9f1b 04bd 84c8 dbbb 2165 8dbc
000000e0: 612e 5a3b d3be fe3c e6f6 283c 0d34 6b3c
000000f0: 5059 033c ac6c 843d 52c0 063d f5f7 173d

bias_ih_l3_reverse f4 [16]
0.011920076 0.45716548 0.33266383 0.46173087 -0.0025044386 0.0032931867 0.00077180204 0.042804986
0.3358588 0.04891281 0.344671 0.21721898 0.015005444 0.3037325 0.3646255 0.49459264
00000000: 6c4c 433c 9811 ea3e ea52 aa3e fd67 ec3e
00000010: 8221 24bb 81d2 573b c252 4a3a 4854 2f3d
00000020: aff5 ab3e cc58 483d b878 b03e a76e 5e3e
00000030: 65d9 753c d482 9b3e 32b0 ba3e 3f3b fd3e

bias_hh_l3_reverse f4 [16]
0.016449666 0.4816992 0.3102699 0.4578824 -0.0025044386 0.0032944072 0.000771779 0.042804968
-0.1763659 -0.15176117 0.1611108 0.18586452 0.021877034 0.3024251 0.3611371 0.47074673
00000000: 73c1 863c 47a1 f63e b2db 9e3e 906f ea3e
00000010: 8221 24bb fbe6 573b 3651 4a3a 4354 2f3d
00000020: 4399 34be 4867 1bbe 3bfa 243e 4553 3e3e
00000030: 7737 b33c 76d7 9a3e f6e6 b83e b705 f13e

weight_ih_l4 f4 [16, 8]
-0.13770984 0.1652569 0.21873657 0.14341053 0.03250194 0.19958298 0.085118346 0.03736362
-0.077853754 0.11116036 0.17082202 0.06915123 0.02340264 0.091870196 0.09678095 0.13778046
-0.094543196 0.16724233 0.26388803 0.10458615 0.024107404 0.08583597 0.080722615 0.09217449
-0.09514612 0.09938787 0.080228485 0.12673838 0.03643713 0.18042132 0.10769605 0.1003908
-0.24234933 0.18411829 0.15431829 0.24911015 0.023339324 0.24919446 0.071073495 0.008738979
-0.17393063 0.2139446 0.13133165 0.24021941 0.024932662 0.10737451 0.1024134 0.12782294
-0.278856 0.28235427 0.13918218 0.36189902 0.027427357 0.18982872 0.06657024 0.06755802
-0.17456348 0.12756124 0.069642134 0.2126502 0.02900267 0.3591738 0.106239766 0.05448478
0.40856972 -0.5102115 0.23536058 -0.6684861 -0.17316462 -0.19709146 -0.04095038 -0.10424959
-0.09337395 0.16769437 -0.123671405 0.03946685 0.037768245 0.43404767 0.29781052 0.46394837
-0.41749972 0.45398366 -0.17080362 0.14745647 0.04091871 0.46987596 0.4136671 0.4625974
0.24140304 -0.53130454 -0.033438217 -0.54854083 -0.055117585 0.21831192 -0.28651655 -0.34358144
-0.32983676 0.3294222 0.38586107 0.3721496 0.03914685 0.12212868 0.11663037 0.08661591
-0.32086274 0.37894973 0.37629175 0.38107878 0.04815211 0.3307662 0.18254493 0.15523644
-0.28675622 0.34131882 0.440317 0.32352012 0.036675673 0.117962874 0.12631437 0.111687765
-0.30815482 0.29073384 0.34665504 0.3321455 0.05744381 0.21327487 0.18877174 0.18146087
00000000: cf03 0dbe 1b39 293e 7bfc 5f3e 36da 123e
00000010: c120 053d 7b5f 4c3e 8752 ae3d 980a 193d
00000020: ca71 9fbd 0ba8 e33d f8eb 2e3e 299f 8d3d
00000030: e5b6 bf3c 7126 bc3d 1735 c63d 5216 0d3e
00000040: dd9f c1bd 9341 2b3e 551c 873e 4331 d63d
00000050: e47c c53c c5ca af3d e651 a53d fbc5 bc3d
00000060: f8db c2bd de8b cb3d d54e a43d b5c7 013e
00000070: 1a3f 153d 5ec0 383e bf8f dc3d b199 cd3d
00000080: 6c2a 78be 8189 3c3e 9d05 1e3e bb16 7f3e
00000090: 1c32 bf3c d52c 7f3e fb8e 913d ef2d 0f3c
000000a0: df1a 32be 4b14 5b3e ce7b 063e 14fc 753e
000000b0: 953f cc3c 2be7 db3d 1ebe d13d 04e4 023e
000000c0: 37c6 8ebe bd90 903e c685 0e3e d44a b93e
000000d0: 56af e03c 7662 423e fa55 883d dc5b 8a3d
000000e0: c5c0 32be 6a9f 023e 89a0 8e3d f9c0 593e
000000f0: 0297 ed3c a1e5 b73e 3c94 d93d 6f2b 5f3d
00000100: 0d30 d13e 399d 02bf 5d02 713e e821 2bbf
00000110: 1152 31be 58d2 49be 96bb 27bd cf80 d5bd
00000120: d73a bfbd 13b8 2b3e 6f47 fdbd fea7 213d
00000130: e0b2 1a3d 7f3b de3e 9f7a 983e a48a ed3e
00000140: 86c2 d5be 8c70 e83e 25e7 2ebe d4fe 163e
00000150: 619a 273d 9593 f03e 2dcc d33e 91d9 ec3e
00000160: 5c32 773e 9303 08bf 83f6 08bd 2c6d 0cbf
00000170: fac2 61bd 298d 5f3e 4cb2 92be e8e9 afbe
00000180: 5de0 a8be 07aa a83e 958f c53e 648a be3e
00000190: 7358 203d 9a1e fa3d e7db ee3d af63 b13d
000001a0: 1f48 a4be b305 c23e 50a9 c03e c21c c33e
000001b0: 263b 453d 305a a93e 0fed 3a3e 4df6 1e3e
000001c0: b6d1 92be 57c1 ae3e 3b71 e13e 6ea4 a53e
000001d0: 3b39 163d 8596 f13d 8e58 013e 8ebc e43d
000001e0: 78c6 9dbe 11db 943e c57c b13e fa0e aa3e
000001f0: 334a 6b3d ba64 5a3e 614d 413e e1d0 393e

weight_hh_l4 f4 [16, 4]
-0.11229578 0.17456926 0.15260454 -0.16048883 -0.059154395 0.1053891 0.050230272 -0.12968634
-0.063002646 0.11500565 0.07803361 -0.1665501 -0.11949554 0.15837622 0.16509365 -0.042625666
-0.2186608 0.21057558 0.21325828 -0.19428933 -0.17146707 0.10918782 0.15276416 -0.19227575
-0.25426683 0.13452087 0.2190432 -0.16592312 -0.22695202 0.15678184 0.19960597 -0.041785736
-0.17023249 0.15057483 -0.065180674 -0.32568005 0.0025700945 0.22330682 0.0282412 -0.08347037
-0.09642776 -0.35029107 -0.24764179 0.3767375 -0.02096423 0.01807949 0.11589975 -0.02912988
-0.38907465 0.4083862 0.41447762 -0.37277982 -0.33670372 0.25826028 0.22723821 -0.37809125
-0.33577824 0.34298787 0.3221168 -0.40399233 -0.37201947 0.40567312 0.4041144 -0.26756176
00000000: 54fb e5bd 49c2 323e 5d44 1c3e 2f57 24be
00000010: e14b 72bd 3ed6 d73d 42be 4d3d 7fcc 04be
00000020: 8807 81bd 1588 eb3d 16d0 9f3d 1c8c 2abe
00000030: 14ba f4bd 602d 223e 4f0e 293e 4098 2ebd
00000040: 9ee8 5fbe 20a1 573e 6160 5a3e c8f3 46be
00000050: 1095 2fbe dd9d df3d 356e 1c3e efe3 44be
00000060: 432f 82be d7bf 093e dc4c 603e c0e7 29be
00000070: 1c66 68be 6b8b 203e 8265 4c3e 8527 2bbd
00000080: 6d51 2ebe 4a30 1a3e 727d 85bd 89bf a6be
00000090: 086f 283b 8baa 643e 175a e73c 83f2 aabd
000000a0: eb7b c5bd 5a59 b3be cf95 7dbe bde3 c03e
000000b0: 2dbd abbc 701b 943c d95c ed3d c9a1 eebc
000000c0: cb34 c7be ff17 d13e 6936 d43e ffdc bebe
000000d0: 6e64 acbe b13a 843e 22b1 683e 2d95 c1be
000000e0: 20eb abbe 1b9c af3e 7eec a43e 15d8 cebe
000000f0: 5679 bebe 63b4 cf3e 15e8 ce3e dbfd 88be

bias_ih_l4 f4 [16]
0.17457162 0.32829565 0.29619002 0.22694567 0.021325408 0.100699514 -0.12198543 0.15349698
0.19711173 0.14016965 0.39669463 0.013694771 0.4027002 0.5562141 0.5132933 0.46384868
00000000: e7c2 323e 5e16 a83e 38a6 973e 7264 683e
00000010: 9fb2 ae3c 8c3b ce3d 7fd3 f9bd 502e 1d3e
00000020: a8d7 493e a288 0f3e 8f1b cb3e 0860 603c
00000030: b82e ce3e 0c64 0e3f 3167 033f 937d ed3e

bias_hh_l4 f4 [16]
0.16879518 0.19721663 0.25258198 0.21630438 0.07206602 0.086753614 -0.01059999 0.10987599
-0.41734013 0.3989077 -0.058158174 -0.21864355 0.3871266 0.3640078 0.50840974 0.46405616
00000000: a5d8 2c3e 28f3 493e 6d52 813e e57e 5d3e
00000010: 5997 933d e1ab b13d 95ab 2dbc aa06 e13d
00000020: 9bad d5be a13d cc3e 4437 6ebd 18e4 5fbe
00000030: 7535 c63e 3b5f ba3e 2427 023f c598 ed3e

weight_ih_l4_reverse f4 [16, 8]
-0.30205688 0.32507455 0.40848613 0.30879894 0.04202773 0.23905532 0.16809656 0.15756121
-0.2908706 0.31097266 0.3949664 0.29029492 0.04059545 0.22084728 0.15965788 0.14810613
-0.2980522 0.31972876 0.3936586 0.30294058 0.041271403 0.23052622 0.16393559 0.15527073
-0.30112097 0.3238372 0.40082306 0.30816135 0.04183159 0.23586988 0.16680706 0.15816157
-6.8364e-41 1.10592e-40 -1.07768e-40 7.627e-41 -4.2929e-41 1.495e-42 -1.696e-42 3.5287e-41
7.3502e-41 -6.4415e-41 1.07529e-40 -6.1063e-41 -3.9742e-41 -9.372e-42 7.4971e-41 4.6642e-41
9.3127e-41 -3.5062e-41 -9.5941e-41 8.4368e-41 3.7221e-41 2.4171e-41 1.1582e-41 8.2545e-41
4.047e-42 -3.3212e-41 -4.863e-41 4.627e-42 -7.723e-41 7.7992e-41 -8.8687e-41 6.1015e-41
0.32131934 -0.37641698 0.11167495 -0.29015595 -0.06128202 -0.7376875 -0.36287892 -0.49571657
-0.35705823 0.29933366 -0.12743486 0.31556824 0.061457213 0.76451147 0.35275713 0.5184948
-0.3587108 0.33784232 -0.123838864 0.31301448 0.059484027 0.70364046 0.33236986 0.50241256
-0.36585107 0.38060358 -0.09342747 0.27258214 0.06158519 0.68105674 0.35372952 0.5166216
-0.3563774 0.390034 0.46288112 0.37489966 0.04843182 0.27234122 0.19264914 0.18303367
-0.3477619 0.37934083 0.45560843 0.36093438 0.04728845 0.25640756 0.18572718 0.17556317
-0.35345164 0.38554588 0.45013657 0.37014386 0.04781565 0.2653071 0.18891075 0.1816024
-0.35772073 0.39150262 0.4597939 0.37945873 0.048595127 0.27147445 0.19340311 0.18538822
00000000: 33a7 9abe 2c70 a63e 1825 d13e e51a 9e3e
00000010: 4525 2c3d ebca 743e 8121 2c3e ba57 213e
00000020: feec 94be cf37 9f3e 0939 ca3e 89a1 943e
00000030: 6a47 263d ca25 623e 5b7d 233e 22a9 173e
00000040: 4c9a 98be 7db3 a33e 9f8d c93e 071b 9b3e
00000050: 340c 293d 110f 6c3e bbde 273e 4aff 1e3e
00000060: 872c 9abe fdcd a53e ae38 cd3e 53c7 9d3e
00000070: 9a57 2b3d e087 713e 78cf 2a3e 1bf5 213e
00000080: 92be 0080 4934 0100 6a2c 0180 9cd4 0000
00000090: ab77 0080 2b04 0000 ba04 0080 5e62 0000
000000a0: e5cc 0000 90b3 0080 bf2b 0100 38aa 0080
000000b0: c96e 0080 201a 0080 fdd0 0000 0582 0000
000000c0: 9a03 0100 bd61 0080 720b 0180 2feb 0000
000000d0: c267 0000 6143 0000 4920 0000 1ae6 0000
000000e0: 480b 0000 955c 0080 9087 0080 e60c 0000
000000f0: 49d7 0080 69d9 0000 39f7 0080 16aa 0000
00000100: f883 a43e bab9 c0be d6b5 e43d 528f 94be
00000110: db02 7bbd 17d9 3cbf 44cb b9be 90ce fdbe
00000120: 56d0 b6be 4342 993e 497e 02be 2992 a13e
00000130: 8fba 7b3d 06b7 433f 959c b43e 13bc 043f
00000140: f1a8 b7be abf9 ac3e 3b9f fdbd 6f43 a03e
00000150: 86a5 733d c821 343f 622c aa3e 1c9e 003f
00000160: d550 bbbe 79de c23e e756 bfbd e38f 8b3e
00000170: c140 7c3d bc59 2e3f 091c b53e 5041 043f
00000180: 1977 b6be 89b2 c73e c1fe ec3e d9f2 bf3e
00000190: 7260 463d 4f70 8b3e d145 453e 2e6d 3b3e
000001a0: d90d b2be f638 c23e 8245 e93e 64cc b83e
000001b0: 89b1 413d da47 833e 442f 3e3e d5c6 333e
000001c0: 9df7 b4be 4566 c53e 4d78 e63e 7f83 bd3e
000001d0: 58da 433d 55d6 873e d271 413e fbf5 393e
000001e0: 2c27 b7be 0873 c83e 1b6a eb3e 6a48 c23e
000001f0: af0b 473d b3fe 8a3e 770b 463e 69d6 3d3e

weight_hh_l4_reverse f4 [16, 4]
-7.89e-42 9.6891e-41 -5.003e-42 8.932e-41 7.5922e-41 -7.8293e-41 5.45e-42 -8.942e-42
6.7282e-41 2.613e-41 6.9384e-41 9.795e-42 -4.715e-42 2.909e-42 1.06e-42 -6.726e-41
2.2293e-41 7.3755e-41 -4.0189e-41 1.986e-42 -5.78e-41 -7.8557e-41 -8.5346e-41 6.6605e-41
-9.1026e-41 -4.4871e-41 8.0301e-41 4.5036e-41 -9.3098e-41 -1.09628e-40 6.4272e-41 3.1172e-41
-4.2305e-41 -9.5123e-41 4.8079e-41 7.7601e-41 -4.075e-42 9.5015e-41 3.9456e-41 7.8739e-41
8.1749e-41 8.6118e-41 -7.26e-41 4.9107e-41 7.6316e-41 5.7333e-41 -4.1544e-41 -9.5043e-41
-9.944e-42 8.1976e-41 1.1049e-40 7.8725e-41 -1.414e-41 -1.3326e-41 6.4161e-41 -9.168e-41
-4.2127e-41 1.0759e-40 -8.67e-43 -3.5622e-41 -2.73e-41 7.2105e-41 1.903e-41 4.03e-42
00000000: fe15 0080 180e 0100 f20d 0080 fdf8 0000
00000010: a4d3 0000 40da 0080 310f 0000 ed18 0080
00000020: 8ebb 0000 d748 0000 6ac1 0000 4e1b 0000
00000030: 250d 0080 1c08 0000 f402 0000 7ebb 0080
00000040: 253e 0000 99cd 0000 0870 0080 8905 0000
00000050: 1fa1 0080 fcda 0080 e9ed 0080 abb9 0000
00000060: befd 0080 157d 0080 d9df 0000 8b7d 0000
00000070: 8503 0180 9931 0180 2ab3 0000 e556 0000
00000080: ee75 0080 2a09 0180 0686 0000 52d8 0000
00000090: 5c0b 0080 dd08 0100 fd6d 0000 7edb 0000
000000a0: e2e3 0000 10f0 0000 61ca 0080 e488 0000
000000b0: bdd4 0000 d29f 0000 cf73 0080 f108 0180
000000c0: b81b 0080 84e4 0000 0034 0100 74db 0000
000000d0: 6b27 0080 2625 0080 dbb2 0000 91ff 0080
000000e0: 6f75 0080 eb2b 0100 6b02 0080 4d63 0080
000000f0: 1a4c 0080 00c9 0000 0c35 0000 3c0b 0000

bias_ih_l4_reverse f4 [16]
0.57022107 0.6096588 0.56881416 0.60002106 -6.8041e-41 -7.19e-41 -2.0239e-41 -2.427e-42
-0.36501092 0.36351395 0.27668014 0.10028785 0.6566606 0.6427012 0.5680562 0.633494
00000000: 02fa 113f 9912 1c3f ce9d 113f fb9a 193f
00000010: acbd 0080 6ec8 0080 6b38 0080 c406 0080
00000020: b6e2 babe 801e ba3e 05a9 8d3e b763 cd3d
00000030: e91a 283f 1188 243f 226c 113f aa2c 223f

bias_hh_l4_reverse f4 [16]
0.5798304 0.60118127 0.5983365 0.57007563 6.6209e-41 9.0125e-41 -1.105e-41 -5.71e-42
-0.29803512 0.28560498 0.39957127 0.5571845 0.6137251 0.6578337 0.70721817 0.6346157
00000000: c46f 143f 04e7 193f 952c 193f 7af0 113f
00000010: 90b8 0000 3bfb 0000 ce1e 0080 eb0f 0080
00000020: 0f98 98be d13a 923e 9b94 cc3e a5a3 0e3f
00000030: 171d 1d3f ca67 283f 400c 353f 2d76 223f

weight f4 [1, 8]
-4.02874 3.7740142 4.052304 -4.111215 -3.2586272 3.1421218 3.1597996 3.271871
00000000: 70eb 80c0 7389 7140 79ac 8140 138f 83c0
00000010: 598d 50c0 8618 4940 283a 4a40 5666 5140
