model/CNN_Trans_1_0_6.pt (torch, 496883 bytes, 39 tensors)

weight f4 [4, 1, 1, 1]
000000 d2 32 8a bd 42 db ae 3b 66 e1 6b 3a d6 48 4f 3e
       -0.067479745 0.005336196 0.00089981256 0.20242628

bias f4 [4]
000000 43 8a 16 bf ac 8d bf be 4c 97 1e 39 f1 67 92 bf
       -0.5880472 -0.37412775 0.00015124417 -1.143797

weight f4 [4, 4, 3, 3]
000000 c1 7c 49 be 86 c6 95 be b2 72 9d be a6 af 80 be
       -0.19676496 -0.29253024 -0.30751568 -0.2513401
000010 7b 93 22 3e 7d 37 03 be ec ee 7c be c7 f0 a1 bd
       0.15876572 -0.12814136 -0.24700516 -0.07907253
000020 b9 19 9c bd 5d b5 1c bd de 65 e8 3c 84 99 2a be
       -0.07622094 -0.0382589 0.028368887 -0.16660124
000030 b5 22 1a be 78 e1 05 3e 86 d9 9c bd f6 95 05 bd
       -0.15052302 0.13074291 -0.07658677 -0.032613717
000040 54 1c 8c 3d e9 77 ad be 51 cf 36 bd 21 b8 3f 3c
       0.06841341 -0.33880547 -0.044631306 0.011701615
000050 d5 c8 bf bc 77 b8 4a 3d 7a ab f5 bc 5e 84 a2 3c
       -0.023411194 0.049492326 -0.029988993 0.019838508
000060 9b e2 ce bb 96 a2 ac 3b 47 85 15 3c e6 05 d1 be
       -0.0063136346 0.005268405 0.009126014 -0.40824813
000070 00 28 d0 3c 8f 84 01 3e 53 ec a8 be 2b 8f 51 be
       0.025409698 0.12648223 -0.329928 -0.2046477
000080 91 20 aa bd 11 65 79 be a5 35 d0 bd 6d 3f 87 3d
       -0.08306993 -0.2435496 -0.10166482 0.066038944
000090 9e f6 1a bc 73 4b 47 bd 46 ba e9 bd ce 27 2a 3c
       -0.009458212 -0.04865594 -0.11412482 0.010385467
0000a0 13 cf 4b 3d 50 56 06 3e ee e8 c0 3e 17 35 12 3f
       0.04975803 0.13118863 0.3767771 0.5711226
0000b0 a0 8d 02 3f c7 e8 7c 3d b8 fe ef bd 4c 86 dd bd
       0.5099735 0.06174543 -0.117185056 -0.10816631
0000c0 cd 56 e3 3d 89 bd 96 3c 83 2c 61 bd b4 1d 81 3e
       0.1110054 0.018400924 -0.05497409 0.25217974
0000d0 f2 8f 34 3e d6 47 65 3e 9a 17 fb 3b df 10 1e 3a
       0.17633036 0.22390684 0.0076627256 0.00060297357
0000e0 65 7a 62 bb c8 31 83 3b d6 8b d3 bb 6e 61 80 3b
       -0.0034557816 0.004003737 -0.0064558787 0.0039178645
0000f0 bd 77 61 bb ed 02 0e ba ac 89 28 3b 20 aa 4e 3c
       -0.0034403645 -0.0005417306 0.0025716824 0.012613803
000100 a3 b2 29 3e 66 df f2 bc e2 7d c0 bc 60 02 3d be
       0.16572051 -0.02964754 -0.023497526 -0.18457937
000110 eb 16 1b be bf 2c 5f 3e 31 24 4c 3d eb 52 6d be
       -0.15145461 0.21794413 0.049839202 -0.23176162
000120 32 a7 7f be 6a 7b c8 bd 27 e5 2d be 76 bd 94 be
       -0.24966124 -0.09789164 -0.16981946 -0.29050797
000130 1f 82 00 be 1b 61 97 3d 5c 0b 74 be fc a1 3f 3e
       -0.12549637 0.07391568 -0.23832458 0.18714136
000140 a5 c2 55 3d ae 89 aa bd 3b c9 ca ba 51 2e 1d bd
       0.05218758 -0.083270416 -0.0015471348 -0.03837425
000150 d1 ba cf bc b8 ec 37 3b 90 85 58 3d ec 31 99 bd
       -0.025357636 0.002806468 0.05286175 -0.07480225
000160 67 c2 a3 3d 54 72 ff 3c 36 15 f1 3b 8f d5 b4 3a
       0.07996064 0.031182446 0.007357265 0.0013796556
000170 46 37 ba ba c0 7d 1c 3b c1 4e 41 bb 4d 5f e1 bb
       -0.0014207147 0.0023878664 -0.0029496404 -0.006877816
000180 52 71 35 b9 7b 80 9c bb 82 30 94 bb 8f c1 69 be
       -0.0001730372 -0.0047760583 -0.004522384 -0.22827743
000190 0a 15 b9 be 56 42 ce bb e5 6f 00 3e 83 27 c0 3d
       -0.36148864 -0.006294529 0.12542684 0.09382536
0001a0 b3 43 d3 3c 54 a8 11 3e 75 65 39 be b8 5e 5e bd
       0.025789117 0.14224368 -0.18105109 -0.05428955
0001b0 53 04 85 be 95 6e 97 3d 3a 67 25 3e 69 b1 e9 be
       -0.25979862 0.07394139 0.16152659 -0.45643166
0001c0 80 45 02 3e 3a c3 50 3d f5 49 36 be 84 db 09 3e
       0.12721825 0.050967433 -0.1780165 0.13462645
0001d0 60 d3 a3 3c 92 41 f6 be 68 54 30 3e 1f a2 d4 3d
       0.019998252 -0.480969 0.17219698 0.10382485
0001e0 77 48 10 bf 1b 2f e3 3c d2 20 85 3e d8 c1 98 be
       -0.5636057 0.027732423 0.26001602 -0.2983539
0001f0 85 98 47 bd 5e f6 64 3e 37 4d 0e 3c 4d b3 74 bc
       -0.04872944 0.22359607 0.008685402 -0.014935327
000200 15 05 55 3c 06 7e 92 3c df af 73 bb c5 76 5a bc
       0.0130017 0.017882358 -0.0037183685 -0.013333981
000210 d6 41 8c bb f5 a8 b0 bb 2a ab 4f 3c 14 2b 3a 3e
       -0.004280309 -0.005391235 0.012675086 0.18180496
000220 1b 08 72 be 8b a2 c7 bd b6 68 da 3e 37 be 08 bd
       -0.23635904 -0.097477995 0.42658013 -0.033384528
000230 f0 a9 2e 3e 44 d5 17 be 80 88 3f bd 08 ba 24 3a
       0.17057014 -0.14827448 -0.046761036 0.00062838243

bias f4 [4]
000000 84 4a 82 39 8b 4b 0f b8 f2 cd ca b9 dc 0b ad 39
       0.0002485105 -3.416421e-05 -0.00038681884 0.00033005967

weight f4 [4]
000000 18 ed 7f 3f 9f c5 65 3f a1 e6 32 3f a9 a3 5c 3f
       0.9997115 0.8975467 0.6988316 0.86187226

bias f4 [4]
000000 d8 d8 5a 3e 15 a4 c9 be 84 78 0b 3e d1 ed 2f be
       0.21371782 -0.39382997 0.13620192 -0.17180564

running_mean f4 [4]
000000 d7 62 52 3f 4c 87 07 c0 9a 59 24 3f bd 6a 3f 3f
       0.8218207 -2.1176329 0.6419922 0.74772245

running_var f4 [4]
000000 4b 1c 33 3f 97 1a 41 3f 04 75 df 3d ca 7e b6 3e
       0.69965047 0.754312 0.10910991 0.35643607

weight f4 [4, 4, 3, 3]
000000 aa 49 03 3d f6 76 af bd 68 c0 c9 bd 04 f3 32 bd
       0.032052673 -0.08567612 -0.09851152 -0.04368879
000010 dd af 26 be ba 48 19 3e 0c fe 47 3e ac 5a 8a be
       -0.16278024 0.14969149 0.19530505 -0.27022302
000020 7b 45 29 3d e7 98 02 bc ad 92 77 3d 83 61 ef 3d
       0.041326027 -0.007971025 0.060442615 0.11688521
000030 e3 de ca 3d d4 6e 3f be e6 73 87 be a3 36 4d 3e
       0.099057935 -0.18694621 -0.2645561 0.20040374
000040 a1 a5 82 3e cf 86 1b 3e 0f c3 23 be ed f4 03 be
       0.2551699 0.15188144 -0.15992378 -0.128864
000050 68 e0 41 bd bc 44 3a 3e 50 91 17 3c 98 5b 2d 3e
       -0.04733315 0.18190283 0.009250954 0.16929471
000060 fc 11 50 ba 94 c6 31 be 03 45 56 3e f2 3b 30 3c
       -0.000793725 -0.17360908 0.20924763 0.01075648
000070 a8 93 b8 3e c1 14 32 3d 18 ec 28 be b1 bd c8 3e
       0.36050153 0.043476824 -0.16496313 0.39207223
000080 46 2b 28 3e 24 9c 56 be 02 29 c4 bd ba 1c 8d bd
       0.16422758 -0.20958 -0.09578134 -0.06890245
000090 75 9d 9a bd c8 1f 72 3d 1f 41 bf 3d 0d e6 3c 3e
       -0.07549564 0.05911234 0.09338593 0.18447132
0000a0 8a e4 8d bd 46 46 4c 3d d0 8a 80 3e b8 dc d7 bc
       -0.06928356 0.049871705 0.25105906 -0.026350364
0000b0 44 29 31 3e 46 ac 80 3d 73 4f ad 3d 39 22 0f 3d
       0.17300898 0.062828586 0.08462419 0.034944747
0000c0 84 6e 9c be b9 02 61 be 3b 52 32 be 6c b7 8e be
       -0.30553067 -0.21973695 -0.17414181 -0.27874315
0000d0 e4 fd 67 be 53 f9 ab bd d6 ad bb be fe 9a 4c 3c
       -0.22655445 -0.08397164 -0.36656064 0.012488125
0000e0 03 85 e6 bd 94 f4 13 3e fa ed 97 bd 5c 4a 50 bc
       -0.11255839 0.14448768 -0.07418437 -0.012713041
0000f0 f0 08 84 3d 6a 59 84 bc 04 30 22 bc 79 08 76 3d
       0.06447017 -0.016155917 -0.009899143 0.060066674
000100 40 dd 07 3e 6d ee 8e 3d d4 1c cf bd 18 ff ed 3e
       0.13267994 0.0697907 -0.101129204 0.46483684
000110 11 df 64 3e 3a 4b 57 be f9 0e 14 3e f2 04 8f 3c
       0.22350718 -0.2102479 0.14458837 0.017458413
000120 ac 45 0e be 92 6c fd 3e 84 f0 26 3d 89 0b 92 bd
       -0.13893765 0.49496895 0.040756717 -0.071311064
000130 83 09 46 3e 02 69 d8 3d 52 d7 1e be dd 00 1b 3e
       0.19339566 0.10566904 -0.15511826 0.15137048
000140 96 92 de bd 18 ad ac 3e 2d 80 c5 3d 62 47 85 bd
       -0.10867803 0.3372581 0.09643588 -0.06507756
000150 e5 36 6b bc 9f a0 5f be 59 6a a3 3b a6 22 9a be
       -0.01435635 -0.21838616 0.004987043 -0.3010456
000160 d3 cc 38 be b9 9b d0 bd a5 12 2c 3e 3b 65 3c be
       -0.18046884 -0.10185952 0.16803987 -0.18397991
000170 dc d6 82 bd 69 87 c4 3d bb 23 6c be 64 a3 3d be
       -0.063886374 0.0959614 -0.23060505 -0.1851936
000180 3e de 0c 3e 0b 6a bd 3d 79 c0 a5 3e 37 f6 97 3d
       0.13756654 0.09248742 0.32373407 0.07420009
000190 59 75 bd 3c f0 06 31 3d 7a 30 7b 3d 40 43 f6 bd
       0.023127245 0.043219507 0.061325528 -0.12024546
0001a0 3b 89 36 bd 3e f8 9e 3d a9 2b 6b bd d9 4c 16 3d
       -0.044564467 0.07762192 -0.057414684 0.03669438
0001b0 af 8e 27 3d 01 d9 d2 3e 51 52 85 3d 60 0a 12 be
       0.040907558 0.41181186 0.06509841 -0.1426177
0001c0 68 ed a3 3e 74 17 c5 3d 0c c9 ec bd c6 db 5e 3e
       0.32017064 0.09623614 -0.11561784 0.21763524
0001d0 73 23 79 be 52 e5 b7 3d b2 fe 4d 3e 56 7a c9 3d
       -0.24329929 0.08979286 0.2011669 0.09837787
0001e0 3b 17 12 be 76 ff 76 3d 7c 92 45 3d d9 e9 97 be
       -0.14266674 0.06030222 0.0482354 -0.296706
0001f0 f9 8e 12 bc c5 06 d6 bb 65 65 df 3d 4f 14 4f be
       -0.00894522 -0.0065315687 0.10908011 -0.20222591
000200 56 79 9d 3d 2a e1 cb bd b2 08 24 be 46 df 2e be
       0.076891586 -0.09955056 -0.16018942 -0.1707736
000210 45 68 90 bb e8 09 87 bc ef d0 48 3e b0 6e 7a 3d
       -0.004406961 -0.016484216 0.19610952 0.061140716
000220 91 c4 00 be 89 e1 36 bd b2 b2 26 3d 41 bd 09 be
       -0.12574984 -0.04464868 0.04069776 -0.13451101
000230 97 b5 49 3e 57 ab 5d 3e 3f ea 22 bd 00 40 d0 bd
       0.19698177 0.21647392 -0.039774176 -0.10168457

bias f4 [4]
000000 6e 29 dc 39 68 27 43 b9 82 10 b6 b9 cd 7c 30 3a
       0.00041992537 -0.00018611329 -0.00034726044 0.0006732464

weight f4 [4]
000000 e1 72 e7 3f 79 10 ca 3f 27 11 d2 3f 22 91 df 3f
       1.8081933 1.5786277 1.6411484 1.7466166

bias f4 [4]
000000 0d 82 ba 3e 4b f0 f9 3e ed 5a 6f 3f 8e b1 04 3f
       0.36427346 0.4881614 0.93498117 0.51833427

running_mean f4 [4]
000000 e4 25 54 3d c2 cd 43 3e 25 1d 64 3e 5d df 82 3e
       0.051793948 0.19121459 0.22276743 0.25561038

running_var f4 [4]
000000 21 e9 cc 3d 40 66 1b 3e ce ee 17 3e 32 79 00 3e
       0.10005403 0.15175724 0.1483719 0.12546232

weight f4 [1, 4, 1, 1]
000000 62 d7 7e 3f 0c a1 37 3f 89 5b 93 bf f5 ef 88 bf
       0.995474 0.71730113 -1.1512309 -1.0698229

weight f4 [1, 70]
000000 77 37 97 b8 59 2a 80 38 c7 9d 4a 38 e0 3f ae 38
       -7.210572e-05 6.1114035e-05 4.8307495e-05 8.308864e-05
000010 e9 16 d5 b8 42 bb 0f 38 b6 50 d8 b7 1c 3d 0d b8
       -0.00010160899 3.4268254e-05 -2.578679e-05 -3.3673932e-05
000020 a1 6b 80 38 41 ee 0b 37 59 7e 9e 37 a4 6e 37 b8
       6.123563e-05 8.340518e-06 1.8893903e-05 -4.3733642e-05
000030 c5 c0 e8 b7 3a 12 14 b6 7d 85 15 b8 5b 35 85 36
       -2.774632e-05 -2.2064328e-06 -3.564869e-05 3.9699203e-06
000040 7d 30 89 37 a1 60 8b 35 46 df f2 b8 7d 93 2d 39
       1.6354252e-05 1.038443e-06 -0.00011581047 0.0001655351
000050 28 58 be 36 4c b7 91 37 96 c5 82 37 29 5d bb 38
       5.672704e-06 1.7370701e-05 1.5589216e-05 8.934207e-05
000060 b9 b2 23 37 ee 85 19 b9 27 b8 a9 36 0e 3c 81 b8
       9.757169e-06 -0.0001464111 5.0580306e-06 -6.1623854e-05
000070 ca f4 78 b9 59 f3 ca b6 e9 2c dd 37 df d3 8b b8
       -0.00023742314 -6.0483985e-06 2.6366166e-05 -6.6675006e-05
000080 47 3f 87 b8 9e 0f f1 36 65 25 de 37 db 1b a3 38
       -6.449088e-05 7.184178e-06 2.6481875e-05 7.777634e-05
000090 b8 a7 12 b8 c9 69 a6 38 15 11 6e b8 fe de 23 38
       -3.4965313e-05 7.935201e-05 -5.675953e-05 3.9069906e-05
0000a0 bb 5f a0 38 34 1d f0 b4 cd 6d 8e b8 11 3e c4 b8
       7.647226e-05 -4.4724732e-07 -6.7915396e-05 -9.357569e-05
0000b0 be e0 1a b9 83 fa f7 b6 03 8c b6 b8 20 2f 80 37
       -0.00014770307 -7.390337e-06 -8.7045155e-05 1.5280733e-05
0000c0 6a f0 56 38 22 65 6c 36 29 78 21 b9 ba 84 28 b9
       5.124548e-05 3.5225607e-06 -0.0001539892 -0.00016071173
0000d0 51 1c 90 b7 40 7d db b7 75 f7 89 b8 6f 66 8d b8
       -1.7179324e-05 -2.6165158e-05 -6.5787615e-05 -6.742484e-05
0000e0 41 a7 3d 39 31 3f 38 b9 98 f1 b6 36 94 c5 3f b9
       0.00018086752 -0.00017571148 5.452148e-06 -0.00018288783
0000f0 94 bd 96 38 f3 3e 20 b9 f9 72 55 38 dd 69 c0 36
       7.187869e-05 -0.0001528224 5.0890234e-05 5.73437e-06
000100 eb 3a 21 bb f0 ad f4 bb 09 c1 4e ba fd ab f4 3b
       -0.0024601768 -0.007467024 -0.0007887041 0.0074667917
000110 81 bf 66 b9 0a 3b 56 3c
       -0.0002200585 0.013075599

weight_ih_l0 f4 [128, 600]
000000 2a 20 a0 39 ee a9 05 b9 79 cd 3a 3b d6 75 6d b8
       0.00030541542 -0.00012747172 0.002850382 -5.6614947e-05
000010 9e 02 ea b9 5e 63 7c 39 8b e4 c0 38 cf 85 a5 b8
       -0.00044633908 0.0002406961 9.197843e-05 -7.892737e-05
000020 1a 8d ad 3a ab 99 1f 3a 12 4f 8b 3b 3c c4 96 3b
       0.0013240904 0.0006088267 0.0042513693 0.0046010297
000030 f5 14 ea 3b ad e8 04 3c 9e 90 d2 3b bf 09 07 3c
       0.0071436116 0.008112115 0.006425931 0.00824207
000040 ca d4 98 3b 3d 41 9a 3b 17 16 a9 ba eb 2b 17 3b
       0.0046640383 0.004707484 -0.001290026 0.0023066949
000050 a5 4f 1c bb 3d 51 25 bc 6e 3a e4 3a b3 94 08 bb
       -0.0023851183 -0.0100901695 0.0017412433 -0.0020840585
000060 17 c9 bb ba 64 9c 38 bb 7c 14 7e ba 08 9d 46 bb
       -0.0014326897 -0.0028169388 -0.00096923835 -0.0030306
000070 6a c8 3a 3c 10 cc 01 3b 45 0c 96 ba d1 4b 1d bc
       0.0114003215 0.0019805469 -0.0011447748 -0.009600596
000080 bf d8 0c bc 8b 7e 89 bb 3d 7e 7c bb 25 22 49 bb
       -0.008596598 -0.0041959933 -0.0038527392 -0.0030690518
000090 60 09 44 3b fc 37 bc b9 32 8a 32 3c 76 67 1b 3c
       0.0029912814 -0.00035899866 0.010897206 0.009485116
0000a0 1d c6 a5 bb 70 62 12 bc df b4 a4 3b d4 cd 9a bb
       -0.0050590173 -0.008934602 0.0050264443 -0.0047242437
0000b0 82 8d c5 bb b3 e8 fe bb 68 2b 0e bb 51 17 28 bc
       -0.006028832 -0.0077792048 -0.0021693353 -0.010259465
0000c0 6f 8c 31 3c bc a8 52 3b e6 14 02 3b a3 d1 c5 bb
       0.010836705 0.003214403 0.0019848882 -0.0060369535
0000d0 07 c3 6c bb 97 42 42 bb 08 2a 63 3b c2 fd b8 3b
       -0.0036126988 -0.0029641741 0.0034662504 0.0056454847
0000e0 b3 88 04 3c 00 db 3a 3c 51 7c 7c 3b 10 52 9c 3b
       0.008089232 0.011404753 0.0038526247 0.004770525
0000f0 51 a8 97 bb 5f 08 ca bb fe 69 be 3b 00 ac c7 38
       -0.004628219 -0.0061655487 0.005810975 9.521097e-05
000100 31 6e 25 bc a9 aa 42 bc cc 33 ef 3a 01 84 2a bb
       -0.010097072 -0.011881509 0.001824969 -0.0026018622
000110 72 6a 0c 3c d3 44 1b 3b bb be 48 3a 22 35 a8 bb
       0.0085703 0.0023692145 0.00076578156 -0.005133287
000120 52 86 62 bb 60 ad 61 bb 5a 99 ec 3a 80 74 f0 39
       -0.0034564924 -0.0034435615 0.0018051073 0.00045863166
000130 95 a6 b9 ba cf a3 de ba 1f f0 d4 3a 9d 86 02 39
       -0.0014164025 -0.0016986075 0.0016245878 0.00012447913
000140 2d ba d7 bb ee 87 2a bc 08 30 dd 3b 66 84 95 3a
       -0.006583473 -0.010408385 0.0067501105 0.0011407256
000150 33 2e e4 bb f2 83 47 bc ca 41 f5 3a c5 4b a5 3b
       -0.006963515 -0.012177454 0.0018711623 0.005044433
000160 8a fa 2a 3c f8 fc 58 3b 58 e9 9f ba 30 96 01 bc
       0.01043571 0.0033109765 -0.0012200279 -0.007909343
000170 a5 46 b8 bb 9d a9 b1 bb 9e f1 bb 3a 12 38 84 bb
       -0.005623656 -0.005421831 0.0014338975 -0.0040350044
000180 0b 82 45 bb d9 a5 93 b9 88 05 b8 3b 3c 42 33 ba
       -0.0030137326 -0.0002816159 0.0056158938 -0.0006838178
000190 20 7d 14 bc 03 b7 5a bc 42 0b 2f 3c ff 2a d8 3b
       -0.009063035 -0.013349297 0.010683836 0.0065969224
0001a0 70 29 dd bb 48 44 77 bc ff 49 22 bc 50 31 6d bb
       -0.0067493245 -0.015091963 -0.009905337 -0.0036192723
0001b0 d2 e4 19 3c 6f 9b d9 3b 7d 6b 26 3b 5d 53 e6 bb
       0.009392934 0.0066408436 0.0025393658 -0.0070289806
0001c0 e0 e9 89 bb 4d a5 d5 bb fc 44 27 3b 5d 9f 89 3a
       -0.0042087883 -0.0065199495 0.0025523296 0.0010499764
0001d0 3d 83 2a ba 99 23 b0 3a 8b b2 09 3c 86 53 03 3b
       -0.00065045414 0.0013438343 0.008404384 0.0020038798
0001e0 d4 32 16 bc 45 aa 7f bc 79 4f 66 3c c4 b0 94 3c
       -0.009167392 -0.01560456 0.014057034 0.018150695
0001f0 a8 1c e0 3b 94 aa 99 ba 89 ff d3 bb be c4 9a bb
       0.0068393536 -0.001172381 -0.006469671 -0.0047231605
000200 36 75 1e 3c ec e3 c3 3b e3 de 7f 3b 26 c5 4a bb
       0.0096715 0.005978098 0.0039042763 -0.0030940264
000210 e9 70 a7 ba c5 6c 20 bb d6 33 21 3b f6 2d 92 3b
       -0.0012774739 -0.0024478894 0.0024597547 0.0044610454
000220 5f 2c 41 3b 69 86 96 3a f5 fe 01 3c c7 5a d5 3b
       0.002947591 0.0011484149 0.007934322 0.0065110656
000230 75 6f 02 bc e5 a0 c4 bc 04 b5 97 3a 30 9a 32 3c
       -0.007961144 -0.024002502 0.0011574333 0.010901019
000240 a8 28 f9 3b 67 ec ac 3a ed 74 89 bb f2 fb 23 bc
       0.0076037236 0.0013193012 -0.004194847 -0.010008799
000250 b3 f2 7d 39 6c 0f 6b 3a e3 4b c0 3b 73 9f b7 ba
       0.00024218373 0.00089668366 0.0058684214 -0.0014009312
000260 7c a0 8f b9 84 70 72 3b 84 5e 8c 3b 78 2b 76 b9
       -0.00027394656 0.0036993334 0.004283728 -0.00023476582
000270 89 8c 4e 3b 01 72 47 bb d0 25 c0 bb 56 79 84 3b
       0.003151687 -0.0030432942 -0.0058638826 0.0040427847
000280 88 6c 18 bc 72 b5 df bc bd 15 f7 bb 36 bc 14 3c
       -0.00930322 -0.0273082 -0.007540433 0.009078076
000290 6f 96 f7 3b 3b fe 28 ba e9 1a ea ba dc 33 44 39
       0.007555775 -0.00064465747 -0.0017860803 0.00018711336
0002a0 ef c8 0d bb 9e 40 ed bb 7a 45 b3 ba d8 bc e3 bb
       -0.0021634658 -0.007240369 -0.0013677322 -0.006950002
0002b0 87 0b 4c bc 3a 30 3d bc e8 91 9f bb 92 7b e0 bb
       -0.01245392 -0.011547143 -0.0048696883 -0.006850668
0002c0 87 42 d4 ba 00 15 86 bb cc ed 08 bc 33 de 1d b8
       -0.0016194143 -0.004091859 -0.008357476 -3.7638656e-05
0002d0 16 86 ee bb 06 05 b7 bc b2 b7 ca bb b9 1f 45 3b
       -0.007279168 -0.022341263 -0.006186449 0.0030078723
0002e0 82 d9 39 3a 42 9d 9f bb 6e 66 dc bb 7f 87 58 bb
       0.0007089601 -0.0048710415 -0.0067260778 -0.0033039746
0002f0 dc a6 5a ba a3 28 27 bc 9e 79 f6 bb 26 77 56 3b
       -0.0008340904 -0.01020256 -0.007521822 0.0032724827
000300 b2 ad 16 bb aa 0c aa ba 3d cf f8 ba cd d9 5f bb
       -0.0022991714 -0.0012973745 -0.001898266 -0.003415692
000310 3b ff 08 3b 22 ed 48 3b 22 d5 15 bb 87 14 4c b9
       0.0020904082 0.003065892 -0.0022862633 -0.00019462603
000320 ed b7 5d bb 13 24 82 bc bf 77 13 bb 6f f3 4d b7
       -0.0033831552 -0.015886342 -0.0022501794 -1.2275631e-05
000330 53 91 84 ba 86 25 c6 3a 6c c2 ce ba 62 f0 2a bb
       -0.0010114111 0.0015117384 -0.0015774495 -0.002608322
000340 c1 e2 93 ba 21 5c 9a bb 15 8b b1 bb 82 fc c7 3b
       -0.0011282788 -0.0047106897 -0.005418191 0.0061030993
000350 93 03 c6 3b 73 24 05 3c 67 36 0a 39 85 35 1e bc
       0.0060429065 0.008126366 0.00013180972 -0.009656315
000360 4c 04 7a bb 41 90 f1 3a 1b 78 fb 3a f9 52 d4 39
       -0.0038149534 0.0018429832 0.0019185574 0.0004049761
000370 ef d5 a6 bb 29 05 10 bc 9e 6f 82 3b ba 9b d1 b9
       -0.005091421 -0.008790293 0.003980591 -0.00039979612
000380 01 b6 6c bb 0b ea 14 3b ff bb 8c 3b 21 cb 23 bb
       -0.0036119225 0.0022722508 0.004294872 -0.00249929
000390 c7 b2 d0 bb 19 26 9a bc c2 1b a5 bc aa b5 0a bc
       -0.006368968 -0.018816995 -0.020154838 -0.008466164
0003a0 2d cd d3 bb 7e 53 2e bb 3b ee b5 bb b1 88 c8 bb
       -0.006463668 -0.0026600058 -0.005552081 -0.0061198105
0003b0 38 8d 1e bb df 92 76 3a 26 1f ea 3b 96 c4 55 3b
       -0.002419306 0.0009406041 0.0071448265 0.0032618395
0003c0 45 90 41 bc 9d e3 88 bc 18 49 46 b9 07 01 03 3b
       -0.011814182 -0.016710097 -0.00018909981 0.0019989626
0003d0 6b 3c f8 ba e0 06 21 ba c4 94 70 3b 8c 0a 4e ba
       -0.0018938904 -0.0006142687 0.0036709765 -0.0007859848
0003e0 02 5b ab bb 6d d2 ae bc 66 f8 ba bc 31 8e 83 bc
       -0.005229355 -0.021340573 -0.022823524 -0.016059013
0003f0 da 60 7f ba 6e be 58 bb 26 8a ad ba c8 a7 a3 3a
       -0.000974191 -0.003307249 -0.0013240024 0.0012485916

weight_hh_l0 f4 [128, 32]
000000 ec 7a 11 bc 17 43 d5 bd c8 3f fe bc f3 b4 b6 bd
       -0.0088794045 -0.10413187 -0.031036273 -0.08921232
000010 53 61 10 3e 70 63 a8 bb 22 c0 1a 3d ac 2e 81 3e
       0.14099626 -0.005138807 0.03778089 0.2523092
000020 16 ae 4e bd 28 fe 24 bb b0 c2 06 3e 9b a9 d9 3c
       -0.05045899 -0.0025175903 0.13160205 0.026570132
000030 ba 2e 21 3c 6d 7c be bb 99 df 1e 3c ec ae 32 3a
       0.009837801 -0.0058131726 0.0096968645 0.00068162265
000040 61 33 d8 bc c1 fb 8d 39 b0 0e 46 3d d3 b5 3c 3f
       -0.026391687 0.00027081187 0.04835385 0.7371494
000050 c0 a6 f7 bb b4 fe 22 3c 2f 52 44 3d b2 90 a4 3c
       -0.00755772 0.009948421 0.04792994 0.020088527
000060 4f 88 ce bd ee 04 11 3e a7 8e 3b ba 2e 9a 92 3d
       -0.100845926 0.14162037 -0.0007154741 0.07158314
000070 c4 41 56 3e 09 ec 00 3e 51 da 2a be 5e 87 55 bd
       0.20923525 0.1259004 -0.16684844 -0.05213105
000080 10 b2 4c bc 1f 5d 5b bd dc 44 a1 bc 94 4b 4a bd
       -0.012493625 -0.053555604 -0.019686155 -0.049388483
000090 0f d5 b9 3d 72 c2 e6 3a cd b5 3f 3d af bd 12 3e
       0.09073841 0.0017605557 0.046804238 0.14330171
0000a0 f1 77 21 bd 73 94 47 bc 1e ab 1f 3e cb 6b 3a 3d
       -0.039421026 -0.012181389 0.1559262 0.045512956
0000b0 03 58 1f 3c af db ba b9 22 8b 9d 3c 41 dc bb b7
       0.0097255735 -0.00035640362 0.019231383 -2.23947e-05
0000c0 f3 84 ae bc f9 85 d5 b8 48 0d 5c bd cb 21 16 3f
       -0.02130363 -0.00010181586 -0.053723603 0.58645314
0000d0 9e 5d e2 ba a6 f6 aa 3c f9 99 aa bb b4 d1 99 3d
       -0.0017270332 0.020869564 -0.0052063433 0.07510701
0000e0 bb d6 97 bd 0d 5e ba 3d 4c 7e e3 ba 5b 80 79 3d
       -0.074140035 0.0909997 -0.0017356365 0.060913425
0000f0 ac f0 1d 3e 30 66 c3 3d 89 79 04 be 27 a6 f6 bc
       0.1542384 0.09540975 -0.12936987 -0.030108524
000100 12 41 84 b9 09 df d4 39 c0 38 16 bb c9 83 b4 bb
       -0.00025225483 0.00040601965 -0.002292201 -0.005508874
000110 a8 72 29 3c f5 74 17 bb 73 f9 17 3b cd 42 ea b9
       0.010342278 -0.0023110483 0.0023189455 -0.00044681728
000120 97 11 c1 ba 6e 7c b7 ba 7a 19 46 3b b4 56 45 3b
       -0.0014729974 -0.0013998875 0.0030227588 0.0030111494
000130 0b 62 b2 3b 0a 64 12 b7 0b 76 68 3b 13 f2 b8 38
       0.0054438165 -8.72557e-06 0.003547075 8.8188935e-05
000140 69 5e 3c ba f3 d4 cf 39 b2 4a 48 bb 26 eb 37 3d
       -0.0007185699 0.00039640776 -0.00305621 0.04490199
000150 d1 44 cf 39 d7 86 2d 3a b6 e9 33 36 da ba 3b ba
       0.0003953339 0.0006619519 2.6809116e-06 -0.0007161327
000160 98 c8 d1 3a d3 45 33 3c 48 74 a7 b9 92 a5 af 3b
       0.0016005216 0.01094194 -0.00031939358 0.0053603137
000170 a9 28 43 3c 13 82 0a 3c 16 c5 20 bc 4d cf e2 ba
       0.01191155 0.008453864 -0.009812614 -0.0017304212
000180 3c 02 ac 3c 2f 7c 58 3c 59 14 29 3a 46 9b ad ba
       0.02099716 0.013213201 0.00064498704 -0.0013245128
000190 1a 6d 0f 3c 07 6f 00 3b 6c e1 34 3b 02 33 78 bc
       0.008754039 0.0019597427 0.0027600182 -0.01514888
0001a0 24 2e 91 bb 3e ec d6 3a 14 0e 52 3c 00 f8 72 3b
       -0.004430549 0.001639731 0.012820739 0.003707409
0001b0 a1 f3 b0 3c 88 a0 69 ba b1 85 9a 3a 35 b8 02 3a
       0.021600546 -0.00089121656 0.0011789111 0.00049865554
0001c0 59 3a 21 bb 9b 2f 98 b9 7e e1 3c 3c cd f2 90 3c
       -0.0024601428 -0.00029027168 0.011528371 0.017693901
0001d0 b2 6d 90 ba 75 61 26 3b ab 90 00 bd 05 f4 f9 bc
       -0.001101902 0.0025387679 -0.031387966 -0.030511865
0001e0 43 43 95 bc 21 94 1a bb 58 3a 93 3a 8e 50 dd 3b
       -0.01822055 -0.0023586827 0.0011232598 0.0067539876
0001f0 a7 a3 8a 3b 8d 74 11 3b 48 5a 78 bc d4 97 46 3c
       0.0042309347 0.0022194714 -0.0151582435 0.01212116
000200 53 0c 49 3d c3 f2 03 3c cc 98 d2 bb f9 32 17 bd
       0.04908402 0.008053484 -0.006426906 -0.036913846
000210 6f c2 9a 3d a4 af 4b 3b 3e 61 b4 3b be 26 49 3c
       0.075566165 0.0031080032 0.0055047562 0.012277303
000220 dc b0 bf bc 82 1e 4f 3c c6 8a 7e 3d 4a d5 6b 3c
       -0.023399763 0.012641551 0.062144063 0.014394114
000230 4a ac 8a 3d ce 26 cb bb 8a 22 1c 3c e8 21 ba 3a
       0.06771143 -0.0061996942 0.009529719 0.0014200779
000240 99 7a ba 39 48 81 35 3a d5 5e 69 3c 0d dc 45 3e
       0.00035568027 0.00069238665 0.014243801 0.19322224
000250 57 7c bc bb 11 b9 45 bc e2 fd 37 bd 67 d8 5a bd
       -0.005752127 -0.012068049 -0.044919856 -0.053429034
000260 53 12 30 bd e8 8e e3 3c 56 6f 9a 3b ce e7 30 3d
       -0.042986225 0.027778104 0.0047129793 0.043189816
000270 bf 89 97 3d 80 87 fb 3c 29 ff a5 bd c2 89 2f 3d
       0.0739932 0.03070426 -0.081053086 0.042855985
000280 18 6b 59 3c 56 d3 8e bb 1c 62 88 bb 59 85 f1 bb
       0.013270162 -0.0043586893 -0.004162086 -0.0073706326
000290 9b 9d 53 3c f8 31 b0 ba 42 fc 0a 3c 44 8f ba 3c
       0.012915994 -0.0013442626 0.0084829945 0.022773392
0002a0 7a ab 0d bc 69 40 46 bb 8e ed 4d 3c 69 01 dc 3b
       -0.00864684 -0.0030250794 0.0125688445 0.0067140353
0002b0 f3 fe 21 3c 8b 6a 19 ba ce 54 92 3b f7 50 61 b8
       0.009887445 -0.0005852363 0.004465676 -5.3719585e-05
0002c0 be 34 b0 bb 89 f5 17 ba 38 89 c4 bb 75 ec a5 3d
       -0.005377381 -0.00057967805 -0.005997803 0.08101741
0002d0 83 3c 78 ba f9 a8 5f 3b e6 40 a8 bb a5 e5 17 3a
       -0.0009469466 0.0034127815 -0.0051346896 0.00057944126
0002e0 a8 90 3e bc ab 5c ef 3b 00 5d 8f 39 50 f1 21 3c
       -0.011631168 0.007304748 0.00027344376 0.009884194
0002f0 53 ba a3 3c b7 20 9b 3c d1 62 c2 bc 5b 50 3c bb
       0.019986307 0.018936498 -0.02372876 -0.002873442
000300 ec a6 2e 3c f8 55 f3 3b e0 57 f4 ba d8 c7 02 bc
       0.010659914 0.0074260198 -0.0018641911 -0.007982217
000310 6b c0 cd 3b 3b 95 97 3b 4e a3 f5 3b 54 41 fe 3a
       0.0062790415 0.004625944 0.007496274 0.0019398131
000320 4c 5c 37 39 77 ee 3a b9 54 b2 67 3c 66 0c 4e 3c
       0.00017486623 -0.00017827177 0.014141638 0.012576198
000330 3c a5 bd bb 41 54 52 bc f4 a2 18 3b 88 1f 7e 3b
       -0.0057875197 -0.0128374705 0.0023290487 0.0038776118
000340 9c 11 7c bb 6d 66 29 3a 42 70 40 bc 82 75 7a 3d
       -0.0038462644 0.0006462101 -0.011745514 0.06114722
000350 17 11 7b bc de 4a 3c ba 3b d6 55 bc 3c 95 49 bc
       -0.015323899 -0.0007182787 -0.013051565 -0.012303647
000360 08 41 b9 3b 5a 4c 08 3c e5 9e 0e 3c 38 84 2e 3c
       0.0056535043 0.008318985 0.008704876 0.010651641
000370 70 4b ab 3c dd 40 df 3c c4 5b ad bc 54 00 7a bb
       0.020909995 0.027252609 -0.021161921 -0.0038147168
000380 59 e2 50 bc 5c ce e2 3b 59 f7 3a 3c 44 10 04 bc
       -0.012749278 0.0069215726 0.011411511 -0.008060519
000390 ff a4 69 3c 25 e7 53 3c 19 9b 96 3b b6 b1 96 3d
       0.01426053 0.012933527 0.004596126 0.073581144
0003a0 ce 6e d3 bc d4 a2 28 3c 3d 50 db 3d 93 3c 89 3c
       -0.025809672 0.0102927275 0.107086636 0.016752517
0003b0 6a 42 5b bd 68 8b 85 bb c4 61 61 3b 9e cb 81 3b
       -0.053530134 -0.0040754564 0.0034390548 0.0039610406
0003c0 b1 7d 32 3c d9 ac 81 3a bb 00 2a bd 1b ae 25 3e
       0.010894225 0.0009893432 -0.041504603 0.16179697
0003d0 ca 66 d6 bb 87 c6 90 3c da 64 ce 3a 67 d0 04 3e
       -0.006543015 0.01767279 0.0015746609 0.12970124
0003e0 9d b0 09 bd d4 24 8f bb 12 25 b1 3b f2 6e 5e 3c
       -0.033615697 -0.004368404 0.0054060305 0.013576256
0003f0 30 96 3f 3d 52 84 6b 3c c1 ff 19 bd ab 81 20 bc
       0.04677409 0.014374809 -0.03759742 -0.00979654

bias_ih_l0 f4 [128]
000000 28 fa 00 3f 40 76 bc 3e 46 f1 ad 3d cf 25 b0 3d
       0.5038171 0.36808968 0.08493285 0.086009614
000010 77 a7 c3 3e e8 e2 a2 3d 0d f1 23 3e 63 b7 5a 3f
       0.38213703 0.07953435 0.16009922 0.85436076
000020 bc a4 8c 3e 69 83 5b 3e 1a a2 8e 3e e5 b2 81 3e
       0.27469432 0.21436848 0.2785805 0.25331798
000030 96 e0 0f 3f 86 14 5c 3e 61 7b 54 3e fd 26 28 3d
       0.56202066 0.21492204 0.2075019 0.041052807
000040 92 53 5e 3d e8 47 5d b9 14 79 1b 3f a5 12 14 3e
       0.054278918 -0.0002110299 0.60731626 0.14460237
000050 d2 99 80 3e 98 eb 70 3e e8 02 05 3f f8 c7 0e 3f
       0.25117356 0.23527372 0.5195756 0.5577388
000060 55 5f 85 3e d8 0c c8 3e 2f b2 12 3e 9b 43 56 3e
       0.26049295 0.390723 0.14325784 0.20924227
000070 21 f4 83 3d 3f ea bd 3e 6f 2d ad 3e 48 d3 00 3f
       0.06443048 0.37092778 0.33823726 0.5032239
000080 77 9e 4a be c6 b0 ca bd b7 52 8d 3b b8 29 5d bc
       -0.19787012 -0.09896998 0.004312839 -0.013498716
000090 eb dd 42 3d 08 41 12 bc 4f 1d 02 bd ab a5 96 bd
       0.04757492 -0.0089266375 -0.031766232 -0.073558174
0000a0 4c 3e 93 3d fe c5 ee 3c 83 72 18 3e 9f a4 d0 3d
       0.071896166 0.029147144 0.14887433 0.10187649
0000b0 06 d8 47 be c7 ed 08 3d 31 d1 95 3d 92 d6 18 3b
       -0.19516 0.033429887 0.07315291 0.0023321253
0000c0 94 e6 54 bc 39 fd 65 bb 42 2f 2a 3e 41 d8 23 3e
       -0.012994427 -0.003509356 0.1661959 0.16000463
0000d0 8f 43 4e 3d 50 ff 72 bd 98 be c5 bd b5 27 40 be
       0.050357398 -0.059325516 -0.096554935 -0.18765147
0000e0 22 e1 14 bc 50 2a cd 3d 52 d5 27 3c 89 62 6a 3d
       -0.009086879 0.10017836 0.010243731 0.057222877
0000f0 5d 6e e0 bd bd 73 0d 3d aa 8b d3 3d 73 a4 27 3d
       -0.1095855 0.034534205 0.10329373 0.040928315
000100 97 57 75 3d 53 90 cf bd 61 2f 21 bd 04 a6 a0 bd
       0.059897985 -0.101349495 -0.039351825 -0.07844165
000110 0b d0 94 3d ae 1c 38 3c 3b 7f 00 bd a5 87 5e bd
       0.072662435 0.0112373065 -0.031371336 -0.05432858
000120 d8 df 93 bd ce 4d 99 ba ab f8 a9 3d a0 3a 2b bd
       -0.07220429 -0.0011696161 0.08299383 -0.041803956
000130 79 4e c1 bc f2 99 79 3c 21 71 86 3d 5b b1 a7 3c
       -0.023596989 0.015234457 0.065645464 0.020470312
000140 a6 ec 04 3e 5d 45 39 bd 33 c9 6d bb 10 95 a9 3e
       0.12980899 -0.045232166 -0.0036283254 0.33121538
000150 cc 78 01 bd aa 06 2a bd ce 2d 0d be 51 3c 12 be
       -0.03160934 -0.04151026 -0.13787004 -0.14280821
000160 d3 54 5e 3d 17 0f ae bb 00 df 6f bc 43 34 0f 3e
       0.054280113 -0.0053118574 -0.01464057 0.1398478
000170 76 f8 13 3e 65 c7 6c bc 61 78 e6 3c 59 e0 59 3d
       0.14450249 -0.014451836 0.028133573 0.05319247
000180 ec 05 fc 3e 4e 0f 02 3f 2b 99 cd 3d cb 40 ad 3d
       0.49223268 0.50804603 0.1003898 0.08459624
000190 f2 46 d0 3e 00 39 9a 3d 3c d5 2f 3e 7e fa 4a 3f
       0.40679127 0.07530403 0.17171186 0.7928847
0001a0 cf a4 39 3e ea 4a 01 3e 77 ec 63 3e c7 f1 80 3e
       0.18129276 0.12626234 0.22258173 0.2518446
0001b0 1d fc 0b 3f 43 70 5b 3e 02 1d 56 3e b5 04 28 3d
       0.5468157 0.21429543 0.20909503 0.041020114
0001c0 cd d0 83 3d fa 5c 5d b9 7b f6 1d 3f 78 87 c2 3e
       0.0643631 -0.00021110839 0.61704224 0.3799398
0001d0 93 27 80 3e 2f 0d 71 3e 04 f4 07 3f 2a 6f f8 3e
       0.25030193 0.23540185 0.53106713 0.4852231
0001e0 10 3e 96 3e b4 ac b8 3e 4c 6d 12 3e 81 5b 5c 3e
       0.29344225 0.36069262 0.14299506 0.21519281
0001f0 01 84 36 3e 25 77 c2 3e 40 65 9e 3e d9 64 fc 3e
       0.17823793 0.37981525 0.30936623 0.4929569

bias_hh_l0 f4 [128]
000000 8e 30 bf 3e 4c 39 c1 3e 28 ca bc 3d 4a de a2 3d
       0.37341732 0.37739027 0.09218246 0.079525545
000010 82 c6 bf 3e 01 e8 9a 3d f5 71 3a 3e 27 0e 55 3f
       0.37456137 0.075637825 0.18207534 0.8322472
000020 c2 da 80 3e c0 e1 75 3e b3 6d c1 3e 39 f5 80 3e
       0.251669 0.24011898 0.37779006 0.2518709
000030 01 70 fd 3e 86 14 5c 3e bc 0a 57 3e fd 26 28 3d
       0.49499515 0.21492204 0.21000189 0.041052807
000040 a6 e3 57 3d e8 47 5d b9 e6 70 20 3f 9c d5 f7 3d
       0.052707337 -0.0002110299 0.6267227 0.1210129
000050 d2 99 80 3e 98 eb 70 3e 9f 0c 13 3f e4 4b c3 3e
       0.25117356 0.23527372 0.57441133 0.38143837
000060 df 60 b2 3e de ba c5 3e 2f b2 12 3e f3 20 50 3e
       0.34839532 0.3861913 0.14325784 0.20325069
000070 e2 63 86 3d 55 0b c0 3e 9c 8e 97 3e 83 44 00 3f
       0.0656202 0.37508646 0.2960099 0.5010454
000080 f5 df 32 be f9 86 4e be ad 48 98 3b da 72 6c bc
       -0.17468245 -0.20168675 0.0046473355 -0.01443168
000090 9a 60 2a 3d 6c f7 7e 39 d8 b9 c1 bc 55 a4 c8 bb
       0.041596033 0.000243155 -0.023648188 -0.0061231055
0000a0 8f 8c 51 3d b4 18 1a 3d 90 85 57 3e ca bb d0 3d
       0.051159438 0.037621215 0.21047044 0.10192068
0000b0 84 b3 4d be c7 ed 08 3d 2e 2e 95 3d 92 d6 18 3b
       -0.20088011 0.033429887 0.07284199 0.0023321253
0000c0 b9 ea 1c bd 39 fd 65 bb 8e b0 8c 3e f2 c9 e0 3d
       -0.038309786 -0.003509356 0.2747845 0.10976018
0000d0 8f 43 4e 3d 50 ff 72 bd f7 9f ca bd 5c e4 13 be
       0.050357398 -0.059325516 -0.09893792 -0.14442581
0000e0 9a 80 9d bd 31 a5 6d 3d 52 d5 27 3c 0d 56 75 3d
       -0.076905444 0.058018867 0.010243731 0.059896518
0000f0 58 9e 5a bd d9 ea 24 3d 62 51 59 3d 0b fb 77 3d
       -0.053373665 0.04026303 0.05305613 0.060542148
000100 ef f8 0c bd e0 25 ff 3d a6 ca 95 3d f1 6e a3 bd
       -0.03441709 0.12458396 0.07314043 -0.07980145
000110 b0 7a 7b 3d 28 9b ed bc b9 bd 8e bd 01 ce 28 bd
       0.0613963 -0.029004648 -0.069697805 -0.041212086
000120 fc fc 4a 3d 62 4f ee 3c 68 b8 e8 bb f2 e6 f8 3b
       0.04955767 0.029090587 -0.007102061 0.00759589
000130 ef f4 28 bb 0e 37 49 bc 15 f5 79 bd f7 c3 b6 bc
       -0.0025780757 -0.0122811925 -0.061024744 -0.02231024
000140 6e a3 74 bd 9e 1f 35 3d b7 33 f8 3d 1b 7d 93 3e
       -0.05972617 0.044219606 0.12119239 0.28806385
000150 81 23 17 3d 8a 04 3a 3d 91 36 d4 3d b5 1d 0c 3e
       0.036899094 0.045414485 0.1036197 0.13683207
000160 16 54 e1 bd 1b 8a 7a 3d 5e af 49 3c 0e 24 91 bd
       -0.11002366 0.061166864 0.012309877 -0.07086955
000170 31 3d 84 3d a4 52 08 bd c2 76 af bd 61 fc 2f 3c
       0.06456984 -0.033281937 -0.08567573 0.010741324
000180 0f 58 e9 3e a9 c0 ea 3e bd f0 ab 3d 51 59 b5 3d
       0.45574996 0.45850113 0.083955266 0.088549264
000190 7e a0 c9 3e 83 a4 95 3d 49 20 0d 3e b4 74 51 3f
       0.39380258 0.07306769 0.13781847 0.818187
0001a0 c1 93 86 3e 7c dd 80 3e af 06 12 3e 35 ab 81 3e
       0.26284602 0.2516898 0.14260362 0.25325933
0001b0 84 0d 11 3f 43 70 5b 3e cf 05 55 3e b5 04 28 3d
       0.5666125 0.21429543 0.20802997 0.041020114
0001c0 4c 32 7c 3d fa 5c 5d b9 f2 5e ff 3e 5c 3f a2 3e
       0.061571404 -0.00021110839 0.49877125 0.31688964
0001d0 93 27 80 3e 2f 0d 71 3e da d2 06 3f 3d 25 b4 3e
       0.25030193 0.23540185 0.52665484 0.3518466
0001e0 6d 27 ae 3e c7 dc c5 3e 4c 6d 12 3e f1 46 51 3e
       0.34014454 0.38645002 0.14299506 0.20437218
0001f0 d5 e7 90 3d a4 8f c0 3e 1f cc 8d 3e e5 31 ff 3e
       0.070754685 0.3760959 0.27694795 0.49842754

hidden_states f4 [53, 7, 32]
000000 00 00 00 00 00 00 00 00 00 00 00 00 00 00 00 00
       0.0 0.0 0.0 0.0
000010 00 00 00 00 00 00 00 00 00 00 00 00 00 00 00 00
       0.0 0.0 0.0 0.0
000020 00 00 00 00 00 00 00 00 00 00 00 00 00 00 00 00
       0.0 0.0 0.0 0.0
000030 00 00 00 00 00 00 00 00 00 00 00 00 00 00 00 00
       0.0 0.0 0.0 0.0
000040 00 00 00 00 00 00 00 00 00 00 00 00 00 00 00 00
       0.0 0.0 0.0 0.0
000050 00 00 00 00 00 00 00 00 00 00 00 00 00 00 00 00
       0.0 0.0 0.0 0.0
000060 00 00 00 00 00 00 00 00 00 00 00 00 00 00 00 00
       0.0 0.0 0.0 0.0
000070 00 00 00 00 00 00 00 00 00 00 00 00 00 00 00 00
       0.0 0.0 0.0 0.0
000080 4a 5e d5 bc a9 15 3b 3b ba 79 29 3c 2c 60 3a bd
       -0.026045937 0.0028546846 0.010343963 -0.045501873
000090 84 50 6e 3d 8c 44 05 bc b5 4c 11 bd ce eb 58 bd
       0.058182254 -0.008134019 -0.035473544 -0.052959256
0000a0 6e b3 c9 3b de 45 49 3c da 77 af 3c 13 95 7a bc
       0.006155423 0.012284724 0.021419454 -0.015294331
0000b0 1e f4 25 bd 2e d5 0b 3a cb 87 55 3a 69 72 d4 b9
       -0.04051601 0.00053341954 0.000814554 -0.00040521033
0000c0 c8 bf c5 3c 33 af 5d b9 c5 45 75 3d 15 3e 50 3e
       0.0241393 -0.00021141469 0.05988099 0.20336182
0000d0 9d 87 01 3b f9 8b 74 3a 09 ed 97 3c ca 18 44 3d
       0.001976467 0.0009328719 0.018545644 0.047875203
0000e0 53 55 42 3b 1c 2f 00 3d e5 25 66 ba f8 b8 c7 3c
       0.0029652908 0.031294927 -0.00087794504 0.024380192
0000f0 a3 98 89 3d 3c a9 96 bc bc 68 8a bc 39 dd 7e 3c
       0.06718566 -0.018391244 -0.016895644 0.015555673
000100 6d 99 95 bc 83 14 b9 bc ba 48 dd 39 08 41 5b bd
       -0.018261636 -0.022592789 0.0004220659 -0.053528816
000110 50 f1 82 3d aa e0 d9 bb 14 ca c5 bc 95 ab 48 3c
       0.06393683 -0.0066490965 -0.02414421 0.01224794
000120 79 09 d8 bb 13 a5 b7 3b 0c c2 08 3d ae 59 1e bc
       -0.006592926 0.005604395 0.033388183 -0.009664936
000130 3e 0f 81 bd 67 18 8e ba be 1c ee ba 35 e0 45 36
       -0.06301735 -0.0010841013 -0.0018166525 2.9485793e-06
000140 f5 4f 86 3c 40 99 9a b8 2a 95 47 3d 9a 95 b4 3e
       0.016395548 -7.371837e-05 0.04872624 0.35270387
000150 64 a5 94 ba d6 e1 78 3b d2 bc 30 3d 0f 27 66 3d
       -0.0011340794 0.0037976406 0.043148823 0.056189593
000160 e8 d9 4a bc 48 98 76 3d 01 b5 7c b9 85 85 db 3c
       -0.012381054 0.06020382 -0.00024100022 0.026797066
000170 e8 32 d4 3d 86 ab 75 3c cb b6 20 bd 9e d8 ab bc
       0.10361272 0.014994508 -0.039236825 -0.020977315
000180 9b a4 de bb 70 e1 00 bd dc 87 dc bb 44 ef 40 bd
       -0.006794525 -0.031464994 -0.006730063 -0.04710318
000190 bd 35 48 3d d3 5a 4a ba 67 21 8a b8 b9 73 8c 3d
       0.048879374 -0.00077192223 -6.5865745e-05 0.0685801
0001a0 4b 5c 4a bc d1 4c 5e 3b ca 2f 7c 3d eb e1 f3 3a
       -0.012351106 0.0033920298 0.061569013 0.0018606758
0001b0 c3 a5 42 bd 26 57 2f bb 77 d5 73 bb 32 dc 92 39
       -0.047521364 -0.0026754825 -0.0037206092 0.00028011348
0001c0 4c 1b 73 3b 93 8f e1 b6 14 fe 59 3c 46 4c e0 3e
       0.0037095128 -6.722237e-06 0.013305206 0.43808192
0001d0 18 c0 9d bb 7a 53 d3 3b 06 0f 33 3d 97 19 80 3d
       -0.004814159 0.00644916 0.0437155 0.06254881
0001e0 da aa f4 bc d7 e7 8c 3d 0b 8c 33 3a 17 77 d5 3c
       -0.029866625 0.068801574 0.0006849176 0.026057763
0001f0 ae 3a f2 3d 41 ac 41 3d 11 7b 72 bd 65 fc 46 bd
       0.118275985 0.047283415 -0.059199397 -0.048580546
000200 37 f4 c0 bb 16 66 d9 bc f2 dd 16 bc 36 35 20 bd
       -0.0058884877 -0.026537936 -0.009208189 -0.039113246
000210 3d e7 08 3d f8 46 38 3b 8a 50 ac 3c a4 81 c3 3d
       0.03342365 0.0028118473 0.021034498 0.09546211
000220 0c 51 18 bc 28 2e b8 3b 38 73 c4 3d 71 cf 47 3c
       -0.009296667 0.0056207366 0.09592289 0.012195454
000230 0d 06 dd bc 60 02 68 bb a8 4d 1d bb 39 1e 87 39
       -0.026980424 -0.0035401806 -0.0024002586 0.00025771724
000240 40 24 5d bb 94 ba 2c b8 0a 19 e9 bc 76 92 f5 3e
       -0.003374353 -4.118176e-05 -0.028454322 0.47963303
000250 1b fa d5 bb f0 be ed 3b ee 36 10 3d 54 c5 af 3d
       -0.006530059 0.0072554275 0.035208635 0.08582559
000260 c6 b6 0e bd cb 77 89 3d 8a 77 85 3a ba 12 d0 3c
       -0.034842275 0.06712302 0.001018272 0.025399555
000270 92 61 fd 3d c2 10 8a 3d 88 2e 91 bd 5b 11 79 bd
       0.12372126 0.067414775 -0.07088953 -0.060807567
000280 b6 77 b1 bb 80 eb 34 bc c3 27 15 bc e8 4e 05 bd
       -0.005415882 -0.011042476 -0.009103718 -0.032545954
000290 93 f4 af 3c da cd 8b 3b 61 ca 13 3d 97 1a d4 3d
       0.021478927 0.004266483 0.036081675 0.10356634
0002a0 e5 ae a7 bb 8f 67 2f 3c 87 60 06 3e 21 19 a4 3c
       -0.0051172846 0.010705843 0.1312276 0.020031514
0002b0 a9 b6 4d bc 1d 4f 82 bb b6 ec 05 3b 62 f5 2c 39
       -0.012555757 -0.003976716 0.002043528 0.0001649461
0002c0 ef 2f 80 bb fe 0e f0 b8 a0 b0 8d bd 6a 0e fe 3e
       -0.003911964 -0.00011446884 -0.06918454 0.49620372
0002d0 83 9b d9 bb 5e d7 ca 3b 04 80 d0 3c 54 d9 e1 3d
       -0.006640853 0.0061902246 0.025451668 0.1102778
0002e0 c0 17 01 bd 61 c6 71 3d 5a 7d 83 3a 45 83 c6 3c
       -0.03151679 0.05902708 0.0010031865 0.024232516
0002f0 f4 83 01 3e 96 8f 9f 3d e8 9d 9e bd 86 a0 81 bd
       0.12647992 0.07791059 -0.07744962 -0.063294455
000300 c8 37 00 bb bc 71 14 3c cf d0 02 bc 08 e1 e6 bc
       -0.0019564498 0.0090603195 -0.007984354 -0.028183475
000310 34 4d 60 3c 86 4d 98 3b 44 2e 3d 3d 0c 8c d5 3d
       0.013690282 0.0046479134 0.0461867 0.104271024
000320 be 6d 42 bb 2a 04 8c 3c ec 5c 26 3e 9a 3b d3 3c
       -0.0029667462 0.01709183 0.16246384 0.025785256
000330 5f 80 53 bb 73 7f 81 bb 34 7e 0f 3c 94 1c 61 36
       -0.003227256 -0.0039519607 0.0087581165 3.3544247e-06
000340 9d 50 a6 39 72 16 5e b9 f7 3a d8 bd 6f fb ff 3e
       0.0003172205 -0.00021179931 -0.10558122 0.49996516
000350 bc d0 b4 bb 93 9a 7e 3b 8f 9c a2 3c ea 75 03 3e
       -0.005518047 0.0038849458 0.019850044 0.1283795
000360 0e 97 c1 bc 75 ee 45 3d c4 54 20 3a fd 5d bc 3c
       -0.023631599 0.048323113 0.00061161467 0.022994036
000370 95 31 04 3e ce 49 aa 3d b1 1b a9 bd 89 46 7c bd
       0.12909539 0.083148584 -0.08257235 -0.061590705
000380 00 00 00 00 00 00 00 00 00 00 00 00 00 00 00 00
       0.0 0.0 0.0 0.0
000390 00 00 00 00 00 00 00 00 00 00 00 00 00 00 00 00
       0.0 0.0 0.0 0.0
0003a0 00 00 00 00 00 00 00 00 00 00 00 00 00 00 00 00
       0.0 0.0 0.0 0.0
0003b0 00 00 00 00 00 00 00 00 00 00 00 00 00 00 00 00
       0.0 0.0 0.0 0.0
0003c0 00 00 00 00 00 00 00 00 00 00 00 00 00 00 00 00
       0.0 0.0 0.0 0.0
0003d0 00 00 00 00 00 00 00 00 00 00 00 00 00 00 00 00
       0.0 0.0 0.0 0.0
0003e0 00 00 00 00 00 00 00 00 00 00 00 00 00 00 00 00
       0.0 0.0 0.0 0.0
0003f0 00 00 00 00 00 00 00 00 00 00 00 00 00 00 00 00
       0.0 0.0 0.0 0.0

cell_states f4 [53, 7, 32]
000000 00 00 00 00 00 00 00 00 00 00 00 00 00 00 00 00
       0.0 0.0 0.0 0.0
000010 00 00 00 00 00 00 00 00 00 00 00 00 00 00 00 00
       0.0 0.0 0.0 0.0
000020 00 00 00 00 00 00 00 00 00 00 00 00 00 00 00 00
       0.0 0.0 0.0 0.0
000030 00 00 00 00 00 00 00 00 00 00 00 00 00 00 00 00
       0.0 0.0 0.0 0.0
000040 00 00 00 00 00 00 00 00 00 00 00 00 00 00 00 00
       0.0 0.0 0.0 0.0
000050 00 00 00 00 00 00 00 00 00 00 00 00 00 00 00 00
       0.0 0.0 0.0 0.0
000060 00 00 00 00 00 00 00 00 00 00 00 00 00 00 00 00
       0.0 0.0 0.0 0.0
000070 00 00 00 00 00 00 00 00 00 00 00 00 00 00 00 00
       0.0 0.0 0.0 0.0
000080 fe 24 14 bd f9 19 81 3b 53 2f 9b 3c f5 04 ac bd
       -0.03616809 0.0039398638 0.018943464 -0.08399383
000090 00 fd ac 3d 5c 28 78 bc cc 6e 7c bd c8 39 82 bd
       0.084466934 -0.015146341 -0.0616291 -0.06358677
0000a0 42 a0 25 3c 21 4b a9 3c e2 e4 13 3d 94 f0 c8 bc
       0.010109009 0.020665707 0.03610695 -0.02452878
0000b0 b9 44 5d bd 54 e5 66 3a b2 30 b1 3a dd 11 4c ba
       -0.054020617 0.0008807976 0.0013518541 -0.0007784644
0000c0 f8 f1 39 3d 7e bd dd b9 80 04 a3 3d a3 d4 a0 3e
       0.045396775 -0.00042293587 0.07959843 0.3141223
0000d0 bb 07 50 3b 56 8e c6 3a 99 0c cd 3c f8 11 8d 3d
       0.003174289 0.0015148621 0.025030421 0.06888193
0000e0 02 ee 94 3b 57 5e 3c 3d 7b 89 c9 ba 50 87 25 3d
       0.0045449743 0.045988407 -0.0015376055 0.040412247
0000f0 2f e3 f5 3d a1 34 dd bc 20 55 d7 bc b7 bf ae 3c
       0.120062225 -0.027002634 -0.026285708 0.021331651
000100 52 02 c7 bc fb 28 f8 bc 44 8a 49 3a b6 41 ca bd
       -0.024293099 -0.030292979 0.00076881447 -0.098758146
000110 5c d4 bb 3d 52 89 49 bc d0 e9 2a bd 0c 26 6f 3c
       0.09171364 -0.012300806 -0.041726887 0.014596473
000120 31 25 2c bc 90 5e 18 3c e6 9a 5f 3d 0a 13 7c bc
       -0.010506914 0.009299889 0.054591082 -0.015385399
000130 e6 c8 a6 bd 00 17 e8 ba 70 3f 44 bb 68 a6 bd 36
       -0.08143787 -0.001770705 -0.0029945038 5.652011e-06
000140 97 06 fa 3c d7 a9 1a b9 af 65 82 3d c7 13 10 3f
       0.03052072 -0.00014749855 0.06367051 0.5628018
000150 fd c5 eb ba 72 3b c9 3b 7e ee 69 3d 3a f8 9a 3d
       -0.0017988082 0.0061411196 0.05711221 0.07566877
000160 28 ec 95 bc 71 6e b2 3d 38 b1 db b9 7f d3 34 3d
       -0.018301085 0.08712471 -0.00041902973 0.04414701
000170 8b 1b 3d 3e c0 8a b2 3c 28 61 74 bd 2b 60 e9 bc
       0.18467538 0.021794677 -0.059662968 -0.02848824
000180 7f bb 0e bc 90 db 28 bd 54 19 48 bc f5 16 b2 bd
       -0.008711695 -0.041225016 -0.01221307 -0.08695785
000190 e6 30 8e 3d 4a ed b9 ba dd a6 ed b8 31 ce a6 3d
       0.069429204 -0.0014185098 -0.00011332121 0.08144797
0001a0 46 7a 9c bc 92 e4 b6 3b 44 ab c9 3d f5 f3 40 3b
       -0.019101273 0.005581447 0.098471195 0.0029442285
0001b0 ba 48 76 bd 96 48 8e bb 8a ea c7 bb 59 94 0c 3a
       -0.06012795 -0.004342149 -0.0061009573 0.00053626817
0001c0 c2 ff e0 3b 8d b1 61 b7 2c 2e 8c 3c 37 92 3a 3f
       0.006866426 -1.3452384e-05 0.01711186 0.72879356
0001d0 a7 63 f8 bb ab 7d 2a 3c 34 3c 69 3d 0d 41 a6 3d
       -0.007580239 0.010405938 0.05694218 0.08117876
0001e0 2e 09 31 bd 13 5f c8 3d 31 69 9b 3a 37 19 2f 3d
       -0.043221645 0.09783759 0.0011856911 0.042748656
0001f0 40 37 58 3e 64 c8 8b 3d 92 21 b5 bd 02 59 86 bd
       0.21114826 0.06825331 -0.08844294 -0.06559946
000200 22 80 f2 bb 52 4f 0c bd 0d 9c 88 bc 34 ca 93 bd
       -0.0074005285 -0.034255333 -0.016675973 -0.072163016
000210 c4 11 41 3d 8f 82 a8 3b 50 e1 13 3d 99 99 e7 3d
       0.047136083 0.005142517 0.036103547 0.11308593
000220 6d e0 66 bc 51 c6 16 3c 9c 96 1b 3e 17 96 9d 3c
       -0.014091593 0.009202556 0.15194172 0.019236607
000230 ea 59 0a bd 52 ba bb bb 8c 85 80 bb a5 44 01 3a
       -0.033777155 -0.005728998 -0.00392217 0.00049311883
000240 4e 07 cc bb be d9 ac b8 a5 83 14 bd df 21 53 3f
       -0.0062264567 -8.242157e-05 -0.03625836 0.8247356
000250 78 e5 27 bc 58 a1 3f 3c 91 f4 39 3d a8 7f e1 3d
       -0.010247581 0.011696182 0.045399252 0.110106766
000260 3c 11 4d bd 1b f2 c0 3d e4 96 e6 3a 7d 13 2a 3d
       -0.050065264 0.09421178 0.0017592576 0.04152249
000270 dd 6c 62 3e 1e bb c6 3d 9f b3 d6 bd 23 89 a7 bd
       0.2211184 0.097036585 -0.10483479 -0.08180454
000280 49 0f dd bb 69 8d 67 bc 75 eb 86 bc b4 c7 75 bd
       -0.006746207 -0.014132836 -0.016469697 -0.060004905
000290 d7 37 f7 3c ab f7 fe 3b f6 67 7d 3d 10 8e fa 3d
       0.030177994 0.007780989 0.061866723 0.122341275
0002a0 73 82 fb bb 98 40 8f 3c 06 b8 53 3e 38 3d 01 3d
       -0.007675463 0.017486855 0.20675668 0.031552523
0002b0 22 50 80 bc f0 bb d2 bb ba 7d 5a 3b 30 74 a5 39
       -0.01566321 -0.0064310953 0.00333391 0.0003155782
0002c0 10 42 ec bb be 3e 70 b9 67 fe b3 bd 36 0d 5f 3f
       -0.0072100237 -0.00022911557 -0.08788758 0.87129533
0002d0 76 99 2a bc 17 72 23 3c 79 bb 05 3d d9 6b 11 3e
       -0.0104125645 0.009975932 0.03264949 0.14201297
0002e0 e9 e8 39 bd f2 20 a8 3d 50 10 e3 3a 9b e2 21 3d
       -0.045388136 0.08209409 0.0017323587 0.03952275
0002f0 1e c7 67 3e 55 63 e5 3d d3 8a e9 bd a1 0e ae bd
       0.22634551 0.11200587 -0.11403432 -0.08498884
000300 43 3e 1f bb cc 29 3d 3c a9 8e 6c bc 44 ae 54 bd
       -0.0024298585 0.01154561 -0.01443831 -0.051924005
000310 a9 42 9d 3c 1f ab 0a 3c 77 1a a2 3d d8 99 fb 3d
       0.019196825 0.00846365 0.07915204 0.12285203
000320 96 07 91 bb 10 7a e4 3c 93 b6 82 3e 3a 4b 26 3d
       -0.004425953 0.027890235 0.25529918 0.040599085
000330 c7 de 83 bb ff 7a d1 bb 7a f4 69 3c e9 5c d7 36
       -0.00402436 -0.006392836 0.014279479 6.4183155e-06
000340 f1 38 19 3a 14 45 de b9 93 70 09 be 52 2d 63 3f
       0.0005844972 -0.00042394607 -0.1342185 0.8874103
000350 cf c9 0d bc e4 25 cd 3b b1 21 d0 3c 8c f5 2a 3e
       -0.008654072 0.0062606204 0.02540669 0.16695231
000360 a3 37 0c bd dd d5 88 3d 59 75 8a 3a 00 5c 19 3d
       -0.034232747 0.06681416 0.0010563537 0.037441254
000370 7f d2 6c 3e cb b7 f4 3d e4 aa f8 bd e2 33 a9 bd
       0.23127173 0.11949118 -0.1214197 -0.08261849
000380 00 00 00 00 00 00 00 00 00 00 00 00 00 00 00 00
       0.0 0.0 0.0 0.0
000390 00 00 00 00 00 00 00 00 00 00 00 00 00 00 00 00
       0.0 0.0 0.0 0.0
0003a0 00 00 00 00 00 00 00 00 00 00 00 00 00 00 00 00
       0.0 0.0 0.0 0.0
0003b0 00 00 00 00 00 00 00 00 00 00 00 00 00 00 00 00
       0.0 0.0 0.0 0.0
0003c0 00 00 00 00 00 00 00 00 00 00 00 00 00 00 00 00
       0.0 0.0 0.0 0.0
0003d0 00 00 00 00 00 00 00 00 00 00 00 00 00 00 00 00
       0.0 0.0 0.0 0.0
0003e0 00 00 00 00 00 00 00 00 00 00 00 00 00 00 00 00
       0.0 0.0 0.0 0.0
0003f0 00 00 00 00 00 00 00 00 00 00 00 00 00 00 00 00
       0.0 0.0 0.0 0.0
