model/CNN_Trans_1_3_6.pt (torch, 496947 bytes, 39 tensors)

weight f4 [4, 1, 1, 1]
000000 1f ef 9c 3e ce f6 b0 bd 33 dc b4 be e2 29 95 be
       0.30651185 -0.08640824 -0.3532425 -0.29133517

bias f4 [4]
000000 f2 54 86 bf 60 d6 94 3f 4a 1d 60 3e 34 fa 96 3e
       -1.0494673 1.1627922 0.21886173 0.29487765

weight f4 [4, 4, 3, 3]
000000 c6 26 b4 bb 24 8e 59 3e f6 37 8a 3e 5e a6 3b be
       -0.005497786 0.21245629 0.2699582 -0.18325183
000010 3c 73 16 be c1 00 26 3c c9 5b 8a be 24 bb 37 be
       -0.14692396 0.010132016 -0.27023152 -0.17942482
000020 ec f2 7c 3d f6 7c 92 3e e3 25 2c be 91 1e ee bd
       0.061755106 0.28610963 -0.16811328 -0.11626924
000030 0f 8a 66 3e 7a a2 f5 3b b8 4a c1 3d a9 6c e4 3e
       0.22513603 0.0074961754 0.094380796 0.4461415
000040 16 06 a0 3e fd 8f 1d bd e7 c7 20 be 53 77 8d be
       0.31254643 -0.038467396 -0.15701257 -0.276301
000050 4d 24 8a be 88 22 05 3d ca f0 02 3e fd fc 1b 3e
       -0.2698082 0.032503635 0.12787166 0.15233226
000060 4c 0d ef 3d 8c a1 70 3e 20 0a 1e be 02 ce 16 be
       0.11672458 0.23499125 -0.1543355 -0.14727023
000070 dd c6 30 be b0 77 1f be 61 03 3e 3d fe 31 ad bc
       -0.1726336 -0.15573001 0.04638994 -0.021142002
000080 47 3f 0c 3e 85 3c 91 bc 09 19 98 3e 54 09 5b be
       0.13696013 -0.017729053 0.297066 -0.21390277
000090 93 ab 3d be 3b eb cd bd 34 3c d7 bd 8e b1 14 3e
       -0.18522482 -0.10054632 -0.1050953 0.14520857
0000a0 45 58 e9 bd f2 18 61 bd b7 44 bc 3d 80 d3 e8 3d
       -0.11393789 -0.05495543 0.09192794 0.113684654
0000b0 c3 eb 4f be 06 02 09 be 2d b8 c6 3d c0 63 18 3e
       -0.2030478 -0.13379678 0.097030975 0.14881802
0000c0 b0 79 8b be 70 32 a8 3c 22 45 87 3e 73 8e 95 be
       -0.27241278 0.020531863 0.26419932 -0.29210243
0000d0 35 22 48 be 90 c0 7d 3e e3 b6 16 3d 25 6d 37 3e
       -0.19544299 0.24780488 0.036795508 0.17912729
0000e0 b7 fd ba 3d 22 2f 8d bd ca f9 08 3e 8e 92 db 3c
       0.091304235 -0.068937555 0.13376537 0.026803281
0000f0 49 a8 94 be 97 81 58 bd 77 67 87 bb 42 7b bd 3d
       -0.2903464 -0.05285796 -0.004132207 0.09252025
000100 66 3e 85 3e e0 aa cb 3d a9 0b eb bb 83 05 73 3c
       0.2602417 0.09944701 -0.007173021 0.014832857
000110 9f b4 46 3c 7b 12 77 be 61 10 8a bd 3e 55 2a 3e
       0.012128024 -0.24128143 -0.06741405 0.1663408
000120 81 af c2 be 0b 7c 81 be 20 43 0c bd 2b f3 47 be
       -0.38024524 -0.2528995 -0.034243703 -0.19526355
000130 6f bb 81 3d b8 d3 62 3c ef e3 b5 bd f6 3a 4a 3e
       0.06334578 0.013844423 -0.088813655 0.19749054
000140 77 2c d1 bd a4 65 88 3f b5 6d f7 3e 76 ef 89 3e
       -0.10213559 1.0656018 0.48325887 0.26940507
000150 e9 e9 e0 3e 5b f8 c9 38 0e 20 d0 bd 26 97 bd 3e
       0.4392846 9.630687e-05 -0.10162364 0.3702938
000160 ff 10 92 3d d8 1d ee 3a 0f 54 bf 3d 10 01 d8 bc
       0.07132148 0.0018166853 0.09342205 -0.026367694
000170 3a c1 ab bd 65 10 8e bd 51 a2 84 bc ec a2 68 bd
       -0.083864644 -0.06936721 -0.01619068 -0.056796
000180 e8 5b 3a be c2 18 30 3c 6c a7 90 3d c7 64 1f 3e
       -0.18199122 0.01074809 0.07063183 0.15565787
000190 42 e1 a4 3d 1e fa 54 be ad 0b 3b bc a3 08 ae 3d
       0.08050777 -0.20798537 -0.011416358 0.08497741
0001a0 a0 78 4b bd 4b f1 e9 bd 0e 02 01 be 4b fc a6 3c
       -0.049675584 -0.11422976 -0.1259844 0.020383975
0001b0 83 28 99 3e 05 54 45 3d 18 b8 1d bd 1c 4a 57 3e
       0.2991372 0.04817583 -0.038505644 0.21024364
0001c0 92 e5 12 be c8 61 c3 bc f1 b9 8a 3d 20 26 e9 bd
       -0.14345387 -0.023850337 0.06773747 -0.11384225
0001d0 24 70 96 bc ea ec b9 3b 8e b1 25 3e 88 07 cf 3e
       -0.01836402 0.0056739943 0.16181013 0.40435433
0001e0 12 44 2d 3d f3 2c e2 3c c6 1b bb 3e 87 a7 31 bd
       0.042301245 0.027609324 0.36544627 -0.043372657
0001f0 b4 ea 57 bc 8d 7c 47 3d 6d f1 ba be a8 42 8e bd
       -0.013178516 0.048702765 -0.36512318 -0.069463074
000200 1d af 77 3c 0e 37 a5 be a8 2f 74 3e 6a 21 06 3d
       0.015117434 -0.32268566 0.23846304 0.03274671
000210 68 5f 06 be ad 5a 8c 3e b9 52 c8 bd 06 a4 b2 be
       -0.13122332 0.2741293 -0.09781403 -0.34890765
000220 67 a6 09 3e 0d 9e 07 3d 78 31 59 be b0 6a 5b 3d
       0.13442384 0.033109713 -0.21210277 0.053568542
000230 79 b1 f3 bd 47 67 67 3c 1c 50 52 3e cc bf 25 be
       -0.118990846 0.014123744 0.20538372 -0.16186446

bias f4 [4]
000000 05 3c 1e 39 ba fd cc b8 2f 6d 84 b9 94 49 2a b9
       0.00015090413 -9.774738e-05 -0.0002525835 -0.00016239873

weight f4 [4]
000000 5e 7b 26 3f a3 86 41 3f 7e 2a 7d 3f 10 db 6c 3f
       0.65031993 0.75596064 0.9889296 0.9252176

bias f4 [4]
000000 8b 47 83 3e 71 ae ba 3e 3e b3 7f 3e c6 cd 64 bd
       0.2564052 0.36461213 0.24970719 -0.055860303

running_mean f4 [4]
000000 67 fa 81 3f f9 67 a9 bf fc c3 93 3f c2 93 1c 40
       1.0154542 -1.3234855 1.1544185 2.4465184

running_var f4 [4]
000000 97 7f 99 3f 16 4b d3 3f 21 0d f2 3f ed 1f 1c 40
       1.1992062 1.650729 1.8910257 2.4394486

weight f4 [4, 4, 3, 3]
000000 33 d5 72 be f6 da bc be 0c c2 ae 3c 92 d5 f7 3c
       -0.23714142 -0.36885804 0.021332763 0.030253205
000010 c5 d8 1a be 14 fd 14 3e 0f 20 90 3d 14 3e 6a bc
       -0.15121754 0.14549667 0.07037365 -0.014297027
000020 4d 2f e7 3d bb 10 a5 bd 0f da 99 be a0 03 ff 3d
       0.11288319 -0.08059832 -0.30049178 0.12451863
000030 ca 51 ab bd c0 53 98 bd a1 42 d7 bd eb b9 85 bd
       -0.083652094 -0.07437849 -0.10510755 -0.06529602
000040 0c c8 00 3e 00 64 e3 bd f1 69 82 3d 20 2d fc 3d
       0.12576312 -0.11103058 0.06367863 0.123132944
000050 79 bc e6 3a 66 a3 cb bd d7 dc 2e be df 51 37 be
       0.0017603777 -0.09943275 -0.17076431 -0.17902325
000060 04 c1 45 3e db 34 1c be 92 b7 59 3d 83 b2 e0 bc
       0.19311911 -0.15254538 0.053153582 -0.027428871
000070 2e ec d9 3d 37 b2 70 bc f9 da 38 3e 8a 3b 2b 3c
       0.10640751 -0.014690927 0.18052281 0.010451207
000080 25 a7 8d 3e c5 b3 fa 3c e1 21 a0 be 69 ca 1f 3e
       0.27666584 0.030603299 -0.31275848 0.15604557
000090 e5 6a c2 bd 94 14 01 3e d4 37 96 3b 70 81 a4 bd
       -0.09493045 0.12605506 0.004584292 -0.08032501
0000a0 1c 85 54 3e dc f8 0e bd 83 51 ef 3d 12 c7 5d b9
       0.20753902 -0.0349053 0.11685469 -0.00021150362
0000b0 21 54 ff bd e2 58 d1 3d 29 aa e3 bd 09 78 03 be
       -0.12467218 0.10222031 -0.1111644 -0.12838759
0000c0 6a c1 c5 bd 2c 44 89 3e dd 17 23 3e 8f 4c 87 be
       -0.096560314 0.26809824 0.15927072 -0.26425597
0000d0 9b 34 99 3c f6 c9 4f be 53 03 29 be c1 18 7d 3d
       0.018701842 -0.20291886 -0.16505174 0.061791185
0000e0 6c 37 71 be 8d 97 19 bc f6 86 05 3f a3 c3 7c 3e
       -0.23556298 -0.009374511 0.5215906 0.24684004
0000f0 9f 09 41 be 27 59 b8 3e bf 28 9c 3d 56 bf 0d be
       -0.18851326 0.36005518 0.07624959 -0.1384252
000100 2c db e2 3c de 60 63 3d 1e bf 01 3e 45 ee 2c 3e
       0.0276924 0.0555123 0.12670562 0.16887768
000110 45 9f 05 be 1e db 8c bd ad f6 73 3e 90 93 2e be
       -0.13049038 -0.06877731 0.23824568 -0.17048478
000120 fd 9d 21 3e ad c1 cb 3e f1 b5 52 be 18 f8 05 3e
       0.15782924 0.397962 -0.20577218 0.13082922
000130 31 fd 36 3e 64 89 11 be 8d 3a af bd e0 d5 67 be
       0.17870022 -0.14212567 -0.085560896 -0.2264018
000140 c0 e7 2b be 07 c2 3c bd c9 a1 64 be ee dd 30 be
       -0.16787624 -0.046083476 -0.22327341 -0.1727216
000150 37 4d d2 3c ae 87 96 3b 3e d2 78 3e 70 aa 14 3c
       0.025671585 0.004593811 0.24298951 0.009073839
000160 86 db 95 3d 57 43 0d bd 06 6c 81 3d e1 ba 82 3c
       0.073172614 -0.03448805 0.06319432 0.015958251
000170 a1 bb 3a be f1 71 ec bd 48 69 12 3f ea 27 bb 3d
       -0.18235637 -0.1154517 0.57191896 0.091384724
000180 f2 87 00 3d 25 67 8e 3e 33 26 29 be e6 66 e2 3c
       0.031379648 0.27813068 -0.16518478 0.027636956
000190 1c cb 87 be 87 d8 09 3e 7f df 4b bd b8 00 32 bb
       -0.26522148 0.13461505 -0.04977369 -0.0027161073
0001a0 07 e7 d5 3d 08 87 85 3d 62 6b 9f 3d c8 72 23 bd
       0.104444556 0.06519896 0.077841535 -0.039904386
0001b0 6f 4c 83 be 4b 58 38 bd 07 90 b8 3b 48 5e 55 3e
       -0.25644252 -0.045006078 0.005632404 0.20836747
0001c0 2f 65 af bc ff f6 82 3b 58 f5 42 bd 1d 8e 0b bc
       -0.021410553 0.0039967294 -0.04759726 -0.008517769
0001d0 54 a5 08 3e cd 72 44 be 9b fd 67 be e3 17 4a 3e
       0.13344318 -0.19184418 -0.22655337 0.19735675
0001e0 2b 7c 0f 3e b8 7c 5f 3e fd 64 c1 3d 99 c3 89 3b
       0.1401221 0.2182492 0.0944309 0.0042042253
0001f0 ad 96 2d 3e c1 a3 fd bd e9 4e 6f 3b 3e 4d 93 3e
       0.1695201 -0.12384749 0.003651554 0.2876987
000200 71 f4 50 3e 8c f6 3d be 77 59 89 be c2 59 47 be
       0.20405747 -0.18551081 -0.2682607 -0.19467834
000210 00 f3 36 3e ae ab 58 be 8e 44 09 bd 20 bb 93 3d
       0.17866135 -0.2115924 -0.033512644 0.07213426
000220 2d c6 21 3d bd 31 02 be 84 81 16 3e ca 79 1f be
       0.039495636 -0.12714286 0.14697844 -0.15573803
000230 a0 8d 8f 3e b6 dd e3 3d d8 74 62 be 88 31 84 3e
       0.2803774 0.111262724 -0.22114885 0.2581904

bias f4 [4]
000000 cb 5a 35 b9 0a 99 d6 b8 9d 0b 6a b9 e2 62 66 b9
       -0.00017295328 -0.00010232821 -0.00022320305 -0.00021971346

weight f4 [4]
000000 81 67 d4 3f 91 fc e7 3f 7d 1b de 3f 8b 0b e0 3f
       1.6594087 1.8123952 1.7352139 1.7503523

bias f4 [4]
000000 31 93 ad 3e 56 88 a0 3e b6 0e ea 3e b7 c5 91 3e
       0.3390136 0.31354016 0.4571435 0.28471157

running_mean f4 [4]
000000 f9 ed c6 be 07 f7 b1 3e 88 d7 90 3e 34 88 14 3e
       -0.38853434 0.3475878 0.28289437 0.14505082

running_var f4 [4]
000000 84 ee 85 3e 08 53 02 3e a4 f9 59 3e b5 86 b8 3d
       0.26158535 0.12726986 0.21286637 0.09010068

weight f4 [1, 4, 1, 1]
000000 54 99 50 bf f8 18 81 3f 77 19 86 3f 05 68 99 bf
       -0.8148396 1.0085745 1.0476521 -1.1984869

weight f4 [1, 70]
000000 cb de 79 37 ca d3 a5 b7 63 96 13 37 b1 20 c2 b6
       1.489343e-05 -1.9768155e-05 8.796897e-06 -5.7854563e-06
000010 fc 61 36 38 c5 7e 0d b8 f0 95 70 b5 8d 21 6f 38
       4.3483436e-05 -3.3735083e-05 -8.9625155e-07 5.7013287e-05
000020 f6 e9 b1 37 25 0e 57 37 f5 96 14 b7 d0 6e cb 38
       2.120899e-05 1.2818292e-05 -8.856635e-06 9.700435e-05
000030 f0 02 8f b8 e3 f0 b9 b7 70 1e 43 b7 9f 7b 8b 38
       -6.8193185e-05 -2.216589e-05 -1.16299925e-05 6.651063e-05
000040 e0 7e 82 b7 53 1f bc b7 ff f7 50 b8 34 a2 6d 37
       -1.5556288e-05 -2.2425933e-05 -4.982203e-05 1.4164067e-05
000050 37 bb 60 36 f7 50 04 38 4a 77 e8 b6 6a c9 9f b8
       3.3487574e-06 3.1546657e-05 -6.928026e-06 -7.619227e-05
000060 20 30 35 37 3c 52 e6 36 41 fb e6 37 4d cf 03 37
       1.0799646e-05 6.8641075e-06 2.7535136e-05 7.856474e-06
000070 8b 33 8a b6 86 b2 cf 37 9f f3 7b 38 d8 e4 1b 38
       -4.118721e-06 2.4759454e-05 6.0069953e-05 3.7168007e-05
000080 80 30 10 37 ff c5 09 b9 5f 57 6a 39 bb 05 1e b7
       8.594361e-06 -0.00013139097 0.00022348527 -9.418868e-06
000090 e9 b0 8d 37 1d 72 12 b7 64 f1 a3 36 9f 33 bf 38
       1.689089e-05 -8.728847e-06 4.88588e-06 9.117205e-05
0000a0 64 a1 49 b7 14 85 a4 b6 0f c3 a7 38 b3 6a 83 38
       -1.201811e-05 -4.903073e-06 7.999513e-05 6.266441e-05
0000b0 72 43 76 37 8c cb 13 b8 aa 38 9b b7 04 47 40 39
       1.4678446e-05 -3.52371e-05 -1.8503826e-05 0.00018337002
0000c0 9c 94 0d 37 e3 15 58 b7 8a e3 5e b8 e0 58 0d 38
       8.438856e-06 -1.2879699e-05 -5.3140837e-05 3.369979e-05
0000d0 41 73 e0 b7 90 a3 b1 36 87 55 e9 b5 11 4c 39 b8
       -2.675655e-05 5.2940522e-06 -1.7384745e-06 -4.417828e-05
0000e0 bb bb 22 b6 fa 68 0d b7 f8 63 13 39 29 e6 03 36
       -2.4249155e-06 -8.428697e-06 0.00014056254 1.9654492e-06
0000f0 55 21 10 b6 f6 46 ea b7 3c fc 03 b8 a8 1f d0 b8
       -2.1477074e-06 -2.7928018e-05 -3.1467745e-05 -9.924109e-05
000100 4e 44 8f ba f7 d2 0b 3b ab 31 aa bb 7d b5 ce bc
       -0.001093039 0.0021335462 -0.005193909 -0.025233025
000110 f5 84 8b bb 48 de 8d bc
       -0.004257793 -0.017317906

weight_ih_l0 f4 [128, 600]
000000 a5 e0 85 38 00 50 ee 39 4f 5a 09 ba e1 83 96 ba
       6.3837775e-05 0.00045454502 -0.0005239592 -0.0011483395
000010 db 54 6c ba 81 3d 8e ba f1 8a a8 ba 8e 71 83 ba
       -0.000901533 -0.001085207 -0.001285879 -0.0010028349
000020 38 bc 35 ba 5a 1e 76 ba 17 ce c0 ba 90 c1 91 ba
       -0.0006932649 -0.0009388678 -0.0014709857 -0.0011120308
000030 b5 65 4c ba 30 7e f9 39 f5 80 9a 39 6f e5 a4 ba
       -0.0007797138 0.00047586998 0.0002946925 -0.0012580584
000040 a4 6a c7 ba 2c c1 36 b9 b8 40 ef 3a 41 4e 82 ba
       -0.0015214277 -0.00017428835 0.0018253541 -0.0009941534
000050 c4 32 96 ba 9f 78 88 b9 41 9f 39 39 84 89 74 3a
       -0.0011459221 -0.0002602981 0.00017702302 0.0009328353
000060 71 48 3b 3a 9c 62 7f 3a 65 ea a6 38 5e bf 91 39
       0.00071442785 0.0009742172 7.959156e-05 0.00027799135
000070 b0 a5 03 ba 38 f0 6f ba 6a bd f3 b9 db 40 ca b9
       -0.0005021943 -0.0009152922 -0.00046489696 -0.00038576763
000080 3e 5f da b9 1a 00 49 ba 82 64 a4 ba eb 15 f8 ba
       -0.0004165116 -0.00076675566 -0.0012542161 -0.001892743
000090 39 61 03 bb 6e 4c 8b ba a7 cc 54 ba 7d 63 e0 39
       -0.0020046963 -0.0010627636 -0.0008117654 0.00042798734
0000a0 13 16 ae ba cf 8d b2 b9 0a df 46 38 5c d2 20 3a
       -0.0013281725 -0.0003405646 4.74146e-05 0.00061348616
0000b0 f2 45 44 3a 89 82 22 39 ce 1e 4d 3a 24 1b 02 3b
       0.00074872293 0.00015498152 0.00078247197 0.0019852603
0000c0 9b b3 16 3a 7b 3d 6b b9 c0 da 43 39 88 12 a6 3a
       0.0005748809 -0.0002243425 0.0001867814 0.0012670318
0000d0 f1 ac e8 3a 79 74 66 b8 19 4f 36 ba db 22 88 ba
       0.0017751736 -5.4944747e-05 -0.00069545355 -0.0010386364
0000e0 b3 79 68 ba 49 13 38 bb bf 7c 0d bb e5 c4 7e ba
       -0.0008868232 -0.0028087667 -0.0021589247 -0.00097186706
0000f0 09 7d 30 ba 1a 42 6a ba ab 0c 4d 3a ae d0 85 3a
       -0.0006732499 -0.00089362415 0.0007822017 0.0010209286
000100 15 0e 9c 3a ef 1f 1c 3a cc a6 e5 3a 41 9e d1 3a
       0.0011906052 0.0005955686 0.0017521023 0.0015992598
000110 08 e2 de 3a e4 85 39 3a ad 20 a4 37 15 72 b1 3a
       0.0017004618 0.0007077141 1.956554e-05 0.0013538027
000120 fb ba b6 3a a9 6c 28 3a 9e 51 97 b9 18 be a1 ba
       0.0013941223 0.0006424883 -0.00028861774 -0.0012339978
000130 d0 5c 6d ba 7e c1 5b ba 79 d0 8a ba a4 13 4d ba
       -0.00090546627 -0.00083830196 -0.0010590694 -0.0007823056
000140 3a 9a 25 ba 64 38 a7 ba 93 18 1c 3a be 1f bc 3a
       -0.0006317232 -0.0012757895 0.00059545896 0.0014352722
000150 ca 9d ed 3a 74 e1 e4 3a d9 3c 7e 3a 5f af 15 ba
       0.001812869 0.001746221 0.0009698398 -0.0005710031
000160 5a 5e a4 38 3b 01 73 ba 8b 1f d3 ba 10 f1 53 b9
       7.837704e-05 -0.0009269898 -0.0016107423 -0.00020212331
000170 7e 40 98 b6 d1 99 8d b9 16 fc 1f b8 43 a8 7a ba
       -4.537461e-06 -0.00027008218 -3.8143327e-05 -0.0009561816
000180 01 b1 cb ba 6d 06 11 ba 30 c5 18 b9 2c 98 9b 39
       -0.0015540422 -0.00055322686 -0.00014569308 0.0002967728
000190 9c 14 13 bb e3 aa 9f ba fc cd db 38 ea 53 58 3a
       -0.0022442704 -0.0012181666 0.00010481101 0.000825225
0001a0 cd a2 b8 39 04 34 0d 39 75 9a 21 ba b2 e7 b7 ba
       0.0003521651 0.00013466185 -0.00061646785 -0.0014030843
0001b0 df 36 03 bb dc 09 1a bb 3d 88 0c bb 87 a2 14 bb
       -0.002002172 -0.0023504412 -0.002144351 -0.0022679882
0001c0 aa 8a 67 bb e2 ed 60 bb 33 e0 1a bb d5 cd 4e bb
       -0.0035330453 -0.0034321477 -0.0023632168 -0.003155579
0001d0 4a a4 76 bb a0 41 26 bb 8b c0 17 b8 77 9f 08 37
       -0.0037634545 -0.0025368705 -3.6180525e-05 8.14336e-06
0001e0 ac bc 26 bb f1 94 07 ba 6e 4a 1a 3a 9c fd 2e ba
       -0.0025442047 -0.00051720353 0.00058857247 -0.0006675364
0001f0 e0 3b 23 ba 7e 8a b7 ba b7 59 c9 ba 80 35 d6 ba
       -0.00062268786 -0.0014003066 -0.001536182 -0.0016342849
000200 68 31 e6 ba e2 73 79 bb 26 15 35 bb 4e 65 48 bb
       -0.0017562332 -0.0038063456 -0.0027631014 -0.003057796
000210 80 98 7e bb 34 3f 8d bb 26 b3 6a bb ed 50 9a bb
       -0.0038848221 -0.004310513 -0.0035812347 -0.004709354
000220 e6 87 96 bb c9 06 2e bb c7 9f bb ba e7 34 e3 38
       -0.004593837 -0.0026554337 -0.0014314585 0.00010834057
000230 7d 2b 0f 39 31 3b 3e 3a cd b7 d6 3a b8 55 cb b8
       0.00013653743 0.0007256745 0.0016381681 -9.695761e-05
000240 d8 94 a4 3a 94 c9 9c 39 18 7e 9c 3a d9 71 30 ba
       0.0012556566 0.00029904826 0.0011939434 -0.0006730832
000250 0d ea f2 ba d8 7a 6f bb d6 ff 20 bb 34 8d 23 bb
       -0.0018532887 -0.0036541726 -0.0024566553 -0.002495599
000260 10 99 25 bb 88 ce 4f bb 44 52 3e bb 42 c6 4a bb
       -0.0025268234 -0.0031708796 -0.0029040733 -0.0030940925
000270 c8 5e 4a bb 30 ef 31 bb 15 30 17 bb fa 05 24 b9
       -0.0030879248 -0.0027150624 -0.002306943 -0.00015642485
000280 aa 82 21 39 27 85 52 3a 66 98 09 3b 17 c9 53 3a
       0.00015402833 0.00080307055 0.0020995378 0.0008078976
000290 27 97 c9 3a 0e 6f d5 3a fa 1a 98 3a 52 ca 4c ba
       0.001538013 0.0016283707 0.0011604719 -0.00078121305
0002a0 e2 7c 5c bb ac f6 5e bb 87 fc 00 bb 17 2b 42 bb
       -0.0033643772 -0.003402154 -0.0019681768 -0.0029627734
0002b0 56 28 e4 ba 52 60 ce ba 51 37 22 bb c2 22 27 bb
       -0.001740704 -0.0015745258 -0.002475221 -0.0025502895
0002c0 36 c9 14 bb 47 4a 53 bb 49 d1 5f bb 5d cb ee b9
       -0.002270294 -0.0032240318 -0.0034151843 -0.00045546415
0002d0 fe 95 cb b8 8c 87 00 3a a4 5e d1 3a d9 bd de 3a
       -9.7077325e-05 0.00049030106 0.001597364 0.0016993835
0002e0 47 4f a8 3a 08 36 94 3a c6 9e 2f ba 5d 3b 2b bb
       0.0012841009 0.0011307606 -0.00066993793 -0.0026127913
0002f0 31 d4 93 bb 32 b4 58 bb 57 0f 6c ba df 4b 73 ba
       -0.004511379 -0.003306639 -0.00090049714 -0.000928102
000300 87 1a 8b 39 8a ec 86 b9 38 86 ef ba c4 43 39 bb
       0.0002653191 -0.00025734707 -0.0018274253 -0.0028269151
000310 9f ff 3e bb f2 75 3c bb 8d ae ac ba 0a 5e 5e 39
       -0.0029144061 -0.0028756824 -0.0013174579 0.00021206602
000320 46 59 9c ba 85 e5 06 b9 77 cb c8 ba 6b a0 74 ba
       -0.0011928461 -0.00012864739 -0.0015319426 -0.00093317655
000330 f2 49 15 ba b4 bd 0e bb da 5d fc ba ba 32 4d bb
       -0.00056949176 -0.0021780552 -0.0019254044 -0.0031310753
000340 0d 05 93 bb e7 4c f2 ba b4 67 97 ba 48 e9 e1 ba
       -0.004486686 -0.0018486053 -0.0011551292 -0.0017235661
000350 cc b3 51 39 3b 03 06 ba 55 04 d3 ba 7a 64 44 bb
       0.00019998773 -0.0005112176 -0.0016099314 -0.0029967115
000360 53 fc 49 bb 4d f4 22 bb 29 78 cc ba b8 b9 f3 39
       -0.0030820563 -0.0024864853 -0.0015599775 0.00046486943
000370 65 f7 85 ba 69 d2 7f b9 bb 85 e2 ba 78 ba 06 bb
       -0.0010220824 -0.00024397079 -0.0017282286 -0.0020557921
000380 15 29 da ba 2b 42 74 bb 04 8f 45 bb 27 f3 3f bb
       -0.0016644323 -0.0037270884 -0.0030145058 -0.0029289217
000390 76 6a 00 bb ab 4d bf b9 f8 93 f6 b9 50 08 10 bb
       -0.0019594706 -0.00036488226 -0.00047031022 -0.002197761
0003a0 29 89 08 bb 31 37 0d bb 47 10 32 bb 88 bc 51 bb
       -0.0020833707 -0.002154779 -0.0027170347 -0.0032003243
0003b0 8d 0a 51 bb 76 2a 1b bb 7f 5b cf ba 9c 2e 55 3a
       -0.0031897158 -0.0023676432 -0.0015820115 0.00081322505
0003c0 d7 c6 65 b7 55 a7 9e 3a ff 07 5a b9 69 bc 6e b7
       -1.369576e-05 0.0012104312 -0.00020793079 -1.4229773e-05
0003d0 2b 02 f1 37 f0 f8 13 bb b3 0d 46 bb 0c ff 0a bb
       2.8730448e-05 -0.0022578798 -0.0030220568 -0.0021209149
0003e0 17 f3 bc 38 0b fa 39 ba 3c d7 59 ba f6 81 1f bb
       9.0098176e-05 -0.0007094449 -0.00083099655 -0.0024338937
0003f0 d5 10 12 bb 0f 3b 48 bb 2d 0c 69 bb 1f 06 6e bb
       -0.0022287865 -0.003055278 -0.0035560236 -0.0036319566

weight_hh_l0 f4 [128, 32]
000000 b3 50 e0 ba 86 28 9f 3a 83 50 31 3b b3 58 33 3a
       -0.0017113894 0.0012142814 0.0027056045 0.00068415253
000010 4c c4 a1 3b 1b 91 d3 bb 0c f5 35 bb 39 97 96 bb
       0.0049367305 -0.006456507 -0.0027764468 -0.004595664
000020 3a 92 cc 3a 1d ad a9 3b 87 a9 25 3a 9b 32 8b bb
       0.0015607544 0.0051781074 0.0006319512 -0.004247976
000030 89 71 e1 ba 12 91 2e 3c 73 56 9f 3b f4 66 d4 bb
       -0.0017199974 0.010654705 0.0048626005 -0.0064819995
000040 00 58 fc bb fe 8d 16 bb ee 95 f9 3b 03 79 d2 ba
       -0.00770092 -0.0022972818 0.00761675 -0.0016057793
000050 f8 e6 48 3b ba 39 1f 3a 09 9d a4 ba ed 43 6f 3b
       0.0030655246 0.00060739706 -0.0012559007 0.0036508993
000060 9f 7f 0a 3c 31 57 5e 3b 77 4b 22 3b 3c d4 79 38
       0.008453279 0.0033926482 0.0024764219 5.9563885e-05
000070 38 74 97 ba 24 c9 95 3a 15 6f e5 3b 20 04 20 ba
       -0.0011555022 0.0011427742 0.0070017674 -0.00061041303
000080 42 f4 91 3d 81 7f 09 3e 33 6a 48 be 7a 66 c6 3d
       0.071266666 0.13427545 -0.19571762 0.096875146
000090 7d 48 f6 3d f8 48 fc bc 60 7e 53 bd ca 69 2b 3e
       0.12025545 -0.030796513 -0.051634192 0.16739574
0000a0 e6 6e d8 bd d3 c7 ec 3d 37 4e c5 3d 4f 44 ca 3d
       -0.10568027 0.11561551 0.09634059 0.0987631
0000b0 79 41 a9 be a6 ce 7c be d8 8d 77 bb 5f 44 13 3c
       -0.33057764 -0.24688205 -0.0037773754 0.008988469
0000c0 e6 08 cd bd 47 0e 05 bc 9a d9 88 be 10 36 a9 3d
       -0.10011463 -0.00812108 -0.26728517 0.08262265
0000d0 0f aa 38 bd 13 5a 82 3d be 06 f7 3c 07 e3 1f bd
       -0.045084056 0.063648365 0.030154582 -0.03903487
0000e0 ab b2 ad 3d 22 8b e9 bc 93 c2 bf bd 61 a7 a6 bc
       0.08481344 -0.028508727 -0.09363284 -0.020343484
0000f0 91 d3 8f 3d d3 e3 e8 3c 85 ee 25 be 56 36 cb 3e
       0.07022775 0.028428948 -0.16204269 0.39689893
000100 0a 5e ee bc 2b b5 1b 3d 1f c9 5e bc 54 48 df ba
       -0.029097576 0.038014572 -0.013597756 -0.0017035105
000110 c5 c3 a7 3d 13 96 10 bc 29 3f 51 bd 70 32 f9 3c
       0.08191637 -0.008824843 -0.051085625 0.030419558
000120 20 7c 99 3d d6 6a 0f 3d 02 e4 a2 b8 84 1f 2f bc
       0.07494378 0.035013996 -7.767232e-05 -0.010688666
000130 79 fe 7f bd 4a f7 18 3d 0f 51 64 3d 76 a4 c1 bd
       -0.062498543 0.03734521 0.055741366 -0.094551966
000140 58 b4 93 bd 12 de 11 bd db 79 4d bd c5 4c b0 bc
       -0.07212132 -0.035612173 -0.05016504 -0.021520982
000150 13 52 1d 3d 7a e5 ba bc 46 12 22 bd 97 cd 89 bc
       0.03840835 -0.022814501 -0.03956821 -0.016821666
000160 48 e4 0a 3e 94 be a5 3d a6 8d 18 bc d0 b2 3b bc
       0.13563645 0.080929905 -0.009311115 -0.011456206
000170 58 66 e6 bc c1 4e d7 bb 78 14 fe bd ef a9 d2 3c
       -0.028124973 -0.0065706675 -0.12406248 0.025715796
000180 c4 cf d8 3b f3 3b 5d 3d 6d 49 cd bc 63 54 6c 3c
       0.0066165645 0.05401225 -0.025059426 0.014424416
000190 43 65 60 3c 2d 6a 66 bc b8 13 b1 bb d8 b7 c1 3c
       0.013696018 -0.0140634 -0.005403962 0.023647234
0001a0 83 76 85 3b eb 96 88 3b 9b 7c 1f 3c a9 b2 ec ba
       0.0040729656 0.0041683814 0.009734298 -0.0018058616
0001b0 7f 73 82 bc 58 d1 31 3d ec ce 83 3c f4 7d a5 bd
       -0.015924213 0.043412536 0.016089879 -0.08080664
0001c0 49 5b 16 bc 48 06 9b ba aa 6f f5 3b ce f6 0a 3c
       -0.0091770375 -0.0011827433 0.007490118 0.008481694
0001d0 4a 9e a6 bb 23 fd 65 bb 76 01 1a 3b 23 4c 4c 3c
       -0.0050847875 -0.0035093508 0.0023499406 0.012469324
0001e0 65 c6 ae 3c 6c e3 1d 3c 86 71 4a bc 1c 99 78 bb
       0.021334836 0.009636741 -0.012356168 -0.0037933057
0001f0 7a 71 b2 3b c6 8f 1d 3c 17 3d 5b bc 33 79 c3 ba
       0.0054456564 0.009616798 -0.013381264 -0.001491344
000200 84 ac a0 3b 82 0a 6d 3c af a9 3d 3d da 8c ff 3b
       0.004903378 0.014467837 0.0463044 0.0077987732
000210 91 45 9e 3a 23 cd c6 bc d3 23 b7 bb ab 8e 04 3d
       0.0012075176 -0.024267739 -0.0055889874 0.03236262
000220 e9 c3 00 3c 40 bb 87 3b 82 12 ed 3b e8 c7 3b bc
       0.007859209 0.004142195 0.0072348723 -0.011461236
000230 a2 23 e6 3b 49 07 6d 3d e8 26 27 3c ef 70 6c 3c
       0.0070232907 0.057868276 0.010202147 0.014431222
000240 56 cf d9 bc 9c 62 77 3b 37 ca 99 3b 9a d5 01 3b
       -0.026588123 0.0037747985 0.0046932953 0.0019811154
000250 d8 e8 1a bb bb 2c df bb 52 b4 95 3b 28 b5 8f 3c
       -0.002363732 -0.006810752 0.004568615 0.017542437
000260 49 d3 5f 3d d2 26 66 bd f6 cb 12 3d 10 de c2 39
       0.054644857 -0.056189366 0.035839044 0.00037168013
000270 db d2 01 3c a4 a4 8b 3b 31 40 66 bc 95 eb 42 bd
       0.007923807 0.00426157 -0.01405339 -0.04758795
000280 02 80 d5 bb 25 4c 63 bb 85 d2 2d 3d 79 4a 3f bb
       -0.006515504 -0.0034682837 0.042437095 -0.0029188676
000290 8d 64 36 3b aa b2 6b bc 62 63 9d 38 67 42 bf 3b
       0.002783093 -0.014385859 7.504855e-05 0.005836773
0002a0 2b f4 ab 3c 16 98 cb 3b 29 d2 1b bb 79 bd 8f bc
       0.020990452 0.0062131984 -0.0023776388 -0.017546402
0002b0 4c 0e 2d 3c 8c d2 f3 3c 11 00 79 3c 2d 54 0e 3d
       0.010562491 0.029763483 0.01519777 0.034748245
0002c0 06 f2 c8 bc f9 16 4e 3c 2d 61 58 3c 5d 89 41 bc
       -0.024529468 0.012578719 0.013206762 -0.011812535
0002d0 a3 d5 fc 3a 94 bf 70 b9 40 14 51 3b d3 d5 40 3c
       0.0019289743 -0.00022959552 0.003190294 0.01176973
0002e0 d1 e9 cb 3c 39 fb 1a bd 3b 43 f5 3c 07 5c 36 3c
       0.024891766 -0.03783724 0.029939285 0.0111303395
0002f0 2b 28 14 3b a3 79 10 3c 02 b7 89 39 e0 04 1a bd
       0.002260695 0.008818063 0.00026267028 -0.037602305
000300 a0 84 02 bb 1e 2d 05 b9 c4 2f f2 3c c3 8a b3 3a
       -0.0019915476 -0.00012700676 0.029563792 0.001369797
000310 69 3a 32 3c c4 a6 89 bc 2c 70 00 bc 4b a6 2d 3c
       0.010878184 -0.016803153 -0.007839244 0.010598729
000320 af aa 56 3b 8a 6f 13 b9 ed f1 86 3b 06 05 ab bb
       0.0032755544 -0.00014060564 0.0041181953 -0.0052191047
000330 45 40 2b bb b0 bb f3 3c 2d 18 af 3b f5 bc b4 3c
       -0.0026130837 0.029752582 0.005343458 0.022062758
000340 04 9d 96 bc 52 cb 0c bb 9b be 83 bb f7 a1 64 bb
       -0.018385418 -0.0021483493 -0.0040205247 -0.0034886578
000350 4d 22 b8 3b db ef f6 3a 39 d8 15 3a 44 65 6d 3b
       0.0056193233 0.0018839793 0.00057161186 0.003622369
000360 12 c6 b8 3c 8f 38 ef bc d6 3f 1f 3c 87 3b a0 3a
       0.022555385 -0.029201774 0.0097198095 0.0012224772
000370 fd 19 bb 3a 9d f7 ab 3a 40 50 f2 3b ff 29 ab bc
       0.0014274713 0.0013120059 0.0073948205 -0.020894049
000380 2e c1 c8 3b 1e 2b e0 3d a1 f4 c2 3d b9 84 c1 3c
       0.0061265444 0.10945724 0.095193155 0.023622857
000390 8b 72 73 3d c3 12 57 bd 19 8a 4c bc b3 b7 02 3d
       0.05943541 -0.052508127 -0.012484097 0.03191347
0003a0 27 ee 16 3d b5 cb 92 3d bd f0 9f 3c 86 5b 1f bd
       0.036848214 0.0716776 0.019523973 -0.038905643
0003b0 1c fd 03 be 3e e6 0a bd f8 c6 71 3d 21 21 e8 bc
       -0.12889522 -0.033910982 0.059027642 -0.02833611
0003c0 92 15 db bd 0b af 80 3c c7 3e d2 3c 25 d1 71 3b
       -0.106974736 0.015708467 0.0256647 0.0036898341
0003d0 72 0d 32 bc d1 f7 ac 3c 59 0b f3 b9 b5 5a d0 3c
       -0.010867463 0.021114262 -0.00046357026 0.025433877
0003e0 e7 65 08 3e d7 d8 0e be 27 d3 84 3d 87 e3 0b 3c
       0.13320123 -0.13949905 0.064855866 0.008538133
0003f0 08 86 03 3c 5b 08 aa 3c 23 2e 9d bc 88 e8 80 3c
       0.008027561 0.020755937 -0.019187039 0.01573588

bias_ih_l0 f4 [128]
000000 41 86 3e 3e c3 f5 2b 3e da 33 d2 3e 64 8e 3d 3e
       0.18605901 0.1679297 0.41055185 0.18511349
000010 c8 c6 c3 3e 25 58 8a 3e e8 e3 8e 3e 83 fc f0 3e
       0.38237596 0.27020374 0.27908254 0.4706765
000020 a2 50 08 3f d6 f3 c9 3e 3a be 84 3e a2 6e 42 3e
       0.53248036 0.39443845 0.2592638 0.18987516
000030 d1 ac f1 3e 9f 9c 31 3f 52 df af 3e 96 99 62 3f
       0.4720216 0.6937961 0.34350067 0.88515604
000040 43 85 11 3f 51 f4 87 3e 60 8d c5 3e f7 8c 48 3e
       0.56843966 0.26553586 0.38584423 0.19585024
000050 b5 97 5f 3e 82 89 95 3e 80 f4 2f 3e 33 94 09 3d
       0.21835215 0.29206473 0.17183113 0.0335886
000060 3f 8c 19 3f 5a de e6 3e ea e3 cb 3d 90 63 32 3e
       0.59979624 0.45091516 0.099555805 0.17420793
000070 16 21 63 3e 60 fe 9e 3e 4b 17 ef 3e ae ba 25 3f
       0.2218059 0.31053448 0.4669746 0.64737976
000080 ca 8c 36 3d 21 0b 14 3e 65 be af 3d 73 84 d2 3d
       0.04456786 0.1445737 0.08581237 0.10279169
000090 07 67 71 3e 0d 3e f7 bb ff 3d 68 3d 45 7d 81 bd
       0.23574458 -0.007545239 0.05669975 -0.063227214
0000a0 02 e0 39 be c4 e4 8b be 1d 84 f8 3c cc eb 36 3d
       -0.18151858 -0.27322972 0.030336434 0.044658467
0000b0 c6 85 b6 bb fc 6d 4f 3e 9d 57 b1 3c a3 7d a7 bd
       -0.0055701463 0.202568 0.021648223 -0.0817826
0000c0 7d 1e be bc e4 4d 62 3d b4 a6 bb bd b8 23 9d 3d
       -0.023207897 0.055250064 -0.091626555 0.076728284
0000d0 0d 32 d3 3d 4e ce cd 3d a3 ef 61 39 2b 33 6d 3d
       0.10312281 0.10049115 0.00021546944 0.057910126
0000e0 44 fa ce bd fe cf 26 be cb c5 8c 3d bb c8 c1 3c
       -0.10106328 -0.1629028 0.068736635 0.023655286
0000f0 dc 43 5c 3c cd 63 2a 3d 23 4b dd 3d 57 d6 8e 3e
       0.013443913 0.041599084 0.10805347 0.27897903
000100 f4 5f dd 3c 09 65 46 bd 73 6b 2e 3c c8 3a 0f 3d
       0.027023293 -0.0484362 0.010645735 0.034968168
000110 49 c9 3e 3d 34 58 cf 3b eb 1f 0a bd 08 19 0c 3d
       0.04657868 0.0063276533 -0.033721846 0.03420356
000120 d6 b3 74 bc 6c 7d ed bd b9 ce f4 bc 1d 81 87 bd
       -0.014935454 -0.11596188 -0.02988373 -0.06616423
000130 bd 69 e0 3d 4d 77 16 3e 5a ca a7 bd 43 71 ac bd
       0.10957668 0.14693947 -0.081928924 -0.084200405
000140 da 46 60 bd 3e 39 b6 bb e5 90 a3 3d a9 f7 10 3d
       -0.05475507 -0.005561023 0.07986621 0.035392437
000150 33 09 77 bd ba 83 ca 3c 23 07 20 3c e9 24 94 bd
       -0.060311507 0.024721015 0.0097673265 -0.072336026
000160 01 e2 b4 3d 1d 90 b3 bd 9f 3f 20 3e 5c 65 a8 bc
       0.08832169 -0.08767722 0.1564927 -0.020556144
000170 47 9a eb 3c 05 38 9d bd 99 b9 08 3e 6e 93 0a 3e
       0.028760089 -0.076767005 0.1335205 0.13532802
000180 0c 78 3e 3e 11 54 41 3e 71 42 58 3e 66 51 41 3e
       0.18600482 0.18879725 0.21119095 0.18878707
000190 7f 2b c3 3e 4d 7e 8a 3e 6c d1 8e 3e 2e 69 e3 3e
       0.38119122 0.27049485 0.2789415 0.44416183
0001a0 d1 88 07 3f d7 e5 bf 3e 30 9e 84 3e 17 1c 44 3e
       0.5294314 0.3748004 0.25901937 0.1915134
0001b0 91 06 04 3f ca 05 32 3f 79 93 b3 3e cf 57 57 3f
       0.5157252 0.69540083 0.3507345 0.8411836
0001c0 51 79 0f 3f b1 a7 87 3e f0 30 e1 3e 71 70 48 3e
       0.5604449 0.26495126 0.4398265 0.19574143
0001d0 b6 7f 5f 3e 6b 83 ac 3e c8 eb 2f 3e d9 e9 b9 3d
       0.21826062 0.33694014 0.17179787 0.09077806
0001e0 d7 7a 12 3f 36 ad 1a 3f ad 85 6c 3e b0 24 32 3e
       0.5721869 0.6042055 0.23097868 0.17396808
0001f0 f8 0a 63 3e f0 1d a0 3e 10 a6 ec 3e bd 1c 2c 3f
       0.22172153 0.3127284 0.46220446 0.6723135

bias_hh_l0 f4 [128]
000000 41 86 3e 3e 4e 44 90 3e 17 fd 9b 3e 70 49 3b 3e
       0.18605901 0.28177112 0.3046653 0.18289733
000010 ba c0 c3 3e c5 93 8a 3e e8 e3 8e 3e d7 1f f4 3e
       0.38232976 0.27065864 0.27908254 0.47680542
000020 30 7c 0f 3f 99 a0 d0 3e 3a be 84 3e c2 d3 45 3e
       0.5604887 0.40747526 0.2592638 0.1931906
000030 5f 3d 07 3f bc 7a 2f 3f 5b c4 b0 3e da 93 62 3f
       0.5282802 0.6854665 0.34524807 0.88506854
000040 4a 1e 05 3f 51 f4 87 3e 27 07 da 3e f7 8c 48 3e
       0.5199934 0.26553586 0.42583582 0.19585024
000050 b5 97 5f 3e 39 e6 a4 3e 80 f4 2f 3e 3b 4d fd 3d
       0.21835215 0.32206896 0.17183113 0.12368246
000060 d4 d9 0f 3f a3 f2 0a 3f a7 d0 33 3d 90 63 32 3e
       0.56191754 0.54276484 0.04390016 0.17420793
000070 16 21 63 3e 2c 68 9e 3e ad 07 ef 3e 2b f7 2e 3f
       0.2218059 0.30938852 0.46685544 0.683459
000080 ca 8c 36 3d 51 f9 7e 3e 19 db a1 bc 89 d6 ca 3d
       0.04456786 0.24899794 -0.019757794 0.099042006
000090 c6 70 71 3e 17 c8 18 bc ff 3d 68 3d 3c b8 05 be
       0.23578176 -0.009325049 0.05669975 -0.13058561
0000a0 52 1f 37 be 9b 25 87 be 1d 84 f8 3c 39 21 35 3d
       -0.17883042 -0.26395878 0.030336434 0.044221137
0000b0 22 c6 53 bd 27 f6 51 3d 2b 98 a4 3c b1 7c 4b be
       -0.051702626 0.05126014 0.02009209 -0.19871785
0000c0 cd bf 70 bd e4 4d 62 3d bd 5f ed bd b8 23 9d 3d
       -0.058776665 0.055250064 -0.11590526 0.076728284
0000d0 0d 32 d3 3d 26 c7 dc 3d a3 ef 61 39 14 fb 4e 3d
       0.10312281 0.10780172 0.00021546944 0.050532416
0000e0 25 c4 01 be 79 f5 a2 3d 49 46 5b 3e bb c8 c1 3c
       -0.1267248 0.079569764 0.2141353 0.023655286
0000f0 dc 43 5c 3c db 42 28 3d c8 14 e1 3d 17 dd ba 3e
       0.013443913 0.041079383 0.10990292 0.36496803
000100 0f 05 ef bc c1 0c ab 3d 7b ef 7c 3c 46 38 21 bd
       -0.029177217 0.08352042 0.015437956 -0.039360307
000110 37 44 20 bd 62 03 89 bd c3 82 9c 3c dc ff e4 3c
       -0.039127555 -0.06690098 0.01910532 0.027954035
000120 ed bf cf 3c ff 51 d5 3d ab ab 23 3d cb 3d 39 3d
       0.025360072 0.1041603 0.039958637 0.045224946
000130 1a 1a 9a bd eb 69 c2 bd 8a ee cd 3d 5c bb 01 3e
       -0.0752451 -0.094928585 0.10055263 0.12669128
000140 8d c9 87 3c 50 8c eb b7 ba 89 f8 bd 20 b7 21 bd
       0.0165756 -2.8079521e-05 -0.12135644 -0.039481282
000150 8b 2a 8b 3d 84 c2 b4 39 24 48 53 bc 76 65 59 3d
       0.06795224 0.000344772 -0.012895618 0.053075276
000160 7f 8d 27 bd c8 a6 26 bc 0c e5 33 be e7 5c 95 3c
       -0.040906426 -0.0101716 -0.17567843 0.018232776
000170 ef a1 f2 bc 1d b9 ba 3d e5 65 dd bd 4f 86 19 be
       -0.029618232 0.09117339 -0.108104505 -0.14992641
000180 0c 78 3e 3e 1a 4c 1c 3e de 57 cf 3e ad 29 5a 3e
       0.18600482 0.15263405 0.40496725 0.2130496
000190 f1 cb c3 3e ab dd 89 3e 6c d1 8e 3e a3 eb 01 3f
       0.38241532 0.26926932 0.2789415 0.5075018
0001a0 1f f0 10 3f 85 9a bd 3e 30 9e 84 3e 40 dc 40 3e
       0.56616396 0.37031952 0.25901937 0.18834019
0001b0 96 45 fd 3e ca 53 2b 3f 43 9a ae 3e 26 b9 65 3f
       0.49467152 0.66924727 0.34102067 0.8973564
0001c0 53 39 0b 3f b1 a7 87 3e 43 70 f3 3e 71 70 48 3e
       0.54384345 0.26495126 0.47546586 0.19574143
0001d0 b6 7f 5f 3e 02 c4 a9 3e c8 eb 2f 3e 1b 90 f8 3d
       0.21826062 0.33157355 0.17179787 0.12136861
0001e0 6e 25 17 3f 9b 93 13 3f 83 03 a3 3c b0 24 32 3e
       0.5904149 0.57647103 0.019899135 0.17396808
0001f0 f8 0a 63 3e 19 c6 9e 3e 95 12 ed 3e 0e fc 18 3f
       0.22172153 0.31010512 0.4630324 0.59759605

hidden_states f4 [53, 7, 32]
000000 00 00 00 00 00 00 00 00 00 00 00 00 00 00 00 00
       0.0 0.0 0.0 0.0
000010 00 00 00 00 00 00 00 00 00 00 00 00 00 00 00 00
       0.0 0.0 0.0 0.0
000020 00 00 00 00 00 00 00 00 00 00 00 00 00 00 00 00
       0.0 0.0 0.0 0.0
000030 00 00 00 00 00 00 00 00 00 00 00 00 00 00 00 00
       0.0 0.0 0.0 0.0
000040 00 00 00 00 00 00 00 00 00 00 00 00 00 00 00 00
       0.0 0.0 0.0 0.0
000050 00 00 00 00 00 00 00 00 00 00 00 00 00 00 00 00
       0.0 0.0 0.0 0.0
000060 00 00 00 00 00 00 00 00 00 00 00 00 00 00 00 00
       0.0 0.0 0.0 0.0
000070 00 00 00 00 00 00 00 00 00 00 00 00 00 00 00 00
       0.0 0.0 0.0 0.0
000080 35 c1 2a 3b c7 55 bf bd c9 49 bf bd 28 da 71 3c
       0.0026055102 -0.093425326 -0.09340245 0.014761485
000090 9f d8 29 3d 8c c4 ce bc cb ac 9f bb 13 24 18 be
       0.04146635 -0.025240205 -0.0048728934 -0.14857511
0000a0 1e 87 d6 3c fe 8c 53 3d 6f c2 31 3c 74 f1 87 bb
       0.026187476 0.051648133 0.010849579 -0.0041486565
0000b0 8e b1 fe bd 1b 7d 00 be 14 39 d6 3c e4 31 be be
       -0.124362096 -0.12547724 0.026150264 -0.3714744
0000c0 bb a9 dc bd c4 43 da bb d4 ae aa 3d 39 a7 70 3b
       -0.10774561 -0.0066609103 0.08334127 0.0036720766
0000d0 52 52 77 3b b9 80 b8 bc b5 50 6c 3b 4b 04 24 3d
       0.0037738276 -0.022522317 0.0036058847 0.040043157
0000e0 ba 5d 32 3c f6 24 77 3e 0d 7b 14 bd d2 6a c2 ba
       0.010886604 0.24135193 -0.036250163 -0.001483286
0000f0 ee 26 86 3b 45 2a 64 bb 16 64 71 3d 01 ae d6 3d
       0.0040939962 -0.0034815234 0.05893334 0.10482407
000100 78 06 ee b8 5c 40 bd bc 12 1f 54 be e5 91 4b 3c
       -0.00011349929 -0.023101978 -0.20714977 0.012424921
000110 23 b3 7d 3d 52 89 df bc 2a dd 55 bc 19 11 cd bd
       0.061938416 -0.02728716 -0.013053218 -0.10013027
000120 ef 8f 01 3b 5a 61 d1 3c c3 e6 84 3c dc 5e 9e 3c
       0.001976963 0.025559116 0.016223317 0.019332342
000130 8a 67 a3 bd 49 69 c8 bd 55 82 c2 3c 96 18 d1 be
       -0.07978733 -0.097857065 0.023743788 -0.4083907
000140 13 3a 9a bd ce d3 95 bc 62 74 87 3c 2e c1 70 3b
       -0.07530608 -0.018289473 0.016534988 0.0036736238
000150 16 32 52 3c b0 b1 15 bc b0 e3 33 ba 01 54 92 ba
       0.012829324 -0.009136602 -0.0006862236 -0.0011163951
000160 07 f4 32 bd 76 26 37 3e 47 1d 44 be 66 6e e1 bb
       -0.043689754 0.17885765 -0.19151793 -0.0068796156
000170 bf 98 89 3a 8e f8 0e bc 3c c6 89 3d 1e 68 d9 3d
       0.0010497792 -0.008726252 0.06727263 0.10615562
000180 2d 5f d5 bb 3c a1 05 3d ac f5 70 be 8a c9 fe 3b
       -0.00651159 0.03262447 -0.23531216 0.00777549
000190 60 39 8e 3d a6 8b d8 bc b7 fb 77 bc 7b e5 73 bd
       0.06944537 -0.026433777 -0.015135697 -0.05954502
0001a0 29 a3 1b ba a5 d8 5e bc f2 e3 6d 3c 6f 87 0c 3d
       -0.00059370935 -0.013601457 0.014519678 0.034308847
0001b0 95 fc 9f bd da f8 b0 bd e6 b4 c3 3a 49 7b d4 be
       -0.07811848 -0.08641215 0.0014931231 -0.4150031
0001c0 51 20 92 bd 22 1a ca bc 91 6e 9b bc a9 9a a4 ba
       -0.0713507 -0.024670664 -0.01897362 -0.0012558299
0001d0 f2 a8 b1 3c d4 e5 d9 bb c4 08 c7 bb 59 a6 fc bc
       0.021687005 -0.006649712 -0.006074043 -0.03084104
0001e0 54 e8 51 bd 10 d8 fa 3d 8f 3e 8a be 02 49 f0 bb
       -0.051246956 0.12248242 -0.27000853 -0.007332922
0001f0 ad 15 a7 bb f4 3d c6 bc 1d 35 bd 3d ca 65 d3 3d
       -0.0050990195 -0.024199463 0.09238646 0.10322149
000200 52 a0 47 bc 16 74 a7 3d 72 68 77 be 6b d7 63 3b
       -0.012184219 0.081764385 -0.24160936 0.003476585
000210 b2 a6 91 3d 04 5a cd bc 4e 47 3e bc 43 84 69 bd
       0.07111873 -0.025067337 -0.01161368 -0.0570109
000220 b5 51 99 b9 84 23 c2 bc cc 75 12 3c 8d 1e 2b 3d
       -0.0002924331 -0.023698576 0.008939218 0.041777182
000230 7a 28 cd bd 27 4b b1 bd 7c bf aa bc 70 e3 d8 be
       -0.10017486 -0.08656912 -0.02084326 -0.4236102
000240 1c 63 9a bd 02 fe c9 bc 73 f6 4e bc 55 97 f0 bb
       -0.07538435 -0.024657253 -0.012632 -0.007342259
000250 71 29 d9 3c a4 25 c5 bb 9e ad 11 bc 10 ef 53 bd
       0.026509019 -0.00601645 -0.008891491 -0.05174166
000260 b9 2e 1f bd f0 da be 3d df b0 a0 be 52 ac 7e bb
       -0.038862918 0.09319103 -0.31384942 -0.0038860035
000270 14 12 1e bc 5a 9f 1b bd e5 f3 e0 3d 32 ad e1 3d
       -0.009647865 -0.037993766 0.10984019 0.110193625
000280 26 11 73 bc d1 39 0b 3e 7d 2f 7e be 65 37 05 bb
       -0.0148356315 0.13596274 -0.24822803 -0.0020327207
000290 c7 aa 8b 3d 94 6f df bc 2e 35 c0 bb e6 c2 62 bd
       0.068196826 -0.027274884 -0.0058657145 -0.05536165
0002a0 fe 3e 9f bb e1 e8 a0 bc f0 9b 87 3b 14 ed 3d 3d
       -0.004859804 -0.019642295 0.0041384622 0.046368673
0002b0 2b 91 e0 bd d2 06 91 bd 95 4d 1d bd db 84 da be
       -0.109651886 -0.07081379 -0.038404066 -0.42679486
0002c0 7a 6d 87 bd ae 12 a5 bc e0 e4 25 3b 8e aa 39 bc
       -0.06612678 -0.020150509 0.0025313422 -0.011332167
0002d0 8f 55 d9 3c e6 38 99 39 0e 39 0f bc b7 ec 95 bd
       0.026530055 0.00029224827 -0.00874163 -0.073205404
0002e0 55 d4 d2 bc a2 d1 91 3d 93 97 b1 be 72 e5 64 3a
       -0.025736013 0.071200624 -0.34685954 0.00087317
0002f0 82 97 33 bc 3e e8 36 bd d4 41 e9 3d eb 42 ec 3d
       -0.010961415 -0.044655077 0.11389509 0.11536201
000300 06 71 71 bc 42 b5 3c 3e 38 03 81 be 22 53 ff bb
       -0.01473642 0.1842852 -0.25197768 -0.0077918926
000310 31 bc 7d 3d a8 c2 04 bd bc 7f fd b9 f4 e9 30 bd
       0.06194705 -0.0324122 -0.0004835109 -0.043191865
000320 b3 72 25 bc 63 79 86 bc 74 63 dc 3a 89 cb 4c 3d
       -0.010098147 -0.016415304 0.0016814307 0.049998794
000330 71 2b d3 bd 8d d9 2c bd f1 b6 52 bd c1 03 d9 be
       -0.1031102 -0.04219966 -0.051443998 -0.42385677
000340 10 1f 4b bd d9 66 64 bc ab 03 4d 3c 66 d9 4f bc
       -0.04959017 -0.013940536 0.012513082 -0.012686109
000350 95 bc bf 3c a2 46 23 3c d7 68 dd bb b1 85 bb bd
       0.023405353 0.009965571 -0.0067568826 -0.09156359
000360 32 c1 76 bc 4d 49 5d 3d 8a 1f bc be 74 f6 a8 3b
       -0.01506071 0.054024983 -0.36742812 0.0051563326
000370 42 15 21 bc 50 b2 39 bd 1b 3b e4 3d a9 84 e5 3d
       -0.009831728 -0.045336068 0.11144086 0.112069435
000380 00 00 00 00 00 00 00 00 00 00 00 00 00 00 00 00
       0.0 0.0 0.0 0.0
000390 00 00 00 00 00 00 00 00 00 00 00 00 00 00 00 00
       0.0 0.0 0.0 0.0
0003a0 00 00 00 00 00 00 00 00 00 00 00 00 00 00 00 00
       0.0 0.0 0.0 0.0
0003b0 00 00 00 00 00 00 00 00 00 00 00 00 00 00 00 00
       0.0 0.0 0.0 0.0
0003c0 00 00 00 00 00 00 00 00 00 00 00 00 00 00 00 00
       0.0 0.0 0.0 0.0
0003d0 00 00 00 00 00 00 00 00 00 00 00 00 00 00 00 00
       0.0 0.0 0.0 0.0
0003e0 00 00 00 00 00 00 00 00 00 00 00 00 00 00 00 00
       0.0 0.0 0.0 0.0
0003f0 00 00 00 00 00 00 00 00 00 00 00 00 00 00 00 00
       0.0 0.0 0.0 0.0

cell_states f4 [53, 7, 32]
000000 00 00 00 00 00 00 00 00 00 00 00 00 00 00 00 00
       0.0 0.0 0.0 0.0
000010 00 00 00 00 00 00 00 00 00 00 00 00 00 00 00 00
       0.0 0.0 0.0 0.0
000020 00 00 00 00 00 00 00 00 00 00 00 00 00 00 00 00
       0.0 0.0 0.0 0.0
000030 00 00 00 00 00 00 00 00 00 00 00 00 00 00 00 00
       0.0 0.0 0.0 0.0
000040 00 00 00 00 00 00 00 00 00 00 00 00 00 00 00 00
       0.0 0.0 0.0 0.0
000050 00 00 00 00 00 00 00 00 00 00 00 00 00 00 00 00
       0.0 0.0 0.0 0.0
000060 00 00 00 00 00 00 00 00 00 00 00 00 00 00 00 00
       0.0 0.0 0.0 0.0
000070 00 00 00 00 00 00 00 00 00 00 00 00 00 00 00 00
       0.0 0.0 0.0 0.0
000080 d5 8c 8f 3b 47 c8 1e be a9 44 15 be 38 c7 c8 3c
       0.004380802 -0.15506087 -0.14576973 0.024509057
000090 31 f4 7a 3d ab ac 24 bd f1 b0 fa bb d5 44 54 be
       0.061268035 -0.04020373 -0.0076504876 -0.20729382
0000a0 ab 81 0e 3d 5c 30 9b 3d e8 c9 8d 3c 78 c1 e4 bb
       0.03479163 0.07577583 0.01730819 -0.006981071
0000b0 6c 63 2a be 52 be 21 be a1 b3 1f 3d 76 da ea be
       -0.16639489 -0.15795258 0.038989667 -0.45869797
0000c0 8b 82 12 be df 31 2e bc d5 1b ed 3d 69 8c c8 3b
       -0.1430761 -0.010632007 0.11577574 0.006120254
0000d0 21 7a ca 3b d2 d2 0c bd 42 0f ca 3b 43 ae 94 3d
       0.0061791097 -0.03438074 0.0061663697 0.072598
0000e0 72 fd 68 3c 0f a0 ad 3e 63 cb 80 bd cc 96 26 bb
       0.014220582 0.33911178 -0.06288793 -0.0025419472
0000f0 b4 62 dc 3b 38 f7 af bb 47 95 a7 3d 37 ee 0d 3e
       0.0067256335 -0.005370047 0.08182769 0.13860403
000100 73 6a 47 b9 af cb 13 bd 3a aa a3 be 0d 94 a7 3c
       -0.00019017774 -0.03608292 -0.3196581 0.020456338
000110 c3 3e be 3d 53 72 34 bd a3 21 a9 bc c1 e3 0e be
       0.092893146 -0.04405434 -0.020645922 -0.13954069
000120 3e 46 2a 3b 1f 46 18 3d de 9d d6 3c 53 0f 07 3d
       0.002598181 0.037176248 0.026198324 0.0329736
000130 da 85 d1 bd f3 22 fd bd 6d b2 0f 3d 27 b8 ff be
       -0.10230608 -0.12360182 0.03508227 -0.49945185
000140 b9 e2 c7 bd 95 a1 f2 bc 7e a2 bb 3c a1 ad c7 3b
       -0.09760041 -0.029618064 0.02290463 0.006093696
000150 50 d4 ab 3c 14 c1 66 bc 99 87 9a ba ed 65 01 bb
       0.020975262 -0.014084119 -0.0011789679 -0.001974459
000160 f0 1e 69 bd ef d1 8b 3e 22 a8 a4 be c2 ce 42 bc
       -0.05691427 0.27308604 -0.32159525 -0.011890115
000170 50 d9 e3 3a ff 5c 5e bc 8d c5 c2 3d 73 87 0f 3e
       0.001738349 -0.013571977 0.09510336 0.14016514
000180 ff e3 32 bc 1d d5 4e 3d 77 d7 bc be 78 d2 50 3c
       -0.010918616 0.05049621 -0.36883137 0.012745492
000190 ce 20 d6 3d 04 94 2f bd 15 94 c4 bc f9 2c aa bd
       0.10455476 -0.042865768 -0.023996392 -0.08309359
0001a0 2a 5d 4b ba 40 b3 a2 bc 10 f9 c0 3c 18 39 6f 3d
       -0.0007757718 -0.019860864 0.023556262 0.05840406
0001b0 bb 74 cb bd 6a 85 e0 bd eb 65 10 3b 5f a7 01 bf
       -0.09934374 -0.10962947 0.0022033404 -0.50646013
0001c0 ab 36 bd bd dd bb 23 bd c9 a5 d8 bc 52 76 08 bb
       -0.09238943 -0.039974082 -0.02644624 -0.0020822478
0001d0 b2 78 11 3d e8 08 29 bc bc 07 2b bc 70 83 5d bd
       0.035515495 -0.010317065 -0.010438856 -0.054080427
0001e0 29 6e 88 bd 8b 93 3f 3e 07 52 ef be 09 69 4f bc
       -0.066616364 0.18708627 -0.4674227 -0.01265932
0001f0 a0 68 0a bc 2a dc 1a bd dc 73 05 3e a1 14 0c 3e
       -0.008447796 -0.03780762 0.13032478 0.13679744
000200 f4 75 a7 bc 30 ae 01 3e 19 42 c3 be c5 66 ba 3b
       -0.020441987 0.12664104 -0.38136366 0.0056885206
000210 95 6a db 3d 01 b3 26 bd de d3 96 bc bb e2 a2 bd
       0.10713688 -0.040698055 -0.018411573 -0.07953402
000220 2a e9 c7 b9 11 ec 0d bd 33 05 6e 3c 6b 80 91 3d
       -0.0003812996 -0.03464896 0.014527607 0.07104572
000230 e0 a0 02 be 05 6f e1 bd 4c d6 fb bc 43 8f 04 bf
       -0.12756681 -0.110075034 -0.030741833 -0.517811
000240 fb 21 c8 bd eb 6e 23 bd 7d 87 90 bc a1 81 47 bc
       -0.09772106 -0.0399007 -0.01764273 -0.012176902
000250 80 e9 31 3d 05 2a 19 bc d9 47 7a bc d5 2d b9 bd
       0.043435574 -0.009348397 -0.015275919 -0.09041945
000260 b9 93 4e bd cc e2 10 3e 01 91 0e bf a8 8d db bb
       -0.050433848 0.14149016 -0.5569001 -0.0067002364
000270 fc df 82 bc b7 6d 73 bd e1 6b 1e 3e f6 d4 15 3e
       -0.015975945 -0.059430804 0.1547084 0.1463202
000280 01 ec cb bc 6b 55 58 3e 08 50 c9 be a9 bc 59 bb
       -0.024892809 0.21126334 -0.39318871 -0.0033224022
000290 d0 6b d2 3d 25 8c 35 bd 34 58 18 bc f8 c6 9d bd
       0.1027447 -0.044323105 -0.009298373 -0.07703966
0002a0 6e 67 cf bb 2a 21 eb bc 0a a8 dc 3b 3d 9a a1 3d
       -0.0063294685 -0.028702337 0.006733899 0.07890747
0002b0 75 46 0f be 32 71 b8 bd 16 f9 67 bd 99 6f 05 bf
       -0.13991721 -0.09005965 -0.05663403 -0.5212341
0002c0 aa 6a af bd cb 7d 05 bd 8c c2 67 3b ac f8 99 bc
       -0.085652664 -0.03259067 0.0035363762 -0.018795334
0002d0 b0 04 32 3d cd 07 ee 39 46 03 76 bc df ce 02 be
       0.0434615 0.0004540071 -0.015015429 -0.12774228
0002e0 70 9f 08 bd a9 d3 dc 3d f2 5c 20 bf e8 45 c5 3a
       -0.033355176 0.107825585 -0.62641823 0.0015050741
0002f0 5b a8 94 bc 4d 0d 8f bd ae 1d 24 3e fb 02 1d 3e
       -0.018146684 -0.06984959 0.16026947 0.15333168
000300 72 8d ca bc e8 ee 93 3e 51 e4 cc be 28 5f 50 bc
       -0.02472565 0.28893209 -0.40017942 -0.0127179995
000310 09 f9 be 3d 35 e4 57 bd 6d ea 48 ba 3b 72 75 bd
       0.093248434 -0.05270787 -0.00076643267 -0.05992339
000320 4c 4d 57 bc 3b 7f c4 bc 81 6b 33 3b a6 57 ae 3d
       -0.013140988 -0.02398645 0.002737731 0.08512811
000330 62 c3 06 be 3b a9 5b bd cb 7d 9b bd 62 1f 04 bf
       -0.1316047 -0.053628188 -0.075923525 -0.51610386
000340 e6 68 83 bd 37 9e b8 bc 6c 4a 8f 3c 69 58 ac bc
       -0.06416492 -0.02253638 0.017491542 -0.021038251
000350 3f 00 1d 3d 63 8b 7d 3c 31 1d 3e bc d9 c0 23 be
       0.038330313 0.015475127 -0.011603639 -0.15991534
000360 09 b3 9f bc cb df a6 3d dc 34 2c bf c3 95 11 3c
       -0.01949455 0.08148154 -0.67268157 0.008885804
000370 eb 4b 85 bc 2c 30 91 bd 31 40 20 3e 12 7f 18 3e
       -0.016271552 -0.07089266 0.15649487 0.14892223
000380 00 00 00 00 00 00 00 00 00 00 00 00 00 00 00 00
       0.0 0.0 0.0 0.0
000390 00 00 00 00 00 00 00 00 00 00 00 00 00 00 00 00
       0.0 0.0 0.0 0.0
0003a0 00 00 00 00 00 00 00 00 00 00 00 00 00 00 00 00
       0.0 0.0 0.0 0.0
0003b0 00 00 00 00 00 00 00 00 00 00 00 00 00 00 00 00
       0.0 0.0 0.0 0.0
0003c0 00 00 00 00 00 00 00 00 00 00 00 00 00 00 00 00
       0.0 0.0 0.0 0.0
0003d0 00 00 00 00 00 00 00 00 00 00 00 00 00 00 00 00
       0.0 0.0 0.0 0.0
0003e0 00 00 00 00 00 00 00 00 00 00 00 00 00 00 00 00
       0.0 0.0 0.0 0.0
0003f0 00 00 00 00 00 00 00 00 00 00 00 00 00 00 00 00
       0.0 0.0 0.0 0.0
