model/CNN_Trans_1_1_6.pt (torch, 496947 bytes, 39 tensors)

weight f4 [4, 1, 1, 1]
000000 ab fb 9e 3e b6 4b ef bd 8a a2 66 3e d7 b2 26 bf
       0.31051382 -0.116843626 0.22522941 -0.6511664

bias f4 [4]
000000 a1 f0 52 bf 3c f6 6e bf 99 45 8c 3f 9f 9e 15 3f
       -0.8239842 -0.93344474 1.095874 0.5844516

weight f4 [4, 4, 3, 3]
000000 3a f6 88 be a8 e3 8d be 33 12 3c be bf cd 53 be
       -0.26750356 -0.2771275 -0.18366317 -0.20683955
000010 80 f3 45 be e4 d6 c8 3c b9 72 1d be 7d d4 a3 3d
       -0.19331169 0.02451653 -0.15375794 0.07999513
000020 86 a0 4e 3e 32 40 53 bd 47 93 72 be 8c b6 c5 be
       0.20178422 -0.051574893 -0.23688994 -0.38615835
000030 74 5c 87 be cd 17 26 3e 9d 30 fb 3b 72 f9 a3 be
       -0.26437724 0.16220017 0.0076657073 -0.3202625
000040 0a 3e 1a be 9a f2 4c bd 30 cd 80 3e a9 45 64 3e
       -0.15062729 -0.05003605 0.25156546 0.22292198
000050 ea 58 e1 3e 08 d8 7a 3e cc 51 2c be c3 6a 2d 3e
       0.4401315 0.24496472 -0.16828078 0.16935258
000060 97 df 9c 3e c8 53 45 3e 95 87 97 bd 6c bc a4 3e
       0.30639336 0.19270241 -0.07398907 0.32175004
000070 ad 49 8e 3e 74 73 54 bc 16 02 a5 3d eb 8c 92 bd
       0.27790585 -0.012966979 0.080570385 -0.07155784
000080 00 26 f4 3c c4 26 75 3d 10 75 fa bd 4c 6a 83 3d
       0.029803276 0.059851423 -0.12229359 0.06416759
000090 c8 97 e0 bd 16 5f 3f be 24 73 32 be 10 59 4f 3e
       -0.1096645 -0.18688616 -0.17426735 0.20248818
0000a0 3a f0 4e bd aa 6f 34 bd 84 60 4c 3e b8 13 de bc
       -0.050522067 -0.044051804 0.19958693 -0.027109012
0000b0 9f 43 8d be 1e 72 24 be fd 6c 6b be c1 e3 91 be
       -0.27590653 -0.16059157 -0.22990794 -0.28494075
0000c0 f4 d6 3f be e5 b8 8c 3d 2a 9a a5 bd 91 43 9b bd
       -0.18734342 0.06871203 -0.08086045 -0.07581247
0000d0 fd 7a e7 3d 09 8c 5d bd 3b 4c ca 3d 43 21 07 3c
       0.11302755 -0.054088626 0.09877821 0.008247676
0000e0 2b 85 84 3e 43 a5 86 3e 88 73 82 bd a4 8c 29 3e
       0.2588285 0.2629796 -0.06369692 0.16557556
0000f0 25 da 22 3e d7 df 58 be 7b 1a ac 3d 5e 65 9e 3d
       0.15903528 -0.21179138 0.08403488 0.07734178
000100 21 87 0e 3e a6 52 79 bc 60 4f 7a be 28 cb f5 bd
       0.13918735 -0.015217459 -0.24444342 -0.120016396
000110 20 28 9f bc 21 d4 5a bd e0 13 04 3e 80 08 96 3e
       -0.019428313 -0.05342496 0.12898207 0.2930336
000120 a2 8c d8 3e 58 09 22 3e b1 2c 83 3d 61 e5 b9 3d
       0.42294794 0.15823877 0.064050086 0.09076954
000130 0d 7b 21 be e6 0c 90 bb 18 cf 02 be 28 75 98 be
       -0.15769596 -0.004396069 -0.12774312 -0.29776883
000140 68 a9 14 3d 36 2c 92 be ee d7 f1 3c 0a 3a 96 3e
       0.03629437 -0.28549355 0.029521909 0.29341155
000150 25 d1 66 3d 8d da 39 bd dc 1d fa 3d 3b 0c d1 3d
       0.0563518 -0.045374442 0.122127265 0.10207411
000160 96 74 99 3e 33 2b 76 3d 4e 92 4e 3e 89 fe 04 3d
       0.2997176 0.06009979 0.20172998 0.032469306
000170 64 33 92 be fb 1b 47 bc 78 24 9d 3d c3 35 01 be
       -0.28554833 -0.012152667 0.076729715 -0.12618165
000180 80 3a 3c be d5 8d 5a be 4f c3 b9 bd 89 2d e1 be
       -0.18381691 -0.21343167 -0.09070455 -0.43980053
000190 9b ac a9 bd e8 0c 82 3d b6 a4 39 be ed e8 5b bc
       -0.08284875 0.06350118 -0.18129238 -0.013422233
0001a0 36 54 e3 bd 8b 0b 09 bd 35 14 51 3e f7 d5 39 bd
       -0.11100046 -0.033458274 0.20417865 -0.04537007
0001b0 d8 7d 2a bd 08 8f fd 3e fe 45 66 3c 5f e4 f4 bd
       -0.04162392 0.49523187 0.014054773 -0.11957621
0001c0 b1 f6 f7 3d 90 89 fe bc ec 26 b7 bd 07 7d 00 3e
       0.121075995 -0.031071454 -0.08942971 0.12547694
0001d0 f7 f2 46 3d 39 e8 3d be 9a 84 7e be 0e b3 27 3d
       0.048571553 -0.18545617 -0.24855271 0.040942244
0001e0 76 5b 1a 3e 28 11 4e bc e7 71 60 3e 40 00 8d 3d
       0.15073952 -0.012577333 0.2191845 0.06884813
0001f0 95 87 fe 3d 7a 6f 95 3d 81 90 a2 bb 2f 8e aa 3e
       0.12428204 0.07296653 -0.004961074 0.33311602
000200 02 d6 44 3d e8 30 a2 bc 3b 58 0b bd 28 94 51 be
       0.048055656 -0.019798711 -0.03401969 -0.20466673
000210 c5 16 15 be 24 72 18 be 49 55 1d be c4 fa d6 bd
       -0.14559467 -0.14887291 -0.15364565 -0.104970485
000220 0c 33 9c be 31 0b 12 be 7c ed d0 3d d9 44 11 be
       -0.30507696 -0.14262082 0.102015465 -0.1418642
000230 cd 3a 24 3e 84 11 8a 3e ff f3 c8 3b 90 ce 85 bd
       0.16038056 0.26966488 0.006132602 -0.06533539

bias f4 [4]
000000 e0 32 8e b6 ad b5 bc b9 7a ae 19 b9 15 df ac b8
       -4.2378524e-06 -0.00035993513 -0.00014656215 -8.2431514e-05

weight f4 [4]
000000 35 d7 8d 3f 3f 4f 4b 3f c8 c6 54 3f a1 91 36 3f
       1.1081301 0.79417795 0.83115816 0.7131596

bias f4 [4]
000000 48 97 7a 3e f9 91 c4 bd 58 f1 c5 bd 2c ef 3b be
       0.24471772 -0.095981546 -0.09665173 -0.18352956

running_mean f4 [4]
000000 fd 2b 06 40 1c 09 06 40 27 b1 03 3f ad 7e 4b 3f
       2.0964348 2.094306 0.5144219 0.79490167

running_var f4 [4]
000000 ac 0c d2 3f 8e c1 c3 3f 21 3f 8e 40 f5 0d 65 40
       1.6410117 1.5293443 4.445206 3.5789769

weight f4 [4, 4, 3, 3]
000000 01 05 9b bd ee 05 7c 3e 92 c8 6d 3e b0 8a 38 be
       -0.07569314 0.24611637 0.23221043 -0.18021655
000010 a9 5d 44 3f 45 b9 91 3d 71 05 67 be df 60 50 3d
       0.76705414 0.071154155 -0.2256067 0.050873633
000020 d4 ad 44 be a4 02 0b be e3 66 01 3e a6 99 64 be
       -0.19206935 -0.13575226 0.12636904 -0.22324237
000030 d6 b8 32 3e 9b a9 23 3e ea ea 58 3e 30 ff 5c 3d
       0.17453322 0.15982668 0.21183363 0.053954303
000040 a1 7d 99 be 6a 3e 63 3c a3 00 4b 3e 52 1b 1c be
       -0.2997866 0.013869861 0.19824462 -0.15244797
000050 9a 97 97 3c 1a 2b b0 bd 93 aa 48 bd 22 54 91 3b
       0.018504906 -0.08601971 -0.048990797 0.0044350782
000060 52 86 2f 3d 06 7c 8a 3d 25 0c fb bd 18 15 65 bd
       0.042852707 0.06761937 -0.12258176 -0.05592832
000070 6a a8 07 3e 78 5f 92 3e ad ba 20 3b 70 f7 9f bd
       0.13247839 0.28588462 0.002452533 -0.07810867
000080 34 b3 ed bd 8e a7 c8 39 ae 81 80 3d 0b 1b e5 3d
       -0.11606446 0.0003827181 0.062747344 0.11186799
000090 ba 2b 2a be a6 ab 11 bd fc 20 29 3c 9a 4d 62 be
       -0.16618243 -0.035564087 0.0103228055 -0.22099915
0000a0 02 7f c2 be d9 0a 01 3e 63 b5 1a 3e 96 aa 6f 3d
       -0.37987524 0.12601794 0.15108256 0.058512293
0000b0 3f ed ac 3e 5d 87 0c 3d b3 06 30 be 57 ba 16 3e
       0.33774754 0.03430878 -0.17190056 0.1471952
0000c0 39 92 3b be dd ea 88 bd f8 c0 71 3c 29 42 c0 3d
       -0.18317498 -0.066854216 0.01475548 0.09387619
0000d0 c7 16 26 3e 5d 18 a0 3d 1b b9 2d bc 15 71 2f 3e
       0.16219626 0.07817147 -0.010603215 0.17132981
0000e0 65 cc 0d 3b af 3f 18 bd ea 8f df 3c 67 fa 22 bd
       0.0021636721 -0.03717011 0.027290303 -0.039789584
0000f0 01 cc 0a be 4d 60 4a bd 06 07 41 3e 85 e3 a0 3e
       -0.13554384 -0.049408246 0.18850335 0.31423584
000100 31 43 26 3d ad ac f6 bd 6b 64 04 3e 7f 9e 8d 3d
       0.040591422 -0.12044654 0.12928931 0.06914996
000110 a9 60 93 bd 51 23 56 bd 34 24 01 bc 4e 02 15 be
       -0.07196171 -0.052279774 -0.007882167 -0.1455166
000120 29 6e ac 3d 53 bd 0d bd 1c d3 b3 bd 3e 88 47 be
       0.08419449 -0.03460438 -0.087805 -0.19485566
000130 12 92 1f be 2d 8b da bc 66 4f 9c 3e 9f 10 46 be
       -0.15583065 -0.026677692 0.30529326 -0.19342278
000140 88 83 ac 3d b3 dc 6a 3d cf a5 85 be 1c 08 25 3e
       0.08423525 0.05733938 -0.26103064 0.16116375
000150 35 39 30 3d 8c 61 23 be 0d 73 15 be a9 c0 9c 3d
       0.043023307 -0.1595518 -0.1459467 0.076539345
000160 bb ef 42 3d fe dc cb 3d 70 30 ab 3d 0b 80 97 3e
       0.047591906 0.0995426 0.08358848 0.29589877
000170 07 27 38 bd da 71 0b be b0 3e a1 3e 99 a4 09 be
       -0.044959094 -0.1361765 0.3149314 -0.13441695
000180 c1 48 81 be b2 e5 03 3e d9 0c c2 3e f8 31 94 3e
       -0.2525082 0.1288059 0.37900427 0.28944373
000190 fe 96 84 bd dd 7f e9 bd 3c 18 fd 3d 52 0d 08 3e
       -0.06474112 -0.11401341 0.12358138 0.13286331
0001a0 9f a8 2a be b5 26 64 be 9f 61 4b be 38 ce 7a bd
       -0.16665886 -0.2228039 -0.19861458 -0.06123182
0001b0 c8 e0 84 3d 37 6b 5c bd e2 90 eb bd 01 46 cd 3d
       0.06488186 -0.053813186 -0.115022436 0.10023118
0001c0 19 00 61 bd e9 5f e7 3d bf 81 25 3e a2 1b 92 be
       -0.054931734 0.1129759 0.16162775 -0.28536707
0001d0 52 d4 b3 3d 69 a5 18 be 23 bc 02 be 34 d5 5a 3e
       0.08780731 -0.14906849 -0.12767081 0.21370393
0001e0 a2 88 e0 3c 77 e4 82 bd 2f 92 49 be 33 53 3a 3d
       0.027408902 -0.063912325 -0.19684671 0.0454895
0001f0 98 54 3c 3d 61 c5 f0 3d 59 77 0c 3e 66 04 05 3e
       0.045979112 0.11756397 0.13717403 0.12989959
000200 da f6 d8 bd 1c c3 0a be 15 20 7b 3e 2c 1b d1 bd
       -0.10593958 -0.13550991 0.24523957 -0.10210261
000210 a6 26 98 be 11 26 76 3e dc 3b e5 3e ab 63 44 3e
       -0.29716986 0.24037959 0.44772232 0.19178645
000220 21 d0 37 3e f0 34 e0 bd a2 94 1b 3e 0f e4 04 3e
       0.17950489 -0.10947597 0.15193418 0.12977622
000230 9b 73 85 3c 4b ed 88 be 5c aa 7f 3d 9b df 79 bd
       0.016290477 -0.2674354 0.062418327 -0.061004262

bias f4 [4]
000000 8b bf 94 b9 73 38 d8 37 d8 5e 84 b8 01 37 02 39
       -0.0002837147 2.5775493e-05 -6.3119165e-05 0.00012418257

weight f4 [4]
000000 fd 13 04 40 0f a2 aa 3f 2e c7 c9 3f 61 c3 c4 3f
       2.06372 1.3330706 1.576391 1.5372125

bias f4 [4]
000000 8a b9 4a 3f 79 2c fa 3e 2a 3e a5 3e 42 26 05 3f
       0.7918936 0.48862055 0.3227399 0.520115

running_mean f4 [4]
000000 1f 6d db 3e 12 4c 6f bc d0 28 bc bc d3 c5 44 3e
       0.4285669 -0.014605539 -0.02296868 0.19216089

running_var f4 [4]
000000 33 91 77 3e 88 35 d1 3d 24 38 f1 3d b4 5f fd 3d
       0.24176483 0.102152884 0.11778286 0.123717695

weight f4 [1, 4, 1, 1]
000000 8a 74 c1 bf 40 87 0b 3f ea 7d 72 3f 06 dd 4d 3f
       -1.511369 0.5450325 0.9472338 0.8041538

weight f4 [1, 70]
000000 5c ff 26 36 cd 52 11 39 85 cc 7c b7 5e 37 41 35
       2.4884566e-06 0.00013859123 -1.5067989e-05 7.197867e-07
000010 79 dc 80 b8 9f d8 8a 35 e8 5d 84 b7 9f 8d 9a 36
       -6.144582e-05 1.0344846e-06 -1.5779355e-05 4.6060445e-06
000020 6f 16 69 35 a9 7e 20 b9 19 65 67 37 c7 87 e0 b7
       8.683191e-07 -0.00015305974 1.3792212e-05 -2.6766107e-05
000030 d8 a3 e5 b8 a6 2a 9f 36 44 59 85 b4 c9 3a bc 37
       -0.00010950089 4.743534e-06 -2.483813e-07 2.243872e-05
000040 b1 cb a7 34 26 52 c7 b6 e4 e5 0c b6 fc 9f 9d b8
       3.125438e-07 -5.9402255e-06 -2.099544e-06 -7.516143e-05
000050 65 20 27 b8 26 6e a0 37 d0 19 02 38 8f 8c b5 36
       -3.9846072e-05 1.9124778e-05 3.1018455e-05 5.4105835e-06
000060 65 65 4c 38 28 b4 51 b6 48 a4 1a b9 51 fc bd b7
       4.873182e-05 -3.1248292e-06 -0.00014747784 -2.264805e-05
000070 51 94 29 38 03 91 f6 b8 39 87 ee 38 5c e0 40 b6
       4.043087e-05 -0.000117572046 0.000113739115 -2.8740824e-06
000080 90 39 c4 b5 ef 5c 42 39 cf 86 83 37 a5 eb 51 36
       -1.4619891e-06 0.00018535902 1.5679192e-05 3.128059e-06
000090 b4 40 c9 b8 16 37 ec 36 a8 f6 03 38 e7 10 b7 b6
       -9.596479e-05 7.039761e-06 3.146255e-05 -5.4557927e-06
0000a0 9c 83 bf 37 14 25 f8 b8 94 46 09 b7 1f 59 48 b9
       2.283026e-05 -0.00011832468 -8.182269e-06 -0.00019106687
0000b0 0b cf aa b8 f8 90 13 b8 b2 c2 d8 b5 10 aa d6 38
       -8.1447964e-05 -3.5182544e-05 -1.6149918e-06 0.00010235992
0000c0 ed af 2d 35 db b8 76 b7 cd ba 21 b8 bf b8 ae b7
       6.470353e-07 -1.4705783e-05 -3.8559363e-05 -2.0828445e-05
0000d0 af 1a 1d b9 b1 a1 d5 b8 e3 d9 8b 38 dc 66 4a 37
       -0.00014982627 -0.00010186749 6.668621e-05 1.2064087e-05
0000e0 af 4e fa 37 85 19 9c b5 34 b3 f4 38 54 2b 04 38
       2.9838962e-05 -1.1630333e-06 0.00011668206 3.1511605e-05
0000f0 00 23 a9 37 7e 78 b2 b8 7e 7e 21 b8 31 0f c7 b5
       2.0162668e-05 -8.510145e-05 -3.8503196e-05 -1.4831077e-06
000100 4c 23 8b bb d2 aa a7 bb e2 7d 84 3c b0 50 98 bc
       -0.004246151 -0.005116799 0.016173307 -0.018593162
000110 96 0e 8b 3c 45 ff 1e 3c
       0.016974729 0.009704416

weight_ih_l0 f4 [128, 600]
000000 54 41 bf b7 68 24 af b8 ab 35 9b b8 59 13 ce b8
       -2.2799395e-05 -8.3514315e-05 -7.4009724e-05 -9.826449e-05
000010 05 d5 e5 b8 3f d4 05 b9 cb 09 09 b9 97 c8 12 b9
       -0.00010959249 -0.00012762936 -0.00013068986 -0.0001399837
000020 29 56 34 b9 5f 40 47 b9 e8 5a 00 b9 96 24 ba b7
       -0.00017198235 -0.00019002099 -0.00012240896 -2.2189965e-05
000030 24 80 b7 b8 61 91 01 38 61 f1 90 36 b5 b7 93 36
       -8.749988e-05 3.089139e-05 4.3196346e-06 4.4023277e-06
000040 b7 7e 95 38 3a 8f c3 b7 94 25 fa 37 7b 14 31 38
       7.128476e-05 -2.3312507e-05 2.9819821e-05 4.2219162e-05
000050 08 61 96 b8 bf 0d a3 b7 2e 73 e9 b7 40 69 21 b7
       -7.170631e-05 -1.9437515e-05 -2.78294e-05 -9.620853e-06
000060 87 3a f6 b7 fb b2 94 b7 15 7b 51 b7 fc 9c 25 b8
       -2.935274e-05 -1.772632e-05 -1.2486028e-05 -3.948527e-05
000070 a6 00 c7 37 7a 90 15 39 8e 3e 04 38 8a b7 c0 37
       2.372295e-05 0.00014263569 3.152951e-05 2.297365e-05
000080 d8 d5 aa b8 df 8b bd b6 e7 b2 a7 b8 fd cc 51 b8
       -8.146063e-05 -5.648922e-06 -7.996504e-05 -5.0020393e-05
000090 d9 02 20 38 35 9b b8 b8 51 e1 6c b7 d4 71 1f 38
       3.8149625e-05 -8.802713e-05 -1.4119157e-05 3.8014565e-05
0000a0 4b 7b b2 b8 91 e0 81 36 4f f4 78 38 ed ef aa 38
       -8.5106665e-05 3.8706426e-06 5.9355338e-05 8.150921e-05
0000b0 77 58 e7 38 d9 4b e8 38 c7 ab f5 38 48 ff f7 38
       0.00011031416 0.0001107675 0.000117145064 0.00011825428
0000c0 3f 50 e4 38 e1 1e 86 39 8d a5 86 39 bd 2a a3 37
       0.00010886834 0.00025581478 0.00025681817 1.9451016e-05
0000d0 4f 93 e3 b8 35 63 8e b8 7a 4e c1 b8 77 51 b2 b8
       -0.00010851642 -6.7895664e-05 -9.2175746e-05 -8.5028754e-05
0000e0 1c e3 97 b8 41 bf 7c b8 14 d6 0b 38 12 98 eb 38
       -7.2425435e-05 -6.02596e-05 3.333956e-05 0.000112339985
0000f0 0a 79 a6 b8 7b ca f2 b6 0b 1e 09 38 eb ca 68 38
       -7.938042e-05 -7.235734e-06 3.2691325e-05 5.5502092e-05
000100 01 52 b2 38 a9 02 ca 38 5f 90 ed 38 74 82 07 39
       8.502976e-05 9.632606e-05 0.00011327932 0.00012923201
000110 bd 4d e3 38 3f ff 57 39 4a cb 93 39 11 d2 73 38
       0.000108386834 0.00020599084 0.00028189487 5.8131354e-05
000120 14 6f ce b8 f5 09 b8 b8 48 8b e9 b7 e1 8c b2 37
       -9.8435354e-05 -8.775658e-05 -2.7840622e-05 2.1284855e-05
000130 9c 83 2f b8 73 ea 6a b8 5c 34 4a 37 58 f3 ee 38
       -4.1845822e-05 -5.6008295e-05 1.2052329e-05 0.00011394051
000140 c4 ba 97 b8 07 8b 42 b7 e2 af 54 37 c4 a4 4f 38
       -7.235029e-05 -1.1595671e-05 1.2677136e-05 4.9506096e-05
000150 ff ca a6 38 9c d6 da 38 35 ed df 38 80 7f f6 38
       7.953308e-05 0.00010435024 0.00010677652 0.00011753943
000160 7b 95 0c 39 8f 7d 53 39 17 66 9f 39 f0 97 03 39
       0.00013407126 0.00020169302 0.00030402906 0.00012549735
000170 58 cd 92 b8 00 0d f1 b7 79 68 08 38 cc c1 61 38
       -7.000071e-05 -2.8735492e-05 3.2522225e-05 5.3824668e-05
000180 31 4c 01 38 de 69 c8 b8 1e 7d 54 b8 68 24 c1 38
       3.0826955e-05 -9.5564625e-05 -5.0661263e-05 9.209738e-05
000190 ad da ad b8 e1 2f 81 b7 c2 b7 84 b6 38 c8 d5 37
       -8.2900144e-05 -1.5400294e-05 -3.955299e-06 2.5484813e-05
0001a0 c6 77 1e 38 ba c7 50 38 55 0d 90 38 76 42 cb 38
       3.7781683e-05 4.9777074e-05 6.868938e-05 9.6921736e-05
0001b0 6b 00 1a 39 f9 0e 76 39 d6 1a b7 39 e8 eb c6 38
       0.0001468674 0.00023465966 0.00034924474 9.485317e-05
0001c0 e0 cb 4c b8 ff 01 ba 36 21 94 55 38 d0 2f 85 38
       -4.8827264e-05 5.5434643e-06 5.0921113e-05 6.35084e-05
0001d0 58 97 dc b6 a0 cb 28 b9 33 02 b5 b8 b2 8e 70 38
       -6.5741297e-06 -0.00016097585 -8.631162e-05 5.7353354e-05
0001e0 36 4b cf b8 f9 bf e1 b6 32 b2 b7 37 fd eb 14 38
       -9.884538e-05 -6.727871e-06 2.1898279e-05 3.550573e-05
0001f0 f1 1c 24 38 9b 46 86 38 1e ae 9d 38 df 04 dd 38
       3.91276e-05 6.402769e-05 7.518775e-05 0.000105390085
000200 7a 76 16 39 b7 3c 85 39 1d 8b ac 39 82 a5 e7 37
       0.0001434925 0.00025412973 0.00032910044 2.7614416e-05
000210 ce be 29 b8 88 3f 63 37 6c 96 ba 37 ac cb 1f 37
       -4.047044e-05 1.3545046e-05 2.2242974e-05 9.52456e-06
000220 e6 dd 83 b8 e0 aa 28 b9 18 7f c5 b8 f1 70 2c 38
       -6.2878986e-05 -0.00016085384 -9.417365e-05 4.111318e-05
000230 e1 c3 f1 b8 b6 a4 fd 36 33 3c 12 38 cf 4e 3f 38
       -0.00011528261 7.5591624e-06 3.4865177e-05 4.5611345e-05
000240 f4 51 6c 38 ca 39 a1 38 8e 40 c3 38 41 de e4 38
       5.634311e-05 7.687842e-05 9.310349e-05 0.00010913285
000250 6a 04 12 39 c1 58 8d 39 87 66 98 39 83 f6 fc 38
       0.0001392529 0.00026959743 0.00029068088 0.00012062213
000260 61 2e 6f b8 be ac 7b 38 6f 86 62 b8 21 f5 04 b8
       -5.7025234e-05 6.0003942e-05 -5.40078e-05 -3.1699547e-05
000270 88 a4 89 b8 b8 be 10 b9 c2 18 69 b8 c8 13 5b 38
       -6.5633154e-05 -0.00013803958 -5.5574586e-05 5.223209e-05
000280 f7 87 e3 b8 69 91 34 37 37 4d 66 38 af ab ac 38
       -0.00010849529 1.0762692e-05 5.4908185e-05 8.233578e-05
000290 20 11 e2 38 02 2c d5 38 d1 85 db 38 65 0a 06 39
       0.000107797096 0.000101648286 0.00010467659 0.00012783108
0002a0 3a f8 4e 39 b1 5f 8d 39 c2 4e 64 39 ac 0d bd 38
       0.00019738163 0.0002696491 0.00021773114 9.014769e-05
0002b0 eb 59 84 b8 6b 5a 81 b7 71 b3 1c b9 04 d1 17 38
       -6.310999e-05 -1.5420102e-05 -0.00014944166 3.6195866e-05
0002c0 e3 02 78 b8 25 b5 03 b9 36 4f 6f b6 df 73 73 38
       -5.9130496e-05 -0.00012560615 -3.5659882e-06 5.8043628e-05
0002d0 ae b0 a4 b8 dd 61 25 38 8f 77 42 38 d6 15 a0 38
       -7.8530386e-05 3.9430208e-05 4.6364552e-05 7.633462e-05
0002e0 db f1 de 38 aa 2c a9 38 50 1c b3 38 7d 53 ed 38
       0.00010630834 8.066867e-05 8.540659e-05 0.000113165916
0002f0 95 dd 18 39 f7 1c 61 39 27 90 33 39 4c 46 79 b7
       0.00014578395 0.00021468462 0.00017124471 -1.4857924e-05
000300 a9 8e 0d b8 4d 20 e2 b8 cd 68 02 b9 65 4e a6 37
       -3.3749882e-05 -0.00010782536 -0.00012436807 1.9825247e-05
000310 90 f3 91 b8 91 17 32 b9 16 18 80 b7 48 b3 2a 38
       -6.959506e-05 -0.00016984182 -1.5270005e-05 4.0698127e-05
000320 e2 4d 9e b8 be 31 84 38 80 da 2f 38 7c 4e 8f 38
       -7.548534e-05 6.303516e-05 4.1926745e-05 6.83339e-05
000330 4b a0 a7 38 91 79 99 38 97 f3 d9 38 cb f6 1e 39
       7.9930374e-05 7.318252e-05 0.000103927385 0.00015159992
000340 d5 46 3a 39 ec c5 5e 39 5e 1f 18 39 3e 18 31 38
       0.0001776473 0.00021245301 0.00014507535 4.2222666e-05
000350 ac 90 ac 37 34 7a 78 b8 94 25 87 b6 1e e5 8a 37
       2.0571366e-05 -5.9241618e-05 -4.027688e-06 1.6557573e-05
000360 58 77 9b b8 ce ea 11 b9 92 09 9c b7 a1 41 11 38
       -7.4132055e-05 -0.00013915749 -1.8601106e-05 3.4631816e-05
000370 97 33 d9 b8 0c 79 9c 38 b6 91 6f 38 18 32 b7 38
       -0.00010356976 7.4612064e-05 5.7117744e-05 8.735451e-05
000380 c7 62 a6 38 4d f9 7b 38 f1 c2 e0 38 4c ae 1e 39
       7.9338955e-05 6.0075243e-05 0.00010717463 0.00015132985
000390 c9 56 59 39 2b a2 97 39 60 e5 31 39 15 a5 b6 b7
       0.00020727063 0.0002892179 0.00016965484 -2.1772963e-05
0003a0 66 64 6a b8 b3 e8 92 b6 71 ad 27 38 03 c8 01 38
       -5.588345e-05 -4.378229e-06 3.9977433e-05 3.0942272e-05
0003b0 80 8a ee b8 58 ef 73 b8 80 31 35 b8 7b 67 e9 37
       -0.00011374522 -5.815862e-05 -4.3199863e-05 2.7823951e-05
0003c0 36 6e 00 b9 fc e1 80 38 6e 34 48 38 24 ec ab 38
       -0.00012248088 6.1456085e-05 4.7732545e-05 8.1979e-05
0003d0 d8 14 b4 38 cb 6f 95 38 22 bb b0 38 18 2b 02 39
       8.586951e-05 7.125697e-05 8.42719e-05 0.0001241382
0003e0 cd c4 35 39 2a 62 8f 39 2c 3c 2b 39 10 35 c7 b7
       0.00017334819 0.00027348223 0.00016330247 -2.3747358e-05
0003f0 93 0c a8 b8 7b 8a da 37 59 c6 b0 38 07 2e 53 38
       -8.0132064e-05 2.605211e-05 8.429279e-05 5.0349186e-05

weight_hh_l0 f4 [128, 32]
000000 b5 c1 e4 b5 25 1f 25 39 12 c0 8f 38 a0 be 15 b6
       -1.70437e-06 0.00015747228 6.854547e-05 -2.2313689e-06
000010 a3 9e 8b 39 ce fc 0b 38 89 a0 4a b9 ff 99 92 36
       0.0002663034 3.3375625e-05 -0.00019324025 4.3690666e-06
000020 b7 04 1a b8 c9 b0 7c 36 35 76 b6 38 69 44 3b 39
       -3.6720852e-05 3.7653829e-06 8.700454e-05 0.00017859194
000030 20 29 9c b9 31 f2 5d b9 43 19 2e b5 50 b4 52 37
       -0.0002978528 -0.00021166426 -6.485681e-07 1.2558958e-05
000040 b1 92 8e b5 d6 9e ac 38 97 1a 71 b9 b4 34 8f 39
       -1.0622517e-06 8.2311846e-05 -0.00022993457 0.00027314352
000050 50 db f5 38 1d 3b d4 37 db 68 9c b8 f7 23 91 b8
       0.000117233605 2.5299896e-05 -7.4581905e-05 -6.920838e-05
000060 fe 15 49 b8 b0 ea a7 b8 55 77 a0 b9 b1 18 6f 38
       -4.7942616e-05 -8.0068945e-05 -0.00030606487 5.7005036e-05
000070 34 6a cb b8 b3 ce 52 38 c3 5e ae 38 f3 aa b0 37
       -9.699576e-05 5.0260405e-05 8.314617e-05 2.106044e-05
000080 94 d4 c1 3a 74 83 86 3e 4b 01 8a 3d 0f ca b8 ba
       0.0014788085 0.26272166 0.06738528 -0.0014098304
000090 93 85 0f 3e ea 0a b1 3a 15 b8 ff 3c c4 fc ef 3a
       0.14015798 0.0013507281 0.031215707 0.0018309583
0000a0 2c 0e a2 bc fd ca a8 3c 6d a5 25 3a 5a c7 17 3d
       -0.019782148 0.020604605 0.0006318901 0.03705535
0000b0 dd c9 00 be c3 a7 ae 3c 67 4a b3 3a cd 79 0d bd
       -0.12577005 0.02132023 0.001367879 -0.034539986
0000c0 cf 41 8a ba 1f 54 e0 b8 6c d4 62 3c ab 29 d6 3d
       -0.0010548177 -0.00010696821 0.013844591 0.10457166
0000d0 59 f5 a6 3c eb f3 9f bd 14 11 b3 3c 7f 19 44 ba
       0.020380663 -0.078101955 0.02185873 -0.0007480606
0000e0 0b af 04 be 98 fa 2c ba 2c 8c a4 3e 6b 02 e5 bc
       -0.12957399 -0.00065986207 0.32138193 -0.027955255
0000f0 44 51 11 bd 78 26 a9 bd b1 7e 89 3e f6 0c c3 3a
       -0.03547789 -0.082592905 0.2685447 0.0014881182
000100 f5 4b 9f 39 96 4a b9 3d e1 63 d6 3c d0 7a 9d ba
       0.00030383436 0.09047429 0.026170673 -0.001201475
000110 de 24 d5 3d 84 aa b8 bb 74 66 4d 3c b6 4b 3d bb
       0.104074225 -0.0056355614 0.012536634 -0.0028884239
000120 00 d8 79 bc dd 76 54 bb b8 98 64 bc 05 04 85 3c
       -0.015249252 -0.003241948 -0.013952427 0.016237268
000130 31 94 b7 bd c3 9a a5 3c f3 04 ae 3a c2 1b 9f bc
       -0.08963812 0.020215398 0.0013276621 -0.019422416
000140 6e 04 67 ba d3 77 54 bc ee 9c e4 3c e6 62 a6 3d
       -0.0008812611 -0.012968021 0.027906861 0.08124332
000150 e1 3c 1b 3d 9e 2d a4 bc 12 1b 9b bc 81 2b 36 3c
       0.037899856 -0.020041283 -0.018933807 0.011118771
000160 12 95 98 bd 28 f5 57 3c 29 74 9c 3d 67 af ce bc
       -0.07450308 0.013181008 0.07639343 -0.025230123
000170 ed 72 ab bb 5b e6 ac bd a5 9c a0 3d 73 c5 96 bb
       -0.005232206 -0.08442374 0.078423776 -0.0046011745
000180 f7 25 19 35 32 da 5e b8 fb fb 63 38 03 e6 95 35
       5.705219e-07 -5.3132135e-05 5.4355693e-05 1.1168307e-06
000190 df 0a ba b6 13 ab f7 b5 b6 18 0b 37 e1 64 e5 b5
       -5.5444975e-06 -1.8452723e-06 8.290799e-06 -1.7091189e-06
0001a0 52 94 e8 37 16 76 c3 38 40 2b 61 37 90 1d 9d b5
       2.7725622e-05 9.32032e-05 1.3421115e-05 -1.1706015e-06
0001b0 dd b8 29 37 58 a4 11 37 6d 18 28 35 e1 4f d0 b7
       1.0116227e-05 8.680938e-06 6.262042e-07 -2.4832729e-05
0001c0 50 7e 11 35 2f 2a 55 37 e4 ea c1 36 6f b8 17 b9
       5.420052e-07 1.2705611e-05 5.779193e-06 -0.00014469189
0001d0 f5 37 45 b5 ff f9 7e 36 6c 62 2e b8 26 c5 2d b7
       -7.3469647e-07 3.7994466e-06 -4.1576495e-05 -1.0357506e-05
0001e0 ab c6 3f 38 64 e0 55 b7 1a cb f6 b9 16 0d 83 b7
       4.5722973e-05 -1.2748034e-05 -0.000470721 -1.562251e-05
0001f0 6e ff 01 38 1b ee 10 38 a0 e2 5f b9 f7 a7 66 b6
       3.0993884e-05 3.455403e-05 -0.00021351362 -3.437044e-06
000200 9b 4f 81 ba 1d c0 8f 3d 81 19 04 bd 6a 0c a9 3a
       -0.0009865643 0.070190646 -0.032250885 0.0012897376
000210 ff 43 af bc ec 59 a5 3b ed d5 0b bb 9f cc 1b 3b
       -0.021394728 0.00504612 -0.0021337226 0.0023773087
000220 96 8c d5 bc 2e c0 96 bb c6 2c 5f 3c 4e b4 ee 3d
       -0.026068013 -0.0046005463 0.013621515 0.11655484
000230 c8 ff 40 3d 6f 4f 3b bc 96 8b be ba 2d 81 20 3d
       0.047118932 -0.011432513 -0.001453745 0.03918569
000240 ad 02 35 39 1b 21 4b 3c 6d 94 f0 bc 55 48 34 3e
       0.00017262502 0.01239803 -0.02936765 0.17605717
000250 aa 1d 59 3d cd 90 99 3d c6 3d 28 bd 6a ba 28 bc
       0.053006805 0.07498322 -0.041074537 -0.010298351
000260 1f 32 1c bd f0 d4 53 bc b0 7d 1e 3f 19 84 e6 3c
       -0.038133737 -0.012929186 0.61910534 0.028139161
000270 44 17 f4 bc 12 1b 8f 3e f6 fe 57 3e 50 d4 88 3b
       -0.02979625 0.2795034 0.21093354 0.0041757002
000280 ca 2e b5 38 3b e0 1c bb c4 85 c2 ba 22 16 c0 b6
       8.639468e-05 -0.0023937363 -0.0014840891 -5.7246225e-06
000290 38 85 9b b8 19 4e 71 38 ef d7 51 b9 cd 16 ca 38
       -7.41579e-05 5.753161e-05 -0.00020012235 9.6363576e-05
0002a0 bb 02 2e b9 c2 77 26 bb 24 31 19 39 19 75 19 3a
       -0.0001659495 -0.002540097 0.00014609523 0.0005853936
0002b0 b9 44 b9 3a b7 4a 7b b9 38 2b 3f 37 5e 4b 37 39
       0.0014134861 -0.00023965059 1.139455e-05 0.00017480316
0002c0 ba d4 ed b6 4f 48 0b 39 e8 65 8c b9 26 cf 2a ba
       -7.087915e-06 0.0001328301 -0.00026778807 -0.0006515853
0002d0 a1 59 61 39 67 76 5d 3a 00 9e 91 b9 e1 04 c8 b8
       0.00021491061 0.0008448124 -0.00027774274 -9.537652e-05
0002e0 14 ac 4b ba d2 17 0b b9 3c c1 d5 3b 90 21 7a b9
       -0.0007769477 -0.00013264947 0.0065232795 -0.00023854361
0002f0 7c fa 8c b9 cc 44 a8 b9 04 fa 9b ba 26 e1 87 38
       -0.00026889506 -0.00032094715 -0.0011900072 6.479239e-05
000300 16 db eb b9 96 e2 f0 bc 87 17 1e bc d1 b8 32 39
       -0.00044985925 -0.02940492 -0.009649164 0.00017044252
000310 ad 17 6a 3c 6e 4a 78 ba 4b fb 9e bb 62 2b 81 ba
       0.014287871 -0.000947154 -0.004851734 -0.0009854848
000320 6b d9 24 b9 36 8d f8 bc 5a d8 fb 38 f5 29 fd 3b
       -0.00015721253 -0.030340772 0.00012008911 0.007725949
000330 fa 0d 83 3b d7 df 64 bb 79 1b 3c b9 a0 71 38 3c
       0.003999469 -0.0034923458 -0.00017939312 0.011257559
000340 1c 69 1e 39 17 35 72 39 8b 2a 5e bb 64 fa c2 3c
       0.0001510721 0.00023098696 -0.003389987 0.023801036
000350 52 de 2e 3c 93 7e 6d 3b 8b b8 5d 39 17 61 5d 39
       0.0106731225 0.0036238774 0.0002114495 0.00021112371
000360 bf 68 5f ba 8c bb b8 b8 91 36 e7 3d 7b eb d9 3b
       -0.0008522383 -8.808737e-05 0.112897046 0.006650386
000370 4f 92 4f bc 0f 28 45 3c f2 d6 b0 3c d6 02 83 ba
       -0.01266916 0.0120334765 0.021586869 -0.0009995352
000380 d0 99 26 38 dd 95 27 ba ba 5f 08 b9 3c 40 82 b7
       3.9720733e-05 -0.0006392876 -0.00013005632 -1.552712e-05
000390 9b a2 9b 39 2d 03 10 39 ac 7d 2b b9 2b 00 9e 38
       0.00029685054 0.00013734093 -0.00016354647 7.5340584e-05
0003a0 58 ab 78 b7 99 89 37 ba 77 40 25 39 4a 8a b6 37
       -1.4821846e-05 -0.00070013996 0.00015759641 2.1760487e-05
0003b0 1c d7 9d 39 6c 17 42 b9 66 f8 2e 37 61 93 50 b9
       0.00030105643 -0.00018510007 1.0429043e-05 -0.00019891329
0003c0 06 19 de b6 b5 90 21 39 a3 03 84 b9 25 21 17 39
       -6.6190287e-06 0.00015408064 -0.00025179712 0.0001441283
0003d0 26 12 e8 38 58 36 6b b9 94 91 31 b9 3d c4 23 b9
       0.000110660025 -0.00022431591 -0.00016934267 -0.00015617996
0003e0 6e ee 0d ba 74 99 24 b9 37 e7 f5 3a 50 fe 21 b9
       -0.0005414252 -0.00015697425 0.0018760924 -0.00015448895
0003f0 be d2 c0 b8 79 76 95 b8 7e 11 70 b9 80 bb f6 38
       -9.194527e-05 -7.126941e-05 -0.000228947 0.00011765119

bias_ih_l0 f4 [128]
000000 cd 98 f6 ba 03 c5 3c 3f db c3 e0 3e 2a 24 b3 ba
       -0.0018813849 0.73738116 0.43899426 -0.0013667394
000010 ec 65 12 3f 4f 0f 81 3c 81 e4 8b 3e da 04 43 3b
       0.5718677 0.01575437 0.27322772 0.002975753
000020 fd bb b4 3e d8 ab 1a 3f 92 0f a4 3d e7 e4 24 3f
       0.35299674 0.6041846 0.08010782 0.6441178
000030 2d c3 45 3f 77 c2 7c 3e e1 c1 03 bb 8a ad 87 3e
       0.7725094 0.24683557 -0.0020104575 0.26499587
000040 fa a0 2a ba 0f b8 9c 3d 9d a9 82 3e de d1 02 3f
       -0.0006508973 0.07652294 0.2552003 0.5110148
000050 5b 43 18 3f 47 84 ac 3e 3a bd 9c 3e fc 74 66 3d
       0.59477776 0.3369467 0.30613118 0.05626391
000060 1e 4c 13 3f 4b c6 97 3d 59 0a 95 3e cc d7 3c 3e
       0.5753802 0.07410868 0.29109457 0.18441695
000070 d6 e8 db 3d e6 70 4e 3e cc 25 91 3e a5 66 2b 3c
       0.10737769 0.20160255 0.2834915 0.010461484
000080 c4 5b b2 ba 55 24 27 3e 37 10 5a be f6 69 78 ba
       -0.001360767 0.16322453 -0.21295248 -0.00094762386
000090 4a 5e 14 3d d9 f6 3e 3b 61 e8 fa 3d e8 81 8e b9
       0.036222734 0.0029138832 0.12251354 -0.00027181138
0000a0 4e 7f 3f 3e 0f a2 01 3d ec d5 ad 3c fe b9 da 3d
       0.18700907 0.03164869 0.02122017 0.106800064
0000b0 71 b2 43 be d0 f0 ba 3d 5c 9c a5 ba d4 1f 4e 3e
       -0.19111039 0.091279626 -0.00126351 0.20129329
0000c0 0e 19 f5 b9 1a e7 ae 3c 99 07 b8 3d 26 9a 39 bd
       -0.0004674871 0.021350432 0.08985824 -0.045313023
0000d0 34 bf 34 3e 29 c9 1b 3e f0 c0 5f 3e b6 2c 6d 3c
       0.17651063 0.15213455 0.21850944 0.014475992
0000e0 4e f3 13 3e f0 f7 a0 3c 83 e5 e9 3e 21 53 1a 3e
       0.14448282 0.019649476 0.45682916 0.15070774
0000f0 23 68 05 3c 7b 7c 6d be 6a 90 49 3e 4f 48 d6 3a
       0.008142504 -0.23192017 0.19683996 0.0016348454
000100 0f 48 90 3b a0 0c 1a 3c 68 84 20 bd 90 0d c2 3c
       0.0044031213 0.009402424 -0.039188772 0.023688108
000110 f9 17 89 3d ed 20 8a bc e8 7b 34 bc 7d 35 9c bc
       0.066940255 -0.016861403 -0.01101587 -0.019068474
000120 fd 1d 04 bd 88 db 6e bd ca 80 8d bc cc f6 33 3c
       -0.03225516 -0.05831483 -0.017273325 0.010984134
000130 fa f0 b6 bc 83 e3 c0 bc ff bd 6b 3c 72 8f 73 3d
       -0.022331703 -0.023545986 0.01438856 0.059462972
000140 11 d2 cf bc b5 f8 aa 3c 74 d8 9e 39 eb 06 d8 3d
       -0.025368722 0.020870546 0.00030297379 0.105481945
000150 40 61 9f 3c 09 15 0f bd de 6e 1d 3d d6 6c b2 3c
       0.019455552 -0.03493217 0.03843581 0.021780413
000160 86 1e 23 bc ad 5a eb 3c 58 d0 df 3d c5 e1 33 3d
       -0.009956008 0.028729761 0.1092841 0.043916482
000170 cc 47 1a 3b ed 2a 87 bc e9 78 e3 bd 71 58 cd 3b
       0.002354133 -0.01649996 -0.11107046 0.0062666466
000180 d3 9a f6 ba d6 9a 45 3f cc 43 db 3e f5 23 b3 ba
       -0.0018814452 0.77189386 0.42825162 -0.0013667332
000190 7d 08 1e 3f 99 0e 81 3c 3d b4 8b 3e 33 08 43 3b
       0.617317 0.015754031 0.27285948 0.0029759526
0001a0 e1 bf b1 3e a1 1c 09 3f bd 00 a4 3d e7 0c 20 3f
       0.34716704 0.5355931 0.08007953 0.6251969
0001b0 f6 bb 55 3f 64 88 7c 3e a9 c2 03 bb 14 bc 87 3e
       0.8348993 0.24661404 -0.002010504 0.2651068
0001c0 72 a6 2a ba 20 a9 9c 3d 8f 93 82 3e 78 1b 0c 3f
       -0.00065097876 0.076494455 0.25503203 0.54729414
0001d0 53 6b 17 3f b6 e2 a5 3e e3 8d 9c 3e 74 65 66 3d
       0.5914814 0.3239953 0.30577 0.056249097
0001e0 8b e4 12 3f 97 b8 97 3d 14 03 f3 3e db e8 3d 3e
       0.5737998 0.074082546 0.47463286 0.18545859
0001f0 d6 fa 26 3e 74 38 f5 3e e3 c2 11 3d e5 66 2b 3c
       0.16306624 0.47894633 0.03558625 0.010461544

bias_hh_l0 f4 [128]
000000 cd 98 f6 ba 3b d0 50 3f 3f 74 ce 3e 2a 24 b3 ba
       -0.0018813849 0.81567734 0.40323064 -0.0013667394
000010 af e4 09 3f 4f 0f 81 3c 81 e4 8b 3e da 04 43 3b
       0.5386457 0.01575437 0.27322772 0.002975753
000020 fd bb b4 3e 79 d0 02 3f 92 0f a4 3d d7 69 23 3f
       0.35299674 0.51099354 0.08010782 0.63833374
000030 d7 84 2f 3f 77 c2 7c 3e e1 c1 03 bb 09 3c 88 3e
       0.6856207 0.24683557 -0.0020104575 0.26608303
000040 fa a0 2a ba 0f b8 9c 3d 9d a9 82 3e 36 6e e2 3e
       -0.0006508973 0.07652294 0.2552003 0.4422471
000050 8d 48 19 3f 43 8e 94 3e 7a b9 9c 3e fc 74 66 3d
       0.5987633 0.29014787 0.30610257 0.05626391
000060 68 ea 10 3f 4b c6 97 3d c2 40 af 3e 29 35 3e 3e
       0.56607676 0.07410868 0.34229094 0.18574966
000070 c4 46 63 3d da e7 09 3e a1 44 26 3d a5 66 2b 3c
       0.05548741 0.1346735 0.040592793 0.010461484
000080 c4 5b b2 ba 36 12 8d 3d 4d 6e 0f be f6 69 78 ba
       -0.001360767 0.06888239 -0.1400692 -0.00094762386
000090 30 fa ec 3d d9 f6 3e 3b 61 e8 fa 3d e8 81 8e b9
       0.11571157 0.0029138832 0.12251354 -0.00027181138
0000a0 4e 7f 3f 3e 25 e0 15 3d ec d5 ad 3c dd fc fd 3d
       0.18700907 0.036590714 0.02122017 0.124017455
0000b0 79 d8 92 be d0 f0 ba 3d 5c 9c a5 ba 3e 71 4e 3e
       -0.2868078 0.091279626 -0.00126351 0.20160386
0000c0 0e 19 f5 b9 1a e7 ae 3c 99 07 b8 3d 89 c8 c7 bd
       -0.0004674871 0.021350432 0.08985824 -0.09755046
0000d0 6c 7d 33 3e dd 90 19 3e ed c0 5f 3e b6 2c 6d 3c
       0.17528313 0.14996667 0.21850939 0.014475992
0000e0 e7 f9 3f 3e f0 f7 a0 3c 4f bc 8b 3e 8e a7 1a 3e
       0.18747674 0.019649476 0.27292106 0.1510298
0000f0 f7 de 58 3d d6 a7 0e bd 43 c5 b6 3d 4f 48 d6 3a
       0.05294701 -0.03482803 0.089243434 0.0016348454
000100 e6 82 4b bb b7 fd 1d be d6 a7 3f bd 09 6a c1 bc
       -0.0031053363 -0.15428816 -0.04679092 -0.023610132
000110 91 6f 98 bd 28 72 8f 3c 3e 60 1d 3c 46 49 a6 3c
       -0.074431546 0.017510489 0.009605465 0.020298611
000120 c6 15 16 3d 5b 3f ad bd 26 cb 94 3c 53 19 14 bd
       0.03664186 -0.0845935 0.018163275 -0.036156964
000130 5f 83 e3 3d 7e 69 a5 3c eb 7a 64 bc f3 2e 0e bd
       0.111090414 0.020191904 -0.013945322 -0.034712743
000140 ef 2c d1 3c be 0f a4 bc 3b d8 9b bb 88 44 eb bd
       0.025534121 -0.020027038 -0.0047560013 -0.11487681
000150 fc db 04 bd 6e 01 10 3d 39 14 05 bd 13 7f b8 bc
       -0.032436356 0.035157613 -0.03248999 -0.022521531
000160 66 17 8a bc 0d 9b f1 bc e1 13 65 3e 09 06 8b bc
       -0.01685686 -0.02949288 0.22370864 -0.016970651
000170 8f c1 4d bd 5e 12 a7 3d 66 e8 1b 3e 87 0f b3 bb
       -0.05023342 0.081578 0.15225372 -0.0054644975
000180 d3 9a f6 ba df d1 1e 3f 82 db cf 3e f5 23 b3 ba
       -0.0018814452 0.6203899 0.4059716 -0.0013667332
000190 f2 e0 03 3f 99 0e 81 3c 3d b4 8b 3e 33 08 43 3b
       0.51515114 0.015754031 0.27285948 0.0029759526
0001a0 e1 bf b1 3e c7 71 02 3f bd 00 a4 3d 59 0d 1c 3f
       0.34716704 0.5095486 0.08007953 0.60957867
0001b0 4c 5e 47 3f 64 88 7c 3e a9 c2 03 bb dc 6c 88 3e
       0.7787826 0.24661404 -0.002010504 0.26645553
0001c0 72 a6 2a ba 20 a9 9c 3d 8f 93 82 3e e5 27 d3 3e
       -0.00065097876 0.076494455 0.25503203 0.41241375
0001d0 e9 c6 17 3f d1 b9 a9 3e 02 8b 9c 3e 74 65 66 3d
       0.5928789 0.3314958 0.30574805 0.056249097
0001e0 c0 d2 11 3f 97 b8 97 3d b3 bf 97 3e f9 61 3d 3e
       0.56962204 0.074082546 0.29638442 0.18494405
0001f0 57 2a cb 3d 68 93 da 3e a3 aa 0f 3e e5 66 2b 3c
       0.09920185 0.42690587 0.14029936 0.010461544

hidden_states f4 [53, 7, 32]
000000 00 00 00 00 00 00 00 00 00 00 00 00 00 00 00 00
       0.0 0.0 0.0 0.0
000010 00 00 00 00 00 00 00 00 00 00 00 00 00 00 00 00
       0.0 0.0 0.0 0.0
000020 00 00 00 00 00 00 00 00 00 00 00 00 00 00 00 00
       0.0 0.0 0.0 0.0
000030 00 00 00 00 00 00 00 00 00 00 00 00 00 00 00 00
       0.0 0.0 0.0 0.0
000040 00 00 00 00 00 00 00 00 00 00 00 00 00 00 00 00
       0.0 0.0 0.0 0.0
000050 00 00 00 00 00 00 00 00 00 00 00 00 00 00 00 00
       0.0 0.0 0.0 0.0
000060 00 00 00 00 00 00 00 00 00 00 00 00 00 00 00 00
       0.0 0.0 0.0 0.0
000070 00 00 00 00 00 00 00 00 00 00 00 00 00 00 00 00
       0.0 0.0 0.0 0.0
000080 d7 96 c1 38 ff dc 7e be 11 3d fa bd 4a 63 3f 38
       9.231053e-05 -0.24888991 -0.12218679 4.563042e-05
000090 47 8d 09 be 21 ef 7c b9 c1 e1 7c 3b 75 2d 8d b5
       -0.134328 -0.00024121675 0.0038586708 -1.0518548e-06
0000a0 24 ea 50 bc 1e 56 23 be 5e f4 69 ba 98 a9 b3 bc
       -0.012751136 -0.1595082 -0.0008924658 -0.021931455
0000b0 b0 40 96 3e a3 a8 80 3b 24 da 7b 38 1a 02 e7 3c
       0.29346228 0.003926353 6.0046223e-05 0.028199244
0000c0 c2 41 cf 38 ed 2d 71 ba 21 b7 2c 3b f9 93 41 be
       9.8827775e-05 -0.0009200264 0.002635427 -0.18904103
0000d0 dd 6c 2f 3c 44 89 da 3c 33 8d f7 3a cf 05 3b 3a
       0.010707107 0.026676781 0.0018886685 0.00071343494
0000e0 04 97 95 bc 01 64 54 3a 69 07 21 3e db a3 55 3c
       -0.018260486 0.000810206 0.15725483 0.0130395545
0000f0 da d5 8e bc 81 57 25 3e 87 c5 33 bd 46 84 2b b9
       -0.017435957 0.16146661 -0.04388955 -0.00016357107
000100 1c 5f c9 38 9a cd 84 be 28 11 e8 bd e4 9f 00 39
       9.6021424e-05 -0.25938112 -0.11331397 0.00012266595
000110 52 75 96 bd 11 4e b5 ba 24 e5 3b 3c 87 64 0f ba
       -0.07346596 -0.001383247 0.011468206 -0.0005469997
000120 27 e6 13 bc e1 86 42 be e3 18 82 bb 9a 1b e9 3c
       -0.009027041 -0.18996765 -0.003970252 0.028455544
000130 af c2 4b 3e 54 2f 30 3c ed 44 60 38 d3 e4 0a 3d
       0.19898485 0.010753471 5.3469954e-05 0.03390963
000140 29 81 69 39 9d c5 82 bb 1a f0 20 3c 26 54 06 be
       0.00022268727 -0.0039908425 0.00982287 -0.13118038
000150 6f d0 d7 bb bc d1 b0 3d 99 8f 18 bc cf 17 51 3b
       -0.0065861265 0.08633754 -0.00931158 0.003190506
000160 f0 a2 f7 bc 8b 0c 77 3b c0 76 c0 3e dd 79 85 3c
       -0.030229062 0.0037696685 0.375906 0.01629346
000170 a3 80 a0 bb d2 17 29 3d 46 d3 00 be e8 cf 8f ba
       -0.004898147 0.041282482 -0.12580594 -0.0010971995
000180 83 0b bd 38 b8 0b 8a be d9 8b 0a be e9 9c 1e 39
       9.0143665e-05 -0.26962066 -0.1352991 0.00015126508
000190 02 65 92 bd 6f c5 bd ba b2 ff 1b 3c 5c 6b 20 ba
       -0.07148172 -0.0014478395 0.009521412 -0.00061195134
0001a0 b7 7f ec bb 34 5e 5e be d8 1d 70 bb d8 29 2b 3d
       -0.0072173732 -0.21715623 -0.0036638882 0.041787952
0001b0 72 cd 54 3e 1b 7c 0d 3c ed 2b 71 38 cb c2 22 3d
       0.20781496 0.008635546 5.7499787e-05 0.03973655
0001c0 91 e5 72 39 39 4f 73 bb 4a 3a f0 3b d9 23 20 be
       0.00023164439 -0.0037126078 0.0073311673 -0.15638675
0001d0 4e e3 6e 3b f5 a6 e0 3d f3 6c 8f bb e1 cf 47 3b
       0.0036451402 0.109693445 -0.0043770014 0.0030488896
0001e0 f2 4d f3 bc ec 86 66 3b 01 a1 02 3f d6 30 a0 3c
       -0.029700253 0.0035175635 0.5102692 0.019554537
0001f0 8f 9e 87 bc 71 65 a7 3c 9c b3 18 be 1e ae 9a ba
       -0.016555099 0.020434113 -0.14912266 -0.0011801159
000200 27 bf 63 38 88 73 7c be b9 d0 0d be 68 a9 49 39
       5.4299042e-05 -0.24653447 -0.13849153 0.00019231963
000210 26 de 95 bd 4a 5c af ba f5 fa 9a 3b 4b 69 21 ba
       -0.07317762 -0.0013378945 0.0047296234 -0.00061573525
000220 69 0d 52 bb 23 17 59 be ed 3f 3c bb 82 84 79 3d
       -0.003205145 -0.21200232 -0.0028724626 0.060917385
000230 f4 db 43 3e e6 cd 8a 3b 8e 90 fc 37 8d 50 22 3d
       0.19126874 0.004235971 3.0108054e-05 0.0396276
000240 3e 83 80 39 67 ba 3f bb 89 7b 3b 3b df 1e 21 be
       0.00024511846 -0.0029255392 0.0028607568 -0.15734433
000250 28 c1 7a 3c 4a 6f 0a 3e d3 02 81 3b d2 c8 24 3b
       0.015304841 0.13519016 0.0039371043 0.0025144112
000260 b1 40 fc bc 07 8d 37 3b c8 94 1a 3f 03 d6 b2 3c
       -0.030792566 0.0028007643 0.6038327 0.021830564
000270 7b 82 e8 bc 66 40 02 bc bb 81 1c be b5 6b 93 ba
       -0.02838253 -0.007949924 -0.15283863 -0.0011247309
000280 2e 90 a6 38 b7 cb 65 be d8 76 11 be 8f c3 79 39
       7.9423524e-05 -0.22440992 -0.14205492 0.00023819342
000290 1a b4 cb bd aa 0e 62 ba 62 f9 0b bb 8d 89 d1 b9
       -0.09946461 -0.0008623401 -0.002135836 -0.0003996607
0002a0 d2 1f 5d b8 c3 5a 48 be 81 c7 9d ba c2 17 9e 3d
       -5.272014e-05 -0.19565873 -0.0012037606 0.07719375
0002b0 6d d8 4c 3e e1 2b 06 bb fb 1d 4f b6 c3 9a 18 3d
       0.20004435 -0.0020472931 -3.0862855e-06 0.037256967
0002c0 af c8 81 39 b0 8f a8 ba ab 29 77 bb d1 ad 19 be
       0.00024754318 -0.0012860205 -0.0037714045 -0.15007712
0002d0 66 28 f7 3c 0b 84 22 3e 25 21 5c 3c 4c 04 a8 3a
       0.03017063 0.15870683 0.013435637 0.0012818663
0002e0 6c 90 14 bd 8a 45 a3 3a 58 ba 28 3f 40 e9 c0 3c
       -0.036270544 0.0012456637 0.6590934 0.023548722
0002f0 d3 bd 29 bd f1 59 36 bc d2 bb 15 be d6 65 46 ba
       -0.041440796 -0.011129842 -0.14622429 -0.00075682753
000300 eb da 3a 39 89 a0 4f be 05 54 12 be 2d 0e 87 39
       0.00017819896 -0.20276083 -0.14289863 0.00025759768
000310 4d d7 07 be c3 f2 1f b9 02 ee 16 bc 99 0b d3 b7
       -0.13265724 -0.00015253857 -0.009212019 -2.515856e-05
000320 b3 a7 af 3a f4 26 2e be ed b9 78 3a d5 c4 c5 3d
       0.0013401419 -0.17007047 0.00094881543 0.09656683
000330 cd 89 57 3e e0 67 0d bc 2f 4a 50 b7 75 1f 0d 3d
       0.2104866 -0.008630723 -1.2415038e-05 0.034453828
000340 f6 a9 6d 39 f9 43 55 3a ff fa 34 bc ce 18 f1 bd
       0.00022665397 0.0008135434 -0.01104617 -0.11772309
000350 d5 75 3d 3d 38 66 3d 3e 07 5b 95 3c 26 0b b3 b9
       0.04625495 0.18496025 0.018231882 -0.00034149847
000360 f7 f3 49 bd 05 5c 49 ba f9 80 31 3f 93 65 cd 3c
       -0.04930493 -0.00076812535 0.6933742 0.025072848
000370 95 0d 58 bd c7 31 1b bc a5 35 0d be 03 53 3f b9
       -0.052747328 -0.009472317 -0.13789995 -0.00018246104
000380 00 00 00 00 00 00 00 00 00 00 00 00 00 00 00 00
       0.0 0.0 0.0 0.0
000390 00 00 00 00 00 00 00 00 00 00 00 00 00 00 00 00
       0.0 0.0 0.0 0.0
0003a0 00 00 00 00 00 00 00 00 00 00 00 00 00 00 00 00
       0.0 0.0 0.0 0.0
0003b0 00 00 00 00 00 00 00 00 00 00 00 00 00 00 00 00
       0.0 0.0 0.0 0.0
0003c0 00 00 00 00 00 00 00 00 00 00 00 00 00 00 00 00
       0.0 0.0 0.0 0.0
0003d0 00 00 00 00 00 00 00 00 00 00 00 00 00 00 00 00
       0.0 0.0 0.0 0.0
0003e0 00 00 00 00 00 00 00 00 00 00 00 00 00 00 00 00
       0.0 0.0 0.0 0.0
0003f0 00 00 00 00 00 00 00 00 00 00 00 00 00 00 00 00
       0.0 0.0 0.0 0.0

cell_states f4 [53, 7, 32]
000000 00 00 00 00 00 00 00 00 00 00 00 00 00 00 00 00
       0.0 0.0 0.0 0.0
000010 00 00 00 00 00 00 00 00 00 00 00 00 00 00 00 00
       0.0 0.0 0.0 0.0
000020 00 00 00 00 00 00 00 00 00 00 00 00 00 00 00 00
       0.0 0.0 0.0 0.0
000030 00 00 00 00 00 00 00 00 00 00 00 00 00 00 00 00
       0.0 0.0 0.0 0.0
000040 00 00 00 00 00 00 00 00 00 00 00 00 00 00 00 00
       0.0 0.0 0.0 0.0
000050 00 00 00 00 00 00 00 00 00 00 00 00 00 00 00 00
       0.0 0.0 0.0 0.0
000060 00 00 00 00 00 00 00 00 00 00 00 00 00 00 00 00
       0.0 0.0 0.0 0.0
000070 00 00 00 00 00 00 00 00 00 00 00 00 00 00 00 00
       0.0 0.0 0.0 0.0
000080 1c f9 41 39 5b 1d a5 be eb f4 35 be 8a a6 bf 38
       0.00018498715 -0.3224896 -0.1776921 9.13861e-05
000090 06 15 37 be 26 02 f9 b9 8f ac c7 3b 31 c4 0c b6
       -0.17879114 -0.00047494582 0.0060935686 -2.0975824e-06
0000a0 15 d1 9b bc ad b6 61 be dd 7a d8 ba 62 9e e6 bc
       -0.019020597 -0.22042342 -0.0016516108 -0.028151695
0000b0 26 4e bb 3e c5 10 cf 3b 00 5d fc 38 d1 a7 37 3d
       0.3658306 0.0063191378 0.00012033619 0.044837777
0000c0 5b 64 4f 39 1e e7 df ba 3f 26 8a 3b c5 82 88 be
       0.00019778444 -0.0017082428 0.004215985 -0.2666227
0000d0 f9 db 64 3c f7 74 26 3d 96 2a 3e 3b 8e f9 b0 3a
       0.013968461 0.04063889 0.0029017082 0.0013502107
0000e0 95 32 c4 bc ea 9e c5 3a ca d6 6c 3e c4 e8 b4 3c
       -0.0239499 0.0015077267 0.2312881 0.022083648
0000f0 c0 cc fc bc 62 0e 6a 3e 04 2b a5 bd bf bf a9 b9
       -0.030859351 0.22857049 -0.08064845 -0.00032377054
000100 71 cd 49 39 e9 55 bb be ff 59 31 be 73 cd 80 39
       0.00019245387 -0.36588982 -0.17319487 0.00024567134
000110 45 f3 c3 bd 0c 40 32 bb 5b fb 92 3c e3 ed 8e ba
       -0.09567884 -0.002719882 0.017942121 -0.0010904636
000120 5d 92 52 bc 77 f0 8f be be 8f ef bb 17 04 0d 3d
       -0.012852279 -0.28113148 -0.0073108366 0.03442773
000130 69 46 73 3e ae 3a 8c 3c 35 bc e0 38 f4 cc 5a 3d
       0.23757328 0.017117824 0.000107162086 0.053418115
000140 63 a7 e9 39 cc a5 f1 bb a1 54 7e 3c b3 8d 2d be
       0.00044565936 -0.007374501 0.015523107 -0.16948585
000150 d5 3b 08 bc b8 55 05 3e 15 dc 64 bc c9 1e c5 3b
       -0.008315046 0.1302098 -0.013968487 0.006015633
000160 05 9c 1a bd 11 c9 e4 3b f1 ba 0d 3f 23 5c df 3c
       -0.037746448 0.006981977 0.55363375 0.027265614
000170 56 ec 0c bc 24 60 65 3d c7 10 87 be ac 31 0e bb
       -0.008601269 0.05599989 -0.26379988 -0.0021697087
000180 fe 73 3d 39 2b da bc be ed 60 50 be 42 d7 9e 39
       0.00018067655 -0.368852 -0.20349474 0.00030296488
000190 ea 31 ba bd 96 6c 3a bb d3 7c 71 3c e9 dd 9f ba
       -0.090915516 -0.002844607 0.014739233 -0.0012196872
0001a0 54 9f 28 bc 63 29 a2 be 5c 50 dc bb a8 ee 4e 3d
       -0.010291893 -0.316722 -0.006723447 0.05052057
0001b0 1e bc 78 3e 61 e6 5e 3c 09 b0 f1 38 30 09 7e 3d
       0.24290511 0.013604731 0.000115245646 0.06202048
0001c0 44 0e f3 39 d9 0b e0 bb 28 cf 3b 3c b1 32 45 be
       0.000463592 -0.00683735 0.011462964 -0.19257618
0001d0 a2 f0 94 3b d5 ca 26 3e 3d 88 d2 bb 18 e4 bb 3b
       0.004545287 0.16288312 -0.0064249323 0.005733978
0001e0 d1 76 18 bd 4f cb d4 3b e0 77 4f 3f c4 9c 04 3d
       -0.037222687 0.006493963 0.8104229 0.032376066
0001f0 af bc eb bc dd 7e de 3c e3 80 9c be fa da 18 bb
       -0.028776495 0.027160103 -0.30567083 -0.002332388
000200 fc 3e e4 38 27 91 aa be 5f 57 55 be 41 f5 c9 39
       0.00010883619 -0.33313867 -0.2083411 0.00038520436
000210 f8 dc bb bd 14 2c 2c bb 74 69 ee 3b 3e d5 a0 ba
       -0.09173006 -0.002627139 0.0072757546 -0.0012270582
000220 0a b6 94 bb c1 1d 9e be ba 52 ac bb ad b9 95 3d
       -0.0045383023 -0.30882075 -0.005258885 0.073108055
000230 e6 40 61 3e a1 4e d9 3b 86 1d 7d 38 c5 d2 7b 3d
       0.21997413 0.0066316877 6.0347396e-05 0.061480302
000240 ff 98 00 3a 78 26 b0 bb 54 9e 91 3b 6c 21 41 be
       0.00049056107 -0.0053756796 0.004443923 -0.18860406
000250 50 d4 9a 3c ed 48 4c 3e cc f6 ba 3b 6a af 9a 3b
       0.018900067 0.19949694 0.00570569 0.004720618
000260 97 1b 1d bd 7a 0f a9 3b ed 07 85 3f a5 22 13 3d
       -0.03835639 0.0051593157 1.0393044 0.03592171
000270 57 1e 49 bd 21 eb 29 bc b0 3c a1 be 3b a0 11 bb
       -0.0491012 -0.0103710005 -0.31491613 -0.002222075
000280 23 ee 26 39 83 62 98 be 51 df 59 be 39 23 fa 39
       0.00015919706 -0.29762658 -0.21276595 0.0004770996
000290 6a ff fc bd b0 e1 dd ba fc 79 56 bb 72 c5 50 ba
       -0.12353404 -0.0016928222 -0.0032726517 -0.0007963992
0002a0 90 47 9c b8 a5 64 90 be 32 3d 10 bb 20 a0 bd 3d
       -7.451989e-05 -0.28201786 -0.0022009131 0.09259057
0002b0 02 ee 69 3e c2 42 51 bb 17 93 cf b6 95 c2 6b 3d
       0.22844699 -0.003193066 -6.1862042e-06 0.057558615
0002c0 e2 de 01 3a 4a aa 1a bb 88 3c bf bb 2b cd 35 be
       0.00049541716 -0.0023600035 -0.0058360733 -0.17754047
0002d0 a9 f5 17 3d 34 69 6f 3e 90 63 9e 3c 6f 90 1d 3b
       0.037099514 0.23379976 0.019334584 0.0024042388
0002e0 4d df 38 bd ca 31 16 3b ea cb 9c 3f 46 1a 1e 3d
       -0.04513483 0.002291786 1.224973 0.038599275
0002f0 5d 6f 92 bd a2 04 6a bc 4c 4a 98 be 6a f1 c3 ba
       -0.07150147 -0.014283331 -0.29744184 -0.0014949266
000300 aa 44 bb 39 28 37 88 be a0 08 5b be 8a 42 07 3a
       0.00035718578 -0.2660458 -0.21390009 0.00051597564
000310 9e e3 27 be 3f f8 9c b9 a7 c6 66 bc 56 44 52 b8
       -0.16395423 -0.00029939596 -0.014085448 -5.0131544e-05
000320 a5 bc f7 3a da f4 78 be 6a 36 e3 3a 4c 2c ed 3d
       0.0018900825 -0.24312153 0.0017334942 0.115807146
000330 45 6c 75 3e 3c 1b 5c bc dc c0 d0 b7 2f 60 59 3d
       0.23967083 -0.013434228 -2.488534e-05 0.053070243
000340 e0 d2 ed 39 cd 8a c3 3a 82 c0 8b bc 92 a9 0d be
       0.00045361277 0.0014918685 -0.017059568 -0.13834217
000350 3a 83 68 3d b2 e8 8b 3e 1e 59 d6 3c 10 d0 27 ba
       0.056765772 0.2732597 0.026165541 -0.0006401548
000360 96 cc 7a bd 38 1a b9 ba e5 c7 af 3f 4b e3 27 3d
       -0.061230265 -0.0014122194 1.3732878 0.040988248
000370 a1 2d ba bd f1 09 44 bc f7 7a 8e be 12 f0 bc b9
       -0.09090734 -0.011965261 -0.2782819 -0.0003603702
000380 00 00 00 00 00 00 00 00 00 00 00 00 00 00 00 00
       0.0 0.0 0.0 0.0
000390 00 00 00 00 00 00 00 00 00 00 00 00 00 00 00 00
       0.0 0.0 0.0 0.0
0003a0 00 00 00 00 00 00 00 00 00 00 00 00 00 00 00 00
       0.0 0.0 0.0 0.0
0003b0 00 00 00 00 00 00 00 00 00 00 00 00 00 00 00 00
       0.0 0.0 0.0 0.0
0003c0 00 00 00 00 00 00 00 00 00 00 00 00 00 00 00 00
       0.0 0.0 0.0 0.0
0003d0 00 00 00 00 00 00 00 00 00 00 00 00 00 00 00 00
       0.0 0.0 0.0 0.0
0003e0 00 00 00 00 00 00 00 00 00 00 00 00 00 00 00 00
       0.0 0.0 0.0 0.0
0003f0 00 00 00 00 00 00 00 00 00 00 00 00 00 00 00 00
       0.0 0.0 0.0 0.0
