model/CNN_1_-1_6.pt (torch, 236926 bytes, 9 tensors)

bias f4 [6]
00000000: f042 8c39 9929 26b7 27b0 50b9 dcc5 cbb7
00000010: 0eb1 5f38 49de 3db5
0.00026752753 -9.904056e-06 -0.00019902048 -2.4291621e-05 5.3332238e-05 -7.0731454e-07

bias f4 [6]
00000000: 86b6 e438 cbf9 7c39 d288 5e38 7054 9d39
00000010: 7797 2b39 1367 15b8
0.00010905885 0.00024125648 5.305635e-05 0.00030008284 0.00016364256 -3.5620364e-05

weight f4 [6]
00000000: b2e0 613f 8f52 8b3f b69f 643f 9cdd 0c40
00000010: e9dc 883f 27df 853f
0.8823348 1.088457 0.893062 2.201026 1.0692416 1.0458726

bias f4 [6]
00000000: ebf7 1fbe 1c46 f1bc 454f 65be 0e36 94bf
00000010: e1a8 96bd a3cc 30bd
-0.15621917 -0.029452376 -0.2239352 -1.1578996 -0.0735643 -0.043163907

running_mean f4 [6]
00000000: 27ad df3f 098c bbbf 3692 c63d faa8 28bf
00000010: 1944 003d d0b9 afbe
1.7474717 -1.465211 0.09695856 -0.6588284 0.031314943 -0.3432145

running_var f4 [6]
00000000: 8e41 6b40 f63d f83f 7967 0e3f 83b1 fb3f
00000010: 207a c83f be50 2f3f
3.6758761 1.9393909 0.55626637 1.9663547 1.566227 0.6848258

weight f4 [16, 3600]
00000000: 1f02 0000 4624 afa4 e09e 8ca5 e40d 94a6
00000010: cd5c 11a9 5374 4ea9 6af8 81a6 6e51 2ca6
00000020: 8bd2 b2a5 fb89 6ea3 c8d6 9ba1 9142 98a0
00000030: e0ac 039f de3b 259d 1c69 959c a2ee 519f
00000040: 6e46 66a1 08a8 dfa0 6f44 b692 0704 0080
00000050: ac0a 0000 e309 0080 510f 0080 ca0d 0000
00000060: 8f13 0080 4042 0080 5301 0000 cbd6 1483
00000070: 29b0 0693 bea8 b596 387d 1f9a ca35 3797
00000080: de3f 5707 8803 0000 8a0e 0080 830a 0000
00000090: 9861 dfaf be04 0000 2906 faad 91d4 2db2
000000a0: 3950 0080 4005 0000 eb07 0000 e102 0080
000000b0: 4b0c 0000 0004 0080 ba4b 4208 81b7 ee91
000000c0: b603 2e9b 9e65 329c 021c c59d f7ae 719c
000000d0: 9073 9b08 9e10 0000 0f9b 0080 1406 0000
000000e0: 0713 0000 6f0d 0000 d002 0080 38ae 5eb4
000000f0: c685 0080 e80c 0080 190d 0080 7111 0000
00000100: 200e 0080 180d 0080 ad09 0000 c06f 0392
00000110: ea33 fe94 0e18 1e95 7742 7a91 62ac 2e00
00000120: aa05 0080 d610 0080 1784 0080 aaca 0b85
00000130: 0e68 bc82 0331 0100 3c10 0000 c606 d6b4
00000140: faa0 0080 bc03 0080 5d0f 0080 450c 0000
00000150: 0808 0080 c13e 0080 a9fa a400 5490 1a8c
00000160: 3dd4 3294 bd9e bf95 ef95 8b90 7d0e 0080
00000170: cb0e 0080 8a04 0080 af7b 6500 f39f 1609
00000180: 576c 948c 6811 0180 e5f5 0080 39b0 45b5
00000190: 9751 0000 e30d 0080 8556 9384 1a12 0000
000001a0: 6006 0000 5658 1c82 f541 1400 ef60 978d
000001b0: 651b 1c96 39ce 0195 4108 670a de01 0080
000001c0: 9110 0000 110e 0000 fef7 0180 0791 0180
000001d0: e070 0200 58ef ab84 2b06 0180 1bc0 61b5
000001e0: 1d04 0000 c412 0080 5f0b 0000 1553 3e00
000001f0: 8ddb 7283 376e 0080 5409 0000 bfa7 3c91
00000200: ee1d 879a 056a ef8d ec12 0080 4207 0000
00000210: 4801 0080 d400 0080 115e f181 1783 1d85
00000220: 2eba d982 12cc 1400 7876 1983 add7 22b5
00000230: 4a42 0000 3f13 0000 cc12 0080 ac0c 0000
00000240: 9da0 a592 6d09 0080 650b 0000 14c3 fe84
00000250: 6139 b098 3632 b394 1f11 0000 3e03 0000
00000260: e21b 0101 5a08 0080 ecc0 0080 9442 3b0a
00000270: 1248 3c8a 3f24 0f0a 357b b904 cb87 0ab5
00000280: 8739 0080 e803 0000 8985 5383 f400 0000
00000290: 436f 7184 d7ab 0a91 6ab1 1e97 3108 dd9c
000002a0: 888c 8aa0 3bab 059d 6077 cb00 8909 0080
000002b0: a21a 9800 8f05 0000 6c10 0080 16d8 1300
000002c0: 82a1 b708 7f47 ac8e 270e ad09 378c 1eb5
000002d0: 7318 0080 8712 0080 a00b 0000 1209 de92
000002e0: 6c09 0080 0a11 0000 50de b19a 99dc cda1
000002f0: 95da a6a2 c02b 1497 d520 0080 0d13 0080
00000300: 390a 0080 fab0 0784 26ae 1183 a000 0000
00000310: e1fc 0080 6de0 150a 387e 988c 9690 49b5
00000320: f33c 0000 f0a4 5497 6a0e 0080 1701 0080
00000330: 642b 0080 b564 7683 47d3 549b 70e8 10a2
00000340: a9a9 82a1 fa7d a394 85ad 850a 5847 ae0a
00000350: b48d 0080 4307 0080 0902 0080 ff3f 0180
00000360: 8409 0080 d0a2 4200 8667 5600 dba4 66b5
00000370: a85b 0000 1710 0000 66f8 0080 b7d2 0107
00000380: 149f ba09 72d3 0c92 bbe7 b19f f0e9 0aa1
00000390: a177 e78c 5109 0000 dc56 ad09 04a7 119f
000003a0: aefa a09f d1be cb90 84b2 0201 bd00 0000
000003b0: d80b 0080 12db 0900 87ee 0c00 4ed8 82b5
000003c0: 3159 0000 2002 0080 1459 cc81 2322 af08
000003d0: 328a b497 b75c 109f 99ce 9ba1 c07a c290
000003e0: 2c12 0000 e00e 0080 840e 0080 05d7 4398
000003f0: b689 e9a1 1ade c99e a5b0 b890 7c4f 0080
7.61e-43 -7.59556e-17 -2.4393787e-16 -1.0273328e-15 -3.227696e-14 -4.5842084e-14 -9.018506e-16 -5.9784845e-16
-3.1020747e-16 -1.2931224e-17 -1.0560061e-18 -2.5793852e-19 -2.7883328e-20 -2.1868519e-21 -9.887163e-22 -4.4454864e-20
-7.8020244e-19 -3.7888863e-19 -1.1502685e-27 -1.445e-42 3.828e-42 -3.547e-42 -5.494e-42 4.947e-42
-7.016e-42 -2.3766e-41 4.75e-43 -4.373986e-37 -1.7000031e-27 -2.9348618e-25 -3.298158e-23 -5.919838e-25
1.6193571e-34 1.267e-42 -5.216e-42 3.771e-42 -4.0632808e-10 1.701e-42 -2.8424445e-11 -1.0118257e-08
-2.8778e-41 1.883e-42 2.84e-42 -1.033e-42 4.41e-42 -1.435e-42 5.8468768e-34 -3.7662872e-28
-1.4394142e-22 -5.9026597e-22 -5.2174425e-21 -7.996635e-22 9.355892e-34 5.961e-42 -5.5625e-41 2.18e-42
6.826e-42 4.819e-42 -1.009e-42 -2.0738742e-07 -4.7989e-41 -4.63e-42 -4.699e-42 6.257e-42
-5.067e-42 -4.697e-42 3.471e-42 -4.1474054e-28 -2.5667922e-26 -3.1926822e-26 -1.9742004e-28 4.286272e-39
-2.032e-42 -6.04e-42 -4.7385e-41 -6.572972e-36 -2.7683842e-37 1.09418e-40 5.824e-42 -3.9865535e-07
-5.7748e-41 -1.34e-42 -5.511e-42 4.401e-42 -2.881e-42 -2.2512e-41 1.5150941e-38 -1.1907161e-31
-9.02856e-27 -7.739473e-26 -5.505684e-29 -5.197e-42 -5.307e-42 -1.628e-42 9.319754e-39 1.8130801e-33
-2.2868215e-31 -9.808e-41 -8.821e-41 -7.3644657e-07 2.9269e-41 -4.982e-42 -3.463899e-36 6.494e-42
2.287e-42 -1.1486421e-37 1.860371e-39 -9.329429e-31 -1.2610224e-25 -2.6214024e-26 1.1123798e-32 -6.7e-43
5.943e-42 5.046e-42 -1.80798e-40 -1.43862e-40 2.24163e-40 -4.042171e-36 -9.4048e-41 -8.409858e-07
1.476e-42 -6.732e-42 4.079e-42 5.723605e-39 -7.136944e-37 -3.9538e-41 3.346e-42 -1.4882276e-28
-5.5883045e-23 -1.47550355e-30 -6.788e-42 2.604e-42 -4.6e-43 -2.97e-43 -8.8664397e-38 -7.406182e-36
-3.1992146e-37 1.909917e-39 -4.5098654e-37 -6.066355e-07 2.378e-41 6.904e-42 -6.743e-42 4.546e-42
-1.0452558e-27 -3.381e-42 4.088e-42 -5.9894264e-36 -4.555287e-24 -1.8094186e-26 6.142e-42 1.163e-42
2.3713563e-38 -2.996e-42 -6.9207e-41 9.0162444e-33 -9.065426e-33 6.892017e-33 4.360644e-36 -5.160661e-07
-2.0637e-41 1.401e-42 -6.216062e-37 3.42e-43 -2.8380503e-36 -1.0939233e-28 -5.127648e-25 -1.4626671e-21
-2.3471105e-19 -1.7690928e-21 1.868543e-38 -3.42e-42 1.396855e-38 1.994e-42 -5.891e-42 1.822391e-39
1.1051882e-33 -4.2470122e-30 4.1661544e-33 -5.9063626e-07 -8.771e-42 -6.646e-42 4.17e-42 -1.4012406e-27
-3.38e-42 6.112e-42 -7.356465e-23 -1.3949732e-18 -4.5225823e-18 -4.78766e-25 -1.1778e-41 -6.834e-42
-3.667e-42 -1.5950437e-36 -4.2811583e-37 2.24e-43 -9.0716e-41 7.216299e-33 -2.3495273e-31 -7.5088735e-07
2.1864e-41 -6.8709075e-25 -5.171e-42 -3.91e-43 -1.5566e-41 -7.240851e-37 -1.7604496e-22 -1.963869e-18
-8.854051e-19 -1.6508483e-26 1.2872705e-32 1.6782427e-32 -5.0834e-41 -2.605e-42 -7.3e-43 -1.14793e-40
-3.414e-42 6.119549e-39 7.93499e-39 -8.5921573e-07 3.288e-41 5.772e-42 -8.9109e-41 9.766805e-35
4.4927468e-33 -4.4436837e-28 -7.534578e-20 -4.706583e-19 -3.5663184e-31 3.342e-42 4.1729917e-33 -3.0843096e-20
-6.817735e-20 -8.036338e-29 2.4005308e-38 2.65e-43 -4.249e-42 9.05107e-40 1.187593e-39 -9.748708e-07
3.1996e-41 -7.62e-43 -7.5065586e-38 1.0540455e-33 -1.1667113e-24 -3.0569878e-20 -1.0557894e-18 -7.6708634e-29
6.519e-42 -5.336e-42 -5.207e-42 -2.5311716e-24 -1.5825146e-18 -2.1373562e-20 -7.284737e-29 -2.8514e-41

bias f4 [16]
00000000: d840 34b1 b9e0 c63d dea3 7a92 ad0a 0000
00000010: b624 07be 55a7 cbb9 a70b 0080 5a0d 0000
00000020: e16d bbbc 8a09 0000 021d 08bc 075c 523e
00000030: 9f13 0080 3201 0080 3203 0080 37ac c2ad
-2.6230307e-09 0.09710831 -7.9088072e-28 3.83e-42 -0.13197598 -0.0003884385 -4.18e-42 4.79e-42
-0.022879543 3.422e-42 -0.008307697 0.20542918 -7.039e-42 -4.29e-43 -1.146e-42 -2.2131725e-11

weight f4 [1, 16]
00000000: 4afa 043c 63f1 ac3e 575b 7a3b 9457 723b
00000010: b74a 8abf 14cb 83b8 deac 523b df5b 123b
00000020: 96e5 ce3f f0dd 08b8 ad13 123f 1289 b63e
00000030: be4e e3bb ceb0 8a3b aba6 3c34 c9a9 7abb
0.008116314 0.33777913 0.0038201415 0.003697847 -1.0804051 -6.284393e-05 0.0032146494 0.0022332591
1.6163814 -3.2631622e-05 0.5706127 0.3565145 -0.006936877 0.0042325025 1.7569498e-07 -0.0038248172
