model/CNN_Trans_1_2_6.pt (torch, 496947 bytes, 39 tensors)

weight f4 [4, 1, 1, 1]
00000000: d995 b63c 4a4f 493e e363 7dbd 4af0 8b3e
0.02228825 0.19659153 -0.061862838 0.27331764

bias f4 [4]
00000000: e07c 8ebf d07e 363f df6a 693f 4154 533f
-1.1131859 0.7128725 0.911787 0.82550436

weight f4 [4, 4, 3, 3]
00000000: c020 873d 3948 85be d6b1 903d 538e a1bd
00000010: c1e0 f1be 111c 863e 96fe 803e 55f8 973e
00000020: 4efe 133f 785e 24be 40f3 1fbb 4016 96be
00000030: 2f65 8dbc 80dc 20bd 24f6 643d 19cf 0d3d
00000040: e389 2d3b f671 60be d53e 6d3e 95c8 6e3e
00000050: 81b5 d5bc a35e 2a3e cb27 983e 5f20 f8bd
00000060: da9b a8be f948 e6be 8960 64bf 8982 c3bd
00000070: 662b 0bbd 5aa7 28be 408c e93d 135f 163e
00000080: 5434 bdbc fe38 573c fad5 a6bd c422 c5bd
00000090: fb28 6cbe fd70 c73d a9ed 24bd 5392 debd
000000a0: 18be fa3b d806 2fbe 258d 0ebd 020b 703d
000000b0: 1663 71be 4d1b a73d 132f 013d 5b70 42bd
000000c0: f2e6 f43d 31a3 26be c014 493e 9aca ddbc
000000d0: 1463 6abe a625 663e 503d 623e 68b0 a2bd
000000e0: be47 523e 6dba eb3d 3b70 9abc f5ba d83d
000000f0: 98d1 0a3d 098c c7bd 0770 e63d 9019 503e
00000100: af45 44be 2621 55bd 4b78 823d 5b13 b3be
00000110: a2a6 743e 9003 de3d 3814 25be ced6 2c3e
00000120: 35eb 47bd 1c17 90be 5429 a6be 3ebf e33d
00000130: d745 a83d 66d5 163d 5435 353e 0331 173e
00000140: 1bdd 073f 6301 4c3d 0bfd e4bd acf8 9e3e
00000150: c382 7c3c 6d4e 3cbe f1d2 28be 22e3 01ba
00000160: 9c16 b8be d54f dfbe d5dd 20bd c430 1b3e
00000170: 5e26 7bbd c3da a0bd 0206 fd3d 464e 03be
00000180: 069f 7abe 297a 1dbe e619 d8be 2793 e9bd
00000190: 8cdb bf3c 876e 283e 400b 2c3e 146c 19be
000001a0: 2c31 08be a941 8c3d 738b 2bbe aedd 07be
000001b0: 78dc 353e 3055 e03e f089 943e 2158 77be
000001c0: a236 bfbd 4603 d9bd ca2c bfbe e4e2 1bbd
000001d0: 28d0 91bd 9b56 bb3c a185 16be c953 b93d
000001e0: 0d17 133e 026f 08bd f89b 113d 37ca 823e
000001f0: 6c21 49bd 1360 a9bc ba85 38be 6a52 d5be
00000200: 5c41 cdbe cc6d 993e 629b 98bc 71ff 643d
00000210: a4d1 2b3e f131 d03c 9bd3 a13d fe63 283e
00000220: 4735 8cbe 3019 ecbd c72b 943e bcb2 9abd
00000230: 68d7 21be 434d ab3e 9b50 1abc 8c99 2a3e
0.065980434 -0.26031664 0.070651695 -0.07888474 -0.47241786 0.26193288 0.25194234 0.2968165
0.57809913 -0.16051662 -0.0024406463 -0.2931385 -0.017260162 -0.039272785 0.0558988 0.03462133
0.0026479892 -0.21918473 0.231685 0.23318703 -0.026087524 0.16637664 0.2971786 -0.12115549
-0.32931405 -0.4497755 -0.892098 -0.09546382 -0.033976935 -0.1647009 0.11403704 0.14684705
-0.023096241 0.013136147 -0.081462815 -0.09625772 -0.23062508 0.09738348 -0.040265713 -0.10867753
0.0076520555 -0.17092454 -0.034802575 0.058604248 -0.23572955 0.08159504 0.031539034 -0.04747043
0.11958112 -0.1627319 0.19636822 -0.027074147 -0.22889358 0.22475299 0.22093701 -0.07943803
0.2053518 0.11510167 -0.018852344 0.10582534 0.03389129 -0.097435065 0.11251836 0.20322251
-0.19167207 -0.052033566 0.063706 -0.34975705 0.2389169 0.10840523 -0.16120994 0.16878816
-0.048808295 -0.2814263 -0.32453406 0.11120461 0.08216446 0.036824606 0.17696124 0.1476479
0.53071755 0.04980601 -0.111810766 0.31049097 0.015412035 -0.18389292 -0.16486718 -0.0004954805
-0.3595475 -0.43615595 -0.039274056 0.15155321 -0.061315887 -0.078542255 0.123546615 -0.12822828
-0.24474725 -0.15378632 -0.4220726 -0.1140502 0.023420118 0.16448413 0.16801167 -0.14982635
-0.13300008 0.06848461 -0.16752414 -0.13268158 0.17759883 0.43814993 0.29011488 -0.24154712
-0.09336592 -0.105963275 -0.3733886 -0.038058177 -0.07119781 0.022868445 -0.14699413 0.09049184
0.14364262 -0.03330899 0.035549134 0.25544903 -0.04910414 -0.020675695 -0.18019763 -0.4166444
-0.40088928 0.2996658 -0.01862878 0.05590767 0.1677919 0.025414439 0.07901689 0.16444394
-0.27384397 -0.11528242 0.2893965 -0.07553622 -0.15804827 0.33457384 -0.009418632 0.16660136

bias f4 [4]
00000000: 1f24 32b9 efe1 3ab9 c019 ec38 9c3f ef39
-0.00016988859 -0.00017822509 0.00011258153 0.00045633025

weight f4 [4]
00000000: f5f5 673f 7871 113f 814a 6a3f 15b1 713f
0.90609676 0.56813765 0.91519934 0.9441083

bias f4 [4]
00000000: 359c 1cbf 6655 c13e 8840 8ebe 2ee0 4b3e
-0.61175853 0.37760466 -0.27783608 0.19909737

running_mean f4 [4]
00000000: 5796 36c0 6688 8f3f 89eb 5cc0 5768 a93f
-2.852926 1.12135 -3.451876 1.3234967

running_var f4 [4]
00000000: 3aad 803f d3e0 013f 0464 a33f 699a c73f
1.0052865 0.5073368 1.2764897 1.5593997

weight f4 [4, 4, 3, 3]
00000000: a7f9 d0bd 6e29 2dbd a1f8 783c 0680 83be
00000010: a588 02be 9250 71be 115c 16bd d268 9dbc
00000020: 6fc3 2e3d 6c54 d5bd 4f37 b03d 455b 733d
00000030: 43f9 2c3e 157c 83be 202b dabd 0150 023e
00000040: 3f98 00bc ecf3 28bd 52d7 b5bd 4267 aabd
00000050: 52eb 2abe bea8 b63d 532a e8bc 204a babd
00000060: 4596 bcbc d22b 40bd 21e6 1e3d 5067 f43c
00000070: 645a 103e 410a 69be 230f 483d e26b d43e
00000080: ca82 6b3e 3091 b0be edea 073e d81d 0bb9
00000090: e064 043c 8d5e 25be f30f 62be f863 c3be
000000a0: 17d2 77bd e4e0 72be f5b5 8c3d 7b90 e1bd
000000b0: d90c 0ebe 9c39 a73d ddf0 0a3e 36db 35bc
000000c0: 1f0f 513e 1530 3dbd d148 95be 83a7 823e
000000d0: f723 3bbe 910b 46be 1f8a 65bd 5005 7dbd
000000e0: b4bf 813e 8ee1 80be 1251 8bbe 2292 17be
000000f0: 93b8 29be d2fa aa3d b119 e73d fd11 263e
00000100: bb87 7cbd 2ee5 19be 6b14 b5bc fd4a d93d
00000110: 1f85 323e 2e66 34be 8ed9 603e 2a0e ea3d
00000120: 01bd 49be 89f0 86bd efa1 49be 6984 edbe
00000130: 5fb2 7abe 1daf a2be bb4b 8dbd 19b0 8fbc
00000140: e875 37be 0634 1a3d 3e0d f13c 4327 be3c
00000150: aada 343e 4faa 01bd 261d 40be ce82 263e
00000160: 3ad3 83bd 5ee5 79be fd37 133c 2a98 b93d
00000170: cf33 ef3d 1272 c9be 57e6 c9be 0d65 093d
00000180: 9a83 f3bd 073b 41be 0990 273e b8ec 043e
00000190: b5e2 adbd c2d4 0dbe ba62 d9bd cc2d 9b3e
000001a0: af8c c93d 788a 32bc 749d db3d 6cf6 1b3e
000001b0: 772b d0bd 4024 11be ae87 18be 87ce f3be
000001c0: 9a87 10be 7a12 b7be 96d3 56bd a231 e2bb
000001d0: e9fa d6bd 5c06 7c3d cd4a 5c3d e985 c6ba
000001e0: 52b8 eb3d f65c 8abd c80e 2fbe cd7c 1f3e
000001f0: fe64 bcbc 5581 88be 6158 31bd 1f66 2dbd
00000200: 7049 563e d46a 65be 8a30 7abe a90a 26be
00000210: 3643 cdbd a62e a4bd 1177 2f3e 492c afbd
00000220: 2f7a fc3d ca18 0bbe 8c0a 033e 5a2b ae3d
00000230: 8980 4c3e de9e 81bd ca58 bb3d 9924 703d
-0.102038674 -0.04227584 0.0151959965 -0.25683612 -0.12747438 -0.23565891 -0.036708895 -0.019215021
0.04266685 -0.10416493 0.08604299 0.059413213 0.16891961 -0.25680605 -0.10652757 0.12725832
-0.007848798 -0.041248247 -0.0887896 -0.08320476 -0.1669133 0.08918904 -0.028340494 -0.090961695
-0.023020873 -0.04691679 0.038793687 0.02983442 0.14096981 -0.22757818 0.04884256 0.41488558
0.22999111 -0.3448577 0.13273211 -0.0001326719 0.008080691 -0.1614935 -0.22076397 -0.38162208
-0.06050309 -0.23718601 0.06870643 -0.110138856 -0.13872088 0.08165285 0.13568445 -0.011099627
0.20415924 -0.046188433 -0.29157117 0.25518426 -0.18275438 -0.1934035 -0.056039926 -0.061772645
0.2534157 -0.25172085 -0.2721029 -0.14801839 -0.16574316 0.083486214 0.11284197 0.162178
-0.06165288 -0.15028831 -0.022104463 0.10610006 0.17433594 -0.17617103 0.2195799 0.11428483
-0.19701006 -0.06588847 -0.19690679 -0.46390083 -0.24482106 -0.31774226 -0.0689921 -0.017540025
-0.17916071 0.03764727 0.02942526 0.02321208 0.17661539 -0.03165656 -0.18761119 0.16260836
-0.06436773 -0.24403903 0.008985517 0.09062226 0.116798036 -0.3934484 -0.39433548 0.033543635
-0.118903354 -0.18870173 0.16363539 0.12980926 -0.084905066 -0.13850692 -0.10614534 0.30308378
0.098412864 -0.010897271 0.10723391 0.15230721 -0.1016454 -0.14173985 -0.14895508 -0.47618505
-0.14114228 -0.35756284 -0.052447878 -0.0069028893 -0.10497076 0.061529502 0.053782273 -0.001514611
0.11509766 -0.06756012 -0.17095482 0.15574951 -0.022997376 -0.26661173 -0.043297175 -0.04233372
0.20926452 -0.22404033 -0.24432579 -0.16215004 -0.10022585 -0.0801671 0.17135264 -0.085533686
0.12327992 -0.13583675 0.12796992 0.085043624 0.19970907 -0.0632913 0.091477945 0.058628652

bias f4 [4]
00000000: 8591 9cb9 63c4 0cb9 5c9c 41b9 29f8 bb38
-0.0002986306 -0.000134246 -0.00018464163 8.963078e-05

weight f4 [4]
00000000: b60c ca3f ded4 ba3f cc21 bc3f 08eb b23f
1.5785129 1.4596212 1.4697814 1.3977976

bias f4 [4]
00000000: e1ff bc3e 4dcf 143f e12f 1c3f dc56 103f
0.3691397 0.58128816 0.6101056 0.56382537

running_mean f4 [4]
00000000: 4071 003d fbdf fdbd cb86 4dbe 8613 33be
0.031358004 -0.123962365 -0.2007095 -0.17487916

running_var f4 [4]
00000000: 2967 1c3e 68d7 ae3e c432 143f 400d dd3e
0.15273727 0.34148717 0.5788996 0.4317417

weight f4 [1, 4, 1, 1]
00000000: ce73 6d3f b318 793f 380c 733f 153a 1d3f
0.9275483 0.97303313 0.9494052 0.6141675

weight f4 [1, 70]
00000000: 9af6 8b38 ea6a 82b7 14fe 8435 9ce7 f537
00000010: b235 1b37 a246 bcb8 8790 58b7 0496 0f38
00000020: c70f 86b9 d09d 4538 72ab 6038 a9de f8b5
00000030: 6066 e238 0dc2 ef38 c6e5 5db7 c9a3 8d38
00000040: c7c7 9f38 e80c ab37 0975 3db8 6a23 59b7
00000050: 21da de37 9a0d be37 c15e 0636 9c64 a4b8
00000060: 648e cc38 66da 4938 2db9 a5b7 2f34 4337
00000070: e99b 5eb7 ec4c 1f36 2ea6 29b8 0906 0837
00000080: b13f 84b5 7849 c8b7 6243 0eb8 077b bb38
00000090: 6cec 14b7 d5f1 45b9 b22a 2637 6527 92b8
000000a0: e32e 1eb9 5b9e 6239 df81 a137 7c30 3e38
000000b0: ffc2 0db8 281c b6b8 b049 88b8 4fcc 1c38
000000c0: a559 8638 9de5 1838 299d 16b8 3b63 15b8
000000d0: 223b 39b8 7f92 18b7 6c51 8bb7 8e39 2038
000000e0: f701 eb38 35ab c4b8 2907 9838 e572 d4b6
000000f0: 28bf 8c39 94bd cc36 2948 3ab8 46e2 3338
00000100: 55f3 443d 6d74 c43c b7b4 b83c 6c4c b03d
00000110: dd5b 46bd b14f be3c
6.6739696e-05 -1.5546993e-05 9.908713e-07 2.9314127e-05 9.251222e-06 -8.977695e-05 -1.2908254e-05 3.423357e-05
-0.00025570227 4.7115434e-05 5.3565433e-05 -1.8542243e-06 0.000107955886 0.00011432553 -1.3226125e-05 6.753911e-05
7.618922e-05 2.0390798e-05 -4.517011e-05 -1.2942453e-05 2.6566036e-05 2.2656099e-05 2.002271e-06 -7.838869e-05
9.754e-05 4.8125534e-05 -1.9755762e-05 1.1635056e-05 -1.3268532e-05 2.373762e-06 -4.0447507e-05 8.107637e-06
-9.853303e-07 -2.387607e-05 -3.3918193e-05 8.9397705e-05 -8.876534e-06 -0.00018877473 9.904312e-06 -6.96916e-05
-0.00015085521 0.00021612032 1.9253172e-05 4.5344685e-05 -3.3798624e-05 -8.683681e-05 -6.498711e-05 3.7383576e-05
6.4063155e-05 3.6453468e-05 -3.5909154e-05 -3.5616784e-05 -4.416251e-05 -9.094015e-06 -1.6608006e-05 3.8200575e-05
0.00011206039 -9.377898e-05 7.2492585e-05 -6.331468e-06 0.00026845303 6.1017436e-06 -4.441306e-05 4.288766e-05
0.048083622 0.023981297 0.022547109 0.08608326 -0.04842745 0.02323136

weight_ih_l0 f4 [128, 600]
00000000: 1225 093a 1428 41bb 5458 133a 0838 953b
00000010: e997 4d3c ca7b 8c3c 0af3 aa3c a645 f93c
00000020: d67d d83c fa1a 9f3c 5891 8e3b 7252 893b
00000030: e9f6 143c 4cf1 a73c 4d6d b73c 02aa 983c
00000040: defb 233c 7fa7 0dbc 806b b8bb a814 f9b9
00000050: ca07 68b8 53df e939 f5f3 2fbb 349d 30ba
00000060: 6438 f93b d8f6 a53b 92c3 b3bb 6a26 503b
00000070: 2c0b 203c fe85 0fb9 ddd8 08bc 3d1d 2bbc
00000080: b8f4 d2bb cd10 283b f0dd e63b 98af e73b
00000090: 4cbd e73a 9b8e d7bb 2041 f0b9 3d1d f7bb
000000a0: 4530 bbbb a9d8 15bc 1f66 47bc 1cb4 cb3a
000000b0: fe79 953c 8c84 cb3c c50d 093d a0ae de3c
000000c0: a3bd 663c bc7f 5b3b a01f 09ba c665 8abc
000000d0: e8d9 8cbc f92c 08bc 46fd d33a 3716 473c
000000e0: e9c8 3f3b 613e d7bc 363b 90bb 1988 e3bb
000000f0: 370c 9cbb 870c 27bc 9be8 11bc 4c3e 84bb
00000100: 8216 a83b 3ee4 9e3c 104c 3a3d 4f7d 2c3d
00000110: c73a 313c 1b76 853b 58e0 683c 1316 b6ba
00000120: 54a3 5abc 90e8 86bc 770d 63bc 0592 45bb
00000130: 11f9 a9bb 71c5 9dbc d58d 93bb 35de c4bb
00000140: 8995 60bb 8660 81bc 7d51 53bc 60ba 41bc
00000150: 8e5c 3b3b a22f 893c 6b4a 0e3d 7f98 f63c
00000160: ff8f 8e3c 7eaf 773c a2f9 3f3c 6bab 063b
00000170: 5020 1fbc 1f51 a8bc bc63 9bbc 7265 53bc
00000180: 154d 83bc 32ab 76bc 9679 57bb 5bb6 85bb
00000190: 7a56 01bb 6ad3 7fbc ee6a b8bc 57ce a2bc
000001a0: 78a1 29bc 7ff9 193c c303 d63c 6a8a 903c
000001b0: 5743 8a3c 5a4d a73c 4ced 053c 05e0 1c3a
000001c0: d1be 0abc ac04 51bc 95d5 01bc f1a6 50bc
000001d0: 3d3f 82bc fe81 43bc 1729 21bb 3190 a2bb
000001e0: e90d 07bb 4cbb 55bc 9e6e 87bc 64b6 6abc
000001f0: 722b fabb 8538 b23b c74a b13c 9139 873c
00000200: 6373 6f3c 4c53 093c a8ef c93a 0b46 293b
00000210: 3655 f73a 0266 79bb be66 88bb fa9b a0bb
00000220: 1b45 23bc aab1 4abc 3252 2bbb 613e 9abb
00000230: bfe3 ecba 4b77 82bc 894c 4ebc 535a 02bc
00000240: ffb2 c2bb 71a5 cf3b 1df6 903c ade6 c93c
00000250: f29d 5d3c 0bce 6a3a 1a7f ae3b 830d 813c
00000260: 081e 4e3c 6594 a7b9 8762 babb 9a35 3e3a
00000270: 6da8 59bb 3140 0abc b95a 56bb 7329 5dbb
00000280: b7ed 24bb 0e51 80bc c7f5 6ebc 8ac3 2dbc
00000290: 517d 48ba c2ee 483c ed3b 4b3c 43ef 973c
000002a0: 1277 5c3b 0f41 a8ba a12c 3c3c 21ed ba3c
000002b0: babe c03c ea95 123c c6b7 2f3b 3de6 10ba
000002c0: 3d90 5cbb eb98 25bb 32a9 49bb 0aee 0abb
000002d0: 6112 18bb 3e10 0bbc 2d5d 4dbc 21be 1cbc
000002e0: 81d7 bb3b 5326 b13b 1bef ce3b 60db 543b
000002f0: a9f5 71bb e4de a23a 2a4e 413c 2788 963c
00000300: f2e4 8f3c 00d3 8d3c d79b 503c 3631 b43b
00000310: 4937 4dbb e3e6 a3b9 b0f7 45bb 84d2 cbba
00000320: 712d 02bb e7ff 783a 1bc6 8fba bd76 19bb
00000330: 23b5 473b a350 37bb 1059 03bb 16dd be39
00000340: 626e 63bb 4bc1 863a d2ad 923b ec15 1e3b
00000350: e8a6 7f3a 0d4e e43b c64d 3c3c b153 d83b
00000360: e92a 373b 4889 ee3b a99e 36bb c712 05bb
00000370: 41bb 91ba fc3a e63b 0bcf 3b3b 8d44 893b
00000380: c968 78ba b4b2 f8bb 4444 01bc cd41 33ba
00000390: 0737 103b cdbf a83b 147e 123c 8279 15bb
000003a0: e456 a4bb 518d 093b 31a5 123c 44e7 4a3b
000003b0: ed48 b4ba 1e18 f73b 9491 ceba 3eb1 fd39
000003c0: 62b0 883a 2ed6 2a3c 77ab 723b f0c6 db3b
000003d0: 35e2 0e3a f7e9 16bc 41e7 35bc 34d5 56bc
000003e0: da23 03bb f348 f73b 5823 b63b 7bc6 493b
000003f0: 9bdd aa3b 697a 0b3c 9d34 983c 52cf 4b3c
0.0005231659 -0.0029473351 0.0005620767 0.0045537986 0.012548425 0.017148871 0.020867843 0.030428719
0.02642719 0.019422043 0.0043508224 0.0041907365 0.009092071 0.020500802 0.022390986 0.018635754
0.01000878 -0.008645891 -0.0056280494 -0.0004750837 -5.5320364e-05 0.00044607613 -0.002684829 -0.0006737292
0.0076055992 0.0050648265 -0.0054859603 0.0031761178 0.009768289 -0.00013687459 -0.0083524855 -0.010443983
-0.006437864 0.002564478 0.0070455 0.007070493 0.0017680316 -0.006578279 -0.0004582489 -0.0075413273
-0.0057125413 -0.009145894 -0.012170344 0.0015541348 0.018246647 0.024843477 0.033460397 0.027182877
0.014083299 0.0033492884 -0.0005230848 -0.016894232 -0.01719375 -0.008311504 0.0016173504 0.0121512925
0.002926404 -0.026274862 -0.0044015897 -0.0069437143 -0.0047621983 -0.010195858 -0.008905555 -0.0040357467
0.0051296363 0.019395944 0.045482695 0.04211169 0.010817236 0.004072917 0.014213644 -0.0013892077
-0.0133446045 -0.016468316 -0.013858191 -0.003014685 -0.0051871617 -0.019259186 -0.0045029917 -0.0060079345
-0.0034268817 -0.015793096 -0.012897846 -0.01182422 0.0028589102 0.016746346 0.03473894 0.030102013
0.017402647 0.015117524 0.011717232 0.002054895 -0.009712294 -0.020546494 -0.018968455 -0.012902604
-0.016027967 -0.015055465 -0.0032878867 -0.0040805764 -0.0019735382 -0.01561437 -0.022511926 -0.019873781
-0.010353439 0.009397863 0.02612484 0.017644126 0.016877813 0.020422626 0.008174252 0.0005984309
-0.008468346 -0.0127574615 -0.007924457 -0.012735114 -0.015899295 -0.011932848 -0.0024591142 -0.0049610366
-0.0020607656 -0.013045143 -0.016532239 -0.014325712 -0.0076345736 0.0054388666 0.021642102 0.016506942
0.014614913 0.008381676 0.0015406506 0.0025829102 0.0018869999 -0.0038055186 -0.0041626384 -0.0049014064
-0.0099652065 -0.01237146 -0.0026141522 -0.004707143 -0.0018073245 -0.015926024 -0.01259149 -0.007956105
-0.005941748 0.006336861 0.017695481 0.024646128 0.013526427 0.00089570944 0.0053252103 0.015753513
0.012580402 -0.00031963285 -0.005688015 0.0007255912 -0.0033211962 -0.008438156 -0.0032707884 -0.003374663
-0.0025166103 -0.01566365 -0.014584965 -0.010605702 -0.0007648068 0.012263956 0.012404424 0.018546706
0.0033640307 -0.0012836772 0.01148525 0.02281815 0.023528446 0.008946875 0.0026812418 -0.0005527472
-0.0033655309 -0.0025268148 -0.0030771014 -0.0021199011 -0.0023204314 -0.008487759 -0.012534422 -0.009566815
0.005732477 0.00540618 0.0063151247 0.003247939 -0.0036920107 0.0012426046 0.011798421 0.01837547
0.017565224 0.017312527 0.012732468 0.0054990305 -0.003131347 -0.00031261807 -0.0030207448 -0.001555041
-0.001986351 0.00094985816 -0.0010969074 -0.002341672 0.0030472956 -0.0027971647 -0.00200421 0.00036404346
-0.0034703244 0.0010280994 0.0044762874 0.0024121953 0.0009752349 0.006967312 0.011493152 0.0066017737
0.002794916 0.007279549 -0.0027865565 -0.0020305382 -0.0011118428 0.0070260745 0.0028657343 0.00418908
-0.00094760634 -0.0075896624 -0.007889811 -0.0006838113 0.0022005455 0.0051498176 0.008941192 -0.002280802
-0.005015241 0.0020988772 0.0089505175 0.00309606 -0.0013754644 0.007540717 -0.0015759938 0.00048387976
0.0010428543 0.010427041 0.003702847 0.006707065 0.00054505776 -0.009211055 -0.0111024985 -0.013112355
-0.0020010383 0.007546538 0.0055584125 0.003078847 0.0052144057 0.008513072 0.018579775 0.012439566

weight_hh_l0 f4 [128, 32]
00000000: 3c46 78bd 5835 d9bb 3d63 f7bb d6c3 3dbc
00000010: 8f38 ecb9 2e3c e23c 7dd6 333d 4074 183d
00000020: bc5d f63c 8ffd b93b ec00 67bd 4e7c dabc
00000030: ca5c 4dbd 43ef 5ebd 1fda 55bc d797 cd3a
00000040: 6064 753e 5ec0 75bd b813 d9bc cecc 5dbb
00000050: 78ee 50bd 4150 7abb f09b d0ba 1746 db3b
00000060: f0d8 88bc be00 9abd 1f90 49bd 9ebc 4d39
00000070: e6af a23c c0ee 12b9 0a58 623d 8716 20bb
00000080: afbe 0e3b 39a2 0438 d902 0cb9 d4e1 b83a
00000090: 7854 863a a3cf 0dbb aaad 513b 9aa4 03bb
000000a0: 352e 9f3b 1635 ea3b fde2 36bb 67f5 443b
000000b0: ce4d 7cbb 582c 7abb 9fe7 38b9 ee3d 58b9
000000c0: 9350 1fbb d1b3 12ba ebfa c6b6 c845 51ba
000000d0: 64d1 183a 3638 9f3a 930c 223a 8b10 60bb
000000e0: ea24 8c3a 63a7 7639 fef0 ebb8 97d2 14ba
000000f0: 9414 afbb bdf0 2ab7 97f6 e5ba 0957 d339
00000100: ce3a 68ba 653a 80b8 e1ee 59b9 e159 0bb8
00000110: 8a12 6f3a 3341 caba aae0 713a d27c a1ba
00000120: c56e 9a3b 94ac 983a e1b1 96ba 6315 093b
00000130: f79c b3ba 8667 18bb 38dc e4b9 e070 4439
00000140: a286 81bb 0c11 7eb8 ae55 9db8 094f 59ba
00000150: b847 3bb9 9c2d 123a 2f58 183a 410c b0ba
00000160: 8749 0d39 0260 9eba 91ed 86bb d5b4 ffb9
00000170: 7931 09bb d0bb 65b8 1b16 8eba 46d2 7c39
00000180: 5fa4 cdbc 84cb a73b a656 833b 0f31 2ebb
00000190: 3f14 08bb 74a0 40bc 0f27 a33c d012 a4bb
000001a0: faf0 e73c de0b 8b3c 0bc6 6cbc 30b2 4b3d
000001b0: 95cb 92bc 3765 4dbd 33a7 363b 1da2 b9bb
000001c0: a867 68bd cc8b 76bc a59b 233c 8375 703a
000001d0: fbf3 8bbc 53d1 30bc b068 a1ba 070a c2bc
000001e0: 4f71 72b9 ad2f 10bc 6cde 17bd 8759 b13a
000001f0: c6b0 d8bc 92dc 55ba f688 8a3b 5320 323a
00000200: 93ab 793b f1b2 1a3a 07c7 2ab9 757f 963a
00000210: fb2b 8f3a 4ed8 fc3a 8931 113a 7f72 e9b9
00000220: ea91 78bb c211 0f3b 4a09 43b9 cd40 0a3a
00000230: e61d 8339 eea1 06b8 02a9 99ba 1d1f d6ba
00000240: 63de b73a 6067 e7ba bc32 b137 fe16 b3ba
00000250: f841 a7ba af63 e139 d5e6 8439 2b99 c6b9
00000260: bf16 79ba 8ecd 31ba 1b3c 4c3a 7aac 17ba
00000270: 283b 42ba 08df 2039 4225 263a 102b 4f3a
00000280: 0655 703e d74a 8bbc 7296 35bc 7b3a 7e3d
00000290: 5bdf a23b 4090 b23d 556c 223b 3078 453c
000002a0: 129b 10be 4671 1a3e 807a 45bd 43da b5bd
000002b0: dad0 8abd 8afd fa3d 7639 bcbb 8604 f83c
000002c0: 9f47 a93e 4287 d5bd a8e0 f0bc e8e6 8a3a
000002d0: 2199 ea3c e9f5 0f3d dd96 9f3a 871a 2b3d
000002e0: 46d6 71bd 1f05 233d c6a5 b63e f49d 7abb
000002f0: a300 0f3b fd4f 8bba 7bee 253d 9c58 76bb
00000300: 02c4 69bc 3e92 29ba debd 7fba 6b00 c2bc
00000310: 7716 b23a 8ae0 08bd 8ba8 8a3c d29a 063c
00000320: c058 e83c af1c e5bb 7f3a 52bc 601a a3bc
00000330: da55 263d 7a95 eebc a72e 2ebb cce8 81bb
00000340: 737c 453d 056b 7ebb e723 8dbb 1bb2 00bb
00000350: 4d5f 26bc b530 f83a 24ad c0ba cf7f 2a3c
00000360: a116 853c 606f 19bd 225d efbc ef4c afba
00000370: a983 783c afb0 a3b9 8327 ac3b 17ec 9e3a
00000380: 1ce6 ab3c 9b1b 363b 5804 d23a da3d ab3b
00000390: dc78 7eb9 f9cf 7d3c 599a 7f39 cfe5 903b
000003a0: 7307 1e3b 3de4 7d3c 4490 96bb 562a b63b
000003b0: 67eb a43b 31dc 9d39 c43b adb9 7d79 a9bb
000003c0: ca4c 5bba e408 9abc 9e04 073b 8b1a c7b9
000003d0: 4a0e 70b9 93cd af3a 42bb 283a 80ae a33b
000003e0: d21f 5dbc ebc4 89bc 0297 a43b 67d1 04ba
000003f0: d900 363a 02b6 c838 3297 323c 36ce ae3a
-0.060613856 -0.0066286735 -0.007549672 -0.011582335 -0.00045055567 0.027616587 0.043905724 0.03722024
0.030073993 0.0056759785 -0.056397364 -0.026670601 -0.05013732 -0.054427397 -0.013052492 0.0015685511
0.23964071 -0.05999791 -0.02649866 -0.0033843997 -0.05100867 -0.0038194808 -0.0015915614 0.006691705
-0.016705006 -0.07519673 -0.04920971 0.00019620589 0.019859266 -0.00014012586 0.05525974 -0.002442749
0.0021781137 3.1622334e-05 -0.00013352501 0.0014105388 0.0010248562 -0.0021638654 0.003199438 -0.0020087124
0.004857803 0.0071474416 -0.0027906292 0.0030053498 -0.0038498524 -0.0038173404 -0.00017633893 -0.00020622436
-0.00243095 -0.0005596253 -5.9300705e-06 -0.00079831155 0.00058295415 0.001214749 0.0006181683 -0.0034189548
0.0010692154 0.00023522745 -0.000112505615 -0.0005677132 -0.0053430293 -1.0188841e-05 -0.0017544803 0.00040309902
-0.000885886 -6.1143925e-05 -0.00020783722 -3.322389e-05 0.0009119889 -0.0015430808 0.0009226898 -0.0012320525
0.004712912 0.0011648112 -0.0011497104 0.0020917288 -0.0013703395 -0.0023255064 -0.00043651625 0.00018734066
-0.003952817 -6.0574195e-05 -7.5023025e-05 -0.000828967 -0.00017860427 0.00055762543 0.000581148 -0.0013431386
0.00013474199 -0.0012083056 -0.0041176756 -0.0004877212 -0.002093403 -5.477277e-05 -0.0010840328 0.00024110926
-0.025102792 0.0051206965 0.004008132 -0.0026579534 -0.002076402 -0.011757005 0.019916086 -0.0050071254
0.028313149 0.016973432 -0.014451514 0.04973048 -0.017919341 -0.050145354 0.0027870655 -0.0056650774
-0.05673948 -0.015047979 0.009985839 0.0009172784 -0.017084112 -0.010792094 -0.0012314525 -0.023686422
-0.00023121129 -0.008800429 -0.037077352 0.001353071 -0.02645148 -0.0008158173 0.004227753 0.0006794978
0.003809665 0.0005901298 -0.00016286607 0.0011482077 0.0010923141 0.0019290538 0.00055386923 -0.0004452653
-0.0037928768 0.0021830653 -0.0001860011 0.00052739383 0.00025008543 -3.20989e-05 -0.0011723342 -0.0016336177
0.0014028068 -0.001765471 2.112367e-05 -0.0013663468 -0.0012760749 0.00042989614 0.00025348985 -0.00037879622
-0.00095019856 -0.0006782644 0.0007790939 -0.0005785894 -0.00074093277 0.00015341875 0.00063379493 0.000790284
0.23469934 -0.01700346 -0.011083232 0.06206749 0.0049704737 0.0871892 0.002478381 0.012052581
-0.14121655 0.15082273 -0.04821253 -0.08879521 -0.067781165 0.1225539 -0.0057441546 0.030275594
0.33062455 -0.10426189 -0.029404 0.001059738 0.02863747 0.035146628 0.0012175698 0.041773345
-0.059042238 0.039799806 0.3567335 -0.003824112 0.0021820448 -0.0010628697 0.040510636 -0.0037589436
-0.014267923 -0.000646863 -0.00097557704 -0.02368184 0.0013587017 -0.033417262 0.01692607 0.008215623
0.028362632 -0.0069919447 -0.012831329 -0.019910038 0.04060922 -0.02912401 -0.00265781 -0.003964519
0.048214387 -0.0038821113 -0.0043072584 -0.001963741 -0.010154557 0.0018935414 -0.0014700037 0.0104064485
0.016246142 -0.03745973 -0.029219214 -0.0013374368 0.015168109 -0.00031221422 0.0052537336 0.0012124804
0.020983748 0.002778745 0.0016023023 0.005225879 -0.00024268351 0.015491479 0.00024376194 0.0044219266
0.0024113327 0.015496311 -0.0045948345 0.005559246 0.005032945 0.0003010943 -0.0003304166 -0.0051719532
-0.00083656295 -0.018803068 0.0020602117 -0.00037976014 -0.00022893507 0.0013412706 0.0006436595 0.0049951673
-0.013496356 -0.01681753 0.0050228843 -0.0005066604 0.00069428753 9.570645e-05 0.010900306 0.0013336602

bias_ih_l0 f4 [128]
00000000: 14dc b53e 3c63 033e 1ba5 693d fc0d 833e
00000010: 3332 1f3d 1f4a 0f3f 81ca 2b3e 122f 163e
00000020: 8d17 343f 97b0 b93e 9004 ff3d f619 e63e
00000030: 6bd2 b23e 3146 8c3e e39f 223d 52a4 893e
00000040: b8a1 783f ff74 fa3e aa4a 223e ba01 b53d
00000050: f614 d63e 5315 c43d b6de efbb 8c64 99bb
00000060: 302a af3e df36 0e3f ce56 e03e e335 b73b
00000070: b281 403d c06c 36bb 99bc 433e 8d12 4e3d
00000080: 105e 9c3d ff1b 383d 7d19 963c 272d 48bd
00000090: 565d f53b 6225 223e 7256 73bd d9c7 8c3d
000000a0: 6c24 22bc 4fd1 863e ac41 da3d 3987 833d
000000b0: a92d 823e 1f9a 483d c00d 1bba 0577 fc3d
000000c0: b646 bdbe d392 083d b401 883d 067c 813c
000000d0: 6b90 cb3d 599f 34ba 6e1b f9bb a1d0 e4bc
000000e0: 4d16 013e 01ea 763d fb9b b2bd b007 4bbb
000000f0: c585 b53d 5a53 2dbb 7049 903d 84c5 e93b
00000100: 9a8a 09bd beb4 45ba 139a 8bbc 94dd 84bd
00000110: 8d85 30bc 8d8e a5bc 9b52 1a3e 42ab 3abd
00000120: f78d 5a3c 8bb4 be3d 1d65 ef3c 305b e23d
00000130: 0c08 bc3d 1031 183e 7211 8fbb 38cc df3b
00000140: 39c9 383e 1a26 8f3d cba2 5e3d a57f 6d3c
00000150: 17d4 823d a48f ce3c 4c64 f8b9 e8c5 c13d
00000160: ca6d 273d 6308 063e 5c8d ae3d b32e ec3a
00000170: e68d eabd 6ce6 de3c 5bc2 6dbd 6f32 a7bc
00000180: d544 943e 2966 033e 1aa2 693d 2b9f 833e
00000190: cc1b 1f3d 50e7 113f fda2 363e 5af2 153e
000001a0: 07e2 393f cc8e c83e f52d 1a3e 114e 023f
000001b0: d22a 7c3e c4b8 983e be9d 223d 6ca9 893e
000001c0: feaa 653f a753 003f 3c40 223e 21f7 b43d
000001d0: dfa8 dd3e cb3f cc3d 5ade efbb bcbc 8e3d
000001e0: 63f2 a63e 0c8e 003f 86a4 063f a926 b73b
000001f0: 8e5b 0d3d 636c 36bb ba81 443e dc13 4e3d
0.3551947 0.12830824 0.057042222 0.25596607 0.038866233 0.55972475 0.16776468 0.14666393
0.70348436 0.3626754 0.12452042 0.44941682 0.3492616 0.27397302 0.03970326 0.2688318
0.97121763 0.48917386 0.15848795 0.0883822 0.41812867 0.0957438 -0.0073202504 -0.0046811756
0.34211874 0.55552477 0.43816227 0.0055911406 0.046998687 -0.0027835816 0.19114913 0.05031066
0.076351285 0.044948574 0.0183227 -0.048871186 0.007487933 0.15834573 -0.059408613 0.068740554
-0.009896379 0.26331565 0.10657057 0.06422276 0.2542546 0.048975106 -0.00059148297 0.12327389
-0.3696801 0.033343147 0.0664095 0.01580621 0.09939655 -0.00068902 -0.007602147 -0.027931513
0.12606163 0.060281757 -0.08721157 -0.0030979924 0.08863405 -0.0026447386 0.07045257 0.0071341414
-0.033579446 -0.00075418863 -0.017041242 -0.06487575 -0.0107740285 -0.020209575 0.15070574 -0.04557348
0.013339511 0.093117796 0.02922302 0.11052549 0.09181222 0.14862466 -0.0043660933 0.0068297647
0.1804551 0.06989689 0.05435447 0.014495765 0.06388109 0.025214978 -0.00047376973 0.09461576
0.040876187 0.13089137 0.08523056 0.0018019289 -0.11452846 0.027209483 -0.05804668 -0.02040979
0.28958765 0.1283194 0.057039358 0.25707373 0.03884487 0.5699358 0.17835613 0.14643231
0.72610515 0.39171445 0.15056594 0.5090037 0.2462571 0.29828465 0.039701216 0.2688707
0.8971404 0.50127643 0.15844816 0.088361986 0.432929 0.09973105 -0.0073202075 0.06969592
0.326068 0.50216746 0.5259479 0.0055893254 0.03451114 -0.00278356 0.19190112 0.050311908

bias_hh_l0 f4 [128]
00000000: 6f26 b13e 3c63 033e 1ba5 693d de38 853e
00000010: 3332 1f3d cadf 0e3f 6400 7a3e 0d2f 163e
00000020: 2be8 4c3f 92c0 a03e fea7 db3d a5ab e03e
00000030: ea79 973e 329f ac3e e39f 223d 52a4 893e
00000040: 5b5b 803f 7fcf fc3e aa4a 223e ba01 b53d
00000050: ea2a d53e a32b c43d b6de efbb a917 fc3d
00000060: d01b af3e 35d5 ff3e f077 033f e335 b73b
00000070: bfa6 083e c06c 36bb 99a3 443e 8d12 4e3d
00000080: 8216 113e ff1b 383d 7d19 963c 17b1 58bd
00000090: 565d f53b 5932 343e b233 eb3c d9c7 8c3d
000000a0: 7e48 043e 1ddc 813e 0543 9d3d f318 993d
000000b0: 1400 1a3d ea7d c93c c00d 1bba 0577 fc3d
000000c0: ceb4 66be 7c19 4c3d b401 883d 067c 813c
000000d0: 0454 c13d a86a 743d 6e1b f9bb b1af 56bd
000000e0: b5c3 3a3e b384 813e aae8 65bd b007 4bbb
000000f0: 0c41 583c 5a53 2dbb 05ef 8f3d 84c5 e93b
00000100: dcaa 0f3e f854 2bba 92eb 8c3c 716d c93d
00000110: 93bc 4d3c 1410 53bd ada9 94bd f09a 0c3d
00000120: 29fd 35be 6298 4cbc d496 dfbd cb34 10bd
00000130: cd75 2fbe 69a4 3fbe 7e5e 173c 737f 913a
00000140: 8aa2 b23d fc33 803c 20d5 46bd 12b7 2bbc
00000150: 1207 fcbd 870c 99bc d09a 073b 873f 18be
00000160: 56c1 1bbc 8e91 15bd cc29 dd3d c424 1cbb
00000170: 7c13 aabc c765 e4bc 41b9 4d3d 0517 9c3c
00000180: a11c ae3e 2966 033e 1aa2 693d a501 843e
00000190: cc1b 1f3d 101d 0a3f b604 223e 58f2 153e
000001a0: cdf9 4f3f 05bc 8e3e 2b93 8c3d 7623 003f
000001b0: b275 583e f386 a83e be9d 223d 6ca9 893e
000001c0: 1fb5 853f 9a18 f73e 3c40 223e 21f7 b43d
000001d0: 1c52 b43e 644a d03d 5ade efbb af23 803d
000001e0: b9df a33e 2cd0 1b3f 151c 183f a926 b73b
000001f0: f494 3a3c 636c 36bb 0734 413e dc13 4e3d
0.34599635 0.12830824 0.057042222 0.2601995 0.038866233 0.55810225 0.24414212 0.14666386
0.8004176 0.3139692 0.10725401 0.43880954 0.295852 0.33715206 0.03970326 0.2688318
1.002788 0.49377057 0.15848795 0.0883822 0.41634303 0.095786355 -0.0073202504 0.123092
0.34200907 0.49967352 0.51354885 0.0055911406 0.13344859 -0.0027835816 0.19203033 0.05031066
0.14168742 0.044948574 0.0183227 -0.05290326 0.007487933 0.17597331 0.028711174 0.068740554
0.12918279 0.25363246 0.076787986 0.07475462 0.03759773 0.024596173 -0.00059148297 0.12327389
-0.22529909 0.04982899 0.0664095 0.01580621 0.09439853 0.059672028 -0.007602147 -0.052413646
0.18238719 0.25296554 -0.05613009 -0.0030979924 0.013199102 -0.0026447386 0.07028011 0.0071341414
0.14030021 -0.00065357937 0.017202172 0.098353274 0.012557167 -0.051529005 -0.072589256 0.034327447
-0.17772354 -0.012487503 -0.1091744 -0.035206597 -0.17134781 -0.18715061 0.009238837 0.0011100605
0.08722408 0.015649788 -0.048543096 -0.010480659 -0.12306036 -0.018682731 0.002069164 -0.14867984
-0.009506544 -0.036515765 0.10798988 -0.0023825625 -0.020761244 -0.027880562 0.0502255 0.019053945
0.34006217 0.1283194 0.057039358 0.25782505 0.03884487 0.53950596 0.1582211 0.14643228
0.8124054 0.27877823 0.068640076 0.5005411 0.21138647 0.32915458 0.039701216 0.2688707
1.0445899 0.48260957 0.15844816 0.088361986 0.35218894 0.10170439 -0.0073202075 0.06256806
0.32006624 0.6086452 0.5941785 0.0055893254 0.011388052 -0.00278356 0.18867503 0.050311908

hidden_states f4 [53, 7, 32]
00000000: 0000 0000 0000 0000 0000 0000 0000 0000
00000010: 0000 0000 0000 0000 0000 0000 0000 0000
00000020: 0000 0000 0000 0000 0000 0000 0000 0000
00000030: 0000 0000 0000 0000 0000 0000 0000 0000
00000040: 0000 0000 0000 0000 0000 0000 0000 0000
00000050: 0000 0000 0000 0000 0000 0000 0000 0000
00000060: 0000 0000 0000 0000 0000 0000 0000 0000
00000070: 0000 0000 0000 0000 0000 0000 0000 0000
00000080: 5e92 8a3c a018 3eba 2ef7 01ba 4eb6 223c
00000090: ebe1 ac3a 0629 bbbc 5b7b 613c e5e1 f4b9
000000a0: e62e d7bc 848e 1b3d 5769 90bc 515d c23c
000000b0: 7ffb bdbc 02e0 91bc 7da1 06ba 2a5a 3d3b
000000c0: 0170 343d d7bc af3a 0fe4 34ba 7a19 60b8
000000d0: 64d0 cabb 6c1a 8f39 5faa 7039 157a 48bc
000000e0: e662 183a 55c1 213a be28 083d 2310 f6b9
000000f0: 92c9 acbc 2e3b 15b9 71b0 483b cf10 96b7
00000100: 8e5b 103d 5d99 25bb 8f37 cbba 76be 933c
00000110: 77fb 093b ab07 d1bc 6188 433c 735e 9235
00000120: e91f dbbc 2304 6e3d c2a8 afbc 1465 b33c
00000130: aefb cdbc cf15 97bc a738 c4ba b9d8 f03b
00000140: 4e26 a33c 9d60 54bc a643 70bb 54f8 8cb9
00000150: a46d e93b 9dd7 eeb9 58c8 c239 6357 28bc
00000160: 4133 e1bb dc12 aebc 1d65 4b3d 90da 27ba
00000170: d104 b5bc 59be 97b9 f0ba 113c 597f 6cb9
00000180: 00ec 383d daa7 80bb 724d 1cbb c359 ad3c
00000190: 4fd4 2b3b d375 cdbc 119b 6d3c def6 86ba
000001a0: c39d 00bd 46eb 963d f1e3 c7bc 8038 e23c
000001b0: 1bee e2bc 215f c4bc 5a36 02bb 1eb9 303c
000001c0: fec7 653c f87a 92bc 91cb b8bb 86b3 e9b9
000001d0: 351a 0a3c c098 2cba 8cf1 f239 bee8 42bc
000001e0: 7d56 2cbc 67fd 0cbd 41a2 543d d4dd 45ba
000001f0: 43b1 c8bc 4757 cbb9 e378 423c 897e 00ba
00000200: 0b79 583d bf90 9ebb 7715 3fbb 5be5 b83c
00000210: fa81 413b 70c9 a8bc 2450 873c 76ef 01bb
00000220: 3f27 0bbd 5c2a ad3d 3199 cfbc 1963 fc3c
00000230: ce5d efbc c76b e1bc ae17 16bb 5d2b 573c
00000240: 44e3 2b3c f474 aebc 61fa e4bb 6a68 24ba
00000250: 3d5c 123c 6801 3bba 8802 093a b7fb 57bc
00000260: 68f4 51bc 8178 3cbd ada5 403d 84b8 55ba
00000270: 5d34 d4bc f829 e4b9 d1df 5d3c d301 26ba
00000280: 49e5 723d 1207 afbb c41a 52bb e59c bb3c
00000290: 7811 503b aa7c 5fbc 37ce 973c 7b2a 34bb
000002a0: 563b 11bd 2f63 bd3d 1179 d2bc e2ad 013d
000002b0: 79bd ffbc 1474 eebc dcde 1ebb ab9a 6d3c
000002c0: 1d3b 2b3c 0cf3 c2bc 5a11 febb 0757 49ba
000002d0: 9542 0d3c ece6 e8b9 481f 133a bf6f 6dbc
000002e0: cf0a 5dbc cd10 65bd c3ba 1f3d 5cba 60ba
000002f0: b754 dfbc e146 e6b9 b213 683c f5d0 35ba
00000300: 28f0 843d 9d4b b6bb 84f3 5abb 7306 ba3c
00000310: efe7 5a3b f286 a9bb 7ccc a63c 9a98 58bb
00000320: 8283 11bd 58b7 c83d 1ae5 d4bc 9572 f43c
00000330: 9b45 0abd 2860 ebbc 2ff3 1fbb 7a1f 783c
00000340: 7e37 373c f386 d7bc ddad 04bc e781 63ba
00000350: af55 023c c370 5539 792b 1a3a 4648 7fbc
00000360: 4e0d 50bc f281 85bd 237f f83c 1822 6bba
00000370: 0131 e9bc 4ebc d7b9 1109 683c 5780 38ba
00000380: 0000 0000 0000 0000 0000 0000 0000 0000
00000390: 0000 0000 0000 0000 0000 0000 0000 0000
000003a0: 0000 0000 0000 0000 0000 0000 0000 0000
000003b0: 0000 0000 0000 0000 0000 0000 0000 0000
000003c0: 0000 0000 0000 0000 0000 0000 0000 0000
000003d0: 0000 0000 0000 0000 0000 0000 0000 0000
000003e0: 0000 0000 0000 0000 0000 0000 0000 0000
000003f0: 0000 0000 0000 0000 0000 0000 0000 0000
0.0 0.0 0.0 0.0 0.0 0.0 0.0 0.0
0.0 0.0 0.0 0.0 0.0 0.0 0.0 0.0
0.0 0.0 0.0 0.0 0.0 0.0 0.0 0.0
0.0 0.0 0.0 0.0 0.0 0.0 0.0 0.0
0.016915496 -0.0007251594 -0.0004957792 0.00993116 0.0013189887 -0.02284671 0.01376232 -0.0004670761
-0.02626748 0.03797771 -0.017628355 0.023726137 -0.023191212 -0.01780701 -0.0005135758 0.0028892853
0.044052128 0.0013407719 -0.00069004385 -5.342949e-05 -0.006189393 0.0002729477 0.00022951652 -0.012236138
0.0005813077 0.00061704713 0.03324198 -0.000469328 -0.02109221 -0.00014231793 0.0030622745 -1.788922e-05
0.035243563 -0.0025268414 -0.0015504229 0.018035155 0.0021054426 -0.025516352 0.011934371 1.0905336e-06
-0.026748614 0.058109414 -0.021442775 0.021898784 -0.025144424 -0.018443016 -0.0014970497 0.007350054
0.019915726 -0.0129624875 -0.0036661415 -0.000268879 0.007123666 -0.00045555542 0.0003715183 -0.010274741
-0.006872565 -0.021249227 0.049656976 -0.0006403113 -0.022097023 -0.00028942784 0.008894667 -0.00022554155
0.045146942 -0.0039262595 -0.0023849872 0.021160966 0.0026219075 -0.025080597 0.014502303 -0.0010296961
-0.031400453 0.073690936 -0.024400683 0.027614832 -0.027701428 -0.023971142 -0.0019868822 0.010786323
0.014024733 -0.017880902 -0.0056395014 -0.00044574979 0.0084291 -0.0006584041 0.00046337803 -0.01189631
-0.010518667 -0.03442135 0.05191255 -0.00075480086 -0.024498587 -0.00038784204 0.011869642 -0.00049016677
0.05284981 -0.0048390324 -0.002915708 0.022570303 0.0029526935 -0.020603865 0.016517706 -0.0019826568
-0.033972975 0.08455345 -0.025341602 0.030808972 -0.029219534 -0.027517213 -0.0022902298 0.013132897
0.010491196 -0.021296002 -0.0069878553 -0.00062716624 0.008933124 -0.00071336934 0.00052265124 -0.013182572
-0.012814619 -0.04601336 0.047033 -0.00081528 -0.025903875 -0.00043518818 0.0135421315 -0.0006332669
0.059300695 -0.005341419 -0.003205941 0.022901962 0.0031748693 -0.013640562 0.018530948 -0.002749114
-0.035456978 0.092474334 -0.025692495 0.03165997 -0.031218277 -0.029108085 -0.0024241721 0.014502208
0.010451105 -0.023797534 -0.0077535333 -0.00076805096 0.008621831 -0.00044422538 0.0005612266 -0.014491974
-0.0134913465 -0.055924226 0.03899647 -0.00085726916 -0.027262075 -0.00043921827 0.014164852 -0.0006935739
0.06491119 -0.005563213 -0.0033409307 0.022708153 0.0033402403 -0.0051735574 0.020361178 -0.0033049942
-0.035525806 0.09800595 -0.02598815 0.029839793 -0.033757787 -0.028732374 -0.0024406423 0.015144223
0.011182664 -0.026309466 -0.008098093 -0.000867872 0.007954999 0.0002035527 0.0005881112 -0.015581196
-0.012698485 -0.06518926 0.030334061 -0.0008969619 -0.02846575 -0.00041148294 0.014162318 -0.0007038167
0.0 0.0 0.0 0.0 0.0 0.0 0.0 0.0
0.0 0.0 0.0 0.0 0.0 0.0 0.0 0.0
0.0 0.0 0.0 0.0 0.0 0.0 0.0 0.0
0.0 0.0 0.0 0.0 0.0 0.0 0.0 0.0

cell_states f4 [53, 7, 32]
00000000: 0000 0000 0000 0000 0000 0000 0000 0000
00000010: 0000 0000 0000 0000 0000 0000 0000 0000
00000020: 0000 0000 0000 0000 0000 0000 0000 0000
00000030: 0000 0000 0000 0000 0000 0000 0000 0000
00000040: 0000 0000 0000 0000 0000 0000 0000 0000
00000050: 0000 0000 0000 0000 0000 0000 0000 0000
00000060: 0000 0000 0000 0000 0000 0000 0000 0000
00000070: 0000 0000 0000 0000 0000 0000 0000 0000
00000080: 17f9 d23c c885 a8ba 7dce 75ba 4e20 813c
00000090: 4e25 263b 7746 f9bc a5e9 c03c 9154 55ba
000000a0: ff27 02bd b415 693d e9c0 01bd df6b 043d
000000b0: a77d 19bd da98 debc ba4e 81ba 4485 953b
000000c0: c66d 4e3d b298 f03a 43f8 9bba aca9 cdb8
000000d0: bd24 13bc 048d 013a 6972 f239 ee30 bbbc
000000e0: 45f0 663a 262c 563a 3209 343d 4aa3 74ba
000000f0: 8134 27bd 1da3 95b9 c382 a83b 08d4 0eb8
00000100: cf7d 5b3d 04c2 92bb 6d2f 40bb 9522 ea3c
00000110: 5a97 843b 2e19 0abd d066 a73c 87fe fe35
00000120: adab 04bd 1aa3 b33d 882c 1ebd 4d64 f33c
00000130: cc89 25bd b4c6 e5bc ee76 3cbb 8de7 3d3c
00000140: eeb3 b93c 07aa 90bc f02a cfbb 6156 01ba
00000150: 5184 283c a875 58ba 1f3b 443a 2ff2 9dbc
00000160: 731d 2abc 5aa4 e6bc 3785 843d 6bdd a6ba
00000170: e34b 30bd e326 18ba 5c70 743c 0713 e1b9
00000180: d6d6 8c3d f701 e4bb 25d1 93bb 0d75 093d
00000190: 521a a53b fe5f 07bd fa8a cb3c effb eaba
000001a0: 80c3 1bbd b9fa e33d 3f36 34bd a238 193d
000001b0: 4857 35bd aae4 14bd 2419 7abb e146 8b3c
000001c0: 76da 823c 5c37 c7bc 954c 1fbc 275b 56ba
000001d0: bdf3 463c 335a 9cba 66c2 743a 6191 b6bc
000001e0: 1c16 82bc 9484 3abd 0817 8a3d d4b2 c4ba
000001f0: 66ae 43bd 37e3 4bba 700f a33c 4d8d 74ba
00000200: bdf3 a43d 5e7e 0cbc bab4 b4bb ef94 123d
00000210: 45ec b93b fd1d debc 74e1 e73c e723 62bb
00000220: 317f 28bd 69f0 023e 6556 3bbd e0ba 2a3d
00000230: 310a 3fbd 1a8f 2abd b521 90bb 1786 a93c
00000240: 7fc6 433c 0905 edbc e459 45bc 0ec7 96ba
00000250: 5e73 523c d65e a9ba 8609 8a3a ea49 cabc
00000260: e462 9ebc 1b47 79bd 44c2 793d 8f74 d4ba
00000270: 811f 4fbd cbc6 64ba 50f9 b93c 11f7 9dba
00000280: 6a19 b93d e711 1bbc 31b0 c6bb 5fb6 143d
00000290: b2e7 c73b 7df4 92bc 5415 023d 40ba 9cbb
000002a0: 21d5 2fbd a752 0f3e 4711 3ebd d254 2f3d
000002b0: 6a47 4cbd 4c1e 34bd b88d 98bb 842b bb3c
000002c0: 8c15 433c 195e 04bd 85f1 5abc aea1 b8ba
000002d0: 60d1 4a3c 7ae5 52ba 4e3a 943a 5b61 debc
000002e0: 5ea4 a6bc 6692 97bd 30f4 4e3d 2365 dfba
000002f0: 1d29 5abd 0fe5 66ba d67a c23c 7200 adba
00000300: 1b89 ca3d 7e80 21bc 870c cfbb c06f 133d
00000310: 594f d23b e5d9 debb 4bef 0e3d 165d bcbb
00000320: a02b 30bd 1e05 183e e25c 40bd ea34 253d
00000330: 225c 5dbd 648b 31bd 8095 99bb ad6f c33c
00000340: 0ecc 503c d04e 12bd 98a5 64bc 729d d0ba
00000350: fbe3 3a3c 783e c139 7954 9b3a b026 efbc
00000360: 3fb7 9cbc d6ec b0bd d0ec 203d a0bc e9ba
00000370: 5000 64bd 6650 58ba 7769 c23c 2c8d afba
00000380: 0000 0000 0000 0000 0000 0000 0000 0000
00000390: 0000 0000 0000 0000 0000 0000 0000 0000
000003a0: 0000 0000 0000 0000 0000 0000 0000 0000
000003b0: 0000 0000 0000 0000 0000 0000 0000 0000
000003c0: 0000 0000 0000 0000 0000 0000 0000 0000
000003d0: 0000 0000 0000 0000 0000 0000 0000 0000
000003e0: 0000 0000 0000 0000 0000 0000 0000 0000
000003f0: 0000 0000 0000 0000 0000 0000 0000 0000
0.0 0.0 0.0 0.0 0.0 0.0 0.0 0.0
0.0 0.0 0.0 0.0 0.0 0.0 0.0 0.0
0.0 0.0 0.0 0.0 0.0 0.0 0.0 0.0
0.0 0.0 0.0 0.0 0.0 0.0 0.0 0.0
0.02575354 -0.0012857253 -0.00093767775 0.015762474 0.0025351825 -0.030429108 0.02354891 -0.00081379066
-0.031776424 0.056905463 -0.031678114 0.032329436 -0.037473347 -0.027172495 -0.0009865381 0.0045630056
0.050397657 0.0018356054 -0.0011899549 -9.8067656e-05 -0.008980927 0.00049419724 0.0004624308 -0.02285048
0.00088096067 0.0008170031 0.04395408 -0.00093321933 -0.040821556 -0.00028541023 0.005142541 -3.4052908e-05
0.053586777 -0.004478695 -0.0029325143 0.028580943 0.004046363 -0.03371542 0.020434767 1.8998552e-06
-0.032390285 0.087713435 -0.038616687 0.029710913 -0.040414616 -0.02804885 -0.002875741 0.011590851
0.022668805 -0.0176592 -0.006322257 -0.0004933831 0.010285453 -0.0008257278 0.00074856164 -0.019280521
-0.010382998 -0.02815454 0.06470721 -0.0012730783 -0.04304112 -0.00058041344 0.014919367 -0.0004292952
0.06876914 -0.006958242 -0.004511016 0.033558894 0.005038538 -0.03305053 0.024846543 -0.0017927865
-0.03802824 0.11131806 -0.043997046 0.037407525 -0.04427269 -0.036350884 -0.0038161958 0.017001571
0.01597331 -0.02431839 -0.009722848 -0.0008177035 0.012143073 -0.0011928737 0.0009336829 -0.022286119
-0.015879683 -0.045536593 0.06742674 -0.0015006908 -0.04777374 -0.0007777693 0.019904822 -0.0009328917
0.08054302 -0.00857505 -0.0055147083 0.035786565 0.0056739175 -0.027113909 0.028305747 -0.0034506263
-0.041136924 0.12787022 -0.04573669 0.041682124 -0.04664058 -0.04164038 -0.0043985494 0.020693822
0.011949181 -0.028933065 -0.012045357 -0.0011503415 0.0128448885 -0.001292194 0.0010531403 -0.024693448
-0.019334264 -0.060858827 0.06097628 -0.0016209054 -0.050567154 -0.0008727132 0.02270189 -0.0012051781
0.090380505 -0.0094647175 -0.006063484 0.036306735 0.0061006183 -0.017938847 0.03175862 -0.004782945
-0.042927865 0.13996373 -0.046403196 0.0428055 -0.049872793 -0.043974206 -0.004655566 0.022847898
0.011906993 -0.0323163 -0.013363247 -0.001408627 0.01237902 -0.0008045059 0.001130888 -0.027146032
-0.020342048 -0.0740097 0.050525844 -0.0017043691 -0.053261865 -0.0008807936 0.023740213 -0.0013198985
0.09889432 -0.009857295 -0.006318632 0.035995245 0.0064181504 -0.0068008774 0.034896176 -0.0057484014
-0.043010354 0.14845702 -0.04696358 0.040333666 -0.054042943 -0.043345824 -0.0046870112 0.023856962
0.012743963 -0.035719693 -0.013955496 -0.0015916063 0.011406894 0.00036858371 0.0011850736 -0.029193252
-0.019130347 -0.08638923 0.039288342 -0.0017832704 -0.05566436 -0.00082517264 0.02373193 -0.0013393513
0.0 0.0 0.0 0.0 0.0 0.0 0.0 0.0
0.0 0.0 0.0 0.0 0.0 0.0 0.0 0.0
0.0 0.0 0.0 0.0 0.0 0.0 0.0 0.0
0.0 0.0 0.0 0.0 0.0 0.0 0.0 0.0

weight_ih_l0 f4 [128, 32]
00000000: 351c 163b f2db 503a 8e74 fa39 393c 153a
00000010: ead5 9fb9 05fb 873b 6d72 5f39 f8cf fc3a
00000020: c3c1 c43b 684b b638 485e 0bbb e4b5 a83a
00000030: 2a75 85bb 63d6 5e3a 0ac2 2d38 47fa ceba
00000040: 8fcb 1f3c ece3 46bb 47e9 433a eb16 ac39
00000050: 0622 37bb 0998 40ba 00f7 21ba 77cd 0e3a
00000060: 2658 d9bb 735f b6ba d2cc 9d3b ef54 94b8
00000070: 62af b939 a6b0 c537 f545 2c3b b98d 28b6
00000080: 9026 773b ec26 af3a ad4a 883a f84d 733a
00000090: 80f2 0ab7 82c6 283a b259 a03a b35c 7f3a
000000a0: 376f 8439 ffd9 813b 20a8 13ba 0241 523b
000000b0: e63c 79bb 7a51 90ba b24a ceb9 aa00 bbba
000000c0: 1078 a83b d9cf 5a3a 06f8 b33a 403c ddb9
000000d0: 75c3 85ba 93b7 8ab9 28eb 3c39 0478 dbb9
000000e0: 5dc3 38bb 0133 2c3b cf4d ef39 9c14 a038
000000f0: 0b22 a5ba bba9 18b8 8c02 fa3a a242 493a
00000100: e354 813c edf0 18bb b284 6eba 2cb0 273a
00000110: e6ec bdba 3fcb 113c d10b e23b 5c83 313c
00000120: 03d6 9a3c e590 233c f413 81bc 89f1 683c
00000130: 48d3 b5bc 8610 ceba d98a bbb9 e9c7 073b
00000140: 259e eb3c 10ed 22bc e390 46bb 904e 263b
00000150: 8a37 d1bb 6e9c 95bb 6db4 c3b9 3ad2 d436
00000160: 7eca ecbc c200 00bc 7014 8e3c 3687 073a
00000170: 3934 70bb 4d34 46b9 68a5 553c d025 c4ba
00000180: 405e f23a b194 393a 146e 1e3a c58d 053a
00000190: 01a3 17b9 9616 de3a c1b8 8cba 3108 213a
000001a0: 134f 4d3a 28f3 823a ad42 713a fa2d 543a
000001b0: 3d66 1eba fcbe 853a 28b0 8a39 de90 3aba
000001c0: 3a17 0fb9 d2a2 1cba ed35 373a 341a c137
000001d0: 362c 9c3a 9c2b af39 91b7 f6b8 0fb0 9d3a
000001e0: eba1 19bb 26bc 9d3a 659b 3e39 d17f a538
000001f0: fa5e 883a e33c 8d38 4c48 583a e1d2 9739
00000200: 8298 b53c cf47 4a3b 03fb 583a 6dd7 273c
00000210: 64fe b73b 26bc 363d 08c1 6abc 81d9 95bc
00000220: 0a81 f6bc 4370 d23c b959 b83c da17 42bc
00000230: ac34 9a3b ac1b 343c f295 4fbb c4ec 0abb
00000240: 1186 2dbd bb3f b1bc 6200 f6b9 4b74 0cbc
00000250: d61e ca3c 3731 253c 2f83 7bba 7fba 0e3b
00000260: 8f84 e73b 9c63 d1bc d0d8 56bc 3efa e1ba
00000270: a3cd 053c 38de 253a b00c ddbb e070 973b
00000280: 4440 d53b fdb7 cfb9 2ccc 1d39 d2c9 043b
00000290: 2182 8fba 55ce e13b 08ed 243b 5b2e 223b
000002a0: 11ed 193c 775a 1f3c 750b 30bb 290f 093c
000002b0: 9357 31bc 21be c5ba 50c5 6e3a 73e7 353a
000002c0: 8f48 763a b723 45bb c6e9 56ba b935 7d3a
000002d0: 116c 003b a936 07ba 19c6 6437 3a82 d2ba
000002e0: 5620 4dbc f0aa e2ba 810b 91bb 1f78 383a
000002f0: 9b67 3ebb 3fa4 71b7 0415 743b bc8d c5b9
00000300: 7021 923a 8bba df39 d9e1 5539 31e0 87b9
00000310: 8681 6339 8166 893a d4b5 0aba 10b9 d539
00000320: 7d96 0fba 6e2d 18ba be61 373a 0fa9 0fb9
00000330: 2e37 463a 80fd 603a 04f6 92b9 b538 69ba
00000340: f376 c838 05ed 9f38 57da 9e39 75d3 8db9
00000350: edf9 6939 0c05 ee38 50e0 cab8 e0c5 fc39
00000360: 3841 40ba b86a bd38 c5a6 4f3a a740 10b9
00000370: 05e3 873a 00e7 7039 fed8 8239 72cf 9739
00000380: 0e21 223e 4e11 22bd 9056 cabc cf44 cd3c
00000390: 8b1e b3bc 84d1 c3bd 365b 1a3e 08be d43d
000003a0: ff50 183d 066b e53d 42cc 68be d07d 853e
000003b0: a911 b7be 3a22 06be 80ed 21bc 4137 253d
000003c0: 7de9 e93e 5f8a d8bc 4594 3bbd 6194 073d
000003d0: d7fa 1cbe ba7b 9bbd 70a9 523b 1332 9fbd
000003e0: efba 11be 4534 5d3d dd73 163f da5f 4a3c
000003f0: 8dff 17be 1431 2cbc 91c5 f43d da4c e0bc
0.0022904996 0.0007967345 0.00047770556 0.0005692873 -0.00030486222 0.004149797 0.00021309564 0.0019288054
0.0060045435 8.692482e-05 -0.0021265913 0.001287159 -0.004072805 0.0008500574 4.1427127e-05 -0.0015791141
0.009753122 -0.0030348254 0.00074734207 0.00032823472 -0.0027943864 -0.0007346874 -0.00061784685 0.0005447487
-0.0066328226 -0.0013913944 0.0048156762 -7.07301e-05 0.0003541662 2.3566488e-05 0.0026286815 -2.5116444e-06
0.0037712194 0.001336304 0.0010398232 0.00092813326 -8.281902e-06 0.00064382714 0.0012233763 0.0009741291
0.00025259863 0.0039627547 -0.00056326576 0.0032082205 -0.0038030683 -0.001101061 -0.00039347034 -0.0014267166
0.0051412657 0.0008347012 0.0013730533 -0.00042197295 -0.0010205345 -0.00026458185 0.0001801668 -0.00041860354
-0.0028192617 0.0026275518 0.00045643604 7.633233e-05 -0.0012598647 -3.6397698e-05 0.0019074245 0.00076774706
0.015787547 -0.0023336962 -0.00090987526 0.0006396796 -0.0014490157 0.008898555 0.0068983813 0.010834541
0.018900877 0.009983276 -0.015756585 0.014217743 -0.022195473 -0.0015721477 -0.0003577087 0.002071852
0.028761933 -0.009944215 -0.0030298762 0.0025376417 -0.0063847946 -0.004565767 -0.00037327726 6.342566e-06
-0.02890515 -0.007812681 0.01734373 0.00051699893 -0.003665222 -0.00018902235 0.013039924 -0.0014964882
0.0018491223 0.00070793467 0.00060436246 0.00050946727 -0.00014461206 0.0016943987 -0.0010736213 0.0006142883
0.00078319124 0.0009990679 0.0009203356 0.0008094009 -0.00060424564 0.0010204013 0.00026452658 -0.0007116924
-0.00013646195 -0.000597519 0.00069889316 2.3019595e-05 0.0011915031 0.00033411093 -0.00011764386 0.0012030619
-0.0023442458 0.0012034222 0.00018177701 7.891621e-05 0.0010404282 6.734745e-05 0.0008250519 0.0002895808
0.022167448 0.0030865555 0.000827715 0.010244233 0.0056150425 0.044613026 -0.014328249 -0.01829219
-0.030090827 0.025688296 0.02250372 -0.011846507 0.004705986 0.010992926 -0.0031675068 -0.0021198252
-0.042364184 -0.021636834 -0.00046921062 -0.008572648 0.024672907 0.0100825345 -0.0009594438 0.002177864
0.0070653628 -0.025560193 -0.013113216 -0.0017240716 0.008166703 0.00063273637 -0.0067458972 0.00462161
0.006507905 -0.000396192 0.00015048747 0.0020261896 -0.0010948816 0.006891052 0.0025165696 0.0024746868
0.0093949 0.009726158 -0.0026862298 0.008365431 -0.010824102 -0.001508657 0.00091083813 0.00069390907
0.00093949673 -0.0030081102 -0.0008198287 0.00096591894 0.0019595663 -0.00051579863 1.3635982e-05 -0.0016060539
-0.0125199165 -0.0017293375 -0.00442642 0.00070369424 -0.0029053453 -1.4402961e-05 0.0037243972 -0.00037680368
0.0011148881 0.0004267286 0.00020397398 -0.00025916242 0.00021696658 0.0010482819 -0.0005291377 0.00040764408
-0.00054774416 -0.00058051094 0.0006995461 -0.00013700522 0.0007561323 0.00085826963 -0.00028030586 -0.00088966946
9.558899e-05 7.625859e-05 0.00030298784 -0.00027051163 0.00022313716 0.000113496644 -9.673892e-05 0.00048212614
-0.0007333937 9.0321e-05 0.0007921274 -0.00013756995 0.001036734 0.00022974238 0.00024957204 0.00028955523
0.15832922 -0.039567284 -0.02469948 0.025057225 -0.02186515 -0.09561446 0.15073857 0.10387808
0.03718662 0.11202054 -0.22734168 0.2607255 -0.3575566 -0.13098994 -0.009883285 0.040335897
0.4568595 -0.026433168 -0.045795698 0.03310049 -0.15330063 -0.07591958 0.003214445 -0.07773223
-0.14231466 0.054004926 0.58770543 0.012351954 -0.14843579 -0.010509748 0.11951745 -0.027380396
