model/CNN_Trans_1_-1_10.pt (torch, 988510 bytes, 45 tensors)

weight f4 [16, 1, 1, 1]
000000 d5 ae 10 bc 32 4c cf 38 cc 86 ee 3a 00 59 99 39
       -0.008830746 9.884722e-05 0.0018198132 0.00029248744
000010 c9 8e b6 3c 2d c6 36 b9 50 71 02 bd 1b e7 97 be
       0.022284882 -0.00017430699 -0.031846344 -0.29668507
000020 ad 61 55 3a 95 d3 99 b8 97 97 6b ba 17 7e 4b be
       0.000813986 -7.335019e-05 -0.0008987127 -0.19872318
000030 9c bf 67 3c 1e de 0a be b3 5d cc ba 7d a8 e7 bc
       0.014144804 -0.13561293 -0.0015591889 -0.028278584

bias f4 [16]
000000 45 3a eb 3e fb af 7e 39 66 51 d0 3a 72 02 b6 39
       0.45942894 0.00024288885 0.0015893399 0.00034715567
000010 f3 a4 87 bf 91 16 16 b9 a7 7a 8d 3f fe 79 24 3f
       -1.0597214 -0.00014313521 1.1053056 0.64248645
000020 a5 29 0a bb d8 a8 ba ba 90 3a b1 b9 0d e5 1c 3f
       -0.002108195 -0.0014240993 -0.00033803703 0.61287004
000030 79 fb 17 bf e4 d6 86 3f fd 72 00 bb 08 72 53 3f
       -0.5936809 1.053433 -0.0019599788 0.8259587

weight f4 [16, 16, 3, 3]
000000 7c c9 d2 bc b7 82 10 3d d3 e6 31 3d ed 89 9d bd
       -0.02573084 0.03528091 0.04343302 -0.07692323
000010 8c cc 8a bb 2a 00 55 3c 0e e5 08 bc 89 c3 2b 3d
       -0.0042358097 0.013000527 -0.008355392 0.041934524
000020 2f 19 26 3d 24 39 79 ba 7e cd a3 ba 6d 87 0e 3b
       0.04055136 -0.0009507111 -0.0012497155 0.00217482
000030 f4 d1 96 bb 0f 92 1e bb d4 0d b6 bb 67 c8 07 ba
       -0.004602665 -0.0024195944 -0.0055558477 -0.00051797036
000040 5d 8a 0b ba d2 a3 9d bb 13 d7 73 bb 41 a2 ca bb
       -0.0005323047 -0.0048107887 -0.0037207052 -0.006183893
000050 7a 6b 4d 3b 30 9a 90 3b c8 58 1e bb 8a 81 0f 3c
       0.0031344579 0.004412912 -0.0024161804 0.008758912
000060 f3 8f b5 3b 5b a3 73 3b 0c d4 27 3c 1c 99 55 bb
       0.0055408417 0.0037176225 0.010243427 -0.003259248
000070 b4 48 2b bb 5c 96 34 bb ac 88 ae 3b db 69 1c 3b
       -0.0026135864 -0.0027555441 0.005326351 0.0023866806
000080 f7 ba a6 3b 7e bc 06 3b 30 cf 99 3b d8 93 e7 3b
       0.005088206 0.0020559127 0.004693888 0.007067185
000090 15 73 5f 3d ad 27 7a bd 53 ab 5b bd ce 78 22 3e
       0.05455311 -0.061072994 -0.053630184 0.15866396
0000a0 3c 88 27 3b 1c 29 44 bc 4e 3d d5 3b 7b 44 c5 bd
       0.002556338 -0.011972692 0.006507552 -0.09632202
0000b0 99 b6 8b bd 61 24 90 3b 53 ac ee 3b a8 3d 13 39
       -0.06821937 0.004398868 0.0072837262 0.00014041981
0000c0 31 4b 9f bb ab 94 98 bb ec e9 3f bc 91 6d 71 3a
       -0.0048612584 -0.0046563945 -0.011713486 0.0009209747
0000d0 81 5f 3d bb 2d 9b 4f bc e3 1d 69 bd b1 f9 8e 3d
       -0.0028896036 -0.012671274 -0.056913268 0.069812186
0000e0 f2 d5 72 3d 8a 80 2c be c3 f7 73 bb 51 14 a8 3c
       0.059286065 -0.16845909 -0.0037226535 0.0205175
0000f0 b9 25 b3 bb 72 1c b6 3d d4 f6 90 3d c9 1e d8 bd
       -0.0054671434 0.08892144 0.07078329 -0.10552747
000100 d2 8b 14 3e 56 f3 08 3e 5d e4 c5 be 3c db eb bd
       0.14506462 0.13374075 -0.3865079 -0.11516425
000110 5f 97 14 3e 86 0b fe bd 39 de 7b bd 79 b8 b6 3d
       0.14510868 -0.12404542 -0.061491225 0.08921904
000120 c3 89 9f 3a 78 22 98 3b 99 5c 7a 3b 3c a6 ad 3b
       0.0012171793 0.004642781 0.0038202165 0.0052993577
000130 7c ad a8 3a 57 7f 98 3b 84 15 38 3a 7f 16 81 3b
       0.0012869085 0.004653852 0.0007022249 0.0039394493
000140 4b 6b 88 3b 49 50 15 bb 92 05 2b bb 43 52 49 bb
       0.004163181 -0.002278345 -0.002609585 -0.0030719198
000150 88 e3 58 3b fe f2 9b 3a 4f 45 d0 3b e8 33 fa ba
       0.0033094604 0.0011897979 0.0063559185 -0.0019088956
000160 aa 4b 08 3b a9 62 a9 3b ed 4c 38 ba e7 91 62 bb
       0.0020797052 0.005169232 -0.0007030506 -0.0034571828
000170 d5 0c 8c 3a fe 8e a6 bb 8e f7 d7 3a 23 d2 3b bb
       0.0010684977 -0.005082964 0.0016476975 -0.0028659187
000180 6a a5 c5 bb 41 26 81 bb fa c0 19 bb aa d4 97 bd
       -0.006031682 -0.003941328 -0.002346097 -0.07413609
000190 71 8a f2 3d c8 85 16 3e 4e 5e a9 be 86 34 b3 bd
       0.11842812 0.14699471 -0.3307976 -0.087502524
0001a0 ec 2c 21 3e 1e a8 c6 bd 63 b4 57 bd 5d d5 9c 3d
       0.15739793 -0.097000346 -0.052662265 0.07657883
0001b0 f6 30 02 3d 95 7b 3c bd 1e 46 4d bd eb b5 cb 3d
       0.031784974 -0.046016295 -0.050115697 0.099468075
0001c0 aa 8a 61 3b 26 61 8c bc d9 d6 07 3c 42 d3 55 bd
       0.0034414926 -0.017136168 0.00829097 -0.052203424
0001d0 26 93 44 bd fb 82 8d bd de bf f7 3d 28 fc b6 3d
       -0.047991894 -0.06909748 0.12097143 0.08934814
0001e0 5c 0c 88 be 71 4c 86 bd 9c be d9 3d 00 d7 4c bd
       -0.2657193 -0.06557549 0.10632059 -0.050009727
0001f0 0b 56 5d bb 2c de 9f 3d 43 70 d4 3a 1c 58 8d 3b
       -0.003377321 0.07806048 0.0016207773 0.004313482
000200 8f b9 9b bb 3f 2e b1 bb d8 70 17 3a 9e 88 d4 bb
       -0.004752345 -0.0054071243 0.0005777008 -0.0064860126
000210 53 ad b2 bb ed 28 79 bb 30 49 da bb e8 c3 2d bd
       -0.0054527908 -0.0038018778 -0.0066615567 -0.04242316
000220 83 a7 85 3d 6d 4c 76 3d 97 37 0d be c9 ca c4 bb
       0.06526091 0.06013148 -0.13790737 -0.006005619
000230 3a e9 f2 3c 6a d0 cd bb e1 d4 78 3d 6e c4 75 3d
       0.029652227 -0.0062809484 0.060749892 0.060001783
000240 a2 5b 3e bd be 66 fd bc 1e 5b 21 3c a6 4e 5f bd
       -0.046474107 -0.03093278 0.009848384 -0.054518364
000250 93 6b c5 3c bb 34 56 bc 0e 85 d4 3c ce 47 21 3d
       0.024099147 -0.013074095 0.025942352 0.03937512
000260 10 00 49 bb ed 79 87 3a e0 29 eb 3b 85 5e c6 bb
       -0.0030670203 0.0010336019 0.0071766227 -0.006053748
000270 ba 94 0d 3b b7 75 07 3c 8b 22 45 bc 14 9b 76 3a
       0.002160354 0.0082678115 -0.0120321615 0.0009407264
000280 b5 3e a5 3b 08 14 97 bb 81 54 3c 3b dd 89 56 bb
       0.0050428757 -0.004610542 0.0028736892 -0.0032735982
000290 e5 e5 31 3a 27 99 91 b9 3b 11 b8 bb 6a 6e 71 bb
       0.0006786271 -0.00027770663 -0.0056172884 -0.0036839494
0002a0 88 f7 ba bb 83 00 04 bc c9 e2 b5 bb 95 bc 8e 3a
       -0.0057057776 -0.008056763 -0.0055507165 0.0010889942
0002b0 44 80 07 bc 36 d7 ed 3a 85 d3 aa 39 89 b9 ba bb
       -0.008270327 0.0018145803 0.0003258252 -0.005698387
0002c0 68 ff eb 3b 1f fe d2 39 cd 64 e7 bb 16 3d 2c 3a
       0.0072020777 0.00040243656 -0.007061577 0.0006570382
0002d0 36 28 43 3e a8 ca b5 3d f0 09 3d 3b b5 d9 2d 3e
       0.19058308 0.08876544 0.0028845035 0.1697758
0002e0 a1 9d 07 bd 84 d8 2e 3d fe 08 15 3c be 52 ba bd
       -0.03310931 0.042686954 0.009096382 -0.09097813
0002f0 f7 c4 ce 3b 8f 35 54 bb 71 f2 82 3b 19 88 58 ba
       0.006310101 -0.0032380556 0.0039961864 -0.0008260026
000300 0c 10 15 3a b2 9c b0 3b 4c a5 f3 ba 3b 51 1c bb
       0.000568629 0.0053897733 -0.0018588691 -0.0023852128
000310 0a da 22 3b d0 23 bc 3a a8 1c 51 be 6f b3 fb bd
       0.00248492 0.0014353935 -0.20421088 -0.122900836
000320 30 6a 11 3a 5a d7 22 be b0 d1 e9 3c 93 e2 29 bd
       0.0005547134 -0.15902463 0.02854237 -0.041475844
000330 79 60 35 bc a7 33 04 3e bd 45 c0 39 33 31 e6 bd
       -0.011070364 0.12910329 0.00036673053 -0.11239853
000340 4d a7 c7 be 77 e1 37 bd 01 ea 36 3e a5 84 b0 bc
       -0.38994828 -0.044892754 0.17862703 -0.021547625
000350 c6 96 6c bd 4b 72 9f 3b e2 c6 cd 3e fd 4b 4b 3d
       -0.057760976 0.0048659197 0.40190798 0.049633015
000360 93 b8 4a bb dd db 41 ba 5d 09 c3 3b 56 c7 04 bc
       -0.0030932769 -0.0007395128 0.005952044 -0.008104166
000370 14 ac 4f bb 25 cb 07 3c 64 c9 e6 bb f9 e3 19 3a
       -0.003168826 0.0082881795 -0.0070430506 0.00058704574
000380 0c 81 dd 3b e6 2f ee ba b1 cd 0a bb 8b 9a 9b 3b
       0.0067597684 -0.0018172234 -0.002117973 0.0047486476
000390 53 33 a9 bb 28 8e 0f bb 14 b1 f0 3b 0b f8 22 bb
       -0.005163589 -0.00219048 0.007345328 -0.0024867083
0003a0 f8 54 e9 b9 69 bc 76 3b 4c 05 cc 3a 48 d5 80 3b
       -0.0004450453 0.0037648922 0.0015565543 0.003931675
0003b0 4d 98 54 bb 68 7f 89 3b 8c dd da 3b fd 97 08 bc
       -0.003243941 0.004196096 0.0066792425 -0.008337018
0003c0 2a 62 31 3b c5 0e 0d 3c 72 cc f9 ba 92 d6 e8 bd
       0.0027066567 0.008609478 -0.0019058122 -0.11369051
0003d0 c2 2f c1 be 29 a9 eb 3b 89 98 2c 3e ab 16 a0 bc
       -0.3773175 0.0071917963 0.16855063 -0.019542059
0003e0 15 8a 59 bd 41 ea 14 3d b1 e0 c1 3e bd fa 8e 3d
       -0.0531102 0.036356214 0.37866738 0.06981418
0003f0 54 a3 8f 3d 1a 9f 80 3d 9f 86 23 bc a3 5b 75 3d
       0.07013574 0.06280346 -0.009980827 0.059901845

bias f4 [16]
000000 ee ca 05 39 78 39 59 b8 b3 34 cc 38 f8 7c 00 80
       0.00012759466 -5.1790354e-05 9.737294e-05 -4.483e-41
000010 99 71 0f 39 e0 64 90 38 90 79 46 b9 f7 b9 38 b8
       0.00013679861 6.8852445e-05 -0.00018928037 -4.404221e-05
000020 8f 35 4b b9 72 5a f5 38 9b 51 ee 37 be f5 d6 37
       -0.00019379541 0.00011699357 2.8409811e-05 2.562522e-05
000030 d3 f1 db b8 05 40 b1 b9 0d 1e 64 38 c5 89 f8 b6
       -0.00010487777 -0.0003380777 5.4387423e-05 -7.4070144e-06

weight f4 [16]
000000 92 c3 be 3e d7 01 04 3f 94 84 08 3f 8b b2 37 2b
       0.37258583 0.5156531 0.533273 6.526244e-13
000010 69 be 0f 3f 10 fc 18 3f 11 e9 55 3f d5 4c a5 3e
       0.5614992 0.59759617 0.83558756 0.3228518
000020 dc 9e 08 3f 4a 2d b7 3e 05 c9 2c 3f 21 02 c5 3e
       0.533674 0.3577674 0.6749423 0.38478187
000030 af 14 05 3f 1c ae fa 3e 63 3d fb 3e c3 ee 07 3f
       0.51984686 0.4896096 0.49070272 0.53098696

bias f4 [16]
000000 35 28 8b bc 3c be 78 3c e3 1e 01 be d3 48 9b b3
       -0.016986946 0.015182074 -0.12609439 -7.2309966e-08
000010 b3 33 fa bd 6e 7f 81 3d 81 04 9f be d4 c3 6f be
       -0.12216892 0.063231334 -0.31058124 -0.23414546
000020 6d 6a 80 bd 12 8e 74 bc bc d0 de be bf 9b 5b be
       -0.06270299 -0.01492645 -0.43518627 -0.21446131
000030 fa b8 1c 3d 39 34 ad 3e f8 7d ae be 47 45 ed be
       0.038262345 0.33828905 -0.34080482 -0.46341917

running_mean f4 [16]
000000 16 fe 69 3f 60 bc 57 bf a7 6e 28 c0 e3 50 00 00
       0.9140333 -0.8427181 -2.6317537 2.9017e-41
000010 1b 81 ef bf 52 2e cb 3f d1 9c 4d 40 23 39 56 3f
       -1.8711275 1.5873511 3.2126963 0.83680934
000020 2a ee ac bd 0c 2d 4e 3f d9 e5 30 3f 4a 2b 79 bf
       -0.08443864 0.80537486 0.6910072 -0.9733168
000030 af 9c 44 be c6 f2 b4 3f e9 0e ba 3f 3d 65 97 bf
       -0.19200395 1.4136589 1.45358 -1.182777

running_var f4 [16]
000000 ff 70 5a 3f d1 ba 11 3f 89 1c 92 3f 04 00 00 00
       0.8532867 0.56925684 1.1414958 6e-45
000010 7f 12 52 3f 0d a7 49 3f dd a8 40 3f d3 df 24 3f
       0.8205947 0.78770524 0.75257665 0.6440403
000020 6c 7e a6 3f c2 90 22 3f 7d d3 4c 3f 07 f8 58 3f
       1.3007331 0.6350213 0.80010206 0.8475346
000030 2e b6 5a 3f 24 da 7b 3f a8 1d 5f 3e eb e7 85 3e
       0.85434234 0.9837973 0.21788657 0.26153502

weight f4 [16, 16, 3, 3]
000000 69 91 03 3e e1 d9 80 bd 0b 43 97 bd 3a 40 8c 3c
       0.12848438 -0.06291557 -0.07385834 0.01712047
000010 f1 63 de bd c1 12 3e be 50 a0 ea 3d 31 ea 2f 3d
       -0.10858906 -0.18561842 0.114563584 0.04294795
000020 46 d2 00 be 8d ac 4a bd cc 5e 5c bd 35 db 54 3c
       -0.12580213 -0.049480963 -0.053801343 0.012991716
000030 9b be e5 bd 49 d9 98 bc 50 87 13 be 2c c2 32 bd
       -0.11217996 -0.018658297 -0.14407086 -0.043642208
000040 e9 c0 8e 3d 1f 95 98 3e 06 4f 7f bd b4 92 e6 3c
       0.069703884 0.2980127 -0.062331222 0.028146125
000050 48 be 4f 3e 5b a1 30 be a2 11 d9 bd 31 ca a4 3d
       0.2028743 -0.17249052 -0.10599066 0.080463775
000060 36 4d 89 3d 93 97 8a bb 58 aa fa 3d 23 17 00 00
       0.0670418 -0.004229495 0.12239522 8.3e-42
000070 5a 12 00 80 74 02 00 00 9a 19 00 00 ff 33 00 80
       -6.583e-42 8.8e-43 9.184e-42 -1.8653e-41
000080 bb 0f 00 80 61 0b 00 00 30 12 00 80 5d 1c 00 80
       -5.643e-42 4.082e-42 -6.524e-42 -1.0175e-41
000090 17 9b ae 3b a6 84 93 3d d3 86 44 3e 0c 1c 21 be
       0.0053285467 0.07203035 0.19192056 -0.15733355
0000a0 75 b6 47 3d 4f 6c 15 3e da f3 e1 3d f0 ce ad bc
       0.04875799 0.14592098 0.11032839 -0.02121684
0000b0 29 99 04 3d 8e db 26 3d 2c 75 f6 3d b9 38 50 be
       0.032372627 0.040736727 0.120340675 -0.20334138
0000c0 80 25 78 bd 3c f2 70 3d b9 8e ec bd 41 98 1f be
       -0.060582638 0.058824763 -0.1155066 -0.15585424
0000d0 5c 2e 1e bd fb b7 15 be 2d 07 30 bd 8a 4b 30 be
       -0.03861843 -0.14620964 -0.042975593 -0.17216316
0000e0 8f 1d b1 bd 78 0f 15 bd 1d 30 8a 3d a3 5c 47 bb
       -0.08648216 -0.036391705 0.06747458 -0.0030420206
0000f0 b6 e3 9c 3d 7f 22 2d 3e 9c ea 87 3d c2 66 3b bc
       0.0766062 0.1690769 0.06636545 -0.011438074
000100 9c 67 e4 3c af c8 8f 3d d6 4d e2 bc df 63 6b bd
       0.027881436 0.07020699 -0.027625006 -0.05746829
000110 1c 03 48 bd 8c 4f 43 bd 48 3f 87 bd 0d 5a da bb
       -0.04883109 -0.047683284 -0.06603867 -0.006663567
000120 01 a3 97 ba 3d 6b 68 3c 4b 4c 52 bc e1 bc 26 bd
       -0.0011568965 0.014185724 -0.0128355725 -0.040707473
000130 5c cc f3 bd ac 79 70 3d 1c d2 9e bd 5e 6b b6 bd
       -0.11904213 0.058709785 -0.07754919 -0.089071974
000140 85 c6 28 be f6 e1 b1 bd ae ec b7 3c 0c d7 31 be
       -0.16481979 -0.08685677 0.022451725 -0.1736719
000150 07 82 0a be 07 aa f0 3b 7f 30 e7 3d bf 69 45 3d
       -0.13526164 0.0073444876 0.11288547 0.04819655
000160 85 ef d0 bd 70 05 ee 3d b3 64 55 bd 8a 11 34 be
       -0.10201935 0.11622131 -0.052097987 -0.17584816
000170 d8 e3 b6 bc d6 3c 1e 3e d1 6d 4a bd 10 16 0d 3e
       -0.022325441 0.15452895 -0.049421135 0.13777947
000180 2a 04 87 3d 0d ab a7 3c 81 da 09 bd 4f a0 88 bd
       0.06592591 0.020467306 -0.033655647 -0.066712014
000190 97 a4 31 bd e9 9d 57 bd a5 03 7d 3a 50 26 4a bd
       -0.043369856 -0.05264083 0.0009651727 -0.049352944
0001a0 6a 45 a4 bd b9 c4 1c be 9b dd 21 3c 68 a2 da 3d
       -0.08021052 -0.15309419 0.009879495 0.10675508
0001b0 37 01 fe bc 00 f0 e6 3d 8a d5 95 3d 19 bc 8a 3d
       -0.031006439 0.11276245 0.0731612 0.06774158
0001c0 9e 4a 48 3e a4 46 86 3d 1b 59 29 be 30 b0 e3 bd
       0.19559714 0.065564424 -0.16537897 -0.111175895
0001d0 86 c9 80 be 20 f3 16 bc 68 09 7d 3d 1d 0c 83 bd
       -0.2515375 -0.009213239 0.06177655 -0.06398795
0001e0 49 34 69 bd 65 eb 67 bc 64 58 08 bd 24 60 39 3d
       -0.05693463 -0.0141552435 -0.03328742 0.045257702
0001f0 6a b1 01 3e 0a e1 1e 3d 43 e8 99 bd 95 6c 0a be
       0.12665334 0.038788833 -0.075150035 -0.13517983
000200 73 44 83 3e 4f 3d 0f be 97 43 23 bd b8 54 e8 bd
       0.2563816 -0.13988231 -0.03985938 -0.11344284
000210 0d ee 4e bd dc b4 fb bd f0 e8 0f 3d d3 94 2b be
       -0.05051999 -0.122903556 0.035134256 -0.1675599
000220 7b c5 c0 bc e3 e8 0a be b9 fb 92 bd bf d2 04 3e
       -0.023531666 -0.13565402 -0.071769185 0.12971018
000230 07 ed a6 bc 8a ed 48 be e0 99 30 be 56 21 4d be
       -0.020376695 -0.19621864 -0.17246199 -0.20032248
000240 26 3f ed 3a 93 b3 e3 3c 50 42 3c be 03 54 18 bc
       0.0018100485 0.027795589 -0.18384671 -0.009297374
000250 15 0f ed 3d e6 ff 18 bd 2d 55 c8 3d 3b 8b dd 3d
       0.11575142 -0.03735342 0.09781871 0.10817572
000260 43 0b 06 3d 02 69 09 be 3b 67 93 bd 2a 1c 91 3e
       0.032725584 -0.13418964 -0.07197424 0.283418
000270 a6 76 6a 3e 29 8d 81 3d 2f a9 ef bd 64 cd d5 3d
       0.22896823 0.06325752 -0.11702191 0.10439566
000280 6f ef 02 be 5d 04 1c 3d 81 37 dd 3d e5 34 02 3e
       -0.12786649 0.0380901 0.10801602 0.1271549
000290 c2 37 0b be d7 37 66 3e 15 9f b7 3d 0b 50 02 be
       -0.13595489 0.22482239 0.08965889 -0.12725846
0002a0 96 fd 63 3d 22 00 63 bd a7 bb b7 bd b0 05 00 00
       0.05566176 -0.05542005 -0.08971339 2.04e-42
0002b0 8f 1d 00 80 59 1b 00 80 a5 2f 00 00 5b 3c 00 00
       -1.0604e-41 -9.81e-42 1.7092e-41 2.1651e-41
0002c0 52 15 00 80 42 11 00 00 53 0c 00 80 94 00 00 00
       -7.648e-42 6.191e-42 -4.421e-42 2.07e-43
0002d0 d0 70 da 3b 4e 79 84 bc c1 2d a9 be ca c3 3a be
       0.0066662803 -0.016171124 -0.3304272 -0.1823875
0002e0 cf 81 71 3d 6e f1 df bc f1 7b c1 3d c0 dc bc 3d
       0.058961686 -0.027336802 0.09447468 0.09221792
0002f0 a6 00 ce 3d ee 36 40 be e9 1b 75 3d d3 59 e9 bc
       0.100587174 -0.18770954 0.05984107 -0.028485214
000300 5a 3b f0 bd 8a 05 23 3d a8 20 4d 3d 54 3e 1b 3d
       -0.117300704 0.039800204 0.05007997 0.037901238
000310 82 e7 17 3e 89 d0 c7 3c 3f 9e 0a 3e 8b 4f 2a 3e
       0.14834407 0.02439143 0.13536929 0.16631906
000320 3d 7d ed 3d 7e 40 1a be 29 1b 00 be 5b 64 27 3d
       0.11596153 -0.15063664 -0.12510361 0.04086719
000330 a5 ad 23 bd a6 0a 5f be 52 55 55 bd b7 7a 7e bd
       -0.039960522 -0.21781406 -0.05208332 -0.06212875
000340 1b 9e 47 bd 76 ce af bd cf 5f f3 bc 9b 04 90 bd
       -0.048734765 -0.08584301 -0.029708771 -0.070321284
000350 33 bb 13 be 92 c4 10 3e 2f c4 00 3d d9 e9 be bd
       -0.1442688 0.14137486 0.031437095 -0.09321947
000360 5f fe bf 3d 18 55 1e 3e 21 11 c4 bc 60 70 fe 3c
       0.09374689 0.15462148 -0.023933949 0.031059444
000370 b4 81 3c 3e 6c ac 69 3e 85 49 3a bd 2e eb 87 bd
       0.18408853 0.2281968 -0.04548027 -0.06636654
000380 7a 47 90 bd df b6 4d 3d d5 23 20 be e7 82 02 bd
       -0.07044883 0.050223228 -0.15638669 -0.03186312
000390 15 b2 2d 3d a6 88 06 bd eb 85 e7 3d f2 ac 0f be
       0.04240616 -0.03284516 0.1130484 -0.14030817
0003a0 eb 95 a3 be cb 93 41 be a3 ce e0 3d bd b7 a6 bd
       -0.31950316 -0.18904035 0.10976913 -0.08140514
0003b0 dc 2f 0b be 8d 19 b4 3d ff 2f df 3b 20 15 d8 bd
       -0.13592476 0.08793936 0.0068111415 -0.10550904
0003c0 52 ab aa 3d cc ca 43 3b 7e 50 7e be 43 c2 87 3d
       0.08333458 0.0029875515 -0.24835393 0.06628849
0003d0 95 0f ce bd 17 85 82 be 7c 7e 8b 3d c1 f7 69 3d
       -0.10061566 -0.25492164 0.06811234 0.057121042
0003e0 0d 47 5c bd 3d 66 3e 3e 42 2a 4a 3e 44 f8 4b 3d
       -0.053778697 0.18593688 0.19742683 0.04979731
0003f0 41 0f 41 bd f5 5a 84 3d 66 b2 53 3e 0b 2b e1 bd
       -0.047133688 0.06462661 0.20673522 -0.10994538

bias f4 [16]
000000 6d fd 78 b9 85 92 8c 39 24 ed 43 b9 9b 48 a7 39
       -0.00023745532 0.00026812046 -0.00018684991 0.00031906817
000010 f6 72 46 38 67 15 05 3a 40 52 4e 39 6d c9 ce 37
       4.7313944e-05 0.00050767366 0.00019676331 2.465091e-05
000020 36 30 35 b9 25 c1 a4 b7 69 04 8a 39 cb 40 5c 39
       -0.00017279465 -1.9640263e-05 0.00026324697 0.00021004972
000030 d6 04 c7 39 cc 8d 8a b9 7b 2d 01 b9 16 8b 07 ba
       0.0003795984 -0.00026427058 -0.00012319341 -0.0005170567

weight f4 [16]
000000 02 bb a4 3e 8f fc e0 3e 71 af d3 3e 74 02 08 3f
       0.32173926 0.43942687 0.4134479 0.53128743
000010 4e fc 08 3f 7d ef fa 3e 11 6e 1d 3f d1 4f c2 3e
       0.53509986 0.4901084 0.61496073 0.3795152
000020 7e a3 0d 3f 8b 6d 05 3f 02 e9 01 3f a4 40 ba 3e
       0.55327594 0.52120274 0.50746167 0.36377442
000030 e2 53 0e 3f 23 90 a5 3e 0b bb 00 3f 61 0f 12 3f
       0.55596745 0.3233653 0.50285405 0.57054716

bias f4 [16]
000000 0f 97 25 3e d4 15 06 3d b3 9b ac 3d c1 54 d6 3c
       0.16170906 0.03273566 0.08428135 0.02616346
000010 18 f8 c7 be ac 58 a3 bd 51 92 71 be 6e 65 7d be
       -0.39056468 -0.07975897 -0.23590972 -0.24745724
000020 67 37 c1 bd bc de d4 be b7 ce 94 be 3c aa b5 bc
       -0.09434395 -0.41576183 -0.2906396 -0.0221759
000030 02 3a a0 bd ac 00 d7 bd 33 4d 6a bd cb 61 4f bc
       -0.07823564 -0.10498175 -0.05720253 -0.012657593

running_mean f4 [16]
000000 49 64 59 be f7 00 94 3e b7 3a 2b be 3d 36 32 3d
       -0.21229662 0.28906986 -0.16721617 0.043508757
000010 98 64 5d bd b2 cd ab 3d c1 82 08 3e 6d b8 91 be
       -0.05405101 0.08388843 0.13331129 -0.28461018
000020 8a 29 e7 be 8d b4 fb bd af 07 62 be 4e 8e 67 be
       -0.4514888 -0.12290297 -0.22073244 -0.22612879
000030 f1 19 29 bd c2 f7 9a be d2 35 71 3d a9 d5 a5 bc
       -0.041284505 -0.3026715 0.058889218 -0.020243483

running_var f4 [16]
000000 65 42 c5 3d 00 87 83 3e f1 c9 e1 3d d3 c8 3d 3e
       0.096318044 0.25688934 0.110248454 0.1853364
000010 b8 34 12 3e 04 01 ee 3d 09 4c 21 3e a9 68 c0 3e
       0.14277923 0.116212875 0.15751661 0.3757985
000020 9d a8 10 3e d4 51 ca 3d f0 2f ab 3d 1a bc b6 3d
       0.14126821 0.09878889 0.08358753 0.08922596
000030 c0 7e 3d 3e 72 ac 61 3e 78 de f4 3d 4f f0 46 3e
       0.18505383 0.22038439 0.11956495 0.19427608

weight f4 [16, 16, 3, 3]
000000 5f 8c 22 be 8e e3 93 bd 76 fb 2a 3e 31 eb 03 3e
       -0.1587386 -0.07221137 0.16697487 0.12882687
000010 3a 3c 8b 3c 8a 85 3c bd bd ff 78 3b 2d 5d 09 be
       0.016996492 -0.04602579 0.0037994229 -0.1341445
000020 7b 7d 19 be 05 72 36 bd 01 78 30 bd e2 8f 1a 3d
       -0.14989273 -0.04454233 -0.043083195 0.037734874
000030 49 81 47 3e d0 29 04 3d ba 9c 0e 3e 10 8e 6c 3d
       0.19482912 0.032266438 0.13926974 0.05775267
000040 34 ce b8 bd 31 e8 a6 bd 1c 55 6a bd 95 67 8b 3d
       -0.09023705 -0.08149756 -0.057210073 0.06806866
000050 ca a8 e1 3c 64 42 e3 bd 35 95 13 bd 61 69 14 be
       0.027546305 -0.110966474 -0.036030967 -0.14493324
000060 e3 ce 3c 3e 27 a7 a0 bc 26 cb 96 3d f0 31 70 3c
       0.18438296 -0.019610954 0.07362966 0.0146603435
000070 9e e2 d3 bd c0 87 d8 3c 08 cc 87 3d 42 ae 20 3e
       -0.10345958 0.026431918 0.06630713 0.15691474
000080 9d 0a 22 be f1 67 8b bd b2 a0 b1 3d 19 ea 3a bc
       -0.15824361 -0.068069346 0.08673228 -0.011408352
000090 a9 9f 62 3d 97 d7 d0 3c 7c 77 a3 3d ac d6 57 be
       0.055328045 0.025493426 0.07981774 -0.21077985
0000a0 0f a0 cb bd 9b 75 70 3e 9b 79 b4 bc 95 2d dc 3b
       -0.09942638 0.23482363 -0.022030642 0.006719301
0000b0 1d 0a 8d 3c d2 f8 26 3e e3 19 3e 3d 7d ee 3c bc
       0.017216736 0.16305855 0.046411406 -0.011531469
0000c0 79 68 76 bc 67 01 d5 bd 21 4b 97 bc fe 6f 32 be
       -0.015039557 -0.10400658 -0.018468441 -0.17425534
0000d0 8d 88 68 bc 6a 08 87 bd c7 05 99 3d a8 45 29 be
       -0.0141927125 -0.06593402 0.07471805 -0.16530478
0000e0 ea 02 fd 3b cd e8 7e bd 9d e8 95 3d ef 19 88 bd
       0.0077212946 -0.062233735 0.07319758 -0.066455714
0000f0 cc 92 cf bd 70 e0 31 bd 29 e2 b6 3d e9 25 cd 3d
       -0.10135421 -0.04342693 0.089298554 0.100169964
000100 8f 4e 81 3d f4 ab 90 bd fe 73 aa bd ef 06 c3 3d
       0.06313812 -0.070640475 -0.08322905 0.09522807
000110 ce 26 24 3d 97 c6 81 3c d2 4a 34 3e cd 88 2a 3d
       0.04007607 0.015841765 0.17606667 0.04163437
000120 19 b1 57 bc ba 37 50 bd bb 01 f8 3d 5b 39 9e 3d
       -0.013164782 -0.050834395 0.12109705 0.077257834
000130 04 ce 18 3d a5 10 cc bd 33 38 e1 3b 33 c6 fa bd
       0.037305847 -0.09964112 0.0068731545 -0.12244835
000140 43 d1 d6 bd c2 2d 6e bb b6 ea 40 bd 8d 34 9b bd
       -0.10489132 -0.0036343192 -0.047098838 -0.07578383
000150 08 da 27 3d de 41 10 bb 69 df 37 be 3a 31 f8 3b
       0.040979415 -0.0022011916 -0.17956318 0.0075742276
000160 f4 1d 5c 3e 60 fa c1 3c 3e 3b e1 bc 75 9a 3b 3d
       0.21495801 0.023678958 -0.02749407 0.0458016
000170 7a 3a bc 3c 85 87 33 3c 7a 4b de 3d 0e 4b b4 bd
       0.022977103 0.010957603 0.1085424 -0.08803378
000180 1a 13 64 bc 44 53 85 bb 24 46 f6 bc e1 cf 96 bd
       -0.01392057 -0.004068764 -0.030062743 -0.073638685
000190 a1 1b 9d 3d 5f b1 90 bd cb 6d 66 bd 4e 4f 99 3d
       0.076712854 -0.07065081 -0.05625705 0.07485829
0001a0 1e 9a d9 3d 79 1f fb bd e4 32 a6 bd 74 af 98 3b
       0.10625099 -0.12261862 -0.08115175 0.0046595875
0001b0 18 31 1a be 2a 3b b4 bd b1 bb 33 3e c0 f2 29 3d
       -0.1505779 -0.08800347 0.17552067 0.04149127
0001c0 31 af 8b ba 19 12 0d bd 76 a9 0d 3c 35 bb 8b 3d
       -0.001065707 -0.034441087 0.00864636 0.06822816
0001d0 56 de 20 bd 23 15 8f bd 1d 1a 98 3b 09 ab b3 3d
       -0.039274536 -0.069864534 0.004641785 0.08772857
0001e0 11 f1 82 3d 3d 45 9e bb bf 66 eb 3c 4a 9e 6d bd
       0.06393636 -0.004830031 0.028735517 -0.058012284
0001f0 14 b9 b2 bc 23 ab b6 3c 62 1d 14 3d 2e 5e 4c ba
       -0.021816768 0.022298401 0.036160834 -0.0007796016
000200 68 1b 73 3d c1 5f 36 bd e0 5c a1 3d a6 32 90 bd
       0.05935231 -0.04452491 0.078790426 -0.070409104
000210 ae 2b b9 bd 9d 14 b7 3d 23 be 7e 3d f2 de d6 3d
       -0.09041534 0.089394785 0.062193047 0.10491742
000220 d9 f5 00 bd a5 96 5e bd 43 44 01 3e e0 f5 5e bd
       -0.03148446 -0.054342885 0.12623696 -0.054433703
000230 cc af c7 bd ed e9 27 be 34 a9 f4 bc 11 58 c6 3d
       -0.097503275 -0.1639783 -0.029865839 0.09684766
000240 88 d1 b7 bd 81 bc 22 be 68 8d 7f 3d a6 22 ad 3d
       -0.08975512 -0.15892221 0.062390715 0.08453874
000250 fc cc 2a 3d ba e4 6a 3d 41 b6 e5 bc 4f 3c 42 3d
       0.041699395 0.057347037 -0.028041007 0.047420796
000260 95 a5 80 3c b5 69 00 bd 0c 6b 51 bd ec cb e9 3d
       0.015703956 -0.03135081 -0.05112748 0.11415848
000270 ef 0a 8d 3d d7 79 9b bd 57 1b 8d 3c 31 f6 6a bd
       0.06886851 -0.075915985 0.01722495 -0.057363693
000280 ed c8 d6 bd 8f 2e 6d bd 71 5e b1 bd 78 27 37 bb
       -0.10487542 -0.05790573 -0.086605914 -0.002794711
000290 c5 a9 60 bc 76 22 ee 3c 54 b7 07 bd 36 26 fd bd
       -0.013712351 0.029069167 -0.03313382 -0.12360804
0002a0 27 bf d8 3c a4 95 51 bd 95 8a 29 bd 3e 06 67 3d
       0.026458336 -0.0511681 -0.041391928 0.056402437
0002b0 38 72 27 be 6f e9 87 3d 3f bb 89 3d 8f 54 5c 3e
       -0.16352165 0.06636321 0.067251675 0.21516632
0002c0 7e 81 51 be 18 3f 20 be 62 3d 5f 3e 75 a5 9a bc
       -0.20459554 -0.15649068 0.2180076 -0.018877724
0002d0 59 28 59 bc 99 2e 20 bd e8 c2 ce 3d b8 3f 43 bd
       -0.013254249 -0.03910694 0.10095769 -0.04766819
0002e0 91 82 2c bd c6 2b a2 3d ee 26 97 3d 40 52 80 3d
       -0.042116705 0.07918505 0.07380472 0.06265688
0002f0 0e d3 a2 3d 38 df d4 3d 57 4a 44 bd b4 29 1d bd
       0.07950412 0.10394138 -0.04792246 -0.03836985
000300 cc f5 e8 bd 4b 7a 22 bc 8c 3b ad 3c 12 a4 0b be
       -0.11375007 -0.009916852 0.021146558 -0.13636807
000310 93 e6 71 3c fb c4 40 3e c5 31 02 3e 2b 20 a5 bc
       0.014764446 0.18825142 0.12714298 -0.02015694
000320 75 c4 38 3c 41 7e d1 bd f7 90 06 bd 03 ea cf bd
       0.011277308 -0.10229159 -0.032853093 -0.10152056
000330 ff f5 08 be 6e 96 6e bd 8c 13 a7 3d 53 db 4c 3d
       -0.1337509 -0.05824893 0.08158025 0.05001385
000340 c2 5c 95 3c af 1c 60 bc 0b 6f 5c bd 19 28 d6 3b
       0.018232707 -0.013678714 -0.053816836 0.0065355417
000350 3b 91 5a 3d b3 2f 1b 3b f6 61 e2 3d 5e 89 10 3e
       0.05336116 0.0023679554 0.11053841 0.14114901
000360 d1 1e a5 3c a6 15 60 bd 2f cc 35 3e e0 44 6d 3e
       0.020156296 -0.054708146 0.17753671 0.23170805
000370 60 a0 6f 3d 67 ae 96 bb 5b 54 ce bc fe fd fb bd
       0.058502555 -0.004598427 -0.025186708 -0.123043045
000380 db 22 4c bd ba e2 77 3c 0b 94 f2 bc bf 7e 8a bd
       -0.04983793 0.015129739 -0.029611608 -0.06762456
000390 d4 d1 b8 3d e5 18 00 bc e4 2f ac bc a9 a5 3e bd
       0.090243965 -0.007818435 -0.02101893 -0.046544705
0003a0 11 5e 5c 3e d6 cd 36 be 23 c2 5a bd 7f 27 b2 3d
       0.21520258 -0.17851958 -0.0534078 0.086989395
0003b0 52 c8 aa 3a 91 6e d8 3d 55 04 9b 3d 41 ed 28 be
       0.0013029671 0.10567964 0.07569186 -0.16496755
0003c0 c0 51 e5 bd c6 aa 0e bd 5e d7 9a bd be 15 9c bd
       -0.11197233 -0.03483083 -0.07560609 -0.076213345
0003d0 dd 9e 17 3d 4d 92 25 3d 1f de 06 be 25 72 44 3d
       0.03701674 0.040422726 -0.1317067 0.04796042
0003e0 64 6b 27 3e 51 e4 bd bd 14 d0 ee bd 8e d9 76 bc
       0.1634956 -0.092720635 -0.116607815 -0.0150665175
0003f0 7d 9b e8 bd 83 77 02 be e6 f1 30 3e e1 cf c0 bd
       -0.11357782 -0.12740903 0.17279777 -0.0941465

bias f4 [16]
000000 d1 d5 35 39 7b eb 45 39 c7 4b 21 39 24 38 1b 39
       0.00017341158 0.00018875107 0.00015382386 0.00014802866
000010 ae 98 3c b9 ff b5 b8 38 d5 88 8b 39 90 9e 8d b9
       -0.00017985955 8.807703e-05 0.00026614094 -0.00027011754
000020 0a 70 8c b8 ff ab db 38 e0 c8 65 b8 5a 64 ea b8
       -6.696589e-05 0.000104747705 -5.4784934e-05 -0.000111766814
000030 74 96 7b b9 ed 51 1d 37 5c e6 e4 39 ac cd e9 b8
       -0.00023993273 9.377004e-06 0.0004365918 -0.00011148615

weight f4 [16]
000000 b3 7e dd 3f 4d 5e f6 3f 56 51 db 3f fc d0 cf 3f
       1.730429 1.9247528 1.7134197 1.6235652
000010 d4 47 0b 40 65 52 e4 3f 2d 55 d0 3f 33 69 06 40
       2.176259 1.7837645 1.6275994 2.1001709
000020 43 1e d2 3f b5 5b da 3f 45 25 09 40 94 81 02 40
       1.6415485 1.7059237 2.1428998 2.0391588
000030 69 57 0f 40 86 42 f4 3f 45 c7 f7 3f 84 48 ea 3f
       2.23971 1.9082801 1.9357687 1.830338

bias f4 [16]
000000 df 8d 89 3e 0c f0 f7 3e e5 ca 02 3f 19 75 d7 3e
       0.26866052 0.4842533 0.5109084 0.42081526
000010 19 1b 0b 3f 0c 24 52 3e d7 9b 02 3f a2 98 45 3f
       0.5433822 0.20521563 0.5101904 0.77186024
000020 66 b1 d9 3e 56 35 4a 3f c9 27 41 3f a1 0e 21 3f
       0.42518157 0.78987634 0.7545133 0.62912947
000030 d7 72 f4 3e 5b e7 4f 3f aa c8 29 3f f9 9d 2e 3f
       0.47743866 0.81212395 0.66321814 0.682098

running_mean f4 [16]
000000 26 97 9b bd 69 61 b2 bd be 40 ae bd 5e e4 df 3c
       -0.07597189 -0.08709986 -0.08508442 0.027330574
000010 40 80 be 3d 7d 46 28 3e f0 75 22 be 44 69 0a be
       0.093018055 0.16433139 -0.15865302 -0.13516718
000020 59 e2 f3 bd f2 fa c3 bd b9 dc 15 be 97 58 8f bd
       -0.11908407 -0.095693484 -0.1463498 -0.06999319
000030 45 86 38 3d ec 26 11 be 7f 4e bc bd ae e2 60 3d
       0.045049924 -0.14175004 -0.091946594 0.05490368

running_var f4 [16]
000000 51 2a 17 3d 61 74 81 3d 01 88 30 3d 6e 48 c7 3c
       0.03690559 0.06321026 0.043098453 0.02432653
000010 59 72 12 3d 3e 2d f6 3c 94 17 61 3d b3 a8 14 3d
       0.03575358 0.03005087 0.054954126 0.036293697
000020 5a 37 34 3d 56 50 23 3d 8f 11 f2 3c fe ff 34 3d
       0.0439981 0.039871536 0.029549388 0.044189446
000030 c8 13 1e 3d a9 5b 3e 3d e2 20 27 3d 97 c9 20 3d
       0.038593084 0.046474133 0.040802844 0.03925475

weight f4 [1, 16, 1, 1]
000000 99 d3 da 3f 13 a5 f2 3f df bb db 3f ad af d6 bf
       1.7095824 1.8956627 1.7166709 -1.6772362
000010 d9 f5 0e c0 8a bb e5 bf e1 58 d2 3f 62 3a 0f c0
       -2.2337554 -1.7947857 1.6433374 -2.2379384
000020 39 49 d2 3f 18 5f e5 3f 31 39 11 c0 23 25 02 40
       1.6428596 1.7919645 -2.2691157 2.0335166
000030 80 56 12 c0 ff fa f8 3f d5 fc f7 3f c8 8e f9 bf
       -2.2865295 1.9451598 1.9374033 -1.9496698

weight f4 [1, 134]
000000 64 e7 63 38 f4 6c b7 b7 fe 0f dc 38 4e c0 79 37
       5.4336517e-05 -2.1866035e-05 0.00010493396 1.4886331e-05
000010 b1 54 a4 36 60 ee f0 36 7e a0 af b7 4e e5 cd 36
       4.8974402e-06 7.180308e-06 -2.093636e-05 6.1361707e-06
000020 96 bc 85 38 4a 74 cd b6 50 ab 2c 38 e0 77 51 b8
       6.377061e-05 -6.123014e-06 4.1167543e-05 -4.9941125e-05
000030 80 dc a5 38 c3 c8 77 b6 17 93 ac 36 bd e8 6c 38
       7.9088844e-05 -3.6922727e-06 5.143123e-06 5.648354e-05
000040 83 2c 48 37 4b f8 6b b6 b0 01 ba b8 21 30 80 b7
       1.1931293e-05 -3.5162254e-06 -8.8694855e-05 -1.52812e-05
000050 1e 1e 34 b6 6d 36 2d 35 21 da ad 38 3b 3c 12 36
       -2.683962e-06 6.452672e-07 8.2899125e-05 2.1790754e-06
000060 cd 85 66 b7 e1 c6 a5 36 7e 30 4d 38 b9 73 b5 b7
       -1.3740221e-05 4.9405357e-06 4.892097e-05 -2.1630769e-05
000070 82 f5 09 36 39 09 9f 37 2b 2d f1 35 e0 3e b0 b8
       2.0557495e-06 1.8958572e-05 1.7969045e-06 -8.4040454e-05
000080 9e 94 af b7 11 9d 01 b8 96 4e cd b8 23 65 9a b6
       -2.0930831e-05 -3.0902276e-05 -9.7897995e-05 -4.6013315e-06
000090 34 0a 33 b7 b9 98 c2 35 7d 32 a6 b8 89 f6 97 37
       -1.0671607e-05 1.4498575e-06 -7.924901e-05 1.8115405e-05
0000a0 1d 1d 3f b7 19 fa 92 36 90 57 37 37 3a f7 15 b7
       -1.1391266e-05 4.3802543e-06 1.0928037e-05 -8.938654e-06
0000b0 40 9b 29 b6 99 c7 d0 b8 1d c5 ef b5 71 19 fd 35
       -2.527333e-06 -9.955391e-05 -1.7864255e-06 1.8857373e-06
0000c0 23 ab d2 37 e7 c6 f8 b8 4a ee 23 b8 a5 78 18 38
       2.5113643e-05 -0.0001186261 -3.9084152e-05 3.6351983e-05
0000d0 de ce 90 b8 20 ca 16 37 0e a6 b9 b8 75 00 6b b7
       -6.904987e-05 8.987758e-06 -8.8524175e-05 -1.4007198e-05
0000e0 87 00 11 36 da 2e 59 36 c5 7b c2 b5 3d f9 99 37
       2.160699e-06 3.236279e-06 -1.4490148e-06 1.8355082e-05
0000f0 e2 c8 27 b6 30 de 0c b9 05 df b0 36 41 dc a7 b7
       -2.5001868e-06 -0.00013434212 5.2711716e-06 -2.0010515e-05
000100 77 85 0d b8 50 17 3c b8 85 ea 7a b8 44 8e 58 39
       -3.374132e-05 -4.4844404e-05 -5.9823058e-05 0.00020652363
000110 c2 d8 e9 36 27 b1 16 35 18 c2 9c 38 db bd 46 37
       6.969175e-06 5.6137145e-07 7.4748124e-05 1.1845924e-05
000120 53 72 8d b7 7d ea 75 b6 52 7f 52 38 7f ba f3 37
       -1.6861746e-05 -3.6644335e-06 5.0186478e-05 2.9054701e-05
000130 a7 e5 0a b9 76 58 1b 37 8c a5 da 34 58 27 26 b7
       -0.00013246258 9.259316e-06 4.0726115e-07 -9.9035315e-06
000140 5c a3 88 38 c5 39 2a b7 45 31 34 b9 1a fe 56 b8
       6.5154134e-05 -1.014624e-05 -0.00017184492 -5.1258226e-05
000150 41 c7 09 b7 11 ce 9d 34 60 26 2e 38 e1 0a d8 36
       -8.212229e-06 2.9393462e-07 4.1520572e-05 6.438568e-06
000160 43 86 00 37 b9 4d 98 36 53 a0 c7 38 1a e2 e5 b8
       7.660655e-06 4.539001e-06 9.518922e-05 -0.000109616856
000170 ee 9f ba 37 04 ca 1b b9 d4 52 46 36 4f 3e d1 b8
       2.2247401e-05 -0.00014857209 2.9552511e-06 -9.9775025e-05
000180 22 a8 c7 35 af 50 95 b8 00 53 c9 b8 e7 e9 04 b7
       1.4875588e-06 -7.119902e-05 -9.599887e-05 -7.922273e-06
000190 7c 21 4e b7 0f 4a 66 37 f7 73 22 b9 d4 8f 19 38
       -1.2286353e-05 1.3726311e-05 -0.00015492724 3.6611993e-05
0001a0 7e 28 ce b7 ce 12 d3 b5 07 65 3a 38 27 99 29 38
       -2.457597e-05 -1.5726198e-06 4.4439945e-05 4.0435374e-05
0001b0 2e c2 82 b8 88 ac b0 b8 69 68 e4 34 07 11 8e 37
       -6.235052e-05 -8.4244704e-05 4.2544278e-07 1.6935648e-05
0001c0 28 8b 0b 39 00 ca 4e b9 20 7f dc b8 06 16 91 b8
       0.00013307913 -0.00019720942 -0.00010514096 -6.918241e-05
0001d0 6c cd 6b b8 00 a5 64 38 2f fe 78 b7 99 fa 0f 38
       -5.621968e-05 5.4513104e-05 -1.4841134e-05 3.4327244e-05
0001e0 64 fa 3d b6 6d 29 d7 b5 a2 ed d0 b6 d1 86 b2 b8
       -2.8308941e-06 -1.6030805e-06 -6.226547e-06 -8.512813e-05
0001f0 91 bd f5 b5 56 fa 5c b7 8e 05 51 b7 b3 3d c0 b8
       -1.8309094e-06 -1.3171308e-05 -1.2458664e-05 -9.166766e-05
000200 b3 0a 23 3a 73 e5 ad 3a b3 d3 e2 3a e2 3b b7 3a
       0.0006219551 0.0013267234 0.0017305523 0.0013979638
000210 22 96 bf 3a 5a 74 8a 3a
       0.0014616887 0.001056324

weight_ih_l0 f4 [256, 600]
000000 6e 9c 15 bc b1 fd 5d bc 4e 7c a6 bc cf e0 fe bc
       -0.009131534 -0.013549254 -0.020322945 -0.031113056
000010 82 c7 cd bb dd f7 40 bc 4b 5a 9c bb 71 70 04 bc
       -0.0062798867 -0.011777845 -0.004771506 -0.008083449
000020 15 0f a4 bc 43 24 ca bb 7f 55 e5 bb ba 9d 32 3c
       -0.020026723 -0.0061688735 -0.0069987173 0.010901863
000030 34 c9 f6 39 0c ed ae bb 72 00 ba bb ba 57 89 bc
       0.00047070684 -0.005338317 -0.0056763226 -0.016765464
000040 07 7e 99 bb da 5a 06 bc dc 86 67 bc 7c 0d 9c 3c
       -0.004684213 -0.008200372 -0.014131274 0.019049399
000050 97 52 02 3e 17 b1 d7 3c 95 80 a6 ba 08 7b a4 39
       0.12726818 0.02632956 -0.0012703115 0.00031372183
000060 3c 54 9e 3b 05 55 2d 3b 76 2b cc ba 35 7d 66 3a
       0.004831819 0.002644838 -0.0015576917 0.0008792461
000070 94 55 ac ba 7c 1d cb 3c 50 aa dd bb c7 0f 36 bc
       -0.0013148063 0.024794333 -0.0067646876 -0.01111216
000080 23 fb 38 3c 3f f3 90 3c 09 96 1d ba 1d 79 ac bb
       0.011290344 0.017694114 -0.00060114317 -0.0052634613
000090 fb 2a 25 3b 2a 6e 2d 3b ee 27 99 bc 6d f0 ac bc
       0.002520262 0.0026463368 -0.018695798 -0.021110738
0000a0 95 28 5a 3c 1c bc c3 3c 13 76 fb bb 6e 4b a6 3c
       0.01331534 0.023893408 -0.0076739877 0.02029964
0000b0 25 f1 1c 3c 78 74 c2 bb f6 b4 59 3c c3 c1 69 3c
       0.009578978 -0.0059342943 0.013287773 0.014267388
0000c0 11 68 82 3c c7 9c 44 3b a8 58 2f 3b 54 60 09 3c
       0.015918763 0.0030000673 0.0026755724 0.008384783
0000d0 ff ca 31 3c 3f 7e 3a 3c 53 00 11 bb 7d da be bb
       0.010851621 0.0113826385 -0.0022125437 -0.0058243857
0000e0 6a 32 54 bc 8c cc b2 bc ff 5b b7 3c 05 d7 37 3c
       -0.012951473 -0.021826051 0.022382734 0.011220698
0000f0 da 1d a2 3c fc 64 22 3d 9b 00 b1 3c 2e 2c 6b 3c
       0.019789625 0.039647087 0.021606734 0.014353795
000100 7b 93 ee 3b 56 5a ea ba 36 7f 4d bc 18 1d 80 3c
       0.0072807646 -0.0017879705 -0.0125425365 0.015638873
000110 cb 7f 99 3c 13 6e d9 3c 69 18 c9 3b 61 3f d8 3b
       0.018737694 0.026541745 0.006136943 0.006599352
000120 4e 91 76 ba c1 e9 42 3c 5e f5 bc ba 23 e4 37 3b
       -0.00094058074 0.011896552 -0.0014416387 0.0028059564
000130 79 c9 10 ba 61 e2 f6 bc 4c 17 5b bb c1 fe 38 3b
       -0.0005523186 -0.030137243 -0.0033430634 0.0028228017
000140 17 ed fc 3b b3 f3 a3 3c 36 7d c2 3c 38 63 1c b8
       0.007718693 0.020013666 0.023741346 -3.7285703e-05
000150 47 50 22 3c 8c 44 48 3c 46 9f 51 3c 19 3f 15 bc
       0.009906835 0.012223374 0.012794321 -0.009109282
000160 56 eb d7 ba b9 bd 10 3c ec 04 1f 3c 18 7c 1d 3b
       -0.0016473334 0.008834296 0.009705763 0.0024030264
000170 5e 02 42 3c b3 bd 29 3c de ec 2e bc b7 ff 6c 3c
       0.011841385 0.010360169 -0.010676591 0.014465264
000180 74 ac 06 3a 93 07 3a bb 4e 76 1b bc 6b e9 5b 3b
       0.0005137392 -0.0028385862 -0.009488655 0.0033555876
000190 43 da 81 3c 64 5f 48 bc 6c c0 2b 3c 4b 68 7d bc
       0.015851146 -0.012229774 0.010482889 -0.01546676
0001a0 57 46 df 3a 05 f7 be bb 0a 0d d9 3b c6 a4 ca 3b
       0.0017034513 -0.005827787 0.006623869 0.0061841933
0001b0 04 ed 5d 3c 3a ee ac 3c 29 32 7f 3c db 3f e6 bb
       0.013545278 0.021109689 0.015575924 -0.007026655
0001c0 5e 6e 00 bc 1a 0a 0e bb 29 95 13 3b 1a 65 fe b8
       -0.007838814 -0.0021673501 0.0022519326 -0.000121304955
0001d0 08 ca fc 3b 04 d0 1a 3c 63 11 15 3b d0 ac 93 bc
       0.0077145137 0.009449009 0.002274596 -0.01802674
0001e0 0f 19 c0 39 66 d3 ee 3b d2 ac 6a 3c 48 55 0f 3c
       0.00036639764 0.0072883843 0.01432343 0.00874836
0001f0 50 5e 14 bd 09 bd 14 bd 73 de 96 bc ef c0 7e bc
       -0.036222756 -0.03631309 -0.018416619 -0.015548929
000200 75 63 c6 3b 84 67 c0 b9 a8 69 8e bb 28 8a 29 3a
       0.0060543367 -0.0003669822 -0.0043460913 0.0006467425
000210 93 b0 d2 3b da 8c 9c 3b f9 bc eb 3b ab bb 70 bb
       0.0064297407 0.004777533 0.007194158 -0.0036732953
000220 04 1d 6f bb 78 df 07 3c 51 8a 84 bb 32 68 90 bb
       -0.00364858 0.008293025 -0.004044809 -0.0044069523
000230 27 95 21 3d c2 18 64 3c 98 6e 03 3c 73 35 d1 bb
       0.039448883 0.013921918 0.008021973 -0.0063845455
000240 c9 8c 22 bc 28 49 c5 bb ab 06 09 3a db 7f ea 3a
       -0.009921261 -0.006020684 0.0005227129 0.0017890887
000250 75 31 cd 3c 3a f3 a3 bc ed 3b 64 bc 35 c3 ea bb
       0.025047997 -0.02001344 -0.013930303 -0.007164384
000260 e0 12 1f bc e3 07 e2 bb 7b 2f 92 3c a7 eb 44 bc
       -0.00970909 -0.006897913 0.017844906 -0.0120190745
000270 d9 a8 4a bc e3 d6 83 bb 0c 14 65 bb bd 54 62 bc
       -0.012369358 -0.004023419 -0.0034954576 -0.0138141485
000280 d0 49 22 3d 50 f0 ca 3c df 9c 3b 3c 5f 9e 5c 3a
       0.039621174 0.024772793 0.011450975 0.0008415933
000290 12 d6 07 3d 45 61 b3 3c 8a 80 3c bc 60 2f 7a bb
       0.033163138 0.021896968 -0.0115052555 -0.003817521
0002a0 4c d5 e2 3c e1 83 03 bc 54 de 0c bc 80 62 35 bb
       0.027689599 -0.008027048 -0.008597929 -0.0027677119
0002b0 a4 e9 b5 bb 56 ea c1 bc 0f 38 22 3c 2d cf 48 3c
       -0.005551534 -0.02367131 0.009901061 0.012256426
0002c0 84 46 d1 bb 22 68 22 bd f8 68 92 3c fe 3c 3d bc
       -0.00638658 -0.03965009 0.017872319 -0.011550186
0002d0 0d bc 0f 3c 02 18 4a ba 20 d2 39 3c 97 32 d0 3b
       0.008772862 -0.0007709266 0.011341602 0.006353687
0002e0 8e da 2b 3c 15 a4 3b bc 06 41 41 3c 7d 74 9c 3b
       0.010489119 -0.011452694 0.011795288 0.0047746287
0002f0 be 79 56 bc 32 04 44 3c 81 cd 80 3c ec 4e 0e 3c
       -0.013090549 0.011963891 0.015722992 0.008685809
000300 03 69 3d 3c f5 d3 b7 3a 53 a6 8f 3b d8 e0 d4 3c
       0.011560681 0.001402496 0.004383841 0.02598612
000310 f3 7b 8d 3c 14 69 e3 bc d1 9c 8c 3c e9 b0 de 3a
       0.017271018 -0.027760066 0.01716462 0.0016989979
000320 b2 45 02 3c f7 3d c3 3b 30 f5 86 3c c3 a4 26 3b
       0.007951187 0.0059583145 0.016474336 0.0025427795
000330 90 9b a1 3b 56 db 8d bc b0 e9 c9 3b a1 a1 2d bc
       0.0049318746 -0.017316502 0.006161891 -0.010597617
000340 77 fb 59 bc be f9 96 3c 51 64 92 3c 16 38 01 3d
       -0.013304583 0.018429633 0.0178701 0.03154763
000350 48 da 08 bb d2 b9 7e 3b e1 ab 1c 3c 53 61 70 3c
       -0.002088206 0.0038868082 0.0095624635 0.014671641
000360 05 19 9c 3c a7 b2 03 bd fa ca a7 3c f4 b8 5a 3c
       0.019054899 -0.032152798 0.020482529 0.01334976
000370 22 59 03 3d cd 70 15 3c a9 7b 9d 3c 5f b4 c8 bc
       0.032067426 0.009121132 0.019224005 -0.02450007
000380 a1 6a 14 bb ff 9a d3 bb fb 45 c4 3a ea 57 c5 3b
       -0.0022646564 -0.006457686 0.0014974469 0.006022443
000390 7d 94 30 bc 15 f6 ff ba 94 d7 1e 3c 7d b6 44 3c
       -0.01077759 -0.0019528294 0.0096949525 0.012006399
0003a0 b2 2b 0a 3c 9d ad b7 bc 40 bc e2 ba dc 54 9a 3c
       0.008433269 -0.022421652 -0.0017298535 0.018839292
0003b0 78 ba b8 3c 91 d8 4a bc 7f 42 64 bb 9a 5b 13 bc
       0.022549853 -0.012380735 -0.0034829674 -0.0089940075
0003c0 66 4d 05 3d a4 e0 3d 3c 70 74 78 3c 06 ff ca bc
       0.032544516 0.011589203 0.01516448 -0.024779808
0003d0 d5 8d 5f bc c6 ff cf bc b1 ea 93 bc e9 35 29 3c
       -0.013644655 -0.025390517 -0.018056246 0.010327795
0003e0 3d 08 be 3b 26 1c 08 3d 43 c4 a8 3c b8 65 ce 3a
       0.005799322 0.03322997 0.020601397 0.0015746867
0003f0 7a 8f 06 3c 0c e9 6a 3c c7 16 0b 3c a7 03 b7 3c
       0.008212918 0.014337789 0.008489317 0.022340609

weight_hh_l0 f4 [256, 64]
000000 66 09 41 bb 8a a9 46 bd ef db 1f b7 80 3f 86 3d
       -0.0029455065 -0.04850153 -9.528346e-06 0.065550804
000010 d1 55 87 3b 15 70 94 3a 68 19 00 bc 52 6b 9b 3a
       0.004130103 0.0011324907 -0.007818557 0.0011857545
000020 29 48 5a 3d aa 38 c2 3a 17 03 3e 3d a6 5f 72 3c
       0.053291474 0.0014817913 0.046389665 0.014793312
000030 ac 6f f7 bb 7b a0 7a bb 92 fa 78 3b 19 dd e6 bd
       -0.007551154 -0.0038242626 0.0037991148 -0.1127264
000040 7b ef b2 3c ab 74 e2 b9 82 9c 03 bd 4a d1 ea 3c
       0.021842709 -0.00043193004 -0.03213168 0.02866425
000050 3a 00 34 3b f7 3a 84 3a 91 a4 6d 3c 7f eb 60 3b
       0.0027465955 0.0010088374 0.014504568 0.0034320054
000060 ff 18 60 ba 16 5e 36 39 ef 16 56 3d fb a5 84 bd
       -0.00085486466 0.00017391922 0.052267965 -0.06476971
000070 e2 1f 12 3d 46 3c 71 3b a7 42 3f 3a e7 a0 db 3c
       0.035674937 0.0036809607 0.0007296004 0.026810123
000080 c2 87 75 3d 28 4c 46 bd 55 a4 93 3c cb 5a a1 ba
       0.059943922 -0.048412472 0.018022696 -0.0012310384
000090 f8 08 40 bb 9f 93 65 bb e2 af ed bb 7e ec e0 b9
       -0.002930222 -0.0035030616 -0.007253633 -0.0004290081
0000a0 1d 1f b1 3b 1b 5b 24 3b a8 9c a5 3c 1c ea b4 bb
       0.0054053203 0.0025078717 0.020216301 -0.005521072
0000b0 ee 85 10 bd dc df 84 bc e8 71 af ba 0d da 59 3c
       -0.035283975 -0.016220026 -0.0013385387 0.013296616
0000c0 91 ea 0f 3d 6c 43 92 3d 4f 2f ec 3b b6 b8 2b bd
       0.03513581 0.07141766 0.007207788 -0.0419242
0000d0 db 24 1c bd a8 03 be 3b 09 a2 86 3c 7e 64 b4 3c
       -0.038121086 0.0057987757 0.016434686 0.022020575
0000e0 d3 0e 11 3a 3d b1 45 3b bf 8a 5f 3b 1b 5b d2 3d
       0.000553352 0.0030165457 0.0034109799 0.10271283
0000f0 a6 84 9b 3a cf 6b aa 3b 7c ed 8b 39 5e 77 ed bb
       0.0011865094 0.00520084 0.00026689086 -0.0072468957
000100 60 8a 87 3d 26 c6 84 bc 4b c5 15 3d 38 df c9 3d
       0.0661819 -0.016207766 0.036565106 0.09857029
000110 29 72 66 bb 93 ba f4 39 88 19 b1 bd 1e 6a 8d bb
       -0.003516326 0.00046678315 -0.08647448 -0.0043156287
000120 3f d1 e7 bb ef 7f 40 bb 0a 42 1a 3d ee b6 41 bd
       -0.0070745046 -0.002937313 0.037660636 -0.047293596
000130 2e fe bd bd bf d4 19 3a 14 da d3 ba e8 f6 34 bd
       -0.092769966 0.00058681885 -0.0016163015 -0.04418078
000140 38 bf 22 bc d0 71 74 3b 54 e4 f5 3c 53 a5 1d 3c
       -0.009933285 0.0037299283 0.030016102 0.009621936
000150 c7 30 8c 3a 47 10 91 bb be fe 1f bc 45 26 c4 ba
       0.0010695689 -0.0044269892 -0.009765325 -0.0014965018
000160 71 37 c2 ba c5 bd 9d bb f3 b1 1f bd af 84 39 bd
       -0.0014817548 -0.004813882 -0.038988065 -0.045292553
000170 fc 93 92 bd ac ce f6 bc 97 43 ab ba 58 7f 6e bd
       -0.07157132 -0.030127846 -0.0013066408 -0.058226913
000180 a6 bb d0 bc 4e 6f c1 bc 34 00 f7 3c cd ca 0e ba
       -0.025480103 -0.023612645 0.030151464 -0.000544709
000190 8f c6 04 3b 02 92 74 3a ec 33 c2 3b ed 5d cb ba
       0.0020259952 0.0009329618 0.0059265997 -0.0015515663
0001a0 9f 9d 96 bd bc 71 7f 3b 00 af 01 bd 09 97 8c 3c
       -0.073542826 0.0038977703 -0.031661034 0.017161863
0001b0 e2 bf 99 bd 94 7a c3 bb 7a 09 52 bb 54 cc a8 3c
       -0.07507302 -0.00596554 -0.0032049106 0.020605244
0001c0 97 f0 d0 bc 2a 1b 64 bd c0 69 d3 bc 9a 00 1b 3b
       -0.025505347 -0.05568997 -0.025807261 0.0023651482
0001d0 eb eb 26 3c 1f 1c 69 3c 7c 32 5d ba c1 06 94 3c
       0.010188083 0.014227896 -0.0008438004 0.018069627
0001e0 e1 83 e5 ba 4f b7 d0 ba 9f 83 c9 39 31 11 18 bc
       -0.0017510616 -0.0015923771 0.00038435773 -0.0092814425
0001f0 e0 ff 81 bb 29 ce 1d bd a5 af 16 3b e9 99 83 3c
       -0.0039672703 -0.038526688 0.0022992876 0.016064601
000200 07 18 15 3c d7 1c b7 b9 0f 6e 27 bb 01 0f 6e 3d
       0.009099967 -0.00034925967 -0.0025547778 0.058119778
000210 d8 e1 72 ba 17 31 30 3b 00 2a 74 bd 81 01 77 3a
       -0.0009265221 0.0026884729 -0.059610367 0.00094225263
000220 0b 46 3f 3c 23 ea 48 3b 7c df 01 bb e3 24 5a 3b
       0.011674414 0.0030657134 -0.0019817045 0.0033286146
000230 28 d5 30 bc 3f 5c d7 ba 3c 78 5d 3b bf f0 d6 bd
       -0.010793008 -0.001643069 0.003379359 -0.104951374
000240 c4 03 7b 3c 64 55 84 ba be ff ae bc f3 3d 50 bc
       0.015320722 -0.0010096249 -0.021362182 -0.012710082
000250 7f c1 ba bb 00 d6 40 3b a2 c8 ce 3c 04 bd c3 3b
       -0.005699336 0.002942443 0.025242154 0.00597346
000260 d8 b1 73 ba 6f 47 76 3b d2 40 27 3a c1 bd dc 3c
       -0.0009296215 0.0037579199 0.00063802034 0.02694595
000270 d0 4d 11 bd c4 a6 00 3d 90 99 b4 3b af 43 36 3b
       -0.0354746 0.03140904 0.00551147 0.0027811339
000280 88 ad ac 3c 56 c0 09 bd 22 3b ce bc e0 94 bc 3b
       0.02107884 -0.03363069 -0.025174681 0.005755052
000290 a8 63 56 bb ae a2 e5 ba 28 97 c3 3c e0 c0 fb bc
       -0.0032713208 -0.0017519796 0.023875788 -0.030731618
0002a0 d6 e3 a6 bc 15 d7 a1 3b e9 0e d1 ba 7d 2e 55 bb
       -0.020372313 0.00493897 -0.0015949878 -0.003252893
0002b0 7f dd 45 bc af 31 f9 3c 00 05 50 bb 47 d9 ab b9
       -0.012076735 0.030419199 -0.0031741261 -0.00032777546
0002c0 c7 42 d9 3c 90 11 a8 bc 41 a2 fe 3b e1 a4 f5 bc
       0.0265211 -0.020516187 0.007770807 -0.029985847
0002d0 ec 7d d3 3c d9 89 6e bb d1 f3 8a 3c 51 ec 0f bd
       0.02581688 -0.0036398082 0.016961964 -0.03513748
0002e0 6b 27 c1 3b ea 99 d8 3b d6 c6 66 ba 58 03 9c 3c
       0.0058945916 0.006610145 -0.00088034326 0.019044563
0002f0 b3 1b 51 bb c0 17 0f 3c 6f 84 10 3b e2 4e 01 bc
       -0.003190738 0.00873369 0.0022051593 -0.007892342
000300 14 ba c8 bb c3 1d a9 3b 51 f6 6a 3c 7b c0 6e 3c
       -0.006125698 0.0051610186 0.014340953 0.014572258
000310 b9 f2 1d 39 ec a9 2f bb 52 d2 8b 3d 4c fb 87 3a
       0.00015063108 -0.0026804162 0.06827225 0.0010374575
000320 f6 92 a4 3d 0b d9 0a 3b 54 43 71 bd 3e d2 13 bd
       0.08035843 0.0021186497 -0.0589021 -0.036089174
000330 6c ad 5b bc ee 2e 89 b9 5c 92 b8 3a 24 94 55 bc
       -0.013408046 -0.00026165642 0.0014081704 -0.013035808
000340 95 38 ef bc 5f 9f 18 3b 45 99 6b bd 7e bb 3b bc
       -0.029201785 0.0023288352 -0.057519216 -0.011458276
000350 e9 cd 8a 3b 0f 91 c5 3a 9b 69 05 bc 49 4b 83 ba
       0.004235972 0.0015073138 -0.008142854 -0.0010016944
000360 da b2 e3 3a bc 51 f2 39 da c6 7e 3c 52 5b 0e bc
       0.0017372028 0.00046218734 0.01555034 -0.008688765
000370 79 23 9c 3d f5 2a ac bb f5 6e 06 3b 9f fc 70 bd
       0.07623953 -0.0052541443 0.0020512913 -0.05883467
000380 c5 10 07 be c9 54 09 bd 97 ba b6 3c 79 2a 07 3a
       -0.13189991 -0.033528123 0.02230577 0.000515617
000390 93 2d 2b bb 8d 89 47 3a 13 45 b0 3d 85 01 e0 3c
       -0.0026119694 0.0007611744 0.08606925 0.027344475
0003a0 f0 ca 56 bc 03 28 f2 3b 08 b6 41 3e f4 62 c3 bc
       -0.0131099075 0.0073900237 0.18917096 -0.023850895
0003b0 e5 78 55 bd 3a 53 7d 3c 75 52 90 3b c1 09 7a 3d
       -0.052117247 0.015461737 0.004404361 0.06104446
0003c0 41 af a3 bb f1 97 06 be c8 bd 60 3d ae 42 8d 3d
       -0.004995257 -0.13143899 0.05486849 0.06897484
0003d0 54 7d 8a ba 75 70 16 bd 01 3e 53 bc ee 08 b2 3c
       -0.0010565915 -0.03672834 -0.012893201 0.021732774
0003e0 f0 f7 b6 3a 91 c8 d9 ba ea ae 6c 38 64 69 86 3d
       0.0013959389 -0.001661556 5.6429686e-05 0.065630704
0003f0 12 43 d3 3a b1 12 8b bb 86 98 a0 bb 8d df 3a 3d
       0.0016118011 -0.0042441715 -0.0049009947 0.04562335
