model/Conv_3D_1.pt (torch, 255949 bytes, 19 tensors)

weight f4 [32, 5, 3, 3, 3]
0	0xbd839e04	-0.064266235
1	0x3b85b716	0.0040806634
2	0x3a9a29c0	0.001176171
3	0x3d02803d	0.03186058
4	0x3c31e9e0	0.010858983
5	0x3c8707a3	0.016483134
6	0x3c4c7621	0.012479336
7	0x383af7fa	4.4576802e-05
8	0xbb7c9dc9	-0.0038546196
9	0xbc1fadd8	-0.009746037
10	0xbd4092d6	-0.047015034
11	0xbd1967b5	-0.03745242
12	0x3ba0c1a8	0.004905898
13	0xbb7ef763	-0.0038904778
14	0x3cc682a0	0.024232209
15	0x3b400c54	0.0029304223
16	0x3cc173d7	0.023614807
17	0xbce2c186	-0.02768017
18	0x3cbfb45e	0.023401435
19	0x3d6be197	0.057588186
20	0xbe1e5224	-0.15461022
21	0x3d49da4e	0.049280457
22	0x3d8aeca1	0.06783415
23	0x3d771256	0.06032022
24	0x3dff0fa6	0.124541566
25	0xbd5c6605	-0.05380823
26	0x3c43e561	0.011956544
27	0xbc85557b	-0.016276112
28	0xbc802dd9	-0.015646862
29	0x3c252b7f	0.010081171
30	0xbd5eec88	-0.054424793
31	0x3dd30d61	0.10305286
32	0xbdab1826	-0.08354215
33	0x3d049a68	0.032373816
34	0x3de7195c	0.11284134
35	0xbd7fc4cf	-0.06244355
36	0xbdeb2c86	-0.114831015
37	0xbc1bdb7c	-0.009512778
38	0xbe249b60	-0.16074896
39	0xbe3834ef	-0.17988943
40	0xbda1ce79	-0.0790071
41	0xbe36ffdb	-0.17871039
42	0xbe038d02	-0.12846759
43	0x3c825278	0.015908465
44	0xbdacfe74	-0.084469706
45	0x3dc3aca7	0.09554415
46	0x3d573a66	0.052545927
47	0xbbcbe4b2	-0.006222331
48	0xbc9d5628	-0.019206122
49	0x3dcaf926	0.099108025
50	0x3c37d05c	0.01121911
51	0xbd301939	-0.042992804
52	0xbc5ee61d	-0.013604668
53	0x3cabed33	0.020987129
54	0x3bc5aaf2	0.006032341
55	0x3dfd7548	0.12375885
56	0x3d0d28b6	0.034462653
57	0x3b732437	0.0037100443
58	0xbd528cd1	-0.051403824
59	0x3da93384	0.08261779
60	0xbcc6f8e6	-0.024288606
61	0xbcb00101	-0.021484854
62	0x3db13594	0.08652797
63	0x3d9c5e76	0.076352045
64	0x3d12ab17	0.035807695
65	0x3e6821e9	0.22669186
66	0xbc5c3233	-0.013439703
67	0x3d601947	0.054711606
68	0x3d676cd5	0.056500275
69	0xbbadf6c6	-0.0053089587
70	0xbcfefe03	-0.031126982
71	0x3daca47d	0.08429811
72	0x3ddf1a77	0.1089372
73	0x3d90a1bc	0.070620984
74	0x3e1cc639	0.15309991
75	0xbdd17d88	-0.10229021
76	0xbdc6cff3	-0.09707632
77	0x3dcf95c8	0.101359904
78	0x3de9d48e	0.11417495
79	0xbc343efa	-0.011001343
80	0x3d18477c	0.037177548
81	0xbcb22221	-0.02174479
82	0xbd7745bf	-0.06036925
83	0xbdb72e59	-0.08944387
84	0xbd02ac50	-0.03190261
85	0xbd78b794	-0.06072195
86	0xbd8c2646	-0.068432376
87	0x3daaf7b9	0.083480306
88	0xbd4c169f	-0.04982626
89	0x3a85be82	0.001020387
90	0xbd87bfb6	-0.06628363
91	0xbe04d517	-0.12971912
92	0xbd490dac	-0.049085304
93	0xbc179cb0	-0.009253666
94	0xbd6b642b	-0.057468574
95	0xbe0cddba	-0.13756457
96	0x3d56c5a1	0.052434567
97	0xbe0dbd70	-0.13841796
98	0xbd9f54b2	-0.07779826
99	0xbe375184	-0.1790219
100	0xbea523cb	-0.3225387
101	0xbdbc0bb6	-0.09181921
102	0xbd85b7ff	-0.06529235
103	0xbe6f02fe	-0.23340985
104	0xbdd30c36	-0.103050634
105	0x3dae5ce6	0.08513813
106	0xbce48952	-0.02789751
107	0xbd8a9d6c	-0.06768307
108	0xbd84b8c1	-0.064805515
109	0xbdd81a23	-0.1055186
110	0x3e41d0b9	0.18927278
111	0xbceb90c4	-0.028755553
112	0xbd7e4fd8	-0.062087864
113	0x3e34dd34	0.17662507
114	0x3ca2a97b	0.019856205
115	0xbd512d38	-0.051068515
116	0xbd74b644	-0.059744135
117	0x3e525e06	0.2054368
118	0x3dd2e281	0.102971084
119	0x3d75548b	0.05989508
120	0xbb885d44	-0.0041615088
121	0xbdb5a37d	-0.088690735
122	0x3db6f78a	0.08933933
123	0xbd574a6c	-0.05256121
124	0xbcd0870e	-0.025455024
125	0xbd978a13	-0.073993824
126	0xbf007743	-0.5018198
127	0xbf1b2ba0	-0.6061344
128	0xbec3c19b	-0.38233647
129	0xbdfd06e8	-0.12354833
130	0xbdbf706e	-0.09347616
131	0x3e6ce2e6	0.2313343
132	0x3e354b5b	0.17704527
133	0x3e72ffd7	0.23730408
134	0x3f1a105b	0.60181206
135	0x3d89831e	0.06714462
136	0x3c5011d0	0.012699559
137	0x3e4002ad	0.1875102
138	0xbcfcb843	-0.030849582
139	0xbcf34981	-0.029698135
140	0xbbc8325c	-0.006109519
141	0xbd4ff839	-0.050773833
142	0xbc2d7fe2	-0.010589572
143	0xbd350403	-0.04419328
144	0x3c284124	0.010269437
145	0xbcb00967	-0.021488858
146	0x3d8fb492	0.07016863
147	0x3da4776e	0.08030592
148	0xbce8fb89	-0.028440254
149	0xbc64fc8b	-0.013976227
150	0x3d2c8a50	0.042124093
151	0x3c19f1d4	0.009396035
152	0x3da922f8	0.08258623
153	0xbd1d3c08	-0.03838733
154	0xbd959956	-0.07304637
155	0xbe0a53f0	-0.13508582
156	0x3dbd17ff	0.092330925
157	0xbce1320b	-0.027489683
158	0x3d904907	0.07045179
159	0x3d7135f5	0.058889348
160	0xbe6593cb	-0.2241966
161	0x3e5528a9	0.20816292
162	0xbd5af3d7	-0.0534552
163	0xbd9bf40a	-0.07614906
164	0x3d23d4b2	0.039997764
165	0xbd883a12	-0.06651701
166	0x3da9bfef	0.082885616
167	0x3dc13e8f	0.0943576
168	0x3c4b6cc3	0.0124160675
169	0xbdc38be3	-0.09548166
170	0xbd67efa8	-0.05662504
171	0x3cdfac34	0.027303793
172	0x3e0db2f3	0.13837795
173	0x3d5534b2	0.052052207
174	0xbd1629b3	-0.03666086
175	0xbd8a96bd	-0.06767032
176	0xbe3fe54e	-0.18739817
177	0xbd37af7d	-0.044845093
178	0xbe2ae6f4	-0.16689664
179	0xbe53d7f5	-0.2068785
180	0xbd4fd7e5	-0.050743002
181	0xbc2e3de4	-0.010634873
182	0xbd4fc9fb	-0.050729733
183	0xbbbd2cf5	-0.0057731816
184	0x3e12f873	0.14352588
185	0x3cf3acf0	0.029745549
186	0xbd206166	-0.039155386
187	0x3d4d4387	0.050113227
188	0x3c97e206	0.018540394
189	0xbe75efd3	-0.24017267
190	0xbe87e1a3	-0.26539335
191	0xbe25298f	-0.16129135
192	0xbc815c10	-0.01579097
193	0x3da79169	0.08182032
194	0x3df25aa9	0.11833698
195	0x3e89189f	0.26776597
196	0x3e38f5dc	0.18062538
197	0x3e539525	0.20662363
198	0x3dbde892	0.09272875
199	0xbdedf8cb	-0.11619719
200	0xbcc8caca	-0.02451076
201	0x3dd1f125	0.10251073
202	0xbd21051a	-0.039311506
203	0xbd56272d	-0.052283455
204	0xbbc9fd39	-0.0061642197
205	0x3ce55f60	0.02799958
206	0x3d9a0e2c	0.07522234
207	0x3e118ba4	0.14213425
208	0x3e32ed80	0.17473412
209	0x3db35194	0.08755794
210	0xbc53e588	-0.0129331425
211	0x3da97e0b	0.08275994
212	0xbd3346a3	-0.043768536
213	0xbd180dee	-0.03712266
214	0xbdd6874e	-0.10475026
215	0xbdd22efc	-0.10262868
216	0xbd1464a2	-0.036228783
217	0xbd86e749	-0.06587083
218	0xbdeda088	-0.116028845
219	0x3dac967d	0.08427141
220	0xbdaa5f6c	-0.083189815
221	0xbd950634	-0.07276574
222	0x3dbdce7c	0.092678994
223	0x3dd4055b	0.10352584
224	0xbd0ac0c1	-0.03387523
225	0x3b35ec84	0.0027759383
226	0xbcf013b9	-0.02930628
227	0xbe07b607	-0.13253032
228	0xbc35f425	-0.011105572
229	0x3bfc9e3d	0.007709293
230	0xbdd4c4c9	-0.10389096
231	0xbc27e4c5	-0.010247414
232	0xbdc692f8	-0.09696001
233	0xbce4cb75	-0.027929047
234	0x3c8085c9	0.015688794
235	0x3dc5a17a	0.0964994
236	0x3d94069a	0.07227822
237	0xbd8e6d05	-0.069543876
238	0x3cf28006	0.029602062
239	0x3a6c9c51	0.00090259785
240	0xbd1bfa35	-0.038080413
241	0xbdc41bc5	-0.09575609
242	0xbca7665f	-0.020434557
243	0xbe89a4b4	-0.2688347
244	0xbddd0395	-0.10791699
245	0x3d975dab	0.073909126
246	0xbd0aaa5d	-0.033853877
247	0xbe42fccf	-0.19041751
248	0x3ca1e85f	0.019764123
249	0xbc0c1010	-0.0085487515
250	0xbec0d355	-0.37661234
251	0xbe894329	-0.26809052
252	0x3f1a2ffc	0.6022947
253	0x3eeee875	0.46661726
254	0x3f0318f7	0.5120997
255	0x3d477198	0.048692316

bias f4 [32]
0	0xbf6b4045	-0.9189494
1	0xbf928447	-1.1446618
2	0xbe149a88	-0.14512074
3	0xbe8be33f	-0.27321813
4	0x3c966cea	0.018362481
5	0xbf3778b4	-0.71668553
6	0xbf0fb551	-0.5613604
7	0xbf3d476a	-0.73937094
8	0xbe95d7ec	-0.29266298
9	0xbf35ec68	-0.7106385
10	0xbf6b5c91	-0.9193812
11	0x3f7c13df	0.9846782
12	0xbf021357	-0.5081076
13	0x3ded65f4	0.11591712
14	0xbe255139	-0.16144265
15	0xbe24a6bf	-0.16079234
16	0xbf387790	-0.7205744
17	0xbed83a30	-0.42231894
18	0x3f8d0a8f	1.1018847
19	0xbdaa5379	-0.083167024
20	0x3dd046ee	0.10169779
21	0x3ebaf49c	0.36514747
22	0xbeb677b6	-0.35638207
23	0xbd364604	-0.044500366
24	0x3e1bc3dc	0.15211433
25	0xbd277a45	-0.04088809
26	0xbe8f3c96	-0.2797591
27	0x3eed35e3	0.46330175
28	0x3e88d673	0.26726112
29	0xbf26578d	-0.6497734
30	0x3a6a3e09	0.00089356356
31	0xbf8ddd1b	-1.1083101

weight f4 [32]
0	0x3f800000	1.0
1	0x3f800000	1.0
2	0x3f800000	1.0
3	0x3f800000	1.0
4	0x3f800000	1.0
5	0x3f800000	1.0
6	0x3f800000	1.0
7	0x3f800000	1.0
8	0x3f800000	1.0
9	0x3f800000	1.0
10	0x3f800000	1.0
11	0x3f800000	1.0
12	0x3f800000	1.0
13	0x3f800000	1.0
14	0x3f800000	1.0
15	0x3f800000	1.0
16	0x3f800000	1.0
17	0x3f800000	1.0
18	0x3f800000	1.0
19	0x3f800000	1.0
20	0x3f800000	1.0
21	0x3f800000	1.0
22	0x3f800000	1.0
23	0x3f800000	1.0
24	0x3f800000	1.0
25	0x3f800000	1.0
26	0x3f800000	1.0
27	0x3f800000	1.0
28	0x3f800000	1.0
29	0x3f800000	1.0
30	0x3f800000	1.0
31	0x3f800000	1.0

bias f4 [32]
0	0x00000000	0.0
1	0x00000000	0.0
2	0x00000000	0.0
3	0x00000000	0.0
4	0x00000000	0.0
5	0x00000000	0.0
6	0x00000000	0.0
7	0x00000000	0.0
8	0x00000000	0.0
9	0x00000000	0.0
10	0x00000000	0.0
11	0x00000000	0.0
12	0x00000000	0.0
13	0x00000000	0.0
14	0x00000000	0.0
15	0x00000000	0.0
16	0x00000000	0.0
17	0x00000000	0.0
18	0x00000000	0.0
19	0x00000000	0.0
20	0x00000000	0.0
21	0x00000000	0.0
22	0x00000000	0.0
23	0x00000000	0.0
24	0x00000000	0.0
25	0x00000000	0.0
26	0x00000000	0.0
27	0x00000000	0.0
28	0x00000000	0.0
29	0x00000000	0.0
30	0x00000000	0.0
31	0x00000000	0.0

running_mean f4 [32]
0	0x00000000	0.0
1	0x00000000	0.0
2	0x00000000	0.0
3	0x00000000	0.0
4	0x00000000	0.0
5	0x00000000	0.0
6	0x00000000	0.0
7	0x00000000	0.0
8	0x00000000	0.0
9	0x00000000	0.0
10	0x00000000	0.0
11	0x00000000	0.0
12	0x00000000	0.0
13	0x00000000	0.0
14	0x00000000	0.0
15	0x00000000	0.0
16	0x00000000	0.0
17	0x00000000	0.0
18	0x00000000	0.0
19	0x00000000	0.0
20	0x00000000	0.0
21	0x00000000	0.0
22	0x00000000	0.0
23	0x00000000	0.0
24	0x00000000	0.0
25	0x00000000	0.0
26	0x00000000	0.0
27	0x00000000	0.0
28	0x00000000	0.0
29	0x00000000	0.0
30	0x00000000	0.0
31	0x00000000	0.0

running_var f4 [32]
0	0x3f800000	1.0
1	0x3f800000	1.0
2	0x3f800000	1.0
3	0x3f800000	1.0
4	0x3f800000	1.0
5	0x3f800000	1.0
6	0x3f800000	1.0
7	0x3f800000	1.0
8	0x3f800000	1.0
9	0x3f800000	1.0
10	0x3f800000	1.0
11	0x3f800000	1.0
12	0x3f800000	1.0
13	0x3f800000	1.0
14	0x3f800000	1.0
15	0x3f800000	1.0
16	0x3f800000	1.0
17	0x3f800000	1.0
18	0x3f800000	1.0
19	0x3f800000	1.0
20	0x3f800000	1.0
21	0x3f800000	1.0
22	0x3f800000	1.0
23	0x3f800000	1.0
24	0x3f800000	1.0
25	0x3f800000	1.0
26	0x3f800000	1.0
27	0x3f800000	1.0
28	0x3f800000	1.0
29	0x3f800000	1.0
30	0x3f800000	1.0
31	0x3f800000	1.0

weight f4 [32, 32, 3, 3, 3]
0	0xbcac804d	-0.021057272
1	0xbd92967e	-0.0715761
2	0xbd76cf35	-0.0602562
3	0xbe6e9b28	-0.23301375
4	0xbe61db5e	-0.22056338
5	0xbe1e4dd5	-0.15459378
6	0xbe2a0ff9	-0.16607656
7	0xbda74439	-0.08167309
8	0xbdb5ef32	-0.088835135
9	0x3d63e7a4	0.05564083
10	0xbdd01a47	-0.10161262
11	0xbe38344a	-0.17988697
12	0x3dcd303f	0.10018968
13	0xbde01149	-0.10940797
14	0xbe2191a0	-0.15778208
15	0x3e8eeb6b	0.27913985
16	0x3d94deaa	0.07269032
17	0x3cfbf51b	0.030756524
18	0x3c657aea	0.014006356
19	0x3bf0ea83	0.0073521747
20	0xbc2e3163	-0.010631892
21	0x3bb3f264	0.0054915417
22	0x3da2d20e	0.07950221
23	0x3e398a0e	0.1811907
24	0xbd58fb1f	-0.052973863
25	0x3da7d8bd	0.081956364
26	0x3e088611	0.13332392
27	0x3d93633a	0.0719666
28	0xbe3af1aa	-0.1825625
29	0xbe969bb7	-0.29415676
30	0x3e9b41ec	0.30323732
31	0x3e133c0e	0.14378378
32	0x3da64d35	0.08120195
33	0xbe8e630b	-0.2780994
34	0xbe409eb2	-0.18810537
35	0xbd0cac73	-0.034344148
36	0xbd15fed3	-0.036619972
37	0xbe781208	-0.24225628
38	0x3e45bcb6	0.19310269
39	0xbf3c031e	-0.73442256
40	0xbeeb7391	-0.45986608
41	0xbee22abd	-0.44173232
42	0xbfb424b4	-1.4073701
43	0xbf86ede4	-1.0541348
44	0xbf36fc03	-0.7147829
45	0x3d8665bb	0.06562372
46	0xbdc50fd8	-0.096221626
47	0xbdd97ac1	-0.106191166
48	0x3eae1762	0.34002215
49	0x3e20e0b5	0.15710719
50	0x3e339983	0.17539029
51	0x3e893cf2	0.2680431
52	0x3a7ad6e7	0.0009568766
53	0x3cff6009	0.031173723
54	0x3b6a2260	0.0035726056
55	0x3d0838f2	0.033257432
56	0xbdd90367	-0.10596352
57	0xbddec547	-0.108774714
58	0xbd67fb8b	-0.056636374
59	0xbe11e4c0	-0.14247417
60	0xbdc3fab6	-0.09569304
61	0x3a39a656	0.0007081976
62	0xbc6a7a9d	-0.01431146
63	0xbc8efdda	-0.01745503
64	0x3e107b0f	0.14109443
65	0x3de2efdd	0.110809065
66	0x3afc8c90	0.0019267965
67	0x3dae2229	0.08502609
68	0x3de9a33e	0.11408089
69	0x3e799608	0.24373639
70	0x3dbba52f	0.09162366
71	0x3e52529b	0.20539324
72	0xbd4bc5ad	-0.049749065
73	0x3d8f9cda	0.07012339
74	0xbda4f419	-0.080543704
75	0xbdbc90e8	-0.09207326
76	0xba52a1cf	-0.00080349756
77	0x3db342f5	0.087530054
78	0xbe3ccea2	-0.18438199
79	0xbe57189b	-0.2100548
80	0xbe76b8b4	-0.24093896
81	0xbe2287df	-0.15872143
82	0xbcba53f0	-0.022745103
83	0xbb59defd	-0.0033244484
84	0xbdf5ef5c	-0.12008545
85	0xbe13ec87	-0.14445697
86	0xbdbd0c7a	-0.09230895
87	0x3d7d8387	0.061893012
88	0xbc416c60	-0.011805624
89	0x3d3bb802	0.04582978
90	0xbdaef2f4	-0.085424334
91	0xbc38a763	-0.011270377
92	0xbe22fa96	-0.15915903
93	0xbddb63aa	-0.10712369
94	0xbe070e4e	-0.1318905
95	0xbe5cd3dc	-0.21565193
96	0x3d5cb4fb	0.053883534
97	0xbc767c4c	-0.015044283
98	0xbdd4af21	-0.10384966
99	0xbd35b885	-0.044365425
100	0x3d3e58fa	0.046471573
101	0x3d317df8	0.043333024
102	0x3e2801b2	0.16406897
103	0x3d5e3b3b	0.054255705
104	0x3dc56eba	0.0964026
105	0x3c403c88	0.011733182
106	0x3dc198eb	0.09452995
107	0x3c9285e6	0.017886113
108	0x3e026cec	0.12736863
109	0x3d22d9c2	0.03975845
110	0x3e4ce04a	0.20007434
111	0x3d0b808a	0.03405813
112	0xbcc4be6c	-0.024016581
113	0x3dd1600e	0.10223399
114	0xbb963197	-0.0045835483
115	0x3cc339ea	0.023831327
116	0x3e74c8d5	0.23904736
117	0xbd8f07ce	-0.069839105
118	0xbd7b10fc	-0.061295494
119	0xbc733188	-0.014843352
120	0xbcac4fe4	-0.021034189
121	0x3d78f848	0.060783654
122	0x3c3dab5c	0.0115765
123	0x3ce7c18f	0.028290538
124	0x3d92e1a1	0.071719415
125	0xbd8e640a	-0.06952675
126	0xbe2a8e3b	-0.16655819
127	0xbd8e791d	-0.06956694
128	0x3c848a47	0.016179217
129	0xbce499a8	-0.0279053
130	0x3b84c8b7	0.0040522474
131	0x3cd963f4	0.02653692
132	0x3be6f021	0.0070476686
133	0xbdc3bde7	-0.095577054
134	0xbea69f15	-0.32543245
135	0xbbc80dfc	-0.0061051827
136	0x3db28c10	0.08718121
137	0x3c82da08	0.015973106
138	0x3dbb5c9c	0.09148523
139	0x3dd94851	0.106094964
140	0xbd5df990	-0.05419308
141	0x3ca47842	0.020076875
142	0xbd8d97d4	-0.069137245
143	0xbe572802	-0.21011356
144	0xbc4af98a	-0.012388596
145	0x3e0b4e6d	0.13604136
146	0x3e754b5a	0.23954526
147	0x3cc27433	0.023737049
148	0x3dd97fc1	0.1062007
149	0x3e388e3e	0.18023011
150	0x3b562648	0.0032676626
151	0x3d95159f	0.072795145
152	0x3d87c566	0.06629448
153	0x3d4ac227	0.049501564
154	0x3d3e7dab	0.046506565
155	0xbcff6780	-0.031177282
156	0x3d635420	0.05550015
157	0x3c6ddf02	0.014518501
158	0xbddcebc0	-0.10787153
159	0xbccd2fdf	-0.02504724
160	0xbdff7290	-0.12473023
161	0xbe366a2b	-0.17813937
162	0x3e365ad1	0.17808081
163	0x3e03eeae	0.12884018
164	0x3e1c8800	0.15286255
165	0x3e68f8d4	0.2275117
166	0x3cfb4d2b	0.030676445
167	0x3df520f1	0.11969174
168	0x3ecb275d	0.3967847
169	0x3d770ed5	0.06031688
170	0x3eb1fd80	0.34763718
171	0xbe54e606	-0.20790872
172	0xbead2716	-0.33818883
173	0xbe626bb0	-0.22111392
174	0xbdd6a98d	-0.10481558
175	0xbe4059f2	-0.18784311
176	0x3d8b5426	0.068031594
177	0xbebccf3d	-0.3687686
178	0xbcaaa3f7	-0.020830138
179	0x3eab9e48	0.33519197
180	0xbc36577e	-0.011129258
181	0xbc81315e	-0.01577061
182	0xbddac9cf	-0.10683023
183	0x3d2b50d7	0.04182514
184	0x3d99451f	0.07483887
185	0xbe02f4f5	-0.12788756
186	0x3cdb4026	0.026763987
187	0x3e135b80	0.14390373
188	0xbd4369b5	-0.047708232
189	0xbd6f9a1c	-0.05849658
190	0xbdb1e677	-0.08686536
191	0x3ca57869	0.020199018
192	0x3ad41a65	0.0016182183
193	0xbc0998c2	-0.008398237
194	0x3d58db66	0.05294361
195	0x3cb5144d	0.022104407
196	0x3cf6f422	0.030145708
197	0x3d8c8720	0.068617105
198	0x3e1141ee	0.14185306
199	0x3e559cd3	0.20860605
200	0x3e3df0a9	0.18548836
201	0x3d1ce79a	0.03830681
202	0x3dafb9e2	0.08580376
203	0x3e23c394	0.15992576
204	0x3d5e8b94	0.05433233
205	0x3d6aeaa8	0.057352692
206	0x3da00194	0.07812801
207	0xbec7f65e	-0.3905515
208	0xbe93cdf0	-0.28868055
209	0xbe21c461	-0.15797569
210	0xbe27faaf	-0.16404222
211	0xbd1f9a75	-0.03896566
212	0xbdbd30e4	-0.09237841
213	0xbdcb0e23	-0.09914806
214	0x3e03ce29	0.12871613
215	0xbea227ae	-0.31670898
216	0xbe19996b	-0.1499993
217	0xbe5449be	-0.20731255
218	0xbdedeafa	-0.11617084
219	0xbe7bf844	-0.24606425
220	0xbe55ad6d	-0.20866938
221	0xbe0fae35	-0.14031298
222	0xbe126bed	-0.14298983
223	0xbe1c140f	-0.15242027
224	0xbe60bfdb	-0.21948187
225	0x3de6fe6b	0.11278995
226	0x3cadaaba	0.021199573
227	0x3dd04002	0.101684585
228	0x3dc71d63	0.09722402
229	0xba881411	-0.0010381957
230	0x3ded7202	0.11594011
231	0x3e323dfa	0.17406455
232	0x3dd44af2	0.10365857
233	0x3dcb33ef	0.09922015
234	0x3e2fd888	0.17172444
235	0x3e01f0cf	0.12689517
236	0x3e68f166	0.22748336
237	0x3c349c4f	0.011023595
238	0xbd631087	-0.055435684
239	0x3c6501e7	0.013977504
240	0xbda9449b	-0.082650386
241	0xbe14f501	-0.14546587
242	0xbdc737e4	-0.09727457
243	0xbef2624a	-0.47340614
244	0xbe6a6b9e	-0.22892615
245	0xbc916756	-0.01774947
246	0xbea74e26	-0.3267681
247	0xbe133ffd	-0.14379878
248	0xbdc25ad3	-0.094899796
249	0xbe976872	-0.29571873
250	0xbe02b7c7	-0.12765418
251	0xbdce6cc0	-0.10079336
252	0x3d285683	0.04109813
253	0x3dd067a5	0.101760186
254	0x3d0629e3	0.03275479
255	0x3d0ff91c	0.03514968

bias f4 [32]
0	0x3f328c57	0.6974539
1	0xbf3fd1f8	-0.7492976
2	0xbd3ccf5d	-0.046096195
3	0x3f2c96b5	0.6741746
4	0xbca02b2f	-0.019551842
5	0xbbd7758c	-0.006575292
6	0xbeb87482	-0.36026388
7	0xbed38bb7	-0.4131753
8	0x3eaf7b4f	0.34273764
9	0x3e5b574e	0.21420023
10	0x3e26c95a	0.16287747
11	0xbcc4ef0d	-0.02403977
12	0x3f1b1bd4	0.6058934
13	0x3f6dda7a	0.92911494
14	0xbd52c578	-0.051457852
15	0x3bb322d1	0.005466797
16	0xbc457d11	-0.012053744
17	0xbf21555d	-0.6302088
18	0xbd7164ef	-0.05893415
19	0x3f31746a	0.6931826
20	0x3f50fbaa	0.8163401
21	0x3f3a9e57	0.7289786
22	0x3f421619	0.7581497
23	0x3f09756d	0.536948
24	0xbd0f752d	-0.035023857
25	0xbcb89965	-0.022534082
26	0xbebcf266	-0.36903685
27	0x3f108d65	0.5646575
28	0xbcd2dea8	-0.025740936
29	0x3e78322f	0.24237894
30	0x3c346149	0.011009523
31	0xbef6e1cd	-0.48219147

weight f4 [32]
0	0x3f800000	1.0
1	0x3f800000	1.0
2	0x3f800000	1.0
3	0x3f800000	1.0
4	0x3f800000	1.0
5	0x3f800000	1.0
6	0x3f800000	1.0
7	0x3f800000	1.0
8	0x3f800000	1.0
9	0x3f800000	1.0
10	0x3f800000	1.0
11	0x3f800000	1.0
12	0x3f800000	1.0
13	0x3f800000	1.0
14	0x3f800000	1.0
15	0x3f800000	1.0
16	0x3f800000	1.0
17	0x3f800000	1.0
18	0x3f800000	1.0
19	0x3f800000	1.0
20	0x3f800000	1.0
21	0x3f800000	1.0
22	0x3f800000	1.0
23	0x3f800000	1.0
24	0x3f800000	1.0
25	0x3f800000	1.0
26	0x3f800000	1.0
27	0x3f800000	1.0
28	0x3f800000	1.0
29	0x3f800000	1.0
30	0x3f800000	1.0
31	0x3f800000	1.0

bias f4 [32]
0	0x00000000	0.0
1	0x00000000	0.0
2	0x00000000	0.0
3	0x00000000	0.0
4	0x00000000	0.0
5	0x00000000	0.0
6	0x00000000	0.0
7	0x00000000	0.0
8	0x00000000	0.0
9	0x00000000	0.0
10	0x00000000	0.0
11	0x00000000	0.0
12	0x00000000	0.0
13	0x00000000	0.0
14	0x00000000	0.0
15	0x00000000	0.0
16	0x00000000	0.0
17	0x00000000	0.0
18	0x00000000	0.0
19	0x00000000	0.0
20	0x00000000	0.0
21	0x00000000	0.0
22	0x00000000	0.0
23	0x00000000	0.0
24	0x00000000	0.0
25	0x00000000	0.0
26	0x00000000	0.0
27	0x00000000	0.0
28	0x00000000	0.0
29	0x00000000	0.0
30	0x00000000	0.0
31	0x00000000	0.0

running_mean f4 [32]
0	0x00000000	0.0
1	0x00000000	0.0
2	0x00000000	0.0
3	0x00000000	0.0
4	0x00000000	0.0
5	0x00000000	0.0
6	0x00000000	0.0
7	0x00000000	0.0
8	0x00000000	0.0
9	0x00000000	0.0
10	0x00000000	0.0
11	0x00000000	0.0
12	0x00000000	0.0
13	0x00000000	0.0
14	0x00000000	0.0
15	0x00000000	0.0
16	0x00000000	0.0
17	0x00000000	0.0
18	0x00000000	0.0
19	0x00000000	0.0
20	0x00000000	0.0
21	0x00000000	0.0
22	0x00000000	0.0
23	0x00000000	0.0
24	0x00000000	0.0
25	0x00000000	0.0
26	0x00000000	0.0
27	0x00000000	0.0
28	0x00000000	0.0
29	0x00000000	0.0
30	0x00000000	0.0
31	0x00000000	0.0

running_var f4 [32]
0	0x3f800000	1.0
1	0x3f800000	1.0
2	0x3f800000	1.0
3	0x3f800000	1.0
4	0x3f800000	1.0
5	0x3f800000	1.0
6	0x3f800000	1.0
7	0x3f800000	1.0
8	0x3f800000	1.0
9	0x3f800000	1.0
10	0x3f800000	1.0
11	0x3f800000	1.0
12	0x3f800000	1.0
13	0x3f800000	1.0
14	0x3f800000	1.0
15	0x3f800000	1.0
16	0x3f800000	1.0
17	0x3f800000	1.0
18	0x3f800000	1.0
19	0x3f800000	1.0
20	0x3f800000	1.0
21	0x3f800000	1.0
22	0x3f800000	1.0
23	0x3f800000	1.0
24	0x3f800000	1.0
25	0x3f800000	1.0
26	0x3f800000	1.0
27	0x3f800000	1.0
28	0x3f800000	1.0
29	0x3f800000	1.0
30	0x3f800000	1.0
31	0x3f800000	1.0

weight f4 [32, 32, 3, 3, 3]
0	0xbe35d9ae	-0.1775882
1	0xbdf5b6f7	-0.119977884
2	0xbe88ed14	-0.26743376
3	0x3d65ee70	0.056135595
4	0x3d32a0ad	0.043610264
5	0x3ca81261	0.020516576
6	0xbe09eff4	-0.13470441
7	0xbbb26686	-0.0054443507
8	0x3c9f69cb	0.019459626
9	0xbe2247f5	-0.15847762
10	0xbe1b40f3	-0.15161495
11	0x3d7aa864	0.061195746
12	0xbdeaf9d7	-0.114734344
13	0xbdd2ddac	-0.10296187
14	0x3c8e42c0	0.017365813
15	0xbe809f3f	-0.25121495
16	0xbd6bca73	-0.057566117
17	0xbd89dc40	-0.067314625
18	0xbe1cdf77	-0.1531962
19	0xbeb1d046	-0.34729213
20	0xbf052802	-0.5201417
21	0x3e0a77d3	0.13522272
22	0x3d0ce344	0.034396425
23	0xbcc350b9	-0.023842202
24	0xbddd9875	-0.108200945
25	0x3db4b5a9	0.088237114
26	0x3e10c860	0.14138937
27	0x3e8b34bf	0.2718868
28	0x3db73801	0.08946229
29	0x3e00f6c8	0.1259414
30	0x3df4a1e4	0.11944941
31	0xbda67462	-0.08127667
32	0x3e0a6259	0.13514079
33	0x3ea0b978	0.313915
34	0xbd5ecd39	-0.054394934
35	0x3e1313ee	0.14363071
36	0xbe42a4bf	-0.19008158
37	0x3e492441	0.19642736
38	0x3e1c57ab	0.15267818
39	0xbefc8114	-0.4931723
40	0xbd135c01	-0.035976414
41	0x3ba25be6	0.004954803
42	0xbf66453d	-0.899494
43	0xbe04a6ce	-0.12954256
44	0xbe52b72a	-0.20577684
45	0xbe60fb31	-0.21970822
46	0xbeb441ac	-0.35206354
47	0xbeb5784a	-0.35443336
48	0xbd97e0be	-0.07415913
49	0xbe969f2b	-0.2941831
50	0xbe85555e	-0.26041692
51	0xbf615695	-0.8802274
52	0xbf6e4cbd	-0.93085843
53	0xbfb8747e	-1.441055
54	0xbe3152c1	-0.17316724
55	0x3dbba683	0.09162619
56	0xbe30e973	-0.17276554
57	0xbd8baa4e	-0.068195924
58	0x3da331bc	0.079684705
59	0xbe0cb4c3	-0.1374083
60	0x3d4847a3	0.048896443
61	0x3da35fa1	0.07977224
62	0xbdb4fe42	-0.08837558
63	0xbdebb329	-0.115087815
64	0x3e2a4298	0.16626966
65	0xbd8d3c6c	-0.0689629
66	0xbdd10668	-0.102063
67	0x3d19cb8f	0.037547644
68	0xbd180d1a	-0.03712187
69	0xbd0f7e4a	-0.035032548
70	0x3d8d1f13	0.068906926
71	0x3cba71e6	0.02275939
72	0xbdab506e	-0.0836495
73	0x3d30ecc9	0.043194566
74	0xbb3f93d3	-0.0029232397
75	0x3dbab0ba	0.09115739
76	0x3e28e895	0.16494973
77	0x3db1b9d1	0.0867802
78	0xbe3cf43e	-0.18452546
79	0xbdd7d65d	-0.105389334
80	0xbdcad79e	-0.09904407
81	0xbe994c89	-0.29941204
82	0xbde93ceb	-0.11388572
83	0x3b164b0f	0.0022932922
84	0x3e2f5052	0.17120484
85	0xbc6fc585	-0.014634495
86	0x3d4c2a02	0.04984475
87	0xbe6deb65	-0.23234327
88	0xbe328749	-0.1743442
89	0xbe13dc9f	-0.14439629
90	0xbe2d8b5a	-0.1694769
91	0xbd065c68	-0.03280297
92	0x3d077db6	0.03307887
93	0xbe606481	-0.21913339
94	0xbdea1c74	-0.11431208
95	0xbc8a04bf	-0.016847966
96	0xbe6ac874	-0.2292803
97	0xbe7b5246	-0.24543104
98	0xbdcdc8c2	-0.10048057
99	0x3e98a11c	0.29810417
100	0xbe00adbf	-0.12566279
101	0xbd9d052c	-0.07667002
102	0x3e062cb8	0.13102996
103	0x3d151788	0.036399394
104	0x3cdc5fba	0.026901115
105	0x3ef63dbc	0.48093975
106	0x3da8994e	0.082323655
107	0x3e3b5948	0.18295777
108	0x3d67d989	0.056603942
109	0x3dcfc48c	0.1014491
110	0x3db65a20	0.08903909
111	0x3d8efeef	0.069822185
112	0x3dca036f	0.09863936
113	0x3e0c5766	0.13705215
114	0x3c3bb8ba	0.011457616
115	0x3e1a7dcf	0.15087055
116	0x3e0c8c4e	0.13725397
117	0xbd02d2f4	-0.03193946
118	0x3e086c32	0.13322523
119	0x3dc8adeb	0.09798797
120	0x3ceff466	0.029291343
121	0xbc904fb6	-0.017616134
122	0xbd9017a6	-0.070357606
123	0xbd885d45	-0.06658415
124	0xbddd430b	-0.10803803
125	0xbe72f625	-0.23726709
126	0x3df245ca	0.118297175
127	0x3e97f005	0.29675308
128	0x3e59125a	0.21198407
129	0x3d6b5a41	0.05745912
130	0x3deacbff	0.114646904
131	0x3c0d2a40	0.00861603
132	0xbcf7a174	-0.030228354
133	0xbd9c41e1	-0.07629753
134	0xbe8b2b22	-0.27181345
135	0xbd97b179	-0.07406897
136	0xbdfe9a6d	-0.12431798
137	0xbd7728bd	-0.060341585
138	0x3d1344b5	0.035954196
139	0x3de83967	0.11339074
140	0xbd6bd5d8	-0.057576984
141	0xbdf8fbc8	-0.121573985
142	0xbb0665ce	-0.0020507458
143	0xbe89ca43	-0.26912126
144	0x3c55c283	0.0130468635
145	0xbe67eb66	-0.22648391
146	0x3dac810b	0.084230505
147	0xbdc727f1	-0.09724415
148	0xbe31cd68	-0.17363513
149	0xbd1cc302	-0.03827191
150	0x3d17ccb2	0.037060447
151	0x3e0b0fe3	0.13580279
152	0x3d87c6bc	0.066297024
153	0x3e4ac22a	0.1980063
154	0xbe89902b	-0.26867804
155	0x3df6c81f	0.12049889
156	0x3e9f87e6	0.3115837
157	0x3dff3084	0.124604255
158	0x3e504bce	0.20341417
159	0x3e7f7370	0.2494638
160	0x3dc1e930	0.09468305
161	0xbbff728a	-0.0077956365
162	0x3d09c4cd	0.03363495
163	0xbd0bdfb1	-0.034148876
164	0x3dbdb631	0.09263266
165	0x3cac0311	0.020997556
166	0x3c90b062	0.01766223
167	0x3e07c8c8	0.13260186
168	0x3cca64a6	0.024706196
169	0xba84ac8a	-0.0010122221
170	0x3df8109e	0.121125445
171	0x3e2a1079	0.16607846
172	0x3db754cf	0.08951723
173	0xbd78a22d	-0.060701538
174	0x3d92bf9a	0.07165451
175	0x3e07fb3b	0.1327943
176	0x3d0c938c	0.0343204
177	0x3dec2c8f	0.115319364
178	0x3e3eb8d9	0.18625201
179	0x3d27d17f	0.040971275
180	0x3e84f2c4	0.25966465
181	0xbea34594	-0.3188902
182	0x3ec5bf74	0.3862263
183	0xbe001e51	-0.12511565
184	0xbd6d1d9e	-0.057889573
185	0x3db613e4	0.088905126
186	0xbe03e6c1	-0.12880994
187	0x3e004185	0.12524994
188	0x3d18d0d3	0.037308525
189	0xbe35e9ec	-0.17765015
190	0x3d18f967	0.037347224
191	0xbd8eec25	-0.06978635
192	0xbd16e3f5	-0.03683849
193	0x3ce4fc64	0.02795238
194	0x3c18cef4	0.009326685
195	0x3d6a1305	0.057147045
196	0x3d7b4469	0.061344538
197	0xbc2307d5	-0.009950598
198	0xbe300dd4	-0.17192775
199	0x3e16ce0d	0.1472704
200	0xbd8098b0	-0.06279123
201	0xbe8c60b5	-0.27417532
202	0x3da8fe11	0.08251584
203	0xbd80aa64	-0.062824994
204	0xbebb26a6	-0.36552924
205	0xbd4f0f6b	-0.050551813
206	0xbe333479	-0.17500485
207	0x3e66493e	0.22488877
208	0xbe21b3b9	-0.15791215
209	0x3dffc3b6	0.12488501
210	0x3ed34e83	0.41270837
211	0xbe210ee4	-0.15728337
212	0x3e67876c	0.22610253
213	0x3f24f4eb	0.64436215
214	0xbc996b57	-0.018727941
215	0x3e756245	0.23963268
216	0xbcce0907	-0.025150789
217	0xbbf4862e	-0.0074622845
218	0x3c1a1b2c	0.009405892
219	0xbc3c5e9d	-0.011497167
220	0xbdfc5ae6	-0.12322025
221	0xbe63f4bb	-0.22261326
222	0xbe180d9f	-0.14848946
223	0xbd1af780	-0.03783369
224	0xbe178d14	-0.14799911
225	0x3e11c813	0.14236479
226	0xbbb764d7	-0.005596738
227	0x3d94436b	0.072394215
228	0xbd72fb81	-0.059321884
229	0xbe417d61	-0.18895485
230	0xbdb60527	-0.088877015
231	0x3e078bdc	0.13236946
232	0xbdea31bd	-0.11435268
233	0xbda34e26	-0.0797389
234	0xbe858f25	-0.26085773
235	0xbd86a595	-0.06574551
236	0xbd32c55b	-0.043645244
237	0xbddf8e47	-0.10915809
238	0x3dbb520c	0.091465086
239	0x3d01d968	0.031701475
240	0x3dd1b95e	0.10240434
241	0x3cdaa7a8	0.026691273
242	0xbd14637c	-0.03622769
243	0xbdd293ac	-0.102820724
244	0xbd6d740f	-0.05797201
245	0xbc4813d4	-0.012211759
246	0x3ddad10c	0.10684404
247	0x3db32e1c	0.08749029
248	0x3d7b5b50	0.06136638
249	0xbda25858	-0.079270065
250	0x3d047659	0.032339428
251	0x3e0146d8	0.12624681
252	0xbe33e63e	-0.17568299
253	0x3e1e4f3d	0.15459915
254	0xbd820d92	-0.063502446
255	0x3c8cdc7e	0.017194983

bias f4 [32]
0	0x3f443b01	0.7665253
1	0x3d7ee506	0.062230133
2	0xba8ebdb0	-0.0010890272
3	0x3f8b7930	1.0896358
4	0x3b912ad6	0.0044301553
5	0x3efd586c	0.49481523
6	0xbf130229	-0.5742517
7	0x3ef8ab05	0.48567978
8	0x3f337cad	0.70112115
9	0x3f2093de	0.6272563
10	0x3f1e1fcf	0.61767286
11	0x3f2976cd	0.661969
12	0xbc8e54c3	-0.017374402
13	0x3f81b498	1.0133238
14	0xbc13d80e	-0.009023679
15	0xbcb7fdb3	-0.02245984
16	0xbf10fe95	-0.5663846
17	0xbef669b1	-0.4812751
18	0x3f185492	0.59504044
19	0x3f858e4b	1.0434049
20	0x3f6be72e	0.9214963
21	0x3f3f0c4a	0.74628127
22	0x3eed007d	0.46289435
23	0x3dcaabb3	0.0989603
24	0xbaf4b2e0	-0.0018669032
25	0xbd1a0cda	-0.037609912
26	0x3f2b0888	0.6680989
27	0xbcd60869	-0.026127057
28	0xbd0a105e	-0.033707015
29	0x3ea600f8	0.32422614
30	0xbc992f0d	-0.018699193
31	0xbcaaf41e	-0.020868357

weight f4 [32]
0	0x3f800000	1.0
1	0x3f800000	1.0
2	0x3f800000	1.0
3	0x3f800000	1.0
4	0x3f800000	1.0
5	0x3f800000	1.0
6	0x3f800000	1.0
7	0x3f800000	1.0
8	0x3f800000	1.0
9	0x3f800000	1.0
10	0x3f800000	1.0
11	0x3f800000	1.0
12	0x3f800000	1.0
13	0x3f800000	1.0
14	0x3f800000	1.0
15	0x3f800000	1.0
16	0x3f800000	1.0
17	0x3f800000	1.0
18	0x3f800000	1.0
19	0x3f800000	1.0
20	0x3f800000	1.0
21	0x3f800000	1.0
22	0x3f800000	1.0
23	0x3f800000	1.0
24	0x3f800000	1.0
25	0x3f800000	1.0
26	0x3f800000	1.0
27	0x3f800000	1.0
28	0x3f800000	1.0
29	0x3f800000	1.0
30	0x3f800000	1.0
31	0x3f800000	1.0

bias f4 [32]
0	0x00000000	0.0
1	0x00000000	0.0
2	0x00000000	0.0
3	0x00000000	0.0
4	0x00000000	0.0
5	0x00000000	0.0
6	0x00000000	0.0
7	0x00000000	0.0
8	0x00000000	0.0
9	0x00000000	0.0
10	0x00000000	0.0
11	0x00000000	0.0
12	0x00000000	0.0
13	0x00000000	0.0
14	0x00000000	0.0
15	0x00000000	0.0
16	0x00000000	0.0
17	0x00000000	0.0
18	0x00000000	0.0
19	0x00000000	0.0
20	0x00000000	0.0
21	0x00000000	0.0
22	0x00000000	0.0
23	0x00000000	0.0
24	0x00000000	0.0
25	0x00000000	0.0
26	0x00000000	0.0
27	0x00000000	0.0
28	0x00000000	0.0
29	0x00000000	0.0
30	0x00000000	0.0
31	0x00000000	0.0

running_mean f4 [32]
0	0x00000000	0.0
1	0x00000000	0.0
2	0x00000000	0.0
3	0x00000000	0.0
4	0x00000000	0.0
5	0x00000000	0.0
6	0x00000000	0.0
7	0x00000000	0.0
8	0x00000000	0.0
9	0x00000000	0.0
10	0x00000000	0.0
11	0x00000000	0.0
12	0x00000000	0.0
13	0x00000000	0.0
14	0x00000000	0.0
15	0x00000000	0.0
16	0x00000000	0.0
17	0x00000000	0.0
18	0x00000000	0.0
19	0x00000000	0.0
20	0x00000000	0.0
21	0x00000000	0.0
22	0x00000000	0.0
23	0x00000000	0.0
24	0x00000000	0.0
25	0x00000000	0.0
26	0x00000000	0.0
27	0x00000000	0.0
28	0x00000000	0.0
29	0x00000000	0.0
30	0x00000000	0.0
31	0x00000000	0.0

running_var f4 [32]
0	0x3f800000	1.0
1	0x3f800000	1.0
2	0x3f800000	1.0
3	0x3f800000	1.0
4	0x3f800000	1.0
5	0x3f800000	1.0
6	0x3f800000	1.0
7	0x3f800000	1.0
8	0x3f800000	1.0
9	0x3f800000	1.0
10	0x3f800000	1.0
11	0x3f800000	1.0
12	0x3f800000	1.0
13	0x3f800000	1.0
14	0x3f800000	1.0
15	0x3f800000	1.0
16	0x3f800000	1.0
17	0x3f800000	1.0
18	0x3f800000	1.0
19	0x3f800000	1.0
20	0x3f800000	1.0
21	0x3f800000	1.0
22	0x3f800000	1.0
23	0x3f800000	1.0
24	0x3f800000	1.0
25	0x3f800000	1.0
26	0x3f800000	1.0
27	0x3f800000	1.0
28	0x3f800000	1.0
29	0x3f800000	1.0
30	0x3f800000	1.0
31	0x3f800000	1.0

weight f4 [1, 32, 3, 3, 3]
0	0x3c4c3d57	0.012465796
1	0x3bb52b7d	0.005528866
2	0x3ba18ee1	0.0049303626
3	0x3c3541ef	0.011063083
4	0x3b708b95	0.003670429
5	0x3b06cc1b	0.0020568434
6	0x3c8ff148	0.017571107
7	0x3c019c64	0.007910822
8	0x3b6f98cb	0.0036559578
9	0x3c2ff1d1	0.010738806
10	0x3c8fb8e5	0.01754422
11	0x3be4e1b3	0.0069849133
12	0x3c7dd58e	0.01549281
13	0x3cdcb63f	0.02694237
14	0x3c0a8b47	0.008456058
15	0x3caf764f	0.021418719
16	0x3cd0c8a3	0.025486296
17	0x3c21d036	0.0098763015
18	0x3c961b73	0.018323636
19	0x3ce61a99	0.028088855
20	0xba9d609a	-0.0012006939
21	0x3d2393f5	0.039936025
22	0x3d8017b5	0.06254522
23	0x3cb3fbfe	0.021970745
24	0x3d1427e6	0.036170863
25	0x3d4b2c19	0.0496026
26	0x3c35c588	0.011094458
27	0x3c46eb85	0.012141113
28	0xbc18c3e5	-0.009324049
29	0xbd43ca22	-0.04780019
30	0x3c6d06c6	0.014466947
31	0xbb302e11	-0.0026882926
32	0xbcca5027	-0.024696423
33	0x3d003e09	0.03130916
34	0x3bd024d3	0.006352046
35	0xbc2d4bb6	-0.010577133
36	0x3bf95ed3	0.007610181
37	0xbc471808	-0.012151726
38	0xbd862bd1	-0.06551326
39	0x3cbaf477	0.022821648
40	0x3c9306c4	0.017947562
41	0xbcd727b4	-0.02626405
42	0x3d2c5254	0.0420707
43	0x3c8b3dbe	0.016997214
44	0xbc1aba2d	-0.009443802
45	0xba95f8e8	-0.0011441978
46	0xbc0a47f9	-0.008440011
47	0xbdb384c5	-0.08765558
48	0x3c88a4f8	0.016680226
49	0x3c9c9c62	0.019117538
50	0xbd0772cf	-0.033068474
51	0x3d1ffed5	0.039061386
52	0x3c92507b	0.017860642
53	0xbc586e82	-0.013209941
54	0xbcef2ccd	-0.029196167
55	0xbd1520f2	-0.036408372
56	0xbcdc2589	-0.026873367
57	0x3ab31f6c	0.0013665981
58	0xbbbc2720	-0.0057419688
59	0xbcd22591	-0.025652679
60	0x3bd57740	0.00651446
61	0xbc96c8e9	-0.018406348
62	0xbcdb5fad	-0.02677902
63	0xbd8b1ede	-0.06792997
64	0xbd9ff378	-0.0781011
65	0xbcb4956e	-0.02204391
66	0xbcda01e6	-0.026612233
67	0xbca9e168	-0.020737365
68	0xbc8bdf7b	-0.017074337
69	0xbd291ad8	-0.041285366
70	0xbd4f7b39	-0.050654624
71	0xbd0e8c40	-0.03480172
72	0xbd76d116	-0.060257994
73	0xbd7526de	-0.05985152
74	0xbd15c785	-0.03656723
75	0xbc75e96c	-0.015009265
76	0xbcd5997a	-0.02607416
77	0xbce2bd69	-0.027678208
78	0xbd47d04c	-0.04878263
79	0xbd8a384d	-0.0674902
80	0xbd87c8c6	-0.06630091
81	0x3cd9d261	0.026589574
82	0x3bec7d50	0.007217087
83	0x3ce6fb20	0.028195918
84	0x3c219caf	0.009864016
85	0x3c934f22	0.01798207
86	0x3c8b1f73	0.01698277
87	0x3cf1a5a9	0.029497938
88	0x3cc715ee	0.02430245
89	0x3d0ca7f2	0.034339853
90	0x3c82d53c	0.015970819
91	0x3c1bbea6	0.009505903
92	0x3c98575b	0.018596342
93	0x3c258adf	0.01010391
94	0x3cae7b36	0.021298986
95	0x3c3d07d5	0.011537512
96	0x3c85e4dd	0.016344482
97	0x3c912027	0.017715527
98	0x3cf8cc8d	0.030370975
99	0x3c7e48f2	0.015520321
100	0xb5f179c4	-1.7991338e-06
101	0x3c71889c	0.014742043
102	0x3b936d92	0.004499146
103	0x3c596851	0.0132695
104	0xba84eca0	-0.001014132
105	0x3c7ed9a0	0.0155548155
106	0x3c2e565c	0.010640707
107	0x3cec6a36	0.02885924
108	0xbd1438c9	-0.036186967
109	0xbb31d59d	-0.002713538
110	0xbc49b644	-0.012311522
111	0xbcd314df	-0.025766788
112	0xbce840fa	-0.028351296
113	0xbcf62f28	-0.030051783
114	0xbc8361c7	-0.016037835
115	0xbc59c4e5	-0.013291572
116	0xbd4d5567	-0.050130274
117	0xbd54a93c	-0.051919207
118	0xbc72ed97	-0.014827154
119	0xbcd119e2	-0.025525037
120	0xbcbe38b1	-0.023220392
121	0xbcd11ce3	-0.02552647
122	0xbca622fd	-0.020280356
123	0xbd0ab778	-0.033866376
124	0xbcde12e1	-0.027108612
125	0xbd8b2f08	-0.0679608
126	0xbd4e0e73	-0.05030675
127	0xbb4b3b9e	-0.0031010876
128	0xbd38ade3	-0.045087706
129	0x3c276391	0.01021661
130	0xbcb287f6	-0.021793347
131	0xbd1ad9c0	-0.03780532
132	0xbbd32af5	-0.00644433
133	0xbb6bb3bd	-0.0035965287
134	0xbd7848d7	-0.06061634
135	0x3cd6120f	0.026131658
136	0x3cdc143b	0.026865115
137	0x3d17b620	0.037038922
138	0x3c3a9529	0.011388102
139	0x3c7c1087	0.0153848
140	0x3ca8954e	0.020579007
141	0x3cf8b457	0.03035943
142	0x3cc52203	0.02406407
143	0x3d2f3678	0.042776555
144	0x3cdb2545	0.02675117
145	0x3cad1eeb	0.021132907
146	0x3cf76e3e	0.030203935
147	0x3c0ecf39	0.008716398
148	0x3c374ac7	0.011187262
149	0x3c87d977	0.016583188
150	0x3cbd3749	0.023097651
151	0x3ca1a810	0.019733459
152	0x3d05fd12	0.03271205
153	0x3cb47cab	0.022032103
154	0x3cdbfd12	0.026854072
155	0x3ce7c5af	0.028292505
156	0x3bcc6464	0.0062375534
157	0x3c75b8f7	0.014997712
158	0x3c820e94	0.015876092
159	0x3c91af6e	0.017783847
160	0x3cd204b6	0.025637012
161	0x3cdf6f86	0.027274858
162	0xbca12e3f	-0.019675372
163	0xbc3191b0	-0.010837957
164	0xbc00a470	-0.007851705
165	0xbb241e22	-0.0025042375
166	0xbbdb122d	-0.0066855163
167	0x3a0b2e96	0.0005309371
168	0xbc0b9539	-0.008519464
169	0xbb44fc32	-0.0030057547
170	0xbc05f762	-0.008176656
171	0xbceca51a	-0.02888732
172	0xbc4794a1	-0.012181432
173	0xbc644137	-0.013931564
174	0xbbc88ede	-0.0061205467
175	0xbbfbca79	-0.0076840487
176	0x3a2535d4	0.00063022715
177	0xbc4b200e	-0.012397779
178	0xbbfec130	-0.0077744946
179	0xbc31857c	-0.010835048
180	0xbd2d7a15	-0.042352755
181	0xbce180b8	-0.027527198
182	0xbc8e15b8	-0.01734434
183	0xbcb58c12	-0.022161517
184	0xbd5e1996	-0.05422362
185	0xbc55156f	-0.013005598
186	0xbce1ef88	-0.027580038
187	0xbc889246	-0.016671311
188	0xbc19f4e4	-0.009396765
189	0x3cff9f99	0.031204032
190	0x3c01768d	0.0079018
191	0x3d1cf833	0.03832264
192	0x3ca3f7d1	0.020015629
193	0x3b204533	0.0024455308
194	0x3cde2c97	0.027120871
195	0x3cd86a8d	0.026417995
196	0x3b4c4d82	0.0031174128
197	0x3d19d235	0.037553985
198	0x3c36e579	0.011163109
199	0xbbcffa5e	-0.0063469848
200	0x3c97efda	0.018546987
201	0x3c74a498	0.01493182
202	0xbb69dfc7	-0.003568636
203	0x3ccd5fc0	0.025070071
204	0x3cad88e8	0.021183446
205	0xbc164e5f	-0.009173959
206	0x3d051faa	0.0325009
207	0x3a2851c5	0.0006420876
208	0xbb3e69d0	-0.0029054768
209	0x3c0ed8a0	0.00871864
210	0x3ba9cd03	0.00518191
211	0xbbd8c1b5	-0.0066148886
212	0x3c0a3154	0.008434612
213	0x3c4337d1	0.011915163
214	0xbbc493b5	-0.0059990534
215	0x3ca85c19	0.020551728
216	0x3d8a19b0	0.06743181
217	0xbbb77fda	-0.005599958
218	0x3d5e80ec	0.05432217
219	0x3c8dd7e3	0.017314857
220	0x3bab4218	0.005226385
221	0x3c771f43	0.015083137
222	0x3d846718	0.06464976
223	0x3c328738	0.0108964965
224	0x3d4a9e02	0.049467094
225	0x3d5bbc70	0.053646505
226	0xbc2a40d2	-0.010391431
227	0x3d344303	0.04400922
228	0x3c81f696	0.015864652
229	0x3b0c9528	0.0021451209
230	0x3c97f839	0.018550979
231	0x3d5f0798	0.0544506
232	0x3c536d3e	0.012904463
233	0x3d41a975	0.047280747
234	0x3d090185	0.033448715
235	0xbbaf91dc	-0.005357964
236	0x3d0b26af	0.03397244
237	0x3c8286cd	0.015933419
238	0x3c695a4d	0.014242721
239	0x3c9d987a	0.019237746
240	0x3d31fdba	0.043454863
241	0x3c2034c4	0.009778205
242	0x3d37eb7b	0.044902306
243	0x3c9fa1a8	0.019486263
244	0x3b543f8e	0.0032386514
245	0x3ce4382d	0.027858818
246	0x3b78d755	0.0037970145
247	0x3b6ce110	0.003614489
248	0x3bc1948c	0.0059076007
249	0x3bb63632	0.00556066
250	0x3b8d0756	0.004303853
251	0x3b86984b	0.00410751
252	0x3cb082d3	0.021546757
253	0x3b4af625	0.0030969467
254	0x3d064424	0.032779828
255	0x3bd7ee73	0.0065897047
