model/Swin_1.pt (torch, 264855 bytes, 48 tensors)

weight f4 [32, 30, 2, 2]
0.45176998 -0.9732746 -0.79189044 -0.09846691 -1.1718779 -0.15464623 -0.993798 -0.12124362
-1.0062054 -2.1184275 -2.0190525 -2.255767 -0.6194675 -2.3166533 -1.0296086 -2.534556
0.31402904 1.6871258 1.6229788 2.8481467 0.84100986 -0.64229035 0.92784005 -0.48514274
-1.5886458 -0.3746504 -1.3351611 -0.042640593 -0.012210735 -0.7681999 -0.887299 -0.8795438
-0.24224992 -1.8087385 -0.6809908 -2.1905117 -1.3391812 -0.3782985 -0.123484544 1.0461575
1.0392979 -1.7096063 1.9069823 0.2743593 -2.2386367 -0.5554886 -1.9280263 -0.53735316
1.1327976 0.33001968 0.34536314 0.2723354 0.045490324 -1.6170808 -0.5409462 -1.894859
-0.7031831 -0.531876 -0.23728451 -0.2701586 -0.5477819 -0.53911746 0.87922484 -0.70423615
-4.0122023 -2.1539307 -3.694023 -1.9033957 1.582689 0.7684698 0.7844398 0.8778783
1.6493211 -0.47287634 0.75566673 -1.0887485 0.22806762 1.4857752 -0.8579548 0.1344131
-1.9736229 -3.0519161 0.7086704 0.30255827 -4.361668 -1.9062455 -4.055727 -1.753898
2.4311857 1.5426034 1.6609427 1.6201956 1.8725414 -0.71422434 1.5661889 -0.95515907
1.3734226 3.8239088 -0.39442286 1.09474 -0.91242474 -0.53916895 2.3548222 1.6901921
-1.4105141 0.780332 -1.4643371 0.50849795 3.091626 2.5639277 2.2351055 2.6542847
-0.23079258 -2.0779774 -0.57896334 -2.2694902 4.4258146 7.3051457 4.246697 7.5532613
-0.79811656 -0.8213563 -0.5976567 -0.5472944 -0.9510843 -1.1210185 -0.8422255 -0.9484793
-1.6225015 -2.674682 -1.8847233 -2.6551967 -1.9624298 -2.3251708 -1.5118839 -1.7391014
1.012298 1.2993542 0.38341677 0.7208674 -1.1011615 -0.60419816 -0.3044167 -0.7555173
-1.3493667 -1.1626569 -1.1176814 -0.9701989 -0.3468826 -1.4597497 -0.57788116 -1.4591248
-0.79095525 -1.3412232 -0.58416086 -0.8822166 1.1450683 1.4183755 -0.5226229 0.47683153
-0.84042615 -0.9522784 -0.6574422 -1.1822081 -1.2614475 -1.2255082 -1.4495997 -1.0239145
0.6264887 -0.431841 0.36581612 -0.23182963 -0.20106198 -0.60589516 -0.05489687 -0.33803344
2.121397 2.298213 0.32581818 1.5748702 0.21138503 -0.57114065 0.5473929 -0.48719758
-1.4598348 -1.4203924 -1.9088824 -1.4542984 1.6556991 0.6034692 1.542719 0.95247287
0.110251844 -0.25791043 0.34643772 0.07243415 0.052405547 0.022691656 0.77715427 1.9031286
1.961942 1.239574 1.1399742 0.61274725 -0.08393517 -0.18179046 -0.3161381 -0.18360732
2.1207254 1.1859893 2.1119578 1.5010748 -0.4352632 -0.84154814 -0.4302014 -0.64957154
8.01585 6.2727547 5.1231084 4.0458694 2.3042831 1.330396 1.80502 3.0398939
1.5911615 1.2057962 1.0261815 0.8662882 2.2933002 1.3402607 3.4340448 2.860698
-0.28624836 -0.07354181 0.531633 1.0585614 -9.410092 -9.604239 -9.230158 -10.083569
-0.15710485 0.068151034 -0.71939266 -1.2514843 2.864292 2.664087 1.5955893 1.9946209
2.025569 0.70855343 0.8000388 0.8175667 7.3823514 6.2521586 8.841559 8.264642
00000000: 654e e73e 8628 79bf 55b9 4abf 05a9 c9bd
00000010: 1800 96bf 955b 1ebe 8c69 7ebf 934e f8bd
00000020: 57cb 80bf 5194 07c0 2838 01c0 7d5e 10c0
00000030: 6c95 1ebf 0c44 14c0 37ca 83bf 2a36 22c0
00000040: 6ac8 a03e bdf3 d73f c5bd cf3f 0948 3640
00000050: 6c4c 573f 246d 24bf ed86 6d3f a164 f8be
00000060: bf58 cbbf 2dd2 bfbe 8fe6 aabf e7a7 2ebd
00000070: 890f 48bc c0a8 44bf 0726 63bf c829 61bf
00000080: 5d10 78be be84 e7bf 6a55 2ebf 5831 0cc0
00000090: 4a6a abbf 57b0 c1be 77e5 fcbd 7de8 853f
000000a0: b707 853f 61d4 dabf ff17 f43f d278 8c3e
000000b0: d345 0fc0 8034 0ebf 91c9 f6bf fa8f 09bf
000000c0: 83ff 903f 57f8 a83e 70d3 b03e 8c6f 8b3e
000000d0: 1054 3a3d 81fc cebf 737b 0abf bd8a f2bf
000000e0: cf03 34bf 0729 08bf b6fa 72be 3a52 8abe
000000f0: 6f3b 0cbf 9a03 0abf e114 613f d248 34bf
00000100: f663 80c0 00da 09c0 df6a 6cc0 78a2 f3bf
00000110: 8e95 ca3f 70ba 443f 0cd1 483f a2bc 603f
00000120: f41c d33f d91c f2be 6073 413f 1c5c 8bbf
00000130: 8f8a 693e e22d be3f eda2 5bbf 96a3 093e
00000140: ad9f fcbf 9852 43c0 6c6b 353f ebe8 9a3e
00000150: c992 8bc0 daff f3bf 84c8 81c0 bb7f e0bf
00000160: 8c98 1b40 0774 c53f c599 d43f 9262 cf3f
00000170: 70af ef3f 68d7 36bf e178 c83f 4e85 74bf
00000180: 50cc af3f ecba 7440 cbf1 c9be 7120 8c3f
00000190: ab94 69bf fa06 0abf 68b5 1640 3758 d83f
000001a0: ba8b b4bf d7c3 473f 666f bbbf ec2c 023f
000001b0: 33dd 4540 6417 2440 f80b 0f40 cddf 2940
000001c0: e454 6cbe 95fd 04c0 f136 14bf 543f 11c0
000001d0: 46a0 8d40 c1c3 e940 f1e4 8740 51b4 f140
000001e0: 5e51 4cbf 6844 52bf 0800 19bf 7c1b 0cbf
000001f0: 437a 73bf 897d 8fbf 179c 57bf 8acf 72bf
00000200: 21ae cfbf fd2d 2bc0 9d3e f1bf beee 29c0
00000210: e630 fbbf 99cf 14c0 6985 c1bf e09a debf
00000220: fb92 813f 3d51 a63f 344f c43e c48a 383f
00000230: dcf2 8cbf bbac 1abf 81dc 9bbe 9569 41bf
00000240: 0cb8 acbf f1d1 94bf 2f10 8fbf f55e 78bf
00000250: 999a b1be 14d9 babf 05f0 13bf 9ac4 babf
00000260: 0b7c 4abf 34ad abbf 918b 15bf f2d8 61bf
00000270: 9991 923f 548d b53f 9dca 05bf 4323 f43e
00000280: 2b26 57bf 84c8 73bf 224e 28bf 9852 97bf
00000290: 1d77 a1bf 74dd 9cbf 7c8c b9bf a10f 83bf
000002a0: 9061 203f 431a ddbe 404c bb3e bf64 6dbe
000002b0: 31e3 4dbe f21b 1bbf 8adb 60bd b812 adbe
000002c0: f8c4 0740 ec15 1340 a4d1 a63e 5995 c93f
000002d0: 5175 583e 4636 12bf f121 0c3f f671 f9be
000002e0: dedb babf 6bcf b5bf 4256 f4bf 7326 babf
000002f0: f3ed d33f f57c 1a3f d177 c53f 43d5 733f
00000300: b8cb e13d d60c 84be 4960 b13e 5b58 943d
00000310: 33a7 563d dae3 b93c 95f3 463f b899 f33f
00000320: ea20 fb3f 5caa 9e3f adea 913f 01dd 1c3f
00000330: 34e6 abbd 4727 3abe dadc a1be 8f03 3cbe
00000340: f7b9 0740 7fce 973f 512a 0740 3823 c03f
00000350: d1da debe b36f 57bf 5c43 dcbe 524a 26bf
00000360: ec40 0041 68ba c840 81f0 a340 c377 8140
00000370: 6079 1340 6b4a aa3f e50a e73f 9f8d 4240
00000380: 2eab cb3f 8857 9a3f ea59 833f 10c5 5d3f
00000390: 6ec5 1240 aa8d ab3f 64c7 5b40 ad15 3740
000003a0: 258f 92be 179d 96bd 1a19 083f f17e 873f
000003b0: bd8f 16c1 f7aa 19c1 baae 13c1 4c56 21c1
000003c0: 18e0 20be c592 8b3d 1e2a 38bf a330 a0bf
000003d0: 8f50 3740 6780 2a40 453c cc3f bd4f ff3f
000003e0: eca2 0140 c263 353f 58cf 4c3f 0d4c 513f
000003f0: 393c ec40 af11 c840 0777 0d41 f93b 0441

bias f4 [32]
1.8338233 -0.92237955 -0.51298845 5.7029953 7.213321 0.95127743 0.3115465 -3.3743956
-1.5612003 0.5999071 -2.1204906 -0.3142915 -4.1040716 2.5699558 0.790852 4.506137
-2.1479185 2.0472794 -0.83985883 -8.361962 2.1024122 -1.3114121 -16.152382 -3.5829754
-1.035 -0.861585 -3.4835906 0.36252466 -3.6988952 -7.5406957 2.83 -2.5650358
00000000: b9ba ea3f 1121 6cbf 3653 03bf f07e b640
00000010: 87d3 e640 eb86 733f 0683 9f3e 19f6 57c0
00000020: 69d5 c7bf 8393 193f 1eb6 07c0 d1ea a0be
00000030: 8e54 83c0 287a 2440 4775 4a3f 4632 9040
00000040: 7f77 09c0 a006 0340 fd00 57bf 99ca 05c1
00000050: ec8d 0640 5adc a7bf 1438 81c1 784f 65c0
00000060: e17a 84bf d690 5cbf 26f3 5ec0 d59c b93e
00000070: b3ba 6cc0 614d f1c0 b81e 3540 8c29 24c0

weight f4 [32]
-25.639736 2.0998974 17.943102 -18.986374 4.3157425 11.415194 9.066112 -1.1306298
1.2928166 1.110748 0.65400827 13.82086 8.078296 12.911284 18.862434 -1.5535111
7.764052 2.4234474 8.461408 5.8098397 -17.240707 10.726174 5.68171 8.942927
-0.012199514 4.9680943 -17.738346 1.4850727 -22.40302 4.442311 -1.6873178 0.047849666
00000000: 2e1e cdc1 b864 0640 798b 8f41 18e4 97c1
00000010: 901a 8a40 a2a4 3641 cb0e 1141 7ab8 90bf
00000020: 047b a53f fe2c 8e3f 166d 273f 3e22 5d41
00000030: b340 0141 9f94 4e41 44e6 9641 74d9 c6bf
00000040: 1d73 f840 c319 1b40 ed61 0741 35ea b940
00000050: f8ec 89c1 699e 2b41 91d0 b540 3b16 0f41
00000060: 78e0 47bc a1fa 9e40 22e8 8dc1 dd16 be3f
00000070: 6339 b3c1 6927 8e40 08fa d7bf 03fe 433d

bias f4 [32]
1.0118456 -1.0790558 -2.9547725 4.575893 5.0640283 0.8219255 -0.8884383 -3.4501562
-1.5711136 0.799189 -1.5074521 0.33618647 -2.2280674 1.4229938 0.15430869 5.606965
-0.75522876 0.9315508 0.24202901 -4.702759 9.610285 -2.5198047 -13.179155 -2.347872
1.991841 -0.66030264 -7.643811 0.31410974 -6.382474 -6.4253674 -3.4293718 -3.172868
00000000: 2884 813f 801e 8abf fe1a 3dc0 b76d 9240
00000010: 850c a240 b669 523f b170 63bf 5ccf 5cc0
00000020: 401a c9bf a697 4c3f 31f4 c0bf a220 ac3e
00000030: a898 0ec0 a924 b63f 1903 1e3e 426c b340
00000040: ac56 41bf 1d7a 6e3f 74d6 773e 007d 96c0
00000050: bac3 1941 7b44 21c0 d2dd 52c1 8943 16c0
00000060: a5f4 fe3f 9809 29bf 1a9a f4c0 fed2 a03e
00000070: 3a3d ccc0 9c9c cdc0 d47a 5bc0 4510 4bc0

relative_position_table f4 [81, 4]
-0.0148919895 -0.03162354 -0.020095283 0.015328405 -0.0037747445 0.022473464 -0.007046403 -0.0063877404
-0.035711866 0.0066265063 -0.023090992 0.0020015817 0.013278894 0.007182116 0.007528511 0.007327149
0.0021365413 0.0013409129 0.007863425 -0.01810502 0.005792551 0.016352478 0.04414604 -0.0008046794
0.022218361 -0.03194908 0.005529027 0.020623734 0.008363109 0.0019573085 0.03835719 -0.012061953
-0.035100687 -0.022676537 -0.010295925 0.03135897 0.011265524 -0.020518774 0.006114628 0.0005425712
0.016258728 -0.0014378097 -0.025145547 -0.006973427 -0.018209938 0.033666816 0.0129688 0.0010250797
-0.02136356 0.0051019816 0.009644096 0.021945262 -0.015951447 -0.002674214 0.0014222915 -0.04782547
-0.0046107764 -0.011991875 0.05009206 0.020830918 0.000646401 -0.035631597 0.015094347 -0.00026074296
0.0059731044 -0.03322809 0.036672086 -0.009836083 -0.031165311 -0.035206825 -0.020571128 -0.009031404
0.017797105 0.010287495 0.020810073 0.0009097821 -0.0060074315 0.016685361 0.006619581 -0.010317679
0.004001898 -0.013591029 -0.0070468737 -0.006061744 -0.012589684 -0.021718627 -0.06049793 -0.021846108
-0.017847894 0.015135194 -0.010091974 -0.00081705744 -0.034747194 0.0050376756 -0.0093435105 -0.0010186826
0.027002309 -0.019379364 -0.002541264 0.028154366 0.014329 0.0067857 -0.015676118 -0.04288998
0.030816857 -0.0019768346 -0.012045492 0.011512901 0.004666422 -0.010584974 0.044331685 0.05622318
0.024278017 0.012559509 0.0010974375 -0.013169378 0.025426317 -0.010832248 0.003318768 -0.0028305661
-0.011619689 -0.025748122 0.016827242 -0.0044100857 0.0074358424 -0.023617472 0.010866534 0.0021905294
0.014947271 0.010443642 0.019287223 0.012899782 0.013781662 -0.020208742 -0.0231031 0.014700405
0.011065586 -0.012664155 0.0106029995 -0.02494317 0.012052041 0.025804391 -0.0045190826 0.027510012
-0.030217951 0.0008905698 0.00050721236 0.011666525 -0.01148031 0.010910465 0.02407379 -0.0023619721
0.0034069484 -0.019825142 -0.0015595651 -0.01676766 0.020701345 -0.016619384 -0.011200504 0.019258192
-0.017822651 -0.004598761 0.022939363 -0.0018367638 1.3073086e-05 0.007309251 0.005307429 0.0025468247
-0.004725201 -0.012238559 0.014509054 0.018504726 -0.023554623 -0.027443413 0.015034751 -0.04488542
-0.010865072 0.016224641 0.017881125 -0.0033275085 0.009319701 0.0045333994 0.03378729 0.00034630913
-0.0077371886 -0.012622009 -0.014493267 -0.023357663 0.016104857 -0.013074348 -0.030018087 -0.03599723
-0.028195228 -0.012238081 -0.0108044455 -0.0051000183 0.0018459434 0.027106669 0.006630825 -0.029040115
-0.005525845 0.0002630201 -0.0062307115 -0.0022384378 -0.008240194 -0.030147515 -0.02835209 0.031084578
-0.014707345 0.018132623 -0.0032212217 0.012449388 0.025853334 -0.0021886292 0.018791012 0.005766702
-0.0076857787 -0.0014911143 -0.0034912813 0.0066420427 0.0060127554 0.0171832 0.030131176 -0.0064380476
-0.00017448232 0.022690596 0.033057317 -0.02449361 -0.00053994963 -0.002281917 -0.026868545 -0.0475491
-0.002305646 0.0015127315 0.031551816 0.0031824685 0.0010515064 0.020791879 -0.0130435 0.023316903
0.00666662 0.009677627 -0.016707456 -0.011197264 -0.008582759 -0.011821471 -0.029152006 -0.020556381
0.03439093 0.008037971 -0.0045748446 -0.015278507 0.019941658 -0.0044179545 0.010908187 -0.016434943
00000000: 88fd 73bc af87 01bd dd9e a4bc fe23 7b3c
00000010: b461 77bb 451a b83c 83e5 e6bb 4050 d1bb
00000020: 9b46 12bd 2a23 d93b 5229 bdbc f82c 033b
00000030: b88f 593c f557 eb3b bab1 f63b 9518 f03b
00000040: 3705 0c3b 92c1 af3a 98d5 003c fb50 94bc
00000050: 71cf bd3b a2f5 853c 7ad2 343d 1ff1 52ba
00000060: 4803 b63c 0add 02bd d72c b53b 1bf3 a83c
00000070: 6c05 093c 3046 003b 6e1c 1d3d 7f9f 45bc
00000080: bdc5 0fbd 25c4 b9bc 3db0 28bc 4372 003d
00000090: 0893 383c fd16 a8bc 385d c83b 563b 0e3a
000000a0: 0631 853c e374 bcba 09fe cdbc 5881 e4bb
000000b0: 022d 95bc 37e6 093d 177b 543c f85b 863a
000000c0: a202 afbc 862e a73b 4502 1e3c 8dc6 b33c
000000d0: 9cac 82bc de41 2fbb 2f6c ba3a a4e4 43bd
000000e0: ff15 97bb 9279 44bc 552d 4d3d 9aa5 aa3c
000000f0: 3d73 293a 70f2 11bd 484e 773c 54b4 88b9
00000100: 08ba c33b 2d1a 08bd 7835 163d 8627 21bc
00000110: 654e ffbc 0835 10bd c884 a8bc 74f8 13bc
00000120: 3ccb 913c e28c 283c e379 aa3c 717e 6e3a
00000130: fdd9 c4bb bdaf 883c 12e9 d83b 7b0b 29bc
00000140: 5b22 833b e8ac 5ebc 76e9 e6bb 98a1 c6bb
00000150: f644 4ebc 43eb b1bc adcc 77bd 9cf6 b2bc
00000160: bf35 92bc 9bf9 773c cf58 25bc cc2f 56ba
00000170: 1353 0ebd 1613 a53b 8615 19bc 5185 85ba
00000180: f233 dd3c 79c1 9ebc 568b 26bb fca3 e63c
00000190: 2fc4 6a3c 945a de3b 346b 80bc 67ad 2fbd
000001a0: a273 fc3c c88d 01bb 755a 45bc 9ba0 3c3c
000001b0: c9e8 983b 996c 2dbc 2495 353d 474a 663d
000001c0: b1e2 c63c 66c6 4d3c e4d7 8f3a 60c4 57bc
000001d0: da4a d03c be79 31bc b07f 593b 0581 39bb
000001e0: 8260 3ebc baed d2bc 49d9 893c 7b82 90bb
000001f0: 5ea8 f33b 6e79 c1bc 8c09 323c fc8e 0f3b
00000200: 66e5 743c cf1b 2b3c 3d00 9e3c 9b59 533c
00000210: 7bcc 613c ce8c a5bc b642 bdbc f8d9 703c
00000220: 6e4c 353c 517d 4fbc 34b8 2d3c 9e55 ccbc
00000230: ec75 453c bb63 d33c d014 94bb ad5c e13c
00000240: a38b f7bc 2175 693a 72f6 043a f424 3f3c
00000250: e917 3cbc cfc1 323c 6636 c53c 51cb 1abb
00000260: 1c47 5f3b 5668 a2bc 526a ccba 555c 89bc
00000270: de95 a93c 6025 88bc 5282 37bc 5bc3 9d3c
00000280: cf00 92bc 34b1 96bb 55eb bb3c 91bf f0ba
00000290: 7a54 5b37 7182 ef3b f1e9 ad3b a1e8 263b
000002a0: dcd5 9abb 3d84 48bc 62b7 6d3c 3997 973c
000002b0: a0f5 c0bc 02d1 e0bc 5154 763c c6d9 37bd
000002c0: 6a03 32bc 8ae9 843c 707b 923c 5412 5abb
000002d0: a9b1 183c e98c 943b 8b64 0a3d d390 b539
000002e0: 3e88 fdbb 8bcc 4ebc 2b75 6dbc 9258 bfbc
000002f0: 55ee 833c ca35 56bc 7ee8 f5bc d571 13bd
00000300: aef9 e6bc 3b82 48bc 2105 31bc 0e1e a7bb
00000310: 95f3 f13a ce0e de3c 6447 d93b 89e5 edbc
00000320: 2612 b5bb f6e5 8939 ff2a ccbb c1b2 12bb
00000330: e101 07bc ecf7 f6bc a442 e8bc 16a5 fe3c
00000340: 13f7 70bc de8a 943c 221b 53bb 85f8 4b3c
00000350: 5fca d33c 1b6f 0fbb 9cef 993c 9af6 bc3b
00000360: fcd8 fbbb 7e71 c3ba fbcd 64bb 7ea5 d93b
00000370: a606 c53b c8c3 8c3c a8d5 f63c 42f6 d2bb
00000380: 3ef5 36b9 a1e1 b93c 1c67 073d d3a6 c8bc
00000390: 688b 0dba 378c 15bb 6c1b dcbc d8c2 42bd
000003a0: 521a 17bb d946 c63a 7a3c 013d f690 503b
000003b0: b3d2 893a bb53 aa3c 67b4 55bc 1703 bf3c
000003c0: a973 da3b e98e 1e3c 13de 88bc bb74 37bc
000003d0: b39e 0cbc d8ae 41bc 30d0 eebc db65 a8bc
000003e0: 81dd 0c3d b2b1 033c 94e8 95bb b452 7abc
000003f0: b05c a33c 7dc4 90bb 41b8 323c 93a2 86bc

weight f4 [96, 32]
-0.0021500804 -0.013400967 -0.03748383 0.000380239 0.009177745 0.020309856 -0.0257062 0.018136192
-0.023237465 0.024190066 0.02866599 0.0105862655 -0.044891134 0.007421849 0.015257984 0.034931675
-0.0003492977 -0.020321509 -0.0133719845 0.0011055866 0.0031401236 -0.032797545 -0.008352084 0.01149889
0.011488974 -0.030067349 -0.020976622 -0.0016415527 -0.017585618 -0.010542034 -0.036038596 -0.05183741
-0.02710461 0.0077770744 -0.025867417 0.00057813496 0.029812098 0.020080982 -0.005390393 0.009862628
-0.021404717 -0.015389157 -0.012539656 -0.007708468 -0.044660036 0.004886566 0.020411763 -0.0033477037
0.00026679147 0.0074777855 -0.012612055 -0.00529136 0.011798978 0.018841024 -0.010930433 -0.018337477
-0.0001542729 0.0052497652 0.0096723335 0.00988633 0.015956145 -0.0020989797 -0.016350806 -0.023542456
-0.008228719 -0.0073106056 -0.011471147 0.0031642427 -0.02479333 0.004783975 -0.011537504 -0.01988237
-0.024369616 0.011560688 -0.038746435 -0.008351184 -0.021492817 -0.013073168 0.00850523 -0.008258882
-0.01246304 -0.019456722 -0.001563956 -0.018470574 0.038572956 -0.023091229 -0.005340586 0.007879414
-0.004755553 0.010345426 -0.03358924 -0.020359173 -0.0135047585 0.025280172 -0.03705285 0.025727933
-0.0034416951 -0.013004584 0.014735941 0.028894499 -0.028600782 -0.014032054 -0.021470627 -0.050529655
0.005374585 0.014510554 -7.365766e-05 -0.02130403 0.036218707 0.0033642503 0.0051817275 0.020296954
-0.0038626874 -0.008464024 0.019810237 0.014345605 -0.0005059539 0.020713914 0.031092808 0.014136536
-0.0041168313 -0.015749706 0.02992165 -0.0040675616 0.025168914 0.023000503 -0.02334568 0.025446633
-0.01583726 0.0014484841 -0.03576034 -0.02791734 0.041587166 0.0043711313 -0.010273654 -0.02330787
-0.012188367 -0.0007892095 -0.008840507 -0.020420728 -0.0059254523 -0.0031270224 0.008904688 0.007786511
-0.015346289 -0.015162571 0.0061261742 -0.0149985 0.035361294 0.005260656 0.008013075 0.026720084
-0.018621864 -0.011595473 0.013134339 0.02530095 -0.005299153 -0.018908618 -0.0041581597 0.029105473
-0.016279738 -0.03708918 0.03542593 -0.0034625558 0.039404303 -0.0126880845 -0.010519919 -0.025676427
-0.0037364368 -0.005990347 0.025177622 -0.008612796 0.004255956 -0.011946709 -0.013239848 0.0034993764
-0.0026547145 0.02490053 0.02023852 0.00460456 -0.01627945 -0.016150597 -0.012359205 -0.013324306
0.024568167 -0.030572267 -0.02212394 -0.003730033 -0.006940222 -0.01748508 -0.0065515894 -0.01145235
-0.0013771799 0.002019199 -0.01495723 0.020608503 0.010275171 -0.0029242856 -0.00922752 0.03293629
0.02036651 0.009366171 0.008056734 -0.023845205 -0.005082666 -0.011131961 -0.017630842 -0.005827467
0.008466779 -0.009198613 0.028450357 0.014230789 0.027111536 -0.0091750175 0.0029285382 -0.00091451115
-0.02363927 -0.013826314 -0.0018276448 -0.0009005422 0.018690713 0.022715569 0.002014613 0.035027195
0.013468041 -0.01019307 -0.002147631 0.022314405 0.0036443202 0.036123652 0.035812344 -0.025252746
-0.028471574 -0.011911321 -0.01940817 0.002881097 -0.008496261 -5.9269714e-05 0.00585978 -0.012162695
-0.00781693 -0.0025362757 -0.02214836 -0.024660496 -0.018880088 -0.011993177 -0.004294657 0.0019410929
0.02598853 0.011337468 0.0075977203 -0.037468527 0.0064705303 0.053892583 0.020083416 -0.017016945
00000000: 5de8 0cbb bb8f 5bbc a588 19bd d15a c739
00000010: 415e 163c db60 a63c cf95 d2bc 5a92 943c
00000020: 7f5c bebc 3f2a c63c f0d4 ea3c 0472 2d3c
00000030: c4df 37bd fb32 f33b a0fc 793c 8414 0f3d
00000040: f221 b7b9 4b79 a6bc 2b16 5bbc 55e9 903a
00000050: 88ca 4d3b b856 06bd 2ed7 08bc d765 3c3c
00000060: 403c 3c3c cd4f f6bc 2ad7 abbc 5e29 d7ba
00000070: b70f 90bc 7fb8 2cbc 359d 13bd 7753 54bd
00000080: 7d0a debc d4d6 fe3b e8e7 d3bc fb8d 173a
00000090: 8038 f43c df80 a43c e5a1 b0bb dc96 213c
000000a0: f258 afbc ce22 7cbc 2173 4dbc 5197 fcbb
000000b0: 71ed 36bd 7d1f a03b 9236 a73c 2665 5bbb
000000c0: 25e0 8b39 3608 f53b cba2 4ebc 2563 adbb
000000d0: 8050 413c 7e58 9a3c 8f15 33bc 7a38 96bc
000000e0: 51c4 21b9 3906 ac3b b578 1e3c 46fa 213c
000000f0: 76b6 823c 098f 09bb 20f2 85bc 1cdc c0bc
00000100: c0d1 06bc ce8d efbb 7af1 3bbc 2f5f 4f3b
00000110: 621b cbbc e4c2 9c3b cd07 3dbc 5ae0 a2bc
00000120: caa2 c7bc 0a69 3d3c 95b4 1ebd 68d3 08bc
00000130: b411 b0bc d730 56bc 8559 0b3c 4350 07bc
00000140: c731 4cbc b463 9fbc a8fd ccba 9a4f 97bc
00000150: adfe 1d3d d129 bdbc 1500 afbb a818 013c
00000160: 78d4 9bbb dd7f 293c df94 09bd 48c8 a6bc
00000170: 1043 5dbc 5d18 cf3c bbc4 17bd 63c3 d23c
00000180: 108e 61bb 2e11 55bc 046f 713c 28b4 ec3c
00000190: 304c eabc b3e6 65bc 2be3 afbc 2ff8 4ebd
000001a0: 491d b03b adbd 6d3c a878 9ab8 ca85 aebc
000001b0: 115a 143d c17a 5c3b 7bcb a93b cc45 a63c
000001c0: 2425 7dbb b1ac 0abc 1449 a23c d409 6b3c
000001d0: fea1 04ba 3ab0 a93c 58b6 fe3c ee9c 673c
000001e0: 7ce6 86bb 8705 81bc 401e f53c 2e49 85bb
000001f0: 0a2f ce3c 8d6b bc3c 713f bfbc 7575 d03c
00000200: 24bd 81bc 10db bd3a 6f79 12bd e8b2 e4bc
00000210: 4e57 2a3d b53b 8f3b d452 28bc 25f0 bebc
00000220: b7b1 47bc f4e2 4eba c6d7 10bc 5f49 a7bc
00000230: 4c2a c2bb bbee 4cbb f8e4 113c fd25 ff3b
00000240: 006f 7bbc 6f6c 78bc 13be c83b 45bc 75bc
00000250: 01d7 103d 9561 ac3b 4649 033c 14e4 da3c
00000260: e18c 98bc f0fa 3dbc 6931 573c f043 cf3c
00000270: 84a4 adbb 3fe6 9abc 2c41 88bb 9a6e ee3c
00000280: 165d 85bc d3ea 17bd c81a 113d 0cec 62bb
00000290: 6866 213d afe1 4fbc bd5b 2cbc 5f57 d2bc
000002a0: 02df 74bb ac4a c4bb 4d41 ce3c af1c 0dbc
000002b0: 8c75 8b3b 21bc 43bc f3eb 58bc cb55 653b
000002c0: b8fa 2dbb 32fc cb3c 41cb a53c d9e1 963b
000002d0: 7b5c 85bc 424e 84bc 437e 4abc 314e 5abc
000002e0: 2e43 c93c b172 fabc 443d b5bc 9273 74bb
000002f0: cd6a e3bb df3c 8fbc b7ae d6bb a3a2 3bbc
00000300: 7d82 b4ba 8a54 043b 2b0f 75bc 2ad3 a83c
00000310: 3159 283c 5fa5 3fbb 062f 17bc 34e8 063d
00000320: abd7 a63c 9274 193c 6400 043c 0557 c3bc
00000330: 7e8c a6bb d462 36bc 8e6e 90bc 56f4 bebb
00000340: 3fb8 0a3c c8b5 16bc b910 e93c 4128 693c
00000350: 0319 de3c d052 16bc b8ec 3f3b cebb 6fba
00000360: 24a7 c1bc c487 62bc 958d efba 5d12 6cba
00000370: 441d 993c 0016 ba3c 9907 043b ad78 0f3d
00000380: 0fa9 5c3c d600 27bc 45bf 0cbb b3cc b63c
00000390: 8cd5 6e3b 65f6 133d f7af 123d d9de cebc
000003a0: 383d e9bc b427 43bc e2fd 9ebc c9d0 3c3b
000003b0: e733 0bbc 5f98 78b8 6603 c03b 0a46 47bc
000003c0: 9512 00bc a537 26bb 7a70 b5bc cf04 cabc
000003d0: 6aaa 9abc 087f 44bc 32ba 8cbb 456c fe3a
000003e0: e6e5 d43c cac0 393c 4cf6 f83b 9978 19bd
000003f0: be06 d43b 78be 5c3d fa85 a43c 1f67 8bbc

bias f4 [96]
0.0 0.0 0.0 0.0 0.0 0.0 0.0 0.0
0.0 0.0 0.0 0.0 0.0 0.0 0.0 0.0
0.0 0.0 0.0 0.0 0.0 0.0 0.0 0.0
0.0 0.0 0.0 0.0 0.0 0.0 0.0 0.0
0.0 0.0 0.0 0.0 0.0 0.0 0.0 0.0
0.0 0.0 0.0 0.0 0.0 0.0 0.0 0.0
0.0 0.0 0.0 0.0 0.0 0.0 0.0 0.0
0.0 0.0 0.0 0.0 0.0 0.0 0.0 0.0
0.0 0.0 0.0 0.0 0.0 0.0 0.0 0.0
0.0 0.0 0.0 0.0 0.0 0.0 0.0 0.0
0.0 0.0 0.0 0.0 0.0 0.0 0.0 0.0
0.0 0.0 0.0 0.0 0.0 0.0 0.0 0.0
00000000: 0000 0000 0000 0000 0000 0000 0000 0000
00000010: 0000 0000 0000 0000 0000 0000 0000 0000
00000020: 0000 0000 0000 0000 0000 0000 0000 0000
00000030: 0000 0000 0000 0000 0000 0000 0000 0000
00000040: 0000 0000 0000 0000 0000 0000 0000 0000
00000050: 0000 0000 0000 0000 0000 0000 0000 0000
00000060: 0000 0000 0000 0000 0000 0000 0000 0000
00000070: 0000 0000 0000 0000 0000 0000 0000 0000
00000080: 0000 0000 0000 0000 0000 0000 0000 0000
00000090: 0000 0000 0000 0000 0000 0000 0000 0000
000000a0: 0000 0000 0000 0000 0000 0000 0000 0000
000000b0: 0000 0000 0000 0000 0000 0000 0000 0000
000000c0: 0000 0000 0000 0000 0000 0000 0000 0000
000000d0: 0000 0000 0000 0000 0000 0000 0000 0000
000000e0: 0000 0000 0000 0000 0000 0000 0000 0000
000000f0: 0000 0000 0000 0000 0000 0000 0000 0000
00000100: 0000 0000 0000 0000 0000 0000 0000 0000
00000110: 0000 0000 0000 0000 0000 0000 0000 0000
00000120: 0000 0000 0000 0000 0000 0000 0000 0000
00000130: 0000 0000 0000 0000 0000 0000 0000 0000
00000140: 0000 0000 0000 0000 0000 0000 0000 0000
00000150: 0000 0000 0000 0000 0000 0000 0000 0000
00000160: 0000 0000 0000 0000 0000 0000 0000 0000
00000170: 0000 0000 0000 0000 0000 0000 0000 0000

weight f4 [32, 32]
-0.025831286 -0.001715542 0.01935962 0.028166484 0.011703843 0.008613894 0.010438902 -0.026672157
0.005284785 -0.0050129485 -0.022650002 -0.035700046 0.035058875 0.015954072 0.013430394 0.021092424
0.010255216 0.021642344 -0.051032905 -0.008482783 -0.03509337 0.017854773 0.0022864616 0.015685085
-0.002863574 0.007861091 -0.017135909 -0.0010023736 0.0018458684 -0.012624663 0.0029534735 0.015686076
0.044829093 -0.005951696 -0.0284106 -0.019629156 -0.03234377 0.014875647 0.014226655 0.035903778
-0.006607837 0.021878727 -0.0028682896 -0.0017460005 -0.0031169103 4.325626e-05 0.035566438 0.0039973743
0.024448616 0.0017187122 0.04796334 -0.0072182636 0.0052291076 -0.026004875 0.025892666 0.022048436
0.002403785 0.029784337 -0.020847427 -0.0038322178 0.012808836 -0.038258463 -0.007794809 -0.016943367
-0.00460541 0.0021988803 0.003708046 -0.00924118 0.014712451 0.004361892 -0.0047791474 -0.005585825
-0.0014016429 0.038442962 -0.013065458 -0.0093893325 0.007760824 -0.019346254 -0.016244989 0.026298054
0.004987699 -0.018373052 0.007765077 -0.014714946 0.02569816 0.016338266 0.004576369 0.017701514
-0.0043826816 -0.029975086 0.039444968 -0.01663115 -0.011237468 0.0014682284 -0.023371704 0.025343835
-0.0024063825 -0.013960885 0.00082300586 0.038429778 -0.018903816 0.02865205 0.0018278009 -0.014500036
-0.0066426042 -0.022599688 -0.028134162 0.005322575 0.00043307716 0.026373947 -0.0026485259 -0.008469505
-0.0018512399 -0.0018254303 0.03045689 0.016098674 0.0014719467 0.038169 0.01602693 -0.031662125
0.00830791 -0.014446255 -0.017439164 0.028339965 0.009997501 -0.016927227 -0.011689434 0.026413392
0.043940317 0.0017599488 0.0011354161 0.013687578 -0.028740754 -0.004413025 -0.019579671 -0.005248033
0.036045067 0.019205112 -0.020781547 0.008132806 0.02384546 -0.016390538 0.021930281 -0.011030936
-0.011789491 -0.021838678 0.014727585 -0.021563146 -0.021726463 0.0042252 -0.0040754844 0.015303751
0.009181395 -0.019931227 -0.008528394 -0.026168698 0.014528044 0.026273062 -0.01946818 -0.013926635
0.013065052 0.0065122517 -0.012619306 0.01579206 -0.006812759 0.006514026 -0.02021271 0.0043182266
-0.0031318804 0.017566182 0.0040343613 -0.03821574 0.00415369 0.002293479 -0.031062448 -0.015918924
0.019866066 0.04011925 0.012834591 0.043142304 -0.04724889 -0.018534793 -0.022872152 -0.013676674
0.004119081 0.005980963 0.01921516 -0.00825392 -0.005752057 0.0231127 -0.019676855 -0.028220419
0.008868623 0.017384 0.007386047 0.011773579 0.012624951 -0.01644698 0.013836509 -0.035991482
0.006738371 -0.016496165 -0.01397226 -9.767948e-05 -0.042789042 0.014255802 -0.0050957645 0.010051377
0.027522044 0.03144385 0.005791729 -0.018485615 -0.022134809 -0.01941017 0.026044805 -0.054190747
0.011953478 -0.023583172 0.016948592 0.0010218453 0.022911357 0.027600221 0.0075639756 0.002102339
0.0002976351 -0.006615487 -0.0006610477 0.03895217 -0.007966252 -0.027805993 -0.007804137 0.002384752
-0.034691364 -0.00012695469 0.014234745 0.025912749 -0.013071729 -0.0010538764 0.0018079615 -0.023203203
-0.013257145 0.025249938 -0.0032278758 0.008467674 -0.0004436248 0.02343606 -0.030013073 0.010396914
0.003787296 0.019291578 -0.023345824 -0.027926518 0.021611422 -0.01847689 0.025631761 0.015905358
00000000: 229c d3bc 0adc e0ba 1198 9e3c 66bd e63c
00000010: 7ac1 3f3c 4a21 0d3c ee07 2b3c 917f dabc
00000020: fd2b ad3b a943 a4bb 7f8c b9bc 363a 12bd
00000030: e599 0f3d 1db2 823c 280b 5c3c 05ca ac3c
00000040: 7e05 283c 494b b13c e107 51bd 5ffb 0abc
00000050: 11be 0fbd 2c44 923c 76d8 153b 027e 803c
00000060: cdaa 3bbb cecb 003c 9b60 8cbc 1462 83ba
00000070: 11f1 f13a add7 4ebc 108f 413b 1680 803c
00000080: b69e 373d 7206 c3bb 59bd e8bc 53cd a0bc
00000090: e77a 04bd fcb8 733c ea16 693c d70f 133d
000000a0: 8e86 d8bb 043b b33c eaf9 3bbb 0eda e4ba
000000b0: 1445 4cbb 0e6e 3538 1dae 113d 68fc 823b
000000c0: 7748 c83c 6946 e13a 3575 443d 2f87 ecbb
000000d0: ef58 ab3b 2d08 d5bc db1c d43c ec9e b43c
000000e0: d288 1d3b 48fe f33c 39c8 aabc f225 7bbb
000000f0: 27dc 513c e8b4 1cbd 996b ffbb d1cc 8abc
00000100: fbe8 96bb 171b 103b b002 733b 5168 17bc
00000110: 7e0c 713c 34ee 8e3b 659a 9cbb 4c09 b7bb
00000120: 55b7 b7ba 5e76 1d3d 8110 56bc b7d5 19bc
00000130: 834e fe3b 097c 9ebc 3614 85bc 046f d73c
00000140: da6f a33b 1583 96bc 3072 fe3b f516 71bc
00000150: f384 d23c d4d7 853c 5ef5 953b c402 913c
00000160: 999c 8fbb 508e f5bc 0c91 213d 0d3e 88bc
00000170: 5b1d 38bc 9271 c03a 0476 bfbc e09d cf3c
00000180: 66b4 1dbb 32bc 64bc fdbe 573a 8b68 1d3d
00000190: 2ddc 9abc b4b7 ea3c d292 ef3a 8f91 6dbc
000001a0: 34aa d9bb fb22 b9bc 9d79 e6bc ff68 ae3b
000001b0: a20e e339 2d0e d83c e492 2dbb aec3 0abc
000001c0: 4ea5 f2ba 4743 efba ba80 f93c 5ee1 833c
000001d0: 56ee c03a 1957 1c3d e94a 833c 25b0 01bd
000001e0: e61d 083c fcaf 6cbc 94dc 8ebc 3729 e83c
000001f0: 8fcc 233c f8aa 8abc 0a85 3fbc e660 d83c
00000200: c3fa 333d 15ae e63a 3ed2 943a dd41 603c
00000210: bb71 ebbc 239b 90bb 8c65 a0bc b1f7 abbb
00000220: fea3 133d 0a54 9d3c 103e aabc 763f 053c
00000230: 8e57 c33c 7345 86bc 22a7 b33c 19bb 34bc
00000240: b628 41bc 07e7 b2bc f84b 713c 32a5 b0bc
00000250: b2fb b1bc 8c73 8a3b a48b 85bb 96bc 7a3c
00000260: 906d 163c d046 a3bc adba 0bbc bd5f d6bc
00000270: 0807 6e3c 9b3a d73c bc7b 9fbc 8a2c 64bc
00000280: cd0e 563c ba64 d53b 35c1 4ebc 5a5e 813c
00000290: 913d dfbb 9c73 d53b 2095 a5bc e97f 8d3b
000002a0: 3c40 4dbb f4e6 8f3c ad32 843b 1c88 1cbd
000002b0: ad1b 883b 314e 163b ad76 febc 6768 82bc
000002c0: 29be a23c 1554 243d 2d48 523c fcb5 303d
000002d0: 0d88 41bd 47d6 97bc 615e bbbc 2114 60bc
000002e0: 5bf9 863b f4fb c33b 1c69 9d3c 733b 07bc
000002f0: c07b bcbb d856 bd3c 5b31 a1bc 822e e7bc
00000300: b34d 113c e468 8e3c a706 f23b f8e5 403c
00000310: e2d8 4e3c d1bb 86bc 86b2 623c ce6b 13bd
00000320: 8ecd dc3b f722 87bc e8eb 64bc 46d9 ccb8
00000330: 9043 2fbd 2b91 693c 5ffa a6bb 88ae 243c
00000340: e975 e13c 44cb 003d 8bc8 bd3b 256f 97bc
00000350: 0f54 b5bc 1402 9fbc ea5b d53c 1ef7 5dbd
00000360: 85d8 433c 7f31 c1bc c6d7 8a3c 70ef 853a
00000370: 99b0 bb3c dc19 e23c 3adb f73b 65c7 093b
00000380: e80b 9c39 bac6 d8bb 294a 2dba 508c 1f3d
00000390: e284 02bc 65c9 e3bc d9b9 ffbb 8049 1c3b
000003a0: 8818 0ebd 241f 05b9 d938 693c f946 d43c
000003b0: ce2a 56bc 3922 8aba 1ff9 ec3a a514 bebc
000003c0: 7f34 59bc f5d8 ce3c c58a 53bb 00bc 0a3c
000003d0: 5096 e8b9 fbfc bf3c fadd f5bc d157 2a3c
000003e0: 4834 783b 5f09 9e3c be3f bfbc 27c6 e4bc
000003f0: 700a b13c d95c 97bc b3f9 d13c f44b 823c

bias f4 [32]
0.0 0.0 0.0 0.0 0.0 0.0 0.0 0.0
0.0 0.0 0.0 0.0 0.0 0.0 0.0 0.0
0.0 0.0 0.0 0.0 0.0 0.0 0.0 0.0
0.0 0.0 0.0 0.0 0.0 0.0 0.0 0.0
00000000: 0000 0000 0000 0000 0000 0000 0000 0000
00000010: 0000 0000 0000 0000 0000 0000 0000 0000
00000020: 0000 0000 0000 0000 0000 0000 0000 0000
00000030: 0000 0000 0000 0000 0000 0000 0000 0000
00000040: 0000 0000 0000 0000 0000 0000 0000 0000
00000050: 0000 0000 0000 0000 0000 0000 0000 0000
00000060: 0000 0000 0000 0000 0000 0000 0000 0000
00000070: 0000 0000 0000 0000 0000 0000 0000 0000

weight f4 [32]
1.9236851 2.1267545 1.8302283 2.2275925 0.9209453 1.0299497 1.2585206 -0.037588358
-0.024309846 1.1224988 0.81111145 1.5976787 1.5159206 1.2793012 1.4761933 1.2643142
0.9137443 -0.016808296 1.7709699 1.1576588 0.91397566 1.8937267 0.9391815 1.8542838
1.0583131 2.714675 1.4350805 1.3125104 2.0103457 0.8199898 1.0637965 -0.0022288887
00000000: 503b f63f bf1c 0840 ec44 ea3f e090 0e40
00000010: 12c3 6b3f 64d5 833f 3417 a13f 40f6 19bd
00000020: 7125 c7bc 0aae 8f3f 00a5 4f3f bc80 cc3f
00000030: b009 c23f 24c0 a33f e7f3 bc3f 0cd5 a13f
00000040: 25eb 693f 8db1 89bc 24af e23f 2a2e 943f
00000050: 4ffa 693f a365 f23f 336e 703f 2c59 ed3f
00000060: ce76 873f 3cbd 2d40 b8b0 b73f 5700 a83f
00000070: 81a9 0040 daea 513f 7c2a 883f 8c12 12bb

bias f4 [32]
-0.08219434 -0.00042815905 -0.017833348 -0.5884834 -0.06449499 -0.2467843 -0.22657868 -0.0420591
0.04459678 -1.2093016 -0.18087834 -0.4046983 0.076520704 -0.7589219 -0.21584532 -0.65732086
-0.15919422 0.0077589788 -0.19863877 -1.2570149 -0.25536543 0.20697638 -1.5773678 0.28623438
-0.16935249 -0.17662881 -1.0303017 0.032361433 -0.2831547 -0.09924774 -0.14770181 -0.016246624
00000000: 8255 a8bd 897a e0b9 3e17 92bc d9a6 16bf
00000010: f315 84bd 06b5 7cbe 3e04 68be 2a46 2cbd
00000020: 1dab 363d 65ca 9abf 2c38 39be 9e34 cfbe
00000030: e3b6 9c3d b548 42bf 8e06 5dbe 2e46 28bf
00000040: cf03 23be 083f fe3b f667 4bbe dde5 a0bf
00000050: 42bf 82be 9ef1 533e 30e7 c9bf 508d 923e
00000060: bd6a 2dbe 2fde 34be ede0 83bf 6c8d 043d
00000070: a7f9 90be 6642 cbbd 253f 17be a417 85bc

weight f4 [128, 32]
1.2799047 -1.941708 1.2909821 -0.81221855 2.164004 -0.55254465 3.739496 -0.13874169
-0.04313848 0.78167754 1.9819628 4.5304346 -1.1734709 -1.6133684 -1.7141112 3.1995463
5.6946507 0.5816121 6.5993214 6.8915424 6.2710834 -2.3844304 -1.4505352 -0.39575595
2.4529686 -5.3016357 4.21178 -0.352562 3.292098 0.60228693 2.6844053 -0.24526235
-1.3017138 1.6745306 -1.3471885 1.651767 0.87623465 1.0353899 -3.4045398 -0.15088105
-0.8721911 -0.5077566 2.7039323 -8.298711 2.4260166 4.3319 1.5073028 2.7779849
0.19812706 0.48462224 1.5766121 0.9059444 3.2962523 1.4013486 0.16653974 1.5026968
-0.35507664 2.3084795 2.9138637 -3.6418211 0.72162515 3.905044 1.5589682 -0.46709678
-3.412395 -2.5037255 -1.9142841 0.86677486 -3.8692966 -2.1778483 -1.1914285 -0.14655794
0.006682317 -0.19033498 -0.40876156 -0.2722786 -0.56520337 0.24252002 -1.7896657 -3.2026
-0.11526148 -0.12417913 -1.2066659 5.905219 -0.17573437 -1.4487033 5.492002 0.28306696
-0.81353265 -0.4330394 1.0982342 -0.6812666 -2.3590026 -3.0210423 -4.2733407 -0.1674989
1.2018973 1.5205529 -1.6030623 2.9090228 -3.5395594 1.0615658 -4.3510833 0.3194257
-0.30324712 1.4400377 1.2902504 3.5038683 -4.1453605 -4.5356703 -0.73746055 6.0098042
-1.8827498 0.26950812 1.9604728 0.74477816 -1.6684921 -1.9353735 1.7228727 6.628944
3.5208247 0.7869366 1.3575494 -0.38249218 -2.4771798 5.808674 -2.5018606 -0.19517753
-1.3614132 -2.0446851 0.20477259 -0.6142829 -3.6627364 -3.9312565 1.5226706 0.2515835
-0.18566266 -2.289715 1.4504861 -1.068983 3.368187 0.33523098 -0.9749307 -4.7301674
4.5281034 0.08096321 -1.845233 1.9318697 2.7341535 2.789898 0.6233439 7.4601326
1.3581499 0.3402858 1.9338038 -3.6850622 1.993146 -0.3087897 -0.021914491 -0.37099797
-1.5083437 6.686986 -2.2348192 -0.9118493 1.5858932 1.2055913 -0.88866335 0.30883956
-0.026514301 6.4053082 4.445336 0.30926266 -1.6141905 3.184398 0.120833695 2.1419258
1.4568831 -0.11063394 2.247853 4.4527392 -6.3281336 -1.0564656 -0.27215979 4.195722
-1.6334814 0.16981977 2.4449005 -3.657049 2.7867403 2.144149 8.158534 0.5053223
0.8236687 1.1733924 -1.3973869 -0.8470299 0.26347432 3.1126595 -2.0321558 -0.15369743
-0.01836167 2.156021 0.31923836 -1.7994689 3.14204 -1.7357062 -2.0308166 1.4250259
6.241467 0.011670289 1.4327683 -0.73850095 0.78384006 6.6073565 3.225245 -4.9144397
-1.4408858 7.3978953 -0.13712329 -3.451626 0.37626252 1.8787048 -1.3203001 0.29836184
-0.18513969 0.5549043 3.0536473 -0.20354156 -3.3254342 3.2619991 -4.7762322 0.5376603
0.39016116 -0.30749658 6.2018375 -0.17342156 4.250555 4.724495 -5.051768 5.571928
-0.72099847 -0.23300385 3.0770028 1.2304372 1.694515 -3.5892353 4.647947 3.6196504
3.8726065 -3.699829 2.3506258 0.47609887 1.4972271 2.0009909 -2.4722977 0.4181281
00000000: ebd3 a33f e389 f8bf e73e a53f 8eed 4fbf
00000010: 0b7f 0a40 9173 0dbf e753 6f40 4d12 0ebe
00000020: fab1 30bd 051c 483f f5b0 fd3f 52f9 9040
00000030: 4b34 96bf db82 cebf ff67 dbbf 5ec5 4c40
00000040: 943a b640 88e4 143f a42d d340 8487 dc40
00000050: b7ac c840 829a 18c0 23ab b9bf 86a0 cabe
00000060: 70fd 1c40 00a7 a9c0 e7c6 8640 0283 b4be
00000070: bcb1 5240 7a2f 1a3f 4ccd 2b40 0e26 7bbe
00000080: 8f9e a6bf 0557 d63f ac70 acbf 1a6d d33f
00000090: ea50 603f a887 843f fbe3 59c0 9080 1abe
000000a0: ea47 5fbf 56fc 01bf 3a0d 2d40 85c7 04c1
000000b0: db43 1b40 ed9e 8a40 4cef c03f 81ca 3140
000000c0: d2e1 4a3e 6820 f83e 6dce c93f f9eb 673f
000000d0: ccf5 5240 645f b33f 6589 2a3e 5e58 c03f
000000e0: 9bcc b5be 21be 1340 be7c 3a40 9913 69c0
000000f0: 6dbc 383f 3eec 7940 458c c73f 4f27 efbe
00000100: ae64 5ac0 0a3d 20c0 4307 f5bf f5e4 5d3f
00000110: 8ea2 77c0 de61 0bc0 bb80 98bf 4913 16be
00000120: 56f7 da3b 2ce7 42be 3249 d1be 1a68 8bbe
00000130: 2bb1 10bf 2b57 783e c413 e5bf 66f7 4cc0
00000140: 360e ecbd a151 febd 0774 9abf 8ef7 bc40
00000150: b6f3 33be 1c6f b9bf 7bbe af40 27ee 903e
00000160: ad43 50bf 57b7 ddbe f092 8c3f 7d67 2ebf
00000170: e6f9 16c0 c258 41c0 35bf 88c0 d584 2bbe
00000180: c5d7 993f 7aa1 c23f 2531 cdbf 6e2d 3a40
00000190: 2488 62c0 63e1 873f 133c 8bc0 c48b a33e
000001a0: 3543 9bbe 2853 b83f ed26 a53f 613f 6040
000001b0: cba6 84c0 3624 91c0 37ca 3cbf 5150 c040
000001c0: f2fd f0bf f8fc 893e c6f0 fa3f c8a9 3e3f
000001d0: 2691 d5bf 52ba f7bf 1887 dc3f 4f20 d440
000001e0: 3155 6140 ad74 493f 2ec4 ad3f 04d6 c3be
000001f0: 1d8a 1ec0 a8e0 b940 7c1e 20c0 9edc 47be
00000200: ca42 aebf 1fdc 02c0 e8af 513e a541 1dbf
00000210: 466a 6ac0 b599 7bc0 dfe6 c23f 8dcf 803e
00000220: 5a1e 3ebe b18a 12c0 87a9 b93f 6fd4 88bf
00000230: 6090 5740 65a3 ab3e 0f95 79bf 885d 97c0
00000240: 39e6 9040 0ad0 a53d 9830 ecbf 8247 f73f
00000250: 5ffc 2e40 b08d 3240 7793 1f3f 68b9 ee40
00000260: dbd7 ad3f f139 ae3e e286 f73f 0fd8 6bc0
00000270: 681f ff3f af19 9ebe 0586 b3bc 72f3 bdbe
00000280: 6811 c1bf cafb d540 4707 0fc0 f56e 69bf
00000290: 8cfe ca3f d150 9a3f 717f 63bf 3820 9e3e
000002a0: 8534 d9bc 49f8 cc40 3140 8e40 ad57 9e3e
000002b0: cb9d cebf 2dcd 4b40 a877 f73d 5015 0940
000002c0: 257b ba3f 0c94 e2bd d3dc 0f40 d77c 8e40
000002d0: 1280 cac0 443a 87bf 8758 8bbe 5b43 8640
000002e0: eb15 d1bf 3ce5 2d3e 4079 1c40 170d 6ac0
000002f0: f459 3240 bd39 0940 5b89 0241 cd5c 013f
00000300: f4db 523f b931 963f 93dd b2bf f4d6 58bf
00000310: 1be6 863e d035 4740 d70e 02c0 dc62 1dbe
00000320: 376b 96bc 40fc 0940 3673 a33e ff54 e6bf
00000330: 2f17 4940 9f2b debf e6f8 01c0 4067 b63f
00000340: 19ba c740 bd34 3f3c f464 b73f 660e 3dbf
00000350: bea9 483f 776f d340 6a6a 4e40 1743 9dc0
00000360: f26e b8bf 8fbb ec40 0c6a 0cbe 71e7 5cc0
00000370: 7ba5 c03e 6679 f03f 98ff a8bf e2c2 983e
00000380: 4295 3dbe 350e 0e3f f56e 4340 336d 50be
00000390: ead3 54c0 98c4 5040 e5d6 98c0 1ba4 093f
000003a0: 34c3 c73e 3170 9dbe 7475 c640 6c95 31be
000003b0: 8c04 8840 102f 9740 15a8 a1c0 3c4d b240
000003c0: 5b93 38bf 9098 6ebe 9ded 4440 f77e 9d3f
000003d0: dee5 d83f 08b6 65c0 fbbb 9440 5aa8 6740
000003e0: c9d8 7740 00ca 6cc0 a770 1640 3bc3 f33e
000003f0: 23a5 bf3f 3c10 0040 203a 1ec0 e314 d63e

bias f4 [128]
-7.516991 -3.2755535 1.1695528 -3.0451233 -2.9595435 -4.709834 -0.8602207 -7.302439
-2.913306 0.95163006 -2.5580199 -2.3982475 -2.0473592 -0.28304696 -3.9483888 -0.9453686
-1.0167501 4.20539 -4.5727425 -4.4144692 1.2815034 1.8755207 -4.7293315 -2.906494
-6.0145116 -4.4718003 -3.7116733 -3.2778137 -0.19757865 -0.5976887 -3.2901356 -2.565317
-2.1414742 -1.7619064 -3.3059645 1.1184418 -1.801899 -5.6205683 1.455168 -1.3588324
0.15735191 -0.9433547 -3.8414068 -6.4528346 -3.092126 -2.3089552 -4.7046857 -1.392651
1.7745639 -0.65177554 -2.502809 -3.0793264 -0.7900783 -4.5489616 -3.3194585 -2.1382818
-2.4110749 1.4333503 -4.8918414 -2.5159519 -0.59866965 0.15650456 0.23448093 -1.8345246
-1.8537364 -0.9405854 -4.5289416 -5.2819147 -1.9520745 -0.7497184 -4.0689926 -1.2573026
-6.2045074 -1.4731014 -1.6904454 -5.7180223 2.5290682 -1.9150765 -5.426332 -2.409941
-1.546792 -4.6213956 -1.4002836 0.6487314 -0.8436975 -0.9410797 -1.993482 -0.78331614
-2.6063547 -1.0874058 -3.733874 -4.121338 -0.7830033 -0.526455 -4.467836 -2.3370912
0.44575325 -6.6667104 -1.4247679 2.5350096 -2.6106 -0.7489444 -4.4327397 -2.414697
0.7966473 -3.8906825 -3.6135209 0.66931814 -2.8293107 -0.73513687 -2.7872045 -5.1701665
-1.7624532 -1.6405207 -4.2259626 -1.3928635 -2.7643409 -1.6494148 -1.4556156 -1.3939654
-3.9815671 -4.272536 -5.1086793 -0.54639226 -3.2699616 0.26507556 1.6693805 -0.32570994
00000000: 318b f0c0 aba2 51c0 e8b3 953f 4de3 42c0
00000010: 2969 3dc0 f6b6 96c0 6c37 5cbf 95ad e9c0
00000020: 9b73 3ac0 079e 733f 99b6 23c0 e37c 19c0
00000030: ef07 03c0 88eb 90be 67b2 7cc0 ad03 72bf
00000040: de24 82bf 8e92 8640 e853 92c0 5543 8dc0
00000050: 4e08 a43f 1011 f03f af56 97c0 ff03 3ac0
00000060: e176 c0c0 fd18 8fc0 0e8c 6dc0 b3c7 51c0
00000070: 0f52 4abe 2002 19bf 9591 52c0 272e 24c0
00000080: ea0d 09c0 2686 e1bf ec94 53c0 1a29 8f3f
00000090: a0a4 e6bf b2db b3c0 f242 ba3f 38ee adbf
000000a0: dc20 213e b27f 71bf 9cd9 75c0 9f7d cec0
000000b0: 64e5 45c0 ecc5 13c0 c98c 96c0 6342 b2bf
000000c0: e924 e33f c3da 26bf 062e 20c0 af13 45c0
000000d0: 9242 4abf 1891 91c0 0272 54c0 9cd9 08c0
000000e0: 0d4f 1ac0 0678 b73f f789 9cc0 5b05 21c0
000000f0: 6a42 19bf bb42 203e c51b 703e b4d1 eabf
00000100: 3c47 edbf 34ca 70bf 17ed 90c0 7205 a9c0
00000110: 94dd f9bf 8ced 3fbf 3035 82c0 4bef a0bf
00000120: 538b c6c0 968e bcbf 8460 d8bf 0afa b6c0
00000130: 41dc 2140 3a21 f5bf 83a4 adc0 793c 1ac0
00000140: 48fd c5bf 79e2 93c0 7e3c b3bf 4313 263f
00000150: 8ffc 57bf 99ea 70bf 6b2a ffbf 6887 48bf
00000160: 84ce 26c0 1d30 8bbf cbf7 6ec0 00e2 83c0
00000170: e772 48bf c1c5 06bf 83f8 8ec0 e792 15c0
00000180: c539 e43e b155 d5c0 cb5e b6bf 993d 2240
00000190: 1214 27c0 d2ba 3fbf 01d9 8dc0 658a 1ac0
000001a0: 14f1 4b3f f100 79c0 ed43 67c0 6f58 2b3f
000001b0: 6d13 35c0 ee31 3cbf 8f61 32c0 0172 a5c0
000001c0: 1198 e1bf 95fc d1bf 163b 87c0 5a49 b2bf
000001d0: f6ea 30c0 0620 d3bf 9d51 babf 756d b2bf
000001e0: ffd1 7ec0 9db8 88c0 4d7a a3c0 5de0 0bbf
000001f0: 0d47 51c0 fcb7 873e 43ae d53f 74c3 a6be

weight f4 [32, 128]
-0.09114986 -0.08265929 -0.044153083 -0.050475508 -0.057600748 -0.077551804 -0.029620573 -0.040951315
-0.088825144 -0.025491126 -0.07146784 -0.01770634 -0.06311038 -0.051821265 -0.059811477 -0.061794773
-0.04824573 -0.053300723 -0.046581008 -0.05517548 -0.041850116 -0.08578692 -0.068861805 -0.07291457
-0.08865368 -0.06394283 -0.04476647 -0.045227453 -0.06431228 -0.06874909 -0.05923943 -0.07963959
-0.08387158 -0.09695068 -0.020032292 -0.06905603 -0.055120416 -0.05843017 -0.032915294 -0.0440426
-0.011170973 -0.12059102 -0.051004272 -0.06665738 -0.04924414 -0.04966787 -0.10175335 -0.088537775
-0.04261289 -0.080155805 -0.05947086 -0.10550784 -0.09112086 -0.0710092 -0.04552917 -0.03595935
-0.054251995 -0.08917342 -0.04727749 -0.076599516 -0.041428152 -0.08684613 -0.098866835 -0.04634002
-0.040605966 -0.08935879 -0.08975176 0.00025993396 -0.061434105 -0.05295796 -0.104513444 -0.0428594
-0.06996026 -0.0459742 -0.07329893 -0.03284326 -0.059962098 -0.07484656 -0.08311824 -0.05555686
-0.04690214 -0.03909305 -0.06325708 -0.051507633 -0.093048394 -0.053332973 -0.080994055 -0.086603105
-0.05201034 -0.06818412 -0.05940183 -0.071615584 -0.06726125 -0.07860269 -0.0314454 -0.04118344
-0.02920189 -0.0480384 0.03763628 -0.09820215 -0.06152121 -0.04237804 -0.03920148 -0.0693412
-0.07930992 -0.05071825 -0.05212205 -0.071529634 -0.07287829 -0.068563245 -0.061214168 -0.04082668
-0.07884725 -0.044063073 -0.08462055 -0.035502758 -0.040095046 -0.08629392 -0.038965475 -0.058881346
-0.07413516 -0.056309115 -0.036870822 -0.08534846 -0.046694785 -0.007184736 -0.066572726 -0.083721906
-0.06915925 -0.06058441 -0.05345422 -0.057172358 -0.06434386 -0.013811935 -0.09434084 -0.08398916
-0.051047157 -0.008397762 -0.0696802 -0.043001954 -0.061371762 -0.045862593 -0.041071568 -0.08243897
-0.018206729 -0.043938663 -0.033578645 -0.044793215 -0.05293672 -0.06952829 -0.06697435 -0.030231394
-0.05504307 -0.0679517 -0.047906227 -0.04685195 -0.0727317 -0.060359396 -0.04355176 -0.088043734
-0.058798403 -0.040695067 -0.052968923 -0.104519114 -0.07234305 -0.064290375 -0.086533755 -0.09143136
-0.060979363 -0.036734756 -0.047385324 -0.055282384 -0.035022724 -0.047557633 -0.06165091 -0.052280117
-0.06722427 -0.060077045 -0.059253864 -0.06823054 -0.04700197 -0.031137777 -0.027048673 -0.06612471
-0.04204547 -0.09133609 -0.041615255 -0.03305351 -0.041143656 -0.07956102 -0.07599121 -0.046643075
-0.09113834 -0.02876098 -0.066605076 -0.043421086 -0.085881054 -0.071812935 -0.06922125 -0.060927607
-0.069461405 -0.055568937 -0.06284944 -0.06123052 -0.06995731 -0.046333637 -0.040579736 -0.040591467
-0.06823238 -0.07955001 -0.058490504 -0.046824586 -0.05462963 -0.048872847 -0.045303676 -0.041299578
-0.043139946 -0.04028153 -0.053122938 -0.076448485 -0.076680176 -0.074302204 -0.06634033 -0.052745473
-0.07665162 -0.060651563 -0.039608497 -0.07441936 -0.08132465 -0.07104998 -0.050668504 -0.032271024
-0.05183755 -0.058273833 -0.058399234 -0.07646982 -0.035301566 -0.08981171 -0.031745262 -0.070303254
-0.06926697 -0.020608697 -0.008071504 -0.069492705 -0.066849254 -0.048437275 -0.044249147 -0.04457815
-0.042887606 -0.06775434 -0.055672724 -0.058320675 -0.04821193 -0.057875372 -0.044279575 -0.06367332
00000000: c7ac babd 4649 a9bd ddd9 34bd 68bf 4ebd
00000010: c3ee 6bbd 7bd3 9ebd d8a6 f2bc 91bc 27bd
00000020: f5e9 b5bd c4d2 d0bc bb5d 92bd e30c 91bc
00000030: 0440 81bd 8942 54bd e1fc 74bd 841c 7dbd
00000040: 519d 45bd dc51 5abd bacb 3ebd afff 61bd
00000050: 076b 2bbd 0db1 afbd 6b07 8dbd 3c54 95bd
00000060: 1090 b5bd 75f4 82bd 0c5d 37bd 6c40 39bd
00000070: 28b6 83bd 53cc 8cbd 0ba5 72bd 151a a3bd
00000080: ddc4 abbd 148e c6bd c31a a4bc 3f6d 8dbd
00000090: f2c5 61bd 7954 6fbd 30d2 06bd 0366 34bd
000000a0: 7506 37bc 6df8 f6bd dbe9 50bd aa83 88bd
000000b0: 39b4 49bd 8970 4bbd 0f64 d0bd 4b53 b5bd
000000c0: db8a 2ebd ba28 a4bd b797 73bd 7f14 d8bd
000000d0: 939d babd 456d 91bd cc7c 3abd 1d4a 13bd
000000e0: 5737 5ebd 8ea0 b6bd 0ba6 41bd 35e0 9cbd
000000f0: 91b0 29bd 62dc b1bd b27a cabd 08cf 3dbd
00000100: 7152 26bd be01 b7bd c5cf b7bd bf47 8839
00000110: 54a2 7bbd 72ea 58bd 250b d6bd 578d 2fbd
00000120: 5347 8fbd 714f 3cbd c01d 96bd a786 06bd
00000130: d19a 75bd 2749 99bd e539 aabd 978f 63bd
00000140: 751c 40bd 0920 20bd ee8c 81bd abf9 52bd
00000150: 2890 bebd ad73 5abd 36e0 a5bd f85c b1bd
00000160: cb08 55bd 1ea4 8bbd 554f 73bd 31ab 92bd
00000170: 44c0 89bd 72fa a0bd e4cc 00bd f7af 28bd
00000180: cd38 efbc eac3 44bd 8028 1a3d 351e c9bd
00000190: aafd 7bbd 9894 2dbd bb91 20bd c202 8ebd
000001a0: 3d6d a2bd f1bd 4fbd ee7d 55bd 217e 92bd
000001b0: 3741 95bd e36a 8cbd b5bb 7abd e039 27bd
000001c0: ab7a a1bd 7b7b 34bd 8a4d adbd 576b 11bd
000001d0: b43a 24bd deba b0bd 439a 1fbd 912d 71bd
000001e0: 2dd4 97bd 63a4 66bd dc05 17bd 2ccb aebd
000001f0: 0843 3fbd ef6d ebbb 4857 88bd 6476 abbd
00000200: 5da3 8dbd 5c27 78bd d0f2 5abd 902d 6abd
00000210: b7c6 83bd 744b 62bc c535 c1bd 8202 acbd
00000220: d316 51bd c496 09bc 7eb4 8ebd d122 30bd
00000230: f560 7bbd 6ada 3bbd a93a 28bd c3d5 a8bd
00000240: 4726 95bc 07f9 33bd c389 09bd 1779 37bd
00000250: 2dd4 58bd d964 8ebd d929 89bd d4a7 f7bc
00000260: d874 61bd 432a 8bbd 5239 44bd d5e7 3fbd
00000270: 5cf4 94bd 6a3b 77bd 5563 32bd 4650 b4bd
00000280: 98d6 70bd dfaf 26bd f1f5 58bd 1e0e d6bd
00000290: 9828 94bd acaa 83bd 9c38 b1bd 5d40 bbbd
000002a0: 7fc5 79bd 2f77 16bd 1d17 42bd c86f 62bd
000002b0: fd73 0fbd cbcb 42bd aa85 7cbd ad23 56bd
000002c0: e1ac 89bd 5913 76bd 2eb4 72bd 74bc 8bbd
000002d0: 2385 40bd a714 ffbc 2e95 ddbc 646c 87bd
000002e0: df37 2cbd 6a0e bbbd c274 2abd 1e63 07bd
000002f0: 4086 28bd e3f0 a2bd 48a1 9bbd cf0c 3fbd
00000300: bda6 babd 269c ebbc 3e68 88bd 4fda 31bd
00000310: 68e2 afbd a912 93bd dfc3 8dbd 3a8f 79bd
00000320: c841 8ebd 419c 63bd 35b7 80bd dbcc 7abd
00000330: c745 8fbd 57c8 3dbd f036 26bd 3d43 26bd
00000340: 6bbd 8bbd 1eeb a2bd bd93 6fbd 23cb 3fbd
00000350: 52c3 5fbd e52e 48bd 5990 39bd bf29 29bd
00000360: 83b3 30bd 3ffe 24bd 7097 59bd 0691 9cbd
00000370: 7f0a 9dbd c12b 98bd 70dd 87bd a30b 58bd
00000380: 86fb 9cbd c66d 78bd 853c 22bd 2d69 98bd
00000390: 8a8d a6bd a782 91bd c789 4fbd 9f2e 04bd
000003a0: 9c53 54bd 8bb0 6ebd 0934 6fbd 369c 9cbd
000003b0: 6098 10bd 34ef b7bd 5207 02bd 27fb 8fbd
000003c0: d7db 8dbd 92d3 a8bc 573e 04bc 3152 8ebd
000003d0: 43e8 88bd 2a66 46bd 983e 35bd 9497 36bd
000003e0: eaaa 2fbd cac2 8abd 1509 64bd a9e1 6ebd
000003f0: df79 45bd ba0e 6dbd 805e 35bd 2867 82bd

bias f4 [32]
-0.06332514 -0.06005503 -1.993282 -2.3358839 -0.06005482 -0.06005502 -0.053395957 -0.060053464
-0.06005499 -0.009427535 -0.060054995 -0.060054716 6.8143272 -0.060054902 -0.049365968 5.8047376
2.9643157 -0.6176699 -0.06614197 3.7505882 8.211584 -0.06005496 1.5252432 -0.06005503
0.022880781 -0.06717653 5.3056483 -0.060054816 3.7574754 -0.06213709 -0.037648547 -0.060055003
00000000: 9cb0 81bd 43fc 75bd dd23 ffbf 1f7f 15c0
00000010: 0bfc 75bd 41fc 75bd b8b5 5abd 9ffa 75bd
00000020: 39fc 75bd f375 1abc 3afc 75bd effb 75bd
00000030: f80e da40 21fc 75bd f833 4abd 69c0 b940
00000040: 59b7 3d40 9d1f 1ebf 7175 87bd a309 7040
00000050: a662 0341 31fc 75bd 2b3b c33f 43fc 75bd
00000060: 7a70 bb3c d993 89bd dfc7 a940 0afc 75bd
00000070: 7a7a 7040 7683 7ebd 5d35 1abd 3cfc 75bd
