model/Swin_1_lr0.3.pt (torch, 267989 bytes, 48 tensors)

weight f4 [32, 30, 2, 2]
00000000: 4a5e 873e 3470 883e 38b2 f43e 894b 963e
00000010: c717 16be 17b2 99bc 5b5e 0dbe 7b48 21be
00000020: bc9a 9cbe a629 3abe 3c25 c3be 64a4 83be
00000030: ddc2 27be a0ba 7fbe 6fe4 40be 804d 6ebe
00000040: f879 81bd 4a36 043e 9653 bb3e 0ae4 de3e
00000050: aedb 63bc c240 b63b c90f 6d3e d86b 1d3e
00000060: 6140 9cbd d9e6 a0bd f4a1 30be 04da 18bd
00000070: c2c8 7bbe a57a 9a3d d34c 52be 48c9 363c
00000080: 7f8b 02be 6c09 1cbd acef ebbc 1287 23be
00000090: d755 79be 667e 27bd ad6b 493e 8fda 223e
000000a0: aa5e 4bbd d0a1 9cbd f49e 7a3e e80d 0e3e
000000b0: 1126 d8bd 0ac2 c43d 3642 06be 56e7 c6bd
000000c0: 9751 8fbd 49a0 223e 887e 4abd f3e3 5d3d
000000d0: fd5a 10be aba3 42bd 5c5a cabd a481 ee3c
000000e0: dd13 a3be 8051 c9bc ba90 e33d 833b 943e
000000f0: d62a 6dbe bbc1 1dbe f88e 043e 6d74 6e3d
00000100: b8d7 40be 3922 823d 3f58 d3bd 8a6b 753d
00000110: de61 cebd 5a8c bd3d b821 d6bd 15d7 fc3d
00000120: 0645 d53d 1034 20bd 3c0e 18bd 1431 b0bd
00000130: bb27 3abf 0615 75be 944e 4c3c 1c8b ae3b
00000140: 7c4c cabe 5fe8 29bf c889 fa3d 9a97 70be
00000150: 09df 9abd 0189 273e 0a97 7e3c 07de 193e
00000160: 26c6 3abd dd59 683e f668 95bd 69b3 3c3e
00000170: 376e 983d 0e4e 33bb e13d 283e d3cf 06bd
00000180: bf94 113f da41 dc3e e88b 5a3f 075c 103f
00000190: 012d bebe 0dc5 18bf 6fd1 283e cc91 bfbe
000001a0: 0bc7 ed3d d2ef 5c3e 737f 8e3e 8407 cb3c
000001b0: 044e cb3d e35c ac3e a403 033e e945 e53e
000001c0: 69b2 ed3d 7202 313e cbc8 ab3e 72f8 b33e
000001d0: 9dcd 763f 5d14 2abf 539b 2d3f 8554 a0bf
000001e0: 9adb 07ba c259 07be 1511 e7bd 7d27 d6bd
000001f0: 4fed 383e fc2c 943d 42ae 043e 11f5 b43c
00000200: aee8 913c ab12 b4bc 3423 ba3d 8ee2 babb
00000210: 3ae5 e43e 89df 023f da76 203f 127b 073f
00000220: ec18 5b3d cd7f 293e a98c 41be a812 dfbc
00000230: 9510 2c3d d2f8 d7bb 7b68 27bd c546 75bd
00000240: 8dd5 ed3d d833 dc3d f754 363e 0bbc df3d
00000250: 26c8 943d 5318 30bd debc 673d d7d3 0ebe
00000260: 2f43 7f3e e6fb 003e e4ea 963e c73f 1c3e
00000270: 9aab b4bd fd99 9f3d 3e07 18be 26a9 fd3d
00000280: f694 b83d c51b 843d 50de 45bd 1eca 37bd
00000290: 28d5 143e a4f6 7d3d bcf4 043e cfd6 f03d
000002a0: e3c0 393d 4c26 adbd 873d 04be f5a4 3fbd
000002b0: 6575 c63d 9cb0 9f3d ef78 a83d 98a2 0abd
000002c0: b857 23be d254 aa3e 737f 5bbe 73f4 973d
000002d0: 1ea1 1f3e cefb b03d abec 18bd cb83 223d
000002e0: b93b 5b3e 9210 1c3e a90f 6e3d fd94 e03d
000002f0: 4dbf 563d 129e 5cbd 75ef c4bd 020d 4e39
00000300: 08ed 60be f23f c9bd e813 d3bc 6537 50bd
00000310: 8617 21be 2707 613e eea3 a4bd 4067 863e
00000320: 3df6 173f aa2d 0d3f a21b a63e 7a9a b63e
00000330: e1c6 c13d 135a 053e e988 b73d 1edc f03d
00000340: 0578 9f39 ff88 be3d 4bf1 10be 0332 50bd
00000350: 663c 00bf eebd d5be b8be f9be 582c e8be
00000360: c2da 5bbe 1625 443f 7346 febe c2a6 0a3f
00000370: 8f83 7abe fd67 04bf a53c 85be 86c9 3dbf
00000380: 3e89 2fbf 62e1 23bf 8837 e1be 972a eebe
00000390: 6902 753b 8f37 f13d 935e 86bd d067 903c
000003a0: 0a3c 02be 4e3a 2bbe 2c53 3ebe 1b65 8bbe
000003b0: 83aa c03e 3dc4 e4bf 284d c43f 4cd4 c43e
000003c0: 60a5 33be 75bd c4bd 6b47 08bc b7ec a5bc
000003d0: a056 b7be adbb f4be 7e69 b7be 5f36 e2be
000003e0: 90c6 6b3e 21fc 883d e2ad f13d 6c52 17be
000003f0: 5039 313e 82e9 623d 351d d63d 7354 91bd
0.26439124 0.26648104 0.4779222 0.29354504 -0.14657508 -0.018761678 -0.13805525 -0.15750305
-0.30586803 -0.1817995 -0.38114345 -0.25711358 -0.16382928 -0.24973536 -0.1883714 -0.23271751
-0.06322092 0.12911335 0.36587209 0.43533355 -0.013907356 0.005561919 0.23150553 0.1537317
-0.07629467 -0.07856531 -0.1724928 -0.03731729 -0.24588302 0.07542924 -0.20537119 0.011156388
-0.12748526 -0.038094923 -0.028800808 -0.15969494 -0.24349152 -0.040892027 0.19669981 0.15903686
-0.049650826 -0.07648051 0.24474698 0.13872492 -0.105541356 0.096073225 -0.13111195 -0.097120926
-0.06997984 0.15881456 -0.049437076 0.054172467 -0.1409721 -0.047519367 -0.09880516 0.029114552
-0.31851092 -0.024574995 0.11111589 0.28951654 -0.23160872 -0.15405934 0.12945163 0.0582165
-0.1883229 0.06354184 -0.10319566 0.05991701 -0.100772604 0.092552856 -0.1045565 0.12345711
0.10413556 -0.03911215 -0.03712295 -0.08603111 -0.72716874 -0.23933801 0.012469906 0.0053266417
-0.39511478 -0.66370195 0.12233311 -0.23495331 -0.07562072 0.16360857 0.01553894 0.15026103
-0.045599125 0.2269053 -0.0729541 0.18427815 0.07442897 -0.0027359757 0.16429855 -0.03291304
0.56867594 0.4301899 0.8536973 0.5639042 -0.3714371 -0.59675676 0.16486143 -0.37415922
0.1161023 0.21575859 0.2783161 0.024783857 0.0992699 0.33664617 0.12794358 0.447799
0.11606295 0.17286089 0.3355163 0.35150486 0.9640749 -0.6643732 0.6781513 -1.2525793
-0.00051825645 -0.13217834 -0.11282555 -0.104567505 0.18059276 0.072351426 0.12957099 0.022089513
0.017811146 -0.021981558 0.09088746 -0.005703277 0.44706136 0.5112234 0.62681353 0.52922165
0.053490564 0.16552658 -0.18901314 -0.027230576 0.042008 -0.006590941 -0.040871125 -0.059881944
0.11612997 0.10752076 0.17805849 0.10924538 0.07264738 -0.042991947 0.056576602 -0.13947998
0.24927972 0.12596092 0.29476082 0.15258704 -0.08821793 0.07793043 -0.14846513 0.12385778
0.09012787 0.06450609 -0.048307717 -0.04487049 0.14534438 0.062002793 0.12983984 0.117597215
0.045349967 -0.0845457 -0.12914096 -0.046788175 0.0969036 0.077973574 0.08226191 -0.033846468
-0.15951431 0.33267838 -0.21435337 0.07419672 0.15588805 0.08641778 -0.03733508 0.03967647
0.21409501 0.15240696 0.058120403 0.10965917 0.052428532 -0.053861685 -0.09615985 0.00019650537
-0.2196542 -0.0982665 -0.025766328 -0.05083408 -0.1573163 0.21975385 -0.080390796 0.26250648
0.59360105 0.551478 0.32442957 0.3566473 0.09461761 0.13022642 0.089616604 0.11760734
0.00030416265 0.09303474 -0.14154546 -0.050828945 -0.5009216 -0.41746467 -0.4877832 -0.45346332
-0.21470168 0.7661909 -0.49663123 0.541607 -0.24464248 -0.51721174 -0.2602283 -0.74135625
-0.6856879 -0.6401578 -0.4398768 -0.46516868 0.003738547 0.11778175 -0.06561007 0.017627627
-0.12718216 -0.1672146 -0.18586415 -0.27225575 0.3763009 -1.7872387 1.5336046 0.3844322
-0.17543554 -0.096064486 -0.008317809 -0.020254476 -0.35808277 -0.47799435 -0.35822672 -0.44182107
0.23024964 0.06688715 0.11800744 -0.14777535 0.17307019 0.05539847 0.104547895 -0.070961855

bias f4 [32]
00000000: ea70 e3bc d449 d93c 6454 6f3f cb0e e6bd
00000010: eb5b 1b3f 9aff be3f 130d 66bf a2c0 c13e
00000020: 8164 903e b504 1abe 554b 9d3f a5ee 5e3f
00000030: 807a f73b f3ec 43be 8b5e 88be ea34 7c3f
00000040: a537 0fbf 7eba 82be e547 3c3e d4f1 f5be
00000050: 5770 afbe 4d15 0a3f 511d a8bf d92e 0f3e
00000060: f77d 56bf c5b8 cbbe 1c20 5cbf da0d 2ebf
00000070: f282 36bf 239e 9bbf eaea de3e 9179 2bbd
-0.027763803 0.026524462 0.93488145 -0.1123329 0.6068713 1.4921753 -0.898637 0.3784228
0.28201678 -0.15040858 1.2288615 0.8708289 0.007552445 -0.19133358 -0.2663463 0.9851824
-0.5594428 -0.25532907 0.183868 -0.48036063 -0.34265396 0.5393875 -1.3133947 0.13982715
-0.8378596 -0.39789405 -0.85986495 -0.67989886 -0.71293557 -1.2157634 0.435386 -0.04186398

weight f4 [32]
00000000: 4aa4 963f 57ab ed3f cb2c 953f 1885 b13e
00000010: cb7f 813e a5ca 973f 8699 b33f 4ec9 a93f
00000020: 657e dd3f 883d ff3e 5ab6 b33e 9420 0d3f
00000030: 9b3b f8bd 4ef1 863f 7501 4d3f 03ec 1b3f
00000040: 4f8a 413f e702 333f a218 153f 358e 373f
00000050: 6a22 643e b33e a1be 132f 2d3e b8f2 5d3f
00000060: 1a5e b5bd dc24 3b3f 5b44 ba3f beaf 393f
00000070: c3f5 adbe 4b28 ed3e 5c40 2a3f 04ff d33e
1.1768887 1.8567914 1.1654295 0.34671855 0.2529281 1.1858717 1.4031227 1.3264558
1.7304198 0.49851632 0.3510006 0.55127835 -0.12120744 1.054239 0.8008035 0.60907
0.7560167 0.69926304 0.5824071 0.71701366 0.22278753 -0.31493148 0.16912489 0.86698484
-0.08855839 0.7310312 1.455211 0.72533786 -0.33976564 0.46319804 0.66504455 0.414055

bias f4 [32]
00000000: 4a6b e43e 094c c63e 9435 1d3e aa8e 20be
00000010: 8ef1 bf3e c4f9 c43e cacd 4ebe 5306 163e
00000020: 86d9 853b 26e7 3dbe 387e 78bd 1691 aa3e
00000030: d540 eebe fa5a 7fbe 40e7 803e 879a 463e
00000040: 560b 4ebf 2adc 463e 50df 173e ab70 9dbe
00000050: f422 17be 5bc0 1f3f 545e 98bf 6cb4 bd3d
00000060: 3444 05bf e09d 443e 431a 2bbf 2b2d aabe
00000070: 62a0 eabe a8a8 15bf def0 8f3c 2b53 9c3e
0.44613105 0.38729885 0.1535247 -0.15679422 0.3748898 0.38471806 -0.2019569 0.1465085
0.0040847687 -0.18545207 -0.060667247 0.33313817 -0.46533838 -0.24937049 0.2517643 0.19394885
-0.8048605 0.19419923 0.1483128 -0.3075002 -0.14759427 0.62402886 -1.1903787 0.09262928
-0.52057195 0.1920085 -0.6683695 -0.33237585 -0.45825487 -0.58460474 0.01757091 0.30532202

relative_position_table f4 [81, 4]
00000000: 88fd 73bc af87 01bd dd9e a4bc fe23 7b3c
00000010: b461 77bb 451a b83c 83e5 e6bb 4050 d1bb
00000020: 9b46 12bd 2a23 d93b 5229 bdbc f82c 033b
00000030: b88f 593c f557 eb3b bab1 f63b 9518 f03b
00000040: 3705 0c3b 92c1 af3a 98d5 003c fb50 94bc
00000050: 71cf bd3b a2f5 853c 7ad2 343d 1ff1 52ba
00000060: 4803 b63c 0add 02bd d72c b53b 1bf3 a83c
00000070: 6c05 093c 3046 003b 6e1c 1d3d 7f9f 45bc
00000080: bdc5 0fbd 25c4 b9bc 3db0 28bc 4372 003d
00000090: 0893 383c fd16 a8bc 385d c83b 563b 0e3a
000000a0: 0631 853c e374 bcba 09fe cdbc 5881 e4bb
000000b0: 022d 95bc 37e6 093d 177b 543c f85b 863a
000000c0: a202 afbc 862e a73b 4502 1e3c 8dc6 b33c
000000d0: 9cac 82bc de41 2fbb 2f6c ba3a a4e4 43bd
000000e0: ff15 97bb 9279 44bc 552d 4d3d 9aa5 aa3c
000000f0: 3d73 293a 70f2 11bd 484e 773c 54b4 88b9
00000100: 08ba c33b 2d1a 08bd 7835 163d 8627 21bc
00000110: 654e ffbc 0835 10bd c884 a8bc 74f8 13bc
00000120: 3ccb 913c e28c 283c e379 aa3c 717e 6e3a
00000130: fdd9 c4bb bdaf 883c 12e9 d83b 7b0b 29bc
00000140: 5b22 833b e8ac 5ebc 76e9 e6bb 98a1 c6bb
00000150: f644 4ebc 43eb b1bc adcc 77bd 9cf6 b2bc
00000160: bf35 92bc 9bf9 773c cf58 25bc cc2f 56ba
00000170: 1353 0ebd 1613 a53b 8615 19bc 5185 85ba
00000180: f233 dd3c 79c1 9ebc 568b 26bb fca3 e63c
00000190: 2fc4 6a3c 945a de3b 346b 80bc 67ad 2fbd
000001a0: a273 fc3c c88d 01bb 755a 45bc 9ba0 3c3c
000001b0: c9e8 983b 996c 2dbc 2495 353d 474a 663d
000001c0: b1e2 c63c 66c6 4d3c e4d7 8f3a 60c4 57bc
000001d0: da4a d03c be79 31bc b07f 593b 0581 39bb
000001e0: 8260 3ebc baed d2bc 49d9 893c 7b82 90bb
000001f0: 5ea8 f33b 6e79 c1bc 8c09 323c fc8e 0f3b
00000200: 66e5 743c cf1b 2b3c 3d00 9e3c 9b59 533c
00000210: 7bcc 613c ce8c a5bc b642 bdbc f8d9 703c
00000220: 6e4c 353c 517d 4fbc 34b8 2d3c 9e55 ccbc
00000230: ec75 453c bb63 d33c d014 94bb ad5c e13c
00000240: a38b f7bc 2175 693a 72f6 043a f424 3f3c
00000250: e917 3cbc cfc1 323c 6636 c53c 51cb 1abb
00000260: 1c47 5f3b 5668 a2bc 526a ccba 555c 89bc
00000270: de95 a93c 6025 88bc 5282 37bc 5bc3 9d3c
00000280: cf00 92bc 34b1 96bb 55eb bb3c 91bf f0ba
00000290: 7a54 5b37 7182 ef3b f1e9 ad3b a1e8 263b
000002a0: dcd5 9abb 3d84 48bc 62b7 6d3c 3997 973c
000002b0: a0f5 c0bc 02d1 e0bc 5154 763c c6d9 37bd
000002c0: 6a03 32bc 8ae9 843c 707b 923c 5412 5abb
000002d0: a9b1 183c e98c 943b 8b64 0a3d d390 b539
000002e0: 3e88 fdbb 8bcc 4ebc 2b75 6dbc 9258 bfbc
000002f0: 55ee 833c ca35 56bc 7ee8 f5bc d571 13bd
00000300: aef9 e6bc 3b82 48bc 2105 31bc 0e1e a7bb
00000310: 95f3 f13a ce0e de3c 6447 d93b 89e5 edbc
00000320: 2612 b5bb f6e5 8939 ff2a ccbb c1b2 12bb
00000330: e101 07bc ecf7 f6bc a442 e8bc 16a5 fe3c
00000340: 13f7 70bc de8a 943c 221b 53bb 85f8 4b3c
00000350: 5fca d33c 1b6f 0fbb 9cef 993c 9af6 bc3b
00000360: fcd8 fbbb 7e71 c3ba fbcd 64bb 7ea5 d93b
00000370: a606 c53b c8c3 8c3c a8d5 f63c 42f6 d2bb
00000380: 3ef5 36b9 a1e1 b93c 1c67 073d d3a6 c8bc
00000390: 688b 0dba 378c 15bb 6c1b dcbc d8c2 42bd
000003a0: 521a 17bb d946 c63a 7a3c 013d f690 503b
000003b0: b3d2 893a bb53 aa3c 67b4 55bc 1703 bf3c
000003c0: a973 da3b e98e 1e3c 13de 88bc bb74 37bc
000003d0: b39e 0cbc d8ae 41bc 30d0 eebc db65 a8bc
000003e0: 81dd 0c3d b2b1 033c 94e8 95bb b452 7abc
000003f0: b05c a33c 7dc4 90bb 41b8 323c 93a2 86bc
-0.0148919895 -0.03162354 -0.020095283 0.015328405 -0.0037747445 0.022473464 -0.007046403 -0.0063877404
-0.035711866 0.0066265063 -0.023090992 0.0020015817 0.013278894 0.007182116 0.007528511 0.007327149
0.0021365413 0.0013409129 0.007863425 -0.01810502 0.005792551 0.016352478 0.04414604 -0.0008046794
0.022218361 -0.03194908 0.005529027 0.020623734 0.008363109 0.0019573085 0.03835719 -0.012061953
-0.035100687 -0.022676537 -0.010295925 0.03135897 0.011265524 -0.020518774 0.006114628 0.0005425712
0.016258728 -0.0014378097 -0.025145547 -0.006973427 -0.018209938 0.033666816 0.0129688 0.0010250797
-0.02136356 0.0051019816 0.009644096 0.021945262 -0.015951447 -0.002674214 0.0014222915 -0.04782547
-0.0046107764 -0.011991875 0.05009206 0.020830918 0.000646401 -0.035631597 0.015094347 -0.00026074296
0.0059731044 -0.03322809 0.036672086 -0.009836083 -0.031165311 -0.035206825 -0.020571128 -0.009031404
0.017797105 0.010287495 0.020810073 0.0009097821 -0.0060074315 0.016685361 0.006619581 -0.010317679
0.004001898 -0.013591029 -0.0070468737 -0.006061744 -0.012589684 -0.021718627 -0.06049793 -0.021846108
-0.017847894 0.015135194 -0.010091974 -0.00081705744 -0.034747194 0.0050376756 -0.0093435105 -0.0010186826
0.027002309 -0.019379364 -0.002541264 0.028154366 0.014329 0.0067857 -0.015676118 -0.04288998
0.030816857 -0.0019768346 -0.012045492 0.011512901 0.004666422 -0.010584974 0.044331685 0.05622318
0.024278017 0.012559509 0.0010974375 -0.013169378 0.025426317 -0.010832248 0.003318768 -0.0028305661
-0.011619689 -0.025748122 0.016827242 -0.0044100857 0.0074358424 -0.023617472 0.010866534 0.0021905294
0.014947271 0.010443642 0.019287223 0.012899782 0.013781662 -0.020208742 -0.0231031 0.014700405
0.011065586 -0.012664155 0.0106029995 -0.02494317 0.012052041 0.025804391 -0.0045190826 0.027510012
-0.030217951 0.0008905698 0.00050721236 0.011666525 -0.01148031 0.010910465 0.02407379 -0.0023619721
0.0034069484 -0.019825142 -0.0015595651 -0.01676766 0.020701345 -0.016619384 -0.011200504 0.019258192
-0.017822651 -0.004598761 0.022939363 -0.0018367638 1.3073086e-05 0.007309251 0.005307429 0.0025468247
-0.004725201 -0.012238559 0.014509054 0.018504726 -0.023554623 -0.027443413 0.015034751 -0.04488542
-0.010865072 0.016224641 0.017881125 -0.0033275085 0.009319701 0.0045333994 0.03378729 0.00034630913
-0.0077371886 -0.012622009 -0.014493267 -0.023357663 0.016104857 -0.013074348 -0.030018087 -0.03599723
-0.028195228 -0.012238081 -0.0108044455 -0.0051000183 0.0018459434 0.027106669 0.006630825 -0.029040115
-0.005525845 0.0002630201 -0.0062307115 -0.0022384378 -0.008240194 -0.030147515 -0.02835209 0.031084578
-0.014707345 0.018132623 -0.0032212217 0.012449388 0.025853334 -0.0021886292 0.018791012 0.005766702
-0.0076857787 -0.0014911143 -0.0034912813 0.0066420427 0.0060127554 0.0171832 0.030131176 -0.0064380476
-0.00017448232 0.022690596 0.033057317 -0.02449361 -0.00053994963 -0.002281917 -0.026868545 -0.0475491
-0.002305646 0.0015127315 0.031551816 0.0031824685 0.0010515064 0.020791879 -0.0130435 0.023316903
0.00666662 0.009677627 -0.016707456 -0.011197264 -0.008582759 -0.011821471 -0.029152006 -0.020556381
0.03439093 0.008037971 -0.0045748446 -0.015278507 0.019941658 -0.0044179545 0.010908187 -0.016434943

weight f4 [96, 32]
00000000: 5de8 0cbb bb8f 5bbc a588 19bd d15a c739
00000010: 415e 163c db60 a63c cf95 d2bc 5a92 943c
00000020: 7f5c bebc 3f2a c63c f0d4 ea3c 0472 2d3c
00000030: c4df 37bd fb32 f33b a0fc 793c 8414 0f3d
00000040: f221 b7b9 4b79 a6bc 2b16 5bbc 55e9 903a
00000050: 88ca 4d3b b856 06bd 2ed7 08bc d765 3c3c
00000060: 403c 3c3c cd4f f6bc 2ad7 abbc 5e29 d7ba
00000070: b70f 90bc 7fb8 2cbc 359d 13bd 7753 54bd
00000080: 7d0a debc d4d6 fe3b e8e7 d3bc fb8d 173a
00000090: 8038 f43c df80 a43c e5a1 b0bb dc96 213c
000000a0: f258 afbc ce22 7cbc 2173 4dbc 5197 fcbb
000000b0: 71ed 36bd 7d1f a03b 9236 a73c 2665 5bbb
000000c0: 25e0 8b39 3608 f53b cba2 4ebc 2563 adbb
000000d0: 8050 413c 7e58 9a3c 8f15 33bc 7a38 96bc
000000e0: 51c4 21b9 3906 ac3b b578 1e3c 46fa 213c
000000f0: 76b6 823c 098f 09bb 20f2 85bc 1cdc c0bc
00000100: c0d1 06bc ce8d efbb 7af1 3bbc 2f5f 4f3b
00000110: 621b cbbc e4c2 9c3b cd07 3dbc 5ae0 a2bc
00000120: caa2 c7bc 0a69 3d3c 95b4 1ebd 68d3 08bc
00000130: b411 b0bc d730 56bc 8559 0b3c 4350 07bc
00000140: c731 4cbc b463 9fbc a8fd ccba 9a4f 97bc
00000150: adfe 1d3d d129 bdbc 1500 afbb a818 013c
00000160: 78d4 9bbb dd7f 293c df94 09bd 48c8 a6bc
00000170: 1043 5dbc 5d18 cf3c bbc4 17bd 63c3 d23c
00000180: 108e 61bb 2e11 55bc 046f 713c 28b4 ec3c
00000190: 304c eabc b3e6 65bc 2be3 afbc 2ff8 4ebd
000001a0: 491d b03b adbd 6d3c a878 9ab8 ca85 aebc
000001b0: 115a 143d c17a 5c3b 7bcb a93b cc45 a63c
000001c0: 2425 7dbb b1ac 0abc 1449 a23c d409 6b3c
000001d0: fea1 04ba 3ab0 a93c 58b6 fe3c ee9c 673c
000001e0: 7ce6 86bb 8705 81bc 401e f53c 2e49 85bb
000001f0: 0a2f ce3c 8d6b bc3c 713f bfbc 7575 d03c
00000200: 24bd 81bc 10db bd3a 6f79 12bd e8b2 e4bc
00000210: 4e57 2a3d b53b 8f3b d452 28bc 25f0 bebc
00000220: b7b1 47bc f4e2 4eba c6d7 10bc 5f49 a7bc
00000230: 4c2a c2bb bbee 4cbb f8e4 113c fd25 ff3b
00000240: 006f 7bbc 6f6c 78bc 13be c83b 45bc 75bc
00000250: 01d7 103d 9561 ac3b 4649 033c 14e4 da3c
00000260: e18c 98bc f0fa 3dbc 6931 573c f043 cf3c
00000270: 84a4 adbb 3fe6 9abc 2c41 88bb 9a6e ee3c
00000280: 165d 85bc d3ea 17bd c81a 113d 0cec 62bb
00000290: 6866 213d afe1 4fbc bd5b 2cbc 5f57 d2bc
000002a0: 02df 74bb ac4a c4bb 4d41 ce3c af1c 0dbc
000002b0: 8c75 8b3b 21bc 43bc f3eb 58bc cb55 653b
000002c0: b8fa 2dbb 32fc cb3c 41cb a53c d9e1 963b
000002d0: 7b5c 85bc 424e 84bc 437e 4abc 314e 5abc
000002e0: 2e43 c93c b172 fabc 443d b5bc 9273 74bb
000002f0: cd6a e3bb df3c 8fbc b7ae d6bb a3a2 3bbc
00000300: 7d82 b4ba 8a54 043b 2b0f 75bc 2ad3 a83c
00000310: 3159 283c 5fa5 3fbb 062f 17bc 34e8 063d
00000320: abd7 a63c 9274 193c 6400 043c 0557 c3bc
00000330: 7e8c a6bb d462 36bc 8e6e 90bc 56f4 bebb
00000340: 3fb8 0a3c c8b5 16bc b910 e93c 4128 693c
00000350: 0319 de3c d052 16bc b8ec 3f3b cebb 6fba
00000360: 24a7 c1bc c487 62bc 958d efba 5d12 6cba
00000370: 441d 993c 0016 ba3c 9907 043b ad78 0f3d
00000380: 0fa9 5c3c d600 27bc 45bf 0cbb b3cc b63c
00000390: 8cd5 6e3b 65f6 133d f7af 123d d9de cebc
000003a0: 383d e9bc b427 43bc e2fd 9ebc c9d0 3c3b
000003b0: e733 0bbc 5f98 78b8 6603 c03b 0a46 47bc
000003c0: 9512 00bc a537 26bb 7a70 b5bc cf04 cabc
000003d0: 6aaa 9abc 087f 44bc 32ba 8cbb 456c fe3a
000003e0: e6e5 d43c cac0 393c 4cf6 f83b 9978 19bd
000003f0: be06 d43b 78be 5c3d fa85 a43c 1f67 8bbc
-0.0021500804 -0.013400967 -0.03748383 0.000380239 0.009177745 0.020309856 -0.0257062 0.018136192
-0.023237465 0.024190066 0.02866599 0.0105862655 -0.044891134 0.007421849 0.015257984 0.034931675
-0.0003492977 -0.020321509 -0.0133719845 0.0011055866 0.0031401236 -0.032797545 -0.008352084 0.01149889
0.011488974 -0.030067349 -0.020976622 -0.0016415527 -0.017585618 -0.010542034 -0.036038596 -0.05183741
-0.02710461 0.0077770744 -0.025867417 0.00057813496 0.029812098 0.020080982 -0.005390393 0.009862628
-0.021404717 -0.015389157 -0.012539656 -0.007708468 -0.044660036 0.004886566 0.020411763 -0.0033477037
0.00026679147 0.0074777855 -0.012612055 -0.00529136 0.011798978 0.018841024 -0.010930433 -0.018337477
-0.0001542729 0.0052497652 0.0096723335 0.00988633 0.015956145 -0.0020989797 -0.016350806 -0.023542456
-0.008228719 -0.0073106056 -0.011471147 0.0031642427 -0.02479333 0.004783975 -0.011537504 -0.01988237
-0.024369616 0.011560688 -0.038746435 -0.008351184 -0.021492817 -0.013073168 0.00850523 -0.008258882
-0.01246304 -0.019456722 -0.001563956 -0.018470574 0.038572956 -0.023091229 -0.005340586 0.007879414
-0.004755553 0.010345426 -0.03358924 -0.020359173 -0.0135047585 0.025280172 -0.03705285 0.025727933
-0.0034416951 -0.013004584 0.014735941 0.028894499 -0.028600782 -0.014032054 -0.021470627 -0.050529655
0.005374585 0.014510554 -7.365766e-05 -0.02130403 0.036218707 0.0033642503 0.0051817275 0.020296954
-0.0038626874 -0.008464024 0.019810237 0.014345605 -0.0005059539 0.020713914 0.031092808 0.014136536
-0.0041168313 -0.015749706 0.02992165 -0.0040675616 0.025168914 0.023000503 -0.02334568 0.025446633
-0.01583726 0.0014484841 -0.03576034 -0.02791734 0.041587166 0.0043711313 -0.010273654 -0.02330787
-0.012188367 -0.0007892095 -0.008840507 -0.020420728 -0.0059254523 -0.0031270224 0.008904688 0.007786511
-0.015346289 -0.015162571 0.0061261742 -0.0149985 0.035361294 0.005260656 0.008013075 0.026720084
-0.018621864 -0.011595473 0.013134339 0.02530095 -0.005299153 -0.018908618 -0.0041581597 0.029105473
-0.016279738 -0.03708918 0.03542593 -0.0034625558 0.039404303 -0.0126880845 -0.010519919 -0.025676427
-0.0037364368 -0.005990347 0.025177622 -0.008612796 0.004255956 -0.011946709 -0.013239848 0.0034993764
-0.0026547145 0.02490053 0.02023852 0.00460456 -0.01627945 -0.016150597 -0.012359205 -0.013324306
0.024568167 -0.030572267 -0.02212394 -0.003730033 -0.006940222 -0.01748508 -0.0065515894 -0.01145235
-0.0013771799 0.002019199 -0.01495723 0.020608503 0.010275171 -0.0029242856 -0.00922752 0.03293629
0.02036651 0.009366171 0.008056734 -0.023845205 -0.005082666 -0.011131961 -0.017630842 -0.005827467
0.008466779 -0.009198613 0.028450357 0.014230789 0.027111536 -0.0091750175 0.0029285382 -0.00091451115
-0.02363927 -0.013826314 -0.0018276448 -0.0009005422 0.018690713 0.022715569 0.002014613 0.035027195
0.013468041 -0.01019307 -0.002147631 0.022314405 0.0036443202 0.036123652 0.035812344 -0.025252746
-0.028471574 -0.011911321 -0.01940817 0.002881097 -0.008496261 -5.9269714e-05 0.00585978 -0.012162695
-0.00781693 -0.0025362757 -0.02214836 -0.024660496 -0.018880088 -0.011993177 -0.004294657 0.0019410929
0.02598853 0.011337468 0.0075977203 -0.037468527 0.0064705303 0.053892583 0.020083416 -0.017016945

bias f4 [96]
00000000: 0000 0000 0000 0000 0000 0000 0000 0000
00000010: 0000 0000 0000 0000 0000 0000 0000 0000
00000020: 0000 0000 0000 0000 0000 0000 0000 0000
00000030: 0000 0000 0000 0000 0000 0000 0000 0000
00000040: 0000 0000 0000 0000 0000 0000 0000 0000
00000050: 0000 0000 0000 0000 0000 0000 0000 0000
00000060: 0000 0000 0000 0000 0000 0000 0000 0000
00000070: 0000 0000 0000 0000 0000 0000 0000 0000
00000080: 0000 0000 0000 0000 0000 0000 0000 0000
00000090: 0000 0000 0000 0000 0000 0000 0000 0000
000000a0: 0000 0000 0000 0000 0000 0000 0000 0000
000000b0: 0000 0000 0000 0000 0000 0000 0000 0000
000000c0: 0000 0000 0000 0000 0000 0000 0000 0000
000000d0: 0000 0000 0000 0000 0000 0000 0000 0000
000000e0: 0000 0000 0000 0000 0000 0000 0000 0000
000000f0: 0000 0000 0000 0000 0000 0000 0000 0000
00000100: 0000 0000 0000 0000 0000 0000 0000 0000
00000110: 0000 0000 0000 0000 0000 0000 0000 0000
00000120: 0000 0000 0000 0000 0000 0000 0000 0000
00000130: 0000 0000 0000 0000 0000 0000 0000 0000
00000140: 0000 0000 0000 0000 0000 0000 0000 0000
00000150: 0000 0000 0000 0000 0000 0000 0000 0000
00000160: 0000 0000 0000 0000 0000 0000 0000 0000
00000170: 0000 0000 0000 0000 0000 0000 0000 0000
0.0 0.0 0.0 0.0 0.0 0.0 0.0 0.0
0.0 0.0 0.0 0.0 0.0 0.0 0.0 0.0
0.0 0.0 0.0 0.0 0.0 0.0 0.0 0.0
0.0 0.0 0.0 0.0 0.0 0.0 0.0 0.0
0.0 0.0 0.0 0.0 0.0 0.0 0.0 0.0
0.0 0.0 0.0 0.0 0.0 0.0 0.0 0.0
0.0 0.0 0.0 0.0 0.0 0.0 0.0 0.0
0.0 0.0 0.0 0.0 0.0 0.0 0.0 0.0
0.0 0.0 0.0 0.0 0.0 0.0 0.0 0.0
0.0 0.0 0.0 0.0 0.0 0.0 0.0 0.0
0.0 0.0 0.0 0.0 0.0 0.0 0.0 0.0
0.0 0.0 0.0 0.0 0.0 0.0 0.0 0.0

weight f4 [32, 32]
00000000: 229c d3bc 0adc e0ba 1198 9e3c 66bd e63c
00000010: 7ac1 3f3c 4a21 0d3c ee07 2b3c 917f dabc
00000020: fd2b ad3b a943 a4bb 7f8c b9bc 363a 12bd
00000030: e599 0f3d 1db2 823c 280b 5c3c 05ca ac3c
00000040: 7e05 283c 494b b13c e107 51bd 5ffb 0abc
00000050: 11be 0fbd 2c44 923c 76d8 153b 027e 803c
00000060: cdaa 3bbb cecb 003c 9b60 8cbc 1462 83ba
00000070: 11f1 f13a add7 4ebc 108f 413b 1680 803c
00000080: b69e 373d 7206 c3bb 59bd e8bc 53cd a0bc
00000090: e77a 04bd fcb8 733c ea16 693c d70f 133d
000000a0: 8e86 d8bb 043b b33c eaf9 3bbb 0eda e4ba
000000b0: 1445 4cbb 0e6e 3538 1dae 113d 68fc 823b
000000c0: 7748 c83c 6946 e13a 3575 443d 2f87 ecbb
000000d0: ef58 ab3b 2d08 d5bc db1c d43c ec9e b43c
000000e0: d288 1d3b 48fe f33c 39c8 aabc f225 7bbb
000000f0: 27dc 513c e8b4 1cbd 996b ffbb d1cc 8abc
00000100: fbe8 96bb 171b 103b b002 733b 5168 17bc
00000110: 7e0c 713c 34ee 8e3b 659a 9cbb 4c09 b7bb
00000120: 55b7 b7ba 5e76 1d3d 8110 56bc b7d5 19bc
00000130: 834e fe3b 097c 9ebc 3614 85bc 046f d73c
00000140: da6f a33b 1583 96bc 3072 fe3b f516 71bc
00000150: f384 d23c d4d7 853c 5ef5 953b c402 913c
00000160: 999c 8fbb 508e f5bc 0c91 213d 0d3e 88bc
00000170: 5b1d 38bc 9271 c03a 0476 bfbc e09d cf3c
00000180: 66b4 1dbb 32bc 64bc fdbe 573a 8b68 1d3d
00000190: 2ddc 9abc b4b7 ea3c d292 ef3a 8f91 6dbc
000001a0: 34aa d9bb fb22 b9bc 9d79 e6bc ff68 ae3b
000001b0: a20e e339 2d0e d83c e492 2dbb aec3 0abc
000001c0: 4ea5 f2ba 4743 efba ba80 f93c 5ee1 833c
000001d0: 56ee c03a 1957 1c3d e94a 833c 25b0 01bd
000001e0: e61d 083c fcaf 6cbc 94dc 8ebc 3729 e83c
000001f0: 8fcc 233c f8aa 8abc 0a85 3fbc e660 d83c
00000200: c3fa 333d 15ae e63a 3ed2 943a dd41 603c
00000210: bb71 ebbc 239b 90bb 8c65 a0bc b1f7 abbb
00000220: fea3 133d 0a54 9d3c 103e aabc 763f 053c
00000230: 8e57 c33c 7345 86bc 22a7 b33c 19bb 34bc
00000240: b628 41bc 07e7 b2bc f84b 713c 32a5 b0bc
00000250: b2fb b1bc 8c73 8a3b a48b 85bb 96bc 7a3c
00000260: 906d 163c d046 a3bc adba 0bbc bd5f d6bc
00000270: 0807 6e3c 9b3a d73c bc7b 9fbc 8a2c 64bc
00000280: cd0e 563c ba64 d53b 35c1 4ebc 5a5e 813c
00000290: 913d dfbb 9c73 d53b 2095 a5bc e97f 8d3b
000002a0: 3c40 4dbb f4e6 8f3c ad32 843b 1c88 1cbd
000002b0: ad1b 883b 314e 163b ad76 febc 6768 82bc
000002c0: 29be a23c 1554 243d 2d48 523c fcb5 303d
000002d0: 0d88 41bd 47d6 97bc 615e bbbc 2114 60bc
000002e0: 5bf9 863b f4fb c33b 1c69 9d3c 733b 07bc
000002f0: c07b bcbb d856 bd3c 5b31 a1bc 822e e7bc
00000300: b34d 113c e468 8e3c a706 f23b f8e5 403c
00000310: e2d8 4e3c d1bb 86bc 86b2 623c ce6b 13bd
00000320: 8ecd dc3b f722 87bc e8eb 64bc 46d9 ccb8
00000330: 9043 2fbd 2b91 693c 5ffa a6bb 88ae 243c
00000340: e975 e13c 44cb 003d 8bc8 bd3b 256f 97bc
00000350: 0f54 b5bc 1402 9fbc ea5b d53c 1ef7 5dbd
00000360: 85d8 433c 7f31 c1bc c6d7 8a3c 70ef 853a
00000370: 99b0 bb3c dc19 e23c 3adb f73b 65c7 093b
00000380: e80b 9c39 bac6 d8bb 294a 2dba 508c 1f3d
00000390: e284 02bc 65c9 e3bc d9b9 ffbb 8049 1c3b
000003a0: 8818 0ebd 241f 05b9 d938 693c f946 d43c
000003b0: ce2a 56bc 3922 8aba 1ff9 ec3a a514 bebc
000003c0: 7f34 59bc f5d8 ce3c c58a 53bb 00bc 0a3c
000003d0: 5096 e8b9 fbfc bf3c fadd f5bc d157 2a3c
000003e0: 4834 783b 5f09 9e3c be3f bfbc 27c6 e4bc
000003f0: 700a b13c d95c 97bc b3f9 d13c f44b 823c
-0.025831286 -0.001715542 0.01935962 0.028166484 0.011703843 0.008613894 0.010438902 -0.026672157
0.005284785 -0.0050129485 -0.022650002 -0.035700046 0.035058875 0.015954072 0.013430394 0.021092424
0.010255216 0.021642344 -0.051032905 -0.008482783 -0.03509337 0.017854773 0.0022864616 0.015685085
-0.002863574 0.007861091 -0.017135909 -0.0010023736 0.0018458684 -0.012624663 0.0029534735 0.015686076
0.044829093 -0.005951696 -0.0284106 -0.019629156 -0.03234377 0.014875647 0.014226655 0.035903778
-0.006607837 0.021878727 -0.0028682896 -0.0017460005 -0.0031169103 4.325626e-05 0.035566438 0.0039973743
0.024448616 0.0017187122 0.04796334 -0.0072182636 0.0052291076 -0.026004875 0.025892666 0.022048436
0.002403785 0.029784337 -0.020847427 -0.0038322178 0.012808836 -0.038258463 -0.007794809 -0.016943367
-0.00460541 0.0021988803 0.003708046 -0.00924118 0.014712451 0.004361892 -0.0047791474 -0.005585825
-0.0014016429 0.038442962 -0.013065458 -0.0093893325 0.007760824 -0.019346254 -0.016244989 0.026298054
0.004987699 -0.018373052 0.007765077 -0.014714946 0.02569816 0.016338266 0.004576369 0.017701514
-0.0043826816 -0.029975086 0.039444968 -0.01663115 -0.011237468 0.0014682284 -0.023371704 0.025343835
-0.0024063825 -0.013960885 0.00082300586 0.038429778 -0.018903816 0.02865205 0.0018278009 -0.014500036
-0.0066426042 -0.022599688 -0.028134162 0.005322575 0.00043307716 0.026373947 -0.0026485259 -0.008469505
-0.0018512399 -0.0018254303 0.03045689 0.016098674 0.0014719467 0.038169 0.01602693 -0.031662125
0.00830791 -0.014446255 -0.017439164 0.028339965 0.009997501 -0.016927227 -0.011689434 0.026413392
0.043940317 0.0017599488 0.0011354161 0.013687578 -0.028740754 -0.004413025 -0.019579671 -0.005248033
0.036045067 0.019205112 -0.020781547 0.008132806 0.02384546 -0.016390538 0.021930281 -0.011030936
-0.011789491 -0.021838678 0.014727585 -0.021563146 -0.021726463 0.0042252 -0.0040754844 0.015303751
0.009181395 -0.019931227 -0.008528394 -0.026168698 0.014528044 0.026273062 -0.01946818 -0.013926635
0.013065052 0.0065122517 -0.012619306 0.01579206 -0.006812759 0.006514026 -0.02021271 0.0043182266
-0.0031318804 0.017566182 0.0040343613 -0.03821574 0.00415369 0.002293479 -0.031062448 -0.015918924
0.019866066 0.04011925 0.012834591 0.043142304 -0.04724889 -0.018534793 -0.022872152 -0.013676674
0.004119081 0.005980963 0.01921516 -0.00825392 -0.005752057 0.0231127 -0.019676855 -0.028220419
0.008868623 0.017384 0.007386047 0.011773579 0.012624951 -0.01644698 0.013836509 -0.035991482
0.006738371 -0.016496165 -0.01397226 -9.767948e-05 -0.042789042 0.014255802 -0.0050957645 0.010051377
0.027522044 0.03144385 0.005791729 -0.018485615 -0.022134809 -0.01941017 0.026044805 -0.054190747
0.011953478 -0.023583172 0.016948592 0.0010218453 0.022911357 0.027600221 0.0075639756 0.002102339
0.0002976351 -0.006615487 -0.0006610477 0.03895217 -0.007966252 -0.027805993 -0.007804137 0.002384752
-0.034691364 -0.00012695469 0.014234745 0.025912749 -0.013071729 -0.0010538764 0.0018079615 -0.023203203
-0.013257145 0.025249938 -0.0032278758 0.008467674 -0.0004436248 0.02343606 -0.030013073 0.010396914
0.003787296 0.019291578 -0.023345824 -0.027926518 0.021611422 -0.01847689 0.025631761 0.015905358

bias f4 [32]
00000000: 0000 0000 0000 0000 0000 0000 0000 0000
00000010: 0000 0000 0000 0000 0000 0000 0000 0000
00000020: 0000 0000 0000 0000 0000 0000 0000 0000
00000030: 0000 0000 0000 0000 0000 0000 0000 0000
00000040: 0000 0000 0000 0000 0000 0000 0000 0000
00000050: 0000 0000 0000 0000 0000 0000 0000 0000
00000060: 0000 0000 0000 0000 0000 0000 0000 0000
00000070: 0000 0000 0000 0000 0000 0000 0000 0000
0.0 0.0 0.0 0.0 0.0 0.0 0.0 0.0
0.0 0.0 0.0 0.0 0.0 0.0 0.0 0.0
0.0 0.0 0.0 0.0 0.0 0.0 0.0 0.0
0.0 0.0 0.0 0.0 0.0 0.0 0.0 0.0

weight f4 [32]
00000000: aa0c 653f 8c97 b13f b3fb 883f 91b4 9f3f
00000010: 8c5e 503f 6ac5 9a3f 0805 793f 6330 ad3f
00000020: 122a cf3f a2b2 663f ae15 2d3f aa9a 8b3f
00000030: 91f9 783f 423e b33f e05f a23f 1e50 7e3f
00000040: 141a 713f 949c 903f 43a1 983f 4cfe a33f
00000050: e07e 7c3f 48e8 693f acbd 893f cff9 973f
00000060: 5546 813f 618e d33f 6f6e 8c3f be19 3d3f
00000070: 6cfb e23e f702 5c3f be32 603f 69f0 5a3f
0.8947245 1.3874373 1.0701813 1.247698 0.8139427 1.2091496 0.972733 1.3530391
1.6184714 0.9011632 0.67611206 1.0906575 0.9725581 1.4003375 1.2685509 0.99341
0.9418042 1.1297784 1.1924213 1.281198 0.98631096 0.9137006 1.0761008 1.187311
1.0099589 1.6527826 1.0971202 0.73867404 0.44332445 0.85942024 0.87577426 0.85523087

bias f4 [32]
00000000: aa7d 6e3d 4276 40be d211 8bbe bc9e 87be
00000010: 404a b13e 6280 8ebe 6cb8 c33d 8bb3 4e3c
00000020: b9db 533d 664b 84bd 3141 04bd bac3 823c
00000030: b3dc b03e ebf1 36be 1bf6 03bd 4926 013e
00000040: 3a27 7d3e 1402 ce3d e844 21be bf14 6fbd
00000050: f347 e33c fb4d 393e a419 0b3d 6028 a4be
00000060: 4c27 66be 61e5 293c 7d0f a33e 7c19 013e
00000070: 4372 e13d 495a 92be 1bf8 c13d 8f7f 353d
0.05822531 -0.18795112 -0.27162033 -0.26488292 0.3462696 -0.27832323 0.0955666 0.012616049
0.051723216 -0.064596936 -0.032288734 0.01596247 0.3454338 -0.17865722 -0.032217126 0.12612261
0.24721995 0.1005899 -0.15748942 -0.058369394 0.027744269 0.18096153 0.03396 -0.32062054
-0.22475928 0.01036963 0.31847754 0.12607378 0.11008122 -0.28584507 0.094711505 0.044311102

weight f4 [128, 32]
00000000: 0a06 96be e709 c4be bc00 30be b3d3 7e3e
00000010: 76a2 6dbf 24c8 20bf 9656 523d 15c4 f3bd
00000020: 7b87 36bf 1854 e63d 7d99 703e b67f 653d
00000030: 3eb4 833e 3d7f 8f3e 24ee d1bd 6ac0 a0bf
00000040: f7d0 163f 1701 a4be 9764 af3e 177a 283f
00000050: 9874 91bc 5fcf 35bf 9e49 0bbd 469b 09be
00000060: 8af5 e6bd bbc3 443e 662a 453f dd8f 2c3f
00000070: 12e8 adbe ef22 1a3e 1dc4 efbe 3f5d 133e
00000080: e89d a8be 663e e7bd e03b ce3d a04e c9bd
00000090: 2862 02be 03b3 a63d 708f 943c 6d70 c3bd
000000a0: f50b 1fbf 94f3 8a3d 8796 acbe f788 763d
000000b0: 0459 9d3d 75b9 803e 3c26 0fbf e216 95bc
000000c0: 9e91 743b 239d 233f 9ea5 5ebd c089 0fbf
000000d0: 4dba fa3e c574 84bc 61ce f5bd 82e2 73be
000000e0: 8b08 5b3e 37e1 8e3e 447c 343e c295 7fbe
000000f0: b073 f63d 6645 c1bd e805 73be 8de0 d53b
00000100: d70e 1b3f 8414 e5bd e5fa 3abf 5c29 3bbf
00000110: 81e8 d63b 1da1 cf3e 8019 f0bd 0ff8 94be
00000120: 77d2 e1bd 7f54 153f 5e4b dbbe aff6 633d
00000130: 1f1e 593b 9a2a ca3d 637c da3c 7e59 b83c
00000140: 563a 4e3e d6a7 e9bd 1d39 e9bd 528b bc3e
00000150: 61f0 83bd 7365 853e 242d b1be 354f 7c3e
00000160: b42e b73e db00 86bd 43fd 3c3e 798e 6abc
00000170: bbd6 653c f09c fa3e 0e0f 4ebe d68a 0abe
00000180: b2fc f53e adcf 4b3f 0db5 033f cd1b d4bd
00000190: 963e debd a19d 67be 0856 1c3e 1042 07bf
000001a0: ccec e03d 0313 cabe ae54 94bd afd7 13bd
000001b0: 36b2 c4be 790f 99bb 2c47 533c 6768 953d
000001c0: 3683 4b3f 4a0b 2c3e c22f 913e 74b3 5dbe
000001d0: b62c 31bd ab2f fdbc 5913 06be 762f 6cbe
000001e0: 661a 67bc 4e4d 8bbe 2f61 713c aeef 16be
000001f0: 5a55 803d 44e2 edbd 2839 89be e01a d93e
00000200: 4508 563d 0b06 98bc 781c c83b d19b fe3e
00000210: 78c4 67bf 80c9 00bf 3ff3 a43e 5492 84bf
00000220: ea4d 8ebd bcf4 073f 9a7a 9c3e d136 0dbe
00000230: 30bb 533e e5f0 5c3e 7ebe f23e 752b 3bbf
00000240: af2b 93be 049f c2bd 581c 00be 380e 1a3d
00000250: ea28 e1bd aea5 63bf bb75 8b3e cbb8 203e
00000260: 1112 42be 75fa 40be c6e0 9c3d 8559 343d
00000270: c6c9 103f 5ca5 993e 958c 9bbd a869 a63e
00000280: 53e4 6b3d 9fa6 edbd a639 923a 4a6b e93d
00000290: 7308 5ebe e087 9cbd dcf9 fcbd dd23 183c
000002a0: 609c 853c f0d3 e53d 0016 d23e d26f 3b3d
000002b0: 0cea ecbd 3b5f 893e 4167 e93d 478b 26be
000002c0: 0c44 2c3e 5de1 88bd 973b e63c 95dd 7ebd
000002d0: 6c69 edbe ae6f 97be 47c4 8b3e 2e45 aa3d
000002e0: 2af5 573d b89d 05be 6c1c f63b 11ca 3abb
000002f0: 2b95 6d3d 22b5 12be d25e 99bd 72cf b43e
00000300: eae3 41bf 5afe e83e 177f 83bd 539b ce3c
00000310: 54fa bbbe 12b9 98be 9a32 073f 82d8 04bf
00000320: 3058 cdbe 1363 953e 28bb f1be fc95 1dbe
00000330: 6a69 c23e 9897 c2bb 4faf 5ebe 6999 2a3e
00000340: bed2 8dbe 108e 453f e10a ccbe d7ea 83bc
00000350: c1d1 023e 9f9d 25be c01f cb3e 7227 c53e
00000360: 677d 81be b424 98bd 7c72 0f3e f4cb 043f
00000370: 552a ca3e 5616 89be f2e1 bf3e a9bb b9be
00000380: 4157 aebe f737 cbbd 117a 73bf f63c cd3d
00000390: 3168 77be d084 6b3e 0fc2 123e c6d4 ddbd
000003a0: 7f54 e6be ffe4 643e 1068 c0bd f7f0 e2be
000003b0: e1f1 8cbe 16ca 093f 132f 30be ed08 f1be
000003c0: bcc3 ac3e 26c0 92bd c34f 893c b306 533f
000003d0: 854d 90bd 410a 213d 9319 af3d 7559 02be
000003e0: b03a 753f 4303 24be f3bc c43d 0d2a ddbd
000003f0: 3d3b b43e 5053 893f 440a 5bbf 8f47 a2be
-0.29301482 -0.38288805 -0.1718778 0.24885444 -0.9282602 -0.6280539 0.051352106 -0.11902634
-0.71300477 0.11246508 0.23496051 0.056029998 0.2572345 0.28026763 -0.102505 -1.255872
0.58912605 -0.3203208 0.3425643 0.65811294 -0.017755792 -0.7101955 -0.034005754 -0.13438138
-0.112773016 0.1921529 0.7701782 0.6740702 -0.33966118 0.15052389 -0.4682931 0.1439104
-0.32932973 -0.112911984 0.10070014 -0.0982945 -0.12732756 0.081396125 0.018134803 -0.09542928
-0.6212762 0.0678474 -0.33708593 0.060189214 0.07682994 0.25141492 -0.55917716 -0.018199388
0.003731824 0.63911647 -0.054357164 -0.56069565 0.4897026 -0.016168961 -0.12002254 -0.23816875
0.21389978 0.279062 0.17625529 -0.24959472 0.120337844 -0.09437065 -0.23732722 0.0065270127
0.6056952 -0.11185554 -0.73039085 -0.73109984 0.0065584783 0.40552607 -0.11723614 -0.29095504
-0.11026471 0.58332056 -0.42830938 0.055655178 0.0033129526 0.09871407 0.02667064 0.02250361
0.20139441 -0.11408965 -0.113878466 0.36825043 -0.06442333 0.26053962 -0.34604752 0.2463959
0.3577782 -0.06543132 0.18455987 -0.014316195 0.0140282465 0.4894786 -0.2012293 -0.13529524
0.48044354 0.79613763 0.51448137 -0.10356865 -0.10851781 -0.22618724 0.15267193 -0.5283518
0.109826654 -0.3946763 -0.07242714 -0.036094364 -0.38417214 -0.004671034 0.012895387 0.07295304
0.79497087 0.16801181 0.2835675 -0.21650487 -0.04325553 -0.030906519 -0.13093318 -0.2306498
-0.014105415 -0.27207416 0.014732643 -0.14739868 0.062662795 -0.11615422 -0.2680142 0.42403316
0.05225398 -0.018557569 0.0061069094 0.49728253 -0.9053416 -0.50307465 0.32216832 -1.0357156
-0.06948455 0.5310781 0.30562288 -0.13790442 0.20676875 0.21576269 0.4741096 -0.73113185
-0.28744265 -0.09502986 -0.12510812 0.037611216 -0.10994132 -0.8892468 0.2723826 0.15695493
-0.18952204 -0.18845542 0.0766006 0.044030685 0.5655788 0.30008972 -0.07595173 0.32502484
0.057590794 -0.11604046 0.0011156097 0.11397417 -0.2168291 -0.076431036 -0.123523444 0.009285894
0.016309917 0.112220645 0.4103241 0.045760937 -0.115680784 0.26830468 0.11396647 -0.16264068
0.16822833 -0.0668361 0.028104587 -0.062223036 -0.46369493 -0.29577392 0.27298185 0.08313976
0.05272404 -0.13048446 0.0075107124 -0.0028501789 0.058003586 -0.14326909 -0.07488789 0.35314518
-0.75738394 0.45506555 -0.06420725 0.025220549 -0.36714423 -0.29828697 0.52811587 -0.51892865
-0.40106344 0.2917715 -0.472131 -0.15389246 0.3797105 -0.0059384815 -0.21746562 0.16660084
-0.27699846 0.77169895 -0.3985205 -0.016103191 0.12775327 -0.16173409 0.3967266 0.38506657
-0.25290987 -0.074288756 0.14008516 0.5187371 0.39485422 -0.26774853 0.3747707 -0.36275986
-0.34050944 -0.09922784 -0.95108134 0.10021393 -0.2416084 0.22999883 0.1433184 -0.10831599
-0.4498634 0.2235298 -0.09394848 -0.44324467 -0.2752829 0.53823984 -0.17205457 -0.47077122
0.33743083 -0.07165556 0.016761666 0.824321 -0.07046036 0.03931642 0.085498 -0.12729438
0.95792675 -0.16016869 0.09606352 -0.10799036 0.35201445 1.072855 -0.8556254 -0.3169522

bias f4 [128]
00000000: 5aab efbe 14e5 1bbe 0ca9 b1be dfdc d63d
00000010: 0c04 b5be dc02 68bc 204d e5be e6ba e2be
00000020: cf96 18bf f60f 5bbe 9356 a33c 9f8f 27be
00000030: 9c9d 5dbe 51d9 1dbf dc8e 3abe 1f80 583e
00000040: ab7f 91be cf06 03be 9d25 95bd 81ae 79be
00000050: bbeb 02bd 870a 88be 142e 4ebf 2f72 1fbf
00000060: 0a8b 703e 85dd aabc b230 a23d 8332 27be
00000070: 769c 1c3c 48dc 1ebe 5752 15be 5f1b d7be
00000080: ca66 2e3d 0d93 91bf 7e94 93be 5f82 23bd
00000090: 42e2 0dbf b174 d7be 64cb b4bc fc8c 39be
000000a0: e8c8 72bc 1acd 71bd 2b7a 92be 204a aabd
000000b0: 5fcd 79be 2f4a 6bbc 57d6 b9be c79d ca3a
000000c0: 7957 93be 7965 13bf 9f33 4fbe fd79 c4bc
000000d0: 8e9e 4a3e 7c32 b93d 22a2 50be 838b 49bf
000000e0: 955b 13bf a2f8 c6bd 5312 debc ea08 5f3d
000000f0: a92a 3f3e 0566 48bf 0e34 493e 0447 07bf
00000100: 4e82 0ebd 0c4d edbe c244 b93d 3c18 463e
00000110: 36cf e6be fde4 a2be 4663 6abe 6e76 89bd
00000120: e421 8c3d f546 38bf ffeb 45bd 2ea9 9abd
00000130: 6ba7 2f3e 5f17 20be d5a0 f6bd 6b48 17bf
00000140: 3ee0 a63d 2212 6fbd e711 b7be fe6f e53e
00000150: e4ff 73be 013a 4d3e 33e7 d8be abcd 1ebe
00000160: 613c b2bd 7323 8f3e 05f3 983d 0139 803e
00000170: 4012 c33d b262 27bf a982 003e 36f6 75be
00000180: b441 25bf 66f1 68bb 35e9 18bf 5605 83be
00000190: a9b2 8cbe 6348 9dbe 19d2 efbd fe15 603d
000001a0: d3d9 b43d 1b99 f2be e245 3bbf c823 d6bd
000001b0: 7aa9 043e 6127 a0bd 23af 973d 7924 50bd
000001c0: 463b 3dbe 48e7 17bf 781e 0ebf c521 95be
000001d0: db2e 92bd 1db0 f2be b5e0 5dbe 4b62 48be
000001e0: 5552 9fbe 246a 66be 4174 343e 4f1d 4cbf
000001f0: 4f17 4fbe a746 13be f438 21be 5831 273d
-0.46810418 -0.15224105 -0.34699285 0.104913466 -0.3535465 -0.014160838 -0.44785404 -0.44283217
-0.59605116 -0.21392807 0.019938743 -0.16363381 -0.21642154 -0.61659724 -0.18218559 0.21142624
-0.28417715 -0.12795566 -0.07282565 -0.24382974 -0.03196309 -0.26570532 -0.8053906 -0.62283605
0.23490539 -0.020857582 0.07919444 -0.16327862 0.009558788 -0.15513718 -0.14582191 -0.4201307
0.042578496 -1.1373001 -0.28824228 -0.039919253 -0.5542337 -0.42081216 -0.02206964 -0.18120188
-0.014818408 -0.05903349 -0.28608832 -0.083149195 -0.24394749 -0.0143609485 -0.3629634 0.0015458398
-0.28777674 -0.5757671 -0.20234536 -0.02398395 0.19787046 0.09042832 -0.20374349 -0.78728503
-0.5756162 -0.09715392 -0.027108347 0.05445186 0.18668617 -0.7828067 0.19648764 -0.52842736
-0.034792237 -0.46347845 0.09046318 0.19345182 -0.45079964 -0.3181533 -0.22889432 -0.06712042
0.068424016 -0.7198327 -0.048320767 -0.075518 0.17153709 -0.15633915 -0.12042395 -0.59094876
0.081482396 -0.058366902 -0.35755846 0.44812006 -0.23828083 0.20041658 -0.4236389 -0.15508144
-0.087029226 0.27956733 0.07468227 0.2504349 0.09524965 -0.6538497 0.12549843 -0.24019703
-0.6455338 -0.0035544275 -0.59730846 -0.25590008 -0.27480057 -0.3071929 -0.11709995 0.054708473
0.08830609 -0.47382435 -0.7315351 -0.104560435 0.12955275 -0.07820011 0.074064516 -0.050816033
-0.18479642 -0.5933728 -0.5551524 -0.29127327 -0.07137843 -0.4739999 -0.2166775 -0.19568746
-0.31117502 -0.22501427 0.17622472 -0.7973222 -0.20223735 -0.1438242 -0.15744382 0.040818542

weight f4 [32, 128]
00000000: db94 2ebd 906e 5bbd 2f9a 4abb c5a0 cebc
00000010: 2ddb 9eba 8e05 dfbc d121 1abc b1f4 5c3c
00000020: cd6c f7bc c5fa 8c3c 613a 4dbd 0bf3 38bc
00000030: 66a5 0abc 2c1b 33bc d558 02bd 7e12 20bc
00000040: e448 60bc 080c 57bc 2ca7 f0bc b4b2 7fbc
00000050: 52fc 4bbb 11c4 09bd 0f53 9abc 7a24 08bd
00000060: c4bf 16bd 1148 23bd 2103 50bd 6682 efbc
00000070: a5d8 2ebc d293 1cbc cd20 1fbc e22a b9bc
00000080: a1f7 5dbd 2db5 26bd 2a05 f53c 77e8 a1bc
00000090: 73e7 99bb be3b 9dbc a971 f4bc 28ac 373c
000000a0: e386 003d a443 d6bd 6f45 d4bc fc58 c7bc
000000b0: 2fa9 f2bc 1d58 17bb 16cc 42bd 6c0b fabc
000000c0: f637 5bbc 4f8d dabc cf8e 5cbb bc4d 50bd
000000d0: 50f0 0fbd 4aef a7bc c49d 143a 58c5 8e3c
000000e0: 6ffb 46ba aad3 0dbd 9948 0ebd 193d 93bc
000000f0: 83b1 3b3c 8b71 f4bc 8ab5 44bd 2da8 87bc
00000100: 765e 363c a611 06bd 9c6f 19bd 3d7c 333d
00000110: 7d14 40bc 38d8 f73a 5916 3fbd 894d da3b
00000120: aae0 2cbd 222e a33b 422c 40bd ee6a 81bc
00000130: ca83 12bc cc9f 96bc 54cc 7abd b9d1 fbbc
00000140: bdf4 9abc bf37 3f3c 6520 85bc 3445 a5bc
00000150: 9857 06bd 4c64 d2bc a295 19bd 3811 76bd
00000160: 98bf d23b 096c 4fbd 0e12 a1bb 7262 97bc
00000170: fbaf 24bd dd9f c0bc 34e9 423c 422e 633c
00000180: 51fa a93c 1158 e2bc 5083 0b3d 89a3 3cbd
00000190: 1cb5 ebbc 0321 113c 50b4 2cbb 38f6 4cbc
000001a0: 382c d5bc 3fc1 83ba b99a 0634 06e7 adbc
000001b0: 5447 bdbc eba6 78bc 7ea5 42bc 053d 2dbc
000001c0: f640 71bd a7ae 0dbc 371d 0bbd a654 d53b
000001d0: d951 67bc 5977 ffbc 80cc 3d3c 5885 c2bc
000001e0: be7a d2bc 9719 9cbb 163f 35bc 45d0 05bd
000001f0: a0ee bfbb 7132 aebb 372c 84bc 45d3 e9bc
00000200: 7362 483c cb28 a7bc 15d1 67bd dee4 c9bc
00000210: 7f7b 60bc 832a cfbb 8c60 2abd ca70 84bd
00000220: 49e2 ecba 338a 6d3c 72f7 c8bd e39f 82bd
00000230: 5372 2ebd d824 923b b78f fa3b d569 09bd
00000240: 54ff 643d b300 64bd 2b81 efbc 1d60 3ebc
00000250: 2139 a4bc b8fb 3cbd 9a49 8fbc eef7 7c3c
00000260: 4334 88bd 91dd a7bd d0d9 50bd 2b16 4d3c
00000270: 87d2 a7bd 2d8c 34bc 2647 0d3d b637 86bd
00000280: 0036 fc3c 86ac 033c d8a0 17bb 5ff8 d5bc
00000290: b140 bcbc d044 d9bc ef18 a6bd 518d 9fbd
000002a0: 67fa 113d 70b9 5bbd 46bc 17bd 9a10 0ebd
000002b0: 8e0e f6bb bc73 f0bc 7331 4fbc 0d6d 3ebb
000002c0: 7083 ccbd 3d4e af3c d013 3bbd db76 c9bd
000002d0: db64 f1bc 5624 18bc e221 dabc ecc3 81bc
000002e0: 5fa5 1f3d faea b4bd a47d 2ebd 132b c13b
000002f0: 03a4 853b e68c fdbc 2d41 b9bd 772d 01bb
00000300: 1482 2dbd b6c1 2bbc a042 a6bd 5efb 073b
00000310: dbfd 13bd f3d7 bcbc 321e abbc 9f53 88bd
00000320: 8832 f83b 3e89 a7bb 6d34 47bd 8350 2ebd
00000330: b05e 9dbd 8fc8 66bd 6800 28bd d7b1 2cbc
00000340: d513 2ab9 ac72 cbbd d7bc 7dbd 9560 9d3b
00000350: fff1 2ebd dc96 213d c151 2b3b b5a9 38bd
00000360: 4d8a 4f3c f5ce 0f3d ab85 4a3d 8d33 96bd
00000370: 02ce afbd 0898 ccbc 7df8 38bd 33e8 2ab9
00000380: e544 dbbc c74a 4abd 6df5 263c 00f0 85bd
00000390: 20e2 00bd 5e1b 54bd 93a1 febc df21 6cbc
000003a0: 1f12 10bd 5199 0dbd 8a50 2abc 70eb a8bd
000003b0: 8e1b 1dbc ceaf c4bd 4d0e ebbc 627a 9abd
000003c0: 3164 02bd f407 5abb 50c0 43bd a846 8b3b
000003d0: 085a 3ebd 5c5d 733a 13e1 143d 3ec0 d1bb
000003e0: 43dd d0bc 409b 46bd 7c63 f2bc 7b69 e7bb
000003f0: 90eb c0bb 08c3 84bc 9786 133d 3e55 783c
-0.04262243 -0.053572237 -0.0030914654 -0.025223145 -0.0012119763 -0.027224328 -0.0094074765 0.013486073
-0.030203247 0.01720942 -0.050104503 -0.011288415 -0.008462286 -0.010931771 -0.031822998 -0.009770034
-0.0136892535 -0.013125427 -0.029376589 -0.015606571 -0.0031125736 -0.03363425 -0.018838434 -0.03323791
-0.036803976 -0.03986365 -0.050784234 -0.029236984 -0.010671769 -0.0095567275 -0.00971241 -0.022603456
-0.054191235 -0.040700126 0.029909689 -0.019764168 -0.0046967804 -0.019193526 -0.029839354 0.011210479
0.031378638 -0.1046212 -0.025912015 -0.024334423 -0.029621689 -0.002309329 -0.047557913 -0.030523024
-0.013380041 -0.02667871 -0.0033654456 -0.050855383 -0.03514129 -0.020499844 0.0005669261 0.017428085
-0.0007590567 -0.034625687 -0.034737203 -0.01797347 0.011455896 -0.029839298 -0.04802469 -0.016559685
0.01113092 -0.032731675 -0.037459955 0.043819655 -0.011723635 0.0018909043 -0.04665217 0.006662075
-0.042206444 0.0049798647 -0.046917208 -0.015798058 -0.008942554 -0.018386744 -0.06123002 -0.030739652
-0.018915528 0.011671006 -0.016250798 -0.0201746 -0.03279838 -0.02568259 -0.037496217 -0.060075015
0.006431531 -0.05064014 -0.0049154824 -0.01847956 -0.04020689 -0.023513729 0.01189642 0.013866009
0.020749243 -0.027629884 0.034060776 -0.046054397 -0.028772883 0.008857968 -0.0026352592 -0.012509875
-0.026022062 -0.0010052099 1.253601e-07 -0.021228325 -0.023105301 -0.015176515 -0.011880277 -0.01057363
-0.058899842 -0.008647597 -0.03396341 0.006510335 -0.014118635 -0.03118484 0.011584401 -0.023745224
-0.025693294 -0.0047637927 -0.011062404 -0.032669324 -0.0058573037 -0.0053160717 -0.016134365 -0.028543124
0.012230503 -0.020405194 -0.05659588 -0.024645265 -0.013701319 -0.0063222065 -0.04159598 -0.06466825
-0.0018072809 0.014498281 -0.098128214 -0.06378152 -0.042589497 0.0044599585 0.0076465267 -0.033548195
0.055907562 -0.05566473 -0.029236397 -0.011619595 -0.020046772 -0.046138495 -0.01749115 0.01543997
-0.06650593 -0.08196557 -0.050988972 0.012517492 -0.08194452 -0.011019749 0.03449168 -0.06553595
0.030787468 0.008036738 -0.0023136642 -0.02611941 -0.022980066 -0.02652207 -0.081102245 -0.07790626
0.035639193 -0.053643644 -0.037044786 -0.0346838 -0.0075090593 -0.029352061 -0.012646067 -0.0029056699
-0.09986007 0.021399612 -0.04567319 -0.09837123 -0.029467037 -0.009286007 -0.026627485 -0.015840493
0.03897607 -0.08833881 -0.04260029 0.0058950274 0.0040783896 -0.030950975 -0.090456344 -0.0019710937
-0.04236038 -0.010483196 -0.081181765 0.0020749192 -0.036130767 -0.023052191 -0.020888422 -0.066565745
0.007574383 -0.005112796 -0.04863398 -0.04255725 -0.07684076 -0.05634361 -0.041016012 -0.010540447
-0.00016219851 -0.09933981 -0.06194767 0.0048027732 -0.042711254 0.03945051 0.0026141258 -0.04508372
0.012667251 0.03510948 0.049443882 -0.07334051 -0.08584215 -0.024974838 -0.045158852 -0.00016298964
-0.02676625 -0.04938772 0.01019035 -0.06539917 -0.03146565 -0.051783912 -0.031082904 -0.014412372
-0.03517353 -0.034570042 -0.010395179 -0.08248031 -0.009589089 -0.096038446 -0.028693343 -0.07542874
-0.03183383 -0.00332689 -0.047790825 0.0042503662 -0.04647258 0.0009283626 0.03634746 -0.006401091
-0.02549613 -0.0484879 -0.029588453 -0.007062135 -0.0058874562 -0.01620628 0.036017027 0.015157042

bias f4 [32]
00000000: c5a5 08bd c8c4 40bd 093b ac3e 1deb 6f3d
00000010: 0ff2 cc3e 0672 45bc 1168 16bd 8323 f0bd
00000020: a061 a53c 0f49 0f3e 0965 453f 5a8e 013f
00000030: eb4b 973e 7c10 28bd 3c8c 1ebd 919b ea3e
00000040: dede 6d3e 65d3 2cbd 6fbb 39bd 8b76 af3d
00000050: 9510 8d3e 7140 fc3c 0f04 813e 834c 3ebd
00000060: cb41 44bd 24f8 b9bc a37a 683e c208 b9bc
00000070: 33f7 d43e 94ca f9bc 3686 a73e bbe9 04bd
-0.033361215 -0.047062665 0.3363879 0.05857383 0.40028426 -0.012051111 -0.03672034 -0.11725523
0.020188153 0.13992713 0.7710729 0.50607836 0.29550108 -0.041031346 -0.038707957 0.45821813
0.23229548 -0.04219379 -0.045344766 0.08567532 0.27551714 0.030792447 0.2519841 -0.046459686
-0.047914308 -0.02270133 0.22703032 -0.022587184 0.41594848 -0.030492105 0.32719582 -0.032449465
