model/Swin_1_lr_1e-3_30_0.2.pt (torch, 268466 bytes, 48 tensors)

weight f4 [32, 30, 2, 2]
0.06528121 0.06328213 0.0710041 0.051970534 0.020912515 0.046810813 -0.03149585 -0.06820562
-0.118147016 -0.16020927 -0.17684059 -0.21580195 -0.088014916 -0.1862085 -0.05187886 -0.14821461
0.05375315 0.115019485 0.09907972 0.13879088 0.037055798 0.0367218 0.05399421 -0.010765759
0.06562299 -0.0507288 -0.08179315 0.0028794375 -0.13524953 0.018249126 -0.07641094 -0.021319576
-0.07671655 0.009261797 0.07385122 -0.08131024 -0.08956871 0.049331937 0.004094387 0.055280738
0.11255934 0.030986909 0.102873564 0.031212606 -0.016207412 0.10349181 -0.075463854 -0.069705434
0.016011037 0.06514403 0.06093826 -0.008847424 -0.06653125 0.0076505574 0.0042731534 0.09157863
-0.13618715 0.09065601 0.042547 0.23121032 -0.022995336 -0.03004403 0.099940516 0.10667164
-0.10318755 0.038192976 -0.052803256 0.0629833 -0.061449673 -0.04730227 -0.02886669 0.018434599
0.11444387 -0.021848889 -0.0028841458 -0.06297933 -0.5448851 -0.12933901 -0.01719166 0.056248385
-0.011122272 -0.08959638 0.19214691 0.12247419 -0.041427433 0.06132538 0.021174842 0.11471008
-0.0048833867 0.07931407 -0.0067427936 0.052061282 0.036371686 -0.00038041893 0.10635971 -0.064231455
0.28887957 0.3566417 0.49157017 0.4105836 -0.4379406 -0.39633048 -0.1254543 -0.35595536
0.0106616905 0.054673098 0.16711237 -0.025019 0.086273275 0.11858104 0.12056681 0.21855916
0.09320129 0.14910203 0.21367708 0.18546477 0.38515463 -0.47183096 0.34853137 -0.7463986
0.008753694 -0.018957326 -0.059653807 -0.019337177 0.023947451 -0.15017992 -0.044000126 -0.16364396
0.01803997 -0.045523357 0.23118226 0.078774355 0.0899021 0.26097023 0.3085776 0.3101357
-0.04927349 0.064405784 0.016499005 0.16331545 0.03465715 0.0068602823 -0.08011243 0.01885498
0.03365998 -0.027516643 0.11536161 0.01560225 0.08105254 -0.06261124 0.20488282 -0.05491439
0.08212153 0.045509018 0.15280247 0.09006314 -0.05691222 0.038659815 -0.15099995 0.11289193
0.04001673 0.029462999 -0.07883402 -0.03800953 0.13927361 0.01781432 0.1035993 0.11218128
0.041918106 -0.1259129 0.016081845 0.021513473 0.058639925 0.10789096 0.08740541 0.017231746
-0.15890096 0.15220797 -0.085886605 0.05917619 0.09314965 0.03780777 -0.050876345 0.013758839
0.21378922 0.14864582 0.04848184 0.11586404 -0.012117919 -0.16129752 -0.012633618 0.0019796644
-0.20247361 -0.029401941 0.027464958 0.03536358 -0.14139315 0.10818218 0.058511317 0.196775
0.27187148 0.3500704 0.046319805 0.11816729 0.122048885 0.12277054 0.15939379 0.13166612
-0.07926813 -0.039059553 -0.070637986 -0.067937724 -0.28330925 -0.15063387 -0.26300314 -0.1835403
-0.24870904 0.5174571 -0.21255364 0.5613681 -0.12181751 -0.18331088 -0.19237146 -0.4036104
-0.22948088 -0.19112717 -0.098198555 -0.1839466 -0.17898224 -0.10922367 -0.09726059 -0.0924586
-0.023624502 0.052397355 0.0039866716 0.043954868 -0.310668 -1.003114 0.54822147 0.20881724
-0.054047316 -0.05951823 0.012915279 -0.019914284 -0.24246722 -0.31282786 -0.21878652 -0.2876183
0.06369769 0.06776504 0.044504948 -0.06298989 0.08985559 0.014827958 0.037815653 -0.11424258
00000000: 28b2 853d 109a 813d 996a 913d 0edf 543d
00000010: b950 ab3c b2bc 3f3d cb01 01bd 63af 8bbd
00000020: 10f7 f1bd e60d 24be b315 35be 30fb 5cbe
00000030: 2a41 b4bd 71ad 3ebe ed7e 54bd 92c5 17be
00000040: 432c 5c3d 568f eb3d 4fea ca3d 321f 0e3e
00000050: d2c7 173d 9969 163d 0829 5d3d de62 30bc
00000060: 5965 863d 01c9 4fbd 2b83 a7bd f2b4 3c3b
00000070: da7e 0abe 317f 953c 577d 9cbd 64a6 aebc
00000080: 911d 9dbd cbbe 173c 4f3f 973d fc85 a6bd
00000090: cd6f b7bd 4910 4a3d 352a 863b 0e6e 623d
000000a0: 8385 e63d 42d8 fd3c 60af d23d 94b1 ff3c
000000b0: 68c5 84bc 84f3 d33d cb8c 9abd b9c1 8ebd
000000c0: 9429 833c 3c6a 853d 669a 793d c9f4 10bc
000000d0: 8941 88bd 87b1 fa3b cf05 8c3b 948d bb3d
000000e0: a574 0bbe dca9 b93d c345 2e3d 66c2 6c3e
000000f0: b760 bcbc e61e f6bc 9dad cc3d a976 da3d
00000100: ff53 d3bd 3d70 1c3d 3a48 58bd 63fd 803d
00000110: a7b2 7bbd 06c0 41bd d679 ecbc 2804 973c
00000120: 8c61 ea3d 71fc b2bc f003 3dbb 4ffb 80bd
00000130: 977d 0bbf 7271 04be 86d5 8cbc b564 663d
00000140: 313a 36bc 4f7e b7bd 29c2 443e c0d3 fa3d
00000150: d0af 29bd 5230 7b3d dd76 ad3c 1eed ea3d
00000160: d104 a0bb 6a6f a23d a7f2 dcbb 363e 553d
00000170: 7afa 143d f772 c7b9 1fd3 d93d c88b 83bd
00000180: 06e8 933e be99 b63e 16af fb3e 0338 d23e
00000190: c039 e0be d4eb cabe 1877 00be c83f b6be
000001a0: 5fae 2e3c e6f0 5f3d 811f 2b3e a5f4 ccbc
000001b0: 0bb0 b03d 9eda f23d bbeb f63d f9cd 5f3e
000001c0: 51e0 be3d 34ae 183e 2ace 5a3e 7aea 3d3e
000001d0: fd32 c53e d493 f1be b472 b23e fb13 3fbf
000001e0: a76b 0f3c 654c 9bbc 8d57 74bd 0069 9ebc
000001f0: 722d c43c c4c8 19be 7a39 34bd 4892 27be
00000200: 8fc8 933c b376 3abd 0bbb 6c3e 7354 a13d
00000210: 981e b83d e49d 853e e2fd 9d3e 1bca 9e3e
00000220: 00d3 49bd 2ee7 833d ec28 873c 2a3c 273e
00000230: a8f4 0d3d 38cc e03b fc11 a4bd c275 9a3c
00000240: 0cdf 093d 956a e1bc b542 ec3d 94a0 7f3c
00000250: e0fe a53d 523a 80bd cdcc 513e e9ed 60bd
00000260: 552f a83d aa67 3a3d 4078 1c3e 0673 b83d
00000270: ca1c 69bd c159 1e3d bb9f 1abe e233 e73d
00000280: 95e8 233d 635c f13c bb73 a1bd e2af 1bbd
00000290: be9d 0e3e 56ef 913c df2b d43d 4dbf e53d
000002a0: 52b2 2b3d 50ef 00be 13be 833c 063d b03c
000002b0: 6b30 703d f0f5 dc3d 9c01 b33d 9729 8d3c
000002c0: efb6 22be 68dc 1b3e 51e5 afbd bc62 723d
000002d0: 3ec5 be3d 52dc 1a3d b763 50bd c16c 613c
000002e0: 90eb 5a3e 9c36 183e e594 463d 204a ed3d
000002f0: 3c8a 46bc 2d2b 25be 3cfd 4ebc 42bd 013b
00000300: 3e55 4fbe 57dc f0bc 31fe e03c 67d9 103d
00000310: 5ec9 10be 9e8e dd3d 90a9 6f3d 637f 493e
00000320: bd32 8b3e 6d3c b33e d6b9 3d3d b101 f23d
00000330: c4f4 f93d 1f6f fb3d 2038 233e 7cd3 063e
00000340: 5457 a2bd e9fc 1fbd a6aa 90bd ef22 8bbd
00000350: e90d 91be c43f 1abe 59a8 86be fdf1 3bbe
00000360: 95ad 7ebe 1278 043f a9a7 59be d2b5 0f3f
00000370: 757b f9bd d9b5 3bbe 06fd 44be 06a6 cebe
00000380: 09fd 6abe d7b6 43be 531c c9bd 7f5c 3cbe
00000390: 1f47 37be a9b0 dfbd 8f30 c7bd ef5a bdbd
000003a0: 2c88 c1bc 9c9e 563d a0a2 823b 050a 343d
000003b0: e00f 9fbe 0a66 80bf 3e58 0c3f 30d4 553e
000003c0: b860 5dbd 63c9 73bd 9b9a 533c 4823 a3bc
000003d0: 5449 78be f92a a0be 9309 60be b542 93be
000003e0: ef73 823d 66c8 8a3d d24a 363d d800 81bd
000003f0: 3506 b83d f7f0 723c 96e4 1a3d 04f8 e9bd

bias f4 [32]
-0.013002511 -0.4419509 0.543171 0.0065441444 0.42130232 0.97355646 -0.5036652 0.17740579
0.24504788 -0.024636682 0.85781974 0.4572882 0.10249894 -0.11269021 -0.2713905 0.63062257
-0.06735264 -0.21481626 0.03329009 -0.21070254 -0.26751226 0.6693204 -0.6622139 0.18045373
-0.6115861 -0.16333348 -0.54688954 -0.37803045 -0.47134122 -0.87384826 0.28355718 -0.06172752
00000000: 7c08 55bc 6347 e2be 410d 0b3f 4370 d63b
00000010: f0b4 d73e ff3a 793f 34f0 00bf dda9 353e
00000020: d5ed 7a3e ded2 c9bc 139a 5b3f ae21 ea3e
00000030: f7ea d13d 20ca e6bd b2f3 8abe 7b70 213f
00000040: 2ef0 89bd cbf8 5bbe 305b 083d 68c2 57be
00000050: 5ef7 88be 9558 2b3f da86 29bf ddc8 383e
00000060: e890 1cbf e440 27be f400 0cbf 358d c1be
00000070: a353 f1be 85b4 5fbf 682e 913e ffd5 7cbd

weight f4 [32]
1.130324 0.739228 1.0364894 0.64241874 0.6279635 1.325754 1.0340235 1.3129264
1.202766 0.7028694 0.4697674 1.0210345 0.5914097 0.9064616 0.93408376 0.75365764
0.6302385 0.5434945 0.91862136 0.6826042 0.5362627 -0.123362735 0.31395522 1.0352964
0.19149995 1.0547464 1.3337935 0.6465803 0.18031634 0.74789906 0.9255282 0.45732334
00000000: 75ae 903f 0c3e 3d3f afab 843f 8e75 243f
00000010: 37c2 203f 4fb2 a93f e25a 843f f90d a83f
00000020: 3cf4 993f 40ef 333f 5a85 f03e 42b1 823f
00000030: a066 173f de0d 683f 1d20 6f3f b5ef 403f
00000040: 4f57 213f 7522 0b3f c52a 6b3f 26bf 2e3f
00000050: 8348 093f 9aa5 fcbd bdbe a03e 9884 843f
00000060: 9018 443e ee01 873f bfb9 aa3f 4986 253f
00000070: d9a4 383e 5076 3f3f 6bef 6c3f 4926 ea3e

bias f4 [32]
0.23196766 0.06631142 0.028046275 -0.0854764 0.24770294 0.17772667 0.0057860794 0.1038221
0.04038388 -0.110061236 0.079828195 0.08556804 -0.11802866 -0.14600603 0.27342975 0.14213465
-0.29202285 0.24532995 0.13228099 -0.17826244 -0.16603526 0.15850143 -0.42209837 -0.044155058
-0.33526188 0.20300865 -0.16281334 -0.09440857 -0.44292971 -0.40736917 -0.008926977 0.21877651
00000000: ee88 6d3e 48ce 873d 4dc1 e53c 400e afbd
00000010: d7a5 7d3e fbfd 353e 2799 bd3b aea0 d43d
00000020: 9169 253d c967 e1bd f77c a33d 4c3e af3d
00000030: 03b9 f1bd 9b82 15be fcfe 8b3e bf8b 113e
00000040: 0584 95be c637 7b3e ab74 073e 6e8a 36be
00000050: 2605 2abe 334e 223e 471d d8be efdb 34bd
00000060: 72a7 abbe 80e1 4f3e 8ab8 26be 4859 c1bd
00000070: afc7 e2be b192 d0be 7542 12bc f306 603e

relative_position_table f4 [81, 4]
-0.0148919895 -0.03162354 -0.020095283 0.015328405 -0.0037747445 0.022473464 -0.007046403 -0.0063877404
-0.035711866 0.0066265063 -0.023090992 0.0020015817 0.013278894 0.007182116 0.007528511 0.007327149
0.0021365413 0.0013409129 0.007863425 -0.01810502 0.005792551 0.016352478 0.04414604 -0.0008046794
0.022218361 -0.03194908 0.005529027 0.020623734 0.008363109 0.0019573085 0.03835719 -0.012061953
-0.035100687 -0.022676537 -0.010295925 0.03135897 0.011265524 -0.020518774 0.006114628 0.0005425712
0.016258728 -0.0014378097 -0.025145547 -0.006973427 -0.018209938 0.033666816 0.0129688 0.0010250797
-0.02136356 0.0051019816 0.009644096 0.021945262 -0.015951447 -0.002674214 0.0014222915 -0.04782547
-0.0046107764 -0.011991875 0.05009206 0.020830918 0.000646401 -0.035631597 0.015094347 -0.00026074296
0.0059731044 -0.03322809 0.036672086 -0.009836083 -0.031165311 -0.035206825 -0.020571128 -0.009031404
0.017797105 0.010287495 0.020810073 0.0009097821 -0.0060074315 0.016685361 0.006619581 -0.010317679
0.004001898 -0.013591029 -0.0070468737 -0.006061744 -0.012589684 -0.021718627 -0.06049793 -0.021846108
-0.017847894 0.015135194 -0.010091974 -0.00081705744 -0.034747194 0.0050376756 -0.0093435105 -0.0010186826
0.027002309 -0.019379364 -0.002541264 0.028154366 0.014329 0.0067857 -0.015676118 -0.04288998
0.030816857 -0.0019768346 -0.012045492 0.011512901 0.004666422 -0.010584974 0.044331685 0.05622318
0.024278017 0.012559509 0.0010974375 -0.013169378 0.025426317 -0.010832248 0.003318768 -0.0028305661
-0.011619689 -0.025748122 0.016827242 -0.0044100857 0.0074358424 -0.023617472 0.010866534 0.0021905294
0.014947271 0.010443642 0.019287223 0.012899782 0.013781662 -0.020208742 -0.0231031 0.014700405
0.011065586 -0.012664155 0.0106029995 -0.02494317 0.012052041 0.025804391 -0.0045190826 0.027510012
-0.030217951 0.0008905698 0.00050721236 0.011666525 -0.01148031 0.010910465 0.02407379 -0.0023619721
0.0034069484 -0.019825142 -0.0015595651 -0.01676766 0.020701345 -0.016619384 -0.011200504 0.019258192
-0.017822651 -0.004598761 0.022939363 -0.0018367638 1.3073086e-05 0.007309251 0.005307429 0.0025468247
-0.004725201 -0.012238559 0.014509054 0.018504726 -0.023554623 -0.027443413 0.015034751 -0.04488542
-0.010865072 0.016224641 0.017881125 -0.0033275085 0.009319701 0.0045333994 0.03378729 0.00034630913
-0.0077371886 -0.012622009 -0.014493267 -0.023357663 0.016104857 -0.013074348 -0.030018087 -0.03599723
-0.028195228 -0.012238081 -0.0108044455 -0.0051000183 0.0018459434 0.027106669 0.006630825 -0.029040115
-0.005525845 0.0002630201 -0.0062307115 -0.0022384378 -0.008240194 -0.030147515 -0.02835209 0.031084578
-0.014707345 0.018132623 -0.0032212217 0.012449388 0.025853334 -0.0021886292 0.018791012 0.005766702
-0.0076857787 -0.0014911143 -0.0034912813 0.0066420427 0.0060127554 0.0171832 0.030131176 -0.0064380476
-0.00017448232 0.022690596 0.033057317 -0.02449361 -0.00053994963 -0.002281917 -0.026868545 -0.0475491
-0.002305646 0.0015127315 0.031551816 0.0031824685 0.0010515064 0.020791879 -0.0130435 0.023316903
0.00666662 0.009677627 -0.016707456 -0.011197264 -0.008582759 -0.011821471 -0.029152006 -0.020556381
0.03439093 0.008037971 -0.0045748446 -0.015278507 0.019941658 -0.0044179545 0.010908187 -0.016434943
00000000: 88fd 73bc af87 01bd dd9e a4bc fe23 7b3c
00000010: b461 77bb 451a b83c 83e5 e6bb 4050 d1bb
00000020: 9b46 12bd 2a23 d93b 5229 bdbc f82c 033b
00000030: b88f 593c f557 eb3b bab1 f63b 9518 f03b
00000040: 3705 0c3b 92c1 af3a 98d5 003c fb50 94bc
00000050: 71cf bd3b a2f5 853c 7ad2 343d 1ff1 52ba
00000060: 4803 b63c 0add 02bd d72c b53b 1bf3 a83c
00000070: 6c05 093c 3046 003b 6e1c 1d3d 7f9f 45bc
00000080: bdc5 0fbd 25c4 b9bc 3db0 28bc 4372 003d
00000090: 0893 383c fd16 a8bc 385d c83b 563b 0e3a
000000a0: 0631 853c e374 bcba 09fe cdbc 5881 e4bb
000000b0: 022d 95bc 37e6 093d 177b 543c f85b 863a
000000c0: a202 afbc 862e a73b 4502 1e3c 8dc6 b33c
000000d0: 9cac 82bc de41 2fbb 2f6c ba3a a4e4 43bd
000000e0: ff15 97bb 9279 44bc 552d 4d3d 9aa5 aa3c
000000f0: 3d73 293a 70f2 11bd 484e 773c 54b4 88b9
00000100: 08ba c33b 2d1a 08bd 7835 163d 8627 21bc
00000110: 654e ffbc 0835 10bd c884 a8bc 74f8 13bc
00000120: 3ccb 913c e28c 283c e379 aa3c 717e 6e3a
00000130: fdd9 c4bb bdaf 883c 12e9 d83b 7b0b 29bc
00000140: 5b22 833b e8ac 5ebc 76e9 e6bb 98a1 c6bb
00000150: f644 4ebc 43eb b1bc adcc 77bd 9cf6 b2bc
00000160: bf35 92bc 9bf9 773c cf58 25bc cc2f 56ba
00000170: 1353 0ebd 1613 a53b 8615 19bc 5185 85ba
00000180: f233 dd3c 79c1 9ebc 568b 26bb fca3 e63c
00000190: 2fc4 6a3c 945a de3b 346b 80bc 67ad 2fbd
000001a0: a273 fc3c c88d 01bb 755a 45bc 9ba0 3c3c
000001b0: c9e8 983b 996c 2dbc 2495 353d 474a 663d
000001c0: b1e2 c63c 66c6 4d3c e4d7 8f3a 60c4 57bc
000001d0: da4a d03c be79 31bc b07f 593b 0581 39bb
000001e0: 8260 3ebc baed d2bc 49d9 893c 7b82 90bb
000001f0: 5ea8 f33b 6e79 c1bc 8c09 323c fc8e 0f3b
00000200: 66e5 743c cf1b 2b3c 3d00 9e3c 9b59 533c
00000210: 7bcc 613c ce8c a5bc b642 bdbc f8d9 703c
00000220: 6e4c 353c 517d 4fbc 34b8 2d3c 9e55 ccbc
00000230: ec75 453c bb63 d33c d014 94bb ad5c e13c
00000240: a38b f7bc 2175 693a 72f6 043a f424 3f3c
00000250: e917 3cbc cfc1 323c 6636 c53c 51cb 1abb
00000260: 1c47 5f3b 5668 a2bc 526a ccba 555c 89bc
00000270: de95 a93c 6025 88bc 5282 37bc 5bc3 9d3c
00000280: cf00 92bc 34b1 96bb 55eb bb3c 91bf f0ba
00000290: 7a54 5b37 7182 ef3b f1e9 ad3b a1e8 263b
000002a0: dcd5 9abb 3d84 48bc 62b7 6d3c 3997 973c
000002b0: a0f5 c0bc 02d1 e0bc 5154 763c c6d9 37bd
000002c0: 6a03 32bc 8ae9 843c 707b 923c 5412 5abb
000002d0: a9b1 183c e98c 943b 8b64 0a3d d390 b539
000002e0: 3e88 fdbb 8bcc 4ebc 2b75 6dbc 9258 bfbc
000002f0: 55ee 833c ca35 56bc 7ee8 f5bc d571 13bd
00000300: aef9 e6bc 3b82 48bc 2105 31bc 0e1e a7bb
00000310: 95f3 f13a ce0e de3c 6447 d93b 89e5 edbc
00000320: 2612 b5bb f6e5 8939 ff2a ccbb c1b2 12bb
00000330: e101 07bc ecf7 f6bc a442 e8bc 16a5 fe3c
00000340: 13f7 70bc de8a 943c 221b 53bb 85f8 4b3c
00000350: 5fca d33c 1b6f 0fbb 9cef 993c 9af6 bc3b
00000360: fcd8 fbbb 7e71 c3ba fbcd 64bb 7ea5 d93b
00000370: a606 c53b c8c3 8c3c a8d5 f63c 42f6 d2bb
00000380: 3ef5 36b9 a1e1 b93c 1c67 073d d3a6 c8bc
00000390: 688b 0dba 378c 15bb 6c1b dcbc d8c2 42bd
000003a0: 521a 17bb d946 c63a 7a3c 013d f690 503b
000003b0: b3d2 893a bb53 aa3c 67b4 55bc 1703 bf3c
000003c0: a973 da3b e98e 1e3c 13de 88bc bb74 37bc
000003d0: b39e 0cbc d8ae 41bc 30d0 eebc db65 a8bc
000003e0: 81dd 0c3d b2b1 033c 94e8 95bb b452 7abc
000003f0: b05c a33c 7dc4 90bb 41b8 323c 93a2 86bc

weight f4 [96, 32]
-0.0021500804 -0.013400967 -0.03748383 0.000380239 0.009177745 0.020309856 -0.0257062 0.018136192
-0.023237465 0.024190066 0.02866599 0.0105862655 -0.044891134 0.007421849 0.015257984 0.034931675
-0.0003492977 -0.020321509 -0.0133719845 0.0011055866 0.0031401236 -0.032797545 -0.008352084 0.01149889
0.011488974 -0.030067349 -0.020976622 -0.0016415527 -0.017585618 -0.010542034 -0.036038596 -0.05183741
-0.02710461 0.0077770744 -0.025867417 0.00057813496 0.029812098 0.020080982 -0.005390393 0.009862628
-0.021404717 -0.015389157 -0.012539656 -0.007708468 -0.044660036 0.004886566 0.020411763 -0.0033477037
0.00026679147 0.0074777855 -0.012612055 -0.00529136 0.011798978 0.018841024 -0.010930433 -0.018337477
-0.0001542729 0.0052497652 0.0096723335 0.00988633 0.015956145 -0.0020989797 -0.016350806 -0.023542456
-0.008228719 -0.0073106056 -0.011471147 0.0031642427 -0.02479333 0.004783975 -0.011537504 -0.01988237
-0.024369616 0.011560688 -0.038746435 -0.008351184 -0.021492817 -0.013073168 0.00850523 -0.008258882
-0.01246304 -0.019456722 -0.001563956 -0.018470574 0.038572956 -0.023091229 -0.005340586 0.007879414
-0.004755553 0.010345426 -0.03358924 -0.020359173 -0.0135047585 0.025280172 -0.03705285 0.025727933
-0.0034416951 -0.013004584 0.014735941 0.028894499 -0.028600782 -0.014032054 -0.021470627 -0.050529655
0.005374585 0.014510554 -7.365766e-05 -0.02130403 0.036218707 0.0033642503 0.0051817275 0.020296954
-0.0038626874 -0.008464024 0.019810237 0.014345605 -0.0005059539 0.020713914 0.031092808 0.014136536
-0.0041168313 -0.015749706 0.02992165 -0.0040675616 0.025168914 0.023000503 -0.02334568 0.025446633
-0.01583726 0.0014484841 -0.03576034 -0.02791734 0.041587166 0.0043711313 -0.010273654 -0.02330787
-0.012188367 -0.0007892095 -0.008840507 -0.020420728 -0.0059254523 -0.0031270224 0.008904688 0.007786511
-0.015346289 -0.015162571 0.0061261742 -0.0149985 0.035361294 0.005260656 0.008013075 0.026720084
-0.018621864 -0.011595473 0.013134339 0.02530095 -0.005299153 -0.018908618 -0.0041581597 0.029105473
-0.016279738 -0.03708918 0.03542593 -0.0034625558 0.039404303 -0.0126880845 -0.010519919 -0.025676427
-0.0037364368 -0.005990347 0.025177622 -0.008612796 0.004255956 -0.011946709 -0.013239848 0.0034993764
-0.0026547145 0.02490053 0.02023852 0.00460456 -0.01627945 -0.016150597 -0.012359205 -0.013324306
0.024568167 -0.030572267 -0.02212394 -0.003730033 -0.006940222 -0.01748508 -0.0065515894 -0.01145235
-0.0013771799 0.002019199 -0.01495723 0.020608503 0.010275171 -0.0029242856 -0.00922752 0.03293629
0.02036651 0.009366171 0.008056734 -0.023845205 -0.005082666 -0.011131961 -0.017630842 -0.005827467
0.008466779 -0.009198613 0.028450357 0.014230789 0.027111536 -0.0091750175 0.0029285382 -0.00091451115
-0.02363927 -0.013826314 -0.0018276448 -0.0009005422 0.018690713 0.022715569 0.002014613 0.035027195
0.013468041 -0.01019307 -0.002147631 0.022314405 0.0036443202 0.036123652 0.035812344 -0.025252746
-0.028471574 -0.011911321 -0.01940817 0.002881097 -0.008496261 -5.9269714e-05 0.00585978 -0.012162695
-0.00781693 -0.0025362757 -0.02214836 -0.024660496 -0.018880088 -0.011993177 -0.004294657 0.0019410929
0.02598853 0.011337468 0.0075977203 -0.037468527 0.0064705303 0.053892583 0.020083416 -0.017016945
00000000: 5de8 0cbb bb8f 5bbc a588 19bd d15a c739
00000010: 415e 163c db60 a63c cf95 d2bc 5a92 943c
00000020: 7f5c bebc 3f2a c63c f0d4 ea3c 0472 2d3c
00000030: c4df 37bd fb32 f33b a0fc 793c 8414 0f3d
00000040: f221 b7b9 4b79 a6bc 2b16 5bbc 55e9 903a
00000050: 88ca 4d3b b856 06bd 2ed7 08bc d765 3c3c
00000060: 403c 3c3c cd4f f6bc 2ad7 abbc 5e29 d7ba
00000070: b70f 90bc 7fb8 2cbc 359d 13bd 7753 54bd
00000080: 7d0a debc d4d6 fe3b e8e7 d3bc fb8d 173a
00000090: 8038 f43c df80 a43c e5a1 b0bb dc96 213c
000000a0: f258 afbc ce22 7cbc 2173 4dbc 5197 fcbb
000000b0: 71ed 36bd 7d1f a03b 9236 a73c 2665 5bbb
000000c0: 25e0 8b39 3608 f53b cba2 4ebc 2563 adbb
000000d0: 8050 413c 7e58 9a3c 8f15 33bc 7a38 96bc
000000e0: 51c4 21b9 3906 ac3b b578 1e3c 46fa 213c
000000f0: 76b6 823c 098f 09bb 20f2 85bc 1cdc c0bc
00000100: c0d1 06bc ce8d efbb 7af1 3bbc 2f5f 4f3b
00000110: 621b cbbc e4c2 9c3b cd07 3dbc 5ae0 a2bc
00000120: caa2 c7bc 0a69 3d3c 95b4 1ebd 68d3 08bc
00000130: b411 b0bc d730 56bc 8559 0b3c 4350 07bc
00000140: c731 4cbc b463 9fbc a8fd ccba 9a4f 97bc
00000150: adfe 1d3d d129 bdbc 1500 afbb a818 013c
00000160: 78d4 9bbb dd7f 293c df94 09bd 48c8 a6bc
00000170: 1043 5dbc 5d18 cf3c bbc4 17bd 63c3 d23c
00000180: 108e 61bb 2e11 55bc 046f 713c 28b4 ec3c
00000190: 304c eabc b3e6 65bc 2be3 afbc 2ff8 4ebd
000001a0: 491d b03b adbd 6d3c a878 9ab8 ca85 aebc
000001b0: 115a 143d c17a 5c3b 7bcb a93b cc45 a63c
000001c0: 2425 7dbb b1ac 0abc 1449 a23c d409 6b3c
000001d0: fea1 04ba 3ab0 a93c 58b6 fe3c ee9c 673c
000001e0: 7ce6 86bb 8705 81bc 401e f53c 2e49 85bb
000001f0: 0a2f ce3c 8d6b bc3c 713f bfbc 7575 d03c
00000200: 24bd 81bc 10db bd3a 6f79 12bd e8b2 e4bc
00000210: 4e57 2a3d b53b 8f3b d452 28bc 25f0 bebc
00000220: b7b1 47bc f4e2 4eba c6d7 10bc 5f49 a7bc
00000230: 4c2a c2bb bbee 4cbb f8e4 113c fd25 ff3b
00000240: 006f 7bbc 6f6c 78bc 13be c83b 45bc 75bc
00000250: 01d7 103d 9561 ac3b 4649 033c 14e4 da3c
00000260: e18c 98bc f0fa 3dbc 6931 573c f043 cf3c
00000270: 84a4 adbb 3fe6 9abc 2c41 88bb 9a6e ee3c
00000280: 165d 85bc d3ea 17bd c81a 113d 0cec 62bb
00000290: 6866 213d afe1 4fbc bd5b 2cbc 5f57 d2bc
000002a0: 02df 74bb ac4a c4bb 4d41 ce3c af1c 0dbc
000002b0: 8c75 8b3b 21bc 43bc f3eb 58bc cb55 653b
000002c0: b8fa 2dbb 32fc cb3c 41cb a53c d9e1 963b
000002d0: 7b5c 85bc 424e 84bc 437e 4abc 314e 5abc
000002e0: 2e43 c93c b172 fabc 443d b5bc 9273 74bb
000002f0: cd6a e3bb df3c 8fbc b7ae d6bb a3a2 3bbc
00000300: 7d82 b4ba 8a54 043b 2b0f 75bc 2ad3 a83c
00000310: 3159 283c 5fa5 3fbb 062f 17bc 34e8 063d
00000320: abd7 a63c 9274 193c 6400 043c 0557 c3bc
00000330: 7e8c a6bb d462 36bc 8e6e 90bc 56f4 bebb
00000340: 3fb8 0a3c c8b5 16bc b910 e93c 4128 693c
00000350: 0319 de3c d052 16bc b8ec 3f3b cebb 6fba
00000360: 24a7 c1bc c487 62bc 958d efba 5d12 6cba
00000370: 441d 993c 0016 ba3c 9907 043b ad78 0f3d
00000380: 0fa9 5c3c d600 27bc 45bf 0cbb b3cc b63c
00000390: 8cd5 6e3b 65f6 133d f7af 123d d9de cebc
000003a0: 383d e9bc b427 43bc e2fd 9ebc c9d0 3c3b
000003b0: e733 0bbc 5f98 78b8 6603 c03b 0a46 47bc
000003c0: 9512 00bc a537 26bb 7a70 b5bc cf04 cabc
000003d0: 6aaa 9abc 087f 44bc 32ba 8cbb 456c fe3a
000003e0: e6e5 d43c cac0 393c 4cf6 f83b 9978 19bd
000003f0: be06 d43b 78be 5c3d fa85 a43c 1f67 8bbc

bias f4 [96]
0.0 0.0 0.0 0.0 0.0 0.0 0.0 0.0
0.0 0.0 0.0 0.0 0.0 0.0 0.0 0.0
0.0 0.0 0.0 0.0 0.0 0.0 0.0 0.0
0.0 0.0 0.0 0.0 0.0 0.0 0.0 0.0
0.0 0.0 0.0 0.0 0.0 0.0 0.0 0.0
0.0 0.0 0.0 0.0 0.0 0.0 0.0 0.0
0.0 0.0 0.0 0.0 0.0 0.0 0.0 0.0
0.0 0.0 0.0 0.0 0.0 0.0 0.0 0.0
0.0 0.0 0.0 0.0 0.0 0.0 0.0 0.0
0.0 0.0 0.0 0.0 0.0 0.0 0.0 0.0
0.0 0.0 0.0 0.0 0.0 0.0 0.0 0.0
0.0 0.0 0.0 0.0 0.0 0.0 0.0 0.0
00000000: 0000 0000 0000 0000 0000 0000 0000 0000
00000010: 0000 0000 0000 0000 0000 0000 0000 0000
00000020: 0000 0000 0000 0000 0000 0000 0000 0000
00000030: 0000 0000 0000 0000 0000 0000 0000 0000
00000040: 0000 0000 0000 0000 0000 0000 0000 0000
00000050: 0000 0000 0000 0000 0000 0000 0000 0000
00000060: 0000 0000 0000 0000 0000 0000 0000 0000
00000070: 0000 0000 0000 0000 0000 0000 0000 0000
00000080: 0000 0000 0000 0000 0000 0000 0000 0000
00000090: 0000 0000 0000 0000 0000 0000 0000 0000
000000a0: 0000 0000 0000 0000 0000 0000 0000 0000
000000b0: 0000 0000 0000 0000 0000 0000 0000 0000
000000c0: 0000 0000 0000 0000 0000 0000 0000 0000
000000d0: 0000 0000 0000 0000 0000 0000 0000 0000
000000e0: 0000 0000 0000 0000 0000 0000 0000 0000
000000f0: 0000 0000 0000 0000 0000 0000 0000 0000
00000100: 0000 0000 0000 0000 0000 0000 0000 0000
00000110: 0000 0000 0000 0000 0000 0000 0000 0000
00000120: 0000 0000 0000 0000 0000 0000 0000 0000
00000130: 0000 0000 0000 0000 0000 0000 0000 0000
00000140: 0000 0000 0000 0000 0000 0000 0000 0000
00000150: 0000 0000 0000 0000 0000 0000 0000 0000
00000160: 0000 0000 0000 0000 0000 0000 0000 0000
00000170: 0000 0000 0000 0000 0000 0000 0000 0000

weight f4 [32, 32]
-0.025831286 -0.001715542 0.01935962 0.028166484 0.011703843 0.008613894 0.010438902 -0.026672157
0.005284785 -0.0050129485 -0.022650002 -0.035700046 0.035058875 0.015954072 0.013430394 0.021092424
0.010255216 0.021642344 -0.051032905 -0.008482783 -0.03509337 0.017854773 0.0022864616 0.015685085
-0.002863574 0.007861091 -0.017135909 -0.0010023736 0.0018458684 -0.012624663 0.0029534735 0.015686076
0.044829093 -0.005951696 -0.0284106 -0.019629156 -0.03234377 0.014875647 0.014226655 0.035903778
-0.006607837 0.021878727 -0.0028682896 -0.0017460005 -0.0031169103 4.325626e-05 0.035566438 0.0039973743
0.024448616 0.0017187122 0.04796334 -0.0072182636 0.0052291076 -0.026004875 0.025892666 0.022048436
0.002403785 0.029784337 -0.020847427 -0.0038322178 0.012808836 -0.038258463 -0.007794809 -0.016943367
-0.00460541 0.0021988803 0.003708046 -0.00924118 0.014712451 0.004361892 -0.0047791474 -0.005585825
-0.0014016429 0.038442962 -0.013065458 -0.0093893325 0.007760824 -0.019346254 -0.016244989 0.026298054
0.004987699 -0.018373052 0.007765077 -0.014714946 0.02569816 0.016338266 0.004576369 0.017701514
-0.0043826816 -0.029975086 0.039444968 -0.01663115 -0.011237468 0.0014682284 -0.023371704 0.025343835
-0.0024063825 -0.013960885 0.00082300586 0.038429778 -0.018903816 0.02865205 0.0018278009 -0.014500036
-0.0066426042 -0.022599688 -0.028134162 0.005322575 0.00043307716 0.026373947 -0.0026485259 -0.008469505
-0.0018512399 -0.0018254303 0.03045689 0.016098674 0.0014719467 0.038169 0.01602693 -0.031662125
0.00830791 -0.014446255 -0.017439164 0.028339965 0.009997501 -0.016927227 -0.011689434 0.026413392
0.043940317 0.0017599488 0.0011354161 0.013687578 -0.028740754 -0.004413025 -0.019579671 -0.005248033
0.036045067 0.019205112 -0.020781547 0.008132806 0.02384546 -0.016390538 0.021930281 -0.011030936
-0.011789491 -0.021838678 0.014727585 -0.021563146 -0.021726463 0.0042252 -0.0040754844 0.015303751
0.009181395 -0.019931227 -0.008528394 -0.026168698 0.014528044 0.026273062 -0.01946818 -0.013926635
0.013065052 0.0065122517 -0.012619306 0.01579206 -0.006812759 0.006514026 -0.02021271 0.0043182266
-0.0031318804 0.017566182 0.0040343613 -0.03821574 0.00415369 0.002293479 -0.031062448 -0.015918924
0.019866066 0.04011925 0.012834591 0.043142304 -0.04724889 -0.018534793 -0.022872152 -0.013676674
0.004119081 0.005980963 0.01921516 -0.00825392 -0.005752057 0.0231127 -0.019676855 -0.028220419
0.008868623 0.017384 0.007386047 0.011773579 0.012624951 -0.01644698 0.013836509 -0.035991482
0.006738371 -0.016496165 -0.01397226 -9.767948e-05 -0.042789042 0.014255802 -0.0050957645 0.010051377
0.027522044 0.03144385 0.005791729 -0.018485615 -0.022134809 -0.01941017 0.026044805 -0.054190747
0.011953478 -0.023583172 0.016948592 0.0010218453 0.022911357 0.027600221 0.0075639756 0.002102339
0.0002976351 -0.006615487 -0.0006610477 0.03895217 -0.007966252 -0.027805993 -0.007804137 0.002384752
-0.034691364 -0.00012695469 0.014234745 0.025912749 -0.013071729 -0.0010538764 0.0018079615 -0.023203203
-0.013257145 0.025249938 -0.0032278758 0.008467674 -0.0004436248 0.02343606 -0.030013073 0.010396914
0.003787296 0.019291578 -0.023345824 -0.027926518 0.021611422 -0.01847689 0.025631761 0.015905358
00000000: 229c d3bc 0adc e0ba 1198 9e3c 66bd e63c
00000010: 7ac1 3f3c 4a21 0d3c ee07 2b3c 917f dabc
00000020: fd2b ad3b a943 a4bb 7f8c b9bc 363a 12bd
00000030: e599 0f3d 1db2 823c 280b 5c3c 05ca ac3c
00000040: 7e05 283c 494b b13c e107 51bd 5ffb 0abc
00000050: 11be 0fbd 2c44 923c 76d8 153b 027e 803c
00000060: cdaa 3bbb cecb 003c 9b60 8cbc 1462 83ba
00000070: 11f1 f13a add7 4ebc 108f 413b 1680 803c
00000080: b69e 373d 7206 c3bb 59bd e8bc 53cd a0bc
00000090: e77a 04bd fcb8 733c ea16 693c d70f 133d
000000a0: 8e86 d8bb 043b b33c eaf9 3bbb 0eda e4ba
000000b0: 1445 4cbb 0e6e 3538 1dae 113d 68fc 823b
000000c0: 7748 c83c 6946 e13a 3575 443d 2f87 ecbb
000000d0: ef58 ab3b 2d08 d5bc db1c d43c ec9e b43c
000000e0: d288 1d3b 48fe f33c 39c8 aabc f225 7bbb
000000f0: 27dc 513c e8b4 1cbd 996b ffbb d1cc 8abc
00000100: fbe8 96bb 171b 103b b002 733b 5168 17bc
00000110: 7e0c 713c 34ee 8e3b 659a 9cbb 4c09 b7bb
00000120: 55b7 b7ba 5e76 1d3d 8110 56bc b7d5 19bc
00000130: 834e fe3b 097c 9ebc 3614 85bc 046f d73c
00000140: da6f a33b 1583 96bc 3072 fe3b f516 71bc
00000150: f384 d23c d4d7 853c 5ef5 953b c402 913c
00000160: 999c 8fbb 508e f5bc 0c91 213d 0d3e 88bc
00000170: 5b1d 38bc 9271 c03a 0476 bfbc e09d cf3c
00000180: 66b4 1dbb 32bc 64bc fdbe 573a 8b68 1d3d
00000190: 2ddc 9abc b4b7 ea3c d292 ef3a 8f91 6dbc
000001a0: 34aa d9bb fb22 b9bc 9d79 e6bc ff68 ae3b
000001b0: a20e e339 2d0e d83c e492 2dbb aec3 0abc
000001c0: 4ea5 f2ba 4743 efba ba80 f93c 5ee1 833c
000001d0: 56ee c03a 1957 1c3d e94a 833c 25b0 01bd
000001e0: e61d 083c fcaf 6cbc 94dc 8ebc 3729 e83c
000001f0: 8fcc 233c f8aa 8abc 0a85 3fbc e660 d83c
00000200: c3fa 333d 15ae e63a 3ed2 943a dd41 603c
00000210: bb71 ebbc 239b 90bb 8c65 a0bc b1f7 abbb
00000220: fea3 133d 0a54 9d3c 103e aabc 763f 053c
00000230: 8e57 c33c 7345 86bc 22a7 b33c 19bb 34bc
00000240: b628 41bc 07e7 b2bc f84b 713c 32a5 b0bc
00000250: b2fb b1bc 8c73 8a3b a48b 85bb 96bc 7a3c
00000260: 906d 163c d046 a3bc adba 0bbc bd5f d6bc
00000270: 0807 6e3c 9b3a d73c bc7b 9fbc 8a2c 64bc
00000280: cd0e 563c ba64 d53b 35c1 4ebc 5a5e 813c
00000290: 913d dfbb 9c73 d53b 2095 a5bc e97f 8d3b
000002a0: 3c40 4dbb f4e6 8f3c ad32 843b 1c88 1cbd
000002b0: ad1b 883b 314e 163b ad76 febc 6768 82bc
000002c0: 29be a23c 1554 243d 2d48 523c fcb5 303d
000002d0: 0d88 41bd 47d6 97bc 615e bbbc 2114 60bc
000002e0: 5bf9 863b f4fb c33b 1c69 9d3c 733b 07bc
000002f0: c07b bcbb d856 bd3c 5b31 a1bc 822e e7bc
00000300: b34d 113c e468 8e3c a706 f23b f8e5 403c
00000310: e2d8 4e3c d1bb 86bc 86b2 623c ce6b 13bd
00000320: 8ecd dc3b f722 87bc e8eb 64bc 46d9 ccb8
00000330: 9043 2fbd 2b91 693c 5ffa a6bb 88ae 243c
00000340: e975 e13c 44cb 003d 8bc8 bd3b 256f 97bc
00000350: 0f54 b5bc 1402 9fbc ea5b d53c 1ef7 5dbd
00000360: 85d8 433c 7f31 c1bc c6d7 8a3c 70ef 853a
00000370: 99b0 bb3c dc19 e23c 3adb f73b 65c7 093b
00000380: e80b 9c39 bac6 d8bb 294a 2dba 508c 1f3d
00000390: e284 02bc 65c9 e3bc d9b9 ffbb 8049 1c3b
000003a0: 8818 0ebd 241f 05b9 d938 693c f946 d43c
000003b0: ce2a 56bc 3922 8aba 1ff9 ec3a a514 bebc
000003c0: 7f34 59bc f5d8 ce3c c58a 53bb 00bc 0a3c
000003d0: 5096 e8b9 fbfc bf3c fadd f5bc d157 2a3c
000003e0: 4834 783b 5f09 9e3c be3f bfbc 27c6 e4bc
000003f0: 700a b13c d95c 97bc b3f9 d13c f44b 823c

bias f4 [32]
0.0 0.0 0.0 0.0 0.0 0.0 0.0 0.0
0.0 0.0 0.0 0.0 0.0 0.0 0.0 0.0
0.0 0.0 0.0 0.0 0.0 0.0 0.0 0.0
0.0 0.0 0.0 0.0 0.0 0.0 0.0 0.0
00000000: 0000 0000 0000 0000 0000 0000 0000 0000
00000010: 0000 0000 0000 0000 0000 0000 0000 0000
00000020: 0000 0000 0000 0000 0000 0000 0000 0000
00000030: 0000 0000 0000 0000 0000 0000 0000 0000
00000040: 0000 0000 0000 0000 0000 0000 0000 0000
00000050: 0000 0000 0000 0000 0000 0000 0000 0000
00000060: 0000 0000 0000 0000 0000 0000 0000 0000
00000070: 0000 0000 0000 0000 0000 0000 0000 0000

weight f4 [32]
1.1795859 1.0663967 1.2149336 1.3911015 1.0117023 1.1656386 1.099187 1.4166677
1.4961648 1.2136087 0.9637819 1.2390258 0.97062755 1.7383866 1.1279134 1.0994576
1.0793787 1.0015075 1.2648535 1.2404343 1.0574225 0.9042269 1.0905368 1.2465693
1.0888379 1.5500485 1.1504574 0.97823447 0.8770902 0.91951483 1.1523696 1.0539871
00000000: acfc 963f b07f 883f f282 9b3f 9d0f b23f
00000010: 767f 813f a533 953f 29b2 8c3f 5e55 b53f
00000020: 5482 bf3f 8857 9b3f 69ba 763f 6698 9e3f
00000030: 0c7b 783f 7483 de3f 775f 903f 07bb 8c3f
00000040: 1529 8a3f 6631 803f b8e6 a13f 8dc6 9e3f
00000050: 9f59 873f 6a7b 673f b696 8b3f 958f 9f3f
00000060: 0a5f 8b3f fd67 c63f 3042 933f 936d 7a3f
00000070: fc88 603f 5365 6b3f d980 933f 0de9 863f

bias f4 [32]
0.030923216 -0.018586505 -0.031073257 -0.2418049 0.18816273 -0.011303761 0.040489625 0.058457848
-0.022593522 -0.15465683 -0.014945026 0.04050177 0.20094757 -0.012873624 0.16498818 0.23429224
0.16573441 0.15547611 -0.06309696 -0.047948416 -0.056315035 0.053775746 0.0073520583 -0.25342488
-0.14450847 0.015501781 0.27246085 0.16267282 0.07498658 -0.25481644 0.03912971 -0.030647315
00000000: af52 fd3c ba42 98bc 588d febc b49b 77be
00000010: bbad 403e 6933 39bc 73d8 253d 7f71 6f3d
00000020: 0d16 b9bc 5c5e 1ebe fbdb 74bc 2fe5 253d
00000030: 33c5 4d3e e5eb 52bc a9f2 283e 4eea 6f3e
00000040: 48b6 293e 2135 1f3e fb38 81bd 8f65 44bd
00000050: 98aa 66bd f543 5c3d 89e9 f03b e8c0 81be
00000060: 07fa 13be 2ffb 7d3c fd7f 8b3e b493 263e
00000070: 9092 993d 4d77 82be 7a46 203d 1410 fbbc

weight f4 [128, 32]
-0.34098926 -0.16059047 -0.42883497 0.22704257 -0.3463391 -0.31309572 0.06739344 -0.21808007
-0.23688208 0.18859488 0.08266444 -0.024903063 0.113586955 0.37455505 -0.09334324 -0.7647395
0.46940383 -0.02610281 -0.016690554 0.21641447 -0.0038969389 -0.27238762 -0.13040242 -0.07513278
-0.021526702 0.026584543 0.40139472 0.22794197 -0.29012766 0.1633 -0.42225522 0.28352633
0.0117590735 0.096439 -0.11919065 0.018305039 0.02161234 0.1485715 -0.013391511 -0.33367306
-0.38564143 -0.095909156 -0.27007398 -0.06291627 -0.26661175 -0.049053296 -0.18404722 -0.046469275
-0.095928684 0.12655391 -0.05757143 0.13444768 0.24827439 0.07361108 -0.17590743 0.29297793
0.06533548 0.09683502 0.042645715 0.06194225 -0.041834388 0.11755163 -0.033764742 -0.0784071
0.2767932 0.24209519 -0.39881557 -0.3859355 0.074148044 -0.005155112 0.0031719557 0.12833808
-0.40450546 -0.11167816 -0.13910642 -0.35312587 0.08953804 -0.17177708 0.29481974 -0.08146896
-0.008661621 0.3323105 0.19023512 -0.014497849 -0.08124104 0.07389532 -0.10665609 0.14221616
0.21602035 -0.017449329 0.1690903 0.1474268 0.07376157 0.16583942 -0.18062979 0.102282494
0.1722413 0.009557136 0.21600182 0.0693622 -0.46857837 -0.19466087 0.08796144 -0.13172765
0.07678864 -0.044214275 0.12966242 0.063969046 -0.015061056 0.064224385 0.2464518 -0.030269964
0.15076065 0.015455992 0.16780514 0.0012932546 0.004730423 -0.13169779 -0.1550521 0.008061665
-0.061050933 -0.10338181 0.45206857 -0.03472094 0.047595035 -0.18026908 -0.018064676 0.18890794
0.18913761 -0.15486187 0.0075318236 0.49752256 -0.50707066 -0.63777333 0.1515929 -0.42553273
-0.10168652 0.050635036 0.16293445 -0.07871342 -0.17249413 0.097337306 0.06419172 -0.2498314
-0.2088763 0.14863664 -0.05500647 0.022710543 -0.18526594 -0.42878547 0.3553108 0.13006826
-0.10731464 0.06084324 -0.028454589 0.10449373 0.25027648 0.31383952 -0.11663675 0.12159482
-0.20140973 0.05708591 -0.03998982 0.23312724 -0.07701746 -0.14212897 0.0027429112 -0.04830809
-0.09448484 0.14286843 0.049944025 0.18094562 -0.39075005 -0.02360087 0.20969564 -0.12917015
-0.16845553 -0.09870775 0.079981856 0.35794207 -0.08924448 -0.039448306 0.36450207 0.04120185
-0.05078797 -0.052229293 -0.1213264 0.035169903 -0.20916674 0.11135058 -0.018601341 0.12334771
-0.3747515 0.86385286 0.26113656 -0.0073036514 0.07667574 -0.18258348 0.12981384 0.18419777
0.3307231 -0.15055819 -0.32923588 -0.09204614 0.13749407 -0.2835909 -0.42109925 0.032566108
0.016439086 0.30365238 -0.207024 0.093825266 0.10440928 -0.049689304 -0.0051125432 0.15539388
-0.25498545 -0.11993781 0.50456583 0.30934614 -0.013550099 -0.19680329 0.058835987 0.02013565
-0.07856646 0.0644288 -0.08379617 0.43404147 -0.3028911 0.13182336 -0.11780308 -0.10554081
0.004321526 0.00028099696 0.24769922 -0.2414405 0.08226258 0.25045696 -0.05518299 -0.2783792
-0.16675016 0.09247012 -0.33228177 0.15252037 -0.28726375 -0.18403265 -0.11174792 0.20917132
0.11383489 -0.1761089 -0.34233147 -0.1794775 0.3385545 0.5511271 -0.1318827 0.08881645
00000000: 2596 aebe d471 24be 4290 dbbe d97d 683e
00000010: 5c53 b1be 154e a0be 9205 8a3d 6250 5fbe
00000020: 3791 72be 041f 413e f94b a93d 8201 ccbc
00000030: 47a0 e83d aec5 bf3e be2a bfbd f8c5 43bf
00000040: b355 f03e 8fd5 d5bc a1ba 88bc c19b 5d3e
00000050: c963 7fbb 6476 8bbe 3688 05be 37df 99bd
00000060: c458 b0bc d4c7 d93c 9c83 cd3e 9f69 693e
00000070: 9d8b 94be 1d38 273e d631 d8be 5d2a 913e
00000080: 21a9 403c cf81 c53d 3a1a f4bd 73f4 953c
00000090: 5d0c b13c 2123 183e 1168 5bbc 32d7 aabe
000000a0: cb72 c5be 056c c4bd 2347 8abe 3fda 80bd
000000b0: 5681 88be 1cec 48bd e076 3cbe 9156 3ebd
000000c0: 4276 c4bd 5997 013e 05d0 6bbd a7ac 093e
000000d0: a43b 7e3e 68c1 963d 1421 34be 3401 963e
000000e0: 9cce 853d 7051 c63d 46ad 2e3d 28b7 7d3d
000000f0: 895a 2bbd e9be f03d e64c 0abd e793 a0bd
00000100: d7b7 8d3e cde7 773e 8e31 ccbe 5699 c5be
00000110: eeda 973d 37ec a8bb 96e0 4f3b 0f6b 033e
00000120: 571b cfbe 85b7 e4bd ea71 0ebe eacc b4be
00000130: b85f b73d 55e6 2fbe 9df2 963e 33d9 a6bd
00000140: 79e9 0dbc 9a24 aa3e ffcc 423e 6388 6dbc
00000150: b461 a6bd 6e56 973d 826e dabd 1da1 113e
00000160: 7034 5d3e e5f1 8ebc 0226 2d3e 0df7 163e
00000170: 4e10 973d cfd1 293e 04f7 38be 7c79 d13d
00000180: 0660 303e 8995 1c3c 952f 5d3e c50d 8e3d
00000190: 81e9 efbe 2e55 47be 2125 b43d 9de3 06be
000001a0: 5d43 9d3d 071a 35bd 3ac6 043e 3402 833d
000001b0: a6c2 76bc 1388 833d dc5d 7c3e b7f8 f7bc
000001c0: 0061 1a3e 213b 7d3c 1cd5 2b3e 6c82 a93a
000001d0: aa01 9b3b c9db 06be fac5 1ebe 1315 043c
000001e0: 8b10 7abd d8b9 d3bd 8875 e73e 8b37 0ebd
000001f0: 03f3 423d 7598 38be 5ffc 93bc 1571 413e
00000200: 4aad 413e 1c94 1ebe 84cd f63b 47bb fe3e
00000210: 62cf 01bf 1d45 23bf 2b3b 1b3e 6ddf d9be
00000220: 0641 d0bd af66 4f3d 4ad8 263e 8034 a1bd
00000230: 4da2 30be c858 c73d f376 833d cdd3 7fbe
00000240: abe3 55be 3434 183e 774e 61bd 760b ba3c
00000250: 5bb6 3dbe c589 dbbe 4ceb b53e 9d30 053e
00000260: c7c7 dbbd c336 793d 9919 e9bc cf00 d63d
00000270: 3d24 803e 93af a03e 40df eebd b406 f93d
00000280: 5a3e 4ebe ead2 693d 5ecc 23bd e8b8 6e3e
00000290: 54bb 9dbd 428a 11be 6ac2 333b b4de 45bd
000002a0: 4581 c1bd 1a4c 123e 1b92 4c3d cf49 393e
000002b0: 6410 c8be 9d56 c1bc 74ba 563e 2e45 04be
000002c0: 9b7f 2cbe 4a27 cabd 87cd a33d 2f44 b73e
000002d0: cfc5 b6bd 8c94 21bd 04a0 ba3e 45c3 283d
000002e0: 0c07 50bd 62ee 55bd fa79 f8bd 510e 103d
000002f0: ce2f 56be c60b e43d d761 98bc b99d fc3d
00000300: 6edf bfbe 7625 5d3f b1b3 853e 7853 efbb
00000310: 2c08 9d3d 2af7 3abe ebed 043e 579e 3c3e
00000320: 8a54 a93e ed2b 1abe 9b91 a8be b082 bcbd
00000330: 3fcb 0c3e d432 91be 529a d7be 0a64 053d
00000340: 43ab 863c 5378 9b3e 19fe 53be 7627 c03d
00000350: 88d4 d53d 0387 4bbd 1f87 a7bb 931f 1f3e
00000360: 748d 82be f4a1 f5bd 3a2b 013f 9e62 9e3e
00000370: 3c01 5ebc cd86 49be 01fe 703d 85f3 a43c
00000380: 74e7 a0bd 3ff3 833d 549d abbd af3a de3e
00000390: 8b14 9bbe b4fc 063e be42 f1bd c825 d8bd
000003a0: 969b 8d3b c652 9339 dda4 7d3e 2e3c 77be
000003b0: 4979 a83d e53b 803e 8f07 62bd b887 8ebe
000003c0: 8ec0 2abe f960 bd3d d620 aabe 4d2e 1c3e
000003d0: 3c14 93be 0e73 3cbe 18dc e4bd 0231 563e
000003e0: 4422 e93d e455 34be 1246 afbe f3c8 37be
000003f0: 0457 ad3e aa16 0d3f 420c 07be 66e5 b53d

bias f4 [128]
-0.2857676 -0.036893234 -0.027268656 0.10248277 -0.1534939 -0.12687461 -0.08342558 -0.15309635
-0.14632583 -0.017947404 0.08355472 0.09010619 -0.035559565 -0.48683074 -0.123142675 0.0044760993
-0.20806658 -0.01091401 0.04810532 0.037041258 -0.12414432 -0.07265302 -0.15801027 -0.19809687
0.04688873 0.14753513 0.06388979 -0.13203824 0.020698864 -0.22754155 -0.06931836 -0.21124527
0.0427458 -0.37532294 -0.22883792 0.033936102 -0.08242023 -0.104523815 0.115466766 0.021915086
-0.14838019 -0.008896979 -0.30366987 0.07671237 -0.0106325075 -0.38159454 -0.2131415 -0.09686659
0.02500395 -0.2381334 0.08239804 -0.04771462 0.08284804 0.106527805 -0.09701071 -0.32660335
-0.51426685 0.08398819 0.10117699 0.014395874 -0.108393 -0.39994013 0.026322616 -0.38455814
-0.15905166 -0.3971348 -0.13665248 0.2610843 0.0127392365 -0.19018802 -0.09870357 -0.08819226
0.13618407 -0.34514654 -0.155937 0.12070581 -0.083884835 0.027782004 0.07247788 0.019133577
0.08755692 -0.04446574 -0.027922917 0.14058557 0.061033316 -0.069195725 -0.16805238 -0.06269018
0.014882066 0.11826902 0.011342684 0.16669288 0.03279831 -0.22137405 0.10716818 0.0302322
-0.41863677 0.111948386 -0.38750708 -0.084048405 -0.1995324 -0.4120898 -0.090839066 -0.04426009
0.014859433 0.075676344 -0.41651556 -0.13270251 -0.007141688 0.07784057 -0.037085734 0.14913255
0.0037695644 -0.34182522 -0.16986383 -0.18023689 -0.051305193 -0.3321896 -0.17935021 -0.13080977
-0.065261 -0.3677677 0.13523483 -0.50042564 -0.09772946 -0.0034779483 -0.37392354 0.2864039
00000000: 2250 92be 5c1d 17bd 8462 dfbc 7de2 d13d
00000010: 812d 1dbe 6beb 01be 08db aabd 4ac5 1cbe
00000020: 70d6 15be 6f06 93bc bd1e ab3d 9889 b83d
00000030: e8a6 11bd e141 f9be 3a32 fcbd 3eac 923b
00000040: 680f 55be add0 32bc 160a 453d 93b8 173d
00000050: 613f febd 1bcb 94bd 72cd 21be e8d9 4abe
00000060: 660e 403d 7313 173e a6d8 823d 0835 07be
00000070: aa90 a93c a700 69be c9f6 8dbd ae50 58be
00000080: 3816 2f3d 542a c0be 7d54 6abe 9500 0b3d
00000090: f0cb a8bd 9510 d6bd d779 ec3d 4487 b33c
000000a0: faf0 17be a2c4 11bc 9e7a 9bbe 601b 9d3d
000000b0: f833 2ebc 5c60 c3be c441 5abe fe61 c6bd
000000c0: 15d5 cc3c 3ed9 73be 4ec0 a83d 6870 43bd
000000d0: 3cac a93d 402b da3d 8dad c6bd 8e38 a7be
000000e0: fea6 03bf 0002 ac3d e235 cf3d acdc 6b3c
000000f0: 26fd ddbd f4c4 ccbe 87a2 d73c cee4 c4be
00000100: 70de 22be 4155 cbbe a1ee 0bbe d7ac 853e
00000110: 3bb8 503c a6c0 42be 1925 cabd 259e b4bd
00000120: d673 0b3e 0cb7 b0be f3ad 1fbe 9c34 f73d
00000130: d0cb abbd 1697 e33c 486f 943d 05be 9c3c
00000140: 0b51 b33d b521 36bd 9abe e4bc aaf5 0f3e
00000150: 12fe 793d 7db6 8dbd ec15 2cbe b663 80bd
00000160: e9d3 733c 0737 f23d aad6 393c 8ab1 2a3e
00000170: 8557 063d e1af 62be fe7a db3d 85a9 f73c
00000180: 8f57 d6be 3245 e53d 5467 c6be 9221 acbd
00000190: 3952 4cbe 6ffd d2be d509 babd 114a 35bd
000001a0: fb74 733c 33fc 9a3d 8741 d5be 2be3 07be
000001b0: d204 eabb e06a 9f3d 36e7 17bd 34b6 183e
000001c0: cc0a 773b b703 afbe c9f0 2dbe 0590 38be
000001d0: 6525 52bd c114 aabe 95a7 37be fff2 05be
000001e0: 8fa7 85bd 0c4c bcbe 007b 0a3e e51b 00bf
000001f0: 6226 c8bd 4aee 63bb e872 bfbe 88a3 923e

weight f4 [32, 128]
-0.04262243 -0.02289244 -0.0030914631 -0.024925726 -0.0012119706 -0.026501376 0.021671966 -0.017189017
-0.030203247 -0.014809061 -0.047101498 0.02108469 -0.008462287 -0.01093177 -0.031822998 -0.009770031
-0.0136892535 -0.013125455 -0.028666014 -0.015606571 -0.0031125736 -0.04243365 -0.018838434 -0.03323791
-0.037030715 -0.008576569 -0.025344836 -0.03024909 -0.009849941 -0.009556722 -0.00971241 -0.022603456
-0.023982642 -0.040700126 0.00040024798 -0.019607505 -0.0046967804 -0.019193528 -0.030902842 0.01067658
0.031378638 -0.076773986 -0.025863936 -0.024334423 -0.030454239 -0.002309329 -0.047557913 -0.030523024
-0.042992145 -0.02667871 -0.0033654536 -0.050855383 -0.03514129 -0.020499842 0.00040851458 0.017428085
-0.00075905665 -0.03539004 -0.03384606 -0.01797347 0.011455896 -0.0298393 -0.048024695 -0.023355225
0.011130918 -0.032731675 -0.037459955 0.04181388 -0.011723636 0.0018909043 -0.0730972 -0.023628987
-0.04284317 0.0049798647 -0.057699278 -0.017837858 -0.0077203847 -0.018318342 -0.06113309 -0.023342855
0.0104174465 0.009953397 -0.048522294 -0.019145817 -0.033183016 0.0033509396 -0.037496217 -0.029003344
0.0064315316 -0.0179412 -0.0049154824 -0.04709181 -0.012543257 -0.023513729 -0.016863512 0.0037772814
0.020749243 -0.028601153 0.034060776 -0.06785782 -0.034215916 0.008857968 -0.002635268 -0.012799622
-0.027168402 -0.0010072712 1.1565278e-07 -0.021852791 -0.053233825 -0.01687635 -0.007977953 -0.01057363
-0.060611818 -0.03975733 -0.03233678 -0.024473438 -0.017928483 -0.03118484 0.011584402 -0.023745222
-0.025693294 -0.0047637937 -0.011153557 -0.032669324 -0.0058573033 -0.005126669 -0.01613436 -0.028579518
0.18176264 0.01546574 -0.25392416 -0.15613163 0.16961631 0.6331457 0.16568401 0.31375656
0.45499682 -0.05014582 0.20081733 0.55799353 0.19345212 -0.26550397 -0.7004448 -0.113722034
-0.14797562 0.13363019 0.32194963 0.0019964473 -0.3091002 0.052243408 -0.5307857 -0.7270896
0.106745906 0.3807381 -0.03954255 0.12100412 0.12453382 -0.2319699 0.053479273 -0.2803067
-0.2837406 0.4572694 0.8054492 -0.32351074 0.18001822 -0.18282862 -0.14433204 0.060543895
0.4816531 0.46533874 -0.15878715 0.46122783 0.0563253 -0.08030709 -0.36563376 -0.108446345
-0.05623936 -0.6882339 0.28112245 0.22230873 0.22986129 -0.3214152 0.87357694 0.99007666
0.5144491 -0.10322624 0.39414153 -0.21309236 -0.36135334 0.6812182 0.48469844 0.6171584
0.01653849 0.27644405 -0.29346356 0.06711895 -1.4505664 -1.1762269 0.10492354 0.19347125
0.18114285 0.044217154 -0.19656958 0.007698706 0.36847323 -0.09444876 0.192821 -0.16981521
0.07659504 -0.01148008 0.013004402 -0.7304978 0.24717878 0.14045054 0.755373 -0.07952728
-0.13916394 0.013090801 -0.021052973 -0.06809913 0.17641084 0.41066226 0.26006347 0.30500716
-0.6330852 0.03498879 -1.3374909 -0.19940649 0.69043946 -0.02455642 0.19210823 0.54120123
0.12808129 0.49551058 1.0110161 0.09196868 -0.051209506 -0.5252226 0.4582991 -4.1715793e-05
0.036623184 0.29927686 0.2461945 0.34416395 0.251487 0.2168844 -0.3379028 0.4359964
0.09271248 0.25904647 -0.010841306 0.5264452 -0.5509476 0.15009284 -0.82866675 -0.26897827
00000000: db94 2ebd ed88 bbbc 259a 4abb 0931 ccbc
00000010: fcda 9eba 6a19 d9bc 6889 b13c fbcf 8cbc
00000020: cd6c f7bc b4a1 72bc 80ed 40bd cdb9 ac3c
00000030: 67a5 0abc 2b1b 33bc d558 02bd 7b12 20bc
00000040: e448 60bc 260c 57bc fdd4 eabc b4b2 7fbc
00000050: 52fc 4bbb e8ce 2dbd 0f53 9abc 7a24 08bd
00000060: 85ad 17bd bd84 0cbc f99f cfbc f1cc f7bc
00000070: a661 21bc cc93 1cbc cd20 1fbc e22a b9bc
00000080: 3f77 c4bc 2db5 26bd 60d8 d139 eb9f a0bc
00000090: 73e7 99bb bf3b 9dbc f527 fdbc d2ec 2e3c
000000a0: e386 003d ae3b 9dbd 9be0 d3bc fc58 c7bc
000000b0: 2b7b f9bc 1d58 17bb 16cc 42bd 6c0b fabc
000000c0: 8818 30bd 4f8d dabc f18e 5cbb bc4d 50bd
000000d0: 50f0 0fbd 49ef a7bc e62d d639 58c5 8e3c
000000e0: 6efb 46ba 26f5 10bd 2ba2 0abd 193d 93bc
000000f0: 83b1 3b3c 8c71 f4bc 8bb5 44bd 7553 bfbc
00000100: 745e 363c a611 06bd 9c6f 19bd 0845 2b3d
00000110: 7e14 40bc 38d8 f73a fcb3 95bd 9491 c1bc
00000120: 527c 2fbd 222e a33b 1456 6cbd b320 92bc
00000130: 48fb fcbb 5910 96bc b166 7abd 8439 bfbc
00000140: f0ad 2a3c 9313 233c 50bf 46bd b0d7 9cbc
00000150: eaea 07bd 709b 5b3b a295 19bd 6c98 edbc
00000160: 99bf d23b 6cf9 92bc 0e12 a1bb 57e3 40bd
00000170: 3c82 4dbc dd9f c0bc 5925 8abc 448c 773b
00000180: 51fa a93c f74c eabc 5083 0b3d 0af9 8abd
00000190: fd25 0cbd 0321 113c 76b4 2cbb 81b5 51bc
000001a0: 4590 debc 6a06 84ba ca5c f833 a004 b3bc
000001b0: b60b 5abd 4540 8abc f6b5 02bc 053d 2dbc
000001c0: 1944 78bd 95d8 22bd 9273 04bd 857c c8bc
000001d0: c1de 92bc 5977 ffbc 81cc 3d3c 5785 c2bc
000001e0: be7a d2bc 9919 9cbb 69bd 36bc 45d0 05bd
000001f0: 9fee bfbb 9efd a7bb 352c 84bc 981f eabc
00000200: fc1f 3a3e 0464 7d3c 5902 82be f8e0 1fbe
00000210: e6af 2d3e d615 223f 12a9 293e b3a4 a03e
00000220: 58f5 e83e b465 4dbd 0fa3 4d3e aad8 0e3f
00000230: 5018 463e 23f0 87be 5a50 33bf 19e7 e8bd
00000240: ec86 17be 5ad6 083e 95d6 a43e d4d6 023b
00000250: 6242 9ebe 2ffd 553d 92e1 07bf 8b22 3abf
00000260: 999d da3d 1bf0 c23e 5ef7 21bd 02d1 f73d
00000270: 960b ff3d 8489 6dbe 150d 5b3d 5c84 8fbe
00000280: 7346 91be 371f ea3e eb31 4e3f 33a3 a5be
00000290: b256 383e 6d37 3bbe c7cb 13be e0fc 773d
000002a0: 3c9b f63e e140 ee3e 1999 22be 0e26 ec3e
000002b0: 5cb5 663d 0b78 a4bd 5934 bbbe 1e19 debd
000002c0: 3e5b 66bd 1930 30bf 48ef 8f3e e6a4 633e
000002d0: c260 6b3e 8890 a4be bda2 5f3f aa75 7d3f
000002e0: f0b2 033f 4768 d3bd ebcc c93e e234 5abe
000002f0: 4e03 b9be 5164 2e3f 652a f83e 18fe 1d3f
00000300: ba7b 873c 138a 8d3e db40 96be a975 893d
00000310: 29ac b9bf 9a8e 96bf 27e2 d63d 541d 463e
00000320: 837d 393e 0c1d 353d 8949 49be 6d45 fc3b
00000330: 86a8 bc3e 5a6e c1bd de72 453e 0ae4 2dbe
00000340: dcdd 9c3d f216 3cbc 6a10 553c e701 3bbf
00000350: 6f1c 7d3e 44d2 0f3e 2060 413f 33df a2bd
00000360: fe80 0ebe cd7a 563c 4977 acbc 8f77 8bbd
00000370: 0ba5 343e 5342 d23e 0a27 853e e629 9c3e
00000380: df11 22bf 6850 0f3d e732 abbf 3731 4cbe
00000390: a4c0 303f 8c2a c9bc 05b8 443e 2a8c 0a3f
000003a0: be27 033e 90b3 fd3e fa68 813f 135a bc3d
000003b0: 0fc1 51bd fd74 06bf 2ea6 ea3e fef7 2eb8
000003c0: 3102 163d d13a 993e 691a 7c3e 4236 b03e
000003d0: e7c2 803e f216 5e3e 9901 adbe ec3a df3e
000003e0: 0ae0 bd3d bda1 843e bc9f 31bc 1dc5 063f
000003f0: e70a 0dbf f0b1 193e 8123 54bf 85b7 89be

bias f4 [32]
-0.04219579 -0.09665501 0.13274685 0.080784656 0.26583847 -0.029947063 -0.05728954 -0.03296746
-0.042755853 0.09668521 0.35588253 0.17568047 0.1347996 -0.03411807 -0.019257752 0.20978431
0.112513684 -0.042097405 -0.023702634 0.06837831 0.08200575 -0.01480742 0.18452767 -0.075061284
0.099423274 -0.029917229 0.105399795 -0.017913824 0.2799799 -0.013120213 0.0818394 -0.029444726
00000000: 7ed5 2cbd 10f3 c5bd caee 073e 6d72 a53d
00000010: fb1b 883e 8b53 f5bc 70a8 6abd e308 07bd
00000020: c320 2fbd e502 c63d 3c36 b63e 95e5 333e
00000030: e808 0a3e 64bf 0bbd 6fc2 9dbc b3d1 563e
00000040: 936d e63d 546e 2cbd 072c c2bc ed09 8c3d
00000050: a1f2 a73d d29a 72bc d2f4 3c3e bbb9 99bd
00000060: 6e9e cb3d fa14 f5bc d9db d73d 03c0 92bc
00000070: 8759 8f3e 29f6 56bc 6a9b a73d 1136 f1bc
