model/Swin_1_lr_1e-3_30_0.5.pt (torch, 268466 bytes, 48 tensors)

weight f4 [32, 30, 2, 2]
00000000: 7ae3 f63d a68f 1b3e 3361 743e fc21 333e
00000010: fa8d 01bd 5232 afbb 4e39 76bd 75f7 76bd
00000020: cec6 34be 70fa 04be f432 78be c5c9 5cbe
00000030: fb95 4dbe 50c5 89be 9003 19be beb4 60be
00000040: 9d11 613e f3f0 1c3e 8220 a33e c45d 573e
00000050: e9fc 6b3d e59f 603d bf0f 313e 6310 683d
00000060: e620 b03c c997 b2bd ba45 c0bd 6bcc a23c
00000070: b2ca 19be 0bbb bc3d 05a0 c7bd 69fe c23c
00000080: 5acb 15be 797f 07bd c251 363c 8bc8 f5bd
00000090: e63f 8fba 8c00 a5bd 3517 153e 479d 0c3c
000000a0: 172d f23d ae91 16bc 5b16 343e a589 a13d
000000b0: 6d18 29bd 7629 a03d 6e02 bfbd 744f 6bbd
000000c0: cec0 153c 8a68 1b3e 5742 563d 01ae 503d
000000d0: a855 febd 2ee1 d1bc b50a 17bd e65c 843d
000000e0: d513 87bd b094 b2bd d1f7 af3d b8bc ae3d
000000f0: e684 07bd 6acc 81bd dcfb 413e 7af0 a53d
00000100: b934 e3bd f698 b23b 582d 39bd b504 ad3d
00000110: 9c8d 86bd b9f8 243d dcda 1bbd d7bc a43d
00000120: ecda dc3d 7caa 51b9 bfba bc3b 5a27 febc
00000130: fe9e f4be c184 5cbe 0d07 e23d 807e 273c
00000140: 9034 4fbe 126b c4be be67 863e 36b6 943d
00000150: 9f93 55bd 2096 1c3d f859 2d3d 61d9 1c3e
00000160: 722a 0bbd c9e8 0f3e fa79 0cbd 6ccf c23d
00000170: f047 9a3d 9e06 503d 2528 223e 25b8 a8bb
00000180: 38ec ad3e a3fa 8e3e 7cd3 1b3f 8f7d a33e
00000190: 7438 fabe 046b 34bf 99ed 4abd 0dca f0be
000001a0: 49df cf3c 13f4 763d b4d9 413e 22c0 7ebc
000001b0: a5e4 93b9 ce73 f93d e2cb 403d 58f0 5c3e
000001c0: 1546 ac3d c158 233e 2e0e 773e e1f6 763e
000001d0: f794 f93e 4281 1ebf b55f 053f de6b 67bf
000001e0: de2c debc d157 6bbd 84e3 aebd 3466 02be
000001f0: d897 893d 1adc 7ebd 699e 893c fd99 c4bd
00000200: 2ce9 093d 227f 1f3c 83f0 453e 2b8a af3d
00000210: b2ac 723e c082 b93e 7063 c63e 4fd1 bc3e
00000220: 3107 dabc c28e 0d3e bbcd 7fbd e2ae bd3d
00000230: a224 44bb 1b15 e0ba 2563 6fbd a0e7 55bd
00000240: 7ff3 723d 203a c43c b17a 053e d411 143d
00000250: 6172 b83d 33d1 10bc b6a8 263e 5573 39bd
00000260: 1ab4 1a3e 9912 ad3d b07a 2f3e 2940 cb3d
00000270: d932 61bd eb18 ad3d 821b f0bc 1ffa 0a3e
00000280: a9bc b23c 421e 823d 5295 3dbd a3d3 edbc
00000290: c4c6 453e f248 8d3d 35e7 063e d5a3 1c3e
000002a0: eb63 eb3c df59 bebd c316 56bd bb09 cc3b
000002b0: 339b 7c3d bbb3 c73d 2e1f 2d3d 4286 a0bc
000002c0: a674 5bbe 6c33 3c3e ae1e acbd 0431 b13d
000002d0: b305 d13d 3f4e 913d 0afa 84bd 68f5 ccbc
000002e0: 15f3 803e 5e8b 423e 7615 673d fe77 273e
000002f0: 281c abbc b571 00be 7db8 a4bd 1a5f 6bbc
00000300: 5cd2 50be f6db 60bd b396 e7bc a9ff c6bc
00000310: 05f9 2fbe 6e05 1c3d d90d cfbc 99a4 d33d
00000320: 9b7f d03e a7fa e53e 71a5 ca3d 2d60 283e
00000330: 7f9d d03d 948f 1b3e cb02 f33d c9de 283e
00000340: 2103 bbbd 03d1 67bb 2590 12be 2727 afbd
00000350: 30e7 babe 99eb 85be 5e87 c7be e566 a5be
00000360: 70df 34be 52c9 253f 9fad 57be 0966 093f
00000370: 70fc 25be f7b5 2abe 17e7 8cbe d19d d8be
00000380: 26ad 0ebf 9ddb e8be 8bd6 acbe decd b2be
00000390: bd76 cabd 0b55 b23c df2c afbd ea8d 92bc
000003a0: 5035 463c 2bb8 cd3c 08b1 a2bd ecd8 a3bd
000003b0: 9f38 d43c e8d5 9cbf b47c 6e3f 69ce 483e
000003c0: c4b1 6bbd 106f 8abd 853b 5ebc 0fb8 93bd
000003d0: 0907 74be fbb1 92be e5d7 74be d01f 8ebe
000003e0: 9b22 233d f64d 123d d657 013d 4f81 90bd
000003f0: b1b3 a83d 1d7e f0bc 10fd 923d 6421 cfbd
0.120551065 0.15191516 0.23865204 0.17493433 -0.03162954 -0.005346575 -0.060113244 -0.060294587
-0.17653963 -0.1298616 -0.24238187 -0.21561344 -0.20076744 -0.2690835 -0.14942765 -0.21943948
0.21979375 0.1532629 0.3186074 0.21031862 0.05761424 0.054839987 0.17291163 0.056656253
0.021500062 -0.08720357 -0.09388299 0.019872865 -0.15018728 0.09215363 -0.09747318 0.023802953
-0.14628354 -0.03308055 0.011127891 -0.12001141 -0.0010929077 -0.08056745 0.14559634 0.00858242
0.118250065 -0.009190006 0.17586653 0.07887582 -0.04128306 0.07820408 -0.09326635 -0.05744882
0.0091402065 0.15176597 0.05230936 0.050947193 -0.124186814 -0.02562007 -0.036875445 0.064630315
-0.065955795 -0.08719766 0.08592189 0.08532089 -0.033085726 -0.06337817 0.18943733 0.08102508
-0.110940404 0.0054503633 -0.04520926 0.084481634 -0.065699786 0.040276263 -0.038050517 0.08043831
0.107839435 -0.00019995304 0.0057595666 -0.031024624 -0.4777755 -0.21535017 0.11036501 0.010223031
-0.20234895 -0.38362938 0.26251024 0.072613165 -0.052142736 0.038229108 0.04232213 0.15317298
-0.033976026 0.14053644 -0.034296013 0.09512219 0.07533252 0.05078756 0.15835626 -0.005148905
0.33969283 0.27925596 0.60869575 0.3193173 -0.48871195 -0.7047579 -0.049542997 -0.47029153
0.025375025 0.06029136 0.18930703 -0.015548738 -0.00028208378 0.12180291 0.047069438 0.21576059
0.084118046 0.15951826 0.24126503 0.24117614 0.48746464 -0.6191598 0.5209916 -0.9039897
-0.027121004 -0.057456795 -0.08539489 -0.127343 0.06718415 -0.062221624 0.016799169 -0.095996834
0.033669636 0.009734901 0.19330029 0.08571275 0.2369869 0.36232567 0.3874774 0.3687844
-0.026614757 0.13823989 -0.06245206 0.09261872 -0.0029929061 -0.0017096134 -0.05844416 -0.052222848
0.059314247 0.023953497 0.13035084 0.036149815 0.09006191 -0.0088389395 0.16275296 -0.045276005
0.15107766 0.08450813 0.17136645 0.09924347 -0.054980133 0.08452018 -0.029309992 0.13571976
0.021818476 0.063534275 -0.04628498 -0.02903158 0.19314104 0.06898679 0.13174136 0.15296872
0.028734168 -0.09294485 -0.0522678 0.006226746 0.061671447 0.09751078 0.042266063 -0.01959527
-0.21431217 0.18378991 -0.08404289 0.08651927 0.10206165 0.070950024 -0.06493004 -0.025019363
0.25185457 0.18998477 0.05641695 0.16354367 -0.02088745 -0.12543376 -0.08043001 -0.014365936
-0.20392746 -0.05489727 -0.028270101 -0.02429183 -0.17184837 0.038091116 -0.025275158 0.10334129
0.40722355 0.44917795 0.09894837 0.16442938 0.1018629 0.1519149 0.11865767 0.16491236
-0.09131456 -0.0035372383 -0.143128 -0.085523896 -0.36504507 -0.2615631 -0.38970464 -0.32305065
-0.1766336 0.64760315 -0.21062325 0.5367132 -0.16209579 -0.16670977 -0.27520058 -0.42307904
-0.55732954 -0.45480052 -0.33757433 -0.3492269 -0.09885929 0.021769067 -0.0855348 -0.017889936
0.012097672 0.025112232 -0.07943922 -0.08000359 0.025905905 -1.2252779 0.9315903 0.19609989
-0.057542577 -0.06759465 -0.013563995 -0.07212841 -0.23830809 -0.28651413 -0.23910482 -0.27758646
0.039827924 0.03571888 0.031577908 -0.07055914 0.082373984 -0.02935701 0.07177174 -0.10113791

bias f4 [32]
00000000: fb5f b8bc 2fc4 9abd 89b0 2c3f f1ba b8bd
00000010: f746 d43e 7599 a53f d0fb 22bf 2223 743e
00000020: c35f 8e3e 541d dbbc 7c6f 5c3f a0cc 213f
00000030: 6fbc d53d 11fc ddbd 41df 6dbe 90b5 f03e
00000040: 8ede 1cbe 0875 b7be f420 fdbc 4b09 78be
00000050: 0177 88be 496e 2f3f 208a 40bf 491c 813d
00000060: 34b7 1cbf 206f dbbe 3042 40bf 54b4 d9be
00000070: 69b7 07bf d582 83bf 2a81 8c3e 0dda 3cbe
-0.022506705 -0.0755695 0.6745687 -0.09020031 0.41460392 1.2937456 -0.63665485 0.23841527
0.27807435 -0.026747383 0.8610761 0.6320286 0.104363315 -0.108390935 -0.23229696 0.4701352
-0.15319273 -0.35831475 -0.030899502 -0.24222295 -0.26653293 0.68527657 -0.7521076 0.06304223
-0.61217046 -0.4285822 -0.75100994 -0.42520392 -0.53014237 -1.0274302 0.27442294 -0.18442555

weight f4 [32]
00000000: 2607 603f 20b0 b93f b4b3 a03f 73cd ce3e
00000010: 18f7 033f 8980 a73f 5164 a03f 7651 993f
00000020: b94c 983f e832 ef3e 36b0 963e 3e84 803f
00000030: f764 133f 8e8a 6a3f f86a ba3f 3efe f03e
00000040: a342 383f 88dd 493f c604 843f 5d48 d63e
00000050: c608 f93e 6726 bfbe d3d1 933e c327 753f
00000060: c8ee 8d3d e7dc 7e3f 3a78 9b3f 3800 1d3f
00000070: 791c 90bc d12a 513f c5c7 233f 4a31 b93e
0.8751091 1.4506874 1.2554841 0.4039112 0.5154891 1.3086101 1.2530614 1.1977985
1.1898414 0.46718526 0.29431313 1.0040357 0.57575935 0.9161767 1.4563894 0.4706897
0.7197668 0.78853655 1.0313957 0.41852084 0.48639506 -0.37333986 0.2887102 0.95763797
0.069303095 0.9955582 1.2146065 0.6132846 -0.017591702 0.8170596 0.639767 0.36170417

bias f4 [32]
00000000: 8ef0 843e b9fb 013e 00bb 09bd d104 1abe
00000010: 3de4 6d3e a36e 2d3e cb12 093d 8dfb 2b3d
00000020: 5488 cc3d 27d1 07be 65b5 a23d 7366 173e
00000030: 8c13 57be 2647 31be fff7 933e 1d85 783d
00000040: 96db ddbe 5f30 9b3e a34e 03bd 9c1f 56be
00000050: 3b2f 2bbe 08f8 c13e a66f 02bf 853c 073d
00000060: d428 a0be 011b 0ebd 2910 a8be 17e0 c2bd
00000070: 9b2f f4be eb36 01bf 350c e3bc e3ae f03d
0.2596478 0.12693681 -0.033625603 -0.150409 0.23231597 0.16936736 0.033465188 0.041987944
0.0998694 -0.13263379 0.079447545 0.14785175 -0.2100355 -0.17312297 0.28900144 0.06067382
-0.43331593 0.30310342 -0.032057416 -0.20910496 -0.16717236 0.37884545 -0.5095161 0.0330167
-0.3128115 -0.03469372 -0.3282483 -0.09515398 -0.4769257 -0.50474423 -0.027715782 0.11752107

relative_position_table f4 [81, 4]
00000000: 88fd 73bc af87 01bd dd9e a4bc fe23 7b3c
00000010: b461 77bb 451a b83c 83e5 e6bb 4050 d1bb
00000020: 9b46 12bd 2a23 d93b 5229 bdbc f82c 033b
00000030: b88f 593c f557 eb3b bab1 f63b 9518 f03b
00000040: 3705 0c3b 92c1 af3a 98d5 003c fb50 94bc
00000050: 71cf bd3b a2f5 853c 7ad2 343d 1ff1 52ba
00000060: 4803 b63c 0add 02bd d72c b53b 1bf3 a83c
00000070: 6c05 093c 3046 003b 6e1c 1d3d 7f9f 45bc
00000080: bdc5 0fbd 25c4 b9bc 3db0 28bc 4372 003d
00000090: 0893 383c fd16 a8bc 385d c83b 563b 0e3a
000000a0: 0631 853c e374 bcba 09fe cdbc 5881 e4bb
000000b0: 022d 95bc 37e6 093d 177b 543c f85b 863a
000000c0: a202 afbc 862e a73b 4502 1e3c 8dc6 b33c
000000d0: 9cac 82bc de41 2fbb 2f6c ba3a a4e4 43bd
000000e0: ff15 97bb 9279 44bc 552d 4d3d 9aa5 aa3c
000000f0: 3d73 293a 70f2 11bd 484e 773c 54b4 88b9
00000100: 08ba c33b 2d1a 08bd 7835 163d 8627 21bc
00000110: 654e ffbc 0835 10bd c884 a8bc 74f8 13bc
00000120: 3ccb 913c e28c 283c e379 aa3c 717e 6e3a
00000130: fdd9 c4bb bdaf 883c 12e9 d83b 7b0b 29bc
00000140: 5b22 833b e8ac 5ebc 76e9 e6bb 98a1 c6bb
00000150: f644 4ebc 43eb b1bc adcc 77bd 9cf6 b2bc
00000160: bf35 92bc 9bf9 773c cf58 25bc cc2f 56ba
00000170: 1353 0ebd 1613 a53b 8615 19bc 5185 85ba
00000180: f233 dd3c 79c1 9ebc 568b 26bb fca3 e63c
00000190: 2fc4 6a3c 945a de3b 346b 80bc 67ad 2fbd
000001a0: a273 fc3c c88d 01bb 755a 45bc 9ba0 3c3c
000001b0: c9e8 983b 996c 2dbc 2495 353d 474a 663d
000001c0: b1e2 c63c 66c6 4d3c e4d7 8f3a 60c4 57bc
000001d0: da4a d03c be79 31bc b07f 593b 0581 39bb
000001e0: 8260 3ebc baed d2bc 49d9 893c 7b82 90bb
000001f0: 5ea8 f33b 6e79 c1bc 8c09 323c fc8e 0f3b
00000200: 66e5 743c cf1b 2b3c 3d00 9e3c 9b59 533c
00000210: 7bcc 613c ce8c a5bc b642 bdbc f8d9 703c
00000220: 6e4c 353c 517d 4fbc 34b8 2d3c 9e55 ccbc
00000230: ec75 453c bb63 d33c d014 94bb ad5c e13c
00000240: a38b f7bc 2175 693a 72f6 043a f424 3f3c
00000250: e917 3cbc cfc1 323c 6636 c53c 51cb 1abb
00000260: 1c47 5f3b 5668 a2bc 526a ccba 555c 89bc
00000270: de95 a93c 6025 88bc 5282 37bc 5bc3 9d3c
00000280: cf00 92bc 34b1 96bb 55eb bb3c 91bf f0ba
00000290: 7a54 5b37 7182 ef3b f1e9 ad3b a1e8 263b
000002a0: dcd5 9abb 3d84 48bc 62b7 6d3c 3997 973c
000002b0: a0f5 c0bc 02d1 e0bc 5154 763c c6d9 37bd
000002c0: 6a03 32bc 8ae9 843c 707b 923c 5412 5abb
000002d0: a9b1 183c e98c 943b 8b64 0a3d d390 b539
000002e0: 3e88 fdbb 8bcc 4ebc 2b75 6dbc 9258 bfbc
000002f0: 55ee 833c ca35 56bc 7ee8 f5bc d571 13bd
00000300: aef9 e6bc 3b82 48bc 2105 31bc 0e1e a7bb
00000310: 95f3 f13a ce0e de3c 6447 d93b 89e5 edbc
00000320: 2612 b5bb f6e5 8939 ff2a ccbb c1b2 12bb
00000330: e101 07bc ecf7 f6bc a442 e8bc 16a5 fe3c
00000340: 13f7 70bc de8a 943c 221b 53bb 85f8 4b3c
00000350: 5fca d33c 1b6f 0fbb 9cef 993c 9af6 bc3b
00000360: fcd8 fbbb 7e71 c3ba fbcd 64bb 7ea5 d93b
00000370: a606 c53b c8c3 8c3c a8d5 f63c 42f6 d2bb
00000380: 3ef5 36b9 a1e1 b93c 1c67 073d d3a6 c8bc
00000390: 688b 0dba 378c 15bb 6c1b dcbc d8c2 42bd
000003a0: 521a 17bb d946 c63a 7a3c 013d f690 503b
000003b0: b3d2 893a bb53 aa3c 67b4 55bc 1703 bf3c
000003c0: a973 da3b e98e 1e3c 13de 88bc bb74 37bc
000003d0: b39e 0cbc d8ae 41bc 30d0 eebc db65 a8bc
000003e0: 81dd 0c3d b2b1 033c 94e8 95bb b452 7abc
000003f0: b05c a33c 7dc4 90bb 41b8 323c 93a2 86bc
-0.0148919895 -0.03162354 -0.020095283 0.015328405 -0.0037747445 0.022473464 -0.007046403 -0.0063877404
-0.035711866 0.0066265063 -0.023090992 0.0020015817 0.013278894 0.007182116 0.007528511 0.007327149
0.0021365413 0.0013409129 0.007863425 -0.01810502 0.005792551 0.016352478 0.04414604 -0.0008046794
0.022218361 -0.03194908 0.005529027 0.020623734 0.008363109 0.0019573085 0.03835719 -0.012061953
-0.035100687 -0.022676537 -0.010295925 0.03135897 0.011265524 -0.020518774 0.006114628 0.0005425712
0.016258728 -0.0014378097 -0.025145547 -0.006973427 -0.018209938 0.033666816 0.0129688 0.0010250797
-0.02136356 0.0051019816 0.009644096 0.021945262 -0.015951447 -0.002674214 0.0014222915 -0.04782547
-0.0046107764 -0.011991875 0.05009206 0.020830918 0.000646401 -0.035631597 0.015094347 -0.00026074296
0.0059731044 -0.03322809 0.036672086 -0.009836083 -0.031165311 -0.035206825 -0.020571128 -0.009031404
0.017797105 0.010287495 0.020810073 0.0009097821 -0.0060074315 0.016685361 0.006619581 -0.010317679
0.004001898 -0.013591029 -0.0070468737 -0.006061744 -0.012589684 -0.021718627 -0.06049793 -0.021846108
-0.017847894 0.015135194 -0.010091974 -0.00081705744 -0.034747194 0.0050376756 -0.0093435105 -0.0010186826
0.027002309 -0.019379364 -0.002541264 0.028154366 0.014329 0.0067857 -0.015676118 -0.04288998
0.030816857 -0.0019768346 -0.012045492 0.011512901 0.004666422 -0.010584974 0.044331685 0.05622318
0.024278017 0.012559509 0.0010974375 -0.013169378 0.025426317 -0.010832248 0.003318768 -0.0028305661
-0.011619689 -0.025748122 0.016827242 -0.0044100857 0.0074358424 -0.023617472 0.010866534 0.0021905294
0.014947271 0.010443642 0.019287223 0.012899782 0.013781662 -0.020208742 -0.0231031 0.014700405
0.011065586 -0.012664155 0.0106029995 -0.02494317 0.012052041 0.025804391 -0.0045190826 0.027510012
-0.030217951 0.0008905698 0.00050721236 0.011666525 -0.01148031 0.010910465 0.02407379 -0.0023619721
0.0034069484 -0.019825142 -0.0015595651 -0.01676766 0.020701345 -0.016619384 -0.011200504 0.019258192
-0.017822651 -0.004598761 0.022939363 -0.0018367638 1.3073086e-05 0.007309251 0.005307429 0.0025468247
-0.004725201 -0.012238559 0.014509054 0.018504726 -0.023554623 -0.027443413 0.015034751 -0.04488542
-0.010865072 0.016224641 0.017881125 -0.0033275085 0.009319701 0.0045333994 0.03378729 0.00034630913
-0.0077371886 -0.012622009 -0.014493267 -0.023357663 0.016104857 -0.013074348 -0.030018087 -0.03599723
-0.028195228 -0.012238081 -0.0108044455 -0.0051000183 0.0018459434 0.027106669 0.006630825 -0.029040115
-0.005525845 0.0002630201 -0.0062307115 -0.0022384378 -0.008240194 -0.030147515 -0.02835209 0.031084578
-0.014707345 0.018132623 -0.0032212217 0.012449388 0.025853334 -0.0021886292 0.018791012 0.005766702
-0.0076857787 -0.0014911143 -0.0034912813 0.0066420427 0.0060127554 0.0171832 0.030131176 -0.0064380476
-0.00017448232 0.022690596 0.033057317 -0.02449361 -0.00053994963 -0.002281917 -0.026868545 -0.0475491
-0.002305646 0.0015127315 0.031551816 0.0031824685 0.0010515064 0.020791879 -0.0130435 0.023316903
0.00666662 0.009677627 -0.016707456 -0.011197264 -0.008582759 -0.011821471 -0.029152006 -0.020556381
0.03439093 0.008037971 -0.0045748446 -0.015278507 0.019941658 -0.0044179545 0.010908187 -0.016434943

weight f4 [96, 32]
00000000: 5de8 0cbb bb8f 5bbc a588 19bd d15a c739
00000010: 415e 163c db60 a63c cf95 d2bc 5a92 943c
00000020: 7f5c bebc 3f2a c63c f0d4 ea3c 0472 2d3c
00000030: c4df 37bd fb32 f33b a0fc 793c 8414 0f3d
00000040: f221 b7b9 4b79 a6bc 2b16 5bbc 55e9 903a
00000050: 88ca 4d3b b856 06bd 2ed7 08bc d765 3c3c
00000060: 403c 3c3c cd4f f6bc 2ad7 abbc 5e29 d7ba
00000070: b70f 90bc 7fb8 2cbc 359d 13bd 7753 54bd
00000080: 7d0a debc d4d6 fe3b e8e7 d3bc fb8d 173a
00000090: 8038 f43c df80 a43c e5a1 b0bb dc96 213c
000000a0: f258 afbc ce22 7cbc 2173 4dbc 5197 fcbb
000000b0: 71ed 36bd 7d1f a03b 9236 a73c 2665 5bbb
000000c0: 25e0 8b39 3608 f53b cba2 4ebc 2563 adbb
000000d0: 8050 413c 7e58 9a3c 8f15 33bc 7a38 96bc
000000e0: 51c4 21b9 3906 ac3b b578 1e3c 46fa 213c
000000f0: 76b6 823c 098f 09bb 20f2 85bc 1cdc c0bc
00000100: c0d1 06bc ce8d efbb 7af1 3bbc 2f5f 4f3b
00000110: 621b cbbc e4c2 9c3b cd07 3dbc 5ae0 a2bc
00000120: caa2 c7bc 0a69 3d3c 95b4 1ebd 68d3 08bc
00000130: b411 b0bc d730 56bc 8559 0b3c 4350 07bc
00000140: c731 4cbc b463 9fbc a8fd ccba 9a4f 97bc
00000150: adfe 1d3d d129 bdbc 1500 afbb a818 013c
00000160: 78d4 9bbb dd7f 293c df94 09bd 48c8 a6bc
00000170: 1043 5dbc 5d18 cf3c bbc4 17bd 63c3 d23c
00000180: 108e 61bb 2e11 55bc 046f 713c 28b4 ec3c
00000190: 304c eabc b3e6 65bc 2be3 afbc 2ff8 4ebd
000001a0: 491d b03b adbd 6d3c a878 9ab8 ca85 aebc
000001b0: 115a 143d c17a 5c3b 7bcb a93b cc45 a63c
000001c0: 2425 7dbb b1ac 0abc 1449 a23c d409 6b3c
000001d0: fea1 04ba 3ab0 a93c 58b6 fe3c ee9c 673c
000001e0: 7ce6 86bb 8705 81bc 401e f53c 2e49 85bb
000001f0: 0a2f ce3c 8d6b bc3c 713f bfbc 7575 d03c
00000200: 24bd 81bc 10db bd3a 6f79 12bd e8b2 e4bc
00000210: 4e57 2a3d b53b 8f3b d452 28bc 25f0 bebc
00000220: b7b1 47bc f4e2 4eba c6d7 10bc 5f49 a7bc
00000230: 4c2a c2bb bbee 4cbb f8e4 113c fd25 ff3b
00000240: 006f 7bbc 6f6c 78bc 13be c83b 45bc 75bc
00000250: 01d7 103d 9561 ac3b 4649 033c 14e4 da3c
00000260: e18c 98bc f0fa 3dbc 6931 573c f043 cf3c
00000270: 84a4 adbb 3fe6 9abc 2c41 88bb 9a6e ee3c
00000280: 165d 85bc d3ea 17bd c81a 113d 0cec 62bb
00000290: 6866 213d afe1 4fbc bd5b 2cbc 5f57 d2bc
000002a0: 02df 74bb ac4a c4bb 4d41 ce3c af1c 0dbc
000002b0: 8c75 8b3b 21bc 43bc f3eb 58bc cb55 653b
000002c0: b8fa 2dbb 32fc cb3c 41cb a53c d9e1 963b
000002d0: 7b5c 85bc 424e 84bc 437e 4abc 314e 5abc
000002e0: 2e43 c93c b172 fabc 443d b5bc 9273 74bb
000002f0: cd6a e3bb df3c 8fbc b7ae d6bb a3a2 3bbc
00000300: 7d82 b4ba 8a54 043b 2b0f 75bc 2ad3 a83c
00000310: 3159 283c 5fa5 3fbb 062f 17bc 34e8 063d
00000320: abd7 a63c 9274 193c 6400 043c 0557 c3bc
00000330: 7e8c a6bb d462 36bc 8e6e 90bc 56f4 bebb
00000340: 3fb8 0a3c c8b5 16bc b910 e93c 4128 693c
00000350: 0319 de3c d052 16bc b8ec 3f3b cebb 6fba
00000360: 24a7 c1bc c487 62bc 958d efba 5d12 6cba
00000370: 441d 993c 0016 ba3c 9907 043b ad78 0f3d
00000380: 0fa9 5c3c d600 27bc 45bf 0cbb b3cc b63c
00000390: 8cd5 6e3b 65f6 133d f7af 123d d9de cebc
000003a0: 383d e9bc b427 43bc e2fd 9ebc c9d0 3c3b
000003b0: e733 0bbc 5f98 78b8 6603 c03b 0a46 47bc
000003c0: 9512 00bc a537 26bb 7a70 b5bc cf04 cabc
000003d0: 6aaa 9abc 087f 44bc 32ba 8cbb 456c fe3a
000003e0: e6e5 d43c cac0 393c 4cf6 f83b 9978 19bd
000003f0: be06 d43b 78be 5c3d fa85 a43c 1f67 8bbc
-0.0021500804 -0.013400967 -0.03748383 0.000380239 0.009177745 0.020309856 -0.0257062 0.018136192
-0.023237465 0.024190066 0.02866599 0.0105862655 -0.044891134 0.007421849 0.015257984 0.034931675
-0.0003492977 -0.020321509 -0.0133719845 0.0011055866 0.0031401236 -0.032797545 -0.008352084 0.01149889
0.011488974 -0.030067349 -0.020976622 -0.0016415527 -0.017585618 -0.010542034 -0.036038596 -0.05183741
-0.02710461 0.0077770744 -0.025867417 0.00057813496 0.029812098 0.020080982 -0.005390393 0.009862628
-0.021404717 -0.015389157 -0.012539656 -0.007708468 -0.044660036 0.004886566 0.020411763 -0.0033477037
0.00026679147 0.0074777855 -0.012612055 -0.00529136 0.011798978 0.018841024 -0.010930433 -0.018337477
-0.0001542729 0.0052497652 0.0096723335 0.00988633 0.015956145 -0.0020989797 -0.016350806 -0.023542456
-0.008228719 -0.0073106056 -0.011471147 0.0031642427 -0.02479333 0.004783975 -0.011537504 -0.01988237
-0.024369616 0.011560688 -0.038746435 -0.008351184 -0.021492817 -0.013073168 0.00850523 -0.008258882
-0.01246304 -0.019456722 -0.001563956 -0.018470574 0.038572956 -0.023091229 -0.005340586 0.007879414
-0.004755553 0.010345426 -0.03358924 -0.020359173 -0.0135047585 0.025280172 -0.03705285 0.025727933
-0.0034416951 -0.013004584 0.014735941 0.028894499 -0.028600782 -0.014032054 -0.021470627 -0.050529655
0.005374585 0.014510554 -7.365766e-05 -0.02130403 0.036218707 0.0033642503 0.0051817275 0.020296954
-0.0038626874 -0.008464024 0.019810237 0.014345605 -0.0005059539 0.020713914 0.031092808 0.014136536
-0.0041168313 -0.015749706 0.02992165 -0.0040675616 0.025168914 0.023000503 -0.02334568 0.025446633
-0.01583726 0.0014484841 -0.03576034 -0.02791734 0.041587166 0.0043711313 -0.010273654 -0.02330787
-0.012188367 -0.0007892095 -0.008840507 -0.020420728 -0.0059254523 -0.0031270224 0.008904688 0.007786511
-0.015346289 -0.015162571 0.0061261742 -0.0149985 0.035361294 0.005260656 0.008013075 0.026720084
-0.018621864 -0.011595473 0.013134339 0.02530095 -0.005299153 -0.018908618 -0.0041581597 0.029105473
-0.016279738 -0.03708918 0.03542593 -0.0034625558 0.039404303 -0.0126880845 -0.010519919 -0.025676427
-0.0037364368 -0.005990347 0.025177622 -0.008612796 0.004255956 -0.011946709 -0.013239848 0.0034993764
-0.0026547145 0.02490053 0.02023852 0.00460456 -0.01627945 -0.016150597 -0.012359205 -0.013324306
0.024568167 -0.030572267 -0.02212394 -0.003730033 -0.006940222 -0.01748508 -0.0065515894 -0.01145235
-0.0013771799 0.002019199 -0.01495723 0.020608503 0.010275171 -0.0029242856 -0.00922752 0.03293629
0.02036651 0.009366171 0.008056734 -0.023845205 -0.005082666 -0.011131961 -0.017630842 -0.005827467
0.008466779 -0.009198613 0.028450357 0.014230789 0.027111536 -0.0091750175 0.0029285382 -0.00091451115
-0.02363927 -0.013826314 -0.0018276448 -0.0009005422 0.018690713 0.022715569 0.002014613 0.035027195
0.013468041 -0.01019307 -0.002147631 0.022314405 0.0036443202 0.036123652 0.035812344 -0.025252746
-0.028471574 -0.011911321 -0.01940817 0.002881097 -0.008496261 -5.9269714e-05 0.00585978 -0.012162695
-0.00781693 -0.0025362757 -0.02214836 -0.024660496 -0.018880088 -0.011993177 -0.004294657 0.0019410929
0.02598853 0.011337468 0.0075977203 -0.037468527 0.0064705303 0.053892583 0.020083416 -0.017016945

bias f4 [96]
00000000: 0000 0000 0000 0000 0000 0000 0000 0000
00000010: 0000 0000 0000 0000 0000 0000 0000 0000
00000020: 0000 0000 0000 0000 0000 0000 0000 0000
00000030: 0000 0000 0000 0000 0000 0000 0000 0000
00000040: 0000 0000 0000 0000 0000 0000 0000 0000
00000050: 0000 0000 0000 0000 0000 0000 0000 0000
00000060: 0000 0000 0000 0000 0000 0000 0000 0000
00000070: 0000 0000 0000 0000 0000 0000 0000 0000
00000080: 0000 0000 0000 0000 0000 0000 0000 0000
00000090: 0000 0000 0000 0000 0000 0000 0000 0000
000000a0: 0000 0000 0000 0000 0000 0000 0000 0000
000000b0: 0000 0000 0000 0000 0000 0000 0000 0000
000000c0: 0000 0000 0000 0000 0000 0000 0000 0000
000000d0: 0000 0000 0000 0000 0000 0000 0000 0000
000000e0: 0000 0000 0000 0000 0000 0000 0000 0000
000000f0: 0000 0000 0000 0000 0000 0000 0000 0000
00000100: 0000 0000 0000 0000 0000 0000 0000 0000
00000110: 0000 0000 0000 0000 0000 0000 0000 0000
00000120: 0000 0000 0000 0000 0000 0000 0000 0000
00000130: 0000 0000 0000 0000 0000 0000 0000 0000
00000140: 0000 0000 0000 0000 0000 0000 0000 0000
00000150: 0000 0000 0000 0000 0000 0000 0000 0000
00000160: 0000 0000 0000 0000 0000 0000 0000 0000
00000170: 0000 0000 0000 0000 0000 0000 0000 0000
0.0 0.0 0.0 0.0 0.0 0.0 0.0 0.0
0.0 0.0 0.0 0.0 0.0 0.0 0.0 0.0
0.0 0.0 0.0 0.0 0.0 0.0 0.0 0.0
0.0 0.0 0.0 0.0 0.0 0.0 0.0 0.0
0.0 0.0 0.0 0.0 0.0 0.0 0.0 0.0
0.0 0.0 0.0 0.0 0.0 0.0 0.0 0.0
0.0 0.0 0.0 0.0 0.0 0.0 0.0 0.0
0.0 0.0 0.0 0.0 0.0 0.0 0.0 0.0
0.0 0.0 0.0 0.0 0.0 0.0 0.0 0.0
0.0 0.0 0.0 0.0 0.0 0.0 0.0 0.0
0.0 0.0 0.0 0.0 0.0 0.0 0.0 0.0
0.0 0.0 0.0 0.0 0.0 0.0 0.0 0.0

weight f4 [32, 32]
00000000: 229c d3bc 0adc e0ba 1198 9e3c 66bd e63c
00000010: 7ac1 3f3c 4a21 0d3c ee07 2b3c 917f dabc
00000020: fd2b ad3b a943 a4bb 7f8c b9bc 363a 12bd
00000030: e599 0f3d 1db2 823c 280b 5c3c 05ca ac3c
00000040: 7e05 283c 494b b13c e107 51bd 5ffb 0abc
00000050: 11be 0fbd 2c44 923c 76d8 153b 027e 803c
00000060: cdaa 3bbb cecb 003c 9b60 8cbc 1462 83ba
00000070: 11f1 f13a add7 4ebc 108f 413b 1680 803c
00000080: b69e 373d 7206 c3bb 59bd e8bc 53cd a0bc
00000090: e77a 04bd fcb8 733c ea16 693c d70f 133d
000000a0: 8e86 d8bb 043b b33c eaf9 3bbb 0eda e4ba
000000b0: 1445 4cbb 0e6e 3538 1dae 113d 68fc 823b
000000c0: 7748 c83c 6946 e13a 3575 443d 2f87 ecbb
000000d0: ef58 ab3b 2d08 d5bc db1c d43c ec9e b43c
000000e0: d288 1d3b 48fe f33c 39c8 aabc f225 7bbb
000000f0: 27dc 513c e8b4 1cbd 996b ffbb d1cc 8abc
00000100: fbe8 96bb 171b 103b b002 733b 5168 17bc
00000110: 7e0c 713c 34ee 8e3b 659a 9cbb 4c09 b7bb
00000120: 55b7 b7ba 5e76 1d3d 8110 56bc b7d5 19bc
00000130: 834e fe3b 097c 9ebc 3614 85bc 046f d73c
00000140: da6f a33b 1583 96bc 3072 fe3b f516 71bc
00000150: f384 d23c d4d7 853c 5ef5 953b c402 913c
00000160: 999c 8fbb 508e f5bc 0c91 213d 0d3e 88bc
00000170: 5b1d 38bc 9271 c03a 0476 bfbc e09d cf3c
00000180: 66b4 1dbb 32bc 64bc fdbe 573a 8b68 1d3d
00000190: 2ddc 9abc b4b7 ea3c d292 ef3a 8f91 6dbc
000001a0: 34aa d9bb fb22 b9bc 9d79 e6bc ff68 ae3b
000001b0: a20e e339 2d0e d83c e492 2dbb aec3 0abc
000001c0: 4ea5 f2ba 4743 efba ba80 f93c 5ee1 833c
000001d0: 56ee c03a 1957 1c3d e94a 833c 25b0 01bd
000001e0: e61d 083c fcaf 6cbc 94dc 8ebc 3729 e83c
000001f0: 8fcc 233c f8aa 8abc 0a85 3fbc e660 d83c
00000200: c3fa 333d 15ae e63a 3ed2 943a dd41 603c
00000210: bb71 ebbc 239b 90bb 8c65 a0bc b1f7 abbb
00000220: fea3 133d 0a54 9d3c 103e aabc 763f 053c
00000230: 8e57 c33c 7345 86bc 22a7 b33c 19bb 34bc
00000240: b628 41bc 07e7 b2bc f84b 713c 32a5 b0bc
00000250: b2fb b1bc 8c73 8a3b a48b 85bb 96bc 7a3c
00000260: 906d 163c d046 a3bc adba 0bbc bd5f d6bc
00000270: 0807 6e3c 9b3a d73c bc7b 9fbc 8a2c 64bc
00000280: cd0e 563c ba64 d53b 35c1 4ebc 5a5e 813c
00000290: 913d dfbb 9c73 d53b 2095 a5bc e97f 8d3b
000002a0: 3c40 4dbb f4e6 8f3c ad32 843b 1c88 1cbd
000002b0: ad1b 883b 314e 163b ad76 febc 6768 82bc
000002c0: 29be a23c 1554 243d 2d48 523c fcb5 303d
000002d0: 0d88 41bd 47d6 97bc 615e bbbc 2114 60bc
000002e0: 5bf9 863b f4fb c33b 1c69 9d3c 733b 07bc
000002f0: c07b bcbb d856 bd3c 5b31 a1bc 822e e7bc
00000300: b34d 113c e468 8e3c a706 f23b f8e5 403c
00000310: e2d8 4e3c d1bb 86bc 86b2 623c ce6b 13bd
00000320: 8ecd dc3b f722 87bc e8eb 64bc 46d9 ccb8
00000330: 9043 2fbd 2b91 693c 5ffa a6bb 88ae 243c
00000340: e975 e13c 44cb 003d 8bc8 bd3b 256f 97bc
00000350: 0f54 b5bc 1402 9fbc ea5b d53c 1ef7 5dbd
00000360: 85d8 433c 7f31 c1bc c6d7 8a3c 70ef 853a
00000370: 99b0 bb3c dc19 e23c 3adb f73b 65c7 093b
00000380: e80b 9c39 bac6 d8bb 294a 2dba 508c 1f3d
00000390: e284 02bc 65c9 e3bc d9b9 ffbb 8049 1c3b
000003a0: 8818 0ebd 241f 05b9 d938 693c f946 d43c
000003b0: ce2a 56bc 3922 8aba 1ff9 ec3a a514 bebc
000003c0: 7f34 59bc f5d8 ce3c c58a 53bb 00bc 0a3c
000003d0: 5096 e8b9 fbfc bf3c fadd f5bc d157 2a3c
000003e0: 4834 783b 5f09 9e3c be3f bfbc 27c6 e4bc
000003f0: 700a b13c d95c 97bc b3f9 d13c f44b 823c
-0.025831286 -0.001715542 0.01935962 0.028166484 0.011703843 0.008613894 0.010438902 -0.026672157
0.005284785 -0.0050129485 -0.022650002 -0.035700046 0.035058875 0.015954072 0.013430394 0.021092424
0.010255216 0.021642344 -0.051032905 -0.008482783 -0.03509337 0.017854773 0.0022864616 0.015685085
-0.002863574 0.007861091 -0.017135909 -0.0010023736 0.0018458684 -0.012624663 0.0029534735 0.015686076
0.044829093 -0.005951696 -0.0284106 -0.019629156 -0.03234377 0.014875647 0.014226655 0.035903778
-0.006607837 0.021878727 -0.0028682896 -0.0017460005 -0.0031169103 4.325626e-05 0.035566438 0.0039973743
0.024448616 0.0017187122 0.04796334 -0.0072182636 0.0052291076 -0.026004875 0.025892666 0.022048436
0.002403785 0.029784337 -0.020847427 -0.0038322178 0.012808836 -0.038258463 -0.007794809 -0.016943367
-0.00460541 0.0021988803 0.003708046 -0.00924118 0.014712451 0.004361892 -0.0047791474 -0.005585825
-0.0014016429 0.038442962 -0.013065458 -0.0093893325 0.007760824 -0.019346254 -0.016244989 0.026298054
0.004987699 -0.018373052 0.007765077 -0.014714946 0.02569816 0.016338266 0.004576369 0.017701514
-0.0043826816 -0.029975086 0.039444968 -0.01663115 -0.011237468 0.0014682284 -0.023371704 0.025343835
-0.0024063825 -0.013960885 0.00082300586 0.038429778 -0.018903816 0.02865205 0.0018278009 -0.014500036
-0.0066426042 -0.022599688 -0.028134162 0.005322575 0.00043307716 0.026373947 -0.0026485259 -0.008469505
-0.0018512399 -0.0018254303 0.03045689 0.016098674 0.0014719467 0.038169 0.01602693 -0.031662125
0.00830791 -0.014446255 -0.017439164 0.028339965 0.009997501 -0.016927227 -0.011689434 0.026413392
0.043940317 0.0017599488 0.0011354161 0.013687578 -0.028740754 -0.004413025 -0.019579671 -0.005248033
0.036045067 0.019205112 -0.020781547 0.008132806 0.02384546 -0.016390538 0.021930281 -0.011030936
-0.011789491 -0.021838678 0.014727585 -0.021563146 -0.021726463 0.0042252 -0.0040754844 0.015303751
0.009181395 -0.019931227 -0.008528394 -0.026168698 0.014528044 0.026273062 -0.01946818 -0.013926635
0.013065052 0.0065122517 -0.012619306 0.01579206 -0.006812759 0.006514026 -0.02021271 0.0043182266
-0.0031318804 0.017566182 0.0040343613 -0.03821574 0.00415369 0.002293479 -0.031062448 -0.015918924
0.019866066 0.04011925 0.012834591 0.043142304 -0.04724889 -0.018534793 -0.022872152 -0.013676674
0.004119081 0.005980963 0.01921516 -0.00825392 -0.005752057 0.0231127 -0.019676855 -0.028220419
0.008868623 0.017384 0.007386047 0.011773579 0.012624951 -0.01644698 0.013836509 -0.035991482
0.006738371 -0.016496165 -0.01397226 -9.767948e-05 -0.042789042 0.014255802 -0.0050957645 0.010051377
0.027522044 0.03144385 0.005791729 -0.018485615 -0.022134809 -0.01941017 0.026044805 -0.054190747
0.011953478 -0.023583172 0.016948592 0.0010218453 0.022911357 0.027600221 0.0075639756 0.002102339
0.0002976351 -0.006615487 -0.0006610477 0.03895217 -0.007966252 -0.027805993 -0.007804137 0.002384752
-0.034691364 -0.00012695469 0.014234745 0.025912749 -0.013071729 -0.0010538764 0.0018079615 -0.023203203
-0.013257145 0.025249938 -0.0032278758 0.008467674 -0.0004436248 0.02343606 -0.030013073 0.010396914
0.003787296 0.019291578 -0.023345824 -0.027926518 0.021611422 -0.01847689 0.025631761 0.015905358

bias f4 [32]
00000000: 0000 0000 0000 0000 0000 0000 0000 0000
00000010: 0000 0000 0000 0000 0000 0000 0000 0000
00000020: 0000 0000 0000 0000 0000 0000 0000 0000
00000030: 0000 0000 0000 0000 0000 0000 0000 0000
00000040: 0000 0000 0000 0000 0000 0000 0000 0000
00000050: 0000 0000 0000 0000 0000 0000 0000 0000
00000060: 0000 0000 0000 0000 0000 0000 0000 0000
00000070: 0000 0000 0000 0000 0000 0000 0000 0000
0.0 0.0 0.0 0.0 0.0 0.0 0.0 0.0
0.0 0.0 0.0 0.0 0.0 0.0 0.0 0.0
0.0 0.0 0.0 0.0 0.0 0.0 0.0 0.0
0.0 0.0 0.0 0.0 0.0 0.0 0.0 0.0

weight f4 [32]
00000000: 9148 8d3f 8825 a93f d84f 8f3f 98ac aa3f
00000010: 0734 6f3f 7cf7 993f 9733 963f ebc4 c53f
00000020: 1016 c63f f612 973f d440 6d3f 95b9 973f
00000030: d34a 863f b3fe ca3f 9da5 9b3f 879f 8c3f
00000040: 5a95 803f 927b 723f b601 9c3f 9d69 ab3f
00000050: f1ac 833f 01c6 7f3f bdbd 883f 4ec5 ab3f
00000060: 06f2 913f eeae ca3f 6768 8e3f 8d19 4f3f
00000070: 7aef 4b3f 3124 6a3f 49d1 8f3f 8761 823f
1.103777 1.3214579 1.1196241 1.3333921 0.9343876 1.2028651 1.1734494 1.545072
1.5475483 1.1802661 0.92677045 1.185351 1.0491585 1.5858978 1.2159916 1.0986184
1.0045578 0.94719803 1.2188022 1.3391606 1.0287153 0.99911505 1.0682904 1.3419588
1.1401985 1.5834634 1.1125611 0.8089836 0.7966229 0.91461474 1.1235744 1.0186013

bias f4 [32]
00000000: 959c 5a3d c00c fbbc 9667 db3b d7c2 54be
00000010: 690d 693e 4d07 46be ace4 213e a722 37bd
00000020: b462 21bd 0e5a 1cbe 7352 8f3d 5627 263d
00000030: e566 5d3e 075d ddbd 679d 083d b40d 293e
00000040: ed2e c23d ddaa 893e b36b 45bc 96f7 a2bb
00000050: a95d 85bd 44f8 983d a535 8cbb 1662 50be
00000060: cde3 e1bd 667e a63d 9327 b33e b190 193e
00000070: 4d91 423d 8368 dabe eb8d 253e c714 de3b
0.053371985 -0.030645728 0.006695698 -0.2077745 0.22759022 -0.19338723 0.15809888 -0.04471078
-0.03940077 -0.15268728 0.06998148 0.040564857 0.21621282 -0.10808759 0.033353236 0.16509134
0.09481607 0.2688817 -0.012049603 -0.004973362 -0.06512005 0.07469228 -0.004278856 -0.20349917
-0.11029778 0.08129577 0.3499113 0.14996602 0.04750185 -0.4265786 0.16167419 0.006777379

weight f4 [128, 32]
00000000: 6c55 93be 741a bfbe a779 08bf cf63 6f3e
00000010: f5bd f9be 11da 90be e90f de3c aff2 cabe
00000020: c95a 06be 1af2 413e af8f 603e 9e08 0cba
00000030: 6b52 01bc b459 e23e f82c bd3a e96a 20bf
00000040: 9828 cd3e f83a 15be 60b3 eebe 357c a73e
00000050: 7271 1fbe 4af9 d4bd 5e5d e9bd 877f a73d
00000060: 82af 1a3e c066 44bd 3074 283f 94db 2f3e
00000070: a286 5ebe 2cf1 ba3e 4aac dfbe aa7b b33e
00000080: c5ea 963e b4cd 53bd 76a4 82be e78f c5bd
00000090: e390 b43d f708 e73d 3f80 b73d 41cc e8bd
000000a0: 2dd3 5dbe d1bd cdb9 a3e7 f4be 05b7 1ebe
000000b0: e73a eebd 099f bfbd 229b eebc 1a70 2ebe
000000c0: 9ec6 813d 9305 473e 0bfc 9dbe a746 8cbe
000000d0: 4dd7 a43e a539 743e 0b77 05be 859a d53e
000000e0: 9867 233e c57d 313d a130 113e f19c 1abc
000000f0: f93b 12bd ce64 4c3c 66b5 12bd 92f6 4f3d
00000100: b861 083e b089 873c 5ee4 17bf 2d8f f4be
00000110: 001b 2c3d 1e66 3cbd 098f 9dbd c993 97be
00000120: 87fa 12be 595e 073e fb7d 39be 56a5 073d
00000130: 9558 55be 5d65 093d 5641 09be d5aa 15bf
00000140: ce3a debd f8af 89be 0113 013f 7c40 103e
00000150: e83b da3d 585b 4f3e ad58 7ebe 8477 693e
00000160: 557c 313f 0a71 43bd e5bb c23e 44ce 7abd
00000170: 945b 9e3d 8045 0b3f f92e 4fbe f1ec 083e
00000180: d818 813e 4b9c b63e 532a ff3e ed93 183b
00000190: 688d 98be a76f 47be 9145 f83c c2c6 76be
000001a0: a53c c7bd 40d2 8f3c c65c b53d 761d 0b3e
000001b0: 8e9e 38be a4c9 1c3d 0431 d33c 76d2 5b3c
000001c0: 63d2 653e a472 bfbd 87f0 423e ec35 863c
000001d0: 5875 eebc 9a6d 043e 3357 ad3b d885 26be
000001e0: 5026 43be 9bac e9bd ce85 d93d 6a96 73bd
000001f0: fc9c c43d 0422 3abe b915 13be 8d0e 593d
00000200: 84c5 013c 3773 3b3d d7c9 f3bd 7095 1b3f
00000210: 1fc8 f6be 7d0e afbe 86dd cc3e cdae 25bf
00000220: 2f86 34be f14f 27be f2ce 713e 0e56 86be
00000230: 5bec 2fbe 0a02 c93d 5dd1 7d3e 54de b8be
00000240: 0483 0ebe f9ac bb3d 765b 6abc 69e0 283e
00000250: 60da 93be a691 dcbe 7038 fe3e 6a41 b33e
00000260: 090d a23d 53b9 00bc d255 823e 10da 9c3d
00000270: 3d32 32bd 3f8f cb3e 0c6c d1bc 613f aa3d
00000280: f148 55be b3f9 4a3e 8766 36be 5ca4 b13e
00000290: 20e9 ddbd 5641 323e 5453 95be bd84 4cbe
000002a0: ba27 9dbe a42c 6e3d d5cb a43d 483e 713e
000002b0: a439 60be c836 26be f793 bf3d e63b fbbd
000002c0: cb99 0d3b 86f4 ba3d a016 a53e 67d9 c93d
000002d0: 6042 f5bd 54f8 423e eaa3 a43e 0689 503e
000002e0: 43c0 80bc faa1 823d fd93 1b3e 2d0b b7bd
000002f0: 09b6 66be 918d e73d 2f68 24be e805 9dbd
00000300: 0863 95be bb18 bf3e dfcd ecba dce7 f03e
00000310: 0f5d bebe 3f37 bf3d ae1a d5be 87d6 8bbe
00000320: 458c cdbe 092c 2b3d 316e 9cbd c4c0 f93d
00000330: 3d1b 773e 9a88 eebe 11ec 01bf 715a 64be
00000340: 1274 0cbd 3924 53be c3b4 b63e 64f2 023f
00000350: bd34 a03d f394 81bd 1d0d 723e 4e37 e23d
00000360: 387c 19bd c3e1 3a3c 9844 9fbd a622 d93c
00000370: 8858 fb3c 941b d1bb 7f69 b53d 7920 103d
00000380: e0d5 8d3d c0f6 1abd 1264 d1bc bbb2 923e
00000390: 3255 fcbe 9a05 203e 1160 ecbd e67e 97bd
000003a0: dbe5 babd fe81 e3bb f0af 943e 0028 0ebe
000003b0: a6a6 963c 453b 973e 867d 17be a757 cebe
000003c0: 9db7 2bbe 9e16 15be 394b 8dbd 2704 b73e
000003d0: 4737 8bbe fb8d 59be 5241 56be 4f4c 213e
000003e0: ee7c 173e e836 90be 93ac 79be 38f2 88be
000003f0: 6a0b 753e fede 0d3f 9a5b 73bd 6266 4f3e
-0.2877611 -0.3732487 -0.53310627 0.23377918 -0.48777738 -0.2829137 0.027107196 -0.39638278
-0.1312057 0.1894001 0.21929811 -0.000534186 -0.007893185 0.44209063 0.0014432957 -0.6266313
0.40070033 -0.14573276 -0.46621227 0.3271195 -0.1557062 -0.103991106 -0.113947615 0.08178621
0.15106013 -0.047949553 0.6580229 0.17173606 -0.21731046 0.36512125 -0.43686134 0.35055286
0.2947599 -0.051709846 -0.255161 -0.09646588 0.088166974 0.11281007 0.08960008 -0.11367083
-0.21662588 -0.0003924207 -0.47832975 -0.15499504 -0.116323285 -0.093565054 -0.029126707 -0.17034951
0.06336711 0.1943572 -0.30856356 -0.27397653 0.3219551 0.23850115 -0.13033693 0.41719452
0.15957487 0.043332834 0.14178707 -0.009436832 -0.035701726 0.012475206 -0.035817526 0.050772257
0.13318527 0.016545147 -0.59332836 -0.47765484 0.042017937 -0.045995824 -0.076932974 -0.2960494
-0.14353381 0.13219585 -0.18114464 0.03311666 -0.20834573 0.033543933 -0.1340383 -0.58463794
-0.1085106 -0.26892066 0.5041962 0.14087099 0.106559575 0.20249689 -0.24838515 0.22799498
0.6933034 -0.047715224 0.38033977 -0.061231866 0.07732311 0.54402924 -0.20232762 0.13371636
0.25214267 0.35666117 0.49836978 0.002328153 -0.29795384 -0.19476186 0.03030661 -0.24099258
-0.09728364 0.01755631 0.08855586 0.13585457 -0.18029234 0.038278237 0.025780208 0.013416877
0.22443537 -0.09348038 0.19037066 0.016383134 -0.029108688 0.12932435 0.005289936 -0.16261995
-0.19057584 -0.11409875 0.10621224 -0.059469618 0.09600255 -0.18177038 -0.14363755 0.052992392
0.007920627 0.045764174 -0.11903732 0.607749 -0.48199555 -0.3419074 0.4001276 -0.6471985
-0.17629312 -0.16339089 0.236141 -0.2623753 -0.17180006 0.09814842 0.24786897 -0.36107123
-0.13917166 0.09163851 -0.014304033 0.16491856 -0.28877544 -0.4307987 0.49652433 0.35010844
0.079126425 -0.007856685 0.254561 0.076587796 -0.043504942 0.39757726 -0.025564216 0.0831287
-0.20828606 0.19821815 -0.17812549 0.3469571 -0.10835481 0.17407736 -0.29165137 -0.1997251
-0.3069437 0.05814804 0.080466904 0.23558915 -0.21896988 -0.16231835 0.09354394 -0.12267284
0.002160656 0.091286704 0.32243824 0.09855919 -0.11975551 0.19040042 0.32156307 0.2036477
-0.015716678 0.06378551 0.15193172 -0.089376785 -0.22530378 0.113062985 -0.16055368 -0.07667142
-0.29177117 0.37323555 -0.0018066725 0.47051895 -0.37180373 0.09336709 -0.41621917 -0.2731211
-0.4014608 0.041790042 -0.07638205 0.1219497 0.24131484 -0.46588594 -0.50750834 -0.22300126
-0.03429038 -0.20619287 0.35684785 0.5115111 0.07822559 -0.06327238 0.23637815 0.11045705
-0.03747198 0.011406365 -0.07776755 0.02650578 0.030681863 -0.0063814614 0.088580124 0.03518722
0.06925559 -0.037832975 -0.025560413 0.28651986 -0.4928375 0.15627137 -0.11541761 -0.07397251
-0.09125873 -0.0069429865 0.2904048 -0.13882446 0.018390011 0.29537407 -0.14793977 -0.40301248
-0.16769262 -0.14559409 -0.06899113 0.35745355 -0.2719061 -0.21245568 -0.20923355 0.15751766
0.1479375 -0.2816689 -0.24382238 -0.26747298 0.23930135 0.55418384 -0.05941353 0.202539

bias f4 [128]
00000000: f7dc a6be fd1f 91bd e81b ec3d ea59 30bc
00000010: ba25 77bc 12fa 87bc 3ad3 f0be 5656 ffbd
00000020: a5ed b3be 80f8 e2bd eb4d 09be e3d5 1ebe
00000030: 2bcd 59be a5af 13bf 1a30 2dbe 87c0 96bd
00000040: ba90 efbe 4f1d 67be 3ccf 623e 61e0 30be
00000050: 6d0c 96bb 6fd7 79be dfc5 3abe 65ba 22be
00000060: 8ed1 a5bc 8cf1 433e 00f7 813d aea7 31be
00000070: 06f3 a83d 55ad 14be 5ce5 dcbc cef6 c6be
00000080: daba a03b 6e13 40bf 518a c0be a73a e9bc
00000090: b5d5 19be 6da2 bebd c9f3 193e 41d7 54be
000000a0: 73e4 8bbd f35c 983d c6f1 65be eeb5 e0bc
000000b0: ddfe 86bd 3882 ccbe 6c63 02bf 826b 6b3e
000000c0: 35fa c7bd 36ba b0be e50a 7d3d a3af e3bd
000000d0: 9843 de3d a7a1 593e c749 6b3e a285 dcbe
000000e0: fc82 1bbf e7b9 043e d7b3 883d 5ef0 513d
000000f0: 71a5 eabd 735d 3fbe 8a46 5a3d 9f54 38bf
00000100: c6b3 91be d355 16bf e50e 613d ef4d 623e
00000110: cfec 20bf 0667 98be f8f1 acbc e4df 2bbe
00000120: d626 483d fb0f 64be 8a69 81bd 5967 093e
00000130: 9997 0a3e c503 a0bd 98ac b9bb af69 8fbd
00000140: bf36 f83d 4ca0 3cbd 31dc 0abd 8ea9 913c
00000150: 8c33 ce3d 4502 a83b d3f3 d7be a279 debd
00000160: 709f 4f3c 2a40 0f3e f338 bdbd 8034 1e3e
00000170: 85a7 13bd cf4a 0dbe 1123 093e e441 893d
00000180: 9ec1 0abf e649 a63d 2f13 b8be f86c 87bd
00000190: 2a18 ecbd 96ab 9ebe d23a 41bd bc8f cb3d
000001a0: 9378 cc3d 0b17 d4bd 78c3 12bf 7172 19be
000001b0: 884c 05be e18e f9bc 4e8b a83d 1749 ddbc
000001c0: cd35 1abd 1cbe bcbe 976b 66bc cb4c 92be
000001d0: a99a e23a 4bf3 86be 8ab5 ccbe 7867 93bd
000001e0: bd14 f4bd 1df8 1fbf b73b 95bd 9ead 3bbf
000001f0: 0bfe d9be 0638 053d c4e5 dabe 2034 ae3e
-0.32590458 -0.070861794 0.1152876 -0.010763625 -0.015084678 -0.016598735 -0.47036153 -0.12467639
-0.35142246 -0.11082554 -0.1340863 -0.15511279 -0.21269672 -0.5768989 -0.1691288 -0.073609404
-0.46790105 -0.22569774 0.22149366 -0.17273094 -0.004579118 -0.24398588 -0.18239544 -0.15891416
-0.020241525 0.19135112 0.0634594 -0.17349121 0.08249478 -0.14519246 -0.026964836 -0.38860172
0.004905087 -0.7502965 -0.37605527 -0.02847035 -0.15022929 -0.09308324 0.15034403 -0.20785238
-0.068306826 0.07439604 -0.2245551 -0.0274305 -0.0659158 -0.399431 -0.50932956 0.2299023
-0.0976452 -0.34517068 0.061777968 -0.111174844 0.10852736 0.21253072 0.22977363 -0.43070704
-0.6074674 0.12961541 0.06674927 0.051254623 -0.11457337 -0.18687992 0.053289928 -0.7200412
-0.2845747 -0.5872471 0.054945845 0.22100042 -0.6286134 -0.297661 -0.021111473 -0.16784626
0.04886516 -0.22271721 -0.06318958 0.1341833 0.13534392 -0.07813219 -0.0056663267 -0.070025794
0.12119817 -0.04605131 -0.033901397 0.017781045 0.100684255 0.0051272237 -0.4217821 -0.10863043
0.01267229 0.1398932 -0.09239378 0.15449715 -0.03604843 -0.13798068 0.13392283 0.06702021
-0.54201686 0.08119564 -0.35952136 -0.06612581 -0.115280464 -0.30990285 -0.047175236 0.099395245
0.09983935 -0.103559576 -0.5732951 -0.14985062 -0.13017476 -0.030463638 0.08229695 -0.027012391
-0.037648965 -0.36863792 -0.014063737 -0.28574213 0.0017288524 -0.26357493 -0.39982253 -0.071974695
-0.11918018 -0.62487966 -0.0728678 -0.73311794 -0.42576632 0.03252413 -0.42753422 0.34024143

weight f4 [32, 128]
00000000: db94 2ebd ddf8 083c 269a 4abb c226 d1bc
00000010: 31db 9eba 2422 6ebd fe08 f3bb b1f4 5c3c
00000020: cd6c f7bc 8a86 51bc 4684 4bbd e33e bd3b
00000030: 66a5 0abc 2b1b 33bc d458 02bd 7f12 20bc
00000040: e348 60bc b421 37bd 909e f9bc dfea 823c
00000050: 6787 0cbd 22e6 80bd 0f53 9abc 7d24 08bd
00000060: d373 8cbd 045a 1ebd d862 12bd 3565 c3bc
00000070: 478f 883b d293 1cbc cf20 1fbc e22a b9bc
00000080: d90f 3dbd 2db5 26bd 2a05 f53c 657f 4fbd
00000090: 73e7 99bb 3712 d53c 6969 9abc 2ac9 a3bc
000000a0: e386 003d 3a35 d9bd 603f bb3b fc58 c7bc
000000b0: e203 0d3d 1d58 17bb 16cc 42bd 6c0b fabc
000000c0: 6d45 ecbc 4f8d dabc 5aaf 0fbd bc4d 50bd
000000d0: ba94 71bd 49ef a7bc 057a e23c 58c5 8e3c
000000e0: 6ffb 46ba 51d0 84bd 3154 11bd 193d 93bc
000000f0: 53f0 a3bc 8c71 f4bc 8ab5 44bd 3dab 683b
00000100: 765e 363c a611 06bd b682 19bd 1dbe bd3c
00000110: 7d14 40bc 38d8 f73a b2f1 9fbd e60d cabc
00000120: 9a73 03bd 222e a33b c818 6cbd f1f0 713d
00000130: 5fdb 1fbd c676 94bc 2b55 7ebd 219a 61bd
00000140: 0558 a1bc 57d6 a4bc d3bc 19bd 2ab0 50bd
00000150: 5dee 5ebb 9b62 e6bc a295 19bd 3ef3 77bd
00000160: 98bf d23b 3e73 27bd 0e12 a1bb 3c19 4ebd
00000170: 2208 0ebd dd9f c0bc 2ec3 2e3d 4cad eabb
00000180: 51fa a93c 7392 9bbc 5083 0b3d 1622 96bd
00000190: b21f 00bd 0321 113c 55b4 2cbb 8e74 933c
000001a0: 929b 6ebd 7506 84ba 30b1 0634 89b9 34bd
000001b0: 718f 60bd bb8a 37bd f8b5 02bc 50dc 2abd
000001c0: edce 70bd a7ae 0dbc 5816 62bd a454 d53b
000001d0: 2203 91bc 5977 ffbc 81cc 3d3c 5885 c2bc
000001e0: bd7a d2bc 9919 9cbb f961 36bc 45d0 05bd
000001f0: a0ee bfbb c94f 973c 372c 84bc 1fc0 53bd
00000200: 39ff 9dbc bef8 15bd 10a1 0ebc 9231 06bc
00000210: 7f7b 60bc 6607 733c e13b 6cbd b832 0abd
00000220: 4de2 ecba 2f80 2c3d 6f3f 02bd 1875 b9bc
00000230: 7675 35bc d824 923b b98f fa3b d569 09bd
00000240: c261 fa3c 3e30 b8bc 215c 893c 68d6 c4bc
00000250: e5fc 43bb f05e 3cbd 9a49 8fbc 4089 a03c
00000260: 5cf5 03bd 7d2e 51bd a21e fdbc 443d 10bd
00000270: e72b 49bd 2d8c 34bc 8749 b53b 5cd7 1abd
00000280: 8fe9 20bc 86ac 033c d8a0 17bb 74b4 5fbd
00000290: b140 bcbc 81fd 1abd 6c8e 8abd dd3f 2dbd
000002a0: 83a2 48bc e8c4 e93b a204 0d3b 1788 94bb
000002b0: 1b07 63bc b0b8 c13a 7231 4fbc 0d6d 3ebb
000002c0: 01a9 54bd bc1d 2dbc 2d01 25bc 12b0 9dbc
000002d0: 8ce7 0a3b 0e79 973c de04 b03c ecc3 81bc
000002e0: 5bd2 0c3c 4ea6 2abd b84e e83b 9fa0 7f3c
000002f0: 441f ec3b e68c fdbc 9925 e0bc cb4c 8d3b
00000300: 6076 28bd 2d67 a93c d7fa 8dbc e76a 853b
00000310: dbfd 13bd f3d7 bcbc a5b1 9ebc dd1d 40bc
00000320: 206e 9cbc 3e89 a7bb d2af 9dbc e572 7bbc
00000330: 4cf9 9ebc 475f 0f3b 60f4 083c 5208 153c
00000340: cdfd a4bc 9ccf 01bd a109 9fbc adaf 803b
00000350: baa3 c1bc 0b32 ee39 c151 2b3b c9b9 fe3b
00000360: 154e 373b 0e7e aabc fc76 7bbb 0720 f9bc
00000370: 9d78 0ebd 0898 ccbc d2a7 6ebc 2ef4 acbb
00000380: e544 dbbc 94a4 3cbc 6df5 263c f3c4 c7bc
00000390: 20e2 00bd 31d0 a5bc aed8 04bb e405 913c
000003a0: 61a1 01bd 7ead fbbb 8a50 2abc 2b29 0ebd
000003b0: b315 683c 63df 27bd 06c5 913c 172f abbc
000003c0: be6c 99bc 6051 e63c 6411 a9ba a9f7 9dbc
000003d0: bb1d 87bc 5c5d 733a 3344 d73b 47f2 9e3b
000003e0: ea04 c73b 8ab7 8abc 3182 cebb 7b69 e7bb
000003f0: 4e15 72b8 9cba d6bb a2b9 b83b ab45 b3bc
-0.04262243 0.008360115 -0.0030914634 -0.025531176 -0.0012119767 -0.058138028 -0.0074168434 0.013486073
-0.030203247 -0.012788424 -0.049686693 0.005775319 -0.008462286 -0.01093177 -0.031822994 -0.009770035
-0.013689253 -0.044709876 -0.030471116 0.015981136 -0.034308817 -0.06293894 -0.018838434 -0.033237923
-0.06858029 -0.038660064 -0.035738796 -0.02385197 0.0041674706 -0.0095567275 -0.009712412 -0.022603456
-0.04615769 -0.040700126 0.029909689 -0.050658602 -0.0046967804 0.026009662 -0.018849092 -0.019993383
0.031378638 -0.10605855 0.005714342 -0.024334423 0.03442753 -0.002309329 -0.047557913 -0.030523024
-0.028841699 -0.02667871 -0.035079338 -0.050855383 -0.058979727 -0.020499842 0.027646074 0.017428085
-0.0007590567 -0.06485046 -0.03548068 -0.01797347 -0.020012056 -0.0298393 -0.04802469 0.0035502457
0.01113092 -0.032731675 -0.03747817 0.023161942 -0.011723635 0.0018909043 -0.078097716 -0.02466483
-0.032092668 0.0049798647 -0.05764082 0.05906767 -0.039027568 -0.018123042 -0.06209294 -0.05507863
-0.019695291 -0.020121736 -0.037533592 -0.050949253 -0.0034016587 -0.02812319 -0.037496217 -0.06053471
0.006431531 -0.040881388 -0.0049154824 -0.050317034 -0.034675725 -0.023513729 0.042666607 -0.007161772
0.020749243 -0.01899073 0.034060776 -0.0733072 -0.031280227 0.008857968 -0.0026352603 0.017999914
-0.058253832 -0.0010072725 1.2544183e-07 -0.044122253 -0.054824296 -0.044810038 -0.007977955 -0.041714013
-0.05879109 -0.008647597 -0.05519709 0.006510334 -0.01770169 -0.03118484 0.011584402 -0.023745224
-0.025693292 -0.0047637937 -0.011131757 -0.032669324 -0.0058573037 0.018470662 -0.016134365 -0.051696893
-0.019286739 -0.036614172 -0.0087053925 -0.008190529 -0.013701319 0.014833307 -0.057674292 -0.033739775
-0.0018072814 0.042114433 -0.031798776 -0.022638842 -0.011075368 0.0044599585 0.0076465276 -0.033548195
0.030564193 -0.022483941 0.016767563 -0.024028018 -0.0029905376 -0.045988977 -0.01749115 0.019596696
-0.032216415 -0.051069725 -0.030898396 -0.035214677 -0.049114134 -0.011019749 0.005532447 -0.03780304
-0.00982131 0.008036738 -0.0023136642 -0.054615453 -0.022980066 -0.037839416 -0.06765446 -0.042297233
-0.012245777 0.0071340688 0.0021517654 -0.0045328247 -0.013856675 0.0014779773 -0.012646066 -0.0029056699
-0.051918987 -0.010566171 -0.010071081 -0.019248996 0.0021195142 0.01849034 0.021486696 -0.015840493
0.0085950745 -0.041662507 0.007089462 0.01560226 0.0072058756 -0.030950975 -0.027361678 0.004312133
-0.041128516 0.02067908 -0.017331524 0.0040715816 -0.036130767 -0.023052191 -0.019371817 -0.01172587
-0.01909548 -0.005112796 -0.019248877 -0.015347217 -0.019405983 0.0021876858 0.008359045 0.009096222
-0.020140553 -0.031692132 -0.019413771 0.003927192 -0.023637641 0.00045432182 0.0026141258 0.007773612
0.0027970125 -0.02081206 -0.003837048 -0.03041078 -0.034782995 -0.024974838 -0.014566379 -0.005278132
-0.02676625 -0.011513848 0.01019035 -0.024385905 -0.03146565 -0.020240875 -0.0020270753 0.017703004
-0.031648044 -0.007680594 -0.010395179 -0.03470723 0.01416533 -0.040984523 0.017794143 -0.020896478
-0.01872861 0.028114974 -0.001289886 -0.019283133 -0.016493669 0.0009283626 0.0065694093 0.004850659
0.006073584 -0.016933221 -0.006302141 -0.007062135 -5.7717138e-05 -0.0065530073 0.0056373635 -0.021883806

bias f4 [32]
00000000: 9e20 0dbd 9f60 9fbc 0cda 103e 538a 163e
00000010: 6079 863e 3949 e4bc dd54 06bd 2acc 29bd
00000020: 62e5 d93b 836d 033e 4978 ae3e fd68 463e
00000030: cbfa 383e c860 94bc d0a9 33bc 0c37 463e
00000040: 7d86 0e3e f98f 8fbd 2a15 f7bc c2f8 123e
00000050: 2d83 1c3e 2a24 2dbd bb05 553e 862d abbc
00000060: 5193 c53d c086 9dbc 51bf 9e3c c7d8 1abd
00000070: ac23 a03e 1381 5fbc 3e92 f13d 2dda 30bd
-0.034454934 -0.019455252 0.14145678 0.14701204 0.26264477 -0.027866947 -0.032795776 -0.04145447
0.006649659 0.12834744 0.34076145 0.19375987 0.1806442 -0.018112555 -0.010965779 0.19356936
0.1391849 -0.070098825 -0.030161459 0.14352706 0.15284415 -0.042270817 0.20802967 -0.02089573
0.09647239 -0.019229293 0.019378336 -0.03780439 0.31277215 -0.013641614 0.117954716 -0.04317682
