model/Vision_Transformer_1.pt (torch, 215001 bytes, 41 tensors)

weight f4 [32, 150]
000000 47 0f 19 bd b1 d7 ad 3c 1f cb 44 bb 07 22 13 3d
       -0.037368085 0.021221014 -0.0030028296 0.035921123
000010 46 49 41 bd 46 a5 25 3e 6f cc be bd f0 dd c1 bd
       -0.04718902 0.16176328 -0.09316336 -0.09466159
000020 24 da 98 bd da e8 b0 bd ee 17 71 bd e2 ab ce bb
       -0.07463482 -0.08638163 -0.05886071 -0.006307111
000030 c7 95 49 3d 56 f5 0f 3d 10 8e 33 3d 55 8f c2 3b
       0.049215104 0.03514608 0.043836653 0.0059374967
000040 7b d2 83 3d 21 0c fa 3d 92 83 fb 3c af 5b a8 3d
       0.0643663 0.12209345 0.030702386 0.08220612
000050 a9 ce 7f bd ff 63 58 bc 2e 59 f6 3d 37 26 97 3c
       -0.062452946 -0.013207435 0.120287284 0.01845084
000060 ff 28 c1 bd 13 6d d4 bd ef fa 1c 3c a2 2f 63 bc
       -0.094316475 -0.10372367 0.009581312 -0.013866337
000070 83 84 b7 ba b8 e9 df 3c 47 9e e6 bc 3c a3 09 3d
       -0.0014001284 0.027333125 -0.028151644 0.033602938
000080 c0 3e 9a 3c 46 f8 c4 3d 79 3e cc 3d 0a 0c 6e 3d
       0.01882875 0.09617667 0.09972853 0.05811695
000090 b3 41 65 bc ae f1 82 bd e2 ac b6 bd 6a e1 cf bd
       -0.013992715 -0.06393753 -0.089196935 -0.10150416
0000a0 24 ad 9f bd b2 2f 01 be 5b 36 9a 3a df 32 d7 3d
       -0.07796696 -0.1261585 0.0011765467 0.1050775
0000b0 43 fe cc 3d b3 1a 2d 3e a2 ca 05 bd 2b 38 c1 3d
       0.10009434 0.16904716 -0.03266395 0.09434541
0000c0 6b 79 bf 3b 16 85 3d 3a f1 9d 93 3d 64 73 54 3c
       0.0058433316 0.0007229609 0.07207859 0.012966964
0000d0 f5 ea 97 3c 26 5d ca 3c 1e 51 6d 3d 41 5b fd 3d
       0.018544653 0.02470262 0.057938688 0.12370921
0000e0 46 85 b5 3c 95 4d cb 3d 62 31 f7 3d 2e ad 95 3d
       0.022158276 0.09926907 0.12069966 0.07308422
0000f0 92 0c 4f bd 9e 40 92 bd 57 ca 4a 3c ea 50 cb ba
       -0.050549097 -0.07141231 0.012377343 -0.0015511785
000100 f0 51 d1 bd b3 50 4b 3d 17 6e a0 3c 78 be c4 3c
       -0.102207065 0.049637508 0.019583745 0.024016604
000110 93 02 86 bd dc c0 2c 3c 2c 9c cc 3c 8f b8 b9 bc
       -0.0654346 0.010544028 0.024976812 -0.022671012
000120 f2 86 a6 3d e3 85 46 3d c8 04 a4 3c b0 b1 ed bd
       0.081312075 0.048467528 0.020021811 -0.11606157
000130 e6 7f 9c bd 12 30 05 3e bc 75 e9 bb 81 08 03 be
       -0.07641582 0.13006619 -0.0071246307 -0.12796213
000140 65 90 9b bb 42 fd e8 bd 07 35 2b bd 48 b1 d1 bd
       -0.004747438 -0.1137643 -0.041798618 -0.10238892
000150 fc 4e 72 bd ce 75 cb 3c a1 0b 20 bc a3 fc 9e 3d
       -0.059157357 0.024836447 -0.009768398 0.077630304
000160 24 0e 51 bd 0c b2 37 be 8b 78 81 bd ca 45 08 bd
       -0.051038876 -0.17939013 -0.0632182 -0.03326968
000170 fa 6f 71 bd e9 d7 f0 bc 48 8a 15 bb 48 63 05 bd
       -0.05894468 -0.029399829 -0.0022818018 -0.032565385
000180 5c 08 e6 3a 93 52 aa bc 55 56 c7 3c 2d 38 1f bc
       0.0017550099 -0.020791328 0.024333159 -0.009717983
000190 7f 96 cf bd c4 ee 96 bb 58 cb 00 be 59 fd bf 3a
       -0.10136127 -0.0046061 -0.1257757 0.0014647647
0001a0 db 95 a9 36 f6 e7 86 3d 3e f2 63 bc 0a 06 16 bd
       5.054038e-06 0.06587212 -0.0139127355 -0.036626853
0001b0 dd 91 80 3a 29 46 51 3b 83 c8 e6 3c 90 6b a4 3d
       0.0009809096 0.0031932688 0.028171783 0.080283284
0001c0 dd 4c 4e 3d 8d c6 9a 3d 01 7c 86 3d be 91 67 3c
       0.05036627 0.07557402 0.065666206 0.014133869
0001d0 bc 09 8f bd 3d ea 43 bd e6 9a 8d bc a2 58 78 be
       -0.069842786 -0.04783081 -0.017285775 -0.2425256
0001e0 cb 9f 65 bc 5b c4 ca 3c ee 87 94 3d c4 e5 95 3d
       -0.014015148 0.024751833 0.07252489 0.07319215
0001f0 b3 d4 4d 3d e8 e5 4a 3d 59 48 f3 3c 69 12 66 bc
       0.050251674 0.049535662 0.029697584 -0.014042475
000200 c1 48 53 bd d1 4b 71 bd 5d d7 cf bc e3 2a 83 bd
       -0.051583055 -0.058910195 -0.025371248 -0.06404664
000210 a8 a7 25 3c 30 18 af 3d b5 07 74 3d 56 73 c0 3d
       0.010110773 0.08549535 0.059577662 0.093969986
000220 91 36 a8 3d 0e 11 14 3c 92 18 c9 3c 54 ff 94 bd
       0.08213533 0.009037269 0.024547849 -0.072752625
000230 e3 6e 5d bd 39 a3 0a 3d fc e4 2c 3d 0f 5a 8e 3c
       -0.054060828 0.033847068 0.042210564 0.017376928
000240 f6 9a 62 bd e1 a8 a0 ba 45 26 18 3d e9 9e 77 3b
       -0.055323564 -0.0012257361 0.03714587 0.0037783927
000250 a8 6e 79 3d 6c 93 ca bd 68 8b ed 3d 45 c7 25 bd
       0.060896546 -0.098914 0.11598855 -0.04047324
000260 5e 9d 17 3c c4 3f 68 3b 23 5b 0c be be 57 5d 3e
       0.009253828 0.0035438398 -0.13706641 0.21615502
000270 23 2d 4f 3d 54 e4 53 3b 98 22 84 bd df 32 0e bb
       0.050580155 0.003233214 -0.06451911 -0.0021697802
000280 0b f0 23 be cd e3 60 3e f1 12 b9 3c 91 c5 04 bd
       -0.16009538 0.21961899 0.02259204 -0.032414977
000290 7b ce 51 3d 84 b4 9a 3c 06 5c 91 bc d6 01 7d 3e
       0.051222306 0.018884905 -0.017744076 0.24707732
0002a0 5c 53 2a bc 90 6c 4f 3d 72 67 ee bc 2b 85 a9 3c
       -0.010395851 0.050640643 -0.029102061 0.020693382
0002b0 14 14 89 3d 4b 75 bf 3e 25 eb 0b bd 61 66 0b 3d
       0.06693283 0.37394175 -0.0341598 0.034033183
0002c0 03 d9 44 3d ce 4f 45 3e 7d a2 8e 3d d9 1f 0a 3f
       0.04805852 0.19268724 0.06964586 0.53954846
0002d0 11 ca 95 3d e1 ac 39 bb 88 df 08 3d 58 f9 cf 3d
       0.07313932 -0.0028331804 0.0334163 0.101549804
0002e0 c6 8c ba 3d b4 78 47 3d b8 cf c3 3c bb 8a 62 bc
       0.09108882 0.048699096 0.023902759 -0.013827021
0002f0 b3 24 82 3c eb 75 ba bd 46 1e 83 bd 33 12 15 bd
       0.01588664 -0.09104522 -0.064022586 -0.03639431
000300 15 af 16 bd 8a 8e a5 3c 00 87 0f 3c b3 2e fe 3c
       -0.036788065 0.02020957 0.008760214 0.031028127
000310 78 29 b0 bd d0 c3 d0 bd 64 61 bc 3d d1 4d 93 3c
       -0.086016595 -0.10193598 0.09198263 0.017981442
000320 62 7b dc 3d 82 f6 fb 3d 00 a8 78 3d f7 54 11 bc
       0.10765721 0.12302877 0.060707092 -0.008870355
000330 69 a8 b8 bc e5 61 3f bd 84 a6 9d 3d 9f 1f 83 3d
       -0.022541242 -0.04672422 0.07697776 0.064025156
000340 fc 9e 89 3d 16 24 82 3e 04 9e 14 3c c3 aa a3 3d
       0.06719777 0.25418156 0.009070877 0.079915546
000350 7b f0 3f 3c c1 50 f1 3d 7a 07 47 bb e2 18 f8 bc
       0.01171505 0.11782981 -0.0030369447 -0.030285303
000360 ca 26 9d 3c 9d 97 a4 bc 24 64 c5 bd af 84 71 bd
       0.019183535 -0.020091826 -0.09638241 -0.058964428
000370 b2 d5 74 3c 24 2e 0d be f2 09 22 bd 7b 91 af 3b
       0.014943527 -0.13787133 -0.039560266 0.005357919
000380 e0 82 f4 bd 90 1a d0 bd 64 be 37 bc 99 60 d0 bd
       -0.11939025 -0.101613164 -0.011214826 -0.101746745
000390 1b 53 0a bd 3d 22 e3 3d 11 fe 36 3d 27 af 6a 3d
       -0.03377066 0.11090515 0.04467589 0.057295945
0003a0 64 b9 cb 3c 26 5e 0a 3d 8a 6a f4 3c 2f a4 cc 3c
       0.024868675 0.033781193 0.029835958 0.024980633
0003b0 2f b4 32 3d 5c cb 43 bd 68 2f 7d 3d b4 27 a1 3d
       0.043628868 -0.04780136 0.06181279 0.07868901
0003c0 59 f0 53 3d 8a b4 65 bd e9 4a 13 bc 34 63 57 bd
       0.051742885 -0.05608038 -0.008990028 -0.05258484
0003d0 f7 29 31 3a ec 06 b8 bd 2f a0 a3 bc 25 29 69 bd
       0.00067582674 -0.08985695 -0.019973842 -0.056924004
0003e0 33 6b d0 bd b8 59 0d 37 01 cd 61 bc 6f 35 8a bd
       -0.10176697 8.425144e-06 -0.013781787 -0.06748473
0003f0 dc f1 15 bd aa 8f 79 3d 67 bc 68 3d 2a 96 f5 bc
       -0.03660761 0.060928024 0.0568203 -0.02997883

bias f4 [32]
000000 ab ed 36 be b5 99 5a be 9d c7 5a 3c 4d 22 35 3c
       -0.178641 -0.21347697 0.013353256 0.011055541
000010 0b fd 44 bd dc cb 20 3e 2b f9 c1 3e 58 88 58 3e
       -0.048092883 0.15702766 0.37885413 0.21145761
000020 51 dd 8c bd 59 e8 25 3e 12 26 e0 3d 6b b6 5a be
       -0.0687815 0.16201915 0.10944761 -0.2135865
000030 17 af 10 bc 9b 69 70 3e a0 4f cb 3c a4 10 d4 bc
       -0.008830807 0.23477785 0.024818242 -0.025886841
000040 c6 7d 1e be 0b 07 7a be de ac db bd b1 1e ee 3e
       -0.15477666 -0.24416749 -0.10726331 0.4650779
000050 74 f5 b1 3e 7d 13 de bd 3b dc 92 bd 18 31 b5 bd
       0.34757578 -0.10843561 -0.07170912 -0.088472545
000060 a3 df 33 bd 37 71 be bd 22 e4 d1 3c 2c bd 8d bd
       -0.04391445 -0.09298938 0.025621478 -0.06920847
000070 3d be 07 be 39 95 61 be c6 08 f5 bc f6 2d 83 3d
       -0.13256164 -0.2202958 -0.02991141 0.06405251

weight f4 [96, 32]
000000 2d 48 03 be 92 a5 49 be 4a 67 c8 3d ca 21 38 be
       -0.12820502 -0.19692066 0.09785326 -0.1798164
000010 41 0b bd bb 55 19 6d 3d b1 64 c5 bb dc 3d e5 3d
       -0.005769164 0.057885487 -0.0060239662 0.11193439
000020 d8 af 1e 3e 9c 80 61 3e 9f f2 b2 bd cf 0c e4 3c
       0.15496767 0.22021717 -0.087376826 0.027838139
000030 fd 4d 87 be 6e a7 3b 3a f5 65 a4 bd 46 d6 0e 3d
       -0.26426688 0.0007158433 -0.08027259 0.034872316
000040 92 81 04 3d e3 2b 3f be a8 96 97 3d 4f 60 33 3d
       0.03235013 -0.18669085 0.07401782 0.04379302
000050 9d 4c 51 3d 6e 46 f6 bd 86 2a 76 3c 3a 0b b5 3c
       0.051098455 -0.12025152 0.015024787 0.02210008
000060 49 3f 95 3c f4 2c fc bb 9c dc 9c 3d 3d 47 fd bc
       0.018218653 -0.0076957885 0.076592654 -0.030917758
000070 78 69 86 bd a6 ae 0a bd 2f 01 e8 bc a7 5c f0 3c
       -0.06563085 -0.033857964 -0.028320877 0.029341055
000080 be d7 b5 3d b0 f9 41 3c c4 8e a8 bd 95 4e 6d bd
       0.0887904 0.011839315 -0.082303554 -0.05793627
000090 c8 f1 53 be 73 9d e0 3d fc 74 ee 3c aa 25 06 3c
       -0.20697701 0.10967531 0.029108517 0.008187691
0000a0 3f 61 d3 bd f7 15 b4 bc 97 2e a4 bd 41 78 4e 3e
       -0.103212826 -0.02198313 -0.08016699 0.2016306
0000b0 b1 21 76 3e c3 fd 88 3d f7 21 63 3e 59 b3 ed bc
       0.2403629 0.06689026 0.22180925 -0.029016184
0000c0 e7 3e e1 3d 32 c9 f8 bd f9 29 d5 3d 54 84 48 3e
       0.10998326 -0.1214775 0.10408396 0.19581729
0000d0 a3 3d cb bc d4 0c a2 3c fa 6b 19 3d a0 21 68 bd
       -0.024809664 0.019781508 0.03745649 -0.056672692
0000e0 36 af ee bc e0 cc 9b bd e2 9e 3a be ee 9d e6 3d
       -0.029136281 -0.07607436 -0.18224671 0.112605914
0000f0 de 1d d5 3c ef cf 8d be 1c ba 4d 3e 5c 79 e0 bd
       0.026015218 -0.27697703 0.20090526 -0.109606475
000100 a6 26 b8 3e b3 c3 76 3d 69 b2 e1 bd 7a f2 c0 bd
       0.35966986 0.060245227 -0.11020357 -0.09421249
000110 b5 f6 b8 3d a1 d0 23 3e b0 1e 59 3d fe b7 73 bd
       0.09031431 0.15997554 0.05300778 -0.05950164
000120 91 cb 30 bc 62 40 91 bc ee 43 c5 bd bd 1a 17 3d
       -0.0107907215 -0.017730895 -0.09632097 0.036890734
000130 57 d9 04 be 96 44 16 3e 7f 3f 5d bc 6c e4 ef 3b
       -0.12973534 0.14674601 -0.013503908 0.007320931
000140 db 80 45 3e e9 c0 14 3c 61 e4 b0 3d ef 33 8e bd
       0.19287436 0.0090791965 0.0863731 -0.06943499
000150 cd ae ac 3d 09 c0 78 bc 24 b6 9a bd 14 e3 aa 3c
       0.08431778 -0.0151825035 -0.07554272 0.020860232
000160 34 8b 16 3d 1d e5 c2 bd 77 24 72 bd 4a 76 20 3d
       0.03675385 -0.09516356 -0.059116807 0.03917531
000170 75 77 9b 3b cd f5 43 be 5d c4 b6 bd d6 e0 91 3d
       0.004744465 -0.19136734 -0.08924172 0.07122962
000180 1c 2a 02 3f da 72 56 bd 1f a5 74 bd 2f 66 39 3e
       0.50845504 -0.052355625 -0.059727784 0.18105386
000190 38 fc 0f 3e b1 0a 80 bd 57 86 81 bd 1d 2c e7 3d
       0.14061058 -0.06252039 -0.063244514 0.11287711
0001a0 ba 48 b0 3e 21 15 24 3e 8c 40 49 3d 9a 11 5d bd
       0.34430486 0.16023685 0.049133822 -0.053971864
0001b0 46 fd b4 3d 4f 74 c2 bd ed 7a 30 bd 75 ad 06 be
       0.088373706 -0.0949484 -0.04308598 -0.13152106
0001c0 72 14 68 3e a8 f6 9e 3c 69 02 00 3d 90 da 0c be
       0.2266405 0.019404724 0.0312523 -0.1375525
0001d0 97 85 2c bd 17 f1 ce 3d f4 d7 23 3d fa 69 f1 bd
       -0.04211959 0.10104578 0.04000087 -0.117877916
0001e0 51 00 28 3e 32 b4 bc bc 24 49 21 3e 3e 62 7a be
       0.1640637 -0.023035143 0.15750557 -0.24451539
0001f0 72 a1 0d be c0 27 cc be 87 84 96 bd f7 b1 e9 3d
       -0.13831118 -0.39874077 -0.07349496 0.11410897
000200 ed 8e ce 3d 95 2b 08 be a5 31 21 3e 3b d6 9f bd
       0.10085855 -0.13297875 0.15741594 -0.07804533
000210 af 83 66 3d 75 f5 b3 39 fe 52 46 bd 56 dd ab 3c
       0.056277927 0.0003432442 -0.04841899 0.020979565
000220 30 4f 70 bd 70 80 47 3e 66 f9 9b bd 4a a1 6a be
       -0.05866927 0.19482589 -0.07615928 -0.2291309
000230 2d af 14 bc fa 86 75 bd 9f e4 6c bd 05 c7 7b 3d
       -0.009074968 -0.059943177 -0.057835218 0.061469097
000240 57 d9 f1 bc 7a b3 f6 3d 1f 70 fa 3d c0 08 33 3c
       -0.029522581 0.12045951 0.12228417 0.010927379
000250 98 92 a8 3c cc 6f 8f be fd 15 02 bd d2 03 24 bc
       0.020577714 -0.28014982 -0.03175925 -0.010010676
000260 cc 6a 34 3e 6f a4 d2 3c 86 ea b9 bd 5a f4 4c be
       0.17618865 0.025713174 -0.09077935 -0.20015088
000270 2a 68 4a be 19 63 71 be 81 d6 88 bc d3 ac 87 39
       -0.19766298 -0.23572959 -0.016703846 0.0002587797
000280 aa f3 d0 bc fe 76 37 be 96 7d a8 3c 77 28 08 be
       -0.025506813 -0.17916486 0.020567697 -0.13296686
000290 cc de c7 3d e7 05 3b be c2 40 ae 3b b8 2a e8 3b
       0.09759292 -0.1826397 0.0053177783 0.0070851706
0002a0 51 05 37 be 41 99 7b 3e 7d 1d 4c bd c3 61 d1 3b
       -0.17873122 0.2457018 -0.04983281 0.006389828
0002b0 a8 52 04 be b7 36 43 be b9 06 20 bd 4b 26 90 3d
       -0.12922156 -0.19063841 -0.03906891 0.07038554
0002c0 78 33 62 3e f1 7d 0d 3e 47 ee 2c bb a2 41 65 3c
       0.22089946 0.13817574 -0.0026387142 0.013992699
0002d0 42 0b f9 3d 42 6d be 3d 37 f8 12 be 4f 03 48 bd
       0.121603504 0.09298183 -0.14352499 -0.04883128
0002e0 8f f4 a8 3d 09 b8 13 bd 19 f7 d4 3d 03 2c fd bd
       0.08249771 -0.03606418 0.10398693 -0.1236191
0002f0 aa e4 a1 3d d6 9d 8e be 8b 3e 0d be 98 89 8c bd
       0.07904942 -0.27854794 -0.1379339 -0.068621814
000300 72 e3 20 3e 47 83 7a 3d c6 3e fa bc 93 db 15 bd
       0.15711764 0.061160352 -0.03054751 -0.036586355
000310 5a 25 27 3e 00 c8 73 bb 0e 16 52 be ca fa 0e be
       0.16322842 -0.0037198067 -0.20516226 -0.13962856
000320 7b 63 8f be f4 a0 9c 3d 46 36 d2 bc 4d 8b 04 3e
       -0.28005585 0.07647887 -0.025660645 0.12943764
000330 f9 94 12 3e 49 07 48 bc 78 18 a6 bd dc 83 09 3d
       0.14314641 -0.012208768 -0.08110136 0.033573017
000340 3d 8b f0 3d dd 04 08 3d 76 f7 2f bc 27 6e 4f bd
       0.117453076 0.033207763 -0.010740152 -0.05064216
000350 a1 d6 dd 3d 48 ef 3c 3d 7f b6 91 bd 08 36 98 3e
       0.10831953 0.046126634 -0.071148865 0.29728723
000360 7d ec 11 3d 56 d3 f0 3d dd 32 2c 3e df fa 09 be
       0.035625923 0.11759059 0.16816278 -0.13474606
000370 dd 59 7f 3e 45 84 b0 bd a1 18 f3 3d 0b 77 08 3e
       0.24936624 -0.086189784 0.11869932 0.13326661
000380 5d ee 28 3e e5 1b df 3b 8e d1 0d bd ac 5a ca bc
       0.16497178 0.006808745 -0.034623675 -0.024701439
000390 e0 48 9b 3d 16 f4 92 bd ff fb c6 3d 49 5f aa bc
       0.07582259 -0.07175462 0.09716033 -0.020797389
0003a0 89 b1 d3 be 29 f3 3b 3e c3 da 2f 3e 03 25 ca 3d
       -0.41346386 0.18354477 0.17173295 0.09870341
0003b0 b1 9b a7 3d 8c 2f 8c bd b2 3c 95 bd a2 b6 0e 3e
       0.08183993 -0.06845006 -0.07286967 0.13936856
0003c0 83 cc ea bc 10 f6 4c 3d d7 4d 43 be 11 4a 11 bd
       -0.028661972 0.05003935 -0.19072662 -0.035471026
0003d0 c5 bc 18 3d e4 62 d8 bd a8 97 c7 3d 89 57 41 be
       0.0372894 -0.10565737 0.09745723 -0.18881048
0003e0 dd c8 7b bd 6d 75 16 3d 55 21 ee 3d 5c 3e 95 3d
       -0.061470855 0.03673308 0.11627451 0.07287285
0003f0 bb 3d 3c 3e 44 5e 9a be f9 8d 51 3e 58 05 6d 3c
       0.18382923 -0.30150044 0.20464315 0.014466606

bias f4 [96]
000000 6e 35 2c be 00 91 03 3c 19 18 9c bd 47 4c 21 be
       -0.16817257 0.008030176 -0.07621784 -0.15751754
000010 16 34 55 be 3f 05 8a 3d 7a 4b 89 bd 96 69 44 3e
       -0.2082065 0.06739282 -0.06703849 0.19180903
000020 43 7f 7c bd ff ac 5f 3d 74 c6 7d 3d b6 59 61 be
       -0.061644804 0.05460834 0.061956838 -0.22006878
000030 c9 bd 43 be f4 10 95 3d 49 2e c3 bd e6 08 18 3e
       -0.19115366 0.07278624 -0.095303126 0.14847144
000040 72 6c d3 bd ab 8c a7 bd 68 1f 13 be a2 2f 01 3e
       -0.10323419 -0.08181127 -0.1436745 0.12615827
000050 23 5b 4a 3e 83 40 34 3e e3 47 57 be 05 e4 dd 3d
       0.19761328 0.17602734 -0.21023516 0.10834507
000060 26 54 b3 bc f6 2d 92 3d 71 4b a0 be 6c 07 ca be
       -0.021890711 0.071376726 -0.31307557 -0.39458787
000070 81 94 da 3d 29 e0 8b bd 50 76 ac bd 88 8d 15 be
       0.10672856 -0.068298645 -0.08421004 -0.14604771
000080 74 41 22 bd 42 f6 40 be 00 a8 a5 bc ea 8b 41 3e
       -0.039613202 -0.1884394 -0.02022171 0.18901029
000090 18 c5 6a 3d a7 09 28 bc 86 fa 85 3d b6 dd e7 bc
       0.05731687 -0.010256208 0.06541924 -0.028303962
0000a0 ba d4 e2 3d 13 16 c0 bd 9d d0 44 be af 6b 49 3d
       0.110757306 -0.0937921 -0.19220205 0.04917496
0000b0 06 d6 92 3c 87 a9 94 3d aa c5 a6 be db 8b 16 3e
       0.01792432 0.07258897 -0.3257268 0.14701788
0000c0 18 67 27 3e 66 44 5c bd 6e a1 8e 3d e7 27 78 3d
       0.16347921 -0.053776167 0.06964384 0.06058493
0000d0 6b ea 77 3e 26 0f b3 3c d4 fc 87 3d f5 7e f3 3d
       0.24210517 0.02185781 0.0664002 0.118894495
0000e0 65 3e d3 3d 57 c4 90 be 61 5a 87 3e 09 51 3d 3e
       0.10314635 -0.28274795 0.2643614 0.18487944
0000f0 a2 80 a3 bd 29 41 8e 3d 19 c6 b3 3d e2 5b fe bd
       -0.07983519 0.06946022 0.087780185 -0.12419869
000100 17 b2 98 be 38 e8 49 bd af 84 b5 be a1 6f fe 3d
       -0.29823372 -0.049293727 -0.35452792 0.12423635
000110 e5 95 6b be 78 df ff 3d d9 62 b6 bd be f5 b4 be
       -0.23006399 0.12493795 -0.089055724 -0.35343736
000120 92 9a 9e be f6 e7 79 3d e3 a5 01 bf 77 50 2f bf
       -0.30977303 0.06101223 -0.5064375 -0.68482155
000130 94 9b a8 3e 57 05 25 bf c4 53 94 be c5 7f 8e 3e
       0.32931197 -0.6446127 -0.28970158 0.27831855
000140 5e 5a 68 be 9e b6 41 3e 8a 39 50 be 5b 45 f7 be
       -0.22690722 0.18917319 -0.2033445 -0.48295102
000150 b5 2c 5d 3d ea 2b 81 be 70 75 e9 3e c1 4f 0b be
       0.053997714 -0.25228816 0.4559741 -0.13604642
000160 64 a0 28 3e 5f 04 e2 be b4 d1 81 3e cb 4e bf be
       0.16467434 -0.4414396 0.25355303 -0.37364802
000170 5d cd d3 be 35 16 48 be d2 fc 74 bd 67 d7 6e be
       -0.41367617 -0.19539721 -0.05981142 -0.23324357

weight f4 [32, 32]
000000 1b 0a 6c bd a0 16 47 bd 9a 49 d7 bd 7d 24 91 bd
       -0.057626825 -0.04860556 -0.10512085 -0.07087038
000010 d3 a1 e3 bc 4e b4 44 3c d0 85 4e bc 7e d5 63 bd
       -0.027787125 0.012005879 -0.012605146 -0.055623524
000020 6b af 52 bd 94 5f 92 bd 74 a2 b7 bd 49 8b 3f 3c
       -0.051436823 -0.07147136 -0.08966532 0.011690923
000030 76 94 31 bd f6 cf 0e 3c af 88 20 bd a9 27 4b 3d
       -0.043354474 0.008716574 -0.03919285 0.04959837
000040 1e 81 27 bd 7b d9 20 3d ad f1 d5 bc 7a 48 81 3d
       -0.04089462 0.039269906 -0.026116217 0.06312652
000050 54 a0 50 3d 3d 21 39 bd 25 1f f4 b9 24 2d 96 bb
       0.05093415 -0.045197714 -0.0004656251 -0.004583018
000060 f6 ba e0 bb e5 07 8a bc 9a 70 26 bd 9b 69 f0 3c
       -0.006858225 -0.016849468 -0.04063473 0.029347232
000070 87 7d 97 3d cd f3 ab bc 1f 37 95 3d 8d c5 54 bd
       0.07396989 -0.020990277 0.07285904 -0.05194621
000080 cf ae 19 3e 55 90 a2 3d 4b 22 56 bb 07 09 14 3e
       0.1500809 0.079376854 -0.0032674249 0.14456569
000090 34 75 fa bd af f3 bc 3d 05 e9 04 3c 2a 1d 15 bd
       -0.12229386 0.092261665 0.008112197 -0.036404766
0000a0 a0 6e fa 3d a1 9d ae 3e f2 94 33 3e ce bf db 3d
       0.12228131 0.34104636 0.17537287 0.10729943
0000b0 e8 7d 8e be ce 9c 7f 3e d5 d7 48 3e 1f 3d 65 be
       -0.27830434 0.2496216 0.19613583 -0.22386597
0000c0 ec 9c f0 bc 1a 01 32 be d8 5e 3f bd eb 7d 1e 3e
       -0.029371701 -0.17383233 -0.04672131 0.15477721
0000d0 21 94 5d 3c cf 40 08 3e eb 1a 35 be 25 4c 50 bc
       0.013524086 0.13305973 -0.1768605 -0.012713467
0000e0 ce 27 30 be 3f a7 62 bc 59 83 94 bd 7b 60 67 3e
       -0.17202684 -0.01383382 -0.07251615 0.22595398
0000f0 73 94 85 3e d0 ac d9 bd 90 35 19 3e ac 3d 9d 3c
       0.2608982 -0.106286645 0.14961839 0.019194447
000100 65 3a fe be 7d 13 58 3e 06 d4 56 be 88 58 76 3d
       -0.49653926 0.21101184 -0.20979318 0.060143024
000110 39 b0 65 bd 72 61 38 bd a5 0e 28 be ee 5e 3f 3d
       -0.056076262 -0.045014806 -0.16411836 0.04672139
000120 54 af 38 be 2d 24 7e be 35 e5 65 bd c9 8e 2c be
       -0.18035632 -0.24818487 -0.056126792 -0.16851343
000130 b5 6d 7e 3e 1d 06 79 bd d6 79 63 be c0 4e c4 bd
       0.24846537 -0.060796846 -0.22214445 -0.09585333
000140 e3 f9 88 3e e1 12 b9 be 05 74 34 bd 1a ac 05 3e
       0.26753148 -0.36147216 -0.044055957 0.13053933
000150 3e 8a c5 bc 17 39 58 3e 14 c8 81 be 46 fd 8d 3e
       -0.02411377 0.21115528 -0.2534796 0.27732295
000160 3e 26 05 bd e5 16 a8 be 53 61 8c bd 9c 39 a4 bc
       -0.032507174 -0.32829967 -0.068545006 -0.020047002
000170 b1 ac 23 be 64 47 f2 3d 11 ef 8f bc a6 0b c7 be
       -0.15983845 0.11830023 -0.01757005 -0.38876075
000180 c3 78 4a bd 7d 01 83 be 24 c7 02 be b7 dc 6b bc
       -0.049431574 -0.25587073 -0.12771279 -0.014395884
000190 44 5c 4f bd 07 18 46 3d c2 b3 ac bc 9a 1f b3 3d
       -0.0506251 0.048362758 -0.021081809 0.08746262
0001a0 70 b1 31 be a8 fb 62 3e f9 09 97 be 83 46 c1 3d
       -0.17352843 0.22166312 -0.29499796 0.09437277
0001b0 3c f6 cb 3d 29 b3 bd 3d 13 8b 95 3e d6 3d 27 bd
       0.09959075 0.09262688 0.29207668 -0.040830456
0001c0 ed 8e 9c bd fc 59 aa bc c1 d4 14 bd b8 e4 b5 3c
       -0.076444484 -0.020794861 -0.03633571 0.022203788
0001d0 61 ea 88 3d 22 59 15 3e a4 90 1d 3e bb 5f 77 3d
       0.06685329 0.14584783 0.15387207 0.06039403
0001e0 a7 cf c9 bc dc 32 f2 bd 8b e7 82 3d f5 66 80 3e
       -0.02463515 -0.11826107 0.063918196 0.2507855
0001f0 d6 8c df bb f4 91 e3 3d bc 87 6f bd 42 32 e7 bd
       -0.006822209 0.11111823 -0.058479056 -0.11288883
000200 e4 80 e3 be 6f 6d 8b be 4c 61 17 be 50 06 1a 3d
       -0.44434273 -0.2723193 -0.1478321 0.037603676
000210 2c eb 40 bc 0a 60 14 be 4c 22 c5 3d d9 a7 9d bc
       -0.011774819 -0.14489761 0.09625682 -0.019245075
000220 d9 46 e5 3c 11 e0 44 3e c2 01 c5 bc 73 8c 07 3d
       0.027987884 0.192261 -0.02404869 0.033092927
000230 99 1f 57 be 39 a8 a3 3e 38 38 20 be d1 29 76 bd
       -0.21008147 0.3196428 -0.15646446 -0.060098473
000240 09 a0 fe ba 99 1f d0 bc 72 6c 80 be c1 13 22 bd
       -0.0019426356 -0.025405692 -0.25082737 -0.03956962
000250 aa dd 50 be f1 80 35 3e e4 60 c7 3d 13 5d e2 bd
       -0.20397058 0.17724968 0.09735277 -0.11052909
000260 36 a2 6f 3e b6 29 bb 3e 47 d3 f1 3d 25 2c fd 3c
       0.23401722 0.3655526 0.11807876 0.030904839
000270 42 2f 3e 3e 69 71 8b be 03 a9 a2 bd dc 93 0d be
       0.18572715 -0.27234963 -0.07942393 -0.13825935
000280 e6 65 8b bd 5d e6 1b be ad d4 5c 3d ba 72 07 3d
       -0.06806545 -0.15224595 0.05391376 0.033068396
000290 d5 c9 2b be 0e b0 d3 bd c9 8e a5 bd 4d db 32 be
       -0.16776212 -0.10336314 -0.08083875 -0.17466469
0002a0 8f 85 95 3e db c7 90 3e 5a 13 b2 3d 3b 02 e0 bd
       0.2920346 0.28277478 0.08695097 -0.109379254
0002b0 e8 63 3d 3d c0 9e 67 3d 1b 85 b4 3d 20 6a 90 bd
       0.046237856 0.05654788 0.0881445 -0.07051492
0002c0 f8 1c af 3c cb 03 a3 bc fe 4e 87 bc 2a d1 28 bd
       0.021376118 -0.01989927 -0.016517159 -0.0412151
0002d0 88 94 34 3d de 17 87 bd 62 8b b7 bd aa 8e bd bd
       0.044086963 -0.06596349 -0.08962132 -0.09255727
0002e0 b7 54 fb 3c df 74 77 3a a6 8a 82 bd a2 a0 df 3d
       0.030680044 0.00094397174 -0.06374101 0.1091931
0002f0 09 72 7b be 64 5c 74 3d 02 2a bb bd c0 f7 15 3d
       -0.2455522 0.059658423 -0.09138872 0.036613226
000300 7e c5 14 3e fe 6e 11 3e 59 0a 48 be ab d7 33 3e
       0.14528462 0.14202496 -0.19535197 0.1756274
000310 88 21 f7 3d 49 d0 91 3d 3f 52 18 be 50 24 99 be
       0.120669425 0.07119805 -0.14875124 -0.29910517
000320 02 28 06 3e ae 40 8b bd bc fd 02 be a5 6e e5 bc
       0.131012 -0.06799446 -0.12792104 -0.028006861
000330 7c 2c e3 3d 45 87 77 be 2c a4 a1 3d 4a 9d 3a 3e
       0.11092469 -0.24172695 0.078926414 0.18224064
000340 79 d7 d2 3d c7 5d ec 3b f0 00 cc bc 7b 8e 70 bd
       0.102950044 0.0072133276 -0.02490279 -0.05872963
000350 10 a1 5d 3d 4f 46 94 bd 5c 53 3d 3e 69 91 95 3d
       0.05410868 -0.07239973 0.1848883 0.073031254
000360 c0 b9 96 bd ad 06 59 be c0 c6 f7 3d 09 85 01 be
       -0.07359648 -0.21193953 0.120984554 -0.12648405
000370 90 5a bf 3d c1 f6 4d be 16 a2 fa 3d 59 dc a1 bd
       0.09343445 -0.2011366 0.12237947 -0.07903356
000380 e2 8c 58 3c e8 c0 3e bd 3d b7 8d 3e 0f 87 05 3e
       0.013217183 -0.04657069 0.27678862 0.13039802
000390 f8 d6 53 3d d3 15 b1 bd b5 14 7e be 41 20 2c 3e
       0.051718682 -0.08646741 -0.24812587 0.16809179
0003a0 e1 1f 75 3d 3b a1 5e be 30 10 46 3e dd 08 3e be
       0.059844855 -0.21741192 0.19342113 -0.18558069
0003b0 63 8c c4 3d 55 ad 11 3e a0 2c 91 be 26 61 30 3e
       0.09597089 0.14226277 -0.2835436 0.17224559
0003c0 b3 24 05 be 72 5a be 3d a7 98 5d 3e f2 a4 0c 3d
       -0.13002281 0.09294595 0.21640263 0.03433699
0003d0 46 79 7e 3d 67 6c f1 3d 25 e6 5d bd 7f 15 c6 3d
       0.062127374 0.11788254 -0.05417456 0.09672069
0003e0 b7 c3 00 be 5b 9a 0f 3d 04 34 e7 bc 51 ca e6 bd
       -0.1257466 0.035059314 -0.028223045 -0.112690575
0003f0 c0 7e 07 3e d0 1a c1 bd d4 a8 88 be a4 e6 27 3e
       0.13231945 -0.09428942 -0.26691306 0.16396576

bias f4 [32]
000000 e3 81 17 3e 2a 93 d6 be cd 84 4c 3e aa 56 9b 3e
       0.14795642 -0.41909152 0.19972534 0.30339557
000010 85 f2 4b bd c9 73 87 3e fd 09 2f 3f d8 c5 a0 3d
       -0.04979183 0.26455525 0.68374616 0.07850236
000020 08 f7 93 3e 73 1f 9e 3e 0c 8f 0d bd 51 7c 45 be
       0.28899407 0.3088337 -0.03456025 -0.19285704
000030 47 9a f1 be 4f c0 63 3e 8e 13 b6 be 21 89 42 3c
       -0.47188017 0.22241329 -0.35561794 0.011873514
000040 f9 97 db 3d 87 46 84 be da 64 b3 bd c7 86 01 3f
       0.10722346 -0.25835058 -0.0875947 0.5059628
000050 75 c8 15 3f 1d 39 96 bd 39 3b 9a be ff 33 80 3d
       0.58509 -0.07335112 -0.30123308 0.062599175
000060 c1 93 00 be 17 c4 5c be ac 73 25 be ad e9 30 be
       -0.12556364 -0.21559177 -0.16157407 -0.1727664
000070 4c e2 d6 3a 38 28 2a bf cc 64 83 be 4a 82 cd be
       0.0016394346 -0.6646762 -0.2566284 -0.40138465

weight f4 [32]
000000 92 4a cd 3f 95 03 79 3f 68 6e 3f 3f 45 72 6f 3f
       1.6038382 0.9727109 0.7477784 0.93533736
000010 75 fd 32 3f 6a 83 6b 3f 4d 53 52 3f f1 e1 87 3f
       0.69917995 0.91997397 0.82158357 1.0615827
000020 2a c3 e0 3f de ac 97 3f f0 24 7c 3f 80 5e 6c 3f
       1.7559559 1.184963 0.9849386 0.92331696
000030 55 91 85 3f 7f 69 74 3f 11 f0 81 3f 1e c1 84 3f
       1.0434977 0.95473474 1.0151387 1.0371435
000040 7b 63 be 3f 4c 18 78 3f 05 f7 80 3f 41 87 85 3f
       1.4874109 0.96912074 1.0075384 1.0431901
000050 f6 3e 90 3f 7d b5 53 3f 68 b3 82 3f 78 a4 32 3f
       1.1269214 0.82698804 1.0211 0.6978221
000060 3e 32 78 3f 59 e6 85 3f ed 92 a4 3f 6e 76 92 3f
       0.96951663 1.0460922 1.2857338 1.1442392
000070 e4 16 52 3f da 44 76 3f f8 61 80 3f e7 2d 83 3f
       0.8206618 0.9619881 1.0029898 1.0248383

bias f4 [32]
000000 50 e9 f5 bd 41 36 a9 bc 9d 3b f9 bd 37 e1 9b bd
       -0.120073915 -0.020655753 -0.121695735 -0.07611316
000010 93 10 1f 3d 1a c6 97 bd 43 8e 14 be 52 45 cd bd
       0.038834166 -0.07410832 -0.14507394 -0.100229874
000020 f3 2a 42 be 04 2e 06 be 76 c8 24 3d b6 b6 f6 3d
       -0.18961696 -0.13103491 0.040230237 0.12046568
000030 02 9a 97 3d 07 2a d3 bd 02 3a 90 bd 5d 04 25 bc
       0.074024215 -0.103107505 -0.07042314 -0.010071841
000040 9d 60 f8 3d 1d af 23 bc dd 34 89 bd e0 79 a4 bd
       0.121278025 -0.009990481 -0.06699536 -0.08031058
000050 89 af df bc c9 f2 c0 3c 98 51 0e bd 07 fb aa bd
       -0.027305381 0.023553269 -0.034745783 -0.08348661
000060 3a 67 02 be bb 16 58 3e 69 46 c5 3d 2e 94 67 bb
       -0.1273469 0.21102421 0.0963257 -0.0035336125
000070 93 0c 1a 3e 81 08 a2 3d 7a cf 07 3e 68 06 03 3e
       0.15043859 0.07911778 0.1326274 0.12795413

weight f4 [128, 32]
000000 83 ae d2 bd fa 4f ea 3d d6 04 9f 3d ce 22 f3 be
       -0.10287192 0.114410356 0.07764594 -0.4748749
000010 56 fb e6 bd b9 fc 2f 3e f6 f3 1a be ac 4f 33 3d
       -0.11278407 0.1718625 -0.15132126 0.043777153
000020 a5 fc 51 be b8 16 0f 3d 96 82 87 3e 5b e2 f3 3c
       -0.20506532 0.034933776 0.26466817 0.02977102
000030 76 64 4c 3d ad bd 59 3e 1d 09 5f 3e 12 a1 a0 3e
       0.049900495 0.21263762 0.2178082 0.31372887
000040 cf 06 14 be 61 82 0d be 47 56 36 be 39 a6 ce bd
       -0.14455722 -0.13819267 -0.1780635 -0.10090298
000050 a9 4d c2 be 73 ee 34 be cd d5 53 be cf 84 01 bc
       -0.37949875 -0.17669086 -0.20687027 -0.007905199
000060 b9 39 dd 3c d2 23 60 3c c5 d9 3e 3d dd 93 14 be
       0.027005063 0.013680415 0.0465944 -0.1450953
000070 e0 24 8b be e4 d7 44 bc 24 32 53 3d e6 87 a2 3d
       -0.2717657 -0.012014363 0.05156149 0.07936077
000080 a2 87 b8 bd b8 f3 32 be 04 17 f7 3d 6b d5 68 3e
       -0.09010245 -0.17475784 0.12064937 0.22737662
000090 08 eb 07 3f 5f 9f cf 3d b4 54 31 bc 9e 8d 0e 3e
       0.53093004 0.101378195 -0.010823417 0.1392121
0000a0 69 cd a7 3e 9f c2 a1 3a 38 73 7a bd 9a e7 26 bd
       0.32773903 0.0012341327 -0.061145037 -0.040748216
0000b0 2f c8 41 be 7c e1 08 bd 35 d1 d6 3b 87 50 ec bd
       -0.1892402 -0.033418164 0.006555701 -0.11538797
0000c0 d8 c7 8f be 53 f8 12 be e0 f0 fe bb 8d f3 c0 be
       -0.28082156 -0.1435254 -0.0077801794 -0.37685814
0000d0 d2 b4 be bd ee dd 26 be 2f ba 85 3d 2c e0 03 bf
       -0.093118325 -0.16295597 0.06529652 -0.51513934
0000e0 87 da a8 be 0c 60 0f be 33 88 01 be 12 d5 a0 3e
       -0.32979223 -0.14001483 -0.12649612 0.3141256
0000f0 06 1a 3a 3d 30 8b c5 3d 29 3a 8c 3b 8c a4 39 bc
       0.045434974 0.096456885 0.004279394 -0.011330735
000100 55 ed 0f 3f 8e 08 a9 3c 67 22 9d 3d 3e fa b1 3d
       0.56221515 0.020633962 0.07672577 0.08690308
000110 b6 63 c7 3e df 91 36 bd 15 35 1f 3e 67 6b bb 3b
       0.3894326 -0.044572707 0.15547593 0.0057195905
000120 50 91 15 3e 62 c4 0c bf d3 de c3 be 6e 39 f5 bd
       0.14606214 -0.54987156 -0.3825594 -0.119738445
000130 75 da af bd fa 57 3d 3e 43 44 c1 bd 89 25 7d bd
       -0.08586589 0.18490592 -0.09436848 -0.061803374
000140 80 26 a0 be a3 41 0e be 80 f2 6a 3e 01 c9 14 be
       -0.31279373 -0.13892226 0.22944069 -0.14529802
000150 92 ab 66 bd 50 a9 9b bd 18 8e c7 3d ab a9 3e bd
       -0.056315966 -0.07600653 0.09743899 -0.046548527
000160 22 6c c5 be c7 ba 1b 3e e4 95 8e 3e 94 97 db 3e
       -0.3855906 0.15207969 0.27848732 0.42889082
000170 7c 60 07 3d b7 40 9b 3e 02 87 22 be 66 f8 5b 3e
       0.033051 0.3032281 -0.15871814 0.21481475
000180 84 04 15 bd 05 aa 2d be 33 7d 3c bd ed d3 1f 3e
       -0.03638126 -0.16959389 -0.046017837 0.15608187
000190 4a 2e 99 bd 93 cf 43 3e 12 54 2c bd 4d e7 50 be
       -0.07479532 0.19122152 -0.042072363 -0.20400734
0001a0 3d b5 da be 32 dd 69 3e 50 2a ec 3c 17 2e 22 3f
       -0.427164 0.22838286 0.02882877 0.6335158
0001b0 51 6e 3d bd f5 74 af be 7a 4b e0 bd f0 09 63 3e
       -0.046247784 -0.3426892 -0.10951896 0.2217176
0001c0 4c 41 56 3e 13 33 d8 3d fd 01 ba 3e ae 52 31 bd
       0.20923346 0.10556617 0.36329642 -0.04329174
0001d0 e0 d6 1d be 82 f5 00 be 5f e9 0e 3d d9 6d 83 3e
       -0.15414 -0.12593654 0.03489053 0.25669745
0001e0 a7 30 83 3d ac 15 a7 be 5d 4c ec 3d 1a c5 8a 3e
       0.06405764 -0.32633722 0.11538003 0.27103502
0001f0 57 c5 09 3d dd f7 72 3e 9d c1 81 be de 63 c8 3d
       0.033635464 0.23727365 -0.25343028 0.09784673
000200 70 fe ed bc a7 89 aa 3e d5 28 9d bd 1e 42 01 be
       -0.02905199 0.33308145 -0.07673804 -0.12622878
000210 8f 67 29 3d 69 7e 0c 3e bc 6e ae bc 97 db 14 3e
       0.041358527 0.13720097 -0.021293037 0.14536892
000220 f4 a0 00 3c c9 9d 81 3e 5b 4d 2f 3c 36 db 51 3e
       0.007850874 0.25315693 0.010699595 0.20493779
000230 13 dc a7 be 66 2e 5b 3b 62 e8 18 3e 0b 05 40 be
       -0.3278509 0.0033444404 0.14932397 -0.18751924
000240 21 51 91 be 00 c4 3c 3e 42 8b 64 3e f6 1a 23 3e
       -0.2838221 0.18434143 0.22318748 0.15928254
000250 c9 4c c7 bd a5 60 a8 bd 0a a6 fd bc 9f 24 b4 3d
       -0.097314425 -0.082215585 -0.030962963 0.087960474
000260 f4 04 1b 3c 1c 9b e6 bc ce 55 f2 be 30 c3 6b be
       0.00946163 -0.028150134 -0.4733109 -0.23023677
000270 2d 3c b7 3e 6c 9f f6 3d 3d 3f 9d be dd 71 94 3c
       0.35788098 0.12042126 -0.3071231 0.0181207
000280 43 d0 a8 be c6 29 85 be 21 b0 0a 3d 79 9a 42 bd
       -0.3297139 -0.26008433 0.033859376 -0.047510598
000290 a3 b8 08 bf d4 c0 b8 3e 56 02 87 3e 2d be 2f 3d
       -0.53406733 0.36084616 0.2636897 0.042905975
0002a0 a2 b3 95 be 3b e5 13 be b9 62 09 be d6 7e 18 be
       -0.2923861 -0.14442913 -0.13416566 -0.14892134
0002b0 72 83 ce 3d c4 e8 5f be 5e 0e 42 3e 99 b2 1d be
       0.10083665 -0.21866137 0.18950793 -0.15400161
0002c0 eb 79 10 be 70 b9 03 3e e5 f0 6a 3e 57 0d b7 be
       -0.14109008 0.12863708 0.22943456 -0.35752365
0002d0 f7 cc 05 be e7 26 a1 be a1 71 3b 3e 47 03 a5 3e
       -0.13066469 -0.31474993 0.18305065 0.32229063
0002e0 b4 30 a2 b9 87 06 5b 3e 4a 91 25 be b9 4c e7 3c
       -0.00030935335 0.21389209 -0.16168705 0.028234826
0002f0 2a 90 8e 3e 76 4b 4c bd 55 c7 93 bd b2 b2 c6 bd
       0.27844363 -0.049876653 -0.07215754 -0.09702052
000300 24 1c c4 bd f5 55 44 3e e1 7f 62 be 71 d8 34 3e
       -0.0957568 0.19173415 -0.22119094 0.17660691
000310 09 a1 cf be 24 36 5b 3d 7c f3 91 be b8 58 6f bd
       -0.40552548 0.05351843 -0.28506076 -0.05843422
000320 28 88 2a 3f 99 2f ec 3d 25 30 d5 3d 5b 6d 00 3d
       0.6661401 0.11532516 0.104095735 0.03135429
000330 d7 56 01 3f ba 69 d5 3d b0 c9 00 bc 0b 38 06 3e
       0.5052313 0.10420556 -0.007860586 0.13107316
000340 8f b3 00 bf a0 5b cb 3e 1b 6f 38 bd 92 a5 07 3e
       -0.50273985 0.39718342 -0.045027833 0.13246754
000350 58 c0 8c bd 44 d0 2d be cb be 1e bd af 53 74 3e
       -0.06872624 -0.16973978 -0.038756173 0.23860048
000360 23 dd ab be ac 3c df bc 81 79 9b 3d f5 8e b7 3e
       -0.3356715 -0.02725061 0.075915344 0.35851255
000370 30 46 d1 be 87 11 94 3e 2f d1 4e bd 4d ee aa 3e
       -0.4087386 0.28919622 -0.05049246 0.33384934
000380 c4 17 98 3e 3c 96 b0 3d c9 5a 98 be 8c 8d db 3b
       0.29705632 0.08622405 -0.29756764 0.0067002233
000390 e5 f4 74 3e e7 40 37 be e7 ed e4 be c5 7e a8 bb
       0.23921545 -0.17895852 -0.44712755 -0.005142065
0003a0 48 b8 db 3c 63 0e 75 bd 9a 48 30 3e 31 a0 36 3d
       0.02682127 -0.059828173 0.17215195 0.044586364
0003b0 c1 fd 72 3e 84 62 c0 bd 07 d2 a3 3e a1 22 a9 3e
       0.23729612 -0.0939379 0.31996176 0.33034232
0003c0 4e 0b 16 be d5 b1 f9 3d 8e 40 a0 3d c2 60 10 3e
       -0.1465275 0.12192122 0.07824813 0.1409941
0003d0 05 d5 aa bd 49 55 f0 bd 4b 56 a7 3d 6a 9c 83 be
       -0.083414115 -0.11735017 0.08170756 -0.25705272
0003e0 c6 e3 aa be 94 ef e5 3e d5 78 20 3e e1 a6 df be
       -0.33376902 0.44909346 0.15671094 -0.43682006
0003f0 be ce bc be c5 e3 ae 3e 55 08 e2 3d e4 1d 79 3d
       -0.36876482 0.3415815 0.110367455 0.06081952

bias f4 [128]
000000 01 f4 fd bd 31 60 64 bd 82 d7 aa bd 9b ea 2d be
       -0.12400056 -0.055755798 -0.08341886 -0.16984026
000010 f6 4d a3 bd 8c e9 e6 be b0 1e c8 bd 3a b0 dd be
       -0.07973854 -0.45100057 -0.09771478 -0.43298513
000020 a8 00 57 be 53 26 3a be 3c d7 18 bc ee c3 0c be
       -0.20996344 -0.18178682 -0.00932866 -0.13746616
000030 f2 b5 af bd a2 62 ba be f7 4e a4 be 23 85 93 3d
       -0.08579625 -0.36403376 -0.32091495 0.07203128
000040 b8 6d 8e be de 9c 8a be 35 4b 4c bc 1f d0 8f be
       -0.27818084 -0.27072805 -0.012469103 -0.2808847
000050 37 ed 9a be 72 84 d2 bb 79 a7 7a be c0 f1 c3 bd
       -0.30259106 -0.00642448 -0.24477948 -0.095675945
000060 58 fc 8c be b0 25 53 be f3 f7 cf be 68 b6 b8 be
       -0.27536273 -0.20619845 -0.40618858 -0.36076665
000070 e3 9e b7 be f5 1c 9c be a1 e2 12 be 62 7e 20 be
       -0.35863408 -0.30490842 -0.14344265 -0.15673211
000080 98 06 b9 bd 8f d6 05 be f5 43 4f be fd 2f c2 bd
       -0.09034461 -0.13070129 -0.20240767 -0.09481809
000090 40 18 15 be e9 88 4d bc d5 49 74 bd d9 fd 55 be
       -0.14560032 -0.012544849 -0.059640724 -0.20897616
0000a0 ab d9 f3 bd 19 ca 9d be 66 90 d4 be 1b c6 42 be
       -0.11906751 -0.3081825 -0.41516417 -0.19020884
0000b0 0b 0a 0b 3d 8b 77 09 be 2a b9 1f bc 1b 94 84 be
       0.033945125 -0.13424508 -0.009748736 -0.25894246
0000c0 53 8b 45 be a4 cc 02 be 06 ff 96 3c 93 53 c1 be
       -0.19291429 -0.12773377 0.018432152 -0.37759075
0000d0 01 b7 85 be c6 69 82 be 71 6e 90 bd 68 34 03 bf
       -0.26116183 -0.25471324 -0.07052315 -0.5125184
0000e0 45 db 78 be 5c 61 03 be ff 07 8a be 8c 92 47 be
       -0.24302395 -0.12830108 -0.26959226 -0.19489497
0000f0 38 c4 4a be d2 b3 82 be 51 1b 9a be cc 75 3b 3e
       -0.19801414 -0.25527817 -0.30098966 0.18306655
000100 6f 2c de bd 0d c1 07 3c 61 d6 a9 be 01 64 ea bd
       -0.10848319 0.008285773 -0.3317137 -0.114448555
000110 e6 90 2e 3c d4 e6 be be 7c 41 dd bd 06 00 ed bd
       0.010654664 -0.37285483 -0.10803506 -0.1157227
000120 41 8c 82 be 85 e8 b9 be 91 22 e3 bd 9d db 4a be
       -0.2549763 -0.3631021 -0.110905774 -0.19810338
000130 2d 2a 91 be 42 4e 85 bd 2a 21 25 bc 22 b8 c6 3d
       -0.2835249 -0.06509067 -0.010078708 0.09703089
000140 70 9d 25 3e eb f0 52 be 4f fb 51 be 3a 2c 90 be
       0.16173339 -0.20599715 -0.20506023 -0.28158742
000150 f7 11 a2 bc d7 66 22 be 33 74 6d be 3f 8f 34 be
       -0.019783957 -0.15859543 -0.23188858 -0.17632769
000160 38 00 a7 bd fa 26 ef bd d7 68 7e bc c9 f2 a2 be
       -0.081543386 -0.11677356 -0.015527925 -0.31825855
000170 99 aa 85 bd d5 78 11 bc 91 34 a3 be 25 97 6e bd
       -0.065266795 -0.008878906 -0.31876042 -0.05824961
000180 a5 50 26 3e 37 ee 4a be d7 82 a4 be f7 39 85 be
       0.16241701 -0.19817434 -0.32131073 -0.26020786
000190 32 d1 b7 be 92 fa 1c be 84 08 bd bd 5b f1 dc bd
       -0.3590179 -0.1532996 -0.0923014 -0.107882224
0001a0 60 01 b7 3b 57 5f 36 be f3 2d 4b be f4 8a bb be
       0.0055848807 -0.17809807 -0.19841747 -0.3662945
0001b0 95 e6 a7 3d 53 59 a4 bc 4b e9 b4 be 00 50 4b be
       0.08198277 -0.020062124 -0.35334238 -0.19854736
0001c0 c4 54 83 be 41 bf d2 bd 1d 2f 82 3d fe f5 a7 be
       -0.2565061 -0.10290385 0.063566424 -0.32804865
0001d0 bd 75 74 be 12 3d 5c be 60 85 f5 bd c8 09 58 be
       -0.23873039 -0.21507671 -0.1198833 -0.21097481
0001e0 12 d0 12 be 54 82 79 bd 95 0e b8 be 67 a4 92 be
       -0.14337185 -0.060915306 -0.35948625 -0.28641054
0001f0 83 1a 28 be 4a 95 ac bd 42 28 a8 be d0 11 5c bd
       -0.16416363 -0.08426912 -0.32843214 -0.053727925

weight f4 [32, 128]
000000 5d 47 14 3d 16 eb 87 be 4b e1 04 3f 82 82 19 be
       0.03620087 -0.26546544 0.5190627 -0.14991191
000010 5b c1 bf 3d c8 d5 a6 bd 2a b3 27 bd 4e 19 fe bd
       0.093630515 -0.08146244 -0.04094235 -0.1240717
000020 68 88 4b 3e 7a 7b 4f bd 08 68 23 be 85 eb 30 3d
       0.19876254 -0.050654866 -0.15957654 0.04319336
000030 bf f7 14 bd 0f f4 f8 bd 21 93 d1 3e be a6 18 3c
       -0.03636908 -0.121559255 0.40932563 0.009317098
000040 15 62 07 3f 13 ef 82 bd e4 1f 34 3f a9 08 83 bd
       0.52884036 -0.06393256 0.7036116 -0.06398136
000050 10 fa 83 bd f0 2a 01 3f dd 2d 96 bd ea 2c 5d 3e
       -0.0644418 0.5045614 -0.073329665 0.21599165
000060 2a 43 b7 be 4e 5e 96 bb b6 f7 2a 3a 06 90 2e bc
       -0.3579343 -0.0045888787 0.0006521897 -0.010654455
000070 ad 42 e6 bc 49 53 00 3f 2f 32 a4 3d de 0a d3 be
       -0.028107965 0.50127083 0.08017384 -0.41219229
000080 dd f9 c5 bd 29 92 16 bf 2c 6d d2 bd fd 19 2a be
       -0.09666798 -0.5881677 -0.10274729 -0.16611476
000090 68 cf 61 be 30 36 54 bd d7 e4 b6 bd 23 1b d6 be
       -0.22051775 -0.05180949 -0.089303665 -0.4181758
0000a0 a6 fa 92 3d cd 42 31 3d 62 be 97 be 23 ad be bd
       0.07176714 0.043276597 -0.29637438 -0.09310367
0000b0 2d e7 96 bd 42 1f 75 be 28 48 ad 3e 74 36 42 3e
       -0.07368312 -0.23937705 0.33844113 0.18966085
0000c0 28 7b ce be b2 56 7a be e2 74 a3 be 07 b8 b0 bd
       -0.40328336 -0.24447134 -0.31925112 -0.086288504
0000d0 89 78 dc bb d5 98 e4 bd bc aa 4f bc 26 cd fa 3d
       -0.006728236 -0.11161963 -0.012674984 0.1224616
0000e0 92 a1 8f be 3c 5b 2f 3e c0 a1 b5 3b 9f 6b 29 3e
       -0.28052956 0.17124647 0.0055429637 0.1654496
0000f0 76 13 3b be ac b7 8a 3b ae 9c 27 bf 8b 8a 18 3e
       -0.18269143 0.004233321 -0.6547345 0.148966
000100 40 6d 59 be fc 5a 91 3d 95 0f 52 3d 90 87 34 3d
       -0.21233082 0.07097432 0.05128439 0.044074595
000110 e1 90 0d 3f 55 2d 42 3d 41 54 0d be 9f e8 11 bc
       0.5529919 0.047406513 -0.13801672 -0.008905559
000120 46 4d 16 bf cf 56 8e bd d7 0a a5 3e 9b fd 88 3e
       -0.5871166 -0.06950151 0.32234833 0.26755986
000130 e2 6c c9 3d f8 6b 73 3e e1 99 9e bd 10 cc cf be
       0.09835221 0.23771656 -0.07744194 -0.40585375
000140 1c 75 b3 3e 3d cc 02 bd d2 2b 27 3e a7 e7 d8 be
       0.35050285 -0.031933058 0.1632531 -0.42364237
000150 a3 49 93 3e 85 0a a8 be 68 1f 49 bc 79 d0 5c be
       0.28767118 -0.32820526 -0.012275554 -0.21563901
000160 99 96 0d 3e 0a cf eb 3d 3a 7b ca bd b7 fa 60 3d
       0.1382698 0.11514099 -0.09886785 0.0549266
000170 50 85 33 be 3e 9b 03 3f a7 c6 ed 3d f1 36 aa 3e
       -0.17531323 0.51408756 0.116101556 0.33245042
000180 70 a6 19 be bf d5 68 3e 1b 80 f0 ba 99 7d 77 be
       -0.15004897 0.22737788 -0.0018348725 -0.24169005
000190 fe a0 38 3e e4 73 76 be 9d 04 0b 3e af 42 d4 3e
       0.18030164 -0.24067646 0.13575979 0.41457126
0001a0 3f 21 93 bd 30 8b 72 bd 9a 8e 9e 3d de 09 7e 3e
       -0.071840756 -0.05921477 0.07742043 0.24808452
0001b0 92 65 17 3e 28 29 e0 bd 43 2d 22 be 96 2f b9 3e
       0.1478484 -0.1094535 -0.15837578 0.36169118
0001c0 4e f0 5a 3d a3 ff b9 3e 67 95 7d 3e 8f dd e2 bd
       0.05345183 0.36327848 0.24764024 -0.11077415
0001d0 fa 3d 2c 3d 4a 3b 92 bd a5 16 89 be d2 b5 87 3d
       0.042051293 -0.07140215 -0.2677509 0.06626476
0001e0 fd 74 42 be 6c 31 12 be 06 9c c5 be f9 67 a8 bc
       -0.1898994 -0.14276665 -0.385956 -0.02055739
0001f0 7f e4 d1 be e7 af 05 3d 2b 4a 02 3e a9 6f 2d ba
       -0.4099464 0.032638457 0.12723605 -0.0006616065
000200 52 5d cd bd f0 e0 f0 bd 81 86 77 bc d1 9c a3 be
       -0.10027565 -0.117616534 -0.015107752 -0.3195558
000210 f0 aa 1c 3e f6 5c 0c be e9 d9 31 be d3 30 34 3e
       0.15299582 -0.13707337 -0.17368282 0.1759675
000220 9d a8 8d 3b 4b 61 d2 3d f9 70 00 be 2c c3 81 bd
       0.004323079 0.102724634 -0.12543096 -0.06336054
000230 77 59 30 3c 7a 4f 14 be 30 91 63 bd 65 41 34 3e
       0.010763518 -0.14483443 -0.055558383 0.17603071
000240 04 32 05 3f 1b a1 4e be 09 82 35 3e 35 c4 19 3e
       0.5202944 -0.20178644 0.17725386 0.15016253
000250 6e 72 f7 3d ab e7 f0 bd 97 5f 5e 3e 58 54 23 3e
       0.120823726 -0.11762937 0.21716152 0.15950143
000260 04 9d be bd 71 da dd 3c 70 28 cf 3d 6f 3f 9f 3d
       -0.09307292 0.0270817 0.10115135 0.07775771
000270 7f 3f cd bb e9 a2 e6 3e 90 c8 d6 bd 21 81 95 bd
       -0.006263673 0.45046166 -0.10487473 -0.0730002
000280 23 0c 99 3d 56 6a e7 bc eb f5 40 3e 3c 8f 99 3e
       0.07473018 -0.028248947 0.1884381 0.29992092
000290 75 30 a6 bd 99 2a 06 bf 93 88 01 bf 14 ff 54 3e
       -0.08114711 -0.5240875 -0.5059902 0.2080043
0002a0 02 6d 21 3e cd 3f 25 bd 13 04 46 3c 8f 1f b6 3e
       0.1576424 -0.04034405 0.012085932 0.35570952
0002b0 91 93 8a 3d 15 f4 b3 bd f1 e6 bc bc c2 ec bb 3d
       0.06766427 -0.08786789 -0.02305934 0.09176017
0002c0 b4 35 0c 3f 89 21 0f 3e 8f 0e de bd 5e 85 dd bd
       0.54769444 0.13977636 -0.108426206 -0.108164534
0002d0 5d d7 bc 3c 2a e7 02 3e 4b de c7 3d 66 34 ae be
       0.023051912 0.12783495 0.09759196 -0.34024352
0002e0 2d 12 6e be 70 54 1c bc 32 3e 40 3e 94 7c 9d 3e
       -0.23249121 -0.009541616 0.18773726 0.30759108
0002f0 18 4f 86 be d4 9e 15 3c 3d 1b f4 3d 8c b7 dc 3d
       -0.2623222 0.009132106 0.11919258 0.10777196
000300 92 f4 a2 bd 7e b2 c1 bd 77 ea cc bc c5 a6 9d bc
       -0.07956804 -0.09457873 -0.025014145 -0.019244561
000310 48 c5 5d be 90 fe 4c 3e b3 4f a0 bd 42 ab 7c 3d
       -0.21657288 0.20018983 -0.078277014 0.06168676
000320 e8 18 08 be 1e 98 c4 bd 68 e0 db 3e a5 af 30 3e
       -0.13290751 -0.095993266 0.42944646 0.17254503
000330 64 13 68 3e e2 2e d2 bd 69 ff 32 be 19 61 85 3d
       0.22663647 -0.102628484 -0.17480244 0.065126605
000340 81 95 50 be 3a 39 d4 bd 5c 3b a5 bd 50 07 8e be
       -0.20369531 -0.103624776 -0.080679625 -0.27739954
000350 d4 86 f4 bd 35 51 45 be 7f b9 79 3c 97 07 3a 3e
       -0.11939779 -0.1926926 0.01524198 0.18166958
000360 27 2e 7d 3d 44 61 cf bd 14 0a 5f 3d 09 68 13 be
       0.061811592 -0.10125974 0.05445297 -0.14395155
000370 c8 ba 83 be 99 c8 e5 be 39 c4 53 3d 97 5e 49 bc
       -0.2572844 -0.44879606 0.051700804 -0.012290618
000380 86 2b 19 3c 05 93 e6 3e 46 87 12 3d ff 7e 29 bc
       0.009348756 0.45034042 0.035773538 -0.01034522
000390 e0 6e ed 3c f7 02 d7 bd 32 76 ef bd 6c 56 10 3d
       0.028983533 -0.104986124 -0.11692466 0.03523867
0003a0 dd 68 70 3d 7f 69 8c 3d eb c7 4a 3d 64 0f 02 3e
       0.058693755 0.06856059 0.049507063 0.12701184
0003b0 ea 02 ba 3e 8a ff 49 3e c1 f2 87 3b ae de ff 3e
       0.36330348 0.19726387 0.0041488116 0.4997458
0003c0 2d 26 f0 38 56 bf 05 3e 9d 29 ff bd 6d c6 7f be
       0.000114512026 0.1306127 -0.12459109 -0.24978037
0003d0 de ea bd 3b 13 11 d2 be 87 d0 ae be 12 b6 57 3e
       0.0057958206 -0.41028652 -0.3414347 0.21065548
0003e0 39 6b 42 3d 1f 1a 8c bc f6 f2 ad be 05 f5 17 bf
       0.047465537 -0.0171023 -0.33974427 -0.59358245
0003f0 6a 76 c6 3d 5f 9c a9 3d f8 1e d3 bd 6f 3a 2d bd
       0.096905544 0.082817785 -0.10308641 -0.042292055

bias f4 [32]
000000 6c b2 9d 3d 2c f8 05 3e 4b e4 a1 bd f8 14 1e bc
       0.07700047 0.13082951 -0.079048716 -0.009648554
000010 39 4b ec 3b 24 50 b6 bd 01 cf 68 be 52 66 19 3d
       0.0072111157 -0.08902004 -0.22735216 0.037451096
000020 0f 76 21 bd 28 27 ce 3d 73 64 9d bd fd cf 74 bd
       -0.03941923 0.10066062 -0.07685175 -0.059768666
000030 cb c0 87 3d 46 75 c3 bd 95 18 6a bc 8c e3 5d bc
       0.06628569 -0.095438525 -0.014288087 -0.013543021
000040 a3 fb 58 3d f1 88 31 bc df f5 17 bd 93 83 08 bd
       0.052974354 -0.010835872 -0.037099715 -0.033328604
000050 0c 4d 9f 3d 72 66 a3 3d 6d 85 d3 3c 8e 3e 78 3b
       0.077783674 0.07978524 0.025820458 0.0037879082
000060 ca d4 07 be f3 b3 7b bd 0c b4 5a bd 9b 83 fe 3b
       -0.13264766 -0.06145091 -0.053394362 0.0077671534
000070 36 e9 c6 3d 4e c4 6c bd c9 55 58 bb f8 f8 93 3c
       0.0971245 -0.0578044 -0.0033010116 0.018063053

weight f4 [32]
000000 64 34 3d 3f 4e a7 39 3f ed ad 47 3f 81 d1 64 3f
       0.73908067 0.7252091 0.77999765 0.8938218
000010 fc 5e 4d 3f 2d 2c 7a 3f fd af 3e 3f 99 60 5d 3f
       0.8022306 0.97723657 0.74487287 0.8647552
000020 3f d0 38 3f a1 58 5c 3f e9 4e 81 3f 1f 99 4a 3f
       0.7219276 0.86072737 1.0102206 0.79139894
000030 05 d7 78 3f 81 d0 6e 3f d0 d4 54 3f 0a 39 80 3f
       0.97203094 0.932869 0.83137226 1.0017407
000040 c5 00 6b 3f 71 44 60 3f 29 33 83 3f a2 4f 3d 3f
       0.9179805 0.87604433 1.0249988 0.73949635
000050 4b 58 81 3f 42 d5 3d 3f f7 34 76 3f 2d 58 5c 3f
       1.010507 0.7415353 0.9617457 0.86072046
000060 f0 75 5c 3f 70 90 75 3f 4f c7 7c 3f bd 95 65 3f
       0.8611746 0.9592352 0.9874162 0.8968161
000070 96 2e 42 3f a8 ab 63 3f bd f8 5f 3f 5c 2d 75 3f
       0.75852334 0.889338 0.8748892 0.9577234

bias f4 [32]
000000 cb b6 9d 3d 95 30 84 3d 02 e9 29 be 92 ad 8d bd
       0.077008806 0.06454579 -0.16592792 -0.069178715
000010 06 70 e4 bd 2f a8 a1 bc 79 43 4c be 61 06 17 be
       -0.11154179 -0.019733516 -0.19947614 -0.14748527
000020 6e fd b2 bd 54 28 07 be cf dc 14 3b fc d4 f2 3c
       -0.08739744 -0.13198978 0.002271462 0.029642574
000030 33 c0 c8 3d d2 d9 31 bd 63 96 27 3e 96 86 67 bb
       0.09802284 -0.04342062 0.16365962 -0.0035328022
000040 b8 81 81 bb 21 d4 93 3d ed ad 64 3d 17 17 72 be
       -0.0039522313 0.07218195 0.05582993 -0.2364162
000050 16 35 5d bd fc 25 04 be da 0a 47 3c 09 05 9a 3b
       -0.054005705 -0.12905115 0.012148583 0.0047003073
000060 d7 bf 52 3d 0c f4 c7 38 3b 4b 96 3d b1 07 c5 3d
       0.051452484 9.534517e-05 0.07338568 0.09620608
000070 6d 49 98 3d 53 d7 9a 3d ee a9 0e 3d 3c 50 97 3d
       0.0743588 0.07560601 0.034830026 0.0738835
