model_new/BLSTM_2_-1_6.pt (torch, 15971 bytes, 41 tensors)

weight_ih_l0 f4 [16, 1]
000000 17 b2 ca 3d 7f 60 3d 3f 4e c2 13 3e c1 35 04 3e
       0.09897249 0.73975366 0.1442959 0.1291113
000010 6f 3d bb 3c a5 c1 22 bf 3a da 3f 3e d4 3c 0d 3e
       0.022856442 -0.6357673 0.1873559 0.13792735
000020 e5 69 c3 3d 2b 6b a4 be c2 eb fd bd 41 f1 d7 bd
       0.09541682 -0.32113013 -0.12398483 -0.105440624
000030 26 95 7a 3e d5 b3 35 3f a5 34 86 3e 57 5c 83 3e
       0.24470958 0.70977527 0.2621204 0.25656387

weight_hh_l0 f4 [16, 4]
000000 df cd eb bd 5d b6 98 3d 9d 58 6a 3d 49 c1 80 3d
       -0.11513876 0.07456658 0.057213414 0.06286866
000010 3d e6 41 be ba d9 71 3d 47 ba bd bd f2 21 52 bc
       -0.18935485 0.05904553 -0.09264045 -0.012825476
000020 45 41 16 bc 5d d2 94 bd f0 67 3c 3c 5f 5f b5 3c
       -0.009170835 -0.07266686 0.01149939 0.022140203
000030 2a 9b 8a 3d 3f 52 40 bd 2a 04 86 3d a9 6a 86 3d
       0.067678764 -0.046953436 0.06543763 0.065633126
000040 cb 6c 79 be fb c2 9e bd 03 fb 60 be ad e8 43 be
       -0.24357907 -0.07752033 -0.21970753 -0.19131728
000050 8a 59 cf bb bc ca cf 3c 68 eb 07 3d 18 c5 be 3c
       -0.0063278126 0.025365226 0.033183485 0.023287341
000060 d8 c7 0b 3e f0 d0 20 bc 2a 52 87 3d 79 94 40 3d
       0.13650453 -0.00981544 0.066074684 0.047016595
000070 e2 99 aa 3e 64 01 2f 3d c0 85 d8 3d 1b 44 9f 3d
       0.33320528 0.042725936 0.10572386 0.07776662
000080 0b f3 e7 be 27 de 69 bf cf 0b 26 3e ed 64 37 3e
       -0.45302615 -0.913546 0.16215442 0.17909594
000090 82 ea bb 3f f8 50 a8 bf f7 41 75 bf 87 49 84 bf
       1.4680941 -1.314971 -0.9580378 -1.0334939
0000a0 3f e9 4d 3d 6c dd 86 3e 46 69 3a 3d ee d2 54 3b
       0.05027127 0.26340806 0.045510553 0.0032474357
0000b0 21 9d c5 bd 13 ee 9a 3e b6 9f f9 bc 9e d2 64 bd
       -0.096491106 0.3025976 -0.030471664 -0.055864923
0000c0 34 cd aa be 23 09 aa bc 90 75 86 bd 7c 3c e9 3a
       -0.33359683 -0.02075631 -0.06565392 0.0017794515
0000d0 ca 6c 58 be f9 c4 91 3d 26 9f d4 bd e5 eb 87 bc
       -0.2113525 0.07117648 -0.10381918 -0.016591975
0000e0 86 7e 8b 3e 8e a7 52 3e df 74 21 3b 61 9a a5 bc
       0.27244967 0.2057173 0.002463631 -0.020215215
0000f0 cd 25 30 3e 9b bb 3e 3e 34 de 00 bc 6f 6a 4b bd
       0.1720192 0.18626253 -0.007865477 -0.04966205

bias_ih_l0 f4 [16]
000000 93 ed 25 3e 4e 79 de 3e 57 f5 19 bd 8b c8 6e bd
       0.16203909 0.43451923 -0.03758749 -0.05829672
000010 6a ba 45 3e 79 6b 1e 3c cd f2 63 bc 78 88 c9 bd
       0.19309393 0.009669178 -0.013912869 -0.098404825
000020 c1 c6 aa be 1f d2 2b 3f 1a c7 95 bd 54 b7 07 3d
       -0.33354762 0.67117494 -0.07313366 0.03313382
000030 6b bf e6 3e ee 88 f6 3e 17 7d 28 bd 6e 47 af 3b
       0.45067915 0.48151344 -0.04113492 0.0053490913

bias_hh_l0 f4 [16]
000000 7b d3 25 3e 4e 79 de 3e 53 7b 18 bd 9c bb 6e bd
       0.16193955 0.43451923 -0.037226986 -0.058284387
000010 90 d6 46 3e 8b 6b 1e 3c 1d 44 6f bc d7 0c ca bd
       0.19417787 0.009669195 -0.014603642 -0.0986573
000020 e0 60 8c be 03 20 fb 3e c7 3f 05 bd cc 42 40 3d
       -0.2741766 0.4904786 -0.032531526 0.046938702
000030 6a bf e6 3e ee 88 f6 3e 55 21 14 bc 9d 42 e4 3c
       0.45067912 0.48151344 -0.00904115 0.027863795

weight_ih_l0_reverse f4 [16, 1]
000000 4e d7 04 3e c1 ff 6f 3e 1a b8 78 3e c6 68 26 3e
       0.12972757 0.23437406 0.24288979 0.16250905
000010 65 b0 2e 3e 1a f4 5c 3e 9b 48 89 3e f3 6d ce 3d
       0.17059477 0.21577492 0.26813206 0.10079565
000020 fa bc 86 3d fa 1d 56 be 53 84 3a 3e e8 70 e9 bd
       0.06579013 -0.20909873 0.1821454 -0.11398488
000030 9f d0 72 3e e8 a5 b6 3e 3e 9d cc 3e aa 12 5f 3e
       0.23712395 0.3567345 0.39963716 0.21784464

weight_hh_l0_reverse f4 [16, 4]
000000 b1 49 f2 b9 09 fd 23 3c 48 51 96 bb c8 1b 25 bd
       -0.0004621274 0.010009059 -0.004587326 -0.040309697
000010 68 a3 0a 3c e6 f7 4c bc ec fd 22 3c b1 32 f6 3b
       0.008461811 -0.0125102755 0.009948235 0.007513367
000020 0d 37 2b 3c e7 fc c6 bc 3b 54 a5 3c 67 0a bd 3b
       0.010450137 -0.024290515 0.020181766 0.0057690623
000030 8d 7c ab 3c 27 b6 2e bd 8a a3 43 3d 7d 18 7a bc
       0.020933414 -0.042654183 0.047763385 -0.0152646275
000040 c4 5c 5d 3c 8a 45 91 bc 14 60 b8 3c b4 e1 be bc
       0.013510887 -0.017733354 0.022506751 -0.023300983
000050 02 38 b7 3c 42 7a 16 bd 78 69 0d 3d 7e be c7 3c
       0.022365574 -0.036737688 0.03452441 0.024382826
000060 3e 9f f9 3b 86 a1 57 bc e0 93 1c 3c 21 67 3d 3c
       0.00761786 -0.013161069 0.0095567405 0.011560232
000070 9b 53 c2 3c 93 c4 5e bc 39 ef 8b 3c ca cb 09 bd
       0.023721507 -0.013596672 0.017081844 -0.033641614
000080 1f bb dd 3c 51 db 3a 3d 7c e2 22 bd bf 4e f2 bd
       0.027066765 0.045619313 -0.039766774 -0.11831426
000090 0a ef d1 bd 42 e2 b0 3d 89 10 99 bd 1c 10 06 be
       -0.10250671 0.08636905 -0.07473857 -0.13092083
0000a0 4f 02 16 3d 9d 4b 19 be 20 f7 1b 3e 93 38 10 bd
       0.036623295 -0.1497025 0.1523099 -0.035210203
0000b0 e0 fd d7 3e 07 c7 a6 be 3c e6 96 3e 58 dd 93 be
       0.4218588 -0.3257372 0.2947253 -0.2887981
0000c0 30 5b da bb 59 3b 3d 3c 80 07 02 bc 95 91 1c bd
       -0.0066637024 0.011549794 -0.007936358 -0.038224775
0000d0 f9 52 48 3d 0a 43 8b bd 03 3d 8b 3d f0 71 1e 3d
       0.048907254 -0.06799896 0.067987464 0.038682878
0000e0 18 77 43 3d 06 84 8e bd de f2 8c 3d af ab be 3c
       0.047721 -0.06958775 0.06882261 0.023275224
0000f0 d7 ce f3 bc 26 39 39 3c 83 9d 8d bb 15 79 16 bd
       -0.029761715 0.011305129 -0.0043217554 -0.036736567

bias_ih_l0_reverse f4 [16]
000000 07 5f 4a bd 37 83 1c bc 04 d9 28 3d fa c9 d5 3c
       -0.04940703 -0.009552768 0.041222587 0.026097286
000010 86 c1 9e b9 17 f9 3e 3d 03 6d 11 3d b3 b4 fc bb
       -0.00030280295 0.04662427 0.035504352 -0.0077119707
000020 a5 1c 7b 3c 4a 9a 8a 3e 34 9e 87 be 6b ef 00 3f
       0.015326654 0.27070838 -0.26487887 0.5036532
000030 aa 43 f0 bc bc 6c 0b 3d 8d 1b e7 3c 07 5f 7e bc
       -0.02932914 0.034039244 0.02821138 -0.015525586

bias_hh_l0_reverse f4 [16]
000000 61 69 4a bd c6 83 1b bc 5f de 28 3d 1a da d5 3c
       -0.049416903 -0.009491866 0.041227695 0.026104975
000010 86 c1 9e b9 17 f9 3e 3d 03 6d 11 3d 16 c9 fc bb
       -0.00030280295 0.04662427 0.035504352 -0.007714401
000020 48 fb c2 3c df cf 8f 3e 2b fb 95 be 2a 87 00 3f
       0.02380146 0.2808828 -0.29293188 0.50206244
000030 12 41 f0 bc c2 6d 0b 3d 8f 1b e7 3c 3c a4 7c bc
       -0.029327903 0.03404022 0.028211383 -0.015420016

weight_ih_l1 f4 [16, 8]
000000 6b 28 32 3c 4e bd d5 bd 1a 0c df bd ed 0c bf bd
       0.010873894 -0.10436498 -0.1089098 -0.09328637
000010 cf d1 32 3e 81 48 31 be 39 3e 37 3e ab 62 a0 3d
       0.17462848 -0.17312814 0.1789483 0.078313194
000020 db a7 04 39 85 3c 19 b9 13 10 b7 b6 c0 2d 0c b8
       0.00012651032 -0.00014613762 -5.4556963e-06 -3.342121e-05
000030 52 be 3a b7 1d d8 01 b8 af 84 42 38 2e 4e 97 b8
       -1.1130776e-05 -3.0957268e-05 4.6376776e-05 -7.214803e-05
000040 0e bc 3c 33 a6 81 95 b6 46 4f 10 b6 48 1b c4 b6
       4.3943196e-08 -4.455639e-06 -2.1503815e-06 -5.844431e-06
000050 5d 31 da 36 f4 2d c4 b6 95 a2 c9 36 d2 65 4e 37
       6.502653e-06 -5.846605e-06 6.009194e-06 1.2302264e-05
000060 6b 80 3f 36 e2 f5 c3 34 ba 36 cb 36 05 f8 99 36
       2.8535967e-06 3.6500484e-07 6.0562425e-06 4.5886286e-06
000070 1f 84 05 b6 42 9a f2 35 31 46 f9 b5 f4 00 a3 36
       -1.989545e-06 1.80753e-06 -1.8572374e-06 4.8578895e-06
000080 e3 4d fe 3d 9c 96 49 bd 29 25 3c be e4 43 37 be
       0.124171995 -0.049215898 -0.1837355 -0.17896992
000090 cd 8d 2c 3e 14 83 38 be dd 77 37 3e 07 1b 4c 3d
       0.16850968 -0.18018752 0.17916818 0.049830463
0000a0 5f 34 0a 39 6e 75 fa b8 ac 3a 1d b7 91 40 38 b8
       0.00013180215 -0.00011942802 -9.37159e-06 -4.392915e-05
0000b0 9c d6 68 37 99 e4 b2 b7 e7 0b 17 38 ab 81 9e b8
       1.3878245e-05 -2.1325703e-05 3.601229e-05 -7.55818e-05
0000c0 3f 05 50 37 96 6c 4c 35 91 bc b3 b6 4c 94 93 b6
       1.2398988e-05 7.6153935e-07 -5.3565677e-06 -4.3982054e-06
0000d0 9a d8 f3 36 73 44 e2 b6 c6 2b af 36 bc 53 bc 36
       7.26718e-06 -6.7432934e-06 5.2205023e-06 5.6125846e-06
0000e0 90 c8 04 37 63 32 96 37 7c df ae 36 b4 c2 34 36
       7.91451e-06 1.7904857e-05 5.211621e-06 2.6935422e-06
0000f0 6b 7b 89 36 21 c9 32 36 6d 26 46 b6 94 87 cc 36
       4.097286e-06 2.664114e-06 -2.9526666e-06 6.095457e-06
000100 67 f6 1e bf 7e e9 d5 bd 37 16 d8 3e 74 a3 e7 3e
       -0.6209473 -0.10444926 0.4220445 0.45241892
000110 63 f9 78 be d9 b6 b7 be ab aa ff 3e a6 ce b5 be
       -0.24313883 -0.3588169 0.49934897 -0.35509223
000120 89 6b 14 3b 65 74 10 bb da 86 e1 b9 55 c2 ea b9
       0.0022647104 -0.0022042033 -0.00043015816 -0.00044776747
000130 86 44 0d 3b 1a 74 66 ba 01 d7 ea 39 a5 38 79 3a
       0.0021555736 -0.0008791104 0.00044792148 0.0009507037
000140 ea ec c2 3a 45 8b 5e b8 23 03 85 3a d2 76 18 3a
       0.0014871631 -5.305863e-05 0.001014803 0.00058160455
000150 d1 dc 50 3a 32 da a2 3a 78 d5 c2 ba 64 64 c1 ba
       0.00079674745 0.0012424646 -0.0014864644 -0.001475465
000160 5a fd 66 38 dd d0 89 39 dd 18 7a 3a cf 9d 1c 3a
       5.5072225e-05 0.00026286292 0.0009540448 0.0005974443
000170 86 60 82 b8 09 a7 38 3a 38 78 1d ba d5 ad a9 b9
       -6.216862e-05 0.0007043933 -0.00060069887 -0.00032363707
000180 94 2c a8 3d 37 c5 02 be e8 3b 29 be 59 37 22 be
       0.082116276 -0.12770544 -0.16526759 -0.15841426
000190 1d 64 37 3e ff fb 0f be f8 dc 14 3e 55 c5 af b8
       0.17909284 -0.14060973 0.14537418 -8.381406e-05
0001a0 de c8 d7 38 b2 a1 d2 b8 d8 bb 46 b5 26 c8 f1 b7
       0.00010289413 -0.000100436984 -7.4034097e-07 -2.882264e-05
0001b0 18 48 18 b8 4a 29 92 b7 ea da f5 37 8c 98 cd b8
       -3.6306767e-05 -1.7423783e-05 2.9308216e-05 -9.803576e-05
0001c0 93 eb 88 35 53 9d 89 b6 b5 bb db 35 d9 f9 99 b5
       1.0201351e-06 -4.101233e-06 1.6371401e-06 -1.1472104e-06
0001d0 2e 49 09 37 cd a0 e0 b6 e7 cc d6 36 27 b0 b0 36
       8.182875e-06 -6.69444e-06 6.4015508e-06 5.2657156e-06
0001e0 94 6b 1e 36 f1 06 17 37 c5 42 dd 36 8e 7d c6 36
       2.3606453e-06 9.0019175e-06 6.5940862e-06 5.9154763e-06
0001f0 5c 6f 0f b5 b8 a1 97 35 c6 6e cc b5 64 41 b6 36
       -5.34337e-07 1.1297443e-06 -1.5231424e-06 5.431635e-06

weight_hh_l1 f4 [16, 4]
000000 16 b0 fa bc c0 dc 84 ba 38 a9 94 39 15 12 90 39
       -0.030601542 -0.0010136589 0.00028354838 0.00027479292
000010 2f 90 0c b9 0f 69 2c b7 53 13 97 36 fa 6e b0 36
       -0.00013405153 -1.027646e-05 4.5024003e-06 5.258128e-06
000020 a7 38 0c b8 f1 13 06 b5 20 9a 4e 34 21 c1 47 34
       -3.3431363e-05 -4.994791e-07 1.9241315e-07 1.8603579e-07
000030 27 1b 6f b6 a5 f1 bb b5 57 ef 0f 35 a3 25 08 35
       -3.562958e-06 -1.4002914e-06 5.3619937e-07 5.0718717e-07
000040 ea 79 49 3c 0f e5 8e ba 11 c4 ee b8 ca cd 16 39
       0.012297133 -0.0010902005 -0.000113852446 0.00014381777
000050 42 55 0e b9 96 6b 45 b7 05 82 a6 36 42 ef b0 36
       -0.00013573936 -1.1767164e-05 4.962322e-06 5.273062e-06
000060 e2 5c 13 b8 5f e7 09 36 3b 39 3e 33 02 ec fe b3
       -3.5134035e-05 2.0549267e-06 4.4289873e-08 -1.1870726e-07
000070 61 ca 40 b6 b6 f2 ef b5 f5 eb d6 33 5d 55 94 34
       -2.872803e-06 -1.7877526e-06 1.0008072e-07 2.7629258e-07
000080 fa 50 1a 3f f2 c8 ab 3b 6d e1 89 bb 6e ed 26 bb
       0.6027981 0.0052424604 -0.004207781 -0.002547111
000090 d6 7c 9e ba 4b c5 69 b8 d7 28 06 38 00 7c 84 b7
       -0.0012091647 -5.5735272e-05 3.1986125e-05 -1.5793368e-05
0000a0 df 79 49 ba 04 6b ea b6 21 d0 37 b6 ec 7e fa 37
       -0.0007685702 -6.9862017e-06 -2.7390272e-06 2.9861425e-05
0000b0 b3 16 50 39 9d 3e 85 b8 95 bb 84 37 e4 af 22 b7
       0.00019844882 -6.353597e-05 1.5822976e-05 -9.696905e-06
0000c0 07 8a 9b bd 87 04 54 ba 5d 02 c8 38 c6 ea 26 39
       -0.07594686 -0.0008087833 9.537183e-05 0.00015918454
0000d0 1c f7 26 b9 b0 50 15 b7 29 17 c0 36 65 28 dd 36
       -0.00015923049 -8.899879e-06 5.724742e-06 6.591016e-06
0000e0 76 fe 8f b7 38 c6 08 b6 b6 61 84 35 61 cb c8 35
       -1.7165421e-05 -2.0380958e-06 9.863204e-07 1.4960352e-06
0000f0 aa ba 56 b6 88 58 13 33 75 27 9a 35 2f e2 41 35
       -3.1997138e-06 3.4306623e-08 1.1485378e-06 7.2227243e-07

bias_ih_l1 f4 [16]
000000 61 c3 91 3e a4 2f 6d b8 38 08 4e b7 3e 48 f9 b6
       0.28469375 -5.6549572e-05 -1.228047e-05 -7.4291884e-06
000010 58 e0 4f 3e 02 f4 68 b8 92 c8 4d b6 ff 1c 23 b7
       0.20300424 -5.554036e-05 -3.0664128e-06 -9.722308e-06
000020 7d 1d 24 3e 13 95 a2 3a 6b 8c 26 3a 6b a4 9e 38
       0.16026874 0.0012404047 0.00063533214 7.564652e-05
000030 a5 51 93 3e 1b 28 6d b8 9b 10 4e b7 fb 48 f9 b6
       0.28773227 -5.6542554e-05 -1.2282423e-05 -7.4292743e-06

bias_hh_l1 f4 [16]
000000 05 c6 91 3e a4 2f 6d b8 38 08 4e b7 3e 48 f9 b6
       0.2847139 -5.6549572e-05 -1.228047e-05 -7.4291884e-06
000010 5a d4 4f 3e 02 f4 68 b8 92 c8 4d b6 ff 1c 23 b7
       0.2029585 -5.554036e-05 -3.0664128e-06 -9.722308e-06
000020 04 0a 3b 3e 13 95 a2 3a 6b 8c 26 3a 6b a4 9e 38
       0.1826554 0.0012404047 0.00063533214 7.564652e-05
000030 fb 5a 93 3e 1b 28 6d b8 9b 10 4e b7 fb 48 f9 b6
       0.2878035 -5.6542554e-05 -1.2282423e-05 -7.4292743e-06

weight_ih_l1_reverse f4 [16, 8]
000000 5c bb b4 3d 59 df 76 bc 78 07 25 be da b6 19 be
       0.088247985 -0.015067899 -0.1611613 -0.15011159
000010 98 e6 bd 3d 65 52 15 be c5 70 13 3e 93 7d 07 bd
       0.09272498 -0.14582212 0.14398487 -0.03307874
000020 ae 8c cb bd 5c c4 5d 3d 2a 97 96 be 02 c4 60 be
       -0.09938942 0.05414234 -0.29412204 -0.21949771
000030 fd 7a 1d 3e 32 3d 8d bd eb 09 86 3d 58 6e bb 3d
       0.15378948 -0.06896438 0.065448605 0.09151906
000040 b6 ef 81 3d 7c f9 83 3d f3 e6 74 be a1 f4 7d be
       0.06344549 0.0644407 -0.23916225 -0.2480035
000050 75 f8 1b 3e aa 60 90 bd 3e 46 6e 3d 88 17 8b bb
       0.15231498 -0.07049687 0.058172457 -0.0042447485
000060 d3 1d 1e 3e 74 c6 cd bd 91 3a 55 be 9d 81 49 be
       0.15441065 -0.100476176 -0.20823123 -0.1967835
000070 d5 58 48 3e 2f 75 76 be d2 7c 7a 3e 50 fd 82 3d
       0.19565137 -0.2406814 0.24461678 0.06395972
000080 72 2b 10 3d 60 87 2e bd 6c 0d 79 bd 3d 0e 7c bd
       0.035197683 -0.042609572 -0.060803816 -0.061537016
000090 4b d6 86 3d 20 67 fa bd 98 60 0a 3e d9 e0 08 3b
       0.06583842 -0.12226701 0.1351341 0.0020885973
0000a0 87 fb 1d 3d 62 07 94 3c 16 18 cf 3d 24 0a ed 3d
       0.038569953 0.018069927 0.10112016 0.115742
0000b0 e3 fa e0 bd ef 5b ef 3c dc c5 74 bd 60 ed 24 3b
       -0.10985353 0.029218642 -0.059759006 0.00251659
0000c0 e1 84 c7 3d 3b 53 06 be 29 3b 26 be 15 d5 3f be
       0.097421415 -0.13117687 -0.16233505 -0.18733628
0000d0 5b 69 2f 3e ed c0 dd bd 8d 70 aa 3d a8 45 1d bb
       0.17130034 -0.10827813 0.083222486 -0.0023997817
0000e0 f2 96 b2 3d 9c 44 ba bd b6 1a ad bd be 27 ad bd
       0.08720197 -0.090951174 -0.0845236 -0.08454846
0000f0 3a e3 fa 3d bd 44 0b be de 24 0f 3e 8d 89 09 3d
       0.12250371 -0.1360044 0.13978907 0.033578444
000100 b1 25 e6 be 6e b4 02 3f ac 39 cd bc b1 a2 96 3d
       -0.4495063 0.51056564 -0.025051914 0.0735525
000110 f9 9c 45 bd c5 95 2b 3d 6c 19 a2 be 24 25 a0 3e
       -0.048245404 0.04189088 -0.3166002 0.31278336
000120 19 17 7d 3e fb 8f 02 c0 f8 9e 44 3e a0 b6 5d 3e
       0.24715842 -2.0400379 0.19201267 0.21651697
000130 7d 98 f1 bd 07 50 85 be 7d bc f5 3d dc 3f 03 be
       -0.11796663 -0.2603762 0.11998842 -0.12817329
000140 20 77 ab 3e 23 78 c1 3f 69 f6 98 be 78 06 c9 be
       0.33489323 1.5114788 -0.29875496 -0.39262748
000150 3b 87 71 3e 2a 66 8a bd d9 15 dc bd 17 b7 c0 3e
       0.23586743 -0.067577675 -0.107463546 0.37639686
000160 61 d7 e7 3e e4 f6 bb be 85 7d e8 bc 0e 0a a9 3c
       0.4528151 -0.367118 -0.028380165 0.020634677
000170 02 e6 19 3b 35 8c e9 3c ec 9e 19 be 7c 76 d2 be
       0.0023483043 0.028509239 -0.1500203 -0.4110602
000180 5e a1 93 3d a0 e0 21 bd 21 18 33 be 4d f4 26 be
       0.07208513 -0.03952086 -0.17489673 -0.16304131
000190 e2 54 fb 3d 5d df 3a be 3b ae 3e 3e d0 03 1b bc
       0.122720495 -0.18249269 0.18621151 -0.009461358
0001a0 a3 09 3e bd a7 f6 a1 3d 29 c9 aa be a1 7a 88 be
       -0.04639591 0.07908373 -0.33356598 -0.26656058
0001b0 25 34 3d 3e b9 e3 03 be 1d 99 fa 3d ac 41 b6 3d
       0.18476923 -0.12879838 0.12236235 0.08899245
0001c0 af 4b 13 bc 39 9b 90 bd 65 83 6b be 5c 4c 5f be
       -0.008990212 -0.07060856 -0.22999342 -0.21806473
0001d0 8b f2 4d 3e bd 63 e4 bd df e7 c7 3d f7 d9 92 3d
       0.20112054 -0.11151836 0.09761023 0.0717048
0001e0 cb 72 05 3e 4e 84 ba bd f5 f7 5e be 17 79 4d be
       0.13032071 -0.09107266 -0.21774276 -0.20065723
0001f0 7f 91 57 3e b8 33 8a be 53 b6 8c 3e fb a6 ab 3d
       0.21051596 -0.26992583 0.27482852 0.08381458

weight_hh_l1_reverse f4 [16, 4]
000000 05 02 51 bd 52 de a9 bc 39 09 80 3d 2c 94 53 3d
       -0.051027317 -0.020735893 0.06251759 0.05165498
000010 e6 64 ba bd da a3 01 3c 2c f9 4d bc 3b b4 de 3d
       -0.09101276 0.0079126 -0.012571614 0.1087422
000020 47 f6 c2 3c a2 15 12 be 7a 72 80 bc f3 c5 ae 3c
       0.023799075 -0.14266065 -0.015679587 0.021334624
000030 b5 97 ba bd a6 72 a1 bd 3f 1e 29 3e f5 e1 28 bc
       -0.09110967 -0.078831956 0.16515444 -0.010307779
000040 8e 7e 86 bd 44 41 12 3d ae aa 7f 3d e4 75 4d 3d
       -0.06567107 0.035706773 0.062418632 0.050161257
000050 fd 40 e0 bb 7a 30 18 38 0c bc c1 3d 59 cc 8c bd
       -0.0068436847 3.628477e-05 0.09459695 -0.06874914
000060 63 df d8 bd 61 63 31 3c 3d fa 27 3e 34 be 9b 3d
       -0.10589483 0.010826916 0.16404052 0.07604638
000070 89 cf 0b be 89 01 98 3d e3 de e6 3d 02 a2 e0 3d
       -0.13653387 0.07422168 0.11272981 0.109684005
000080 de 49 2a 3c 61 70 88 3e 15 8a b0 bd 68 64 34 be
       0.010393588 0.26648238 -0.08620087 -0.17616427
000090 a8 45 cf 3d 24 ab 8f 3e 37 ba d9 3e 0c fd 73 bc
       0.10120708 0.28060257 0.42524883 -0.014891874
0000a0 4e 55 6e 3d 3a 91 af be 95 43 a7 3e 40 3a 42 be
       0.05818682 -0.34290487 0.32668748 -0.18967533
0000b0 9c bb 09 3e dc fd 10 bf ff bc af 3d f2 79 36 3e
       0.13450474 -0.5663736 0.0858097 0.17819956
0000c0 5b c2 b2 bd 14 0a 19 3d 92 61 6f 3d ad 29 9e 3d
       -0.087284766 0.037363127 0.05844266 0.07722793
0000d0 62 e3 96 bd c6 4f 87 3c 6c 29 6a bd d8 09 85 3d
       -0.073675886 0.016517531 -0.05716841 0.06496018
0000e0 d7 58 1e bd 9e 59 22 bd 90 db d1 bb 67 4d ac 3c
       -0.038658943 -0.039636247 -0.0064043477 0.021033002
0000f0 fa 48 fe bd 11 62 78 3c f1 33 fa 3d 1d 8c eb 3c
       -0.12416263 0.0151601 0.12216938 0.028753335

bias_ih_l1_reverse f4 [16]
000000 3e 10 18 3e f3 a1 1e 3f 5a 09 d0 3e c7 60 53 3e
       0.14849946 0.61965865 0.40632135 0.20642386
000010 92 35 19 3d 59 0a e2 bd 39 81 3b 3e 55 99 ce 3d
       0.037404604 -0.1103713 0.18311013 0.100878395
000020 51 5a d5 bd 43 2c 0f 3e d5 37 1c be b7 01 4a 3c
       -0.10417617 0.13981728 -0.15255673 0.01232951
000030 fb 92 3c 3e 7e 9f 21 3f 82 d1 f0 3e 83 66 7b 3e
       0.18415444 0.6313399 0.47034842 0.24550824

bias_hh_l1_reverse f4 [16]
000000 e5 e9 19 3e 84 7d 1d 3f f2 66 d0 3e c6 60 53 3e
       0.1503063 0.61519647 0.4070354 0.20642385
000010 4b 35 19 3d db 2e dc bd f8 7e 3b 3e 55 99 ce 3d
       0.03740434 -0.107511245 0.18310153 0.100878395
000020 51 4d 96 3d 58 77 05 3e b0 ae 9c be 6a 5a 28 3e
       0.07338966 0.13033807 -0.30602026 0.1644074
000030 6d 66 39 3e e1 b1 1f 3f b1 9c f0 3e 83 66 7b 3e
       0.18105479 0.62380797 0.46994546 0.24550824

weight_ih_l2 f4 [16, 8]
000000 74 53 b7 bb c4 44 ba b9 02 26 8e 39 1c c4 8a 38
       -0.005594665 -0.0003552792 0.0002711267 6.616881e-05
000010 5f c5 36 be c7 69 2e 3e 55 de fb 3c be ec 0e 3e
       -0.17848729 0.17032538 0.030745665 0.13957497
000020 0f 1b 82 b5 c2 4a bf b3 c0 0a a8 b2 10 c2 19 32
       -9.69363e-07 -8.907729e-08 -1.9562663e-08 8.949897e-09
000030 ba 84 05 36 ef 50 5d b6 fe d8 ac b4 0b e8 dd 35
       1.9895801e-06 -3.2978676e-06 -3.219538e-07 1.6533317e-06
000040 4c 43 6e be 60 e3 2a b8 54 fa 17 ba a9 2b 0a bb
       -0.23267859 -4.0742918e-05 -0.00057974947 -0.0021083152
000050 3e db 38 be e3 8f 07 3e 34 43 c2 bc 3b bd c5 3e
       -0.18052384 0.13238482 -0.023713686 0.38620934
000060 9f 64 20 be b0 29 ba 3a 80 a9 12 3a e4 13 0a 3a
       -0.15663384 0.0014203098 0.00055947155 0.0005267246
000070 f7 c0 00 be 63 c0 d0 3d b5 e3 95 be 2d 16 83 3d
       -0.1257361 0.10192945 -0.2927529 0.06400714
000080 cb 43 cd bd fe cb 6f ba e5 45 35 3a c6 81 01 3a
       -0.10022696 -0.00091475237 0.0006915017 0.0004940297
000090 b4 35 3f be 54 66 ca 3d 37 03 d0 3d a5 ca 08 3e
       -0.1867283 0.09882799 0.10156863 0.13358553
0000a0 6a 95 86 32 e3 bc a3 33 66 55 21 b2 2c a2 3b b2
       1.5667599e-08 7.624637e-08 -9.390851e-09 -1.0921706e-08
0000b0 48 ff 29 35 ed c3 95 b3 bc 7f fa b5 51 29 2d 35
       6.332889e-07 -6.973992e-08 -1.8663627e-06 6.4507645e-07
0000c0 cc ef 42 be a4 d7 2e ba 6d cc a8 b9 8c fa d1 ba
       -0.19036788 -0.0006669706 -0.00032195766 -0.0016020103
0000d0 20 57 3d be 1c 09 62 3e fc 2f 13 bb b3 a2 b7 3e
       -0.18490267 0.22073787 -0.002245902 0.35866317
0000e0 21 63 1b be 8b ec c6 3a 9a 85 ad 3a b1 a0 84 3a
       -0.15174533 0.0015176696 0.0013238669 0.001011869
0000f0 05 51 84 3b ae 03 91 3d 67 2b bf be c8 df a8 bd
       0.0040379786 0.0708078 -0.373378 -0.08245808
000100 b4 3a 20 bd 26 19 d1 3a 68 bb 38 39 00 0b 30 ba
       -0.039118484 0.0015952929 0.00017617422 -0.00067155063
000110 15 03 12 bd d9 d2 c1 3d af 05 f0 be 80 e5 f5 3e
       -0.03564747 0.09464044 -0.46879336 0.48026657
000120 b1 ee 51 3a d5 58 12 36 3b bc b4 b6 b2 af 7c b7
       0.0008008285 2.1807402e-06 -5.386331e-06 -1.5061278e-05
000130 08 41 22 ba 78 a8 86 39 29 7b e5 b8 70 d4 cc 39
       -0.00061895 0.0002568399 -0.00010942511 0.0003906819
000140 6a 3c ca be c7 c5 63 39 6a 6d e1 39 1e 23 31 3a
       -0.39499217 0.00021722085 0.00042996864 0.0006757247
000150 a1 6e 84 bc 70 6b 08 3f 11 fe 27 3e 44 7f 94 be
       -0.016166033 0.53288937 0.16405512 -0.29003346
000160 24 e8 00 bf 4f f9 68 3b e3 a9 3d ba 28 e1 e6 b9
       -0.5035422 0.003554899 -0.0007235093 -0.00044036773
000170 e6 45 b4 3a 2e 2a cd 3e 0e 9b e1 be f9 7f 85 3d
       0.0013753742 0.40071243 -0.4406361 0.065185495
000180 22 55 9f bd 1c ef 6f b9 f6 f8 bf 39 87 dd a3 37
       -0.0777991 -0.00022881891 0.0003661585 1.953427e-05
000190 4b 12 54 be 36 1d 06 3e 52 90 a3 3d 64 86 41 3e
       -0.20710103 0.1309708 0.07986511 0.18898922
0001a0 c9 2d 98 b5 24 3d a3 b3 ee 0f c2 b2 06 0c 50 32
       -1.1338208e-06 -7.6014004e-08 -2.2591816e-08 1.2109927e-08
0001b0 2b de 0b 36 56 1c 4c b6 ac a1 69 b5 a4 60 9a 35
       2.0841933e-06 -3.0414863e-06 -8.703453e-07 1.150202e-06
0001c0 ee a9 8b be 14 84 ef b9 5b 5d 25 ba 4f 4a 0e bb
       -0.27278084 -0.00045684038 -0.00063081615 -0.0021711772
0001d0 98 46 2f be 91 1d e3 3d 08 3b 86 3b ca ae d4 3e
       -0.17116773 0.11089624 0.0040963925 0.41539603
0001e0 0e 74 2a be 94 39 28 3b 47 8d 7d 3a 19 6c 1d 3a
       -0.16645834 0.0025669085 0.0009672236 0.00060051825
0001f0 07 0f d9 ba ad 0e 86 3d e3 c6 13 bf 0b eb d9 3c
       -0.0016560265 0.06545768 -0.5772535 0.026601335

weight_hh_l2 f4 [16, 4]
000000 27 7f 35 3d 35 c5 86 39 50 68 f6 bb ce 34 a5 bc
       0.044310715 0.00025705402 -0.0075197592 -0.02016678
000010 d3 76 14 36 b1 9e 8a 30 df d9 44 b6 8b b2 49 36
       2.2122883e-06 1.0085924e-09 -2.9333094e-06 3.005526e-06
000020 7b 40 56 3e 0c 53 39 ba fb f4 92 3c 34 12 d1 3c
       0.20923035 -0.0007069565 0.017939081 0.025521375
000030 a7 ed 3f 3e c3 d8 fd b8 77 f9 55 3c 99 bd 56 3d
       0.18743001 -0.00012104355 0.013059965 0.05242691
000040 62 2b 86 3d b5 af 90 39 2f a4 1b 3d d3 41 c6 bc
       0.06551243 0.00027596732 0.037998375 -0.02420131
000050 f0 6b 2f 36 49 91 61 b1 60 aa d4 b5 8c 4e 47 35
       2.613986e-06 -3.2824394e-09 -1.5844817e-06 7.424758e-07
000060 bc 48 21 3e ee cc 19 ba 6b 1e 45 3d f6 02 d9 bc
       0.15750402 -0.0005867024 0.048124712 -0.02649067
000070 f9 c4 03 3e 90 b5 d2 b8 85 f5 c8 bc 26 28 29 3d
       0.12868108 -0.00010047399 -0.024531135 0.041298054
000080 bf b2 aa 3e ef 44 24 b9 fc 2e f6 bd 96 ce dc 3d
       0.33339497 -0.00015665939 -0.1202068 0.10781591
000090 16 34 92 37 9b 54 99 b6 cf 1a c7 39 ae 1f eb b9
       1.742881e-05 -4.5696047e-06 0.00037976212 -0.00044846296
0000a0 38 8b bf be 45 1c 52 39 53 8c bc 3e 9a c6 0c 3f
       -0.37410903 0.00020037692 0.3682581 0.5499054
0000b0 17 67 26 3d aa 2e d4 b9 86 3c 13 3f 37 18 33 3f
       0.040625658 -0.00040470558 0.57514226 0.69958824
0000c0 4b 5a ec 3d 71 db 97 39 ee b5 3a 3c 54 f6 8f bc
       0.115406595 0.0002896446 0.0113959145 -0.017573513
0000d0 89 7c f1 35 b4 9e 98 31 99 cf ff b5 ae 76 78 36
       1.7992144e-06 4.4418247e-09 -1.9059399e-06 3.702396e-06
0000e0 86 36 88 3e 3c 4f 5d ba 91 9d 86 3d 5d c3 14 3d
       0.26604098 -0.0008442288 0.06573022 0.036319125
0000f0 de 48 af 3e 39 b3 08 ba df 78 bc 3c f9 65 07 3e
       0.3423528 -0.00052146945 0.023006855 0.13222493

bias_ih_l2 f4 [16]
000000 c7 c9 63 3e ed e4 f3 b6 75 6b 81 3e d8 5b af 3e
       0.2224494 -7.268615e-06 0.25277296 0.3424976
000010 2b fc 6e 3e 94 57 99 b6 28 7f 59 3e 83 17 85 3e
       0.23338382 -4.5699508e-06 0.21239913 0.259945
000020 99 86 d2 3d f7 7b 49 b9 26 31 a3 be bd 3f e0 be
       0.10279579 -0.00019215034 -0.31873435 -0.43798628
000030 25 c3 93 3e 84 e3 f3 b6 1e 44 9a 3e e6 54 b8 3e
       0.2885982 -7.2684506e-06 0.30130094 0.36002272

bias_hh_l2 f4 [16]
000000 cd c9 63 3e ed e4 f3 b6 47 5a 52 3e 17 4c b8 3e
       0.2224495 -7.268615e-06 0.2054225 0.35995552
000010 2b fc 6e 3e 94 57 99 b6 b2 6d 71 3e 6b 28 5d 3e
       0.23338382 -4.5699508e-06 0.23577002 0.2159745
000020 ce ef a7 3d f7 7b 49 b9 8d 17 5f 3e 01 cc 38 be
       0.08200036 -0.00019215034 0.21786328 -0.18046571
000030 22 c3 93 3e 84 e3 f3 b6 f2 ad 91 3e ad 41 05 3e
       0.28859812 -7.2684506e-06 0.28453022 0.13013335

weight_ih_l2_reverse f4 [16, 8]
000000 c7 76 4f b6 8d 31 96 b2 a3 90 92 31 97 9d 40 32
       -3.0914541e-06 -1.7484831e-08 4.2656025e-09 1.1211703e-08
000010 49 8f 03 b6 6b 3c 50 35 bc 2b 4c 35 fd 77 ff b4
       -1.9603924e-06 7.757396e-07 7.6059564e-07 -4.7584754e-07
000020 25 f8 8f 3e 29 70 30 3a 5e 53 87 ba 16 9c ba b9
       0.28119007 0.00067305804 -0.0010324528 -0.00035592978
000030 63 46 72 3b 58 13 23 3e 5b aa 25 be f2 1e 16 bd
       0.0036968223 0.15925348 -0.16178267 -0.036650605
000040 00 e7 ae b6 d9 ba 60 34 82 a2 be b2 de 0e f3 32
       -5.212496e-06 2.09296e-07 -2.2192811e-08 2.8295684e-08
000050 1e 93 ce 34 89 f1 30 35 32 2f 08 36 48 09 0b b6
       3.8477532e-07 6.591659e-07 2.029305e-06 -2.0718016e-06
000060 9c c8 6a 3d 1b 3c 18 ba 3f f4 a5 3a 40 61 3a 3a
       0.057320222 -0.0005807296 0.0012661292 0.00071098283
000070 48 38 13 be 58 b8 21 bd 70 ca d5 3c b9 fb 3b 3e
       -0.14376938 -0.039482445 0.026097506 0.18357743
000080 28 1f 04 b6 c4 29 52 32 6b ba 01 32 cf 0d ae 31
       -1.9687668e-06 1.2233105e-08 7.551175e-09 5.0656364e-09
000090 40 d6 8c b5 79 44 4e 35 9c 5d 15 b4 1b ca 48 35
       -1.0493168e-06 7.684062e-07 -1.3910761e-07 7.479991e-07
0000a0 b2 fd 48 3e 91 53 f8 b8 b2 55 b1 b9 30 3d 5e b9
       0.19628027 -0.00011841127 -0.0003382392 -0.00021194364
0000b0 43 ad ad 3d 55 83 3c be 40 a3 07 be cd 70 6c bd
       0.08480313 -0.18409474 -0.13245869 -0.057724763
0000c0 9b 1d 8c 36 d5 1c 1c b4 4e 59 05 33 29 ed 3a b2
       4.1757717e-06 -1.4539121e-07 3.1047698e-08 -1.0880549e-08
0000d0 e2 5b 63 36 70 1b 2b b5 14 0f 05 b6 f0 f0 9f b5
       3.3879119e-06 -6.374239e-07 -1.982732e-06 -1.1916545e-06
0000e0 0e bf b6 3d bc b4 82 b8 75 94 88 3a b1 c7 b1 39
       0.089231595 -6.2325475e-05 0.001042022 0.00033908852
0000f0 df 1f 75 bd bf a9 9b 3c 98 7b 17 bd 28 32 8b 3d
       -0.059844848 0.01900184 -0.036983103 0.06796676
000100 f9 e6 b8 38 96 2e b6 38 34 14 de b7 47 52 f0 b7
       8.816826e-05 8.6871136e-05 -2.647387e-05 -2.8648543e-05
000110 31 df 86 39 9c 79 f1 b9 a4 56 c5 39 d3 f1 89 b9
       0.00025724762 -0.00046057708 0.0003763932 -0.0002631085
000120 ac 2f 26 bf 71 33 8f ba f0 4c ed ba c6 66 4c ba
       -0.6491649 -0.0010925365 -0.0018104594 -0.0007797297
000130 1b 5b f0 3e bb ce c9 bf a9 e2 32 3f 42 c5 0f bf
       0.46944508 -1.5766214 0.69877106 -0.56160367
000140 97 26 6f 39 b3 c3 01 38 31 54 ad b6 72 81 96 36
       0.00022807192 3.0938256e-05 -5.165603e-06 4.485418e-06
000150 44 aa 15 38 1a bf 28 b8 49 65 83 b8 88 0d b0 39
       3.568294e-05 -4.02323e-05 -6.2654326e-05 0.00033579418
000160 96 6b f9 be 9d 78 02 ba 32 d1 4d b9 6c 4e 14 ba
       -0.48714894 -0.0004977079 -0.00019628255 -0.0005657438
000170 11 1f 1f bf d3 0a 91 3e 28 32 20 3f 46 49 81 3e
       -0.6215678 0.2832857 0.6257653 0.25251216
000180 e4 b3 4f b6 d1 61 40 b2 78 c0 4d 30 16 c3 7b 32
       -3.0950114e-06 -1.1198112e-08 7.485208e-10 1.465448e-08
000190 7e 7c fb b5 cf 85 2f 34 3a 3b 2e 35 b6 8b 07 b5
       -1.8737189e-06 1.6346824e-07 6.490624e-07 -5.0494725e-07
0001a0 39 86 68 3e ec 04 94 3a c9 a5 0b ba 84 54 71 38
       0.22707452 0.0011292971 -0.0005327133 5.753759e-05
0001b0 92 c6 96 bc 0d f8 95 3d 97 21 68 be d7 19 1d bd
       -0.018405233 0.073227026 -0.22669064 -0.03835472
0001c0 6d 32 8c b6 cd 2d 78 34 cb 3a 9a b2 78 31 f9 32
       -4.1781955e-06 2.3113462e-07 -1.7954696e-08 2.9009911e-08
0001d0 9d eb e0 b3 c7 94 c9 35 3e f6 15 36 05 3c ce b5
       -1.04736706e-07 1.5018967e-06 2.2346062e-06 -1.5365664e-06
0001e0 f5 7d d2 3c cc 1f bb ba 35 9b 66 3a 35 61 52 39
       0.025694827 -0.0014276444 0.00087969314 0.00020063373
0001f0 07 85 20 be 3f a6 72 3d cd 18 99 3b c7 59 4a 3e
       -0.15675746 0.059240576 0.004672146 0.1976081

weight_hh_l2_reverse f4 [16, 4]
000000 b8 12 63 af e4 02 63 b5 6a a5 02 b0 a0 0f 21 36
       -2.065218e-10 -8.4568296e-07 -4.752879e-10 2.3999964e-06
000010 59 26 84 b9 12 22 cf 3d 90 57 a2 b7 52 e5 95 3b
       -0.00025205573 0.1011392 -1.935268e-05 0.0045744563
000020 90 a8 ff 30 60 64 18 b4 6d 15 5a b1 08 a1 15 b5
       1.86016e-09 -1.419262e-07 -3.1735354e-09 -5.5741157e-07
000030 5b 90 d4 b9 bf dc 3b 3e 31 92 92 39 f0 c5 3c bb
       -0.00040543344 0.18345927 0.0002795621 -0.0028804503
000040 8b ea e1 b0 9f ab 8c b5 8f d0 3d 2f 06 08 86 35
       -1.6437566e-09 -1.0480761e-06 1.7263545e-10 9.986113e-07
000050 a8 b2 be b9 2c b3 28 bd 1b 45 dd 39 c3 4a 10 be
       -0.00036372733 -0.041186497 0.00042203892 -0.1409102
000060 31 40 17 af c2 f4 2e 36 09 68 b0 b2 50 37 01 b6
       -1.3756175e-10 2.6070488e-06 -2.0536406e-08 -1.9254694e-06
000070 73 b6 7a b9 92 34 1b 3e d5 b1 d3 38 7d e8 8d 3b
       -0.00023909826 0.15156773 0.00010094388 0.0043306933
000080 be c9 90 b5 c0 35 48 39 20 1a 98 b6 20 4f b4 38
       -1.0787551e-06 0.0001909351 -4.5329944e-06 8.597807e-05
000090 4a 4a 0b 3a eb 92 01 3f 5c c7 bb b9 8b e8 53 bd
       0.0005313499 0.50614804 -0.00035815954 -0.051735442
0000a0 37 0b 73 35 20 60 e2 b8 c5 29 22 b7 7b cb 45 b9
       9.0540874e-07 -0.000107944245 -9.665678e-06 -0.00018863186
0000b0 54 2a 01 3a 5f 92 a0 be e5 a1 da b8 e7 63 8a 3e
       0.0004927267 -0.31361672 -0.00010425205 0.27029344
0000c0 a7 52 34 b0 44 a2 0e b5 96 bb 22 af ae 29 ec 35
       -6.5601075e-10 -5.313525e-07 -1.4800458e-10 1.7595501e-06
0000d0 b1 ed 71 b9 e9 dd 21 3d 6f e5 ad 38 e3 ce 4c bd
       -0.00023072098 0.03951827 8.292018e-05 -0.05000199
0000e0 6b d5 37 30 33 44 34 b6 4e 86 33 32 a4 41 b6 b3
       6.68783e-10 -2.6861787e-06 1.0449709e-08 -8.4869754e-08
0000f0 65 db 6b b9 ee 05 05 3e 97 59 97 37 e4 db b4 3c
       -0.00022493077 0.12990543 1.8042321e-05 0.022077508

bias_ih_l2_reverse f4 [16]
000000 2c 41 5e b6 a2 f0 fe 3e 3c ae 62 b7 aa 4e c4 3e
       -3.3118513e-06 0.49792963 -1.3511217e-05 0.38341266
000010 d0 f0 90 b5 c5 2b 07 bd 9f 45 22 b7 61 17 81 3e
       -1.0798922e-06 -0.033000726 -9.672162e-06 0.2521315
000020 1d 2c 36 38 c4 a8 b3 3e dd 7e 71 37 67 ab 93 bd
       4.3433265e-05 0.35089695 1.4394257e-05 -0.07210427
000030 f1 3f 5e b6 4f 14 f5 3e 0d ae 62 b7 7a 2c e9 3e
       -3.3117797e-06 0.47867057 -1.3511174e-05 0.45541745

bias_hh_l2_reverse f4 [16]
000000 2c 41 5e b6 0c e2 04 3f 3c ae 62 b7 50 8a cb 3e
       -3.3118513e-06 0.5190742 -1.3511217e-05 0.39753962
000010 d0 f0 90 b5 b0 8b 07 bd 9f 45 22 b7 f2 4e 80 3e
       -1.0798922e-06 -0.0330922 -9.672162e-06 0.2506023
000020 1d 2c 36 38 8d 08 f9 bd dd 7e 71 37 09 34 c2 3e
       4.3433265e-05 -0.12159834 1.4394257e-05 0.37930325
000030 f1 3f 5e b6 8b 32 e9 3e 0d ae 62 b7 09 61 04 3f
       -3.3117797e-06 0.45546374 -1.3511174e-05 0.51710564

weight_ih_l3 f4 [16, 8]
000000 8b 50 1c 3e 60 98 bb b7 6d ee 04 be ca 7b 23 be
       0.152651 -2.2363092e-05 -0.12981577 -0.1596519
000010 de 6f c9 b8 5b 2b a7 3d 87 da 19 b8 b2 00 16 3c
       -9.605264e-05 0.08162566 -3.6681562e-05 0.009155439
000020 7b 2a f7 3d 2d 37 c8 b9 d3 76 53 3d bc c7 3d 3d
       0.120686494 -0.00038188082 0.05162699 0.04633306
000030 53 a3 60 b9 94 ac a8 bd 3a 24 2a 38 a1 e1 d0 3d
       -0.00021423148 -0.08236042 4.0564897e-05 0.10199285
000040 b4 df 17 3e 92 ae d0 b9 e6 88 32 3d 68 da 39 3c
       0.1483143 -0.00039802917 0.043587588 0.011343576
000050 51 7e 8b 38 93 1a ad bc 9e 8d 96 37 fb 45 cf 3d
       6.651565e-05 -0.021130836 1.7947339e-05 0.101207696
000060 e9 b1 9e 3d 5b fe 3f b9 17 69 af 3d 92 40 a7 3d
       0.077487774 -0.00018309934 0.08564966 0.08166613
000070 7e ad db b8 da d0 2d bd 2b 23 93 38 8b 69 09 3e
       -0.00010475049 -0.042435504 7.016057e-05 0.13419168
000080 d5 4b 2c 3e 03 bb 02 39 86 73 a9 bd 2a b0 c0 bd
       0.16825803 0.00012467433 -0.082739875 -0.09408601
000090 70 7c 19 b9 f9 83 3c 3d 47 83 55 37 7a 59 a0 3d
       -0.00014637574 0.046024296 1.2726355e-05 0.07829566
0000a0 83 4f fd 3d 83 da a4 b9 03 45 26 3e 84 2c 27 3e
       0.12368681 -0.00031443321 0.16237263 0.16325575
0000b0 da af 69 b9 11 37 64 bd d2 7f e0 b8 14 8c f1 3d
       -0.00022286121 -0.055716578 -0.00010704961 0.11794296
0000c0 66 f7 d0 3d 11 58 95 ba dd e3 8a 3e e9 29 78 3e
       0.102034375 -0.0011394044 0.2712697 0.24234737
0000d0 80 3e 5a b9 3e 06 eb bb bc 11 7a 38 41 fb 0a 3e
       -0.00020813383 -0.007172375 5.962116e-05 0.13572408
0000e0 d7 ab 98 3d 0d 75 ca b9 7e 78 28 3e 6d e5 33 3e
       0.07454651 -0.00038615652 0.16452214 0.17567988
0000f0 f0 c8 5a b9 9e 55 81 bd 42 f3 cb 38 fa 64 2b 3e
       -0.00020864955 -0.06315158 9.7251046e-05 0.16737738
000100 fa 19 99 3d af ce 74 b9 d3 b5 5b 3d 9a 58 aa 3d
       0.07475658 -0.00023346649 0.053640198 0.08317681
000110 0f 2b 74 38 f7 29 01 bf c8 f5 bf b7 6a 19 38 3f
       5.8214235e-05 -0.5045466 -2.2883425e-05 0.7191378
000120 db 42 3f 3e b5 1d 31 ba a6 4c 7e 3e 8e 86 95 3e
       0.18677847 -0.0006756441 0.24833927 0.2920422
000130 c2 52 c4 39 e1 cd e9 be f6 bb 9d b9 3e 56 a2 3e
       0.00037445693 -0.45664886 -0.00030085415 0.31706423
000140 0d 59 42 3e dc dd b7 39 c8 98 d6 be 9d f1 a6 be
       0.18979283 0.00035069778 -0.41913438 -0.3260621
000150 eb 0c ac 39 76 dc eb 3e e1 0c 34 b9 c7 70 22 bf
       0.0003281602 0.46066636 -0.00017170935 -0.63453335
000160 65 d2 b9 bc 0e de c2 38 3b 66 9c 3e 1c 8b 1e 3e
       -0.022683332 9.292002e-05 0.30546746 0.15482754
000170 e8 b6 f6 35 4d e1 7c be 4e 27 c7 b8 a6 63 0b 3f
       1.8381661e-06 -0.2469532 -9.4963805e-05 0.54448926
000180 0c d0 86 3e 10 00 15 b9 ad 9d a7 3d f3 d4 ad 3d
       0.26330602 -0.0001420977 0.08184371 0.084878825
000190 d7 c1 93 b9 81 58 fb bd 60 3d b3 b6 b3 09 4e 3e
       -0.00028182447 -0.1227274 -5.3417607e-06 0.20120887
0001a0 97 15 47 3e e1 22 b2 b9 a1 52 f6 3d 5b ad 09 3e
       0.1944183 -0.00033976792 0.12027479 0.13445036
0001b0 8a 79 9e b9 a1 9a be bd bf 79 f4 38 a0 e1 08 3e
       -0.00030226662 -0.09306837 0.00011657504 0.13367319
0001c0 90 93 75 3e 0a 12 00 ba 77 8d fc 3d 71 b8 e8 3d
       0.23982072 -0.00048855005 0.1233167 0.113633044
0001d0 b8 3c 1d b9 8c d5 f7 bc 8c 40 97 38 fc 6c 1b 3e
       -0.00014995306 -0.030253194 7.212264e-05 0.15178293
0001e0 d4 ba 41 3e 26 cf fa b9 3a 2b 53 3e c9 5c 76 3e
       0.18918926 -0.00047838053 0.20621958 0.24058832
0001f0 24 aa 0b b9 24 41 de bd 8a 42 9e 37 22 06 4e 3e
       -0.00013319455 -0.10852268 1.8866052e-05 0.20119527

weight_hh_l3 f4 [16, 4]
000000 02 cd 19 3d 5c 2f e1 bc ed 1c 6e 3d d0 ae fd ba
       0.037549026 -0.027488403 0.058133055 -0.0019354466
000010 ec cd e1 3d 29 33 a8 3d ad 54 9e bd 6b 9f a3 3d
       0.110256046 0.08212883 -0.077309944 0.07989391
000020 b4 b2 5f 3e 6e 39 e2 3d d9 e2 bb bd 78 fd fd 3d
       0.21845514 0.1104611 -0.09174127 0.12401861
000030 70 21 bb 3d 0d 55 67 3d ed 09 9e bd 41 1d 9f 3d
       0.09137237 0.056477595 -0.07716737 0.077692516
000040 4a 55 40 bb 87 21 51 38 b7 83 8b 3c e3 fc 9c 3c
       -0.0029347711 4.9860708e-05 0.01703058 0.019163555
000050 0b 49 a4 3d c6 92 d9 3d 31 75 f5 bd d5 ef c4 3d
       0.08021744 0.10623698 -0.11985243 0.09616057
000060 57 10 eb 3d 08 0e a4 3d 7a 45 e2 bd 5a 0e dd 3d
       0.11477726 0.08010489 -0.11048408 0.10793753
000070 93 57 b2 3d ff 1c 7f 3d 7e 48 d5 bd 2b cd b7 3d
       0.0870811 0.062283512 -0.104142174 0.089746796
000080 b2 90 67 3f 3b a1 15 3e e1 35 12 be 5a a3 3c 3e
       0.9045516 0.14612286 -0.14278366 0.18421689
000090 51 71 f9 3c c6 74 32 bd 58 0f 7d bd b8 32 27 3d
       0.030449541 -0.043568395 -0.06178221 0.040819854
0000a0 36 91 11 3d cb db a6 3e 42 d0 ef bc 36 dd 94 bd
       0.035538875 0.32589564 -0.02927411 -0.07268755
0000b0 9c 8f 2a 3e 64 fe 80 bd 63 5f 9c bd 5c d6 1c 3d
       0.16656345 -0.06298521 -0.07635381 0.038290367
0000c0 b2 14 e8 3d 22 58 b0 3d a8 8d 0b be 29 3f 18 3e
       0.11332072 0.0861056 -0.13628256 0.14867844
0000d0 4b 49 4f 3e 3c 07 3d 3e fa b1 42 be 38 6e 38 3e
       0.20242803 0.18459791 -0.19013205 0.18010795
0000e0 ba 7b 92 3e 28 b6 4b 3e a3 57 42 be c7 3d 5a 3e
       0.2861002 0.19893706 -0.18978743 0.21312629
0000f0 b0 c3 30 3e c1 d9 24 3e a8 0d 51 be 5e ec 3a 3e
       0.17262149 0.16098692 -0.20415366 0.1825423

bias_ih_l3 f4 [16]
000000 8a 86 fc 3e b4 90 47 3e 8a 94 8d 3e ca b8 44 3e
       0.49321395 0.19488794 0.2765239 0.19211116
000010 a7 98 e2 3e 77 3d dd 3d ac 63 dc 3d 3a be d8 3d
       0.4425709 0.10802739 0.107611984 0.10583158
000020 67 9f e1 3e 4b 68 9f 3d 83 cf 60 be 2b 40 52 3e
       0.44066927 0.07783564 -0.2195416 0.2053229
000030 08 56 00 3f 6a f7 9f 3e 98 63 d0 3e 32 43 a6 3e
       0.50131273 0.3124345 0.40700984 0.3247314

bias_hh_l3 f4 [16]
000000 a0 b0 f1 3e 77 b5 47 3e ea 19 9d 3e 33 5a 49 3e
       0.47205067 0.19502817 0.30683833 0.19663315
000010 c6 32 db 3e 50 a7 db 3d a4 b0 2a 3e 57 58 35 3e
       0.42812175 0.10725272 0.16668946 0.1770948
000020 8e ae 25 3d 08 0d 8d 3d 0c 74 77 3d d9 c0 78 bb
       0.04044967 0.06887251 0.060413405 -0.0037956743
000030 31 04 05 3f 46 f8 9f 3e 16 b4 d7 3e f9 27 33 3e
       0.5195952 0.31244105 0.42129582 0.17495717

weight_ih_l3_reverse f4 [16, 8]
000000 35 bf 4d 3e 6a 30 dc b8 04 3f 0f bb 10 70 88 3d
       0.20092471 -0.00010499435 -0.0021857629 0.06661999
000010 d0 f5 20 39 0f f7 0b bd e8 94 32 38 e1 ad 60 3d
       0.00015350361 -0.03417116 4.2577187e-05 0.054853324
000020 e5 c7 88 37 7a fc 89 32 79 2d 91 b6 4b 95 e3 37
       1.6305547e-05 1.6063712e-08 -4.3266305e-06 2.7130029e-05
000030 9f 7c 18 b2 4c 22 8f b5 8d 24 f9 b3 51 cc e6 36
       -8.8759e-09 -1.0664312e-06 -1.16016146e-07 6.8783197e-06
000040 d7 f5 52 b5 de 8c d9 b2 b9 51 3b 36 75 a0 ef 35
       -7.858884e-07 -2.5326184e-08 2.791274e-06 1.7853587e-06
000050 f3 ba 58 32 fa de c3 b6 ba 5a 91 31 c2 11 24 35
       1.2615362e-08 -5.8374108e-06 4.23037e-09 6.11206e-07
000060 b7 fd e6 3d 9f 6b cd b9 fd d5 4b 3d a3 56 5a 3d
       0.11278861 -0.0003918083 0.049764622 0.05330528
000070 37 b0 9e b9 60 a3 06 bd ef ee de 36 1f 5a 75 3d
       -0.000302674 -0.03287065 6.643931e-06 0.0599004
000080 49 a3 01 3e 69 20 bf b6 73 f1 c1 bc 4a b8 96 3b
       0.12659945 -5.6960166e-06 -0.023674702 0.0045996057
000090 2a 2e 54 38 38 f9 11 be 07 4d 75 38 c8 2b bd 3d
       5.0587732e-05 -0.14255226 5.848429e-05 0.09236866
0000a0 23 6f d6 36 46 23 65 32 40 23 20 b7 c4 1c 80 b7
       6.390635e-06 1.3337575e-08 -9.54495e-06 -1.5272184e-05
0000b0 c6 3c ea b1 7a e1 e5 36 b7 39 03 b3 01 be fa b4
       -6.8172055e-09 6.8509808e-06 -3.0553306e-08 -4.6704375e-07
0000c0 43 4c aa b5 59 41 bf b0 8c 23 bb b6 e6 16 0c 37
       -1.2688182e-06 -1.3915652e-09 -5.5771725e-06 8.349982e-06
0000d0 f8 5c 81 32 39 e9 8a 36 e7 c2 c5 b0 7f f4 35 b7
       1.5059854e-08 4.139871e-06 -1.4389031e-09 -1.0845367e-05
0000e0 4e be 2f 3d d4 11 54 b9 54 95 1c 3c 6d 90 83 3c
       0.042906098 -0.00020224537 0.009557087 0.016060079
0000f0 73 d2 61 b9 4f 7b cc bc ae 0e 25 38 49 00 8d 3c
       -0.0002153607 -0.024961142 3.9352737e-05 0.01721205
000100 41 e4 a8 3d 8f c6 a4 3a 01 30 aa 3e ce 87 1f 3f
       0.08246661 0.0012571382 0.3323975 0.62316597
000110 f1 2c d6 39 81 49 17 bf 8d 05 50 b9 71 45 22 3e
       0.00040850745 -0.59096533 -0.00019838494 0.15846802
000120 ec 36 e5 39 83 59 a2 35 6f ce c0 b8 42 7e 4a 3a
       0.00043719204 1.2095992e-06 -9.193725e-05 0.00077245024
000130 ab 96 81 36 b3 83 66 bb 1a e8 35 37 41 77 ce b9
       3.8620396e-06 -0.0035173714 1.0842481e-05 -0.00039380233
000140 be f2 80 3a 91 41 a0 36 de 93 10 ba b9 f4 b8 3b
       0.0009837968 4.7760045e-06 -0.0005515198 0.0056444076
000150 63 2c 26 37 a6 5f 06 ba 0b 33 66 36 19 a5 7f ba
       9.904706e-06 -0.0005125947 3.4302382e-06 -0.00097520795
000160 67 94 1f bd db 62 83 b7 14 30 a1 3e 9f f7 bb 3e
       -0.038959887 -1.566245e-05 0.31481993 0.36712357
000170 be aa f7 b8 5a 47 c8 be 76 14 c4 36 90 50 dc 3e
       -0.00011809681 -0.39116937 5.843637e-06 0.43030214
000180 4d 1d 6a 3e 6d 31 ba 37 d9 64 11 bd 02 a5 21 3d
       0.2286274 2.2195944e-05 -0.035496566 0.039464004
000190 39 dc 2f 39 02 81 ed bd a0 b7 ee 38 c2 43 7c 3d
       0.0001677134 -0.11596872 0.00011382927 0.061588056
0001a0 d2 6d 7e 37 64 13 c7 32 ae 3a c0 b6 fe 5d d4 37
       1.5165149e-05 2.3175467e-08 -5.728877e-06 2.5316138e-05
0001b0 38 dc 97 32 21 f1 da 35 8e 50 fa b3 f0 6d 08 37
       1.7678857e-08 1.6312443e-06 -1.1656185e-07 8.1318285e-06
0001c0 b9 83 8c b5 1c 15 b9 b2 82 9f 42 36 f8 32 b2 35
       -1.0469149e-06 -2.1546434e-08 2.9001098e-06 1.3276867e-06
0001d0 dd 38 b7 31 99 f4 c2 b6 8b 8f 93 32 6f 9f 9c 34
       5.3324656e-09 -5.8101255e-06 1.7178328e-08 2.9173268e-07
0001e0 44 4d 08 3e db 79 cc b9 cf 9c 65 3d ba 53 75 3d
       0.13310724 -0.00039000702 0.056057747 0.0598943
0001f0 e3 8c 87 b9 38 27 83 bd df 67 73 b7 62 b3 a6 3d
       -0.00025854175 -0.06403965 -1.4508113e-05 0.08139683

weight_hh_l3_reverse f4 [16, 4]
000000 d4 33 f3 3c 77 7f b2 b4 57 ac f6 38 04 23 17 3d
       0.0296878 -3.3247827e-07 0.00011762295 0.036898628
000010 b2 d6 29 b7 58 6d 29 33 9f 5a ab b2 f9 a1 c9 b6
       -1.0123173e-05 3.9447826e-08 -1.994823e-08 -6.009123e-06
000020 c7 8e 82 36 0c 24 e9 b0 60 0e 31 b2 41 5f e1 b6
       3.8909234e-06 -1.6963226e-09 -1.03060245e-08 -6.7166116e-06
000030 0f 60 09 3d e1 91 c6 37 40 d9 33 38 3c 2b 50 3c
       0.033538874 2.367137e-05 4.2879255e-05 0.01270562
000040 fe 47 b2 3c 72 c0 d2 38 5f 26 82 39 8a 6e 5c 3d
       0.021762844 0.00010049426 0.0002482412 0.053816356
000050 31 9a 70 b7 95 29 48 33 e0 c3 c6 b2 5b 91 9e 36
       -1.4341015e-05 4.6603947e-08 -2.3139307e-08 4.7256885e-06
000060 e3 77 21 37 d8 18 9e b2 30 3f 0f b3 f8 ab d8 b6
       9.624261e-06 -1.8404918e-08 -3.335225e-08 -6.4573214e-06
000070 bc 07 d4 3c 03 31 7e b8 d2 64 2a 38 d3 3e 58 3c
       0.025882594 -6.0603965e-05 4.0625055e-05 0.013198572
000080 6d b0 f0 3e b0 06 ff b9 1f 4d f2 ba 4c e0 a0 bc
       0.47009602 -0.00048642373 -0.0018486119 -0.019638203
000090 36 7e 0e ba 73 86 23 b7 6b c8 11 36 62 28 b6 b8
       -0.0005435677 -9.746861e-06 2.1723342e-06 -8.685958e-05
0000a0 14 0e fc 39 33 c0 fa b6 38 86 3b b7 5d c4 96 b9
       0.00048075675 -7.4729555e-06 -1.1177319e-05 -0.00028756532
0000b0 69 ac 24 3e c2 29 59 38 32 2f b6 39 9e 40 c0 3c
       0.16081394 5.177572e-05 0.00034748908 0.023468312
0000c0 81 44 22 3d 32 fc d5 37 10 6b 80 39 6a 67 80 3d
       0.03961611 2.5509016e-05 0.0002449383 0.06269725
0000d0 a5 c0 1e b7 b2 cb 1b b3 67 97 5d 32 b2 c8 11 b7
       -9.462387e-06 -3.627401e-08 1.2898318e-08 -8.6894015e-06
0000e0 ad 1c a1 36 d0 c7 4d b2 cd 60 f4 b2 51 d8 f7 b6
       4.801512e-06 -1.1978003e-08 -2.8449358e-08 -7.386356e-06
0000f0 7c 54 5b 3d 3c fa ba b8 db 35 07 39 15 66 ec 3c
       0.053547367 -8.915781e-05 0.00012894666 0.02885727

bias_ih_l3_reverse f4 [16]
000000 e6 89 b8 3e 97 c1 2f b8 91 8c 07 37 0a ee 57 3e
       0.36042708 -4.1903546e-05 8.079355e-06 0.21086898
000010 be 8d 82 3e ac b4 24 b7 00 15 3b b7 84 e7 43 3d
       0.25498766 -9.817228e-06 -1.1150958e-05 0.047828212
000020 23 9f 85 be a3 65 e6 b9 01 30 93 3b 1d 8b 99 3d
       -0.26097974 -0.00043944744 0.0044918065 0.07497237
000030 65 c3 da 3e 37 be 2f b8 b8 96 07 37 f5 66 7d 3e
       0.427272 -4.1900403e-05 8.081719e-06 0.24746306

bias_hh_l3_reverse f4 [16]
000000 d4 f9 ca 3e 97 c1 2f b8 91 8c 07 37 9c 14 55 3e
       0.3964373 -4.1903546e-05 8.079355e-06 0.20808643
000010 3c 8f 82 3e ac b4 24 b7 00 15 3b b7 84 e7 43 3d
       0.25499904 -9.817228e-06 -1.1150958e-05 0.047828212
000020 bc 3f c7 bd a3 65 e6 b9 71 9d 2b bb 8a 01 dd 3d
       -0.09728953 -0.00043944744 -0.0026186372 0.10791309
000030 66 2c e8 3e 37 be 2f b8 b8 96 07 37 bf c2 7e 3e
       0.45346373 -4.1900403e-05 8.081719e-06 0.24878977

weight_ih_l4 f4 [16, 8]
000000 8f 2c 4a 3e a9 b4 fa 3d ef 29 96 bd c2 b9 ef 3d
       0.1974356 0.122414894 -0.07332217 0.11705352
000010 50 fa ee 3d a1 a6 21 ba 2f 95 82 39 ec 49 91 3d
       0.11668837 -0.0006166492 0.00024906683 0.070941776
000020 54 21 ca 3d 6e d2 da 3d 93 84 ed bd 36 41 d5 3d
       0.09869638 0.106846675 -0.11597552 0.104128286
000030 89 0e ac 3d 40 d7 86 3a a1 03 32 3a 8a 2f a2 3d
       0.0840121 0.0010287538 0.0006790702 0.079192236
000040 43 90 f2 3d d0 7f c0 3d 4c 51 07 be e7 e1 dd 3d
       0.11843922 0.09399378 -0.13214606 0.10834103
000050 db 1d ab 3d 68 37 f8 39 b1 e4 12 3a 57 6f ab 3d
       0.08355304 0.00047343527 0.00056035357 0.08370846
000060 42 f9 f1 3d e6 88 c8 3d 6b b9 06 be d8 59 e0 3d
       0.1181512 0.09791736 -0.13156669 0.10954636
000070 d1 05 b1 3d a7 92 a6 39 b4 88 19 3a c3 68 ab 3d
       0.086436875 0.00031771252 0.0005856857 0.08369591
000080 e8 bd db 3d 5d fa 35 3e 62 c0 29 be 51 d8 1b 3e
       0.10729581 0.17771287 -0.16577294 0.15219237
000090 9c 88 a4 3e 9d d4 0b ba c5 aa 31 3a 49 e5 ea 3d
       0.32135475 -0.0005334111 0.0006777461 0.11469514
0000a0 ba ed 9a 3d 8a 11 1b 3e ce 77 3b be 0c 86 0b 3e
       0.07564874 0.1514341 -0.1830742 0.13625354
0000b0 a3 d8 20 3e d2 07 65 3a 37 9b 3f 3a be 8c d3 3d
       0.1570764 0.0008736822 0.00073092006 0.10329579
0000c0 2b c0 01 3e 33 02 09 3e f6 0c 43 be 39 f1 16 3e
       0.12670963 0.13379745 -0.19047913 0.14740457
0000d0 37 ae e2 3d 27 bf d7 39 5b a5 1e 3a 85 48 cf 3d
       0.11068385 0.00041150415 0.00060518616 0.10121254
0000e0 ae ba 01 3e cd 95 07 3e 5e 72 3f be 16 54 15 3e
       0.12668869 0.13240738 -0.18695971 0.14582857
0000f0 67 bf f2 3d 47 e4 b9 39 11 ad 17 3a db c6 c7 3d
       0.11852913 0.0003545603 0.0005785982 0.097547255
000100 22 7b 0a be a9 ed 2d be 17 be f7 3e 2e f8 b1 be
       -0.13523534 -0.16985191 0.48387215 -0.3475966
000110 a8 f4 46 bf 53 a5 26 b9 47 89 8c b9 9a 19 fc be
       -0.77717066 -0.00015892582 -0.0002680516 -0.49238282
000120 7a b5 af 3e 29 01 17 3e 7c 94 a9 be a5 c4 33 3e
       0.34318143 0.14746536 -0.33121097 0.17555483
000130 7a 5a bd 3e 94 e0 e1 b9 ed fd 39 3a 57 53 91 3e
       0.3698309 -0.00043082668 0.0007095028 0.28383896
000140 19 98 b3 be af d9 17 be 65 52 81 3e bc e5 35 be
       -0.3507698 -0.14829133 0.25258175 -0.17763418
000150 4f 0c 19 be 04 97 8c ba c9 5d 75 b8 54 01 35 be
       -0.14946102 -0.0010726159 -5.8499896e-05 -0.17676288
000160 65 b7 7b be 74 2e 24 be 8d b0 91 3e 07 18 3a be
       -0.24581678 -0.16033345 0.2845501 -0.18173228
000170 71 2b 4c be ec 80 53 b9 a0 bd d8 37 59 28 4d be
       -0.19938447 -0.00020170555 2.5837508e-05 -0.20034923
000180 67 2f a4 3e 8a db 81 3e cf 8b 6d be 31 c6 84 3e
       0.32067415 0.25362808 -0.23197864 0.25932458
000190 9f d9 3e 3d ea fc 15 3a 21 90 32 3a 5b d0 b7 3d
       0.04659426 0.0005721586 0.0006811638 0.089752875
0001a0 be 4c 81 3e 35 56 84 3e 8f 97 8d be 26 d0 83 3e
       0.25253862 0.2584702 -0.27654693 0.25744742
0001b0 ee 23 7e 3d c6 bd 58 3a 5f 25 4d 3a ea 43 d2 3d
       0.062045984 0.00082680245 0.0007825698 0.1026686
0001c0 03 65 91 3e af 1e 8d 3e c6 fc a6 be bb 89 8a 3e
       0.28397378 0.27562472 -0.32614726 0.27058205
0001d0 38 c0 f5 3d 0f ab d2 39 5f 99 34 3a ca 5a 01 3e
       0.119995534 0.0004018177 0.0006889309 0.1263229
0001e0 7f 40 90 3e 18 d1 8c 3e 5e 89 a1 be 98 9c 89 3e
       0.28174207 0.27503276 -0.31550115 0.26877284
0001f0 64 5a e0 3d 9c b8 a9 39 c9 1f 2b 3a 8f 8d f6 3d
       0.10954741 0.00032371737 0.00065278687 0.12038719

weight_hh_l4 f4 [16, 4]
000000 a2 5b db bd 10 f2 14 3e 47 59 39 be 10 29 34 be
       -0.10710837 0.14545465 -0.18100463 -0.17593789
000010 ac a5 03 be 6c 24 ba 3d a7 34 d1 bd 8a 6d d0 bd
       -0.12856168 0.09088978 -0.10215121 -0.10177143
000020 a8 af d8 bd ab 9f af 3d e9 b9 c1 bd 98 4d c6 bd
       -0.10580379 0.08575376 -0.09459288 -0.096827686
000030 da 28 ef bd 1a 86 b7 3d 89 dc c6 bd 19 6b c8 bd
       -0.11677714 0.08961125 -0.097100325 -0.09786052
000040 b6 94 8b be c6 9e 6d 3e 46 b1 43 be 65 4a 51 be
       -0.27261895 0.23205099 -0.19110593 -0.20438536
000050 82 2a 72 be 37 bf 0c 3e a6 e4 03 be 33 3a 07 be
       -0.23649028 0.13744818 -0.12880191 -0.13205795
000060 a0 f8 2f be f5 c2 0f 3e cc 17 0a be 17 5f 0f be
       -0.17184687 0.14039214 -0.1348564 -0.14001118
000070 91 46 3b be 12 ba 11 3e 56 d6 0c be 86 47 12 be
       -0.18288638 0.14231136 -0.13753638 -0.14285097
000080 91 5a 1f be 91 93 ef 3e 23 dc fc bd 4b f0 c4 be
       -0.15561892 0.46792272 -0.12346675 -0.3846458
000090 8a a4 3e be 54 14 dc bd 1c 8a 2a 3d 3b 7e dc bd
       -0.18617454 -0.10746065 0.041635618 -0.10766264
0000a0 ee 67 03 3e 3e cb ae bd 49 34 98 3d 33 90 8e 3d
       0.12832615 -0.08534859 0.074318476 0.069610976
0000b0 06 63 26 3e ab 15 bc bd 00 1a 49 3d 65 9e 80 3d
       0.16248712 -0.0918382 0.04909706 0.06280211
0000c0 ab 54 9d be e0 cf a4 3e 6f b1 b7 be d4 ce b4 be
       -0.3072866 0.32189846 -0.3587756 -0.35314047
0000d0 3d b3 ab be 48 bd 96 3e 7d 1f 9f be cd e1 9e be
       -0.33535185 0.29441285 -0.3107871 -0.31031647
0000e0 a0 a3 b5 be c6 2b 93 3e 48 59 95 be 0c 24 95 be
       -0.35476398 0.28744334 -0.2916968 -0.29129064
0000f0 cc 39 b8 be 70 73 97 3e 5b 37 98 be ae ad 99 be
       -0.35981596 0.2958026 -0.29729733 -0.3001532

bias_ih_l4 f4 [16]
000000 6b 47 aa 3e f7 c4 61 3e 47 30 42 3e d5 c1 35 3e
       0.33257613 0.22047792 0.18963729 0.17749722
000010 bb 28 63 3e 8a 03 20 3e fa 0e 20 3e 81 0a 17 3e
       0.22183506 0.1562635 0.15630713 0.147501
000020 40 47 b1 be 24 e8 6e bb 6b 1b 23 be 25 d6 0c be
       -0.34624672 -0.0036454285 -0.15928428 -0.13753565
000030 4f a1 fb 3e 49 0e d9 3e c1 45 ba 3e 88 6f b5 3e
       0.49146506 0.4239371 0.36381343 0.35436654
