model_new/BLSTM_2_-1_8.pt (torch, 15971 bytes, 41 tensors)

weight_ih_l0 f4 [16, 1]
0	0x3d6da2f5	0.058016736
1	0x3f3340d2	0.7002078
2	0x3e02d8ce	0.12778017
3	0x3dd78c99	0.10524864
4	0x3e67b99a	0.22629395
5	0xbf071b73	-0.5277626
6	0x3f0b0e17	0.54318374
7	0x3d4a3fe4	0.049377337
8	0x3e5e7c18	0.21727026
9	0xbebf8eac	-0.37413538
10	0x3daf513b	0.08560415
11	0x3c77378b	0.015088926
12	0x3e9dd03d	0.30822936
13	0x3f2bb1dc	0.67068267
14	0x3eae6732	0.34063107
15	0x3e6a2f21	0.22869541

weight_hh_l0 f4 [16, 4]
0	0x3bb4b82a	0.005515118
1	0x3e7fd3a7	0.24983083
2	0xbd61c719	-0.055121515
3	0xbe141b74	-0.14463598
4	0xbd302b85	-0.043010253
5	0x3d824125	0.063600816
6	0xbe7967d5	-0.24356015
7	0x3c60751a	0.013699794
8	0x3b8aac38	0.004231956
9	0xbd36a2ec	-0.04458897
10	0xbe0682af	-0.1313579
11	0xbde7a63c	-0.113110036
12	0x3bfa7e7e	0.0076444736
13	0x3d9ad8bf	0.07560872
14	0xbe190a5c	-0.14945358
15	0xbe509f8e	-0.20373365
16	0x3e257f21	0.16161777
17	0x3e277514	0.16353256
18	0x3da96b17	0.08272379
19	0xbe467d01	-0.19383623
20	0xbd2f2d82	-0.04276801
21	0x3cf1fbe9	0.029539065
22	0x3d16d534	0.03682442
23	0xbd7f7a67	-0.06237259
24	0xbcdc420e	-0.026886966
25	0xbde0cd6a	-0.109766796
26	0xbd24a534	-0.040196612
27	0xba8f88f0	-0.0010950845
28	0xbdb55fad	-0.08856139
29	0xbe66e1d2	-0.22547081
30	0x3d8630a1	0.06552244
31	0x3eb80418	0.35940623
32	0xbeac2c51	-0.3362756
33	0xbe4a4578	-0.19753063
34	0x3d69f3de	0.057117335
35	0xbe650493	-0.22365026
36	0x3fa866ec	1.3156409
37	0xbf9cfed2	-1.2265265
38	0xbf3d6d7d	-0.7399519
39	0xbf88c8cf	-1.0686282
40	0xbeb35186	-0.35023135
41	0x3ec50ced	0.38486424
42	0x3e8b191b	0.2716759
43	0x3e9f7b60	0.31148815
44	0xbe2b8e17	-0.16753422
45	0x3faefe65	1.3671385
46	0x3c8b36f3	0.016993975
47	0xbd429811	-0.047508303
48	0xbe05c545	-0.13063534
49	0x3ea5960d	0.32341042
50	0xbce58042	-0.02801526
51	0xbe3cc609	-0.1843492
52	0xbd38a37e	-0.045077793
53	0x3dbe4516	0.09290521
54	0xbe8c11a8	-0.2735722
55	0x3c5375a2	0.012906464
56	0x3c7b1e12	0.015326994
57	0xbdc9b177	-0.09848302
58	0xbdef98e8	-0.116990864
59	0xbdc8c4de	-0.098031744
60	0x3cdb8b00	0.026799679
61	0xbe5bc3c0	-0.21461391
62	0xbd9cc435	-0.07654611
63	0xbdb1f494	-0.08689228

bias_ih_l0 f4 [16]
0	0x3e09fd01	0.1347542
1	0x3ed9f408	0.42568994
2	0xbe48a845	-0.1959544
3	0x3d32bfbb	0.04363988
4	0xbe152a30	-0.14566875
5	0x3cfd22e6	0.03090043
6	0x3cbea60f	0.023272542
7	0xbcd3fa34	-0.025876142
8	0xbeb138c0	-0.3461361
9	0x3ee97bb6	0.45602196
10	0xbf10b898	-0.5653167
11	0xbd225694	-0.03963335
12	0x3d859e25	0.06524304
13	0x3eebf1ee	0.46083015
14	0x3cd88868	0.026432231
15	0x3e02bc0d	0.12767048

bias_hh_l0 f4 [16]
0	0x3e09de08	0.13463604
1	0x3ed9f408	0.42568994
2	0xbe467b87	-0.1938306
3	0x3d32f58c	0.043691203
4	0xbe15255d	-0.14565034
5	0x3cfd256a	0.03090163
6	0x3cb8db81	0.022565605
7	0xbce2f942	-0.027706746
8	0xbeadb4bd	-0.33926955
9	0x3e894e05	0.26817337
10	0xbee50102	-0.4472733
11	0x3c12ff96	0.008972069
12	0x3d849a20	0.064747095
13	0x3eebf1ee	0.46083015
14	0x3d920058	0.07128972
15	0x3e0c511e	0.13702819

weight_ih_l0_reverse f4 [16, 1]
0	0x3e7aa4d0	0.24476933
1	0x3e82000d	0.25390664
2	0x3ec34b9c	0.38143623
3	0x3e85dce1	0.2614508
4	0x3e4ca71e	0.19985625
5	0xbea64a2a	-0.32478458
6	0xbeb0da60	-0.34541607
7	0x3dbd4840	0.09242296
8	0xbda1a786	-0.07893281
9	0xbe2d4bab	-0.16923396
10	0x3e4f1264	0.20221859
11	0xbdf46a15	-0.11934296
12	0x3e72eb59	0.2372259
13	0x3e897582	0.26847464
14	0x3ebd62d1	0.36989453
15	0x3e7d63cf	0.24745105

weight_hh_l0_reverse f4 [16, 4]
0	0xbb3d2281	-0.0028859677
1	0xbb62219c	-0.0034504896
2	0x3af750ab	0.0018868645
3	0x397539be	0.00023386531
4	0xbb4c2807	-0.0031151788
5	0xbbfcdbb0	-0.0077166185
6	0x3c40fb70	0.011778697
7	0xbc105820	-0.008810073
8	0x3c6500de	0.013977258
9	0xbc491264	-0.012272451
10	0x3ca2b682	0.019862417
11	0x3bb42f69	0.005498816
12	0xbc1e65b0	-0.009667799
13	0x3bc38c01	0.0059676175
14	0xbc52bb62	-0.012862058
15	0x3b82273b	0.003971962
16	0x3aa00781	0.0012209268
17	0xbbc2b0b2	-0.005941474
18	0x3b7346bd	0.003712102
19	0xbc348258	-0.0110174045
20	0xbca19fb6	-0.019729476
21	0x3cdf1b97	0.027234836
22	0xbd0a6354	-0.033786133
23	0xba43edba	-0.00074740837
24	0xbd0d8436	-0.034549914
25	0x3d1c69ec	0.038186952
26	0xbd3fc3f9	-0.046817753
27	0xbbd9fb71	-0.0066522886
28	0x3e434883	0.1907063
29	0xbbe7e66c	-0.007077029
30	0x3c9eed3c	0.019400232
31	0x3d930416	0.07178514
32	0x3efc522c	0.49281442
33	0xbe0ca269	-0.1373383
34	0x3e3ac8e8	0.18240702
35	0x3f1ed5f9	0.62045246
36	0xbd37dc9e	-0.04488813
37	0xbeb0d1f4	-0.34535182
38	0x3e9a075d	0.30083743
39	0xbed555c9	-0.4166701
40	0x3e05dde8	0.13072932
41	0x3f052c94	0.52021146
42	0xbef3e9c5	-0.4763929
43	0x3f482d4f	0.78194135
44	0xbe7864b2	-0.24257162
45	0xbbd09cfe	-0.006366371
46	0x3cf935ff	0.030421255
47	0x3b8331dc	0.0040037464
48	0xbd0351c2	-0.032060392
49	0x3b27ab33	0.002558422
50	0xbc2f09f2	-0.0106835235
51	0xbd0a55cb	-0.033773225
52	0xbbe5481f	-0.006997123
53	0xbb7c7f94	-0.003852819
54	0x3be78219	0.0070650694
55	0xbc503e79	-0.012710207
56	0x3ac429be	0.0014966053
57	0xbb35d10d	-0.0027743012
58	0x3c0564d2	0.008141713
59	0xbba741ad	-0.0051042647
60	0xbd8ef533	-0.06980362
61	0x3d09af0b	0.0336142
62	0xbd843f82	-0.06457426
63	0xbda530a1	-0.08065916

bias_ih_l0_reverse f4 [16]
0	0x3d3ab126	0.0455791
1	0x3d3635b2	0.0444848
2	0x3d8ece07	0.0697289
3	0x3d90f7a1	0.070784815
4	0x3c955d27	0.018232895
5	0xbd073d24	-0.033017293
6	0xbd4e4de4	-0.05036725
7	0xbb89f7b4	-0.0042104367
8	0x3f03e617	0.51522964
9	0x3ee4bef5	0.4467694
10	0xbef043a1	-0.46926597
11	0x3f474dd3	0.77853125
12	0x3c78bb84	0.015181426
13	0x3d273202	0.040819176
14	0x3d945972	0.07243623
15	0x3c8e4833	0.017368412

bias_hh_l0_reverse f4 [16]
0	0x3d3ab126	0.0455791
1	0x3d3635b2	0.0444848
2	0x3d8ece16	0.069729015
3	0x3d90f7a8	0.07078487
4	0x3c955d27	0.018232895
5	0xbd073d24	-0.033017293
6	0xbd4e4de4	-0.05036725
7	0xbb89f7b4	-0.0042104367
8	0x3f1cc468	0.6123719
9	0x3ee84f31	0.45372918
10	0xbf0c90d4	-0.5490849
11	0x3f46d9c6	0.77676046
12	0x3c78bb84	0.015181426
13	0x3d273207	0.040819194
14	0x3d9459ec	0.07243714
15	0x3c8e51b5	0.017372945

weight_ih_l1 f4 [16, 8]
0	0x3e7d30ae	0.24725601
1	0xbe027053	-0.12738161
2	0x3d98fe71	0.07470406
3	0x3d6ebc4d	0.058285046
4	0x3debffe5	0.115234174
5	0xbb1be0bc	-0.0023785075
6	0xbd54290a	-0.05179695
7	0xbee2642b	-0.44217047
8	0x3d5d3225	0.0540029
9	0x3c05716f	0.00814472
10	0xbc653260	-0.013989061
11	0x3c453f33	0.012038994
12	0x3d901496	0.070351765
13	0xbd0bc730	-0.034125507
14	0x3ca7347a	0.020410765
15	0x3de18a98	0.11012763
16	0x3dc5776c	0.096419185
17	0xbdd735ef	-0.10508334
18	0x3dffd05b	0.124909125
19	0xbe39117b	-0.18073075
20	0xbe9e9b7b	-0.30977997
21	0xbddb618b	-0.10711964
22	0x3db4d50a	0.088296965
23	0xbe4068aa	-0.18789926
24	0xb91c9627	-0.00014933255
25	0x38840af8	6.2962936e-05
26	0x392c9c1e	0.00016461356
27	0x38831b80	6.251689e-05
28	0xb8cf760d	-9.892518e-05
29	0x38638ba4	5.4251068e-05
30	0xb8ce4b58	-9.836879e-05
31	0xb8ad5ef9	-8.266973e-05
32	0x3ebe1d01	0.37131503
33	0xbe615785	-0.22006042
34	0xbe1958b3	-0.14975242
35	0xbe416ed3	-0.18889932
36	0x3dbbc051	0.09167541
37	0xbe86fd9b	-0.2636536
38	0x3eaea3d3	0.34109363
39	0xbe2ca735	-0.1686066
40	0x3dc3a955	0.09553782
41	0xbc83f13b	-0.016106239
42	0xbd755ee2	-0.05990494
43	0x38a3e891	7.8157645e-05
44	0x3ddeec76	0.10884945
45	0xbd2a675b	-0.041602474
46	0x3d73bb4b	0.05950479
47	0x3df5bf53	0.11999383
48	0x3dc570df	0.09640669
49	0xbe0dea46	-0.138589
50	0x3da72413	0.081611775
51	0xbdc27e2e	-0.09496723
52	0xbe6e5a5f	-0.23276661
53	0xbdcb3f51	-0.09924186
54	0x3d9cd0f5	0.07657043
55	0xbdf55e09	-0.119808264
56	0xb8e48820	-0.000108972425
57	0xb695a334	-4.4595454e-06
58	0x390654e4	0.0001281086
59	0x381518c3	3.554743e-05
60	0xb86e2fc9	-5.6788125e-05
61	0x3778029a	1.4782558e-05
62	0xb8504bcc	-4.9661656e-05
63	0xb8a5afb8	-7.900543e-05
64	0xbe84524d	-0.2584404
65	0xbe4e925a	-0.20173016
66	0x3ed0b974	0.4076649
67	0x3e143c13	0.14476041
68	0x3e0d516b	0.1380059
69	0xbef84655	-0.4849116
70	0x3f30e9d4	0.69106793
71	0x3de2c572	0.11072816
72	0xbdc7339c	-0.097266406
73	0xbd2e102c	-0.04249589
74	0xbdcfcd30	-0.10146558
75	0xbd08434f	-0.033267315
76	0xbe9aaa37	-0.3020799
77	0xbc9bfa7e	-0.019040342
78	0x3d78db71	0.06075615
79	0xbe0a66af	-0.13515733
80	0x3e3a7b1c	0.18211025
81	0x3d2cae56	0.042158447
82	0x3f3fda2d	0.74942285
83	0x3cff705d	0.031181509
84	0x3ee79e5c	0.45238006
85	0x3d9e7089	0.07736308
86	0xbd3df6c7	-0.046377923
87	0x3ddb3fa3	0.10705497
88	0x38f8b20c	0.00011858725
89	0xb91afc91	-0.00014780673
90	0xb8b9fc2d	-8.868459e-05
91	0xbb0a83f4	-0.002113578
92	0xbb7b6433	-0.0038359284
93	0xba2321f1	-0.0006223014
94	0x39f6ee55	0.00047098348
95	0x3a9ee79c	0.0012123468
96	0x3ee143a9	0.43996933
97	0xbea2e3b4	-0.3181435
98	0xbe8d3069	-0.27575997
99	0xbd833e4e	-0.06408368
100	0x3da934f6	0.082620546
101	0xbe5a66a1	-0.21328212
102	0x3e79c4cd	0.2439148
103	0xbe1f3004	-0.1554566
104	0x3d49b9d3	0.04924948
105	0x3ed9015b	0.42383847
106	0x3e8ba03a	0.2727068
107	0x3e4d7169	0.20062794
108	0xbdcda2c1	-0.100408085
109	0x3e363552	0.17793778
110	0xbe630f12	-0.22173718
111	0x3e027d14	0.12743026
112	0x3e4b4efd	0.1985435
113	0xbe546672	-0.20742205
114	0x3c1950b7	0.009357623
115	0xbe629d08	-0.22130215
116	0xbe6f845f	-0.2339034
117	0xbe3506be	-0.17678353
118	0x3e2890d0	0.16461492
119	0xbe80cac1	-0.2515469
120	0xb9259d78	-0.00015794288
121	0x384ef5fb	4.9343314e-05
122	0x3947bd7d	0.00019048709
123	0x3897c461	7.2368195e-05
124	0xb8a4d1a2	-7.8591765e-05
125	0x38684e96	5.53863e-05
126	0xb8c79d2f	-9.518337e-05
127	0xb8a3f906	-7.81883e-05

weight_hh_l1 f4 [16, 4]
0	0x3d9fa349	0.07794816
1	0xbcd79cb6	-0.026319843
2	0x3d63c58a	0.05560831
3	0xbb36c3d1	-0.0027887712
4	0x3bdfe068	0.006832171
5	0xbd5575d2	-0.052114315
6	0x3c976af2	0.018483613
7	0x39ce6553	0.00039366874
8	0x3e5885fa	0.21144858
9	0x3c1d8c7c	0.009616014
10	0xbd3c648c	-0.045994326
11	0x39bbff9f	0.00035857872
12	0x385e5115	5.3004438e-05
13	0x388987d1	6.557967e-05
14	0xb800ad81	-3.0679166e-05
15	0xb5f03297	-1.7896117e-06
16	0x3d3ab52c	0.045582935
17	0xbd6b9e50	-0.057524025
18	0x3cb35830	0.021892637
19	0xbae7fe18	-0.0017699627
20	0x3c47f87c	0.012205239
21	0xbd89882d	-0.067154266
22	0x3ca57e91	0.020201953
23	0x39f55aa4	0.00046797574
24	0x3db24823	0.08705165
25	0xbbc97743	-0.0061482503
26	0xbd168445	-0.036747236
27	0x3b45f672	0.0030206707
28	0x38409ee3	4.5924342e-05
29	0x3860fc5b	5.3640786e-05
30	0xb75b00e7	-1.3053627e-05
31	0xb490d609	-2.697782e-07
32	0x3f5d9eee	0.8657063
33	0x3e9189c0	0.28425407
34	0x3e3de31d	0.18543668
35	0x3a33d1e8	0.00068595866
36	0x3da40779	0.08009238
37	0x3e0155db	0.12630408
38	0xbe12d2cb	-0.14338224
39	0x3b0d6562	0.0021575321
40	0xbe4ab06c	-0.19793862
41	0x3d94f929	0.07274086
42	0xbd5746e3	-0.052557837
43	0x39c55a70	0.0003764215
44	0xbad39e4f	-0.0016145202
45	0xb9c137dc	-0.00036853447
46	0xba950d1e	-0.0011371707
47	0xb92b2deb	-0.00016324937
48	0x3d4e98f6	0.050438844
49	0xbd8c7672	-0.06858529
50	0x39f9574d	0.00047558025
51	0xbb11c832	-0.002224457
52	0x3e5e3721	0.21700718
53	0x3d9eb373	0.07749071
54	0xbb8c2186	-0.0042764572
55	0x3a642614	0.0008703184
56	0x3e054d44	0.13017756
57	0xbc3ab314	-0.011395235
58	0xbd8cbded	-0.06872163
59	0x3aabd01f	0.001310829
60	0x3877a480	5.904259e-05
61	0x389333e7	7.019174e-05
62	0xb8062bd0	-3.1988893e-05
63	0xb59ee166	-1.1837517e-06

bias_ih_l1 f4 [16]
0	0x3ea4b5ae	0.3216986
1	0x3e322405	0.17396553
2	0x3da5cfce	0.08096276
3	0xb96f087e	-0.0002279598
4	0x3e894294	0.26808608
5	0x3e6fcd2c	0.2341811
6	0x3da992fc	0.08279988
7	0xb92b606c	-0.00016343751
8	0xbe23ab22	-0.1598325
9	0xbe94e25d	-0.2907895
10	0xbe22b1ed	-0.15888186
11	0x3acc6f0f	0.0015597063
12	0x3eb694c7	0.35660383
13	0x3de16dca	0.11007269
14	0x3e37e843	0.17959695
15	0xb96f05b7	-0.00022794945

bias_hh_l1 f4 [16]
0	0x3eaae791	0.33379796
1	0x3e39d710	0.18148446
2	0x3da5d810	0.08097851
3	0xb96f087e	-0.0002279598
4	0x3e8744c8	0.26419663
5	0x3e6d413b	0.23169415
6	0x3d979e94	0.07403293
7	0xb92b606c	-0.00016343751
8	0xbe0aa051	-0.13537718
9	0xbeaf6702	-0.34258276
10	0x3ecbf78a	0.39837295
11	0x3acc6f0f	0.0015597063
12	0x3ebd5d24	0.36985123
13	0x3eb57c77	0.35446522
14	0x3e37f374	0.17963964
15	0xb96f05b7	-0.00022794945

weight_ih_l1_reverse f4 [16, 8]
0	0x3e1dad40	0.15398121
1	0xbe0d32cc	-0.13788909
2	0xbef25866	-0.47333068
3	0xbe211dd4	-0.15734035
4	0x3e260180	0.1621151
5	0x3d787aaf	0.060663875
6	0xbd7ba97d	-0.061440933
7	0x3e08c896	0.13357767
8	0x3df60a86	0.12013726
9	0xbd815ff7	-0.06317132
10	0xbec6bf32	-0.38817745
11	0xbd77d92e	-0.060509853
12	0x3e3193f7	0.173416
13	0xbbb44fa3	-0.0055026575
14	0x3c4a7a7d	0.012358305
15	0x3e048078	0.12939632
16	0x3c9c1a35	0.019055465
17	0xbcf486a9	-0.029849367
18	0xbd86ecc5	-0.06588129
19	0xbd3f0215	-0.046632845
20	0xbcaf810c	-0.021423839
21	0xbc80d7ba	-0.015727866
22	0x3c954f46	0.018226277
23	0xbc5fe536	-0.013665488
24	0x3db48dec	0.08816132
25	0xbc80ab16	-0.01570658
26	0xbe900636	-0.2812974
27	0xbdf7a9b9	-0.12092919
28	0x3e117a41	0.14206792
29	0xbd8ca832	-0.06868018
30	0x3d8e6021	0.06951929
31	0x3db53c50	0.08849394
32	0xbe15c9f9	-0.14627828
33	0xbde8b73f	-0.113630764
34	0xbce46a7e	-0.02788281
35	0x3d11b068	0.035568625
36	0xbe15d27b	-0.14631073
37	0x3d3e017d	0.046388138
38	0xbce4590f	-0.027874498
39	0xbd5f8866	-0.05457344
40	0xbe1a9df9	-0.15099324
41	0x3dc1bc0d	0.09459696
42	0x3d9fa04e	0.077942476
43	0x3d77ec5e	0.06052815
44	0xbe113367	-0.14179765
45	0x3da349c2	0.079730526
46	0xbde2550a	-0.11051376
47	0xbdf56879	-0.11982817
48	0x3c0ec0ba	0.008712942
49	0xbd02dd1e	-0.031949155
50	0xbbea2cc8	-0.0071464516
51	0xbc4d4406	-0.012528425
52	0xbd1a061c	-0.037603483
53	0xbc6671ed	-0.014065248
54	0x3c5b08aa	0.013368765
55	0xbcbd53da	-0.023111273
56	0x3c093d58	0.008376442
57	0x3c00bdc5	0.007857745
58	0xbc339b1d	-0.010962275
59	0xbda1cf04	-0.07900813
60	0x3d6851df	0.056718703
61	0x3d5a1b44	0.05324866
62	0xbdb91caf	-0.09038674
63	0xbdc2ffa9	-0.095214196
64	0xbe84e3a1	-0.25954917
65	0x3fa96b60	1.3235893
66	0xbeaaca34	-0.33357394
67	0x3cfb47a5	0.030673811
68	0x3bdfa0a1	0.0068245684
69	0x3e07ce00	0.13262177
70	0xbed1d18e	-0.4098019
71	0x3e05ac47	0.13054
72	0x3dbeb29e	0.09311412
73	0xbfca47e3	-1.5803188
74	0x3ebcbf73	0.36864814
75	0x3edb4257	0.4282405
76	0x3a39f0f0	0.00070930924
77	0x3bf719c2	0.0075409124
78	0xbdeea875	-0.116532244
79	0xbd0b1550	-0.033955872
80	0x3e030b78	0.12797344
81	0x3d935b48	0.07195145
82	0x3dacf2cf	0.084447496
83	0xbd83b6d4	-0.06431356
84	0x3e59524a	0.21222797
85	0xbb8b63f9	-0.004253861
86	0x3bd9f46d	0.0066514523
87	0x3ebb6092	0.36597115
88	0xbda01b5a	-0.07817717
89	0xbfb248f1	-1.392851
90	0x3dca66b2	0.09882869
91	0x3f345319	0.70439297
92	0xbd8f4bf4	-0.06996909
93	0xbd1680fc	-0.036744103
94	0xbe169fb5	-0.14709361
95	0xbe9c3560	-0.30509472
96	0x3e3cf20c	0.18451709
97	0xbe190e77	-0.14946924
98	0xbf0bec79	-0.54657704
99	0xbe07acb6	-0.13249478
100	0x3de4cada	0.11171503
101	0x3cf9eae0	0.030507505
102	0xbc15b4fb	-0.009137387
103	0x3e0e10ef	0.13873647
104	0x3e17e236	0.14832386
105	0xbd0dbabe	-0.03460192
106	0xbed158cf	-0.40888068
107	0xbda815e4	-0.082073
108	0x3e23e1f1	0.16004159
109	0xbcaf093a	-0.021366704
110	0x3d10151f	0.035176393
111	0x3ded0000	0.115722656
112	0x3cf73840	0.03017819
113	0xbd5f1f35	-0.05447312
114	0xbd8a77c6	-0.06761126
115	0xbd3d3dd4	-0.046201542
116	0xbd132c4b	-0.035930913
117	0xbcd671e7	-0.02617736
118	0x3ce638dd	0.028103286
119	0xbc9bfea2	-0.019042317
120	0x3de1cb78	0.11025137
121	0xbc60f19d	-0.01372948
122	0xbe89d064	-0.26916802
123	0xbe1cc9dc	-0.15311378
124	0x3e2e7689	0.17037405
125	0xbd220fdb	-0.039565902
126	0x3ce66753	0.02812544
127	0x3d26aff2	0.04069514

weight_hh_l1_reverse f4 [16, 4]
0	0xbbc7524e	-0.0060828095
1	0xbdff83f3	-0.12476339
2	0x3c4232c8	0.0118529275
3	0xbd839165	-0.06424216
4	0x3cf99b52	0.03046957
5	0xbd77b19f	-0.060472127
6	0x3ac2531e	0.0014825796
7	0xbd21916d	-0.03944533
8	0x3bbe42a7	0.0058062854
9	0xbbb9242d	-0.0056500644
10	0xbc48767c	-0.01223528
11	0x3bde285d	0.006779714
12	0x3d8913be	0.06693219
13	0x3cbadd25	0.022810528
14	0xbc9545fc	-0.018221848
15	0x3cfa8daf	0.030585138
16	0xbdb87a02	-0.09007646
17	0x3e02ef1e	0.12786528
18	0x3c7761d5	0.015099009
19	0x3cdf78cf	0.027279286
20	0x3cc53ea3	0.02407772
21	0x3d7f6aa5	0.062357564
22	0xbc8da2c0	-0.01728952
23	0x3d92e396	0.07172315
24	0xbc4b63f2	-0.012413966
25	0x3bbbbb4b	0.005729114
26	0xbc0dcb43	-0.008654418
27	0x3c366676	0.011132827
28	0x3d2c6b04	0.042094246
29	0x3cc94b28	0.02457197
30	0xbd3c0573	-0.045903634
31	0x3dc40cb5	0.09572736
32	0x3e25d135	0.16193087
33	0x3f193bcb	0.5985686
34	0xbe60d1ab	-0.21954982
35	0x3f18d09f	0.5969333
36	0xbebd5a3d	-0.3698291
37	0xbd8ea2be	-0.06964634
38	0x3e4e94da	0.2017397
39	0xbe465b3d	-0.19370742
40	0x3e444c40	0.19169712
41	0xbe8b35a3	-0.2718936
42	0xbb99d722	-0.0046948353
43	0xbe15d6f0	-0.14632773
44	0x3e567e5b	0.20946638
45	0x3d8d1c85	0.06890205
46	0x3e17bf00	0.14818954
47	0x3e8f7292	0.28017098
48	0xbcf5b046	-0.02999128
49	0xbd8080d9	-0.06274576
50	0xbc14950c	-0.009068739
51	0xbcfe08b1	-0.031010004
52	0x3d2fd59a	0.042928316
53	0xbd266f09	-0.040633235
54	0xbc4b802d	-0.012420696
55	0xbc8cdc57	-0.01719491
56	0xbc637a42	-0.013884129
57	0x3bb42c68	0.0054984577
58	0xbc8c61cc	-0.017136477
59	0x3c93fb5e	0.018064197
60	0x3dbd32cf	0.092382066
61	0x3c34092f	0.010988518
62	0xbd0b7e75	-0.034056146
63	0x3d7cb1ed	0.06169312

bias_ih_l1_reverse f4 [16]
0	0x3ecfe58c	0.40604818
1	0x3f07b11a	0.5300461
2	0x3d987afa	0.07445331
3	0x3f026145	0.5092967
4	0xbdb5536b	-0.08853801
5	0xbda4758d	-0.080302335
6	0x3c7f4b02	0.015581848
7	0x3e20bcb2	0.15696982
8	0xbe537a56	-0.20652136
9	0x3e1e61de	0.15467021
10	0xbd7afccc	-0.061276242
11	0x3af6fe15	0.0018844033
12	0x3eea8ede	0.45812124
13	0x3f0d3ff4	0.5517571
14	0x3dba784c	0.09104976
15	0x3f019e85	0.50632507

bias_hh_l1_reverse f4 [16]
0	0x3ed7274a	0.42022163
1	0x3f07a024	0.5297873
2	0x3d987b71	0.074454196
3	0x3f02612f	0.5092954
4	0xbdb63b91	-0.0889808
5	0xbda46454	-0.080269486
6	0x3c7f4b02	0.015581848
7	0x3e20bcc9	0.15697016
8	0x3d045599	0.032308195
9	0x3e1526a5	0.14565523
10	0xbe18e574	-0.1493128
11	0x3e7c001e	0.2460942
12	0x3edc65a3	0.43046293
13	0x3f0d12f9	0.55107075
14	0x3dba77d3	0.09104886
15	0x3f019e81	0.5063248

weight_ih_l2 f4 [16, 8]
0	0x38982176	7.2541574e-05
1	0x391e12eb	0.00015075102
2	0xb7ad24bc	-2.0640313e-05
3	0xb2cb5232	-2.3669688e-08
4	0x38d13a9c	9.9768135e-05
5	0xb8012797	-3.0792868e-05
6	0xb882faca	-6.245596e-05
7	0xb7c69ffd	-2.367794e-05
8	0x3da19d49	0.07891328
9	0x3cdbe741	0.026843669
10	0xbd8849a0	-0.06654668
11	0xba9a57e3	-0.001177546
12	0xbd90e732	-0.07075347
13	0x3e679a57	0.2261747
14	0xbe00f424	-0.12593132
15	0x3eb9ff02	0.36327368
16	0x38cc1432	9.73124e-05
17	0x393fb55d	0.00018282743
18	0x37301af7	1.0496696e-05
19	0x357b366a	9.358397e-07
20	0x38dde9ef	0.00010581675
21	0xb7dccf83	-2.6322674e-05
22	0xb8233419	-3.8910748e-05
23	0xb715d9aa	-8.931771e-06
24	0x3e2e18ed	0.17001696
25	0x3cf1d383	0.029519802
26	0xbd82f266	-0.0639389
27	0xb9d5195f	-0.0004064543
28	0xbd4d161c	-0.050069913
29	0x3e2a5792	0.16634968
30	0xbda89916	-0.08232324
31	0x3e77e933	0.24210052
32	0x38882ad7	6.492965e-05
33	0x38afb5b5	8.378496e-05
34	0xb721b5b6	-9.638656e-06
35	0x351f798c	5.940899e-07
36	0x37e87ada	2.7713762e-05
37	0xb6a97111	-5.049755e-06
38	0xb853dae3	-5.0510174e-05
39	0xb83bda1e	-4.478741e-05
40	0xbc77245e	-0.015084354
41	0x3d745d0b	0.059659045
42	0xbd279f31	-0.0409233
43	0xba1f648f	-0.0006080353
44	0xbe1f8732	-0.15578917
45	0x3e5e0090	0.21679902
46	0xbdda3d9d	-0.10656283
47	0x3e878f6b	0.26476607
48	0x388f4a4b	6.8326095e-05
49	0x38dad10c	0.00010433988
50	0xb78c0c2b	-1.6694967e-05
51	0x350452d4	4.929436e-07
52	0x37bdfb30	2.2647524e-05
53	0x3707d1f9	8.095515e-06
54	0xb833281d	-4.2714284e-05
55	0xb84b82c7	-4.8520767e-05
56	0x3d9a7089	0.07540996
57	0x3d21716a	0.0394148
58	0xbd710b39	-0.058848593
59	0x3730e394	1.0543405e-05
60	0xbd9533d3	-0.07285275
61	0x3e1072da	0.14106312
62	0xbd65167e	-0.055929653
63	0x3e398d41	0.1812029
64	0x3ad97bb4	0.0016592653
65	0x396f6c8c	0.00022833253
66	0x3ae4a488	0.0017444054
67	0x391d6cb9	0.00015013189
68	0x3aa7a7d6	0.0012791108
69	0x39050d3a	0.00012688796
70	0xbac2790e	-0.0014837102
71	0x3b4045de	0.002933852
72	0x3ebfe279	0.37477472
73	0x3e3e278a	0.1856977
74	0xbeb9f60b	-0.36320528
75	0xba2d505a	-0.00066113996
76	0xbf03a0c7	-0.514172
77	0x3c9697ef	0.018382994
78	0x3d59deb4	0.053190902
79	0xbeeb1b78	-0.45919394
80	0x3b15775e	0.0022806744
81	0x38b02f63	8.4011604e-05
82	0x3af149f2	0.0018408878
83	0x390f1db5	0.0001364861
84	0x3ab47a5b	0.0013769375
85	0xb9ab178f	-0.00032633214
86	0xbaa6ad01	-0.0012716354
87	0x3b37320b	0.0027953412
88	0x3f10934d	0.56474763
89	0x3dff888a	0.12477215
90	0xbefe3a40	-0.49653816
91	0x3a991b2e	0.0011681074
92	0xbe402cfe	-0.18767163
93	0x3d520146	0.051270746
94	0xbe1eb971	-0.15500428
95	0xbe250393	-0.16114645
96	0x38df3182	0.0001064269
97	0x39289fcd	0.00016081259
98	0xb7afae8c	-2.0942905e-05
99	0xb4d3fb26	-3.9484547e-07
100	0x389844d9	7.260749e-05
101	0xb78d475e	-1.6841743e-05
102	0xb88fa904	-6.850253e-05
103	0xb7e9bf47	-2.7864835e-05
104	0x3dbd7fc0	0.09252882
105	0xbd5d18bf	-0.053978678
106	0xbd931f56	-0.07183711
107	0xba90a228	-0.0011034654
108	0xbe00ef3b	-0.12591259
109	0x3e3e876d	0.18606348
110	0xbd889f09	-0.066709585
111	0x3e38c79f	0.180449
112	0x390df9e2	0.00013539896
113	0x394b8ccb	0.00019412038
114	0xb6bce3b4	-5.6293447e-06
115	0x35353f22	6.7519625e-07
116	0x3896ad93	7.184888e-05
117	0xb6c76e44	-5.9434988e-06
118	0xb85a9c13	-5.2120606e-05
119	0xb7a9ee2c	-2.0257277e-05
120	0x3e676a9a	0.22599259
121	0x3c528562	0.012849184
122	0xbdb3ac87	-0.08773141
123	0xb77d1017	-1.5083721e-05
124	0xbd674165	-0.05645885
125	0x3e30d70b	0.17269532
126	0xbd7e2c04	-0.062053695
127	0x3e4e6285	0.2015477

weight_hh_l2 f4 [16, 4]
0	0x34c935eb	3.7478398e-07
1	0x383d22f6	4.509367e-05
2	0xb51d1f64	-5.8532737e-07
3	0x38050009	3.1709704e-05
4	0x3a9b9b97	0.0011871931
5	0xbd099c14	-0.033596113
6	0x3aacd672	0.0013186468
7	0x3c1f441d	0.009720829
8	0xb5684110	-8.6521413e-07
9	0x384a1259	4.817764e-05
10	0x3525a9e9	6.171454e-07
11	0x37f0b8ef	2.8696346e-05
12	0x3b317845	0.0027079743
13	0xbc9cb5f1	-0.019129725
14	0x3b37fe84	0.0028075287
15	0x3d186b49	0.03721169
16	0x35493508	7.4955506e-07
17	0x383aa5bb	4.4500204e-05
18	0x34370ec2	1.7048572e-07
19	0x37907c5a	1.7224043e-05
20	0x394df1f6	0.00019640461
21	0xbe373094	-0.17889625
22	0x382df843	4.1477626e-05
23	0xbdba909f	-0.091096155
24	0xb41a6644	-1.4379572e-07
25	0x3849d3c8	4.811937e-05
26	0x3587ccc1	1.0117875e-06
27	0x36e686ac	6.870212e-06
28	0x3b10d9b7	0.0022102424
29	0xbd7b0b2b	-0.061289947
30	0x3b16ddc5	0.0023020369
31	0xbb458986	-0.0030141785
32	0xb99b187d	-0.0002958215
33	0xba61bf26	-0.0008611552
34	0xb98d1a1b	-0.00026913066
35	0x3951225f	0.00019944597
36	0xb9879fd9	-0.00025868302
37	0x3c9e5803	0.019329077
38	0xb9634cff	-0.0002167709
39	0x3e123456	0.14277777
40	0xb9a8e41b	-0.0003221341
41	0xba8b46f1	-0.0010626001
42	0xb9b49619	-0.00034444107
43	0x3788c891	1.630586e-05
44	0x38ffe82c	0.00012202593
45	0x3d011b51	0.03152019
46	0x3a2f676c	0.0006691131
47	0x3ddca8a1	0.10774351
48	0xb5111a75	-5.405521e-07
49	0x3840f9a4	4.6008863e-05
50	0xb5482da8	-7.4572245e-07
51	0x38346a60	4.3014414e-05
52	0x3a8cc12b	0.0010738721
53	0xbd4b0ba8	-0.049571663
54	0x3a86217a	0.0010233365
55	0xbca36693	-0.019946372
56	0xb5693320	-8.687366e-07
57	0x384e7417	4.9222344e-05
58	0xb597e63c	-1.1317384e-06
59	0x382e7ce0	4.160113e-05
60	0x3b0c6c57	0.002142688
61	0xbc09ebec	-0.008418065
62	0x3b11905a	0.0022211284
63	0x3d464448	0.04840496

bias_ih_l2 f4 [16]
0	0xb9c10c3e	-0.0003682095
1	0x3e202170	0.15637755
2	0xb9dd57ac	-0.00042217725
3	0x3ddb8af1	0.1071986
4	0xb99b1b9b	-0.00029584471
5	0x3de8a0ca	0.11358793
6	0xb9b4a392	-0.00034454145
7	0x3da0b070	0.07846153
8	0xb94ab9fc	-0.00019333506
9	0x3db97b07	0.09056669
10	0xb90c569d	-0.00013383706
11	0xbe7d47b7	-0.24734388
12	0xb9c10b61	-0.00036820307
13	0x3ea2cd80	0.3179741
14	0xb9dd56cd	-0.00042217076
15	0x3e3bb142	0.18329337

bias_hh_l2 f4 [16]
0	0xb9c10c3e	-0.0003682095
1	0x3e21d438	0.15803611
2	0xb9dd57ac	-0.00042217725
3	0x3de64f63	0.112456106
4	0xb99b1b9b	-0.00029584471
5	0x3dec0e1f	0.11526131
6	0xb9b4a392	-0.00034454145
7	0x3d99f2c0	0.07517004
8	0xb94ab9fc	-0.00019333506
9	0xbe1481f3	-0.14502697
10	0xb90c569d	-0.00013383706
11	0x3d0c9fff	0.03433227
12	0xb9c10b61	-0.00036820307
13	0x3ea3866a	0.31938487
14	0xb9dd56cd	-0.00042217076
15	0x3dff5818	0.124679744

weight_ih_l2_reverse f4 [16, 8]
0	0x3e881bf3	0.26583824
1	0xbdea4873	-0.114396
2	0xbd764cc2	-0.060131796
3	0x3a95f533	0.0011440873
4	0xbd4ae343	-0.04953314
5	0x3e3a45af	0.18190645
6	0xbdaf2aa6	-0.085530564
7	0x3e64d984	0.223486
8	0x3d221584	0.0395713
9	0xbca338f1	-0.019924613
10	0xbd28ac31	-0.04117984
11	0xba61e755	-0.000861754
12	0xbd8efb0b	-0.069814764
13	0x3d94083e	0.072281346
14	0xbce5d04e	-0.028053429
15	0x3d805964	0.0626705
16	0x378b9619	1.6639986e-05
17	0x38294cb4	4.0364175e-05
18	0x375979a0	1.2962526e-05
19	0x35c60412	1.4753334e-06
20	0x3746657b	1.1825347e-05
21	0xb862df2b	-5.409044e-05
22	0x38305367	4.2039344e-05
23	0xb804a218	-3.1622214e-05
24	0xbf1caf7c	-0.6120527
25	0xbe49453a	-0.19655314
26	0xbcef56a9	-0.029216127
27	0xb97b2c77	-0.0002395379
28	0xbd45c26d	-0.048281122
29	0x3e5be00e	0.21472189
30	0x3cd80946	0.02637161
31	0x3dde875d	0.10865662
32	0x3e249cb6	0.16075405
33	0xbd952d8b	-0.07284077
34	0xbc240198	-0.010010146
35	0x395f201d	0.000212789
36	0xbe1647b5	-0.14675792
37	0x3e12863e	0.14309022
38	0xbd9174a6	-0.07102327
39	0x3e1ab978	0.15109813
40	0x3d11b2ec	0.035571024
41	0xbc00710f	-0.007839455
42	0xbc8d7de0	-0.017271936
43	0xba39b0a0	-0.0007083509
44	0xbd0d14a8	-0.034443527
45	0x3d389aea	0.045069613
46	0xbcaaf398	-0.020868108
47	0x3d0e8210	0.034792006
48	0xb856f012	-5.124516e-05
49	0xb6ba2047	-5.5469895e-06
50	0xb72dda1d	-1.0362387e-05
51	0xb4736f6b	-2.2671672e-07
52	0x383c7971	4.4935794e-05
53	0xb7e123ae	-2.6838705e-05
54	0x36b05714	5.255346e-06
55	0xb7437f1f	-1.1652503e-05
56	0xbd8ba916	-0.0681936
57	0x3dafa0a1	0.085755594
58	0xbd5261c7	-0.05136278
59	0x398d5ceb	0.00026962845
60	0x3dcabaae	0.098988876
61	0x3ca0e70b	0.01964142
62	0xbd9351e6	-0.07193355
63	0x3de7cf82	0.11318876
64	0x3eca7168	0.39539647
65	0x3ec286e9	0.37993553
66	0xbf4575d5	-0.7713292
67	0x3a48fe4b	0.0007667287
68	0xbe091634	-0.13387376
69	0xbcfb49ea	-0.030674893
70	0xbe6e71ef	-0.2328565
71	0x3ea19296	0.3155715
72	0xbe2a0782	-0.16604427
73	0xbe1ac078	-0.15112484
74	0x3e5b14d9	0.21394671
75	0x3a7ac5dc	0.00095662265
76	0x3ebd3408	0.3695376
77	0x3d807486	0.06272225
78	0x3d0b715b	0.03404365
79	0x3e719c5f	0.23594807
80	0xba433c46	-0.0007447641
81	0x39df200a	0.00042557745
82	0x39c84be8	0.00038203527
83	0x38e5a159	0.00010949624
84	0x3a230381	0.00062184787
85	0xbaae258c	-0.0013286336
86	0x39ab136f	0.0003263014
87	0xb8a5fad4	-7.9145335e-05
88	0xbf3643d2	-0.71197236
89	0x3f327442	0.69708645
90	0x3da4052b	0.08008798
91	0xb9044b2f	-0.00012616509
92	0xbf9f31ef	-1.2437114
93	0x3fb87b46	1.441262
94	0x3d41f6bd	0.04735445
95	0x3f65eac9	0.8981138
96	0x3e972935	0.29523626
97	0xbda4940c	-0.0803605
98	0xbd6fe4be	-0.058567755
99	0x3b0ec781	0.0021786394
100	0xbdb7f341	-0.08981944
101	0x3e47dea4	0.19518524
102	0xbe00cf7a	-0.12579146
103	0x3e94f2c1	0.29091457
104	0x3d41e91e	0.04734146
105	0xbcc337d3	-0.02383033
106	0xbd119c83	-0.03554965
107	0xba5e3bd1	-0.0008477541
108	0xbd82f7d0	-0.06394923
109	0x3d8f1652	0.06986679
110	0xbd0e8151	-0.034791294
111	0x3d81043f	0.06299638
112	0x3778ea8d	1.48365625e-05
113	0x382adc4e	4.0736333e-05
114	0x36faf673	7.479271e-06
115	0x35b800b1	1.370927e-06
116	0x375d896a	1.3204621e-05
117	0xb8419276	-4.6151188e-05
118	0x3821f505	3.8613583e-05
119	0xb807a52e	-3.2340344e-05
120	0xbef2e26f	-0.4743838
121	0xbdc8eab7	-0.09810393
122	0xbd86c9fa	-0.06581493
123	0x3a5df75c	0.00084673404
124	0xbe0408f5	-0.12894042
125	0x3ea5e31b	0.3239983
126	0xbc2a806f	-0.0104065975
127	0x3e56131f	0.20905732

weight_hh_l2_reverse f4 [16, 4]
0	0x3cd01f02	0.02540541
1	0xbcd95547	-0.026529921
2	0xb8cc1522	-9.731414e-05
3	0x3e0f8dca	0.14018932
4	0x3d2b77c4	0.041862264
5	0xbc2df493	-0.010617393
6	0x39fc9d77	0.00048182506
7	0x3c59636d	0.013268334
8	0x34c3181a	3.6339117e-07
9	0x37d78510	2.569196e-05
10	0xb53a735d	-6.9458275e-07
11	0xb830ae33	-4.2123906e-05
12	0x3cfe8c0f	0.031072645
13	0x3ca5b949	0.020229952
14	0x39ab75bd	0.00032703383
15	0xbde1ae0a	-0.110195234
16	0x3d3aa1a9	0.045564327
17	0xbd258dd6	-0.04041847
18	0x3902847b	0.00012447119
19	0x3deb2e95	0.11483494
20	0x3d0ecf33	0.03486557
21	0xbc53ad71	-0.01291977
22	0x3a180baf	0.0005800081
23	0x3b99418a	0.0046770023
24	0xb7348b33	-1.0761246e-05
25	0x37109a72	8.619028e-06
26	0xb3dbbd98	-1.0232469e-07
27	0xb703efc0	-7.86403e-06
28	0x3e29ee8e	0.16594908
29	0xbd03cbc7	-0.03217676
30	0xb9ae3833	-0.00033229738
31	0x3e185c61	0.1487899
32	0x3f2f61da	0.68508685
33	0xbb7632a8	-0.0037566815
34	0xba5b99ab	-0.00083770853
35	0x3d3f1f4a	0.0466607
36	0xbe5ea716	-0.21743426
37	0x3d27a24c	0.040926263
38	0x39e7da40	0.00044222362
39	0xbe415dc6	-0.18883428
40	0xba4e5d4a	-0.00078721775
41	0x3a1f1a5a	0.00060692953
42	0xb7e6f050	-2.753004e-05
43	0xba87235f	-0.0010310224
44	0xbe89eeb8	-0.2693994
45	0x3e0c6c26	0.1371313
46	0x3b4fa8b7	0.0031686255
47	0x3f45f547	0.7732739
48	0x3dcab07d	0.09896944
49	0xbd4999a5	-0.049218792
50	0xb8b22ee1	-8.496433e-05
51	0x3dfea09f	0.1243298
52	0x3d4743fd	0.048648823
53	0xbc66bd05	-0.014083152
54	0x39e3d537	0.0004345567
55	0x3c1560cc	0.009117316
56	0x377ccd2d	1.5068142e-05
57	0x37e1e201	2.6927331e-05
58	0xb565d25a	-8.561525e-07
59	0xb85af103	-5.219971e-05
60	0x3e121b63	0.1426826
61	0xbbd6a37e	-0.0065502515
62	0x39f0fc3f	0.00045964305
63	0x3d717e43	0.058958303

bias_ih_l2_reverse f4 [16]
0	0x3eb281d4	0.34864676
1	0x3dd02933	0.10164108
2	0xb81bfd9c	-3.7191072e-05
3	0x3eed509e	0.4635057
4	0x3e9ff216	0.31239384
5	0x3d48ee9b	0.049055677
6	0xb7e68a75	-2.748261e-05
7	0xbe5ff677	-0.21871363
8	0x3d60bf49	0.054869924
9	0x3e008b08	0.12553036
10	0xb9b7bc89	-0.0003504495
11	0xbe82fd35	-0.25583807
12	0x3e9b72de	0.30361074
13	0x3df59b7e	0.119925484
14	0xb81bfe75	-3.719186e-05
15	0x3ea79f96	0.32738942

bias_hh_l2_reverse f4 [16]
0	0x3eb669dd	0.35627642
1	0x3dd6f2c5	0.10495523
2	0xb81bfd9c	-3.7191072e-05
3	0x3ef1f251	0.47255185
4	0x3e9ff713	0.3124319
5	0x3d48ee3e	0.04905533
6	0xb7e68a75	-2.748261e-05
7	0xbe64c211	-0.22339655
8	0xbf015ced	-0.5053242
9	0xbe36987e	-0.17831609
10	0xb9b7bc89	-0.0003504495
11	0x3e5884ba	0.21144381
12	0x3ebcd5c9	0.36881855
13	0x3df24379	0.11829276
14	0xb81bfe75	-3.719186e-05
15	0x3ec529c8	0.3850844

weight_ih_l3 f4 [16, 8]
0	0xba711126	-0.0009195976
1	0x3c2a4973	0.010393488
2	0xba5d3be0	-0.0008439403
3	0xbc6443a4	-0.013932142
4	0x3d0b500d	0.03401189
5	0xbcac6813	-0.02104572
6	0x39cb9d8c	0.0003883656
7	0x3dc5a686	0.096509025
8	0x3a753f94	0.0009355482
9	0x3d2adb6e	0.04171317
10	0x3a6bbea4	0.0008992946
11	0x3d2fce49	0.04292134
12	0x3dd35a8b	0.10320004
13	0xbd4994e8	-0.049214274
14	0xb89dbc8a	-7.5214615e-05
15	0x3d4f3d01	0.050595287
16	0x3ac26d43	0.0014833588
17	0xbd0b4ee9	-0.0340108
18	0x3ab750aa	0.0013985832
19	0x3d0a19ff	0.033716198
20	0x3e94b46a	0.29043895
21	0xbd502341	-0.05081487
22	0xbaa39cc1	-0.0012482629
23	0x3dc16c97	0.0944454
24	0x3a0bc933	0.000533241
25	0x3d34b605	0.0441189
26	0x39ea5312	0.0004469385
27	0x3d5ee32e	0.054415874
28	0x3e480790	0.19534135
29	0xbd73d81e	-0.059532277
30	0xb9c1adad	-0.00036941227
31	0x3d9b17c0	0.07572889
32	0xba7ce9b3	-0.0009647861
33	0x3c172ee2	0.009227486
34	0xba5f44e8	-0.0008517043
35	0xbbe58d16	-0.007005344
36	0x3bc2f9cc	0.0059501883
37	0xbbfcd477	-0.0077157575
38	0x38525c58	5.0153903e-05
39	0xbd670570	-0.05640167
40	0x3a185dbd	0.0005812308
41	0x3dbb11ab	0.09134229
42	0x39e3cb95	0.00043448494
43	0x3dc3eb14	0.09566322
44	0x3e201050	0.15631223
45	0xbd6cca02	-0.057809837
46	0xb8ce5c7f	-9.840074e-05
47	0x3d1a538c	0.037677333
48	0x3a807439	0.0009800262
49	0x3c8b44ae	0.017000522
50	0x3a1dbbae	0.0006017041
51	0x3dcbc60a	0.09949882
52	0x3eb403b0	0.35159063
53	0xbd77d8c0	-0.060509443
54	0xba973ae6	-0.0011537939
55	0x3e0bb68e	0.13643858
56	0x393a9515	0.0001779388
57	0x3daee69f	0.08540081
58	0xb7db18e4	-2.6118425e-05
59	0x3dc38e57	0.095486335
60	0x3e4b8a7b	0.19877045
61	0xbd8a3983	-0.06749251
62	0xba07512d	-0.00051619374
63	0x3d9b1ece	0.07574235
64	0xba1b45b5	-0.0005923168
65	0x3eeb27c6	0.45928782
66	0xba4bb611	-0.00077709655
67	0x3e45968d	0.19295712
68	0xbcb3ecb9	-0.021963464
69	0xbe5415f3	-0.20711498
70	0xba459783	-0.00075375306
71	0x3f1622c7	0.58646816
72	0xb8a41fb3	-7.826034e-05
73	0x3ee05dfb	0.438217
74	0x39f0f37f	0.00045957786
75	0x3e95ad07	0.29233572
76	0x3e883bb6	0.26608056
77	0xbe84030d	-0.25783578
78	0xb977d860	-0.00023636362
79	0x3eea5082	0.45764548
80	0x398b02b3	0.00026514157
81	0xbed60f81	-0.41808704
82	0x3a236491	0.0006232942
83	0xbeb42dec	-0.35191286
84	0xbf0ab36a	-0.54180014
85	0x3ea1112a	0.31458408
86	0x38e9c28d	0.00011146544
87	0xbeda24a4	-0.4260608
88	0x398b973b	0.00026624821
89	0x3eff3d2d	0.4985136
90	0x39a22a7e	0.00030930707
91	0x3e84a5d7	0.25907776
92	0x3e8ea237	0.27858135
93	0xbe54516d	-0.20734186
94	0x39c0c60e	0.00036768656
95	0x3eb02b30	0.3440795
96	0xba1d6eae	-0.0006005567
97	0x3e4babe8	0.19889796
98	0xb9cb4a73	-0.00038774646
99	0x3e1817e0	0.14852858
100	0x3dd908aa	0.10597356
101	0xbdb02814	-0.08601394
102	0xb9329f7a	-0.00017034812
103	0x3e25ba91	0.1618445
104	0x3a1cc024	0.0005979559
105	0x3df6e1ad	0.12054763
106	0x3a028553	0.00049789733
107	0x3de62def	0.1123923
108	0x3daaeb7e	0.08345698
109	0xbd59e52b	-0.053197067
110	0xb99293ae	-0.0002795732
111	0x3dbf18d7	0.0933091
112	0x3a8188b3	0.0009882658
113	0x3d9fe308	0.07806975
114	0x3a5911af	0.0008280528
115	0x3de83952	0.11339058
116	0x3e357c5b	0.17723219
117	0xbd6d837d	-0.057986725
118	0xba18be1c	-0.00058266683
119	0x3dde3ba2	0.10851218
120	0x39cec5f2	0.00039438863
121	0x3e18f26f	0.14936231
122	0x3979378d	0.00023767185
123	0x3e0ead75	0.13933356
124	0x3e332c45	0.17497356
125	0xbd95c193	-0.07312312
126	0xb9e45f31	-0.00043558472
127	0x3de6fc0c	0.11278543

weight_hh_l3 f4 [16, 4]
0	0x3cb10fff	0.021614073
1	0x3cace73b	0.021106353
2	0xbd36feb2	-0.04467649
3	0x3cf75cd2	0.030195627
4	0x3ded54a4	0.115884095
5	0x3db347fb	0.087539636
6	0xbde5d6d5	-0.112226166
7	0x3dbe325d	0.0928695
8	0x3dca58c3	0.09880211
9	0x3dd629cf	0.10457193
10	0xbe1b9e58	-0.15197122
11	0x3ddf3638	0.10899013
12	0x3d96add7	0.07357376
13	0x3da94054	0.08264223
14	0xbe0174f4	-0.1264227
15	0x3db19aee	0.086721286
16	0x3dd009b5	0.101581015
17	0x3c1cf63d	0.009580192
18	0xbd0ec0d4	-0.034851864
19	0x3d0bfd5f	0.03417718
20	0x3dc47818	0.095932186
21	0x3e04f9df	0.12985943
22	0xbe3f3e6f	-0.1867616
23	0x3e012c87	0.12614642
24	0x3dfddce9	0.12395651
25	0x3e6d277e	0.23159596
26	0xbea7ad84	-0.3274957
27	0x3e5bd968	0.21469653
28	0x3d94a0fa	0.07257266
29	0x3e014c8b	0.12626855
30	0xbe4d8e2f	-0.2007377
31	0x3df48dee	0.119411334
32	0x3f1e104c	0.6174362
33	0x3db2c1c9	0.08728368
34	0xbd9831e3	-0.0743139
35	0x3e22f62d	0.15914221
36	0x3d7ccf3d	0.061721075
37	0x3d8b6914	0.068071514
38	0xbe2c6b06	-0.16837701
39	0x3da03a60	0.07823634
40	0x3cd1a290	0.025590211
41	0x3e9f77d2	0.31146103
42	0x3ccdef13	0.025138414
43	0xbd5bff06	-0.053710006
44	0x3e478a53	0.1948636
45	0xbd0dd6ea	-0.034628786
46	0xbe0cf656	-0.13765845
47	0x3c85b44a	0.01632132
48	0x3e396add	0.18107171
49	0x3e0fca65	0.14042051
50	0xbe5ba193	-0.21448354
51	0x3e2704f5	0.16310485
52	0x3e796653	0.2435544
53	0x3e606b9b	0.21916048
54	0xbe7f5419	-0.24934424
55	0x3e5f3284	0.21796614
56	0x3e8d56e8	0.27605367
57	0x3e882125	0.26587787
58	0xbe9cd13c	-0.30628383
59	0x3e85f017	0.26159737
60	0x3e4e56b1	0.20150258
61	0x3e668f20	0.22515535
62	0xbe8f58aa	-0.27997333
63	0x3e636513	0.22206526

bias_ih_l3 f4 [16]
0	0x3ecc20e7	0.39868852
1	0x3e809eb8	0.25121093
2	0x3e694f28	0.22784102
3	0x3e5114fc	0.20418161
4	0x3ef15ed7	0.4714267
5	0x3e1e3f93	0.15453939
6	0x3e1c963d	0.15291686
7	0x3df00cf7	0.11721223
8	0x3ed61de2	0.41819674
9	0x3d6ac2b6	0.057314597
10	0xbe4420aa	-0.19153085
11	0x3e42f007	0.19036876
12	0x3ef3d3aa	0.47622424
13	0x3ec4ce26	0.3843853
14	0x3ed5df00	0.41771698
15	0x3eb9b89b	0.36273655

bias_hh_l3 f4 [16]
0	0x3ea37701	0.3192673
1	0x3e82daf1	0.25557664
2	0x3e81d6ba	0.25359136
3	0x3e553ee3	0.2082477
4	0x3edf4354	0.43606055
5	0x3e19dbc8	0.15025246
6	0x3e366ada	0.17814198
7	0x3e34eedb	0.17669241
8	0xbcfd2ec1	-0.030906083
9	0x3d41eaf4	0.04734321
10	0x3db32dec	0.08748993
11	0xbd1ac777	-0.03778788
12	0x3efe8fe3	0.49719152
13	0x3ec5117d	0.38489905
14	0x3edafa9e	0.4276933
15	0x3e82be78	0.2553594

weight_ih_l3_reverse f4 [16, 8]
0	0x3a4ac959	0.00077356916
1	0xbc8c6136	-0.017136198
2	0x3a313720	0.00067602284
3	0x3c8fadd8	0.01753895
4	0x3d413c49	0.047176633
5	0xbaacfa12	-0.0013197085
6	0xb9b54fe4	-0.00034582533
7	0xbc899d21	-0.016798558
8	0xb18ef479	-4.1605372e-09
9	0x3520a076	5.9838146e-07
10	0xb0530540	-7.6768814e-10
11	0xb3bf8553	-8.918382e-08
12	0xb4d0f5c4	-3.8921837e-07
13	0xb3ba424b	-8.6733586e-08
14	0xb14f80c7	-3.0195666e-09
15	0xb4470612	-1.8535528e-07
16	0x352f3568	6.5270297e-07
17	0x3783646b	1.5663178e-05
18	0xb57a7f50	-9.331752e-07
19	0x38a8ae2b	8.0433056e-05
20	0x379e5ff2	1.8879746e-05
21	0x380c52a0	3.345555e-05
22	0xb480b956	-2.3976708e-07
23	0xb862a6f4	-5.4038086e-05
24	0x3a6a2857	0.00089324027
25	0x3c39da9d	0.011343625
26	0x3a6825be	0.00088557217
27	0x3c5928cb	0.013254355
28	0x3ce63747	0.02810253
29	0xbc416ebf	-0.011806189
30	0xb870f530	-5.7448808e-05
31	0x3cef4dfe	0.029211994
32	0x3a9e85da	0.0012094334
33	0xbb7321ef	-0.0037099083
34	0x3a9d474f	0.0011999401
35	0x3bc9ab85	0.00615448
36	0x3d0c6c89	0.034283195
37	0xbc0b0039	-0.00848394
38	0xb9a23414	-0.0003093785
39	0x3cdab3f1	0.02669713
40	0x300ef12e	5.2002036e-10
41	0x350e8c28	5.3103076e-07
42	0xb1382e1b	-2.6801732e-09
43	0x32974ce7	1.7613685e-08
44	0xb43ac4af	-1.7394153e-07
45	0xb51b02b3	-5.774593e-07
46	0xaffd07c1	-4.6025941e-10
47	0x34d81f68	4.0255986e-07
48	0xb5422e9e	-7.233847e-07
49	0xb871f39d	-5.768576e-05
50	0x339a574b	7.187062e-08
51	0xb791a61d	-1.73627e-05
52	0x36e87a5d	6.9283838e-06
53	0xb6b74271	-5.46156e-06
54	0x33cc21de	9.505651e-08
55	0xb81d5e9e	-3.7519836e-05
56	0x39dac943	0.00041730152
57	0x3add221d	0.0016871128
58	0x39d6e87b	0.00040990472
59	0x3b99cc49	0.004693542
60	0x3cb22596	0.021746438
61	0xbc010ebd	-0.007877049
62	0x386d4de3	5.657774e-05
63	0x3c55a91a	0.013040805
64	0xba14ff20	-0.00056837685
65	0x3e980168	0.29688573
66	0xba1f7398	-0.00060825935
67	0x3eb0ee79	0.3455694
68	0x3f061e57	0.52390045
69	0xbe231dd1	-0.15929343
70	0xba60a47d	-0.00085694325
71	0x3ec18d54	0.37803137
72	0x36dae02c	6.5230033e-06
73	0x37cc6184	2.4364104e-05
74	0x37177505	9.027547e-06
75	0xb9b6f23a	-0.00034894218
76	0x3918481d	0.00014522714
77	0x3a29cdf3	0.0006477527
78	0x37004d79	7.6474325e-06
79	0x39fc72fb	0.00048150853
80	0xb84f2a98	-4.9392314e-05
81	0x3ac17cf8	0.0014761975
82	0xb8695fa0	-5.5640587e-05
83	0x3ae1ebcb	0.001723641
84	0x3a41d624	0.0007394275
85	0xbacf5228	-0.0015817331
86	0xb8270853	-3.9823655e-05
87	0x38cd3e2d	9.786743e-05
88	0xb94f2c23	-0.000197575
89	0x3e56da38	0.20981681
90	0xb926fcc0	-0.0001592515
91	0x3e6bfac3	0.23044877
92	0x3e737f31	0.23778988
93	0xbde0f525	-0.109842576
94	0xb906dd78	-0.0001286174
95	0x3ed51aae	0.41621917
96	0x3a564896	0.00081742683
97	0xbcb45f42	-0.022018079
98	0x3a3fe701	0.0007320494
99	0x3c3ba5ff	0.011453151
100	0x3d732cb8	0.05936882
101	0xbbdd6d3c	-0.0067574065
102	0xb9dc98be	-0.00042075472
103	0x3b5deab3	0.0033861815
104	0xb144a3f0	-2.8614942e-09
105	0x353f1497	7.1183007e-07
106	0x31622af0	3.2911736e-09
107	0xb32cc8c0	-4.022945e-08
108	0xb4950a61	-2.7760964e-07
109	0xb40bf828	-1.3035663e-07
110	0xaffd158c	-4.6035742e-10
111	0xb480e533	-2.4008622e-07
112	0x3545270c	7.344504e-07
113	0xb49b7a7a	-2.8960113e-07
114	0xb59066fc	-1.0758808e-06
115	0x38a51dab	7.873339e-05
116	0x36edbcf7	7.085149e-06
117	0x37cdbc34	2.4525543e-05
118	0x33affd3e	8.195137e-08
119	0xb861bb30	-5.3818512e-05
120	0x3a739a83	0.00092927384
121	0x3c386334	0.011254121
122	0x3a71d893	0.00092256925
123	0x3c657e7b	0.014007206
124	0x3d2943b4	0.041324332
125	0xbc7ef2b7	-0.015560797
126	0xb90079ae	-0.0001225236
127	0x3d0e4fbb	0.034744006

weight_hh_l3_reverse f4 [16, 4]
0	0x3c68d186	0.0142101105
1	0xb8ba65ba	-8.888119e-05
2	0x3a4d924d	0.000784193
3	0x3c66babe	0.014082609
4	0x3415a4e5	1.3936695e-07
5	0xaf420130	-1.7644619e-10
6	0xb1921d8c	-4.2525183e-09
7	0xb3c0c902	-8.97726e-08
8	0xb821bc84	-3.856096e-05
9	0x3346a0ff	4.6246893e-08
10	0xb4e20c37	-4.2104668e-07
11	0x372f419c	1.0446089e-05
12	0x3c14d1c5	0.009083216
13	0x383adb3d	4.4550037e-05
14	0xb90f1220	-0.00013644295
15	0x3c04a87b	0.0080968095
16	0x3c36d5c9	0.011159369
17	0xb8b9a33a	-8.851891e-05
18	0x3a7a6d8d	0.00095530675
19	0x3c44c364	0.012009475
20	0xb472de13	-2.2618796e-07
21	0xb03ce3a8	-6.871752e-10
22	0x31c5298c	5.738178e-09
23	0x341ed793	1.4793322e-07
24	0xb7c700ac	-2.3722961e-05
25	0xb38d956b	-6.593003e-08
26	0xb408ebd3	-1.275178e-07
27	0xb63c1f52	-2.8032414e-06
28	0x3bf40080	0.0074463487
29	0x3808b534	3.2593685e-05
30	0xb919ed37	-0.00014679586
31	0x3be79d13	0.0070682853
32	0x3decff45	0.11572126
33	0xb96eefbf	-0.00022786761
34	0x396d6381	0.0002263915
35	0x3d02a8ce	0.031899266
36	0xb7603807	-1.3364485e-05
37	0x341c54b0	1.4559441e-07
38	0x36cb4614	6.0580296e-06
39	0xb80d1d3c	-3.3644246e-05
40	0x3a773810	0.0009430656
41	0x36794125	3.714181e-06
42	0xb8608bf5	-5.3536107e-05
43	0x3aa1a2d4	0.0012331852
44	0x3d891a0c	0.06694421
45	0xb86e14a7	-5.6762856e-05
46	0xb9c49897	-0.00037497721
47	0x3cd2595f	0.025677381
48	0x3c9af7d4	0.018917002
49	0xb8c1ed4c	-9.247157e-05
50	0x3a6ed4c1	0.00091106823
51	0x3c9c8347	0.019105567
52	0x343ad562	1.7400228e-07
53	0xb04fb1f4	-7.555905e-10
54	0xb1d632bc	-6.2339875e-09
55	0x3450930f	1.9425009e-07
56	0x376e460e	1.4202216e-05
57	0xb2757118	-1.42865915e-08
58	0xb58aa2c5	-1.0329173e-06
59	0x375b185a	1.3059087e-05
60	0x3c5e9ba8	0.013586916
61	0x38727339	5.7804606e-05
62	0xb884a65a	-6.325236e-05
63	0x3c429974	0.011877406

bias_ih_l3_reverse f4 [16]
0	0x3e6e6141	0.23279287
1	0xb5d95e27	-1.6195162e-06
2	0xb918c448	-0.0001456897
3	0x3df1475a	0.11781187
4	0x3dc56dbb	0.0964007
5	0x341c54b8	1.4559453e-07
6	0xb85fa615	-5.332202e-05
7	0x3d04bb2d	0.032405067
8	0xbe2600bc	-0.16211218
9	0xb805b6c9	-3.1879903e-05
10	0xb9862609	-0.0002558681
11	0x3d3137de	0.04326617
12	0x3e8dadeb	0.2767175
13	0xb5d964a9	-1.6197056e-06
14	0xb918c5de	-0.00014569561
15	0x3e058c00	0.13041687

bias_hh_l3_reverse f4 [16]
0	0x3e820a26	0.25398368
1	0xb5d95e27	-1.6195162e-06
2	0xb918c448	-0.0001456897
3	0x3df0dc58	0.11760777
4	0x3dc56e05	0.09640125
5	0x341c54b8	1.4559453e-07
6	0xb85fa615	-5.332202e-05
7	0x3d04bb2d	0.032405067
8	0xbbc57a0c	-0.006026512
9	0xb805b6c9	-3.1879903e-05
10	0xb9862609	-0.0002558681
11	0x3d93f1e6	0.07223873
12	0x3e95e89d	0.29279032
13	0xb5d964a9	-1.6197056e-06
14	0xb918c5de	-0.00014569561
15	0x3e05a6ae	0.13051865

weight_ih_l4 f4 [16, 8]
0	0x3e1f0389	0.15528692
1	0x3dec803c	0.11547896
2	0xbe196098	-0.14978254
3	0x3df9f4ce	0.12204896
4	0x3da84ed3	0.082181595
5	0xb951aafe	-0.00019995493
6	0x3ae6e3df	0.0017615518
7	0x3d808bf9	0.06276698
8	0x3ddc9ad0	0.10771716
9	0x3df10f29	0.1177047
10	0xbe0790d6	-0.13238844
11	0x3deaac6b	0.11458667
12	0x3d31f36e	0.043445043
13	0x38667bb3	5.4951477e-05
14	0xba78a521	-0.00094850553
15	0x3d31be88	0.043394595
16	0x3e09fcc2	0.13475326
17	0x3dbb37cb	0.09141501
18	0xbdce5d6b	-0.10076412
19	0x3dc35c21	0.095390566
20	0x3cffbc45	0.031217704
21	0x38f0d2a5	0.000114833274
22	0xba80232f	-0.000977611
23	0x3d2c881e	0.042122
24	0x3e119c49	0.14219774
25	0x3dea1999	0.114306636
26	0xbdf8f4fc	-0.12156102
27	0x3de350ed	0.1109942
28	0x3d4f29b7	0.05057689
29	0x391afbce	0.00014780389
30	0xba556a47	-0.0008141142
31	0x3d50a7c6	0.05094125
32	0x3da3a887	0.079911284
33	0x3e4e40d0	0.20141912
34	0xbea59c1f	-0.32345673
35	0x3e43f705	0.19137199
36	0x3e1b8e73	0.15191059
37	0xb9cd617a	-0.00039173273
38	0x3a9a2363	0.0011759814
39	0x3d9d17de	0.07670568
40	0x3dbdb7b0	0.09263551
41	0x3e24778e	0.16061231
42	0xbe4b9577	-0.19881235
43	0x3e1c9da4	0.1529451
44	0x3d84e81a	0.06489582
45	0x390c9ce0	0.00013409881
46	0xbaaa539f	-0.0012994892
47	0x3d470767	0.048591044
48	0x3e32fa83	0.17478375
49	0x3df58092	0.119874135
50	0xbe076448	-0.13221848
51	0x3dff4433	0.1246418
52	0x3d0094ac	0.031391785
53	0x38bbf0c7	8.961703e-05
54	0xba6d42df	-0.0009050797
55	0x3d2be91c	0.041970357
56	0x3e32474e	0.17410013
57	0x3e16819d	0.14697881
58	0xbe2541e0	-0.1613841
59	0x3e128bc0	0.14311123
60	0x3d68beef	0.056822713
61	0x38db4375	0.000104552986
62	0xba6ee9c1	-0.00091138115
63	0x3d524de0	0.0513438
64	0xbe42b8e5	-0.19015844
65	0xbe8c9dae	-0.2746405
66	0x3f184728	0.59483576
67	0xbec91a27	-0.39277765
68	0xbf2785cc	-0.6543853
69	0xb7ffdaf5	-3.0500329e-05
70	0x3998e330	0.00029160967
71	0xbebc3c99	-0.36764982
72	0x3ed73cc0	0.42038536
73	0x3e946217	0.28981087
74	0xbe99d74c	-0.3004707
75	0x3e85ac11	0.2610784
76	0x3e6bee9e	0.23040244
77	0xba2849d2	-0.00064196915
78	0xba67f69d	-0.0008848699
79	0x3e5da1a8	0.21643698
80	0xbf088cb8	-0.5333972
81	0xbe39223f	-0.1807947
82	0x3e1dad5e	0.15398166
83	0xbe4f147b	-0.20222656
84	0xbe02a5d5	-0.12758572
85	0xb9b3c1f4	-0.00034286047
86	0xb8989909	-7.27643e-05
87	0xbe09a5d0	-0.13442159
88	0xbec7e433	-0.3904129
89	0xbe3e0ac9	-0.18558802
90	0x3e32b95c	0.17453521
91	0xbe446e9e	-0.19182822
92	0xbe063533	-0.13106231
93	0xb7e8f0ad	-2.7768629e-05
94	0xb68e89be	-4.247965e-06
95	0xbe0a604a	-0.13513294
96	0x3e9d6b37	0.3074586
97	0x3e86920d	0.26283303
98	0xbe8ac4c8	-0.27103257
99	0x3e849c0f	0.25900313
100	0x3d0333e1	0.032031897
101	0x358ac6a6	1.0339616e-06
102	0x3a3df162	0.00072457467
103	0x3d61bf09	0.055113826
104	0x3e841cc6	0.25803202
105	0x3e901e46	0.28148097
106	0xbe994289	-0.29933575
107	0x3e8a886a	0.270572
108	0x3d36e5ca	0.044652738
109	0xb936c314	-0.00017429545
110	0x39248d90	0.00015692995
111	0x3d62c7ac	0.055366203
112	0x3e9dc8df	0.30817315
113	0x3e98d289	0.29848126
114	0xbea5b6d8	-0.3236606
115	0x3e92b978	0.28657126
116	0x3d902391	0.07038034
117	0x39013cc2	0.00012325033
118	0xba49dd84	-0.000770055
119	0x3d93e96e	0.072222576
120	0x3e9ef3a4	0.31045258
121	0x3ea23f52	0.31688935
122	0xbeac15ad	-0.33610287
123	0x3e989908	0.29804254
124	0x3d9f26d2	0.07771076
125	0x3888c5d6	6.521835e-05
126	0xb9d3492a	-0.00040299568
127	0x3d94e2f3	0.0726985

weight_hh_l4 f4 [16, 4]
0	0xbdff576a	-0.12467845
1	0x3e1643ba	0.14674273
2	0xbe28ea29	-0.16495575
3	0xbe2bf1a8	-0.16791403
4	0xbdfe7602	-0.12424852
5	0x3daface0	0.08577895
6	0xbdd04182	-0.101687446
7	0xbdda5ab8	-0.106618345
8	0xbda18ffc	-0.07888791
9	0x3d8a0a54	0.06740251
10	0xbddbb816	-0.10728471
11	0xbdd7aa1e	-0.10530494
12	0xbdd67452	-0.10471405
13	0x3daa3493	0.08310809
14	0xbddb218b	-0.10699757
15	0xbdd35f78	-0.103209436
16	0xbe99d932	-0.3004852
17	0x3e5e50af	0.21710466
18	0xbe1af5a1	-0.15132762
19	0xbe33b62c	-0.17549962
20	0xbe43daab	-0.19126384
21	0x3def5d1b	0.1168768
22	0xbde68e59	-0.112576194
23	0xbdf9b562	-0.12192799
24	0xbdf04446	-0.11731772
25	0x3dce98fe	0.10087775
26	0xbe1864e3	-0.14882235
27	0xbe13eefe	-0.14446637
28	0xbe19201f	-0.1495366
29	0x3defb941	0.11705256
30	0xbe10ce7a	-0.14141265
31	0xbe0e35cb	-0.13887708
32	0xbe4cb963	-0.19992594
33	0x3ee6781f	0.4501352
34	0xbda4c4e7	-0.08045369
35	0xbeb3818e	-0.3505978
36	0xbe2fb2e6	-0.17158088
37	0xbd4e27d1	-0.05033094
38	0xbd149e61	-0.036283854
39	0xbe308767	-0.17239152
40	0x3d9b01b6	0.07568686
41	0xbe11bb1a	-0.1423153
42	0x3e463380	0.19355583
43	0x3e1049c0	0.14090633
44	0x3dd6efe7	0.104949765
45	0xbdfa6996	-0.1222717
46	0x3e1e5ccd	0.15465088
47	0x3dfb8c13	0.122825764
48	0xbea9f563	-0.33195028
49	0x3ead4b04	0.33846295
50	0xbeb4bdca	-0.35301048
51	0xbeb6ee5f	-0.35728738
52	0xbeb234ed	-0.34806004
53	0x3e944530	0.28959036
54	0xbe9929f5	-0.29914823
55	0xbe9cdead	-0.30638638
56	0xbea811db	-0.32826123
57	0x3e82bd8c	0.25535238
58	0xbe97e77f	-0.29668805
59	0xbe8fe3a7	-0.28103372
60	0xbeb7486b	-0.35797438
61	0x3e90ef69	0.28307655
62	0xbe925e4e	-0.28587574
63	0xbe95e3a7	-0.29275247

bias_ih_l4 f4 [16]
0	0x3e9ffa5a	0.3124569
1	0x3e6cb8aa	0.23117319
2	0x3e78aa20	0.24283648
3	0x3e41edcf	0.18938373
4	0x3e50e2a5	0.20398958
5	0x3e3dfcae	0.18553421
6	0x3e72e3db	0.23719732
7	0x3e3f6467	0.18690644
8	0xbeb76e4f	-0.35826346
9	0x3bc2ae92	0.0059412206
10	0xbe18a237	-0.1490563
11	0xbe29e609	-0.16591658
12	0x3eebb427	0.46035883
13	0x3ed4d5d9	0.41569403
14	0x3ed0f9ca	0.40815574
15	0x3eb36a7e	0.35042185

bias_hh_l4 f4 [16]
0	0x3e9bb6f0	0.30413008
1	0x3e6bf174	0.23041326
2	0x3e6f2e7d	0.23357578
3	0x3e4363a4	0.19080979
4	0x3e17663c	0.14785093
5	0x3e38f56e	0.18062374
6	0x3e865c85	0.26242462
7	0x3e5582ca	0.20850673
8	0x3e07c464	0.13258511
9	0x3bb94d82	0.0056549916
10	0xbe137ef2	-0.14403895
11	0xbe3ae958	-0.18253076
12	0x3eeb5f39	0.45971087
13	0x3ed4e442	0.41580397
14	0x3ea9bd6c	0.3315233
15	0x3e9f889b	0.3115891
