model_new/BLSTM_1_-1_10.pt (torch, 16227 bytes, 41 tensors)

weight_ih_l0 f4 [16, 1]
00000000: 49d0 8ebd f69c b33e 8b31 6b3f 3ef4 b53d
00000010: 2ef4 6c3e dd64 d13c 6eb0 03bf 8eea 683c
00000020: f9f3 1c3e dcac e6bd 4eeb 8f3e 5c01 103e
00000030: 9635 1a3e faa9 ed3e bf35 733f 380b fb3d
-0.06973321 0.3508069 0.9187247 0.08884476 0.23140022 0.02556079 -0.51441085 0.014216078
0.15327443 -0.11263439 0.2810921 0.14063019 0.15059504 0.46418744 0.95003885 0.12257999

weight_hh_l0 f4 [16, 4]
00000000: f814 bd3c 827d 4c3e cc98 81be 3ec5 c73e
00000010: 622b bdbd 0f1c eabd 778d b13d bc81 8dbe
00000020: 210b 26bd cc50 e4bd 28e4 2b3c bebd 94be
00000030: a0d8 a0be d054 643e 8a10 183e 21e3 a9be
00000040: 1896 2fbe 5850 163e 03ee 903a 9e9c 853b
00000050: 6106 f23d 75cb 72be e1b2 103e ad00 ac3e
00000060: bc68 f03d 10eb 06be 564c bf3e 92b2 843e
00000070: 3422 4f3e bfc9 dd3d 752d 113e acd1 133d
00000080: d9da aebe bd34 40be 4fec e23f 798f 633c
00000090: 1f02 e23d 735d f4be 7575 0540 7509 843f
000000a0: 94ca 86bf 9504 4abe 180e 92bf 69ca e3bf
000000b0: aabc 5f3e 5a6a d33d 12ee 513e 5954 30bf
000000c0: f9d2 8b3d 2e2e d9be 476b 303f 5592 b73c
000000d0: 93fa c4bd fd2b e4bd 357a a43b 8a6a 6ebe
000000e0: c695 19bd ad99 01be c650 643d 1187 75be
000000f0: 5b11 1abe ab8e d4bd 3100 373f a688 35bf
0.023081288 0.19969752 -0.25311887 0.3901767 -0.0923679 -0.11431133 0.086695604 -0.27638042
-0.040537957 -0.11148223 0.010491408 -0.29051012 -0.31415272 0.22297978 0.14850059 -0.33181098
-0.171471 0.14679086 0.0011057261 0.004077508 0.11817623 -0.23710425 0.14130737 0.33594266
0.117387265 -0.13175607 0.37362927 0.25917488 0.20227891 0.10829496 0.14177497 0.03608863
-0.34151343 -0.18770118 1.7728366 0.013889187 0.11035561 -0.47727546 2.085294 1.0315386
-1.0530572 -0.1972831 -1.1410551 -1.7796146 0.21849313 0.10323019 0.20500973 -0.68878704
0.06827349 -0.42418045 0.6891369 0.022408644 -0.09618106 -0.111412026 0.005019451 -0.23282829
-0.03749635 -0.12656279 0.055741094 -0.23977305 -0.15045683 -0.10378774 0.7148467 -0.70911634

bias_ih_l0 f4 [16]
00000000: 67e6 743e 03ec 723e 4643 1a3f d371 bd3e
00000010: 6a6f 553d 1df0 d2bd fa4d 03bf 9b83 e83d
00000020: 6718 66be c248 b03e 7273 8dbf d4d9 5dbf
00000030: 9e1d f13e 72a4 7e3e 3a2b 283f 8edb 1f3f
0.23916017 0.23722844 0.602589 0.37000903 0.052108206 -0.10299704 -0.5129086 0.11353227
-0.22470246 0.3443051 -1.1050856 -0.86660504 0.4709291 0.24867418 0.6569096 0.6244439

bias_hh_l0 f4 [16]
00000000: 544c 9b3e 98b1 743e 4643 1a3f 5d75 bd3e
00000010: 103b 523d b0da 01be 184b 03bf eb41 253e
00000020: c5a0 33be 574d 9d3e 2c4f 5cbf 0052 36bf
00000030: 1eb7 c03e 3219 803e 3a2b 283f 8c02 203f
0.3033167 0.23895872 0.602589 0.37003604 0.051325858 -0.12681079 -0.5128646 0.16138427
-0.17541797 0.30723068 -0.86058307 -0.7121887 0.37639707 0.25019222 0.6569096 0.62503886

weight_ih_l0_reverse f4 [16, 1]
00000000: 6038 4e3d d62d 043e 3a48 3dbe 1162 9c3d
00000010: fbc3 983e fefa 7e3e 392f 963e 95da 383e
00000020: f308 433d 1751 653d 35a6 643e 5278 13be
00000030: 09b3 dc3e 4cba bf3e 9f74 613e 6d75 823e
0.050346732 0.1290811 -0.18484583 0.07635892 0.2983702 0.24900433 0.29332903 0.18052132
0.047615957 0.055985536 0.22329028 -0.14401367 0.43105343 0.3744682 0.22017144 0.25480214

weight_hh_l0_reverse f4 [16, 4]
00000000: d818 a4bd e88a b8bd e1b9 163d 928b a3bd
00000010: cdb4 7ebd 00f2 6cbd fd99 f93c a851 47bd
00000020: 8a78 d6bd 2ce9 3dbe c08a 8d3d 660a a0bd
00000030: b27d 4bbc 17bc abbc aa20 33b8 e398 82bc
00000040: eed7 17bd 6854 1dbd 29ea 9d3c c615 b7bc
00000050: 5a4f 4bbd d6a8 4bbd 64bc f13c 4d61 debc
00000060: d744 07bd e9af 0dbd e058 593c 79f1 bebc
00000070: 3834 d5bb 6c7f 3dbc 03f5 adba 1bcc f4bb
00000080: 5176 483e f82d 413e e8fe 44bd 4096 6b3e
00000090: ef2d a23e 1f9c eb3d 8a49 89bd c29c f43e
000000a0: b6ee 2cbd 015c 26bd 8b24 a43c 48d9 c1bb
000000b0: 4ffe 41b9 69c5 493b de93 793c 058c 2bbb
000000c0: 5fbe 6dbd 3db3 76bd 6477 013d 29e1 05bd
000000d0: d44d fbbd 4c38 fdbd e846 9a3d f05e 9bbd
000000e0: 627a f7bc 7e30 10bd 858d cbba beeb 9ebc
000000f0: 4642 103d 58fe e73c 518a 06bd 2a41 e73c
-0.08012551 -0.09010869 0.03679836 -0.07985605 -0.062184144 -0.057847977 0.030468935 -0.048661858
-0.1047221 -0.1854598 0.0691123 -0.07814483 -0.012420105 -0.020963712 -4.2707346e-05 -0.015942043
-0.03707116 -0.038410574 0.019276695 -0.02234925 -0.049636222 -0.04972156 0.029508777 -0.027146006
-0.033024635 -0.03459159 0.013265818 -0.023308503 -0.006506469 -0.011566024 -0.0013271872 -0.0074706203
0.19576384 0.18865192 -0.04809466 0.23006535 0.3167567 0.11504387 -0.067034796 0.47775847
-0.04221984 -0.040615086 0.020036956 -0.0059157945 -0.00018500652 0.0030787832 0.015233008 -0.0026175987
-0.05804288 -0.06022953 0.031608 -0.032685433 -0.12270704 -0.123642534 0.075330555 -0.07586467
-0.030209724 -0.035202496 -0.0015529847 -0.01939952 0.035219453 0.028319523 -0.032846753 0.028229315

bias_ih_l0_reverse f4 [16]
00000000: c9be 6abd 6ed4 9fbc e2c4 223e 71a4 07bc
00000010: f27a 823d e834 a33d 5288 4a3d 8aae 003c
00000020: a317 23bf 604d 14bf 96de 423e 27cc 49be
00000030: 3480 c23d 8ac8 cf3d c0dd 00bc 8df2 cfbc
-0.057310853 -0.019510474 0.15895417 -0.008278952 0.06371106 0.079690754 0.04944641 0.007854113
-0.6370794 -0.57930565 0.19030222 -0.19706784 0.09497109 0.10145672 -0.007865369 -0.025384212

bias_hh_l0_reverse f4 [16]
00000000: 2fc8 793d ed0e 8ebc e3ce 3b3e edb5 07bc
00000010: 4581 823d e834 a33d 7988 4a3d acad 003c
00000020: 3c75 1dbf 63d6 1abf a3ca 453e 02d4 49be
00000030: 798a c13d 813c cf3d d48f debb 9810 cfbc
0.060981926 -0.017341102 0.1834064 -0.008283121 0.063723125 0.079690754 0.049446557 0.007853907
-0.6150701 -0.6048338 0.19315581 -0.19709781 0.0945024 0.10118962 -0.006792048 -0.025276467

weight_ih_l1 f4 [16, 8]
00000000: a872 303e 66fb 1cbd 9645 183e 3869 1d3e
00000010: 1e27 14be b4f8 a6bd 2a40 69bb 6f3b 96be
00000020: 3c0b 0e3e 40c3 7fbd afc9 db3d 05ed da3d
00000030: aa31 a6bd afba 19bd 57d6 703d 122b 78be
00000040: 994c 4fb9 2568 3538 6389 0eb8 57cf 9838
00000050: 1245 b339 47ed b539 d0cc f3b7 e750 b339
00000060: 58e2 833d 1ba6 ac3d 35f6 483d c5ce febd
00000070: ee5f e33b 7528 b33d c61f 343c dfa6 b7bd
00000080: 863c 393e 5e75 b7bd 1059 a43e a4bc 5f3e
00000090: 635f ecbc c92e b43d 8855 c1bc 5003 76be
000000a0: 4bea 493e a27d 82bc 6a03 c13d 7b9f d53d
000000b0: 3e1c dabd 410e b1bd 4d66 8a3d 67d5 8abe
000000c0: 6316 edb8 6261 5738 eb67 c7b3 321c 0c38
000000d0: deb3 0339 ae8e 0639 4747 8436 b922 1c39
000000e0: 9154 8dbd 9ae1 b3bd 53b1 a63d 541e 6bbd
000000f0: 8f6b 8e3d 8050 1c3d d079 273c e00c 00bd
00000100: 2884 d03e 1240 98bd 42d1 3dbf fdfb 1ebf
00000110: 30db ebbd 99eb 673d b9a9 ae3e 07a5 7fbe
00000120: 8d4a d1bd 7135 34be 13b4 703d 6150 ad3d
00000130: 37ed e93e 9f89 f73e 7560 e1bd cba0 0c3d
00000140: ae9e 9bba 74d8 0c3b adde adba e001 c43a
00000150: 105f aa38 8316 2a39 d5b1 70ba 6c8a 8539
00000160: 4ab6 c2bd 2515 6a3e 01cc 763e 84e5 403f
00000170: 7628 143c 415a ac3e 63e3 03bd b11f febd
00000180: 8d72 e93c d0d2 b5bd 83d8 db3e 777e 02bd
00000190: 196d b83d bbb5 0e3e 1a39 a5bd 48a2 92be
000001a0: eb62 543e 08f1 53bf f7c2 eebe 7fe9 13bf
000001b0: 44af 81bd d09f 87be 53f6 2c3e 63dc 1bbe
000001c0: 8bbb 7cb9 dee6 6a38 1d4c 36b8 de55 ad38
000001d0: 052a 8839 a340 8839 2597 3a37 8909 9f39
000001e0: 7c33 e23c ebda ac3d 04b6 a33d 5ac9 06be
000001f0: 7e9b b63d f926 ea3d 5072 8dbc fff8 d0bd
0.17231238 -0.03832569 0.14870295 0.15372169 -0.14468047 -0.08152905 -0.0035591223 -0.2934222
0.13871473 -0.062442064 0.107318275 0.10689739 -0.081149414 -0.03753155 0.05879816 -0.2423518
-0.00019769593 4.3250755e-05 -3.398339e-05 7.286545e-05 0.00034193002 0.00034699796 -2.906323e-05 0.00034201817
0.06439656 0.084301196 0.049062926 -0.12441782 0.006938926 0.08747951 0.0109939035 -0.08967375
0.18089494 -0.08957933 0.320992 0.21849304 -0.028854078 0.08797986 -0.023600355 -0.24024701
0.19718282 -0.015929047 0.09424479 0.10430809 -0.10649918 -0.08645297 0.067577936 -0.27115938
-0.000113052105 5.135069e-05 -9.285562e-08 3.340486e-05 0.0001256014 0.00012832388 3.9422043e-06 0.00014890255
-0.069008954 -0.087832645 0.08139291 -0.05740197 0.06954109 0.03816271 0.010221913 -0.03126228
0.40725827 -0.074340954 -0.7414743 -0.62103254 -0.11516416 0.056621168 0.34113863 -0.24965297
-0.102192976 -0.17598511 0.058765482 0.08462597 0.45688793 0.48347184 -0.11004726 0.03433303
-0.0011872852 0.002149132 -0.0013265215 0.0014954172 8.1239385e-05 0.0001622085 -0.00091817725 0.0002547087
-0.09507425 0.22859628 0.24101259 0.75350213 0.00904285 0.33662608 -0.032199275 -0.124083884
0.028497005 -0.088781 0.42938623 -0.031858888 0.09005184 0.13936512 -0.08067532 -0.28639436
0.20740859 -0.8278966 -0.4663312 -0.5777816 -0.063322574 -0.26489115 0.1689084 -0.1522079
-0.00024102458 5.600496e-05 -4.3463067e-05 8.265277e-05 0.00025971248 0.000259881 1.1121655e-05 0.00030333948
0.02761244 0.08440193 0.07993701 -0.13162747 0.089163765 0.11433215 -0.017266423 -0.10203742

weight_hh_l1 f4 [16, 4]
00000000: 8934 443b 5c84 6ebd c427 e739 474a 223d
00000010: da85 ac3c cd46 61bd 594a 90b9 ccad a23c
00000020: 642c adb8 87c2 0939 f163 d0b3 8d34 ed37
00000030: f4de 273c 05ad f53b 1cf1 efba af62 83bc
00000040: 9689 a53d a2f4 85bd 7f1a 1d39 49bf ee3c
00000050: c1f8 5d3d 12dc 8cbd 1011 88b9 906c cc3c
00000060: 7d54 0db8 b940 8338 d61a c7b4 dc9a 1738
00000070: c583 27bd c9d2 103d 0d52 1aba 5318 223c
00000080: 0e36 543f df12 b5be 682b 923a cd51 6abe
00000090: 987d 82be 3f79 673e 654b b33a c5fb c43d
000000a0: 8c9a 943a f062 713a ed7a a2b9 1cc5 4a3a
000000b0: cebb 14be 7e45 533e 222e 8bba db69 9a3c
000000c0: ae8f 47be 590d 83bc b419 1c3b ef1e 113e
000000d0: 50c1 f9be f71c 6d3e ea72 4e3a 43c7 0b3f
000000e0: 29a5 fbb8 6ca2 3139 926f 06b5 0638 6837
000000f0: 1443 3dbd eb08 5cbb 462c c4ba ecce cc3c
0.002993854 -0.058231696 0.0004408938 0.039621618 0.02105992 -0.05499916 -0.00027521214 0.019858263
-8.257551e-05 0.00013137805 -9.703934e-08 2.8277072e-05 0.010246027 0.007497432 -0.0018306109 -0.016038267
0.08082883 -0.06540801 0.00014982557 0.029143946 0.05419231 -0.068779126 -0.00025952654 0.02495411
-3.3695705e-05 6.258622e-05 -3.7086164e-07 3.614543e-05 -0.04089715 0.03535727 -0.00058868603 0.009893495
0.8289498 -0.3536596 0.0011151852 -0.22882767 -0.25486445 0.22604845 0.0013679086 0.09618334
0.0011337562 0.0009208163 -0.00030990635 0.000773506 -0.14524767 0.20631978 -0.0010618607 0.018849304
-0.19488403 -0.015997576 0.0023819031 0.14171956 -0.48780298 0.2315558 0.00078754 0.54600924
-0.00011999376 0.00016940542 -5.0081246e-07 1.3841322e-05 -0.04620655 -0.0033574651 -0.0014966808 0.025001012

bias_ih_l1 f4 [16]
00000000: f114 c03e a2d6 933e 44b9 13ba 956d 223e
00000010: 6dfc 743e d848 943e ccba a5b9 c6a1 193d
00000020: 5a31 77bd 4a05 50be 2d90 7b39 6b19 2c3d
00000030: 8e45 ae3e 212d 643e eda7 13ba 90a5 8a3e
0.37515977 0.2887469 -0.0005635212 0.15862115 0.23924418 0.28961825 -0.00031610427 0.037507795
-0.0603498 -0.20314518 0.00023990935 0.042016428 0.3403744 0.2228284 -0.0005632628 0.2707944

bias_hh_l1 f4 [16]
00000000: 03e7 bb3e 242c 883e 44b9 13ba 1c25 293e
00000010: 643a 783e 0a90 a93e ccba a5b9 318a 3d3a
00000020: ed0a d73e 0695 30be c2e2 9439 6df8 24be
00000030: 45d2 813e 4264 b73d eda7 13ba fdbe 683e
0.36699685 0.26596177 -0.0005635212 0.16518062 0.24241024 0.33117706 -0.00031610427 0.000723037
0.42000523 -0.17244348 0.00028397708 -0.16110392 0.25355735 0.089546695 -0.0005632628 0.22729106

weight_ih_l1_reverse f4 [16, 8]
00000000: 6a2e af3e d70c c9bd 65d5 303e 4830 33bd
00000010: 2a6e 41be 7c8f 20be d37a 343e d6f1 9ebe
00000020: 24af 25bc cdbb 3a3d 86d5 783f 4dea 7f3e
00000030: 89ff 8c3e a292 e43e d6c2 05be c938 cfbc
00000040: 10c8 b63e 9634 e1be 3abd 533e 9b20 7cbd
00000050: b194 a2be fef2 8fbe ada3 2a3e ffae bdbe
00000060: 8954 923d 9fef ea3e 1e87 793e b713 c33e
00000070: 3a4d 30be 4531 97ba d425 893d 4869 58be
00000080: 085a 183e 9a65 b23e e949 013e de4c cfbc
00000090: be39 243d 7b5d bc3d b37e 8e3d 1e7a 9abd
000000a0: 14b9 8dbe e624 ad3e ac5d 223e 14e3 07be
000000b0: 0253 47be 8a47 57be faf1 3ebd 8fcf 0fbe
000000c0: d183 96be 425e 3a3f 7b15 9e3d 85ea adbe
000000d0: 32d6 a33c ae06 863d b80a 3f3e 50cc 973d
000000e0: affa aebd 4529 c4bd 3030 103e 921d 89be
000000f0: 44eb 45be bebe 36be f56e cd3d 1f67 28be
00000100: f825 d7be f3cd 98bf a2f8 8e3f 78f5 76be
00000110: 1436 363f 5e4a 4c3f 312f 81be 8098 99be
00000120: 0908 ee3e c34c 6c3f 8677 efbf 5d4c 47be
00000130: 3cda 00bf 636a bdbe befb a2bd e299 6a3e
00000140: c68d 7f3e 7659 9b3f 930e 20c0 5bef a4bc
00000150: c9c9 aabe 6e46 853d c4f9 5e3e b96e 98be
00000160: cccc 203e 0b07 7d3e 39da 92bf cf2e 68bf
00000170: 7c1c b33d 2514 aebe c6a5 8e3d d48c aa3e
00000180: 0f5b ba3e 0768 c2bc 8e96 7c3e 127a 34bc
00000190: ba42 4bbe 99f7 22be b25d 533e ea94 bfbe
000001a0: f6c9 193e fc39 473e 23df 3b3e e5ea b5bc
000001b0: 1180 9bbe 9ec7 88be f71a 923d 207b b6be
000001c0: 95e2 ba3e 4dc9 7cbe 0d10 4f3e 7a8b 6bbd
000001d0: 114f bbbe 75c2 a0be 7dd3 513e d9d5 e2be
000001e0: 7a76 373e 0c25 e03d 076b 923e a5f2 9b3e
000001f0: 4df2 48be 019e 82be 37b8 453e 18c5 d2be
0.342151 -0.09816902 0.17268904 -0.043747216 -0.1888968 -0.15679735 0.17624979 -0.3104388
-0.010112558 0.045589257 0.9720081 0.24991722 0.27538708 0.44643122 -0.13062605 -0.025295632
0.3569951 -0.43985432 0.20677653 -0.061554532 -0.31754068 -0.28115076 0.16664 -0.37047574
0.0714503 0.4588594 0.2436795 0.3810098 -0.1721696 -0.0011535069 0.06696668 -0.21133912
0.14878094 0.3484314 0.1262585 -0.025305208 0.04009413 0.091975175 0.0695776 -0.07542823
-0.27680266 0.33817214 0.15856045 -0.13270217 -0.19465259 -0.21023384 -0.046617486 -0.14044021
-0.29397443 0.72800076 0.07718941 -0.33967987 0.019999597 0.06544243 0.18656433 0.074120164
-0.08543908 -0.09578184 0.14080882 -0.26780373 -0.19328028 -0.178462 0.10030929 -0.16445588
-0.42021155 -1.1937851 1.1169627 -0.24117076 0.71176267 0.79800975 -0.25231317 -0.2999916
0.46490505 0.9230463 -1.8708351 -0.19462724 -0.50333 -0.3699523 -0.07958172 0.22910264
0.24956426 1.2136676 -2.5008895 -0.020133665 -0.33357075 0.06507574 0.21774966 -0.29771975
0.15703124 0.24709718 -1.1472846 -0.90696424 0.08745667 -0.33999744 0.069652125 0.33310568
0.36397597 -0.023731245 0.24666807 -0.011015432 -0.19849673 -0.15914764 0.2064121 -0.374183
0.15018448 0.19455713 0.18346839 -0.022206733 -0.30371144 -0.26714796 0.071340494 -0.35640812
0.36500993 -0.24686165 0.20220967 -0.057506062 -0.3658376 -0.3139836 0.20490833 -0.44303778
0.17916289 0.10944566 0.2859728 0.3045856 -0.1962368 -0.25511172 0.19308554 -0.41165996

weight_hh_l1_reverse f4 [16, 4]
00000000: c2f9 cebd 3ee5 013e 4427 013e 8689 6e3d
00000010: 6fed b5be edad 143f 3f2a 6a3f 188a 473e
00000020: 2260 db3d 25b3 943e 0a2e 1d3e 9132 1c3d
00000030: ff9c 013c 1ad6 133d 8ee6 18be b8ec 3cbe
00000040: 6dbd f8bd d37a c33d c7ff 5fbd 9ec0 92bd
00000050: 1948 27bd c4a6 02be b98c 82bf 0ef8 a23d
00000060: 0fda 1abe 56e2 a83c 7305 9a3e 8b34 c93e
00000070: 2225 b0b9 adab e93a 58ab 09be 6957 4dbe
00000080: 0c7c ac3e db49 343d ab69 f13c 2d2a 6c3e
00000090: 1571 913f 943b 763b 4f45 8bbf 6ccc 19bf
000000a0: 207d 4d3e 50e7 25bf c264 033f 2249 fb3d
000000b0: 57fa 873e 3dcd 20be 8f58 f43e 1b60 183f
000000c0: 3e37 e3bd 3a88 933d b68e ef3d dd93 51bd
000000d0: 345a 82be 0386 da3d 9062 46bd 1f5b 13be
000000e0: 3e9f 853d 94d5 463e 1ea0 203d fc19 b83c
000000f0: 71b7 1dbe 5907 6d3c 44bc 8abb 5698 80be
-0.10106231 0.12685105 0.12612635 0.05823662 -0.3553271 0.5807789 0.9147071 0.19486272
0.10711695 0.29042926 0.15349594 0.03813416 0.007910966 0.036092855 -0.149317 -0.18449676
-0.12145505 0.09544911 -0.054687288 -0.07165645 -0.040840242 -0.12758929 -1.0199195 0.07957469
-0.15122245 0.020615738 0.30082282 0.392979 -0.00033597002 0.0017827653 -0.13444269 -0.20052876
0.3368839 0.044015747 0.029469332 0.23062964 1.1362635 0.0037572132 -1.0880526 -0.6007755
0.20067263 -0.6480608 0.5132562 0.12269808 0.26558182 -0.15703292 0.47723815 0.59521645
-0.11094521 0.072037175 0.11697142 -0.051166404 -0.25459445 0.10670092 -0.04843384 -0.14390229
0.06524514 0.19417411 0.0392152 0.022473328 -0.15402009 0.014467084 -0.004233869 -0.25116223

bias_ih_l1_reverse f4 [16]
00000000: 5287 113f 715b bf3e 8902 2d3f 6538 083f
00000010: 8fcd db3d 7ed3 a93e bd23 023d f575 ad3e
00000020: a2c3 d23d 23fb d9bd b508 e63d c7cc 92be
00000030: 9e4e 1c3f 762c 203f 4659 423f af61 f63e
0.5684711 0.37374452 0.67581993 0.5321105 0.107325666 0.33169168 0.031772364 0.33879057
0.1029122 -0.10643604 0.112321295 -0.28671858 0.6105746 0.6256784 0.7591747 0.48121402

bias_hh_l1_reverse f4 [16]
00000000: d41e 093f 1313 b53e 5246 313f ca19 523e
00000010: e13e e53d 9267 aa3e f375 dc3c 03cc b03e
00000020: 8469 783e 200d ecbc 0b8d 89be 0079 9fbd
00000030: 5297 153f 501f 153f 3a09 453f 4c9c 1a3f
0.53562665 0.35366115 0.69247925 0.2051765 0.11193634 0.33282143 0.026911711 0.3453065
0.24259001 -0.028814852 -0.2686542 -0.07786751 0.5843402 0.58250904 0.76967204 0.6039474

weight_ih_l2 f4 [16, 8]
00000000: d961 aebd 366a e6bd eb2e 4fba 7ad3 353c
00000010: e142 7f3e b990 ae3e 45cf 8bbc ed45 023e
00000020: 545c bd3e 4a2f b9bd 5732 8439 b380 9dbd
00000030: ba62 323d d1fe 8ebe 5ccc 2fbe cb53 05be
00000040: 5117 673e 3267 f63c 5a74 2eba 4d15 e03d
00000050: 5802 c03d 7d1f 19be 98b6 43be 6694 42be
00000060: aba5 bcbd 38c3 c73a 047a aa39 ce75 3a3d
00000070: b204 773e 376f 20be 8b04 62be 42e0 c1bc
00000080: c434 45be 73b8 01bd eeff 2ebb 1354 c13c
00000090: 1577 d83e 4887 4c3e 1947 943b f5db 7d3e
000000a0: 12b3 09bd 1340 583e ba16 83bb f847 723e
000000b0: 28b2 aebe 335a 16be 28a2 29be 406c 89be
000000c0: 1fae 03be c55a 593e c8c8 86b9 ad51 8c3e
000000d0: 2fa8 233d 3bec c0bc acdc 1b3d e063 69bd
000000e0: 3697 e0bd d51c e63c 0c67 fb39 5962 0d3d
000000f0: 67b8 7c3e 0a7d 29be 7af5 07be d0be 553d
00000100: d4a3 6c3d a7bc 1d3f 3ea4 6b3b a8ce 59bd
00000110: d50b 7b3e 2b9b 1f3f 0b55 50bf 8c46 ccbc
00000120: 286e 4c3e 0435 973e f668 acba ede4 04be
00000130: c57e 193f b57c 8dbf 22ac 29bf ce2c 633e
00000140: a7b0 83be 39b1 5d3f 8504 4bba 369e 343f
00000150: c2e8 e2bd f791 f5bc 412a 9a3e 3e2a 20bf
00000160: f38a 08bf cd27 fb3e 52e0 11bb 3e1a a13e
00000170: 907c 6f3e 9ab0 4d3d 7442 0bbd d467 2bbe
00000180: e9a6 27be 8b5c b0bd 19b1 ddba 3ff9 f13b
00000190: 35e3 c93e 766d 503e 7aa7 5ebc c616 2d3e
000001a0: dce1 163e 50c1 8d3d 11cc 20ba 4a90 dd3d
000001b0: cab7 dfbd 7117 e2bc bfaa abbd 47a4 b3be
000001c0: 4395 a83d 715f 923d 46b8 4439 ee24 103e
000001d0: 2ddd 5bbd ad5a f6bd 83b9 8cbe e4d5 19be
000001e0: c254 5ebe f811 7d3c 46ef 253a e308 d13d
000001f0: 4b7a d03e d1b7 7dbe 4842 a0be 8a0c 9c3e
-0.08514757 -0.11250727 -0.00079034147 0.011097783 0.24927856 0.3409479 -0.017066607 0.12721987
0.36984503 -0.09042223 0.00025214508 -0.07690563 0.043551184 -0.27928784 -0.171678 -0.13020246
0.22567488 0.030078504 -0.0006654911 0.10941563 0.09375447 -0.14953418 -0.19112623 -0.19001922
-0.09211286 0.0015240675 0.00032515835 0.045522504 0.24122885 -0.15667425 -0.22072046 -0.023666505
-0.1925841 -0.031670045 -0.002670284 0.02359966 0.42278352 0.1997348 0.004525077 0.24790938
-0.03361804 0.21118192 -0.004000512 0.23660266 -0.34120297 -0.14682846 -0.16565764 -0.268404
-0.1285939 0.21226032 -0.00025708065 0.27406064 0.039955314 -0.023550143 0.038052246 -0.056980014
-0.10966341 0.02808992 0.00047951227 0.03451762 0.24679719 -0.16551605 -0.13277236 0.052183926
0.057773426 0.61615986 0.003595605 -0.0531756 0.24516232 0.6234614 -0.81379765 -0.024935983
0.19963896 0.29532635 -0.0013153839 -0.12977953 0.5995906 -1.1053683 -0.6627828 0.2218506
-0.25720713 0.86598545 -0.0007744509 0.7055391 -0.11079551 -0.029976828 0.30110362 -0.62564456
-0.5333702 0.49053803 -0.002225895 0.31465334 0.2338736 0.05021725 -0.03399892 -0.16738826
-0.16372265 -0.08611401 -0.0016913741 0.007384449 0.39431158 0.20354256 -0.013589734 0.16903219
0.14734596 0.06921637 -0.0006133924 0.108185366 -0.10923727 -0.027599068 -0.083821766 -0.3508627
0.082315944 0.0714711 0.00018760664 0.14076588 -0.053677727 -0.12029014 -0.27485284 -0.15022999
-0.2171202 0.015446179 0.0006329905 0.10206773 0.40718302 -0.24777152 -0.3130057 0.30478317

weight_hh_l2 f4 [16, 4]
00000000: ecca c73d 6b4d f1bc a262 09bd 24b4 4fbc
00000010: 43d0 133e 5308 203e 19ad bb3d adb3 4abd
00000020: 8896 e93c 7071 6c3c 771c d73d fb3e 05bd
00000030: 6aaa bc3d 60a9 ab3d 91cb 7b3d 8d8a 663d
00000040: 466e 9d3d 12cf c0bd 32cc b93d 0ead 9f3d
00000050: 7316 b93c f13d 2d3f 0f83 5ebe 3f42 81bd
00000060: f233 00bd 7e5e aa3e a428 0f3e dab1 953d
00000070: a953 503d 48fb fa3d 6089 b23d ffec ae3d
00000080: f1a9 ee3e 4b6b 15be 8027 dcbd 90a4 2d3e
00000090: 2ac4 c13e 0cc9 fe3d 8e02 3f3d 3dc0 733e
000000a0: 7451 af3d 4f28 3fbf cf1c 6b3c d78f ab3e
000000b0: f314 b43d 5c25 82be 9c21 dd3d 346b 093e
000000c0: c051 353e 3fb0 493d a02a d73c 98ff 413d
000000d0: b947 813e 792f be3e ca45 13bd 8cbf 8bbc
000000e0: 9bd1 403e 7530 e33d 38cc 423e 6f3b 943c
000000f0: 78df 3e3e f1f3 e13e 1347 453e 4a6f 193e
0.09755501 -0.029455861 -0.03354133 -0.012677226 0.14434914 0.15628175 0.09163875 -0.04948776
0.028514162 0.0144313425 0.10503476 -0.032530766 0.092121914 0.08381915 0.061473433 0.056284476
0.076870486 -0.094144955 0.0907215 0.077966794 0.022593712 0.6767264 -0.21729682 -0.063114636
-0.03129954 0.33275217 0.13980347 0.07309313 0.050861035 0.12254959 0.087176085 0.08541297
0.4661403 -0.1459171 -0.107497215 0.16957307 0.37844974 0.124406904 0.046633296 0.23803802
0.08560458 -0.7467088 0.01435013 0.3350818 0.08793058 -0.25419128 0.10797426 0.13419801
0.17706966 0.049240347 0.026265442 0.047362894 0.25250033 0.37145594 -0.035955228 -0.01705911
0.18829958 0.11093227 0.19023216 0.018094746 0.18639934 0.44131425 0.19265394 0.1498386

bias_ih_l2 f4 [16]
00000000: c3af c53e 6da4 5e3e 4aad e63e 56e7 913e
00000010: 4845 4c3e 5a3a ef3d 3a11 883b 5d4a d53b
00000020: 3b69 d33d 4e1e 11bd cda4 c73d 3782 9d3b
00000030: d740 db3e fddf d83e 6f2e dc3e 74e8 9bbd
0.38610658 0.21742411 0.45054084 0.28496808 0.19948304 0.116810516 0.004152444 0.006509109
0.103228055 -0.03542929 0.0974823 0.0048067826 0.42822906 0.4235839 0.43004176 -0.07612696

bias_hh_l2 f4 [16]
00000000: f294 c13e f8a8 c43e f5ba c43e abec 9b3c
00000010: 11df 513e f346 063e 0ea5 c13d 78e8 1e3e
00000020: d736 7c3d 71cf 543d faad 2dbe 90e3 88be
00000030: 9a30 e63e 4035 013f 31ff 0b3f 4d9f d13d
0.3780895 0.38410163 0.38423887 0.01903375 0.2049525 0.13113002 0.0945531 0.15518367
0.061575737 0.051955644 -0.16960898 -0.26736116 0.44958955 0.5047188 0.54686266 0.10235462

weight_ih_l2_reverse f4 [16, 8]
00000000: 6ec4 e13d e731 213e 2747 b43a 5832 e8bc
00000010: dfc4 4f3d c4c3 93bb 10a9 ffbe a791 c8be
00000020: da28 16be 51ba 03be 958a b739 feb0 73bc
00000030: 8fc1 b33d 5fef e4bd 923d 9abe b7c4 d7bc
00000040: 46e4 583d 742e 6abc d322 03ba d768 40bb
00000050: 8a53 713c efa3 95bd 5ced 97bd 8eff a2bd
00000060: 3ea7 8e3e cea3 7ebe 94f5 853a 3810 b8bd
00000070: c19f a7bd 9705 b1bc 1900 bebe d96e a4be
00000080: 4aee 423d 210c 7c3c 272e cc3a 2541 51bd
00000090: d842 cc3c 51b7 0c3c 41c7 5dbe 1605 63bd
000000a0: be39 0ebd 1f0e 8dbd 4303 a0b7 b1f1 153d
000000b0: 39d2 a73c d0bd c4bd cbfb 3bbe a221 fbbd
000000c0: 4eee 803c e349 f2ba 52ff 43b8 c301 5bbc
000000d0: 2f29 7c3b ea47 06bd ba66 923c a3f5 95bc
000000e0: d7ef 053b dfb3 4fbd 774f 633a cbea c03d
000000f0: 65a0 a73d 41c7 e83e 0723 ffbd c908 12be
00000100: 3b84 8bbe da44 083f 8eeb 043b e09e cabd
00000110: 8e41 96be 71d7 fcbe 35f0 d83d 8cfd 48bf
00000120: 0fd6 43bf b5b5 c53e dc42 30b8 fe33 353e
00000130: 352c fc3e 385c 29be baef 0abe 5dfa e5bb
00000140: 7ecd af3e 2a2e 64be 206b d93a d9b2 83be
00000150: 7c5f 633e dff6 85bc 1932 1ebe b25f 0b3f
00000160: 5a2f 283e 8f9d ce3e 7530 de38 9c14 0c3e
00000170: 1c7b 153e 8add 9ebf 0a0c cdbf ec93 12bf
00000180: adb8 bd3d 24e3 0f3e f5d5 b53a 80de 783a
00000190: cce1 28bb bf57 00bd eb3c fabe 9b2a 0cbf
000001a0: 38cf 9bbe a070 b7bd 9710 db3a c37e b8bd
000001b0: fe11 0d3f 7ee4 c2be b336 14bf b39d 1a3d
000001c0: 90d2 5d3d d353 2fbb 8843 07ba d549 db3a
000001d0: 6573 3f3d 2bd1 b4bd 7b6e 0ebd 23ef 98bd
000001e0: 9fb4 f93d 23fb 15be f682 28ba c456 533c
000001f0: a949 fe3c e91c e03d 63b1 fdbe c751 d1be
0.11023794 0.15741692 0.0013754115 -0.028344318 0.05072486 -0.004509421 -0.49933672 -0.39173624
-0.14664021 -0.12864043 0.00035007732 -0.014873741 0.08777153 -0.11178469 -0.301251 -0.026338918
0.052952074 -0.014293302 -0.00050024426 -0.0029359364 0.01472939 -0.073066585 -0.074183196 -0.079588994
0.2786197 -0.24867174 0.0010220283 -0.089874685 -0.081847675 -0.02160911 -0.3710945 -0.3211582
0.04759053 0.015383751 0.0015577719 -0.051087517 0.024934217 0.008588628 -0.2165804 -0.055424772
-0.034723036 -0.06887459 -1.9075005e-05 0.036607448 0.020485984 -0.09606516 -0.1835777 -0.12262274
0.015738633 -0.0018485155 -4.672941e-05 -0.013367119 0.0038476696 -0.032783426 0.01787125 -0.018305605
0.0020437145 -0.050708648 0.0008671204 0.09419783 0.0818489 0.4546452 -0.12457853 -0.14261164
-0.2724932 0.5323006 0.0020282003 -0.09893584 -0.2934689 -0.4938312 0.10592691 -0.7851188
-0.764985 0.38615194 -4.2023938e-05 0.17695615 0.49252477 -0.16539085 -0.13568011 -0.007018371
0.34336466 -0.22283235 0.0016587712 -0.25722387 0.22204393 -0.016353069 -0.15448798 0.54442894
0.16424313 0.40354583 0.00010594811 0.13679737 0.14597744 -1.2411358 -1.6019299 -0.5725696
0.0926374 0.14051491 0.0013872968 0.00094936043 -0.002576935 -0.03133368 -0.48874602 -0.5475251
-0.30431533 -0.089570284 0.0016713318 -0.09008553 0.5510558 -0.3806495 -0.57895964 0.03774805
0.054155886 -0.0026752844 -0.0005159904 0.0016730378 0.04674091 -0.08828958 -0.03477333 -0.07467487
0.12192654 -0.14646582 -0.0006428206 0.0128991045 0.031040983 0.10943014 -0.49549398 -0.40882704

weight_hh_l2_reverse f4 [16, 4]
00000000: 1bb5 d53b 15fa a13d 96f1 0bbd 8e52 a3bd
00000010: 0c8f 123c 8fe4 84bc dcae 6abc f5a9 513c
00000020: 3a27 dc3b 8746 a73b 93e1 15bb fbdc d33c
00000030: 1e96 fa3c 2c6c 19be 71f5 13bd 314a 53bc
00000040: 08eb bdbd c3d8 15ba e7ac 263d fb90 f73c
00000050: fa59 723d 1284 22bc 12db 16bd 86e6 873d
00000060: ab31 d73b 9ed1 4d3c 4c6e bd3a 87f0 613d
00000070: 42ff b93d 872a bcbd 5b5c adbc 96b1 ca3e
00000080: 5378 16bc 61ab 02bf ce70 d43e 0b58 6a3f
00000090: 0aac 413d caad aa3e 2f24 f2bb 38fd c43d
000000a0: f705 fbbd cf59 06bd 7e30 3b3d 57b2 be3d
000000b0: 94f7 2e3e c175 fcbe 9753 fb3d 613b 5b3f
000000c0: 4902 2b3d eadf 9d3d 858c 7cbd 4e57 edbc
000000d0: 6086 04bd 8302 f23a d88b f9bc 05f5 c13d
000000e0: c387 cc3b f103 a03c c591 70b8 7804 903d
000000f0: f9e9 443d adc4 c3bd 6bb1 c6bd 3597 0d3d
0.0065218336 0.079090275 -0.03416594 -0.079747304 0.008945238 -0.016222266 -0.014323916 0.012796869
0.0067185434 0.005104843 -0.0022870048 0.025862208 0.03058916 -0.1498267 -0.036122743 -0.012896107
-0.09273344 -0.0005716199 0.040692236 0.0302205 0.05916784 -0.009919183 -0.036830015 0.06635766
0.0065672 0.012562184 0.0014452427 0.055161025 0.0908189 -0.09187799 -0.021162203 0.39588612
-0.009183961 -0.51042753 0.41492313 0.9154059 0.04728321 0.33335716 -0.0073895673 0.0961861
-0.12256997 -0.032800492 0.045700543 0.093113594 0.17086631 -0.4930859 0.12271803 0.8563748
0.041750226 0.07708724 -0.061657447 -0.028972294 -0.032354712 0.0018463883 -0.03046219 0.09470562
0.00624177 0.01953313 -5.7356217e-05 0.07032102 0.048074696 -0.09558997 -0.097018085 0.03456803

bias_ih_l2_reverse f4 [16]
00000000: deab bb3e 7750 cc3e e244 193e 76ba 153f
00000010: d02f 063d eb7c 5f3e 26b9 ad3c f88b d03d
00000020: 43c2 a53e f453 00be 4613 80bd 7f22 953d
00000030: 831e d33e 63cb f03d 7963 023e b8c1 e83e
0.36654562 0.3990514 0.14967683 0.5848764 0.03276044 0.21824996 0.02120645 0.10182947
0.32374772 -0.12532026 -0.06253676 0.0728197 0.41234216 0.11757543 0.12733258 0.45460296

bias_hh_l2_reverse f4 [16]
00000000: 2422 6a3e 54a3 8f3e 8e55 143e a273 163f
00000010: a4a3 873d 4071 5f3e 32b4 ad3c 80cc bd3d
00000020: 8dc1 d1bd 4b5a 76be a3c6 67bd c24e 26bd
00000030: 902b c13e b981 c53d 38fe 0c3e d171 e13e
0.22864586 0.28054297 0.14485762 0.5877019 0.06623009 0.21820545 0.021204088 0.09267521
-0.10241995 -0.24057882 -0.05658592 -0.040602453 0.37728548 0.09643883 0.13768852 0.44032148

weight_ih_l3 f4 [16, 8]
00000000: 7615 383e d36f 0d3e feb8 143e c568 b43d
00000010: 6778 6e3d 36fe 0e3e 2ae9 3cbd 20d8 0f3e
00000020: b719 453e 419b f13e 2ade 3bbd c66e 24bd
00000030: 3726 d1bb 432e 6c3c 79d6 e3bc 1c56 9f3e
00000040: cf73 ed3d 467c ad3d bed0 f13d 14d3 b33d
00000050: a52b c43d 990d dd3d ed8a 40bd d9a0 193e
00000060: f5a9 a03e 8096 453c d6ac a9bb fb0c c43c
00000070: 369b 50bd 49ab 173d ad2c c6bc dc7f 993d
00000080: 7606 3b3e 3a71 1a3e 3764 753e 5468 373e
00000090: 41c5 3b3d b245 5f3e 65a9 50bd 2aef c43c
000000a0: 492f 0c3e e137 a83e 13a0 033e c093 e83d
000000b0: cf4c 6e3d 1a62 563e 813a 11be 650b 84be
000000c0: 801a 0c3e a9f1 1e3e 1b3b ff3d d3b0 053e
000000d0: b3b2 ac3d 43a5 053e 1791 19bd bcd6 263e
000000e0: 8f8b fa3e c7dc e1bd 1898 ec3d 102c 183e
000000f0: 878a e73d 7008 133e e475 fcbd bb02 a9bd
00000100: 24e7 22be c938 083d b14b ddbe d04c abbe
00000110: 3035 c9be 0bad ecbe 1002 1c3e 8698 9abe
00000120: 8355 e4bc 9613 273f bc9c 05bf b638 10bf
00000130: 5ad1 13bf 5c77 03bf 3b1a 813e 8b99 8dbd
00000140: b5a9 e73d f6db 4c3e 4109 db3e 6ed5 133e
00000150: 7900 073e 7fa3 8d3e 6ed1 05be 9dc5 96bd
00000160: 736f 07bf 2bcd 023e cd5a 133e f72e 843b
00000170: 5ebd 533f 42d7 5b3e 8c1b a8bd b2ef d23e
00000180: 7bdf a13e 2576 aa3e 74eb 913e 2e5b 753e
00000190: d100 f03d 0235 4b3e 01d2 9bbd cde5 8f3e
000001a0: 7643 c73e 3db5 933e 8feb 3e3e 967a 103e
000001b0: 80a3 af3d 62c1 833d fad1 78bd 2b5d c73d
000001c0: f899 693e e147 793e 1914 683e ca3e 543e
000001d0: d38a 183e cca7 103e 9fa8 a0bd cafa 153e
000001e0: c63f ea3e a51f 273e 616a 5f3e e64b 3b3e
000001f0: 9bdc 123e d11c dd3d f394 aabd 12b6 e3bd
0.17976937 0.13812189 0.14523694 0.08809046 0.058220293 0.13964161 -0.0461208 0.14047289
0.1924809 0.47188762 -0.04586617 -0.040144704 -0.0063827294 0.0144153265 -0.02781223 0.31120384
0.11594354 0.08470969 0.118073925 0.08780494 0.09578637 0.10793609 -0.04700749 0.15002765
0.31379667 0.012059808 -0.0051780744 0.02393197 -0.05092927 0.037028585 -0.024191225 0.0749509
0.18264183 0.15082255 0.2396401 0.17910892 0.045842413 0.2180393 -0.050942797 0.024039824
0.13689913 0.32855132 0.12854032 0.11356306 0.05817872 0.2093586 -0.14182474 -0.25789943
0.13681984 0.15521874 0.12462445 0.13055734 0.08432522 0.13051324 -0.037491884 0.16292852
0.489346 -0.11028438 0.11552447 0.14860559 0.11305719 0.14358687 -0.12327173 -0.08252474
-0.15908486 0.03325728 -0.4322181 -0.3345704 -0.3929839 -0.4622577 0.15235162 -0.3019449
-0.027872806 0.6526426 -0.5219228 -0.56336534 -0.5774132 -0.51354 0.25215325 -0.069140516
0.11311666 0.20005783 0.42780498 0.14436886 0.13183774 0.276638 -0.13068172 -0.073619105
-0.52904433 0.12773578 0.14390106 0.004033919 0.82710826 0.21468833 -0.08208379 0.41198498
0.31615815 0.33293262 0.2849995 0.23960564 0.11718906 0.1984444 -0.076084144 0.28105012
0.38918656 0.2884921 0.18644546 0.14109263 0.08576107 0.06433369 -0.060747124 0.09734567
0.2281264 0.24343826 0.22663917 0.20727077 0.14896707 0.1412651 -0.07844662 0.1464645
0.4575178 0.16320665 0.21817924 0.18290672 0.14341967 0.10796512 -0.08329191 -0.111187115

weight_hh_l3 f4 [16, 4]
00000000: 31a2 e4bd d008 d9bd 7606 dc3d aebc f73d
00000010: 5e51 d4bd 4415 a83d 94ff 263d 4bf8 5c3e
00000020: 5b0e dbbd 051f f2bd 2e91 9d3d 5eb1 c83d
00000030: 8f0c b8bc f3f8 c13b 144e 093d 6180 00be
00000040: dc6f e1bd 0c00 cebd ec2e 1a3e f4dc 943d
00000050: 016f 56bd 3333 bd3e 2cb5 003e 8e23 aa3d
00000060: aca5 11be 2fc0 0abe a12b db3d a07e dc3d
00000070: 2d78 f5bd 3fa5 f0bd 9fac 9b3d ae1b 2ebe
00000080: 3415 81bd 71eb 8cbd 9667 0f3e ccc7 eb3d
00000090: 0edc 02be 82c5 063e 6a61 633e 575c 4ebd
000000a0: 07f3 24bd 9980 cabd 89d3 863b dbd5 14bd
000000b0: 9cc6 ddbd db01 183e 9892 7dbe 6d56 7c3e
000000c0: 7a32 93be c232 8cbe 15ab 843e 0ce8 6e3e
000000d0: 9d33 6dbe 0ef3 52bd decd 3e3e ea6c 913e
000000e0: 85c3 81be 5499 82be 2801 5d3e a22b 723e
000000f0: 3e83 4ebe c649 15be 4c2b 4c3e 88e0 b8bd
-0.11163748 -0.10597384 0.1074342 0.12096535 -0.10367082 0.08207181 0.040771082 0.21579091
-0.106960975 -0.11822323 0.076937065 0.09799455 -0.022466926 0.0059195696 0.033521727 -0.12548973
-0.110076636 -0.10058603 0.15056962 0.07268706 -0.052351955 0.36953124 0.12569112 0.08307563
-0.14223355 -0.13549875 0.10701681 0.10766339 -0.11985812 -0.11750268 0.07601284 -0.17002746
-0.06302872 -0.068808444 0.14004359 0.115127176 -0.12779257 0.13161281 0.2220513 -0.05038103
-0.04027083 -0.09887809 0.0041145724 -0.03633676 -0.10828897 0.14844458 -0.24762952 0.24642344
-0.28749448 -0.27382475 0.25911775 0.23330706 -0.2316422 -0.051501326 0.1863322 0.28403407
-0.25344482 -0.25507605 0.21582472 0.23649457 -0.20167252 -0.14578924 0.19938391 -0.09027201

bias_ih_l3 f4 [16]
00000000: 0cda 0a3e 8f80 b53e bd62 e43d 64c5 c13e
00000010: 08b3 863d d3ed 803e b767 9e3d f7da a43e
00000020: d1b6 893d d035 fabd 2f05 2e3e 8065 8a3e
00000030: e9e0 243e bd49 d13e 6d33 793e 3b44 c93e
0.13559741 0.35449645 0.11151645 0.3784591 0.06577116 0.25181445 0.07734626 0.32198307
0.067243226 -0.12217295 0.16994165 0.27030563 0.16101421 0.4087657 0.24336024 0.39309868

bias_hh_l3 f4 [16]
00000000: c080 fa3d 8d2c 313e 2a64 e43d 22b8 6e3e
00000010: 0e70 ad3d d789 a63e 7d5b 9e3d 9b67 e73d
00000020: 6367 31bd 50b7 413d bed4 a03c c921 673d
00000030: e499 1f3e d12e 0f3f e033 793e 94f8 ca3e
0.12231588 0.17302151 0.11151917 0.23312429 0.08468638 0.32527038 0.07732294 0.11299058
-0.043311488 0.04729396 0.019632693 0.056428704 0.15586048 0.5593081 0.24336195 0.39642775

weight_ih_l3_reverse f4 [16, 8]
00000000: a4b6 363e eb75 2c3e 2360 193e 7ef4 f63d
00000010: 6aec 8b3d 45d6 b33d 1c56 16bd 3720 203e
00000020: 248b d13d a8cb f93d 1aa5 fa3d be91 bf3d
00000030: fd38 893d 89e1 943d 8756 08bd e67e 983d
00000040: 8918 5c3e 4b31 6a3e 8dae 3c3e 7ace 023e
00000050: b061 c13d 3cc9 c73d ba15 37bd 1f59 4c3e
00000060: cec9 8d3e 4dec 763e 507f e73d a356 c73d
00000070: cf9d 7c3d 1dca 673d 1fda 12bd 3935 923e
00000080: 18a5 f83c 531d 783c 24af ab3c 839e 4d3c
00000090: 868c 803c 85d2 a93c 8b78 e4bb c04e fb3c
000000a0: 2656 4d3c 8f0e 6b3c 0447 4f3c e884 113c
000000b0: a6cb a23b 8c30 8b3c bef0 90bb 61d3 603c
000000c0: d0aa d83c e672 db3c 050a 0a3d 0a73 793c
000000d0: 6fbe d33c 45be c63c 38cf 4abc 6bde c83c
000000e0: f5e3 4b3d c3e9 743c f572 903c 0d92 883b
000000f0: ec81 043d be6d 333c f034 97bb b1b7 9a3d
00000100: 33d2 da3d 7e2e 153d 271f 0a3f 608f 883e
00000110: 66a5 7c3e 73c6 c43e 1b7b e2bd 4e58 ff3d
00000120: 66dc d4bd 3673 bf3d 3353 ad3e 1c84 5f3e
00000130: 5596 a13e 7dd1 623e c10b c8bd b866 bc3d
00000140: 8cf1 fbbd 87fd 7ebe 0de3 c2be 0aa3 81be
00000150: b526 e7be a778 0ebe f71a 253e ec4f dcbe
00000160: e3ab 0cbd aac6 fc3b 7a3d 80bf 3eaf 88be
00000170: 6dbe 25bf f561 03bf 3691 6c3e ced3 b9bd
00000180: 836a 473e c113 413e 04f4 303e 4d6e 0d3e
00000190: a315 b83d 2b48 da3d 29df 3dbd dd69 3a3e
000001a0: cb2c e03d abbe 0a3e 48a9 073e b086 d13d
000001b0: e474 9d3d c171 ae3d 3d76 1cbd 3e07 b53d
000001c0: a1db 753e 689c 823e 8a1d 5a3e 6efa 193e
000001d0: eaed f33d 1dc6 ff3d e0cc 6bbd a42d 603e
000001e0: 0916 ac3e 587c 9d3e e045 083e 144b 083e
000001f0: 672e a23d 0819 b13d acb3 2abd d75e b13e
0.1784311 0.16841857 0.1497808 0.12058352 0.06832202 0.08781103 -0.036703214 0.15637289
0.10231617 0.121970475 0.12238522 0.0935397 0.06700323 0.0726958 -0.033285644 0.07446079
0.21493734 0.22870366 0.18425961 0.12774077 0.094424605 0.09755179 -0.044698454 0.19955872
0.27693027 0.24113579 0.1130358 0.097333215 0.061673936 0.056589235 -0.035852548 0.2855623
0.03035216 0.01514371 0.020957537 0.012549999 0.015692007 0.020730266 -0.0069723777 0.0306772
0.012532746 0.014346733 0.012651209 0.008881785 0.0049681244 0.016990922 -0.00442323 0.013722272
0.026448637 0.026788186 0.03370096 0.015225181 0.025847642 0.02426065 -0.012378506 0.02452012
0.049777944 0.014948311 0.01763294 0.0041678012 0.032350466 0.010951458 -0.004614465 0.075545676
0.106846236 0.03642129 0.53953785 0.26671886 0.2467247 0.38432655 -0.11058637 0.12468015
-0.103936 0.093481466 0.33852538 0.2182774 0.31560007 0.22150226 -0.09767867 0.091992795
-0.12301931 -0.249014 -0.3806385 -0.253197 -0.4514672 -0.13913213 0.16123568 -0.43029726
-0.03434361 0.0077141123 -1.0018761 -0.266962 -0.6474369 -0.51321346 0.23102269 -0.09073602
0.19474225 0.18855192 0.17280585 0.13811608 0.08988502 0.10658296 -0.0463554 0.18204446
0.109460436 0.13549297 0.1324817 0.10230768 0.07688311 0.085177906 -0.0381987 0.08839272
0.24009563 0.25509953 0.21300331 0.15036938 0.11910613 0.12488959 -0.05756843 0.2189241
0.3361056 0.3075893 0.13307905 0.1330989 0.07919007 0.086473525 -0.041675255 0.3464267

weight_hh_l3_reverse f4 [16, 4]
00000000: f42e 7a3c 6f31 073c b344 7cbc 69b1 b6bc
00000010: 3250 283c 59c7 b23b 55d8 36bc 49af 96bc
00000020: 55be b53c eb95 723c 33ba a9bc bbc3 25bd
00000030: 2a8f 553c 27a7 183c eb53 82bc 6bfd 75bc
00000040: 7001 a83c 59a4 513c cf33 b7bc f9cf edbc
00000050: 714e 3b3c 39e6 e63b 1dcd 53bc d8f3 96bc
00000060: 879d e83c 48ab a63c 09f4 f0bc cb78 36bd
00000070: b552 ed3c 67ba bb3c 73b3 15bd ffe2 04bd
00000080: a5a8 6c3b db15 cbbb bce1 41bb edf7 cabc
00000090: 45c6 32bc f896 f0bb 2b86 a8bb 14f9 273c
000000a0: 77a6 ee3b 5640 bf3b ff45 893c a294 913a
000000b0: 0a4f 78bc fc48 843c 0af8 293c 3ba9 8f3d
000000c0: ab08 f53c ffa9 9c3c daab 02bd c5d8 2bbd
000000d0: 85b0 9d3c 5d9c 3e3c 92f4 acbc 25dc fabc
000000e0: 5480 343d 7376 f13c 7c62 34bd e4d3 91bd
000000f0: ecec 0b3d 31fb c13c f0e8 1fbd 10e2 24bd
0.015269984 0.008251532 -0.015397239 -0.022301393 0.010273026 0.005455893 -0.011159976 -0.01839413
0.022185484 0.014806251 -0.02071867 -0.040469866 0.013034621 0.009317196 -0.015909156 -0.015014033
0.020508498 0.012795531 -0.022363571 -0.029029833 0.011432276 0.0070464876 -0.012927321 -0.01842682
0.028395427 0.020345345 -0.02941324 -0.04454879 0.028970102 0.022916032 -0.03654809 -0.032443043
0.0036111262 -0.0061976737 -0.002958401 -0.024776423 -0.010911529 -0.0073422156 -0.005142947 0.010252256
0.0072830277 0.005836527 0.01675701 0.0011106918 -0.015155563 0.016148083 0.0103740785 0.070147
0.02991136 0.01912403 -0.03190217 -0.041954774 0.01924921 0.01163396 -0.021112714 -0.030622551
0.044067696 0.029475426 -0.044039235 -0.07120493 0.034161493 0.023679348 -0.039040506 -0.040254653

bias_ih_l3_reverse f4 [16]
00000000: a8c7 2b3e b9ba ce3d 25b1 113e f5c1 e43e
00000010: aee3 593c 5a21 9d3b 3cfa bf3c 0b9f 3b3d
00000020: bfbf 313e 6a85 613e 8f24 bcbd 6ea7 6abe
00000030: c6c9 6a3e c23b 0c3e a935 8a3e be55 c03e
0.16775382 0.10094208 0.14227732 0.44679227 0.013298912 0.0047952356 0.02343475 0.045805972
0.17358302 0.2202355 -0.091866605 -0.22915432 0.22928533 0.13694671 0.26994064 0.37565416

bias_hh_l3_reverse f4 [16]
00000000: 3d6c 493e e123 f73d ce66 703e e0da fe3e
00000010: 08e4 593c 1321 9d3b 6223 bf3c 41f4 3c3d
00000020: 9cee d0bd 23c8 8b3d 063f d93d ebe2 ab3e
00000030: d1f9 413e dd30 193e 10af 403e fefe 1c3f
0.19670196 0.1206739 0.23476717 0.49776363 0.013298996 0.0047952025 0.023332302 0.046131376
-0.10201761 0.068252824 0.10607724 0.33571562 0.18942954 0.14960046 0.18816781 0.6132659

weight_ih_l4 f4 [16, 8]
00000000: 1e80 32bd d8b8 fcbd e5f7 293d 2931 bb3d
00000010: 4bd5 063c 6bcc e33c 98b7 dabc f5aa f0bb
00000020: a20e 70be 90bb 5abe 6cb9 413e 1439 0b3e
00000030: dfb4 513e d4f8 013e 45e5 4ebe e16a 9cbe
00000040: fec5 8cbd 54d2 45be 1947 353d 1d9f 1b3e
00000050: d353 303c 7a01 1f3d 35d8 a7bd d02c b1bd
00000060: 3686 3bbe 9b92 5abe c92d 053e 9efc d63d
00000070: 2dc3 053e a8a3 a33d 2c57 1fbe cd1c 74be
00000080: 2bdd 92bd 8f39 14be 1c06 7f3d 17b5 203e
00000090: 719f 493c da26 1d3d 6db3 4ebd 7adc 4c3c
000000a0: d00e b3be 72c1 91be 3159 933e 3ec3 0d3e
000000b0: c5da 843e f6ca 1a3e ae1b 85be a171 c3be
000000c0: d52f d4bd df87 42be ea75 8c3d 1a45 593e
000000d0: 84a5 a63c aa74 4c3d 9054 d7bd d9ec 2abd
000000e0: cedf 6abe 7913 91be 78b8 383e 1b41 213e
000000f0: ef14 1f3e 871c cd3d 539d 29be 760f 96be
00000100: 34c2 263d 2a7b 143f 3e91 0cbd 7052 1abf
00000110: 8707 14be d393 00be 9ce5 babc 659d 443e
00000120: 1935 a8be c5fc 7dbe 328f d03d fe7a b03e
00000130: ebf1 a53e df7b 583e 74f6 c5be 07a1 f4be
00000140: 25cc ee3c ec26 9e3e 11dd aebc 6f80 09bf
00000150: 9525 3b3d 63f8 c8bd a3aa 393e 8db0 cf3c
00000160: 6817 5b3d 5bab b63e 0549 d6bc 71c2 c9be
00000170: 7186 873b f9e9 25bd b8fe 533e 4796 b7bc
00000180: 109f bcbe 7ad9 d1be 39d6 a93e afc3 bd3e
00000190: 5710 3c3e 0c99 003e c1dc 68be 0400 c3be
000001a0: 57ac d8be ffbb d7be 64c5 c63e 955e 9e3e
000001b0: d522 573e c68e 1c3e 69b5 62be 11b8 9dbe
000001c0: 535c aabe 8d72 e3be 20d7 913e 8fdf d23e
000001d0: 8ad3 163e f8e9 f03d f4bf 56be 766b 86be
000001e0: a5bd e8be dc24 03bf 340c cf3e 464b 993e
000001f0: 4795 683e f9f6 193e e337 82be 5a35 e3be
-0.043579213 -0.12339944 0.041496176 0.09140236 0.008229564 0.027807435 -0.026698872 -0.0073445984
-0.23443082 -0.21360612 0.18918389 0.13595992 0.20479153 0.12692577 -0.20204647 -0.30550292
-0.068737015 -0.19318515 0.044257257 0.15197416 0.010762173 0.038819768 -0.08195535 -0.086511254
-0.18312916 -0.21344988 0.13005747 0.10497402 0.13062735 0.07990199 -0.15560597 -0.23839112
-0.07171091 -0.14475082 0.062261686 0.1569408 0.01230608 0.03836713 -0.050464083 0.012503738
-0.3497224 -0.284679 0.28778985 0.1384401 0.25948158 0.15116486 -0.2599768 -0.3817263
-0.10360686 -0.18997143 0.06858428 0.21217766 0.020342596 0.049915947 -0.10514176 -0.04172978
-0.22936937 -0.2833517 0.18039119 0.15747492 0.1553533 0.10015207 -0.1656392 -0.2930867
0.04071255 0.58000433 -0.0343182 -0.6028204 -0.14455996 -0.1255639 -0.022814564 0.19200666
-0.3285301 -0.24803455 0.10183562 0.34468836 0.3241113 0.21141003 -0.3866459 -0.47779104
0.029150078 0.3088907 -0.021345647 -0.537116 0.045690138 -0.09813001 0.18131499 0.02535274
0.05348912 0.3567761 -0.026157865 -0.3940616 0.0041358997 -0.040506337 0.20702636 -0.022410525
-0.36840105 -0.40986234 0.3317125 0.37063357 0.18365608 0.12558383 -0.22740461 -0.3808595
-0.42318985 -0.42135617 0.38822472 0.30931535 0.21009381 0.15288839 -0.22139515 -0.30804494
-0.33273563 -0.44423333 0.2848444 0.41186187 0.14729133 0.11763376 -0.20971662 -0.2625386
-0.45457187 -0.5122812 0.40438998 0.29940242 0.22713195 0.15035619 -0.25433263 -0.44376642

weight_hh_l4 f4 [16, 4]
00000000: 4001 16be 444b 643c 15e4 1dbe 5634 c1bd
00000010: 83d7 04be 2906 5c3e 36f0 15bd 8bf9 38be
00000020: a23e 2abe 62eb cf3c fe2b ffbd f41b 90bd
00000030: bbe9 71bd cf6d 193e a89e 4bbd dcc8 e63c
00000040: 40a1 52be e757 503d d862 66be 3771 12be
00000050: a5ae e1bc 642a 443e 686b 213b 0c37 ebbd
00000060: 31ba 44be 0524 963d 013b e5bd 4c19 debd
00000070: b58d af3d 432d 473e eb16 3ebd d5bf 60bd
00000080: 4930 923e 5916 943d cb55 d03e 0970 0c3e
00000090: 4790 c83d 8085 85be ed60 38be 37c5 8d3e
000000a0: c382 983e 6a90 853d 4258 613e 8739 7d3d
000000b0: 6a1a 6abc b8c9 7cbb 7d1c 883e 0d9b 083e
000000c0: fa6a 96be 6818 a63e 0f08 8bbe 8320 67be
000000d0: 0952 babe 0259 e93e b916 babe a571 d5be
000000e0: 3cfc 62be de98 8d3e b9cd c8be 64b1 9bbe
000000f0: 68df 22be f7aa dd3e 496f 18be d10e 9abe
-0.14648914 0.01393396 -0.15419038 -0.094338104 -0.12972836 0.21486725 -0.036606036 -0.18063943
-0.16625455 0.025380794 -0.12459563 -0.07036582 -0.059060793 0.14983295 -0.049711853 0.02817195
-0.20569324 0.05086508 -0.22498643 -0.14301 -0.027549097 0.19156796 0.002463067 -0.11485109
-0.19211651 0.07331089 -0.11192895 -0.10844669 0.0857195 0.1945086 -0.046408575 -0.054870445
0.28552464 0.07230825 0.40690455 0.13714613 0.09793144 -0.26078415 -0.18005724 0.27689525
0.29787263 0.065216854 0.22006324 0.06182244 -0.014288524 -0.0038572382 0.26584235 0.13340397
-0.29378492 0.32440495 -0.27154586 -0.22570996 -0.36390713 0.4557572 -0.3634546 -0.41688266
-0.22166532 0.2765569 -0.39219454 -0.30408776 -0.15905535 0.43294498 -0.14886202 -0.3008943

bias_ih_l4 f4 [16]
00000000: 9e13 8c3e 67fc 3f3d f602 9d3d b7cd fbbd
00000010: af96 9d3e f163 f1bd 8b68 543e 92a1 353e
00000020: 8153 f9bd 010c 0fbe c5c5 c1be 5d06 34be
00000030: 9eb2 5e3e 413a 853e a455 093f 8679 333e
0.27358717 0.04687157 0.076665804 -0.12295096 0.30779025 -0.117866404 0.20743005 0.17737415
-0.1217413 -0.13969423 -0.378462 -0.17580552 0.21747825 0.26021007 0.536463 0.17526826

bias_hh_l4 f4 [16]
00000000: 6edf b03e 0755 abbd ad59 a63e d133 573e
00000010: db1a d03e 2e24 33bd 0e8b da3e 1cb5 393e
00000020: 5ddc aabe b9e3 d1bc b8c6 5ebe c40c 18be
00000030: 274c 0c3f df27 a73e 9707 8e3e ab82 cf3e
0.34545463 -0.08365827 0.32490292 0.2101586 0.4064549 -0.043735676 0.42684215 0.18135494
-0.3337125 -0.025621282 -0.21755493 -0.1484862 0.548037 0.32647607 0.27740166 0.4052938

weight_ih_l4_reverse f4 [16, 8]
00000000: b63d ddbe 9523 ecbe 754c cb3e 3a58 ae3e
00000010: 049c 503e 9f0e 1b3e 27d1 5ebe f9c6 a6be
00000020: 1e45 d8be 2c41 ebbe 722d c63e 1b3c ba3e
00000030: 1317 483e f8af 153e 8c0f 63be 8f79 aabe
00000040: 4d10 e0be 0d8b f2be ac00 cd3e 1ebb b53e
00000050: 6d50 503e 2419 1b3e 6487 65be 5c30 adbe
00000060: 4aba cabe 0198 c6be 6816 bd3e 8dd5 bf3e
00000070: 5f98 403e 4321 1b3e 8e19 4cbe da00 83be
00000080: 48a3 0080 43ac 0080 cdb7 0000 b55f 0080
00000090: 029c 0000 c3a3 0080 1f17 0080 c21e 0080
000000a0: 5686 0000 9ebc 0000 2b5a 0080 7510 0100
000000b0: 70dd 0000 45ab 0080 a790 0000 74b4 0000
000000c0: 956b 0000 2fdc 0000 9d66 0080 6876 0080
000000d0: aa20 0180 86de 0080 576c 0000 8382 0000
000000e0: 83bf 0080 d53a 0080 c84f 0080 2d11 0000
000000f0: 925c 0000 240e 0080 1265 0080 a991 0080
00000100: e268 b23e 80c8 dc3e 650b 86be 9fac abbe
00000110: 1a76 2ebe dd4f e4bd 86bf 6a3e 0bb5 fb3e
00000120: 6c2c 873e 1ec8 a13e ce46 6ebe c638 b5be
00000130: dcb9 06be 8357 c0bd 7c8a 3c3e b354 b13e
00000140: 77ac a9be 833d afbe 75ca 813e b600 c03e
00000150: 2427 1a3e f8c1 d73d 5383 69be 83d8 c2be
00000160: d43f e43e 85f6 3e3f 2908 8ebe 9c3e 93bd
00000170: 8b29 b8be e820 61be da5a 873e 3ef0 513f
00000180: c54d f8be 2d1a 03bf 9e94 e53e ac82 cb3e
00000190: ba3d 683e a950 2f3e b24c 7bbe 95d6 b5be
000001a0: a01e f3be c1ad 02bf 80a5 df3e be59 d23e
000001b0: 220e 613e d9b4 293e 362b 7fbe f9e6 babe
000001c0: d888 fbbe c391 06bf e157 e73e c12f d13e
000001d0: 2508 693e b5ae 2f3e 4231 81be 875c bdbe
000001e0: 63c1 f5be 4049 f4be e083 e53e c18a de3e
000001f0: 64fa 6c3e 26c4 373e 4505 75be f0d8 aabe
-0.43211144 -0.46120897 0.3970677 0.34051687 0.20372015 0.15142296 -0.21759473 -0.3257368
-0.42240232 -0.4594816 0.38706547 0.36373982 0.19540052 0.14617908 -0.221739 -0.33295867
-0.43762437 -0.47371712 0.40039575 0.35494322 0.2034318 0.15146309 -0.22414929 -0.33825958
-0.39595252 -0.38787845 0.36931157 0.37467614 0.18808125 0.15149407 -0.19931623 -0.25586587
-5.8574e-41 -6.1796e-41 6.5935e-41 -3.4333e-41 5.5965e-41 -5.8747e-41 -8.294e-42 -1.1034e-41
4.819e-41 6.7663e-41 -3.2346e-41 9.7739e-41 7.9437e-41 -6.144e-41 5.1891e-41 6.4734e-41
3.8593e-41 7.8987e-41 -3.6811e-41 -4.2476e-41 -1.03553e-40 -7.9826e-41 3.8865e-41 4.6819e-41
-6.8701e-41 -2.1105e-41 -2.862e-41 6.162e-42 3.3208e-41 -5.073e-42 -3.6257e-41 -5.2253e-41
0.34845644 0.4312172 -0.26180568 -0.33530137 -0.1703724 -0.11148045 0.22924623 0.49161562
0.2640108 0.3159799 -0.23269197 -0.35394877 -0.13156837 -0.093916915 0.18412203 0.34634933
-0.33139393 -0.34226617 0.25349775 0.37500542 0.15053993 0.105350435 -0.22804002 -0.3805581
0.44579947 0.7459491 -0.277406 -0.07189676 -0.35969195 -0.21985209 0.26436502 0.82007205
-0.48496833 -0.51211816 0.44839948 0.39748132 0.22679797 0.17120613 -0.24540976 -0.35515276
-0.47484303 -0.5104638 0.43680954 0.41084093 0.21978047 0.16572894 -0.24918827 -0.36504343
-0.4912784 -0.52566165 0.45184234 0.40856746 0.22757013 0.17156489 -0.25232893 -0.36984655
-0.47999105 -0.47712135 0.44827175 0.43465236 0.23142391 0.17945918 -0.23927791 -0.33368635

weight_hh_l4_reverse f4 [16, 4]
00000000: 8127 0000 3b6a 0080 1c0a 0180 b377 0000
00000010: 5cda 0080 1b6a 0080 7189 0000 9783 0080
00000020: f850 0080 524d 0080 4b60 0080 5dc1 0080
00000030: cfca 0080 d07d 0080 c313 0100 0bde 0080
00000040: 9e12 0080 a7f4 0000 3d7e 0080 491b 0000
00000050: 95cb 0080 7103 0080 763d 0000 4bf3 0080
00000060: 9813 0100 eb46 0000 349e 0000 341f 0000
00000070: ea06 0180 7334 0080 256e 0080 0019 0000
00000080: 9cb9 0000 052d 0080 d460 0080 e024 0000
00000090: 8d7b 0000 e214 0000 eee6 0000 05b1 0080
000000a0: 3f1f 0080 792b 0000 306a 0080 0de3 0000
000000b0: 53fb 0080 4350 0000 bad0 0000 dc04 0100
000000c0: 38ed 0080 a637 0000 d769 0000 38bf 0000
000000d0: d234 0000 ce61 0000 bf31 0100 a2f2 0000
000000e0: 91ad 0080 c32c 0080 9c68 0080 870e 0000
000000f0: 66e0 0000 2f71 0080 f5a3 0080 39f4 0080
1.4171e-41 -3.8108e-41 -9.5462e-41 4.294e-41 -7.8333e-41 -3.8063e-41 4.9305e-41 -4.7206e-41
-2.9046e-41 -2.7737e-41 -3.4543e-41 -6.9366e-41 -7.2754e-41 -4.5133e-41 9.8925e-41 -7.9654e-41
-6.679e-42 8.7765e-41 -4.5286e-41 9.788e-42 -7.3031e-41 -1.235e-42 2.2048e-41 -8.7277e-41
9.8864e-41 2.544e-41 5.6753e-41 1.1194e-41 -9.4316e-41 -1.8815e-41 -3.9512e-41 8.968e-42
6.6584e-41 -1.615e-41 -3.4735e-41 1.3228e-41 4.4322e-41 7.491e-42 8.2842e-41 -6.3503e-41
-1.1209e-41 1.5595e-41 -3.8093e-41 8.145e-41 -9.0158e-41 2.8792e-41 7.4877e-41 9.3579e-41
-8.5098e-41 1.9963e-41 3.7968e-41 6.8596e-41 1.8948e-41 3.5086e-41 1.09681e-40 8.704e-41
-6.2264e-41 -1.6057e-41 -3.7527e-41 5.211e-42 8.0499e-41 -4.0603e-41 -5.8817e-41 -8.761e-41

bias_ih_l4_reverse f4 [16]
00000000: 8a02 bf3e 6143 e23e bdd5 a53e d275 063f
00000010: 90dd 0080 798f 0000 8e70 0000 2606 0180
00000020: f308 c0bc d1e4 dcbe ac26 d63d 2e6f 133e
00000030: 6d9b e23e 7c32 f43e 695c e73e 9082 1a3f
0.37306625 0.4419203 0.32389632 0.5252353 -7.9482e-41 5.1468e-41 4.0377e-41 -9.4041e-41
-0.023441767 -0.43143323 0.10456595 0.1439788 0.44259205 0.47694767 0.4518769 0.6035547

bias_hh_l4_reverse f4 [16]
00000000: 3728 b53e 2dfe 833e 84e6 b33e ef3b 0f3f
00000010: 7a87 0080 3c68 0080 e0a9 0000 24a2 0080
00000020: ad97 a1be 1379 a0be 226d d93e eb40 58bd
00000030: 95d2 e23e 4752 ce3e 7fad c73e 9c02 f03e
0.35382244 0.25779858 0.35136807 0.55950826 -4.86e-41 -3.7392e-41 6.094e-41 -5.8165e-41
-0.31561032 -0.31342372 0.42466074 -0.052796286 0.44301286 0.40297148 0.38999555 0.4687699

weight f4 [1, 8]
00000000: e791 6cc0 9813 8d40 2bb6 58c0 6afb 70c0
00000010: 7876 4ec0 b218 50c0 8414 5440 9de7 67c0
-3.6964052 4.408642 -3.3861187 -3.765345 -3.2259808 -3.2515073 3.3137522 -3.6235116
