model_new/BLSTM_1_-1_8.pt (torch, 15971 bytes, 41 tensors)

weight_ih_l0 f4 [16, 1]
0	0x3cd201a8	0.025635555
1	0x3f512d78	0.81710005
2	0x3b914f9f	0.0044345404
3	0x3f41ed5c	0.75752807
4	0x3d9d3139	0.07675404
5	0x3d73eb4f	0.05955058
6	0x3e3765ec	0.17909974
7	0xbf158cf8	-0.58418226
8	0x3d483b7a	0.048884846
9	0x3e2d7078	0.16937435
10	0x3ec9ea94	0.3943678
11	0x3e58b1b3	0.21161537
12	0x3e2358a7	0.15951787
13	0x3f59ba2c	0.850497
14	0x3e2eb550	0.17061353
15	0x3f278ab9	0.6544605

weight_hh_l0 f4 [16, 4]
0	0xbe92d628	-0.28679013
1	0xbe5ee10b	-0.21765535
2	0xbe0d57c3	-0.1380301
3	0xbe8a01d3	-0.26954517
4	0xbe6adbb0	-0.22935367
5	0x3d653388	0.055957347
6	0x3e12b334	0.14326173
7	0xbd70e8a8	-0.05881563
8	0x3d530642	0.05151964
9	0x3d0c8730	0.034308612
10	0x3d7aaf79	0.0612025
11	0xbd2bc8f0	-0.041939676
12	0xbe21d2eb	-0.15803115
13	0xbc3dc1fe	-0.011581896
14	0x3e1619a7	0.14658223
15	0xbcd61017	-0.02613072
16	0xbf316c6d	-0.6930607
17	0xbda103a9	-0.07862026
18	0x3e7fbe93	0.24975042
19	0x3edc77ce	0.43060154
20	0x3dcbab81	0.09944821
21	0x3f199f00	0.6000824
22	0xbe8cc81d	-0.27496424
23	0x3f0f8e1e	0.5607623
24	0x3ce3285d	0.027729208
25	0x3cae8705	0.021304617
26	0xbd1006e0	-0.035162807
27	0xbdb33013	-0.08749404
28	0x3dd23b58	0.10265225
29	0x3e446342	0.19178489
30	0x3c977626	0.018488955
31	0x3e6cc475	0.23121817
32	0x3e6a778e	0.22897169
33	0x3dba0607	0.09083181
34	0xbe4cc189	-0.19995703
35	0x3f8c9581	1.0983125
36	0xbf6a6ba0	-0.9157047
37	0xbf937973	-1.1521438
38	0xbf02ae9d	-0.5104769
39	0xc0031aae	-2.0485034
40	0x3c2f0831	0.010683105
41	0xbd6d4191	-0.057923857
42	0xbc01ea12	-0.007929342
43	0xbd8b2f9c	-0.0679619
44	0xbfdc7bf0	-1.7225323
45	0x3d8bd1ee	0.0682715
46	0xbe3c060a	-0.18361679
47	0xbf1c62e0	-0.6108837
48	0xbe8a138a	-0.26968032
49	0x3c8f9591	0.017527374
50	0x3ec7e335	0.39040533
51	0xbf0403c5	-0.5156825
52	0xbe6405e8	-0.22267878
53	0x3c356be0	0.011073083
54	0x3e18922a	0.14899507
55	0xbda10423	-0.07862117
56	0xbda4e919	-0.08052272
57	0xbe81e0ba	-0.25366765
58	0xbec33d2e	-0.38132614
59	0xbea995cb	-0.33122095
60	0xbe64c72b	-0.22341602
61	0xbca9cf49	-0.020728724
62	0x3e3f6171	0.18689515
63	0xbdd75e94	-0.10516086

bias_ih_l0 f4 [16]
0	0xbe7f777a	-0.2494792
1	0x3ec216b3	0.37907943
2	0xbce640c8	-0.028107062
3	0x3ef09ebb	0.46996102
4	0x3ec9e330	0.39431143
5	0xbf030cb7	-0.51191276
6	0x3c87c969	0.016575532
7	0xbdebbd58	-0.11510724
8	0xbd195c52	-0.03744156
9	0xbf28c13e	-0.65919864
10	0x3e3ed7e2	0.1863704
11	0xbf3101ad	-0.6914318
12	0x3f0b8dab	0.54513043
13	0x3ec3b39e	0.38222975
14	0xbe917898	-0.28412318
15	0x3f1df0b1	0.6169539

bias_hh_l0 f4 [16]
0	0xbda25936	-0.07927172
1	0x3ec216b3	0.37907943
2	0xbce640c8	-0.028107062
3	0x3ef09cd0	0.46994638
4	0x3ea04423	0.31301984
5	0xbf039718	-0.51402426
6	0x3c87c969	0.016575532
7	0xbde9241a	-0.11383839
8	0xbe20379a	-0.1564621
9	0xbedda66f	-0.4329104
10	0x3e3ed7e2	0.1863704
11	0xbf4c3c77	-0.7977976
12	0x3f0ba353	0.5454609
13	0x3ec3b39e	0.38222975
14	0xbebff05a	-0.3748806
15	0x3f1df0b1	0.6169539

weight_ih_l0_reverse f4 [16, 1]
0	0x3e83424c	0.25636518
1	0x3e6842f4	0.2268179
2	0x3ed7ca3d	0.42146483
3	0x3e17e20d	0.14832325
4	0x3d3ae9ed	0.045633245
5	0xbe3ee693	-0.18642645
6	0x3ed29832	0.4113174
7	0x3e2e3adf	0.17014645
8	0xbe87e994	-0.26545393
9	0xbe684715	-0.22683366
10	0xbdd1793d	-0.102282025
11	0xbda4a67b	-0.08039566
12	0x3eab31bc	0.33436382
13	0x3e63002d	0.22168036
14	0x3ea52204	0.32252514
15	0x3e44b485	0.19209488

weight_hh_l0_reverse f4 [16, 4]
0	0xbc614a2d	-0.013750595
1	0xbc511d31	-0.012763307
2	0xbc622c02	-0.013804438
3	0x3bc40fb2	0.0059833163
4	0x3a1458f7	0.0005659009
5	0xbbe10560	-0.006867096
6	0xbbfddf0f	-0.007747538
7	0x3c37df19	0.011222624
8	0xbcb2902e	-0.021797266
9	0x3b98d302	0.004663826
10	0x3c333c72	0.010939704
11	0xbc9b01d5	-0.018921772
12	0x3922dd9d	0.00015532081
13	0x3b9f67d0	0.0048646703
14	0x3c0c0586	0.008546239
15	0xbc15068c	-0.009095799
16	0x3a28a3ef	0.00064331194
17	0x3a7c3a5f	0.0009621735
18	0x3a07a0a4	0.00051737786
19	0x3c6b73bc	0.014370855
20	0x3cd23749	0.025661128
21	0x3c81544d	0.015787268
22	0x3cadb6b9	0.021205293
23	0x3b5685b8	0.0032733511
24	0xbd84f003	-0.06491091
25	0xbce15256	-0.027505081
26	0xbd24ae1c	-0.040205106
27	0x3b1735cc	0.0023072837
28	0x3a179198	0.0005781888
29	0x3b97ae77	0.004628952
30	0x3baccf57	0.0052737403
31	0xbc51a843	-0.012796464
32	0xbc755904	-0.014974836
33	0xbba3b478	-0.004995879
34	0xbbd96d41	-0.0066353385
35	0x38d02ce0	9.9265715e-05
36	0xbb3e2f0d	-0.0029019744
37	0x3cd331e6	0.02578063
38	0x3d169c82	0.03677035
39	0xbd1a0705	-0.03760435
40	0x3d2cf58c	0.04222636
41	0x3c4427d3	0.011972385
42	0x3c749eaa	0.014930407
43	0x3c06f76a	0.008237699
44	0xbef06aef	-0.46956584
45	0xbeee2cc3	-0.46518525
46	0xbf007c12	-0.50189316
47	0x3dc4aada	0.096029
48	0xbd3f0887	-0.04663899
49	0xbd2a72b8	-0.04161331
50	0xbd49660d	-0.04916959
51	0x3cfa21a8	0.030533627
52	0x3be6c229	0.0070421887
53	0xbbbc9f78	-0.005756315
54	0xbb0055ad	-0.0019582317
55	0x3c49b2eb	0.012310724
56	0xbd02a2f4	-0.031893685
57	0xbc594444	-0.013260905
58	0xbd3a6ec2	-0.045515783
59	0x3953355b	0.00020142405
60	0x3e84a2c0	0.25905418
61	0x3e6e48c6	0.23269948
62	0x3e864a64	0.2622863
63	0xbe62e5d5	-0.22157986

bias_ih_l0_reverse f4 [16]
0	0x3cd5e36f	0.026109425
1	0x3da5c2a0	0.080937624
2	0x3d123692	0.035696574
3	0x3dde1d92	0.10845484
4	0x39c138dd	0.00036854195
5	0x3b890124	0.004181044
6	0xbcaa02a1	-0.020753207
7	0xbc6e2792	-0.0145358015
8	0xbe14b42d	-0.14521857
9	0xbe714a30	-0.23563457
10	0xbecb2a94	-0.39680922
11	0x3f1eddb1	0.62057024
12	0x3d8989a8	0.06715709
13	0x3de4fba1	0.11180807
14	0x3e44ce06	0.19219217
15	0xbe0a986b	-0.13534705

bias_hh_l0_reverse f4 [16]
0	0x3cce9c54	0.025221027
1	0x3d8f7c34	0.07006112
2	0x3d16051b	0.036625963
3	0x3d9ea5ca	0.077464655
4	0x39c114c2	0.00036827294
5	0x3b8903cd	0.0041813613
6	0xbca9e239	-0.020737754
7	0xbc6e18b0	-0.014532253
8	0xbe01fd3e	-0.1269426
9	0xbe7f2fe6	-0.24920616
10	0xbefcf3ef	-0.49404857
11	0x3f08316e	0.53200424
12	0x3d8b106f	0.06790244
13	0x3e109c53	0.14122133
14	0x3e3f5153	0.18683366
15	0xbd89f087	-0.0673533

weight_ih_l1 f4 [16, 8]
0	0xbd9732b5	-0.073827185
1	0x3d2a9b91	0.041652266
2	0x3dc67831	0.096908934
3	0xbdae93ab	-0.08524259
4	0xbe766436	-0.24061665
5	0xbe4cf76b	-0.20016257
6	0xbe58c340	-0.21168232
7	0x3d4f7847	0.050651815
8	0x3e6f74ad	0.23384352
9	0xbe06b05b	-0.13153212
10	0x3e17bd79	0.14818372
11	0xbc0921d8	-0.008369885
12	0xbdd1fb10	-0.102529645
13	0xbdea7d8e	-0.11449729
14	0xbd98795e	-0.07445024
15	0xbcf74b45	-0.030187258
16	0x3e1bbd76	0.15208992
17	0x3dc5d160	0.09659076
18	0x3db233ad	0.087012626
19	0x3e19271a	0.14956322
20	0xbd24b401	-0.040210728
21	0xbda211a8	-0.07913524
22	0xbc052647	-0.008126802
23	0xbc8a95fe	-0.016917225
24	0xb9767040	-0.00023502205
25	0x38e89c15	0.000110916946
26	0xba17d3ba	-0.00057917426
27	0xb8933e84	-7.021151e-05
28	0x3a836cdc	0.001002695
29	0x3a3ce863	0.0007206259
30	0x3a8df575	0.0010830598
31	0xb9f048cf	-0.00045830614
32	0xbdf87749	-0.12132127
33	0x3e9a790c	0.30170476
34	0x3daa2d72	0.08309449
35	0x3d0d0ccd	0.034436036
36	0xbde00b26	-0.109396264
37	0xbdb46061	-0.08807445
38	0xbd6782c4	-0.056521192
39	0xbe8d6c6f	-0.2762179
40	0x3d81047f	0.06299686
41	0x3d35ca90	0.04438263
42	0xbd1c47a3	-0.038154256
43	0xbce3daf6	-0.02781437
44	0x3d6c1f34	0.057646945
45	0x3d05b0f4	0.03263946
46	0x3dd57fc5	0.10424761
47	0xbe01510e	-0.12628576
48	0x3d00ca89	0.031443153
49	0x3dcc9d97	0.099909954
50	0x3e8a0c8b	0.26962695
51	0x3d96d948	0.07365662
52	0xbdd5782d	-0.10423312
53	0xbdf29656	-0.118450806
54	0xbe4f9fd9	-0.20275821
55	0x3d219826	0.03945174
56	0xb923b2a0	-0.00015611434
57	0x38e0868a	0.00010706212
58	0xb9b7bae4	-0.00035043724
59	0xb7a8b2cb	-2.0110418e-05
60	0x3a0971d2	0.0005243096
61	0x39be3abd	0.00036283387
62	0x3a1851c5	0.00058105245
63	0xb8b1bab3	-8.474793e-05
64	0x3ebf9c6f	0.37424037
65	0x3f3731b8	0.7156024
66	0xbe58c275	-0.2116793
67	0x3f2e79c5	0.68154556
68	0x3e9294fc	0.2862929
69	0xbdc57897	-0.09642141
70	0xbe46e32b	-0.19422595
71	0x3e1450f1	0.14484002
72	0x3ddd7050	0.108124375
73	0x3ec00cd4	0.37509787
74	0x3e661693	0.22469549
75	0x3f346b7a	0.70476496
76	0xbd806ae7	-0.0627039
77	0x3d77df63	0.060515773
78	0x3e1ce34b	0.1532108
79	0xbed6dbfb	-0.41964707
80	0x3e3bf8f1	0.18356682
81	0xbdd140c1	-0.10217429
82	0x3c89241a	0.016740847
83	0x3c5de2f0	0.013542876
84	0xbe277515	-0.16353257
85	0x3c919ea3	0.01777584
86	0xbf19722d	-0.59939843
87	0x3f0e6631	0.5562468
88	0x3a9d5529	0.0012003529
89	0xbb72e752	-0.0037064147
90	0x392d0ad7	0.00016502604
91	0xbb5c4a3d	-0.0033613585
92	0x3afdb9bb	0.001935772
93	0x3a8f89bd	0.0010951083
94	0x3a8a4964	0.0010550437
95	0xbb0c482d	-0.0021405325
96	0x3c4206c1	0.011842431
97	0x3dcb0215	0.099125065
98	0x3e0dc459	0.13844432
99	0xbcd11e54	-0.025527157
100	0xbe8216d6	-0.25408047
101	0xbe71b5ac	-0.23604459
102	0xbe5dfc91	-0.21678378
103	0x3e32036c	0.17384118
104	0x3e7c93da	0.24665776
105	0xbd518496	-0.051151834
106	0x3e1abc23	0.15110831
107	0xbbf0587e	-0.007334768
108	0xbdf8b924	-0.12144688
109	0xbe108c4f	-0.14116023
110	0xbdcb9ef2	-0.09942426
111	0xbd91d6d4	-0.07121053
112	0x3e09fb7b	0.13474838
113	0xbe2ad293	-0.1668189
114	0x3d9285fe	0.07154463
115	0xbd9e7d49	-0.0773874
116	0xbd915e07	-0.070980124
117	0xbdac7cbd	-0.084222294
118	0x3cd258ac	0.025677048
119	0x3d80f6f7	0.06297105
120	0xb982476c	-0.00024848746
121	0x37b0889a	2.1044445e-05
122	0xba2777da	-0.00063884037
123	0xb8922aa8	-6.969768e-05
124	0x3a779878	0.0009445022
125	0x3a3a4eb0	0.0007107062
126	0x3a857d3d	0.0010184419
127	0xb98ed4b8	-0.00027242838

weight_hh_l1 f4 [16, 4]
0	0x3dab03b9	0.083503194
1	0xbd224362	-0.039615043
2	0x3b39a6d3	0.0028328195
3	0xbb5f06f6	-0.0034031249
4	0x3c5dcffe	0.013538359
5	0x3d6ab0e5	0.057297606
6	0x3dc5e121	0.096620806
7	0xbb43540d	-0.0029804737
8	0x3e5b678c	0.21426219
9	0x3dedc9ca	0.11610754
10	0xbd8c4bc5	-0.068503894
11	0x3ab19aa8	0.001355012
12	0x39832096	0.00025010546
13	0x38d06cb2	9.938459e-05
14	0xb94d9e7a	-0.0001960936
15	0xb70e78f5	-8.492022e-06
16	0xbdd83b65	-0.105582036
17	0xbd06d1b2	-0.032914825
18	0xbda52206	-0.0806313
19	0xbb8fb241	-0.004385263
20	0xbc8aa00d	-0.016922021
21	0x3d610f56	0.054946266
22	0xbc6fede3	-0.014644119
23	0xbb1d9e79	-0.0024050756
24	0xbd1f855a	-0.038945533
25	0x3d763fca	0.060119428
26	0xbd7fdec4	-0.062468305
27	0x3b233e13	0.0024908825
28	0x39813a29	0.0002464813
29	0x38654982	5.4666314e-05
30	0xb8f8a92e	-0.00011857074
31	0xb7460617	-1.1803138e-05
32	0x3f117100	0.5681305
33	0x3f08e17e	0.53469074
34	0xbe8edbc8	-0.27902055
35	0xbbb55610	-0.005533941
36	0xbdbf068e	-0.09327422
37	0xbc8799e7	-0.016552879
38	0xbdb59d64	-0.088679105
39	0xbaf9ef4b	-0.0019068507
40	0x3ec180db	0.3779362
41	0x3e38d559	0.18050136
42	0x3e9f5a30	0.31123495
43	0x3a6a6eb7	0.00089428894
44	0x39eb1fec	0.00044846477
45	0x3a53d51a	0.0008080766
46	0x3a6eddb5	0.00091120164
47	0xba3ee026	-0.00072813255
48	0xbd335e11	-0.04379088
49	0xbe03ae3c	-0.12859434
50	0x3c670523	0.014100346
51	0xbb7a0008	-0.0038146991
52	0x3b7cffdc	0.0038604653
53	0x3d96a65c	0.07355949
54	0x3df1c719	0.11805553
55	0xbb5547e6	-0.0032544076
56	0x3e263592	0.16231373
57	0x3e2e6565	0.17030866
58	0xbe1af681	-0.15133096
59	0x3b2b67e6	0.0026154458
60	0x39d6bc4d	0.00040957556
61	0x38acda40	8.242251e-05
62	0xb94e0c3c	-0.00019650249
63	0xb70f76bb	-8.551108e-06

bias_ih_l1 f4 [16]
0	0x3ec0c18e	0.3764767
1	0x3e642100	0.22278214
2	0x3e197ec0	0.14989758
3	0xbaa603d3	-0.0012665935
4	0x3e4062c9	0.18787684
5	0xbc0380d2	-0.008026319
6	0x3e94f965	0.29096523
7	0xba42e974	-0.00074353
8	0xbed478f7	-0.4149854
9	0xbd6d666b	-0.057959
10	0xbee5415f	-0.44776437
11	0x3a500bb5	0.0007936315
12	0x3ef12806	0.47100848
13	0x3e31ea0a	0.17374435
14	0x3e798810	0.2436831
15	0xbaa5ff7b	-0.001266464

bias_hh_l1 f4 [16]
0	0x3ec405d4	0.38285697
1	0x3e668cc3	0.22514634
2	0x3e2fccae	0.17167923
3	0xbaa603d3	-0.0012665935
4	0x3e44582f	0.19174264
5	0x3c2a23d2	0.010384517
6	0x3e690863	0.22757106
7	0xba42e974	-0.00074353
8	0xbea7571f	-0.32683656
9	0xbd8e5e4c	-0.069515795
10	0xbdfe7164	-0.12423971
11	0x3a500294	0.00079349545
12	0x3ede7dac	0.43455255
13	0x3e92e7c2	0.28692442
14	0x3e1afdee	0.15135929
15	0xbaa5ff7b	-0.001266464

weight_ih_l1_reverse f4 [16, 8]
0	0x3e7b34f1	0.24531914
1	0xbd988fda	-0.074493125
2	0x3e851e35	0.2599961
3	0xbe3a6f0a	-0.1820642
4	0xbe7e1c10	-0.24815392
5	0xbe7fa7ac	-0.24966305
6	0xbe3f1972	-0.1866205
7	0x3b1788e2	0.002312236
8	0xbe28a036	-0.16467366
9	0xbeac1c6d	-0.33615437
10	0x3e8ce45e	0.2751798
11	0x3e6a406a	0.22876135
12	0xbe193b41	-0.1496401
13	0xbe4698c4	-0.19394213
14	0xbe324d06	-0.17412195
15	0x3e8b8efa	0.2725752
16	0x3d587418	0.05284509
17	0x3dfeaafc	0.124349564
18	0x3e504f1f	0.20342682
19	0xbe2afa70	-0.16697097
20	0xbe459116	-0.19293627
21	0xbe46ca5f	-0.19413136
22	0xbe2b8b23	-0.16752295
23	0xbe3035e4	-0.17208058
24	0xbe1c98cc	-0.15292662
25	0x3f9419cc	1.1570373
26	0x3e844441	0.25833324
27	0xbdf6f7a4	-0.120589525
28	0xbdb46d04	-0.088098556
29	0xbe268bd5	-0.16264279
30	0x3d131e9e	0.03591787
31	0xbeb391c8	-0.3507216
32	0x3c6ef3e8	0.014584519
33	0xbe36ea38	-0.17862785
34	0x3d44fffe	0.048095696
35	0xbec18107	-0.37793753
36	0xbde426c7	-0.11140209
37	0xbdd52802	-0.104080215
38	0xbdc3ae52	-0.09554733
39	0x3e0fda45	0.14048107
40	0xbea00625	-0.31254688
41	0x3e848d11	0.25888875
42	0x3dcf1f99	0.10113449
43	0x3d2d1157	0.042252865
44	0xbe245aee	-0.16050312
45	0xbe1cda53	-0.15317659
46	0xbe5f737b	-0.21821396
47	0x3e6228ce	0.22085878
48	0x3d71912e	0.058976345
49	0x3ccf9c39	0.025343047
50	0x3e2043f5	0.15650924
51	0x3b83efa0	0.0040263683
52	0xbe4c8cc5	-0.19975574
53	0xbe316e15	-0.17327149
54	0xbe698c59	-0.22807445
55	0x3d043df1	0.032285634
56	0xbe34b298	-0.17646253
57	0xbe4b5258	-0.1985563
58	0x3d11a574	0.03555818
59	0xbe9a4f27	-0.30138513
60	0xbeab971a	-0.3351372
61	0xbe94a632	-0.29033047
62	0xbead386d	-0.33832112
63	0x3e498212	0.19678524
64	0xbf2a8f3c	-0.6662481
65	0x3f932f3e	1.1498792
66	0x3d935c15	0.07195298
67	0xbf8f6e90	-1.1205616
68	0xbd750a1a	-0.059824087
69	0x3d8f61c1	0.07001067
70	0x3ea885ea	0.32914668
71	0xbeadd92b	-0.3395475
72	0x3e38e435	0.18055804
73	0xbfdb1a74	-1.7117448
74	0xbe4839fe	-0.19553372
75	0xbf5b18c6	-0.85584676
76	0x3e22ec95	0.15910561
77	0x3e508bbe	0.20365807
78	0xbe53945b	-0.20662062
79	0x3ec0831d	0.37600031
80	0x3eb44684	0.3521005
81	0x3cd39d2b	0.02583178
82	0xbe1c5804	-0.1526795
83	0xbf6e1be2	-0.93011296
84	0xbe476342	-0.19471458
85	0xbde5abe1	-0.11214424
86	0xbf20f0d0	-0.6286745
87	0x3ea90166	0.3300888
88	0xbef9c3ee	-0.48782295
89	0x3fdc8f25	1.7231184
90	0x3ef182d7	0.47170135
91	0x3f65e9d5	0.89809924
92	0xbe9488d7	-0.2901065
93	0xbe5f5758	-0.21810663
94	0x3f186a82	0.5953752
95	0x3e376b97	0.17912136
96	0x3e54cf77	0.20782267
97	0xbd0c5343	-0.034259092
98	0x3e98d32f	0.2984862
99	0xbe372b2a	-0.1788756
100	0xbe828980	-0.2549553
101	0xbe9b40d0	-0.30322886
102	0xbe68f592	-0.22749928
103	0x3dce87e6	0.10084514
104	0xbd3457e3	-0.044029128
105	0xb8a4870d	-7.8452846e-05
106	0x3eb411bd	0.35169783
107	0x3e101839	0.1407174
108	0xbeb30e37	-0.34971783
109	0xbe9b8688	-0.30376077
110	0xbebd2097	-0.36938927
111	0x3eb41e73	0.3517948
112	0x3e350837	0.17678915
113	0x3dbfc0ca	0.093629435
114	0x3e850a8c	0.2598461
115	0x3d3f93ff	0.046772
116	0xbe5bea97	-0.21476208
117	0xbe89fbb6	-0.26949853
118	0xbda5744b	-0.08078822
119	0xbe794814	-0.24343902
120	0x3e42f71b	0.19039576
121	0x3e2b8162	0.16748574
122	0x3ec7cb3c	0.39022243
123	0x3e6fd2cb	0.23420255
124	0xbeabde12	-0.33567864
125	0xbead8668	-0.33891606
126	0xbe969708	-0.29412103
127	0x3d1ec05f	0.038757678

weight_hh_l1_reverse f4 [16, 4]
0	0x3e346d89	0.1761991
1	0x3e00129f	0.12507103
2	0xbd5abb6a	-0.05340139
3	0xbe29b2d4	-0.16572124
4	0xbc62d544	-0.013844792
5	0xbe76b2e0	-0.24091673
6	0x3cb39418	0.021921203
7	0x3c7db23f	0.015484392
8	0x3e3e6cb4	0.18596154
9	0x3df817c4	0.12113908
10	0x3d6132f9	0.054980252
11	0xbe20cad1	-0.15702368
12	0x3d4a381d	0.04936992
13	0x3f05c1dd	0.52248937
14	0xbd5e137a	-0.054217793
15	0xbf5457ed	-0.82946664
16	0x3ea0c8af	0.3140311
17	0x3bd920eb	0.0066262386
18	0x3e060f3c	0.13091749
19	0xbdfddf5b	-0.12396117
20	0x3d956a3a	0.07295652
21	0x3dc38124	0.09546116
22	0xbd1ec703	-0.03876401
23	0xbea624e7	-0.3245003
24	0x3d808ec7	0.062772326
25	0xbd6d9c80	-0.05801058
26	0x3d053876	0.03252455
27	0x3a3b6546	0.0007148575
28	0x3e870920	0.2637415
29	0xbd34f649	-0.04418019
30	0x3e08dfbc	0.13366598
31	0xbe5dbcc2	-0.21654037
32	0x3ec9564f	0.3932366
33	0xbe02745f	-0.12739705
34	0xbd370130	-0.044678867
35	0x3e916805	0.28399673
36	0xbe3dcf10	-0.1853602
37	0x3f899d0f	1.0751055
38	0xbdd4141c	-0.10355398
39	0x3e73cea1	0.23809291
40	0xbf31b311	-0.6941386
41	0x3d8dfdd3	0.06933179
42	0x3f02c417	0.5108046
43	0xbe699f05	-0.22814567
44	0x3b22fffb	0.0024871815
45	0x3e8d5d15	0.27610078
46	0xbe70e08e	-0.23523161
47	0x3e51b914	0.20480758
48	0x3e449809	0.19198622
49	0xbe052d96	-0.13005671
50	0xbd26719a	-0.040635683
51	0xbe98f88d	-0.2987713
52	0x3cc6e0db	0.024277141
53	0xbdd608df	-0.10450911
54	0x3d5c7448	0.053821832
55	0xbddf5ac7	-0.10905986
56	0x3e7c066e	0.24611828
57	0x3e5a6007	0.21325694
58	0xbd0b934c	-0.03407602
59	0x3dbb74d1	0.0915314
60	0xbdf668be	-0.12031697
61	0x3d80b36c	0.06284222
62	0x3cef3f92	0.029205117
63	0xbd279afa	-0.04091928

bias_ih_l1_reverse f4 [16]
0	0x3ec4b105	0.38416305
1	0x3edf18f1	0.43573716
2	0x3ea967e6	0.3308708
3	0x3eab8ab6	0.33504266
4	0x3dec23b4	0.11530247
5	0x3eb2f8f2	0.34955555
6	0x3e880903	0.26569375
7	0x3ecd323a	0.40077382
8	0x3e8c32e5	0.2738258
9	0xbe5b8288	-0.21436512
10	0xbdcdeb10	-0.100546
11	0xbe97541d	-0.2955636
12	0x3f13441d	0.5752581
13	0x3f19a483	0.6001665
14	0x3e8eb336	0.27871102
15	0x3f0e5c8e	0.5560998

bias_hh_l1_reverse f4 [16]
0	0x3ecc3063	0.39880666
1	0x3ef6fb90	0.48238802
2	0x3e9fe089	0.31225994
3	0x3ecece9a	0.40392
4	0x3deac940	0.11464167
5	0x3eb2fe5a	0.3495968
6	0x3e88ba06	0.26704425
7	0x3ed492f5	0.4151837
8	0x3e8718a8	0.26386
9	0x3ddcb2a1	0.10776258
10	0xbdff6b19	-0.12471599
11	0xbe87decf	-0.26537177
12	0x3f0f5513	0.5598919
13	0x3f198fa3	0.599848
14	0x3ead0587	0.3379328
15	0x3edb5408	0.42837548

weight_ih_l2 f4 [16, 8]
0	0x3df0064f	0.11719953
1	0x3d2e01cb	0.04248218
2	0x3e03a47e	0.12855718
3	0xbb68771b	-0.0035471383
4	0x3ca14a6a	0.019688804
5	0xbe73b2e0	-0.23798704
6	0x3dc6326b	0.09677585
7	0x3c38b6db	0.011274065
8	0xbe9e0e37	-0.3087022
9	0x3d0739a8	0.03301397
10	0x3cde1b2a	0.027112562
11	0xb96a5e44	-0.00022351096
12	0x3e03d2f6	0.12873444
13	0xbe4076e2	-0.1879535
14	0x3bc44b4a	0.0059904205
15	0x3e99463c	0.29936397
16	0x3d0c77b5	0.03429385
17	0xbdf2bcc0	-0.118524075
18	0xbcd396e9	-0.025828796
19	0xbb3460cc	-0.0027523516
20	0x3e9538ce	0.291449
21	0xbe69a6c6	-0.22817525
22	0x3cfe1b16	0.031018775
23	0x3e75e748	0.24014008
24	0xbeb9b4be	-0.36270708
25	0x3dffd775	0.12492267
26	0xbdb464f2	-0.08808316
27	0xbb925247	-0.0044653746
28	0x3db09d41	0.08623744
29	0xbd3a096d	-0.045419145
30	0xbe317b0a	-0.17332092
31	0x3f033c28	0.51263666
32	0x3dc48649	0.09595925
33	0x3cd3c1d8	0.025849268
34	0x3e74fc66	0.23924407
35	0xbb6b97e8	-0.0035948697
36	0x3e4139b5	0.1886967
37	0xbec8ae4a	-0.39195472
38	0x3e56fd2b	0.20995013
39	0xbe0e5925	-0.13901193
40	0xbe6ca843	-0.23111062
41	0x3de162ed	0.11005197
42	0xbdb8b8a3	-0.09019592
43	0x39d87e30	0.00041292747
44	0x3e4aa3e2	0.19789079
45	0xbe457694	-0.19283515
46	0xbaa52f2f	-0.0012602563
47	0x3eb9283f	0.36163518
48	0xbd362f46	-0.044478677
49	0xbe5201be	-0.20508477
50	0xbe182752	-0.1485875
51	0xba215a79	-0.0006155144
52	0x3eecc4f0	0.46244
53	0xbd5c458d	-0.053777266
54	0xbb92c0ff	-0.0044785733
55	0x3eda7615	0.42668214
56	0x3d5d3358	0.054004043
57	0x3e4af6de	0.19820735
58	0xbe28c27c	-0.1648044
59	0xb986deea	-0.00025724556
60	0xbd8928e5	-0.06697253
61	0x3e1a38c9	0.15060724
62	0xbde4c44a	-0.11170252
63	0x3e65cff8	0.22442615
64	0xbeb809d9	-0.35945013
65	0x3e93c3c8	0.28860307
66	0xbe3f981a	-0.18710366
67	0xba8dbf5e	-0.0010814478
68	0x3dce2a8e	0.100667104
69	0xbf0d45e0	-0.55184746
70	0xbeff2164	-0.49830163
71	0x3f0c3523	0.5476858
72	0x3f50d082	0.8156816
73	0x3ee0231a	0.4377678
74	0x3cbf2b28	0.023336008
75	0xbbcd8400	-0.006271839
76	0xbe184676	-0.14870629
77	0xbcbb422c	-0.022858702
78	0xbf3d52a7	-0.7395424
79	0x3d84dd4b	0.06487521
80	0x3e039f3b	0.1285371
81	0x3dcbdcdd	0.09954236
82	0x3ea8a960	0.32941723
83	0xbc276145	-0.010216062
84	0xbe010e8f	-0.1260321
85	0xbf1a674e	-0.6031388
86	0xbdf69731	-0.12040556
87	0x3f363cda	0.711866
88	0x3ed06b9b	0.40707096
89	0x3ef5b936	0.47992867
90	0xbd9e0784	-0.07716277
91	0x3b780e6f	0.00378504
92	0xbf348256	-0.70511377
93	0xbde4e660	-0.11176753
94	0xbf3e2d05	-0.74287444
95	0xbeb9132e	-0.36147445
96	0x3d4e4201	0.050355915
97	0x3d555ff4	0.05209346
98	0x3e1b7384	0.15180784
99	0xbb16e6f3	-0.002302584
100	0x3e377f74	0.17919713
101	0xbedda7b0	-0.43291998
102	0x3e0e59f7	0.13901506
103	0x3d2c9434	0.042133525
104	0xbec13c3d	-0.3774127
105	0x3edc99b9	0.4308603
106	0xbf42ab48	-0.76042604
107	0xba1f58d2	-0.0006078604
108	0x3f7a5bd9	0.977964
109	0x3e38a87f	0.18033026
110	0xbe91ff8e	-0.28515285
111	0x3f5e5eb9	0.86863285
112	0x3de03635	0.10947839
113	0xbe018b80	-0.12650871
114	0xbdf0a73d	-0.11750648
115	0xbb4fc78b	-0.003170463
116	0x3ecd88c1	0.40143397
117	0xbea0b790	-0.31390047
118	0xbd05b4cb	-0.03264312
119	0x3f037ce9	0.5136247
120	0xbe452f1e	-0.19256255
121	0x3e33cb1c	0.17557949
122	0xbdfeb843	-0.12437489
123	0xbaad4425	-0.0013219161
124	0xbe19d844	-0.15023905
125	0xbe121aea	-0.1426808
126	0xbe556f58	-0.20843256
127	0x3e2f36a8	0.17110693

weight_hh_l2 f4 [16, 4]
0	0x3d78a597	0.060704794
1	0xbc5f0557	-0.013612113
2	0x3ce98973	0.028507924
3	0x3e079e55	0.13243993
4	0x3e30b909	0.17258085
5	0xbddc41c4	-0.10754731
6	0x3dcbb0b1	0.099458106
7	0xbbe2cdd6	-0.00692151
8	0x3de54ecb	0.11196669
9	0xbd551a8c	-0.05202727
10	0x3d69e9c8	0.057107717
11	0xbb99fd96	-0.0046994193
12	0x3cd8f263	0.026482766
13	0xbd95179c	-0.07279894
14	0x3dccfca1	0.10009123
15	0x3dc0f47b	0.09421631
16	0x3da762ce	0.081731424
17	0xbd94375f	-0.07237124
18	0x3b95e52d	0.004574439
19	0x3e1abc8c	0.15110987
20	0x3e5da891	0.21646334
21	0xbe264de1	-0.16240646
22	0x3e53fa41	0.20700933
23	0xbddee45b	-0.10883399
24	0x3c2be06d	0.010490519
25	0xbcada3f0	-0.021196336
26	0x3d3d39f8	0.04619786
27	0x3d348eee	0.04408162
28	0x3c24034a	0.01001055
29	0xbd6372ca	-0.055529393
30	0x3e47ec3c	0.1952371
31	0xbdeabf89	-0.11462314
32	0x3f2554b7	0.6458239
33	0x3dd6afd2	0.10482754
34	0x3e97810e	0.29590648
35	0x3c315a91	0.010824815
36	0x3dc3bfab	0.09558042
37	0x3f113a21	0.5672932
38	0x3c1633a0	0.009167582
39	0x3f4698fc	0.77577186
40	0x3e9c0bae	0.3047766
41	0x3e0c93bb	0.1372823
42	0x3e5d2ea2	0.2159982
43	0xbe305959	-0.17221583
44	0xbf0520ad	-0.52002984
45	0x3f31512a	0.6926447
46	0xbd72d595	-0.05928572
47	0x3ec92c3b	0.39291558
48	0x3e24d538	0.16096961
49	0xbd833f1f	-0.06408524
50	0x3d9a6264	0.07538298
51	0x3e0dff9c	0.13867038
52	0x3eb3829d	0.35060588
53	0xbe78577f	-0.24252127
54	0x3f31b884	0.69422174
55	0x3dd819fd	0.10551832
56	0x3e436b39	0.19083871
57	0x3aa28b16	0.001240107
58	0x3e288026	0.16455135
59	0x3d6acfe4	0.057327166
60	0x3de3f3ab	0.1113046
61	0x3d6e1fd9	0.05813584
62	0x3e47c803	0.19509892
63	0x3e3b0922	0.18265203

bias_ih_l2 f4 [16]
0	0x3ec95207	0.39320394
1	0x3edce051	0.4313989
2	0x3e860a3c	0.26179683
3	0x3e6e57e6	0.23275718
4	0x3ed398af	0.41327426
5	0x3e94cd25	0.29062763
6	0x3d809654	0.06278673
7	0x3e549c17	0.20762669
8	0x3d4dd96c	0.050256178
9	0x3e1b535d	0.1516852
10	0xbe2ef58d	-0.17085858
11	0xbd17f7d0	-0.037101567
12	0x3ef4948d	0.47769585
13	0x3eeb9653	0.46013126
14	0x3e8b0bf4	0.27157557
15	0x3ec4e0f6	0.38452882

bias_hh_l2 f4 [16]
0	0x3ec6ea26	0.38850516
1	0x3f0ad91c	0.5423753
2	0x3e94b6c5	0.29045692
3	0x3eba1d0b	0.36350283
4	0x3ed37696	0.4130141
5	0x3e5c883a	0.21536341
6	0x3d5878a4	0.052849427
7	0x3e6c4abc	0.23075384
8	0x3e800e4c	0.25010908
9	0xbec69814	-0.387879
10	0xbe514e28	-0.2043997
11	0x394629c0	0.00018898305
12	0x3efd56bd	0.4948024
13	0x3de2e341	0.110785015
14	0x3e9584fc	0.29203022
15	0x3f013332	0.5046874

weight_ih_l2_reverse f4 [16, 8]
0	0xbeb5438e	-0.35403103
1	0x3c578c51	0.013156013
2	0xbe224011	-0.15844752
3	0x3a6e6514	0.00090940413
4	0xbd3e98ac	-0.046532318
5	0xbe2d9cea	-0.16954389
6	0xbdcc1146	-0.09964232
7	0xbd847924	-0.06468418
8	0x3d70c16e	0.05877822
9	0x3d1ff1ef	0.039049085
10	0x3d2e1c29	0.042507324
11	0x39eca025	0.00045132745
12	0xbe273304	-0.16328055
13	0xbf038997	-0.5138182
14	0xbdab4be6	-0.08364086
15	0xbe4bd0a9	-0.19903816
16	0xbe90ef30	-0.28307486
17	0xbdbb3450	-0.09140837
18	0xbb658859	-0.0035023896
19	0x3b131313	0.002244179
20	0xbdb889fe	-0.09010695
21	0xba92adda	-0.0011190728
22	0x3d884e49	0.06655557
23	0xbe26af0d	-0.16277714
24	0x38b21f4f	8.493533e-05
25	0x38a9fee8	8.106028e-05
26	0x37f37981	2.9024437e-05
27	0xb5cd0803	-1.5276022e-06
28	0xb8bf965d	-9.135597e-05
29	0x38afa1c9	8.374785e-05
30	0xb8336669	-4.2772303e-05
31	0x3815d63b	3.5723886e-05
32	0xbe9b8c15	-0.30380312
33	0xbdb7df3e	-0.08978127
34	0xbe341b8e	-0.17588636
35	0x39f46cce	0.00046620372
36	0x3e3e7abe	0.1860151
37	0xbd099f9f	-0.033599492
38	0xbde947ec	-0.11390671
39	0xbe74e83e	-0.23916718
40	0x3e04680b	0.12930314
41	0x3d82d712	0.06388678
42	0x3d273092	0.040817805
43	0xba0df519	-0.00054152455
44	0xbe543b74	-0.20725805
45	0xbebc4aae	-0.36775726
46	0xbc7afd72	-0.015319215
47	0xbe5f63b0	-0.21815372
48	0xbe0d0f7b	-0.13775437
49	0xbd834342	-0.06409313
50	0xbc771e9e	-0.015082983
51	0x3a855de3	0.0010175075
52	0xbd46f600	-0.048574448
53	0xbd00b1d6	-0.031419598
54	0x3cab69b2	0.020924423
55	0xbda15398	-0.07877272
56	0x3873368f	5.7986526e-05
57	0x38bec50f	9.096611e-05
58	0xb83fcba1	-4.5727593e-05
59	0xb467eee7	-2.1600464e-07
60	0xb87c90e0	-6.0216407e-05
61	0x38eca8e5	0.00011284816
62	0xb86c2876	-5.6304467e-05
63	0x387edab3	6.0762e-05
64	0x3dc84611	0.09778989
65	0x3f016f13	0.5056011
66	0x3deb40a2	0.11486937
67	0x390fb9b6	0.00013706725
68	0xbf387c0e	-0.7206429
69	0xbf2173d9	-0.63067394
70	0xbdf9896d	-0.12184415
71	0x3f1bd019	0.60864407
72	0x3f34186f	0.7034978
73	0x3e2522e5	0.16126592
74	0x3f09ba61	0.53800017
75	0xb9a7f7fb	-0.00032037482
76	0x3dc584b7	0.09644454
77	0x3f81d60f	1.014345
78	0x3ebf89c9	0.3740981
79	0xbf6fcff2	-0.93676674
80	0x3ddddaf1	0.108327754
81	0x3db74aad	0.0894979
82	0x3f0968a9	0.53675324
83	0x3aa40fa8	0.0012516873
84	0xbebc32fa	-0.36757642
85	0xbe769852	-0.24081543
86	0x3e8f65c0	0.28007317
87	0xbed50884	-0.4160806
88	0xba427414	-0.00074178097
89	0x39c53bda	0.0003761936
90	0xbb0bcf13	-0.0021333143
91	0xb996529c	-0.00028671778
92	0x38fa5920	0.0001193753
93	0x398b7555	0.00026599565
94	0xbae310a6	-0.0017323687
95	0x3ac4d9a0	0.0015018471
96	0xbee423fa	-0.44558698
97	0xbe18d075	-0.1492327
98	0xbe117653	-0.14205293
99	0xb8aba1bd	-8.1840415e-05
100	0x3de099bd	0.10966823
101	0xbec0447d	-0.37552252
102	0xbe42d28a	-0.19025627
103	0xbe1c9f66	-0.1529518
104	0x3e80502a	0.2506116
105	0x3dc4c953	0.09608712
106	0xbbce97d5	-0.006304721
107	0xb9b49346	-0.00034442003
108	0x3e1d2dda	0.15349522
109	0xbf089d0b	-0.5336463
110	0xbe838fc7	-0.2569563
111	0xbe0aa2d5	-0.13538678
112	0xbea7cae9	-0.32771996
113	0xbdfe6a0c	-0.124225706
114	0xbcfd690e	-0.030933883
115	0x3b03bf23	0.002010294
116	0xbd4b65f2	-0.04965777
117	0xbc21279a	-0.009836102
118	0x3d7eb5b6	0.06218501
119	0xbe5fd4b5	-0.21858485
120	0x389e8b05	7.5599215e-05
121	0x388b66df	6.647198e-05
122	0x37fb282d	2.994024e-05
123	0xb5bf8261	-1.4268554e-06
124	0xb895391a	-7.11551e-05
125	0x38bd9da7	9.041587e-05
126	0xb82c61eb	-4.109919e-05
127	0x3843fa5b	4.6724785e-05

weight_hh_l2_reverse f4 [16, 4]
0	0xbd1ae5c3	-0.037816774
1	0x3d8fda29	0.070240326
2	0xbb50e1a8	-0.0031872783
3	0xb9d77bd2	-0.0004110025
4	0x3dd4ddce	0.103938684
5	0xbd081c27	-0.033229973
6	0x3c2bc876	0.010484805
7	0x3a0b28fb	0.0005308536
8	0x3d00d3cb	0.03145198
9	0x3cafef35	0.021476367
10	0x3cc9da6f	0.02464029
11	0x3a7788a3	0.00094426627
12	0xb7f087a9	-2.8673401e-05
13	0x369379a2	4.3951013e-06
14	0x378f2e3c	1.7068458e-05
15	0x360ccd75	2.0981217e-06
16	0x3cc664d9	0.02421801
17	0xbe0b768e	-0.13619444
18	0xbdad1de8	-0.0845297
19	0xbac6e661	-0.001517486
20	0x3e21f64d	0.15816613
21	0xbc9a0bb7	-0.018804414
22	0x3d27f290	0.04100281
23	0x39931a0a	0.00028057426
24	0x3d54b61f	0.051931497
25	0x3b9848ea	0.004647364
26	0x3d09f5a8	0.03368154
27	0x3a4e4a85	0.00078693806
28	0xb81abb6d	-3.6891015e-05
29	0xb81ffa35	-3.8141578e-05
30	0xb745a7f4	-1.178122e-05
31	0x3604973e	1.9757567e-06
32	0x3f3106fc	0.6915128
33	0xbef3d9d1	-0.47627118
34	0xbde5c43f	-0.112190716
35	0xb8e43919	-0.000108825225
36	0xbec27829	-0.379823
37	0x3fad6527	1.3546494
38	0xbdb4c730	-0.088270545
39	0xbb63cfd7	-0.0034761333
40	0x3e265125	0.16241892
41	0xbc1a009b	-0.009399558
42	0x3ba5a86b	0.0050554774
43	0x3a91ddd8	0.0011128737
44	0x3a549071	0.00081086816
45	0x3a9858e6	0.0011623173
46	0x37db6654	2.6154485e-05
47	0xb82644a7	-3.964142e-05
48	0x3d44cc98	0.04804668
49	0xbde62d6f	-0.112391345
50	0x3d380adf	0.044932242
51	0xbb103597	-0.0022004598
52	0x3e2e1d73	0.17003421
53	0xbe480df2	-0.1953657
54	0xbc81135c	-0.015756302
55	0x3b06ffed	0.002059932
56	0x3c892874	0.016742922
57	0xbca59c9d	-0.02021628
58	0x3cc2b1ae	0.023766365
59	0x3a5ffe8a	0.0008544704
60	0xb7ffd490	-3.0497351e-05
61	0x362207f8	2.414452e-06
62	0x36994651	4.5679412e-06
63	0x361d95e6	2.3482075e-06

bias_ih_l2_reverse f4 [16]
0	0x3edcbf76	0.43114823
1	0x3edf2abd	0.43587294
2	0x3d9864e7	0.074411206
3	0xb8e1caa4	-0.00010766581
4	0x3e89873a	0.26860982
5	0x3e93c81a	0.28863603
6	0x3c3047f9	0.010759347
7	0xb8253b31	-3.9394192e-05
8	0x3ed27f7b	0.41112885
9	0x3e5eafef	0.21746801
10	0xbdb889fa	-0.09010692
11	0xba5e1a6f	-0.0008472567
12	0x3f021f74	0.50829244
13	0x3ef35a12	0.47529656
14	0x3dae632c	0.08515009
15	0xb8e1e110	-0.00010770757

bias_hh_l2_reverse f4 [16]
0	0x3ea86dac	0.32896173
1	0x3f01268b	0.50449437
2	0x3dc609c0	0.096698284
3	0xb8e1caa4	-0.00010766581
4	0x3e8a1b10	0.26973772
5	0x3e940fdd	0.28918353
6	0x3c494ac8	0.012285896
7	0xb8253b31	-3.9394192e-05
8	0x3e62d59a	0.22151795
9	0xbc793d8f	-0.015212431
10	0xbe3ffa40	-0.18747807
11	0xba5e1a6f	-0.0008472567
12	0x3e1780c2	0.14795211
13	0x3ed211b2	0.41029125
14	0x3dd1406d	0.10217366
15	0xb8e1e110	-0.00010770757

weight_ih_l3 f4 [16, 8]
0	0x3e5fd46d	0.21858378
1	0xbcf83c76	-0.030302268
2	0x3d3aa2bc	0.04556535
3	0x3c1ea3c0	0.009682596
4	0x3d9a8fcb	0.075469576
5	0xbe1f4f7e	-0.15557668
6	0xbd0b9f48	-0.03408745
7	0xba97f7e9	-0.0011594269
8	0x3ea2d84e	0.31805652
9	0xbd8e10ab	-0.06936773
10	0x3db2e87b	0.087357484
11	0xbd431dc0	-0.047635794
12	0x3d3a30e9	0.0454568
13	0xbec3a937	-0.38215038
14	0xbe1c4dbf	-0.15264033
15	0xba9e23b8	-0.0012065088
16	0x3e69ca7a	0.22831145
17	0x3ca0559a	0.019572068
18	0x3e1c44f7	0.15260683
19	0x3cf81750	0.030284554
20	0x3e1decb4	0.15422326
21	0xbde884c7	-0.1135345
22	0x3d1dcf87	0.03852799
23	0xbacae79e	-0.0015480404
24	0x3e8eb2be	0.27870744
25	0x3d975a8d	0.07390318
26	0x3d195dae	0.037442856
27	0x3d8d3248	0.06894356
28	0xbc724046	-0.014785832
29	0xbe1d4439	-0.15358056
30	0x3ba7e7c8	0.005124066
31	0xbab40798	-0.0013735173
32	0x3d3d8323	0.04626764
33	0x3e85e85c	0.2615384
34	0x3da112a3	0.07864883
35	0x3e0ba2cb	0.1363632
36	0x3dc0b7db	0.09410068
37	0x3e02fe74	0.12792379
38	0x3de34ea4	0.11098984
39	0x3a413e8e	0.0007371687
40	0x3e963309	0.29335812
41	0x3ea8a680	0.3293953
42	0x3e3bd00c	0.18341082
43	0x3df322fa	0.118719056
44	0xbc803cf0	-0.015654057
45	0xbe4dfbd7	-0.201156
46	0xbe298bb9	-0.16557206
47	0xb9c8318b	-0.00038183885
48	0x3e3cff19	0.18456687
49	0x3ddd4119	0.10803432
50	0x3e20ddbb	0.15709583
51	0x3d64f8dd	0.055901397
52	0x3dac4065	0.0841072
53	0xbdd35f02	-0.10320856
54	0x3c03fbc2	0.008055629
55	0xba93760a	-0.0011250388
56	0x3e643f42	0.22289756
57	0x3e68dfc0	0.22741604
58	0x3da0dc8d	0.07854567
59	0x3e20cf1e	0.15704009
60	0x3d846385	0.06464294
61	0x3d1903bd	0.03735708
62	0x3ddb071d	0.10694716
63	0x3a426090	0.00074149016
64	0x3e29f14f	0.16595958
65	0xbf3c14c7	-0.73469204
66	0xbe2ca8a0	-0.168612
67	0xbf2af8e2	-0.66786015
68	0xbec552be	-0.3853969
69	0x3eae6892	0.34064156
70	0xbeb0e146	-0.3454687
71	0x3b473a52	0.0030399752
72	0xbe8a8c2a	-0.27060062
73	0xbf3e6fa3	-0.74389094
74	0xbef1c117	-0.47217628
75	0xbe23142f	-0.15925668
76	0xbef7878e	-0.48345608
77	0x3eeb413d	0.4594821
78	0xbe24c6a0	-0.16091394
79	0xbaa14d54	-0.0012306371
80	0x3e2e7273	0.17035846
81	0x3e7c3e83	0.24633221
82	0x3f3f264d	0.7466782
83	0x3e9660d7	0.29370758
84	0x3d7bfe49	0.061521802
85	0x3e18492a	0.1487166
86	0xbdb31f8d	-0.08746252
87	0xbb65b628	-0.00350512
88	0x3e25da15	0.16196473
89	0xbf206863	-0.6265928
90	0xbe296b4b	-0.16544835
91	0xbeadbaa0	-0.33931446
92	0xbedb6d0f	-0.42856643
93	0x3e88c7f3	0.2671505
94	0xbe9654f8	-0.293617
95	0xba616241	-0.000859771
96	0x3e7fb9f9	0.24973287
97	0x3e998582	0.2998467
98	0x3e0534b5	0.13008387
99	0x3ea9a083	0.33130273
100	0x3df8c3bc	0.12146708
101	0x3cd278e9	0.02569242
102	0x3d036726	0.032080792
103	0xba4356e2	-0.0007451606
104	0x3ec7b8bf	0.39008138
105	0x3dc33388	0.09531313
106	0x3e30f836	0.17282185
107	0x3e226608	0.15859234
108	0x3dc5e7cb	0.096633516
109	0xbea8142b	-0.32827887
110	0xbe05631f	-0.13026093
111	0xbae985b0	-0.0017816331
112	0x3eb08756	0.34478253
113	0x3e541455	0.20710881
114	0x3e92bd3c	0.2866
115	0x3e33072b	0.17483203
116	0x3e25aaa4	0.16178375
117	0xbbecbe56	-0.0072248382
118	0x3d851d7c	0.06499764
119	0xbac3541e	-0.0014902388
120	0x3eb38954	0.3506571
121	0x3ea18f80	0.31554794
122	0x3e13b478	0.14424312
123	0x3e9f0b8e	0.31063503
124	0x3cb62c0e	0.022237804
125	0x3c29af3b	0.01035672
126	0x3d40fdfa	0.04711721
127	0xbadfef5d	-0.0017084886

weight_hh_l3 f4 [16, 4]
0	0xbdb57b25	-0.088613786
1	0xbdb8bbf8	-0.09020227
2	0x3ddfef02	0.10934259
3	0xbdf8299e	-0.12117313
4	0xbdd835d3	-0.10557141
5	0xbe150376	-0.14552101
6	0x3e1cd828	0.15316832
7	0xbe06892b	-0.13138263
8	0xbdaf57c6	-0.08561663
9	0xbdc776f4	-0.097394854
10	0x3dadd6df	0.08488249
11	0xbdbcfcba	-0.09227891
12	0xbdb2f02b	-0.08737215
13	0xbdd63e1b	-0.104610644
14	0x3da0513c	0.07827994
15	0xbdca7349	-0.0988527
16	0x3a0eb37d	0.0005443616
17	0xbd6255d8	-0.05525765
18	0x3dc2c1e7	0.0950964
19	0xbd58c53b	-0.05292247
20	0xbdadaa7e	-0.084797844
21	0xbe5c4f11	-0.21514536
22	0x3e181831	0.14852978
23	0xbdc9d772	-0.09855546
24	0xbda457ca	-0.08024557
25	0xbe1d0163	-0.1533256
26	0x3d89c8d0	0.06727755
27	0xbdac17c2	-0.08402969
28	0xbd4b4b56	-0.049632393
29	0xbdd7c879	-0.10536284
30	0x3d53b95e	0.05169045
31	0xbd7a771e	-0.061148755
32	0x3e15f217	0.14643131
33	0xba584632	-0.0008250206
34	0x3ed95f9d	0.4245576
35	0xbd153faa	-0.036437668
36	0xbdf30c66	-0.11867599
37	0xbdee7580	-0.11643505
38	0x3ef7a590	0.48368502
39	0xbe289667	-0.16463624
40	0x3d7fc663	0.062445056
41	0xbdf8c7cf	-0.121474855
42	0x3db5a14c	0.088686556
43	0x3d313e4c	0.0432723
44	0x3ea01242	0.3126393
45	0xbd83acee	-0.06429468
46	0x3e9ea5e9	0.30985954
47	0xbd11685e	-0.035499923
48	0xbe9387f4	-0.28814662
49	0xbe856444	-0.2605306
50	0x3e8e9c83	0.27853784
51	0xbe9bf4ff	-0.30460355
52	0xbe8a31f1	-0.26991227
53	0xbe96cd0e	-0.2945332
54	0x3e940857	0.28912613
55	0xbe941f3b	-0.28930077
56	0xbe67a51e	-0.22621581
57	0xbe8565aa	-0.26054126
58	0x3e889a87	0.26680395
59	0xbe791d66	-0.24327621
60	0xbe686ed9	-0.22698535
61	0xbe725083	-0.23663525
62	0x3e5f0896	0.21780619
63	0xbe67e785	-0.22646911

bias_ih_l3 f4 [16]
0	0x3e9b89e1	0.3037863
1	0x3e55efa7	0.20892201
2	0x3e7d7054	0.24749881
3	0x3e571623	0.21004538
4	0x3e69e703	0.2284203
5	0x3bab0177	0.0052186805
6	0x3e241c3b	0.16026394
7	0x3e7e8ec4	0.24859148
8	0x3e68e2a5	0.22742708
9	0x3ec50e50	0.38487482
10	0x3e56f8b7	0.20993315
11	0xbebb264b	-0.36552653
12	0x3e966f03	0.2938157
13	0x3edf7d9e	0.43650526
14	0x3eb7f70d	0.35930672
15	0x3ebade18	0.3649757

bias_hh_l3 f4 [16]
0	0x3ed116bf	0.40837666
1	0x3e4ff417	0.20307957
2	0x3e7d96d4	0.24764568
3	0x3e7eae4d	0.24871178
4	0x3eabae25	0.335313
5	0xbd81d163	-0.063387655
6	0x3e2411e6	0.16022453
7	0x3e857f2d	0.2607359
8	0xbe9900a6	-0.29883307
9	0xbe41a679	-0.1891116
10	0x3b83fb4e	0.0040277606
11	0x3e8bfdf9	0.27342203
12	0x3ea2223e	0.3166675
13	0x3eaa8b1e	0.33309263
14	0x3eb7d0f6	0.35901612
15	0x3ebadee3	0.36498174

weight_ih_l3_reverse f4 [16, 8]
0	0x3e6bc7db	0.23025458
1	0x3dfe8e4b	0.12429484
2	0x3c9819a1	0.018566908
3	0x3e301144	0.17194086
4	0xbd006f95	-0.031356413
5	0xbd38d168	-0.04512158
6	0xbb9fbe83	-0.0048750057
7	0x39fd2690	0.00048284652
8	0x3e0cd364	0.13752514
9	0x3e0951b0	0.13410068
10	0x3e010d59	0.12602748
11	0x3deafbec	0.114738315
12	0x3d4d1757	0.050071087
13	0xbc1cf4db	-0.0095798625
14	0x3cab45b1	0.020907255
15	0xb92cb2ee	-0.00016469855
16	0x3dc46f79	0.09591574
17	0x3e1645b9	0.14675035
18	0x3dd72523	0.1050513
19	0x3e0b2a91	0.13590457
20	0x3d278d80	0.04090643
21	0xbd2c048f	-0.041996535
22	0xbc4d789f	-0.012540965
23	0xb94a0015	-0.00019264252
24	0x3e964c1d	0.29354945
25	0x3e262063	0.16223292
26	0x3e4d5769	0.20052876
27	0x3df063b3	0.11737766
28	0x3dd0f227	0.10202437
29	0xbdb796c1	-0.08964301
30	0x3cc1fb2b	0.023679337
31	0xbb22ee7b	-0.0024861384
32	0x3e0dac32	0.13835219
33	0xbd1067ae	-0.035255127
34	0xbd0ddd25	-0.034634728
35	0x3cc44b3f	0.023961661
36	0xbd82143f	-0.06351518
37	0xbe107eba	-0.14110842
38	0xbdb03b21	-0.08605028
39	0x3a1d6aa0	0.0006004963
40	0x3cfacb32	0.03061447
41	0x3c780835	0.015138675
42	0x3cc3362c	0.023829542
43	0x3c3fafb9	0.01169961
44	0x3c847cf2	0.01617286
45	0xbcfa96f4	-0.030589558
46	0x3bc8350b	0.006109839
47	0xb93f8182	-0.00018263425
48	0x3bb8ba57	0.005637448
49	0x3c916e7d	0.01775288
50	0x3c4e74ba	0.012601072
51	0x3c5839ad	0.013197345
52	0x3bbd1b77	0.0057710963
53	0xbcabe33f	-0.020982383
54	0xbbd1d6cd	-0.00640378
55	0xb99a5491	-0.00029436176
56	0x3df7b302	0.1209469
57	0xbb3a541f	-0.0028431488
58	0x3d3d33bb	0.046191912
59	0xbca91ed6	-0.020644587
60	0x3cb27e2a	0.021788675
61	0xbdd710b7	-0.10501235
62	0x3b85b3f1	0.0040802886
63	0xbaf97250	-0.001903126
64	0xbee2bcb4	-0.44284594
65	0x3f0d3206	0.55154455
66	0x3db301de	0.087405905
67	0x3edb417b	0.42823395
68	0x3f0760b9	0.5288196
69	0x3e1a698a	0.15079322
70	0x3dde2f49	0.10848863
71	0x37c0041a	2.2890094e-05
72	0x3dfc9537	0.12333148
73	0xbeeb3c88	-0.4594462
74	0xbeb3ec8a	-0.35141402
75	0xbe20946a	-0.15681615
76	0xbe8d88dd	-0.2764348
77	0xbd845bfc	-0.06462857
78	0xbdb52d37	-0.08846515
79	0xba053d62	-0.0005082694
80	0x3c5ec004	0.013595585
81	0x3eae08ce	0.33991092
82	0x3e80f923	0.25190076
83	0x3eb5ca41	0.3550587
84	0x3e09820c	0.13428515
85	0xbd84dc33	-0.06487312
86	0x3db723d4	0.089423805
87	0x3964fbdd	0.00021837601
88	0x3d01b645	0.031667966
89	0x3ed6f5e3	0.41984472
90	0x3ef04011	0.4692388
91	0x3e954054	0.2915064
92	0x3efbf6ac	0.49211633
93	0xbe4789e1	-0.1948619
94	0x3eb654c6	0.35611552
95	0x3a64897a	0.00087179954
96	0x3e7698f2	0.24081782
97	0x3e084305	0.13306816
98	0x3ce8e551	0.02842966
99	0x3e3fab31	0.18717648
100	0x3acaaf87	0.0015463688
101	0xbdd2cf61	-0.10293461
102	0xbd0bd850	-0.03414184
103	0x38ed76a7	0.000113231414
104	0x3e17c45f	0.14821003
105	0x3e1cfae4	0.15330082
106	0x3e0dba7f	0.13840674
107	0x3e062583	0.13100247
108	0x3d866f92	0.06564249
109	0xbd33abc0	-0.043864965
110	0x3c3b68c5	0.011438553
111	0xb927e849	-0.00016012894
112	0x3ddf1def	0.10894381
113	0x3e239afe	0.15977094
114	0x3df02e1f	0.11727547
115	0x3e12fe04	0.14354712
116	0x3d4bc7f7	0.04975125
117	0xbd6012fb	-0.0547056
118	0xbc8a2269	-0.016862111
119	0xb93db6cd	-0.00018092543
120	0x3e9f397d	0.31098548
121	0x3e40369f	0.18770836
122	0x3e577d51	0.21043898
123	0x3dfd8df6	0.123805925
124	0x3e081bf9	0.1329192
125	0xbe4e7a4d	-0.20163842
126	0x3c63f9f8	0.013914578
127	0xbb3004b3	-0.002685827

weight_hh_l3_reverse f4 [16, 4]
0	0xbd5bfbb9	-0.05370686
1	0x3c9dd213	0.01926521
2	0xbccf0c00	-0.025274277
3	0xbcfe788e	-0.031063344
4	0x3b1850cd	0.002324152
5	0xbbe049ed	-0.00684475
6	0xba1d4d33	-0.0006000578
7	0x3bf50579	0.007477459
8	0x3b5852ee	0.0033008414
9	0xbb58f788	-0.0033106524
10	0x3b92b1ae	0.0044767475
11	0x3baaef59	0.0052165207
12	0xbb0a6875	-0.002111939
13	0xbc835ebd	-0.016036386
14	0xbb5819d0	-0.003297437
15	0x3c97fb74	0.01855252
16	0xbda71b4c	-0.08159503
17	0x3cd2909f	0.025703726
18	0xbc3f46bd	-0.01167458
19	0xbcdec4ce	-0.027193453
20	0xb82ceee6	-4.1230487e-05
21	0xbbcb2c9b	-0.0062003857
22	0x3b91a787	0.0044450196
23	0x3c39dd49	0.011344262
24	0x3b0e7363	0.0021736256
25	0xbb789165	-0.0037928459
26	0x3bcf6743	0.0063294484
27	0x3bee213d	0.007267146
28	0xbc30d1ef	-0.01079224
29	0xbc5ab747	-0.013349361
30	0x3bfb5bdc	0.0076708626
31	0x3cee9b13	0.02912668
32	0xbbc0b676	-0.005881126
33	0x3d3c7110	0.046006262
34	0xbe61ce04	-0.22051245
35	0x3c20d3ec	0.009816151
36	0x3c928cba	0.01788937
37	0xbc0ad955	-0.008474668
38	0x3c8ad46a	0.01694699
39	0xbc9e3623	-0.019312924
40	0x3c58b46a	0.013226608
41	0xbbc9287c	-0.0061388593
42	0xbce14536	-0.027498823
43	0xbbb6a2ec	-0.005573621
44	0x3d474488	0.04864934
45	0xba21f4f8	-0.0006178166
46	0xbd8eb4f3	-0.06968107
47	0xbc333363	-0.0109375445
48	0xbd7ea428	-0.06216827
49	0x3c96900b	0.018379232
50	0xbcd77074	-0.026298739
51	0xbd0c86a8	-0.034308106
52	0x3bb7ea58	0.0056126527
53	0xbc2ca67a	-0.010537738
54	0x3b79c728	0.003811309
55	0x3c61bb3c	0.01377755
56	0x3bd57f37	0.0065154093
57	0xbbce75c9	-0.006300662
58	0x3c06300a	0.008190164
59	0x3c1f949c	0.009740021
60	0x3b34d37c	0.0027591875
61	0xbcda09ca	-0.026615996
62	0x3c0761d5	0.008263071
63	0x3d24e898	0.04026088

bias_ih_l3_reverse f4 [16]
0	0x3e8db472	0.2767673
1	0x3e0412da	0.12897816
2	0x3de445ce	0.11146127
3	0x3e1f5179	0.15558423
4	0x3d5af15b	0.05345283
5	0xbab808c3	-0.0014040697
6	0xbca8b189	-0.020592468
7	0x3c1924db	0.009347166
8	0x3e1d6b83	0.15373044
9	0xbea605d3	-0.3242632
10	0x3e55857f	0.20851706
11	0x3d164d21	0.03669465
12	0x3ea92976	0.33039445
13	0x3e1b7919	0.15182914
14	0x3e0b975a	0.13631955
15	0x3e8709ea	0.2637475

bias_hh_l3_reverse f4 [16]
0	0x3e9048c3	0.28180513
1	0x3e120c30	0.14262462
2	0x3df0ad6c	0.117518276
3	0x3e43ccae	0.19121048
4	0x3d53d93c	0.051720843
5	0xbab8c3ac	-0.0014096401
6	0xbca8b186	-0.020592462
7	0x3c497189	0.012295135
8	0x3f01f90f	0.5077066
9	0xbe249e39	-0.16075982
10	0x3cbd7463	0.023126787
11	0x3eb58bac	0.35458124
12	0x3eb1f01f	0.3475351
13	0x3e3ac3d0	0.18238759
14	0x3e0e7c16	0.13914523
15	0x3e6635f3	0.22481517

weight_ih_l4 f4 [16, 8]
0	0xbe414351	-0.18873335
1	0xbe8fe8d2	-0.28107315
2	0x3e695980	0.22788048
3	0xbe28a466	-0.16468963
4	0x3dc7de21	0.097591646
5	0xbe0c35f4	-0.13692456
6	0x3d61555a	0.05501304
7	0x3e291b1f	0.16514252
8	0xbd0db7d2	-0.034599133
9	0xbceed1d9	-0.029152798
10	0x3d8f8151	0.07007087
11	0xbd8a47f2	-0.06752004
12	0x3b603ee2	0.0034217169
13	0xbd26cf20	-0.040724874
14	0x3c3d5553	0.011555987
15	0x3d9c342d	0.07627139
16	0xbe9497c0	-0.29022026
17	0xbe936481	-0.28787616
18	0x3e3dd428	0.18537962
19	0xbe819490	-0.25308657
20	0x3dc1f7a8	0.09471065
21	0xbdc9ac7f	-0.09847354
22	0x3ddd4d65	0.108057775
23	0x3e1fa6c4	0.1559096
24	0xbe0035f5	-0.12520583
25	0xbdc6e53c	-0.09711692
26	0x3e258ef1	0.16167809
27	0xbe14ea54	-0.14542514
28	0x3db5eb2f	0.08882748
29	0xbda42857	-0.08015507
30	0x3d4fcf19	0.050734613
31	0x3e007ded	0.12548037
32	0xbda7ccae	-0.081933364
33	0xbe46fcaf	-0.19432329
34	0x3e31498f	0.17313217
35	0xbdb0ed63	-0.08639028
36	0x3e0cbda2	0.13744214
37	0xbe10157a	-0.14070693
38	0x3c95dd39	0.018293964
39	0x3e25bfa6	0.1618639
40	0xbda3611d	-0.07977507
41	0xbd4ff30c	-0.050768897
42	0x3dd177ad	0.102279045
43	0xbdaa579f	-0.08317494
44	0x3cbc65c7	0.02299775
45	0xbd340d73	-0.04395814
46	0x3aaaa9c9	0.0013020571
47	0x3d9d04e0	0.076669455
48	0xbed0052d	-0.4062895
49	0xbee79916	-0.45233983
50	0x3e5f10e3	0.21783786
51	0xbeb421dc	-0.35182083
52	0x3e1fe7c4	0.15615755
53	0xbe0a3dbe	-0.13500115
54	0x3e1556a4	0.14583832
55	0x3e65201c	0.2237553
56	0xbda5782c	-0.080795616
57	0xbdb86ce2	-0.09005143
58	0x3e0c7608	0.137169
59	0xbdd4a684	-0.10383323
60	0x3d901633	0.07035484
61	0xbd7aa957	-0.06119665
62	0x3cc0367c	0.02346348
63	0x3db7b043	0.08969166
64	0x3e96c5d2	0.294478
65	0x3e6b1e3c	0.22960752
66	0xbe8b642b	-0.2722486
67	0x3e737bd3	0.23777704
68	0xbde35293	-0.11099734
69	0x3e8785a8	0.2646916
70	0xbd156691	-0.036474768
71	0xbebf9dfa	-0.37425214
72	0xbd656950	-0.056008637
73	0xbe2f8b34	-0.17142946
74	0x3df23759	0.11826963
75	0xbed52812	-0.41632134
76	0x3f54b3d5	0.830869
77	0xbe40b6b5	-0.18819697
78	0x3d88c584	0.06678298
79	0x3e9ebbe9	0.3100274
80	0xbdfed115	-0.12442223
81	0xbe296b02	-0.16544726
82	0x3de9077d	0.113783814
83	0xbee6041a	-0.44925004
84	0x3ea8b577	0.32950947
85	0xbd373809	-0.044731174
86	0x3de1cac0	0.110249996
87	0x3ec54e18	0.38536143
88	0x3dec3aca	0.115346506
89	0x3d712923	0.05887712
90	0xbdf75cf7	-0.120782785
91	0x3e23070b	0.15920655
92	0xbdd87511	-0.10569204
93	0x3d93c390	0.07215035
94	0xbd2bad29	-0.041913185
95	0xbe0b7bbe	-0.13621423
96	0xbee372f0	-0.44423628
97	0xbf03054f	-0.51179975
98	0x3ee87e85	0.45409027
99	0xbece6bf7	-0.40316746
100	0x3e40dadd	0.1883349
101	0xbe37ec7a	-0.17961302
102	0x3e1cd734	0.15316468
103	0x3e703a6c	0.23459786
104	0xbe81dba6	-0.2536289
105	0xbe83a7e7	-0.25714037
106	0x3ea355e2	0.3190146
107	0xbe856cfb	-0.26059708
108	0x3db13a1b	0.08653661
109	0xbddd8a51	-0.108173974
110	0x3da9ae0c	0.0828515
111	0x3e204d4a	0.15654483
112	0xbee4caca	-0.44685966
113	0xbeee3467	-0.46524355
114	0x3edd1858	0.43182635
115	0xbed596c0	-0.41716576
116	0x3e3b151e	0.18269774
117	0xbe26a302	-0.1627312
118	0x3e1bcbc3	0.15214448
119	0x3e588d40	0.21147633
120	0xbebb02e3	-0.3652564
121	0xbedd0c14	-0.43173277
122	0x3eb8c798	0.36089778
123	0xbea8734e	-0.3290047
124	0x3e1e1738	0.15438545
125	0xbe0c8c94	-0.13725501
126	0x3e014d92	0.12627247
127	0x3e52629d	0.2054543

weight_hh_l4 f4 [16, 4]
0	0xbdbab9fa	-0.091175035
1	0xbd978887	-0.073990874
2	0xbb354223	-0.0027657829
3	0x3d47fdd3	0.04882605
4	0xbde23825	-0.11045865
5	0x3e4c980c	0.19979876
6	0x3daf4ee3	0.08559968
7	0xbdfef904	-0.1244984
8	0xbdd142eb	-0.10217842
9	0xbba6c4bf	-0.005089372
10	0x3cfb4200	0.03067112
11	0x3d00cf28	0.03144756
12	0xbe202c0a	-0.156418
13	0x3e547a3c	0.20749754
14	0x3ddeef75	0.108855166
15	0xbe3f8051	-0.18701293
16	0xbd923b07	-0.07140165
17	0x3de3e3f7	0.11127465
18	0x3e0ad84c	0.13559073
19	0xbe91b5a7	-0.28458902
20	0xbe295f46	-0.1654025
21	0x3e359fce	0.17736742
22	0x3e53bf2e	0.20678398
23	0xbe116328	-0.14197981
24	0xbdd23d0d	-0.10265551
25	0xbdbfeba3	-0.09371116
26	0xbdbc13ef	-0.091834895
27	0x3cbfc176	0.023407679
28	0xbe337109	-0.17523588
29	0x3e8a83a0	0.27053547
30	0x3dfbef1b	0.12301465
31	0xbe76811a	-0.24072686
32	0x3e28ecba	0.16496554
33	0xbeb667f9	-0.356262
34	0xbe92d47d	-0.2867774
35	0xbd97d86f	-0.07414328
36	0xbe39939c	-0.18122715
37	0x3f4590d8	0.7717414
38	0x3e34e6e4	0.17666203
39	0xbdb889ec	-0.090106815
40	0x3e2eda89	0.17075552
41	0xbd627015	-0.05528267
42	0xbe849634	-0.25895846
43	0xbeaf8c72	-0.3428684
44	0x3e2800e3	0.16406588
45	0xbe975916	-0.29560155
46	0xbdd2f19f	-0.10299992
47	0x3e516111	0.20447184
48	0xbe7a2087	-0.2442647
49	0x3e967724	0.29387772
50	0x3e7c87cd	0.24661179
51	0xbe9e1d2d	-0.30881634
52	0xbea3b9e5	-0.31977764
53	0x3f031235	0.51199657
54	0x3e8e7986	0.2782709
55	0xbee3f0aa	-0.4451955
56	0xbe98a491	-0.29813054
57	0x3e985860	0.29754925
58	0x3e9b059a	0.3027771
59	0xbe924b13	-0.28572902
60	0xbe9409d1	-0.2891374
61	0x3f10fd6c	0.5663669
62	0x3e6a4dea	0.22881284
63	0xbf01a991	-0.5064936

bias_ih_l4 f4 [16]
0	0x3b8beec7	0.004270408
1	0x3e6277d0	0.22116017
2	0xbda3b459	-0.07993383
3	0x3d650fde	0.055923335
4	0x3ed8f6dd	0.42375842
5	0x3e4f253c	0.20229048
6	0xbd83feca	-0.064450815
7	0x3e8b38bd	0.27191725
8	0xbd9776f7	-0.073957376
9	0x3e2df072	0.16986254
10	0x3e483f93	0.19555502
11	0xbe99d036	-0.30041665
12	0x3e73b48c	0.23799342
13	0x3f1fb64a	0.62387526
14	0x3ea18b18	0.31551433
15	0x3e2787d1	0.16360404

bias_hh_l4 f4 [16]
0	0x3ca9f6b4	0.02074752
1	0x3f072023	0.5278341
2	0x3e2c2e6b	0.16814582
3	0x3d601bc3	0.054713976
4	0x3e2c5425	0.16828974
5	0x3e9750ec	0.29553926
6	0x3d502302	0.050814636
7	0x3e9d1f1f	0.30687806
8	0xbdb35590	-0.08756554
9	0x3eac67a6	0.33672827
10	0x3d3b8a07	0.04578593
11	0xbeb8678a	-0.36016494
12	0x3ecc1cb2	0.39865643
13	0x3f0222f8	0.5083461
14	0x3eae5b59	0.34054068
15	0x3eb9201b	0.36157307

weight_ih_l4_reverse f4 [16, 8]
0	0xbede71e5	-0.4344627
1	0xbed96cab	-0.4246572
2	0x3ed2615f	0.41089913
3	0xbedbef81	-0.42956164
4	0x3e5f6a19	0.21817817
5	0xbe2f24f6	-0.17103943
6	0x3e2526fd	0.16128154
7	0x3e57cc65	0.21074064
8	0xbeee0126	-0.4648525
9	0xbee92967	-0.455394
10	0x3ed3c8a7	0.41364023
11	0xbee2050c	-0.44144475
12	0x3e498284	0.19678694
13	0xbe27c10d	-0.16382237
14	0x3e1bf1a1	0.15228893
15	0x3e5869e0	0.21134138
16	0xbeb53281	-0.35390094
17	0xbeb856e6	-0.36003798
18	0x3ecbc65b	0.3979977
19	0xbec08713	-0.37603053
20	0x3e63992d	0.222264
21	0xbe2dbdc9	-0.16966929
22	0x3e205d02	0.1566048
23	0x3e4f4fbc	0.2024526
24	0xbee403f6	-0.44534272
25	0xbeddc918	-0.43317485
26	0x3ed0cbb2	0.40780407
27	0xbeddfceb	-0.43357024
28	0x3e59cc93	0.21269445
29	0xbe2ce805	-0.16885383
30	0x3e2257bb	0.15853779
31	0x3e5724bb	0.21010105
32	0x80005dde	-3.3673e-41
33	0x00000360	1.211e-42
34	0x80010056	-9.1956e-41
35	0x00008119	4.6312e-41
36	0x8000b48f	-6.4772e-41
37	0x80005efe	-3.4077e-41
38	0x000126dc	1.05776e-40
39	0x0000a5b3	5.9442e-41
40	0x0000ea4f	8.4054e-41
41	0x80008971	-4.9305e-41
42	0x8000a4f7	-5.9178e-41
43	0x00006a87	3.8215e-41
44	0x000041e4	2.3637e-41
45	0x0000a78c	6.0104e-41
46	0x0000ab64	6.1483e-41
47	0x8000aa75	-6.1148e-41
48	0x8000fa95	-8.9892e-41
49	0x8001337f	-1.10309e-40
50	0x800094db	-5.3399e-41
51	0x0000a021	5.7443e-41
52	0x80006f2b	-3.988e-41
53	0x0000dac3	7.8477e-41
54	0x0000fc2b	9.0461e-41
55	0x80001790	-8.453e-42
56	0x00004e4c	2.8088e-41
57	0x00011c8f	1.0208e-40
58	0x80008c77	-5.0389e-41
59	0x0000ff1a	9.1513e-41
60	0x8000db0b	-7.8578e-41
61	0x8000bdef	-6.8135e-41
62	0x00002a80	1.5246e-41
63	0x80007289	-4.1087e-41
64	0x3f06d63b	0.5267064
65	0x3f2ba9b3	0.67055815
66	0xbe44f027	-0.19232236
67	0x3ed8b7b1	0.42327645
68	0xbe566c50	-0.20939755
69	0x3e0683f3	0.13136272
70	0xbe5dfd94	-0.21678764
71	0xbe61ef35	-0.22063906
72	0xbeddc1f0	-0.43312025
73	0xbf0570c1	-0.52125174
74	0x3e81b5a7	0.25333902
75	0xbe9fc2be	-0.31203264
76	0x3dc44df8	0.09585184
77	0xbdd43eda	-0.103635505
78	0x3e22e9e9	0.15909542
79	0x3e3bf8dd	0.18356653
80	0x3f33ffb3	0.7031204
81	0x3f3be2c1	0.73392874
82	0xbe9a7a56	-0.3017146
83	0x3f099b3b	0.5375249
84	0xbeaa71dc	-0.33289993
85	0x3e5f31a7	0.21796285
86	0xbe88425f	-0.26613137
87	0xbe9085a0	-0.28226948
88	0x3f0c7122	0.54860127
89	0x3f115b56	0.5677999
90	0xbe8573be	-0.26064867
91	0x3ec948b5	0.39313284
92	0xbe275ea1	-0.16344692
93	0x3de14652	0.10999741
94	0xbe29d355	-0.16584523
95	0xbe46340c	-0.19355792
96	0xbefd3c09	-0.49459866
97	0xbefa3277	-0.48866627
98	0x3ef1da6b	0.47236952
99	0xbefacfc0	-0.48986626
100	0x3e79efa2	0.24407819
101	0xbe46811a	-0.19385186
102	0x3e3b440e	0.1828768
103	0x3e768091	0.24072482
104	0xbf03e4bc	-0.51520896
105	0xbf02b001	-0.5104981
106	0x3ef24c8d	0.4732403
107	0xbefcddc9	-0.4938796
108	0x3e65776a	0.22408834
109	0xbe3f0e90	-0.18657899
110	0x3e304617	0.17214237
111	0x3e761360	0.24030828
112	0xbee6ca5c	-0.45076263
113	0xbeee5196	-0.4654662
114	0x3ef2aa58	0.47395587
115	0xbef0df56	-0.47045392
116	0x3e8a0287	0.26955053
117	0xbe5085fb	-0.2036361
118	0x3e490ac8	0.19633019
119	0x3e7795dd	0.24178262
120	0xbf02360b	-0.50863713
121	0xbf004bde	-0.50115764
122	0x3ef36086	0.4753458
123	0xbefea376	-0.49734086
124	0x3e774c0e	0.24150106
125	0xbe46398e	-0.19357893
126	0x3e39b51e	0.18135497
127	0x3e7836dc	0.24239677
