model_new/CNN_1_-1_8.pt (torch, 237054 bytes, 11 tensors)

weight f4 [6, 1, 3, 3]
0	0xbe844496	-0.25833577
1	0x3f04a908	0.5182042
2	0x3d8809e0	0.066425085
3	0x3d1d5424	0.03841032
4	0x3b817ce4	0.0039516557
5	0xbeb37f18	-0.35057902
6	0x3c15f486	0.009152537
7	0xbed90bb5	-0.42391744
8	0x3eb5fac2	0.35542876
9	0xbd1469c1	-0.036233667
10	0xbeaa861d	-0.33305445
11	0xbddd0e92	-0.10793795
12	0xbd61ed04	-0.055157676
13	0x3eb055c1	0.34440425
14	0x3e108833	0.14114456
15	0xbeb625cc	-0.35575712
16	0x3eef0348	0.4668219
17	0xbeee9480	-0.46597672
18	0x3e8449fc	0.25837696
19	0x3e9577f6	0.29193085
20	0xbf404e36	-0.7511934
21	0xbdf61ad4	-0.12016836
22	0x3e917565	0.28409877
23	0x3ea13da3	0.31492338
24	0x3e787a7c	0.24265474
25	0xbf02defd	-0.51121503
26	0x3dd4aabf	0.1038413
27	0x3a865e06	0.001025141
28	0xbeea7c50	-0.45797968
29	0x3eb954ee	0.3619761
30	0xbe03dd1d	-0.12877317
31	0x3ee12558	0.43973804
32	0x3c9283cb	0.01788511
33	0xbb9e7665	-0.004835891
34	0x3efea445	0.49734703
35	0xbf01e6b4	-0.5074265
36	0x3eb0fee3	0.34569463
37	0x3eb0fb13	0.34566554
38	0x3e417bbb	0.18894856
39	0x3e7ba959	0.2457632
40	0xbdaa3006	-0.08309941
41	0x3c7a9d7e	0.015296338
42	0x3ef4624a	0.4773124
43	0x3ecd38e4	0.40082467
44	0x3d57ad0d	0.05265527
45	0x3f08ffe5	0.53515464
46	0xbe98e5e5	-0.29862896
47	0xbe418b15	-0.18900712
48	0x3ea7ffe1	0.32812408
49	0x3f093c18	0.5360732
50	0x3ea45db3	0.32102737
51	0x3e29f00c	0.16595477
52	0xbd30147c	-0.042988285
53	0x3ec021b8	0.37525725

bias f4 [6]
0	0x3730d1b0	1.0539239e-05
1	0xb99d1aae	-0.0002996525
2	0x38ded52a	0.0001062549
3	0xb98695bd	-0.00025670035
4	0x3939c3a7	0.00017715861
5	0xb964687a	-0.00021782695

weight f4 [6, 6, 1, 1]
0	0x3ec40ae4	0.3828956
1	0x3e21c129	0.15796341
2	0x3f7e1542	0.99251187
3	0xbe87a826	-0.26495475
4	0x3d01cb98	0.031688303
5	0x3d647bf5	0.055782277
6	0xbea96f51	-0.3309274
7	0xbe5d893e	-0.21634385
8	0xbf3fb0d0	-0.7487917
9	0xbecf49cc	-0.4048599
10	0x3d854932	0.065081015
11	0xbdcbdb93	-0.0995399
12	0x3eadcb3c	0.33944118
13	0xbdd7cd5e	-0.105372176
14	0xbd4ef98e	-0.050530963
15	0xbe9ced44	-0.3064977
16	0xbed0a3e1	-0.4075003
17	0x3f0024fb	0.5005643
18	0x3f164bd8	0.5870948
19	0xbf1ba703	-0.60801715
20	0xbe78ce1e	-0.24297377
21	0xbead11fe	-0.3380279
22	0x3e1f9286	0.15583238
23	0xbe90928f	-0.28236815
24	0xbe9b816b	-0.30372176
25	0x3ec1041d	0.3769845
26	0xbf263d51	-0.6493731
27	0x3f0917fd	0.5355223
28	0xbc4cb0cf	-0.012493326
29	0x3d7bc0dd	0.061463226
30	0xbe937d12	-0.2880636
31	0xbd779a27	-0.060449746
32	0x3d2b9459	0.041889522
33	0x3d980e84	0.07424644
34	0x3ed4903e	0.41516298
35	0xbf06fb9f	-0.52727693

bias f4 [6]
0	0x36d8304d	6.4429246e-06
1	0x382308ac	3.8870305e-05
2	0xb8e1c989	-0.00010766375
3	0x3979bed1	0.00023817575
4	0xb96dfb3f	-0.00022695678
5	0x395c2e95	0.00020998188

weight f4 [6]
0	0x3f63800e	0.8886727
1	0x3f9088bb	1.1291727
2	0x3f700899	0.9376312
3	0x401a7220	2.4132156
4	0x3f8f6fc8	1.1205988
5	0x3f6ee411	0.9331675

bias f4 [6]
0	0xbe0cf8f9	-0.1376685
1	0xbd91747b	-0.07102295
2	0xbe4f08ea	-0.20218244
3	0xbf9002d6	-1.1250865
4	0xbb2a2b22	-0.002596565
5	0x3d590b90	0.052989542

running_mean f4 [6]
0	0x3fa84774	1.3146806
1	0xbfa0f97c	-1.2576137
2	0x3c7e7741	0.015531362
3	0xbf5c53e4	-0.86065507
4	0x3d178a74	0.036997274
5	0xbe8c8e1d	-0.27452174

running_var f4 [6]
0	0x401c8557	2.4456384
1	0x3fccbf2c	1.5995841
2	0x3f4afad1	0.79288965
3	0x4035439f	2.8322523
4	0x3fc25333	1.518164
5	0x3f3f9376	0.7483438

weight f4 [16, 3600]
0	0x8000453c	-2.4837e-41
1	0x000018f5	8.953e-42
2	0x8000044d	-1.543e-42
3	0x80000b7b	-4.118e-42
4	0x80000d31	-4.732e-42
5	0x8000110a	-6.112e-42
6	0x80000624	-2.203e-42
7	0x8000048f	-1.635e-42
8	0x8000121e	-6.499e-42
9	0x8000133b	-6.899e-42
10	0x000026b0	1.3878e-41
11	0x00000706	2.52e-42
12	0x0000037c	1.25e-42
13	0x8000160d	-7.91e-42
14	0x80000184	-5.44e-43
15	0x00000ce0	4.619e-42
16	0x80001637	-7.969e-42
17	0x80001364	-6.956e-42
18	0x8000042d	-1.498e-42
19	0x000038df	2.0402e-41
20	0x80000a77	-3.754e-42
21	0x0000166e	8.046e-42
22	0x000029aa	1.4946e-41
23	0x00007ff1	4.5897e-41
24	0x80000198	-5.72e-43
25	0x8000242e	-1.2979e-41
26	0x00001f21	1.1167e-41
27	0x00001970	9.125e-42
28	0x00000e2b	5.083e-42
29	0x80000ad1	-3.88e-42
30	0x0000158f	7.734e-42
31	0x00000baa	4.184e-42
32	0x8000113d	-6.184e-42
33	0x80001c85	-1.0231e-41
34	0x00001398	7.029e-42
35	0x80003abf	-2.1074e-41
36	0x840953ad	-1.6142695e-36
37	0x800018c3	-8.883e-42
38	0x03d6df0c	1.2628999e-36
39	0x800008e3	-3.188e-42
40	0x800089ee	-4.948e-41
41	0x00003d06	2.1891e-41
42	0x00000449	1.537e-42
43	0x80001855	-8.729e-42
44	0x800023d8	-1.2858e-41
45	0x800014d3	-7.47e-42
46	0x00000f9a	5.597e-42
47	0x0000151a	7.57e-42
48	0x00001720	8.296e-42
49	0x80001bab	-9.925e-42
50	0x000019a2	9.195e-42
51	0x80000967	-3.373e-42
52	0x800015e9	-7.86e-42
53	0x80000ec2	-5.294e-42
54	0x000018d1	8.902e-42
55	0x80001c2b	-1.0105e-41
56	0x80004674	-2.5274e-41
57	0x80001cc2	-1.0316e-41
58	0x800009d5	-3.527e-42
59	0x80001de7	-1.0727e-41
60	0x800096d0	-5.4101e-41
61	0x00000e99	5.237e-42
62	0x00002112	1.1863e-41
63	0x000016dd	8.202e-42
64	0x00002991	1.4911e-41
65	0x0000086e	3.024e-42
66	0x8000111c	-6.138e-42
67	0x00001efc	1.1115e-41
68	0x80000f30	-5.448e-42
69	0x800014fc	-7.528e-42
70	0x80000976	-3.394e-42
71	0x00000461	1.571e-42
72	0x000014f2	7.514e-42
73	0x00000011	2.4e-44
74	0x80000a92	-3.792e-42
75	0x800003a9	-1.313e-42
76	0x80001dc4	-1.0678e-41
77	0x000015db	7.84e-42
78	0x000011b0	6.345e-42
79	0x00000973	3.39e-42
80	0x8000fb02	-9.0045e-41
81	0x80001f0d	-1.1139e-41
82	0x80005f8f	-3.428e-41
83	0x00001b98	9.899e-42
84	0x00002777	1.4157e-41
85	0x0000208f	1.168e-41
86	0x8000106d	-5.892e-42
87	0x800007ed	-2.843e-42
88	0x80000f4a	-5.485e-42
89	0x00000522	1.841e-42
90	0x00001b27	9.74e-42
91	0x800020d9	-1.1784e-41
92	0x000015cc	7.819e-42
93	0x0000152d	7.596e-42
94	0x00001919	9.003e-42
95	0x80007931	-4.3475e-41
96	0x80000692	-2.357e-42
97	0x0000052d	1.857e-42
98	0x80001151	-6.212e-42
99	0x80000467	-1.579e-42
100	0x8000a502	-5.9194e-41
101	0x80001d2c	-1.0465e-41
102	0x00000432	1.505e-42
103	0x80001150	-6.21e-42
104	0x80001866	-8.753e-42
105	0x8000165a	-8.018e-42
106	0x80001788	-8.441e-42
107	0x80000e0a	-5.036e-42
108	0x00000a9f	3.81e-42
109	0x00001da1	1.0629e-41
110	0x800017ce	-8.54e-42
111	0x800014e8	-7.5e-42
112	0x000018e1	8.925e-42
113	0x800006b7	-2.409e-42
114	0x800003ca	-1.359e-42
115	0x00000560	1.928e-42
116	0x000004e4	1.754e-42
117	0x80001bac	-9.927e-42
118	0x000014f8	7.522e-42
119	0x81f4a716	-8.98712e-38
120	0x00006be2	3.8701e-41
121	0x000023b5	1.2809e-41
122	0x80001ab7	-9.583e-42
123	0x000013f2	7.155e-42
124	0x00002ab1	1.5315e-41
125	0x8000153d	-7.619e-42
126	0x8000145e	-7.306e-42
127	0x80000b0a	-3.96e-42
128	0x000019ca	9.251e-42
129	0x80002b3a	-1.5507e-41
130	0x80001a8e	-9.526e-42
131	0x00000d8a	4.857e-42
132	0x000003ad	1.319e-42
133	0x80000091	-2.03e-43
134	0x800012ee	-6.79e-42
135	0x00001790	8.453e-42
136	0x000019a9	9.205e-42
137	0x00000fd2	5.675e-42
138	0x00001580	7.713e-42
139	0x9287f7dc	-8.5808e-28
140	0x8000f4c5	-8.7807e-41
141	0x0000017f	5.37e-43
142	0x80000080	-1.8e-43
143	0x00000152	4.74e-43
144	0x0000347f	1.8832e-41
145	0x00000817	2.902e-42
146	0x00000b0f	3.967e-42
147	0x80000883	-3.053e-42
148	0x00000a7d	3.762e-42
149	0x00000f35	5.455e-42
150	0x00001fb7	1.1377e-41
151	0x000005dd	2.103e-42
152	0x00000e43	5.116e-42
153	0x80001ee8	-1.1087e-41
154	0x8000149a	-7.39e-42
155	0x000013f9	7.165e-42
156	0x000003aa	1.314e-42
157	0x00000e22	5.07e-42
158	0x80001f80	-1.13e-41
159	0x95162478	-3.0321028e-26
160	0x80000693	-2.358e-42
161	0x00001651	8.006e-42
162	0x80000bc8	-4.226e-42
163	0x800001eb	-6.88e-43
164	0x8000189a	-8.825e-42
165	0x80001029	-5.797e-42
166	0x000001a7	5.93e-43
167	0x80000da8	-4.899e-42
168	0x000027bc	1.4254e-41
169	0x800004e7	-1.759e-42
170	0x80001b9d	-9.906e-42
171	0x80000386	-1.264e-42
172	0x0000672c	3.7011e-41
173	0x800010df	-6.052e-42
174	0x80001a40	-9.417e-42
175	0x80001ae7	-9.651e-42
176	0x800008dc	-3.178e-42
177	0x00000710	2.534e-42
178	0x00000b85	4.132e-42
179	0x948abfab	-1.4010039e-26
180	0x800012e6	-6.78e-42
181	0x00001024	5.79e-42
182	0x8000091a	-3.265e-42
183	0x00001012	5.765e-42
184	0x800018b0	-8.856e-42
185	0x80000a23	-3.636e-42
186	0x0000130d	6.834e-42
187	0x00000494	1.642e-42
188	0x800012d9	-6.761e-42
189	0x00001a4e	9.436e-42
190	0x000030e5	1.754e-41
191	0x800058b4	-3.182e-41
192	0x00000cf4	4.647e-42
193	0x8000142a	-7.234e-42
194	0x80001f60	-1.1255e-41
195	0x0000329b	1.8154e-41
196	0x00001f31	1.119e-41
197	0x800015dd	-7.843e-42
198	0x80000053	-1.16e-43
199	0x8212801f	-1.0763155e-37
200	0x0000dee9	7.9965e-41
201	0x80000382	-1.258e-42
202	0x80001868	-8.755e-42
203	0x800021fc	-1.2191e-41
204	0x00000fce	5.67e-42
205	0x80000ad0	-3.879e-42
206	0x000014c4	7.45e-42
207	0x80001703	-8.255e-42
208	0x000007ee	2.845e-42
209	0x80001b31	-9.754e-42
210	0x00001205	6.464e-42
211	0x00000bf6	4.291e-42
212	0x8000068f	-2.353e-42
213	0x00000150	4.71e-43
214	0x80001282	-6.64e-42
215	0x800013b6	-7.071e-42
216	0x000013ec	7.147e-42
217	0x00000655	2.272e-42
218	0x80000477	-1.602e-42
219	0x00001306	6.824e-42
220	0x8000839f	-4.7217e-41
221	0x800017f7	-8.597e-42
222	0x0000151a	7.57e-42
223	0x800017a5	-8.482e-42
224	0x800009e6	-3.551e-42
225	0x0000064e	2.262e-42
226	0x0000205c	1.1608e-41
227	0x00000b33	4.018e-42
228	0x00005b1d	3.2685e-41
229	0x80000d6c	-4.815e-42
230	0x80002440	-1.3004e-41
231	0x80002010	-1.1502e-41
232	0x80001863	-8.748e-42
233	0x000027c7	1.427e-41
234	0x800006f7	-2.499e-42
235	0x00001488	7.365e-42
236	0x80000d03	-4.668e-42
237	0x80000b63	-4.085e-42
238	0x000015a8	7.769e-42
239	0x80000ae0	-3.901e-42
240	0x0000d5f0	7.6746e-41
241	0x800017f9	-8.6e-42
242	0x80000008	-1.1e-44
243	0x00001ffb	1.1472e-41
244	0x8000025f	-8.5e-43
245	0x800000e4	-3.2e-43
246	0x00001b66	9.829e-42
247	0x80000428	-1.491e-42
248	0x80000d2b	-4.724e-42
249	0x800011ca	-6.382e-42
250	0x00000fdb	5.688e-42
251	0x80000faf	-5.626e-42
252	0x0000161f	7.936e-42
253	0x800006d1	-2.445e-42
254	0x800058fc	-3.1922e-41
255	0x0000168e	8.091e-42

bias f4 [16]
0	0x8c3bc3d0	-1.4464881e-31
1	0x3ddd48bd	0.10804889
2	0x3d99a870	0.0750283
3	0xb0e16a68	-1.6401147e-09
4	0xb698f884	-4.558884e-06
5	0x000014e9	7.501e-42
6	0x00d4a11a	1.9526918e-38
7	0xa4dccfe9	-9.5762005e-17
8	0x80001201	-6.459e-42
9	0xbad5bda0	-0.0016307123
10	0x3c08be9d	0.008346227
11	0x3e3faba4	0.1871782
12	0x80000f64	-5.521e-42
13	0x80000b1a	-3.982e-42
14	0xb723b310	-9.757248e-06
15	0xbe1ea07f	-0.15490912

weight f4 [1, 16]
0	0xb9e0ad55	-0.00042853752
1	0x3ecf3891	0.40472844
2	0x3ff3432c	1.9004874
3	0x3b304f28	0.002690265
4	0x3a6208cc	0.00086225267
5	0x3b581672	0.0032972363
6	0x3a8133fa	0.0009857409
7	0x3b910863	0.0044260486
8	0x3b9a5245	0.0047095143
9	0xbb5e5461	-0.0033924805
10	0x3f33a9eb	0.7018115
11	0x3ec649df	0.38728234
12	0xb9430d1f	-0.00018601537
13	0x3b58d31b	0.0033084813
14	0x39d389fe	0.00040347868
15	0xbf984d05	-1.1898504
