model_new/CNN_2_-1_10.pt (torch, 237054 bytes, 11 tensors)

weight f4 [6, 1, 3, 3]
00000000: 65e4 db3e 0285 c73d d6f6 c9be 7d17 49be
00000010: a17e 51be efab 2bbe 9ad0 bc3d 8b43 06bf
00000020: 9d21 363f a114 bb3e bac9 c93e 7c39 febe
00000030: 1fe0 a7be 3048 00be 1494 e23e 116f 103e
00000040: 2e65 8cbe a843 283e dbdc f23e 9415 883d
00000050: 3fa4 f2be f3a3 d8be 22f9 863e 7d91 033e
00000060: cf48 d7bd 087a 48be 317a b9bc aa5b 8cbd
00000070: db93 b7be 40f9 fd3e e135 6e3e ac54 e03d
00000080: 346a e6be 98d7 993e a937 8ebd c369 9dbe
00000090: f58a 723e 52c2 b13e fd78 ee3d 65ab f1bd
000000a0: 986c 25be 672d 023f 6cfe 183f 9433 11be
000000b0: 0f3f b2bc e568 b8be 75c5 303f ba57 acbe
000000c0: ca01 60be 4685 3a3d c021 14be d945 adbd
000000d0: eaa4 95be b13f b9be
0.4294769 0.09742166 -0.39446133 -0.19637866 -0.20458461 -0.16764806 0.09219475 -0.5244681
0.7114504 0.36539176 0.39411718 -0.49653232 -0.32788178 -0.12527537 0.442536 0.14104868
-0.27420944 0.16432059 0.47434124 0.06644741 -0.47390935 -0.42312583 0.26361948 0.12848468
-0.10511934 -0.19577801 -0.022641273 -0.06853421 -0.35854992 0.49604225 0.2326274 0.1095365
-0.45002902 0.30047297 -0.0694421 -0.30744752 0.2368582 0.34718567 0.116441704 -0.11800269
-0.16154706 0.5085053 0.59763217 -0.14179832 -0.021758584 -0.36017528 0.69051296 -0.3366068
-0.21875682 0.045537256 -0.14466 -0.08460588 -0.29227382 -0.36181405

bias f4 [6]
00000000: db3c 0939 c7b6 cab8 36fd 3437 9db4 8538
00000010: c2f4 ac38 5d5d 67b8
0.00013088009 -9.6661555e-05 1.0787791e-05 6.375576e-05 8.247189e-05 -5.5161643e-05

weight f4 [6, 6, 1, 1]
00000000: 8e3a a93e 4465 5dbd eb81 613d e55e f33d
00000010: a7f3 a6be 7d0b 04bf 194e bfbd 1c1e bebe
00000020: 94e0 61be cd5c 053f 7b25 2dbd 8eba 97bc
00000030: 4ed5 9b3e 28e8 2b3f 3a34 b93e e835 acbe
00000040: 11dd 54be 2dcb 37be c9be 4cbe 044c 8fbe
00000050: 4a67 05bf 3baa ac3e 0c78 193e 8888 813e
00000060: c7ff 02bf b7f6 8bbe ecf9 b1be 60cb af3e
00000070: e053 2fbe db52 80be 2133 e13e 5131 013e
00000080: b061 19bd 0766 10be 2a0b ae3e 914c fe3e
0.33052486 -0.054051653 0.05505554 0.11883334 -0.32607767 -0.5158003 -0.09341068 -0.37132347
-0.22058326 0.5209473 -0.042272072 -0.018521573 0.30436176 0.6715112 0.36172658 -0.33634877
-0.20787455 -0.17948599 -0.19994654 -0.27987683 -0.5211073 0.33723626 0.149872 0.25299478
-0.51171535 -0.27336666 -0.34760988 0.3433485 -0.1712184 -0.25063214 0.4398432 0.12616469
-0.037446678 -0.1410142 0.33992893 0.4966779

bias f4 [6]
00000000: d317 9739 28c8 06b8 e22a 3ab9 5525 7638
00000010: 771d a6b9 0268 7eb8
0.00028818715 -3.21345e-05 -0.00017754317 5.868574e-05 -0.0003168394 -6.0655184e-05

weight f4 [6]
00000000: 6a97 3e3f 08d5 533f c958 893f 15ec 8b3f
00000010: a0b0 803f 9c19 623f
0.7444979 0.82746935 1.073022 1.0931422 1.0053902 0.88320327

bias f4 [6]
00000000: cafd 753c 4537 bebe 2bc9 7fbe bcaf f0be
00000010: 57c3 4abe f965 de3d
0.015014121 -0.37151542 -0.24979083 -0.47009075 -0.19801079 0.108592935

running_mean f4 [6]
00000000: 9472 07be 6170 51bf 52f8 3abe e22d ab3c
00000010: 4165 2f3f 7b7b ffbe
-0.13227302 -0.818121 -0.18258789 0.020895902 0.68513876 -0.49898896

running_var f4 [6]
00000000: d57f 133f 6954 bb3e 74f1 643e f695 0e3e
00000010: 97ec c83e f023 b53e
0.5761693 0.36587837 0.22357732 0.13924393 0.39243004 0.3537898

weight f4 [16, 3600]
00000000: c011 0080 cd06 0080 ed05 0000 5602 0080
00000010: c106 0080 2606 0080 eb05 0000 4602 0000
00000020: 4714 0000 9d08 0080 e101 0000 e50c 0080
00000030: 150b 0000 ab0e 0080 0201 0000 670a 0080
00000040: fc0f 0000 d506 0080 8804 0000 b211 0000
00000050: 71de 0080 d020 0000 4819 0000 bd1f 0080
00000060: 8c1b 0000 7710 0080 790c 0000 6127 0080
00000070: 6002 0000 1d16 0000 2026 0000 2823 0080
00000080: e703 0080 0520 0080 9e17 0080 de11 0080
00000090: a71f 0000 291a 0080 900c 0000 c48a 0000
000000a0: 09c4 0080 060c 0000 5d14 0080 b928 0000
000000b0: 5e22 0000 a01c 0000 ee26 0000 4e1b 0080
000000c0: db20 0080 401e 0080 740f 0000 0f09 0080
000000d0: 4a05 0000 c222 0000 1b14 0080 3102 0000
000000e0: 8318 0080 2504 0080 bb20 0000 48a4 0000
000000f0: f009 0080 761a 0080 5221 0000 e317 0000
00000100: 7c14 0080 2406 0080 5f04 0080 bb06 0000
00000110: 4a1d 0000 921f 0080 2302 0080 f615 0080
00000120: 5b02 0080 5c13 0000 0c1a 0000 5b03 0080
00000130: 2a1f 0080 140a 0000 bd18 0000 196d 0000
00000140: 7ca3 0080 9e17 0080 1821 0000 241c 0000
00000150: 910b 0000 5327 0000 4a21 0080 6229 0000
00000160: bc26 0000 8200 0000 2814 0000 3918 0000
00000170: 050c 0000 d713 0000 0917 0000 922b 0000
00000180: 0308 0080 4d1d 0080 1822 0080 7910 0000
00000190: 32aa 0080 1a11 0000 5128 0000 0f01 0000
000001a0: 1d0c 0080 c101 0080 340c 0080 8020 0080
000001b0: 741d 0080 271b 0000 c321 0000 2f00 0000
000001c0: 262b 0000 681f 0000 1f04 0000 a10c 0080
000001d0: 761f 0080 3924 0000 5312 0000 8a0c 0080
000001e0: 1acc 0080 dd07 0000 2c16 0000 4d29 0000
000001f0: b807 0080 d619 0000 131f 0000 131b 0000
00000200: 9900 0080 9622 0080 a40d 0080 b601 0080
00000210: a816 0080 460b 0000 7322 0080 8a14 0000
00000220: 2817 0080 b119 0080 8724 0000 0086 0000
00000230: 7f34 0000 3d14 0000 d81d 0000 3e0b 0000
00000240: 4f26 0080 a417 0000 390f 0000 2426 0080
00000250: ac28 0000 fd10 0080 771d 0000 a02c 0080
00000260: a101 0000 d81d 0080 8d32 0080 221d 0080
00000270: 480f 0000 a200 0080 001d 0080 362e 0080
00000280: d34b 0000 eb06 0000 4e26 0080 2d0a 0000
00000290: 8d25 0080 2e09 0080 4e0e 0080 c20e 0000
000002a0: fa04 0000 2719 0080 9114 0080 7833 0000
000002b0: 2715 0080 be1e 0000 741c 0000 f402 0080
000002c0: ed1c 0080 f61d 0080 2c27 0000 e8ad 0080
000002d0: 7379 0000 591a 0000 e605 0000 e32c 0000
000002e0: 171a 0080 b81b 0000 bc17 0080 bc18 0080
000002f0: 452b 0080 7007 0000 6a00 0080 0717 0080
00000300: 940c 0000 ea07 0000 9604 0000 4220 0000
00000310: 7f1a 0080 a110 0000 261a 0000 cdba 0000
00000320: 1b73 0080 4218 0000 4c14 0080 7d2f 0080
00000330: b007 0080 6c03 0000 6b0a 0080 3c24 0000
00000340: af17 0080 b026 0000 1307 0000 d100 0000
00000350: 9010 0080 e600 0000 430f 0000 4304 0000
00000360: 6f1d 0080 ed00 0000 af1e 0000 e011 0080
00000370: b1a9 0080 371e 0080 c708 0000 6016 0000
00000380: a817 0000 1617 0080 7b10 0080 9b0c 0080
00000390: 1a1d 0080 a600 0000 0e19 0000 8b00 0000
000003a0: 4f23 0080 a60b 0000 cc1d 0000 db1d 0080
000003b0: 211f 0080 1202 0000 c534 0000 57ba 0000
000003c0: e46f 0080 0215 0000 b70d 0080 901b 0000
000003d0: d813 0000 6c22 0080 0e10 0080 f114 0080
000003e0: 3b1a 0080 9425 0080 f027 0000 9118 0080
000003f0: f50b 0080 891a 0000 1830 0000 fe27 0000
-6.368e-42 -2.44e-42 2.126e-42 -8.38e-43 -2.423e-42 -2.206e-42 2.123e-42 8.16e-43
7.274e-42 -3.09e-42 6.74e-43 -4.626e-42 3.975e-42 -5.262e-42 3.62e-43 -3.732e-42
5.734e-42 -2.451e-42 1.626e-42 6.348e-42 -7.9797e-41 1.1771e-41 9.069e-42 -1.1386e-41
9.882e-42 -5.906e-42 4.474e-42 -1.4126e-41 8.52e-43 7.933e-42 1.3677e-41 -1.2612e-41
-1.4e-42 -1.1486e-41 -8.472e-42 -6.41e-42 1.1355e-41 -9.384e-42 4.507e-42 4.978e-41
-7.0324e-41 4.313e-42 -7.305e-42 1.4609e-41 1.2329e-41 1.0269e-41 1.3965e-41 -9.795e-42
-1.1786e-41 -1.0852e-41 5.544e-42 -3.25e-42 1.897e-42 1.2469e-41 -7.212e-42 7.86e-43
-8.793e-42 -1.487e-42 1.1741e-41 5.8933e-41 -3.565e-42 -9.492e-42 1.1953e-41 8.569e-42
-7.348e-42 -2.203e-42 -1.568e-42 2.414e-42 1.0507e-41 -1.1325e-41 -7.67e-43 -7.878e-42
-8.45e-43 6.945e-42 9.344e-42 -1.204e-42 -1.118e-41 3.615e-42 8.874e-42 3.9137e-41
-5.8647e-41 -8.472e-42 1.1872e-41 1.0095e-41 4.149e-42 1.4107e-41 -1.1942e-41 1.4845e-41
1.3895e-41 1.82e-43 7.23e-42 8.69e-42 4.312e-42 7.117e-42 8.263e-42 1.563e-41
-2.874e-42 -1.0511e-41 -1.223e-41 5.909e-42 -6.1055e-41 6.135e-42 1.4463e-41 3.8e-43
-4.345e-42 -6.29e-43 -4.378e-42 -1.1659e-41 -1.0566e-41 9.74e-42 1.2111e-41 6.6e-44
1.5479e-41 1.1266e-41 1.478e-42 -4.53e-42 -1.1286e-41 1.2994e-41 6.573e-42 -4.498e-42
-7.3218e-41 2.821e-42 7.954e-42 1.4816e-41 -2.769e-42 9.268e-42 1.1147e-41 9.712e-42
-2.14e-43 -1.2407e-41 -4.893e-42 -6.14e-43 -8.128e-42 4.044e-42 -1.2358e-41 7.368e-42
-8.307e-42 -9.216e-42 1.3104e-41 4.807e-41 1.8832e-41 7.26e-42 1.0706e-41 4.033e-42
-1.3743e-41 8.48e-42 5.461e-42 -1.3682e-41 1.459e-41 -6.094e-42 1.057e-41 -1.6008e-41
5.84e-43 -1.0706e-41 -1.8134e-41 -1.0451e-41 5.482e-42 -2.27e-43 -1.0403e-41 -1.6577e-41
2.72e-41 2.482e-42 -1.3741e-41 3.65e-42 -1.347e-41 -3.293e-42 -5.132e-42 5.294e-42
1.785e-42 -9.023e-42 -7.378e-42 1.8464e-41 -7.588e-42 1.1028e-41 1.0207e-41 -1.06e-42
-1.0377e-41 -1.0748e-41 1.4052e-41 -6.2386e-41 4.3568e-41 9.452e-42 2.116e-42 1.6102e-41
-9.359e-42 9.944e-42 -8.514e-42 -8.873e-42 -1.5522e-41 2.668e-42 -1.49e-43 -8.26e-42
4.512e-42 2.839e-42 1.645e-42 1.1572e-41 -9.505e-42 5.965e-42 9.38e-42 6.7011e-41
-4.1292e-41 8.702e-42 -7.281e-42 -1.7036e-41 -2.758e-42 1.228e-42 -3.737e-42 1.2998e-41
-8.496e-42 1.3878e-41 2.538e-42 2.93e-43 -5.942e-42 3.22e-43 5.475e-42 1.529e-42
-1.0559e-41 3.32e-43 1.1007e-41 -6.412e-42 -6.0874e-41 -1.0839e-41 3.149e-42 8.027e-42
8.486e-42 -8.282e-42 -5.912e-42 -4.522e-42 -1.044e-41 2.33e-43 8.988e-42 1.95e-43
-1.2666e-41 4.179e-42 1.0689e-41 -1.071e-41 -1.1167e-41 7.43e-43 1.893e-41 6.6846e-41
-4.0139e-41 7.536e-42 -4.92e-42 9.888e-42 7.119e-42 -1.2348e-41 -5.76e-42 -7.512e-42
-9.41e-42 -1.348e-41 1.4327e-41 -8.813e-42 -4.29e-42 9.519e-42 1.7253e-41 1.4346e-41

bias f4 [16]
00000000: 7714 0000 1ae0 d9b8 c604 0080 cb0a 0000
00000010: ce33 783c 0504 0000 2913 0080 0d5f fabe
00000020: b311 0080 adf1 25ba 2326 473d 62ff 22b3
00000030: 7d05 60ba 9002 88a5 4c7b 913e 9437 399b
7.341e-42 -0.000103891085 -1.712e-42 3.872e-42 0.01514907 1.442e-42 -6.873e-42 -0.48900643
-6.349e-42 -0.0006330263 0.048620354 -3.7950834e-08 -0.00085457397 -2.3593976e-16 0.2841438 -1.53208e-22

weight f4 [1, 16]
00000000: 18fe 9237 764f babb e4c8 d13a fcaf e93a
00000010: 45ef a73f 878a 8dbb e221 4c36 db3c 91bf
00000020: 09f6 b7bb 0c64 9fbb b41d 923f 9d65 84bb
00000030: acbe 8aba 1c8b f739 48fa b13e 7d6d 193c
1.7522878e-05 -0.005685742 0.0016005305 0.0017828937 1.3119894 -0.0043194923 3.0418091e-06 -1.1346697
-0.0056140465 -0.0048642214 1.1415315 -0.0040404336 -0.0010585389 0.00047215156 0.34761262 0.009364483
