model_new/CNN_2_-1_8.pt (torch, 237054 bytes, 11 tensors)

weight f4 [6, 1, 3, 3]
00000000: 2c2a 8c3d 5298 95be cc99 7f3e f727 4dbe
00000010: cd1e 7ebe 4850 683d 6c1b d43e 2be0 a33e
00000020: a53e f1be 0d56 e2bd 0678 60be d9dd 9b3e
00000030: 95ee 39be c445 35be 4368 173e de24 693e
00000040: e5ee 0d3f 8008 b0be ac96 c1be 5340 003e
00000050: 0bfa 8f3e ae40 bdbe 517a 06be 25bc a33e
00000060: 5b0b 033f 896a c1be bd74 3dbd 6de3 7fbe
00000070: 9b56 363c b8cc 923e 84eb d73d 9be1 d9bd
00000080: be1e 3c3e a08c 343e 5ea3 a1bd 013b 0bbf
00000090: c2e8 273d 27d4 0bbf 79ff e4be 9da8 92bd
000000a0: 27f9 1cbe 7a8d 2bbe 449c 7dbe 2436 29be
000000b0: 788b 0cbd 1db1 3b3e acf9 aa3e 2162 41be
000000c0: 1ee0 c7be 257a 5cbe ea3e b8bd 10ca cb3e
000000d0: 3ce7 1bbf 04aa d7be
0.06843981 -0.29217774 0.24961013 -0.20034777 -0.24816437 0.056717187 0.4142717 0.32006964
-0.47118106 -0.11051569 -0.21920785 0.30442694 -0.18157418 -0.17702395 0.14785866 0.2276797
0.5544265 -0.34381485 -0.37810266 0.12524538 0.28120455 -0.3696341 -0.13132598 0.3197948
0.511892 -0.37776592 -0.04625391 -0.249891 0.011129047 0.28671813 0.10542968 -0.10638734
0.18371102 0.17631769 -0.07892488 -0.5438691 0.04099346 -0.54620594 -0.4472616 -0.07161067
-0.15329419 -0.16753188 -0.24766642 -0.1652456 -0.034312695 0.18329282 0.3339361 -0.1888509
-0.39038175 -0.2153097 -0.08996375 0.398026 -0.6089971 -0.421219

bias f4 [6]
00000000: 7111 2239 a2aa 30b9 7b46 8835 93b2 de38
00000010: c2c5 9239 3d82 61b9
0.00015456021 -0.00016848234 1.0153302e-06 0.00010619047 0.0002799463 -0.0002150619

weight f4 [6, 6, 1, 1]
00000000: a07b 903e 9e6a f4be ea84 df3e 2af7 fdbb
00000010: b172 51bc 8a0f 1abe f4f6 5fbd 371c 8b3c
00000020: 1e0b 9d3e 7bde a83b 148c a1be d86d 1d3f
00000030: b844 213f 15fe 573e 4867 7bbd 225b 593d
00000040: 3ce7 efbc 3d07 70bd da80 323e f423 bdbd
00000050: 2c0b 0c3f 3aaa 133f 04ff db3d 723f 57be
00000060: 79b9 6b3e 5577 96bd ff72 8dbe 8221 91be
00000070: a4c8 af3e eb21 1ebf 78e9 d33e 7850 1b3f
00000080: 516c 973d c42d 923e 869e 433d 1fc0 92bc
0.28219318 -0.47737592 0.43656093 -0.0077504115 -0.012783692 -0.1504499 -0.054678872 0.016981227
0.30672544 0.005153475 -0.31552184 0.61495733 0.6299548 0.21093018 -0.061377794 0.053065427
-0.029285066 -0.058600653 0.17431965 -0.09235373 0.54704547 0.5768162 0.10742 -0.21020296
0.23019971 -0.073469795 -0.27626798 -0.28345877 0.34332764 -0.61770505 0.4138906 0.6066966
0.073937066 0.2855054 0.0477586 -0.017913876

bias f4 [6]
00000000: 4de7 4838 42ec 3fb9 4f7b 9938 8288 6f37
00000010: 77d5 8738 30c3 abb7
4.789913e-05 -0.00018303192 7.3185765e-05 1.4277293e-05 6.4770626e-05 -2.047568e-05

weight f4 [6]
00000000: 74e1 933f 3506 683f 3502 9a3f 0f58 583f
00000010: 56d3 3b3f dda6 973f
1.1553178 0.9063447 1.2031924 0.84509367 0.7336935 1.1847798

bias f4 [6]
00000000: d2a4 a9bf 5bc7 45bd 4abf 9ebf ca6e 00bf
00000010: 882c 5d3c 5d81 0ebf
-1.3253424 -0.048285823 -1.2402127 -0.5016905 0.013499387 -0.5566614

running_mean f4 [6]
00000000: 707f 843d 2c9a f0be 5b35 e33e 225e 98bf
00000010: cd1a a23e 84b2 d8be
0.06469619 -0.46992624 0.44376644 -1.1903727 0.31661072 -0.42323697

running_var f4 [6]
00000000: 6363 4a3e 14d5 413f 7398 a03e 4d6b 313f
00000010: 696b 733f e772 813e
0.19764476 0.75715756 0.3136631 0.69304353 0.9508577 0.25282976

weight f4 [16, 3600]
00000000: 9851 b5bd 4fdd ccbd 3c10 c6bd 449a 2b3e
00000010: eac6 803d 14d5 c63c 3968 10bd 3097 bbbd
00000020: 379b 853d e978 543e b093 98bc 973b 093e
00000030: 4430 223d f758 c6bd 7fbc 04bc 3576 303e
00000040: 6877 1d3e 000c 143d 0a26 a3bd 7a38 10bd
00000050: 1b0a 44bd 47cf 573c e1f9 a6bb 097c 33be
00000060: 384e fcbd b6a4 0b3c 07e6 c03c 9540 f8bc
00000070: e023 ebbc 62fd 8b3c 8f71 2e3d b576 803b
00000080: fff1 163e 611d 603d 5742 763d a865 54bd
00000090: ae01 a13d d606 9bbd 5f1c 15bd 5233 60ba
000000a0: 40e0 5bbd d6c2 1d3d acb0 243e 6a48 1ebe
000000b0: 82bf c9bd 6764 8b3c bc39 923d 9f00 d13a
000000c0: 5b41 9fbc 29bd 92bc 9074 6d3d 5520 173d
000000d0: 5016 363d 58c9 813d cc37 9cbd e078 d03d
000000e0: c7c5 843d 9973 13bd 9b80 803c 88c6 bdba
000000f0: 8d32 a9bd 874e 00be 4aee cdbd c16c e4bd
00000100: 92e9 903d 6a4f 3d3d 9ae8 c43d 720d 6f3d
00000110: 7463 b63c b00f 893d 83d7 6dbd 578e c13d
00000120: 1266 253d 938a 933d 60c3 57bd 63e1 0abe
00000130: eb25 3b3d 6fe4 2d3d 356a 62bd ef41 3b3c
00000140: 3037 a4bc 2af9 ae3d 486e 1fbd 177a 333c
00000150: ebba 903a fee0 32bd 980b 653d 5b45 3abd
00000160: fed0 acbc 04ae 773d 4659 2e3d 0642 d2bc
00000170: 2518 493d 34c0 5bbb 5388 bebc 8a82 be3c
00000180: 7020 493c ce91 bb3d 147e 023d f7ef 8b3c
00000190: e13b 9dbc cd53 213e 2cad 1b3e 3f7e 263e
000001a0: fe1f a53d 8f42 0abd 7991 96bd 4b60 e8bc
000001b0: 76f2 1abe bbb8 45be a3ee b43d 2774 67bc
000001c0: e860 bb3d ce9f 933d 12d9 16be 610f 813d
000001d0: eb27 e7bb 5749 8f3d 968a 3a3c 06b7 f53b
000001e0: aca6 793d cae1 01bd 7e39 633d 9dff 74bc
000001f0: c8ec 993d 95d9 8a3d d570 65bd 3776 cbbd
00000200: e73a 3e3c e96f 20bd 1a23 fb3d 3843 603d
00000210: 02da dbba e5ba c1bd cfcd bdbd e135 34bd
00000220: e59d 94bd 36f2 843d f5a3 b0bb 7744 e63b
00000230: 53e0 6a3d df89 a0bd 113a a23d 4c3d eebd
00000240: ef1a 093d 0c99 203e 9276 013d 218b b0bd
00000250: 9184 4cbe 0f88 abbd a7c4 2bbc 273e d9bd
00000260: bf4b 78bd 0c90 bd3c 5d72 bb3d d4f5 8a3d
00000270: 2976 52bd 2a74 9cbd b650 aebd b0fb d23b
00000280: 1307 debd cafb b73c c438 01bc a22f 003d
00000290: ad2e 1d3d 7286 063e b9e5 46bd 2b33 5dbc
000002a0: 8688 16bd 2f9d 5cbc f604 543c 87ac 6a3c
000002b0: 5c96 a0bd c7c1 af3d 1a84 86bd fb66 353d
000002c0: 0219 a8bd 8cdf 6d3d 50b4 9fbd 76a0 213c
000002d0: bbc6 ea3a f466 8fbd 799e 38bd 9b2a 28be
000002e0: acd1 a2bd 21f3 a0bd 6023 a8bd f069 19bd
000002f0: f751 85bd 66b9 a9bd 0fc4 903d 4d88 673d
00000300: 20c1 8fbb 180e 803d 4741 52bd 39fa 30bd
00000310: 17f1 20bd f0df f4bd a51d 3abd ee03 0000
00000320: 0ab8 a73d 441f 2fbb 980a 11ba 236d d83c
00000330: 650f 12be 4282 6abe 7a1c 27bc d09e 1fbc
00000340: 3ff0 2cbd 1d16 07bd 0634 a7bd 5eda 873d
00000350: 0bcd 70bd ace4 16be 5c15 99bd 56a4 38be
00000360: 7a6f 69bb ba53 643e f777 3d3c 9e4b 513c
00000370: 3d94 ff3b 4e4a 48bc 90ff 863d 9a58 d1bd
00000380: f4e0 463d d63f a73d 83f7 a23d 2688 9ebd
00000390: d88d 96bc cc03 16bc 8e99 c7bd 5a6a 65bb
000003a0: 63dd 3b3e 58a7 2f3d e750 eb3d c27c 2b3e
000003b0: 5ae2 e83d d139 033d e35c 583a 7599 0f39
000003c0: ff9f 1fbe 99e2 273c b911 e53d c1dc 703d
000003d0: f447 03bd 2a39 61bd d519 3b3d fe59 1b3d
000003e0: f6de fb3c 83b9 693d 2e4b 01bd 921b adbc
000003f0: 5563 bdba db63 9f3d 931a 1c3c 1d21 2dbc
-0.088534534 -0.10003149 -0.09671065 0.16758066 0.0628794 0.024271525 -0.035255644 -0.09159696
0.065237455 0.20749249 -0.01862511 0.13401638 0.03959681 -0.096849374 -0.008101582 0.17232592
0.15377581 0.036144257 -0.0796624 -0.03521011 -0.0478612 0.013171977 -0.005095706 -0.17527784
-0.123196065 0.008523157 0.023547186 -0.030304233 -0.02870363 0.017088596 0.042588767 0.003920401
0.14740752 0.054715518 0.06012186 -0.05185476 0.078616485 -0.07569663 -0.03640401 -0.0008552569
-0.05368066 0.03851589 0.1608302 -0.15457311 -0.0985098 0.017015649 0.07139918 0.001594562
-0.019440344 -0.017912464 0.05797249 0.03689607 0.044454873 0.063372314 -0.0762783 0.10179305
0.064830355 -0.035998914 0.015686324 -0.0014478723 -0.08261595 -0.12529956 -0.10055216 -0.11153556
0.070758 0.046218313 0.09614678 0.05836243 0.02226422 0.06692445 -0.058066856 0.09450977
0.040380545 0.07204165 -0.05267656 -0.1356254 0.04569046 0.04245418 -0.05527707 0.011429294
-0.020045847 0.08543618 -0.03892353 0.010954401 0.0011042034 -0.0436716 0.05591926 -0.0454763
-0.021095749 0.06046869 0.042565607 -0.025666248 0.04909529 -0.003353131 -0.023258364 0.023255605
0.0122758 0.091586694 0.03185852 0.017082198 -0.019193592 0.15754624 0.15202779 0.16259097
0.08062743 -0.03375488 -0.073519655 -0.028366229 -0.15131554 -0.1930875 0.08834579 -0.014126814
0.09149343 0.07208215 -0.14731243 0.063017614 -0.007054319 0.0699641 0.0113855805 0.0074986247
0.060949966 -0.03170947 0.05547475 -0.014953521 0.075158656 0.06779782 -0.056015808 -0.09934657
0.011610723 -0.039169226 0.122625545 0.054751605 -0.0016773345 -0.094594754 -0.092677705 -0.043996695
-0.072566785 0.064915106 -0.005390639 0.0070272046 0.05734284 -0.07838797 0.079212315 -0.11632785
0.03347295 0.15683383 0.031607218 -0.08620287 -0.19972445 -0.083755605 -0.010483897 -0.10607558
-0.060619112 0.023139976 0.091526724 0.06785169 -0.051382218 -0.07639344 -0.08511488 0.006438695
-0.10841193 0.02245893 -0.007887069 0.031295426 0.03837459 0.13137224 -0.048558924 -0.013500969
-0.036751293 -0.01346521 0.012940636 0.01432336 -0.07841179 0.08581882 -0.06568165 0.044287663
-0.08207895 0.05807452 -0.07798064 0.009864917 0.001791201 -0.070020586 -0.045073006 -0.16422503
-0.07950148 -0.07858873 -0.08209872 -0.037454545 -0.06509774 -0.08287315 0.07068645 0.05652647
-0.004387036 0.06252688 -0.051331785 -0.04320738 -0.03929242 -0.11956775 -0.045438427 1.41e-42
0.081893995 -0.0026721517 -0.00055328896 0.026419228 -0.14263685 -0.22901252 -0.01019966 -0.009742454
-0.042221304 -0.032980073 -0.081642196 0.06633447 -0.058789294 -0.14735669 -0.07474777 -0.18031439
-0.0035619424 0.22297564 0.011564246 0.012774376 0.007799654 -0.012224747 0.065917134 -0.102219775
0.048554376 0.081664726 0.07957365 -0.07740812 -0.018378183 -0.009156179 -0.09746085 -0.0035006017
0.18346171 0.0428842 0.1149004 0.1674681 0.11371298 0.03203756 0.00082535873 0.0001369471
-0.15588377 0.010246896 0.11185021 0.058804277 -0.03205104 -0.054986157 0.045678932 0.03792762
0.030745964 0.057061683 -0.031565838 -0.02113131 -0.0014449159 0.07782718 0.00952782 -0.010566977

bias f4 [16]
00000000: 4c33 a2bc 43ab 5937 3ae5 823e 2406 0b3e
00000010: 1b29 4d8a d6db f8b7 4888 17bb 9a10 0000
00000020: 4815 09ab 4b2c bdb9 30c4 84b9 45b0 bcb7
00000030: b048 af9d 9612 0000 e91a cf97 e9a2 2e37
-0.01979985 1.2974083e-05 0.2556551 0.13576561 -9.878122e-33 -2.9666273e-05 -0.0023122001 5.956e-42
-4.870171e-13 -0.0003608189 -0.00025323173 -2.2493428e-05 -4.639727e-21 6.667e-42 -1.3383855e-24 1.0409139e-05

weight f4 [1, 16]
00000000: 8124 d13f 0fee b738 9a4e cc3e 9365 1c3f
00000010: 2e13 dbbb 032b 2fbb c8a3 173a 91b3 8cbb
00000020: f75a 133c 04d2 4439 04b3 adbb 7079 a7bb
00000030: 3bb7 e73b 10ea 3fbb 50c7 ea3a a15f 99b6
1.6339265 8.770462e-05 0.39903718 0.6109249 -0.006685636 -0.0026728518 0.0005784598 -0.004293867
0.008993856 0.00018770254 -0.0053008813 -0.005110912 0.0070714033 -0.00292838 0.0017912183 -4.570888e-06
