model_new/CNN_Trans_2_-1_10.pt (torch, 988574 bytes, 45 tensors)

weight f4 [16, 1, 1, 1]
00000000: b653 b63a 7157 01bc fd9d 04ba 72b6 61bc
00000010: e83a 5d3c 9112 80bc b728 9dba a8e0 bb3a
00000020: 7965 5b3a 29b4 e3bd c473 21bd c1f0 793b
00000030: bc03 b33a 4621 903a 3c66 7bbc cc8f b9be
0.0013910446 -0.007894383 -0.00050589425 -0.0137764085 0.013502814 -0.015633853 -0.0011990283 0.001433392
0.00083693076 -0.11118347 -0.039417043 0.0038137885 0.0013657729 0.0010996244 -0.015344199 -0.3624252

bias f4 [16]
00000000: 57dc 4b3b bff0 9e3e d3e0 0d3a f405 f83e
00000010: c56c f4be 8a2c 0a3f 263f 0cbc 00fe a9bb
00000020: 9d63 f03a ef8d 453f 76bb 353f facf 0d3c
00000030: 148a cb3b 3c40 b83a 4dc7 023f 3827 fb3e
0.0031106675 0.3104305 0.00054122246 0.48442042 -0.47739235 0.5397421 -0.008559978 -0.00518775
0.0018340234 0.771697 0.7098917 0.0086555425 0.0062115286 0.0014057229 0.5108536 0.4905336

weight f4 [16, 16, 3, 3]
00000000: ed7f 963a 1c1d 923b 6af2 233c b674 48bb
00000010: 369c af3b abd5 0a3c 5327 e3ba caa3 e23b
00000020: a647 f53b 7b3a 4d3c a449 eabc 2dbb 6bbc
00000030: bada 2cbb f408 463c 3f2a 553d cc2e f4bc
00000040: f884 b1bb d432 b9bb c048 543a 6220 8dbb
00000050: 1498 84ba 0e51 21bb a38c cc3a 5bed 20ba
00000060: 914e 083b 7a0f f93b f124 f63b 7cf1 843c
00000070: 1172 16bd 79d3 9fbc fd1f 7fbb 99ae a33c
00000080: 7aeb 943d 57aa 39bd 0bac 4abc 8662 e5bb
00000090: 479c 82bc 9b0b 163d 85c3 9b3c f4c7 833b
000000a0: eef6 9ebc 5a0b 93bd f0bd 363d 615a 473c
000000b0: d129 e93b 9b5e 8f3c 0f79 1dbd 8374 afbc
000000c0: 4269 85bb 0316 bb3c dfc3 a23d 4126 4fbd
000000d0: 8777 6bbc 9f1c ebbb 93bb 1439 d3fe faba
000000e0: a46f b13a fa57 e3bb 49d9 11bc b9a3 9bbb
000000f0: 81cd dabb bf9f 32bc 5b90 4fbb 15e2 473b
00000100: 822f fb3b 9b73 153b 47d4 a5bb 0919 a4bb
00000110: 7772 9f3a 7c70 dbbb 1156 15bc a330 9fbb
00000120: 4bfb 90ba 2101 753b 99ec b33b 5a0f cabb
00000130: b24e d93a 4356 4b3c d1d8 89ba 353a 333b
00000140: 834b 123c e5a3 f03c c6dd cebc bba9 5fbe
00000150: bfb3 5b3d a314 8c3e 109d c13d eb7c 45be
00000160: b9fb 81bc 01e3 ccbc 0e76 dd3c 6db9 01bd
00000170: 1340 bbbd aac5 8b3c 3790 bb3d 4261 bc3d
00000180: b830 dfbd ae04 99bc a1ad 02bc 2e67 323b
00000190: ac6d cf3b e6c7 42ba 4adb 043c a8b0 0d3c
000001a0: 6084 f93a 43e1 393c 7a40 053c 5d3a 0abb
000001b0: 98c1 eab7 1804 7a3a 043f 39ba ff9b 083c
000001c0: 9e6b f33b c7c5 3f3b cc92 bc3b 70d6 283c
000001d0: 9d05 093b 14d0 323b 13cf 6c39 6890 343b
000001e0: e39c 873b d482 823a 0a9b 383b cef5 baba
000001f0: db1f 913b 6323 cb3b 52b1 953c ccf8 16bd
00000200: 5efb d4bc 3047 ddba 481b c03c 2f43 9a3d
00000210: 5dc0 52bd d920 55bc 085d d4bb 6ea8 4f3d
00000220: 486a 8bbc d8c0 a6be 5002 013e f42e 0d3f
00000230: 941c d53d d9f2 8dbe 7bfe 843c f800 41bd
00000240: f89e df3a 6895 833b 793b 8c3b 2066 093b
00000250: a7a4 a13b c16a 813b 3ee6 873b d341 8a3b
00000260: 27d7 403b 66bb 233c 428e 553c ee8f ae3c
00000270: 8665 ff3c d771 a53c a61f 8f3d b8bc d33c
00000280: bed2 423d f037 973d 1bdc c43a 452b e63a
00000290: 0b32 423b 2ade 0f3b 83fa d03a bb3b 313b
000002a0: 2f1f 4b3b 8f61 453b 57fb 963b 0764 253c
000002b0: 4a6e 493c aa37 873d 90e0 303d 474a d33c
000002c0: f443 fa3d 3ca7 0c3d e07a 823d 2cf6 033e
000002d0: 867a 2abc d37d 4ebc e031 78bd 234d 30bd
000002e0: 0ad5 d4bc f18e f3bd 5dfb 0bbd 64f4 81bd
000002f0: ccc0 00be f5e8 0e3c dc64 2c3c 8a63 b13d
00000300: 0087 3a3d 397e d13c c5a1 123e 8359 133d
00000310: b07c 893d 905c 193e 9923 debb 2f7c 26bb
00000320: 5b9e 9e39 d775 ddba 9694 4fbb 52a5 1f3b
00000330: 0339 e0ba 000e 88bb 2bd6 983b 1116 1cbc
00000340: 2818 bebb e9e1 833a 9cd2 14bc 5033 8bbb
00000350: cab9 0eba ff55 adbb a9bf 8abb c4f6 09ba
00000360: 72ef 42ba 99c4 923b e859 5d39 d11b 9939
00000370: ffa6 903b 25d1 4d3b 57a4 0f3a f3e5 073b
00000380: 5825 983b cf91 303d f916 793d a876 633e
00000390: 203d 76bd 2656 bdbd 149b 663e caed cd3c
000003a0: 7078 82ba 331a 573e f30b 943c cf97 e03c
000003b0: 15c1 143e 268a ca3c a3de 50bc 496a 3f3e
000003c0: 4e6c 2c3d 51b7 453d ce94 643e 22f9 8fbb
000003d0: 6158 43bb 76d6 fcba fae3 02bc 16e9 eaba
000003e0: 5e3b 9fbb 1c7f 02bc 2235 3ebb 5da7 e0bb
000003f0: 5002 b63b d9b0 183b 517b d43a dc86 10b9
0.0011482217 0.0044590365 0.0100065265 -0.0030587143 0.005359198 0.008473794 -0.0017330445 0.006916498
0.007485348 0.01252615 -0.028599568 -0.014387888 -0.0026375488 0.0120870955 0.052042242 -0.02980747
-0.0054174624 -0.005651811 0.0008097999 -0.004306839 -0.0010116124 -0.0024614963 0.0015605878 -0.00061388843
0.0020798782 0.007600722 0.007511728 0.01622843 -0.036729876 -0.019510018 -0.0038928979 0.019980716
0.07271476 -0.045328464 -0.01237012 -0.0070002703 -0.01594366 0.03663216 0.01901413 0.004021639
-0.019404855 -0.071798995 0.044614732 0.012167544 0.0071155806 0.017501166 -0.03844553 -0.021417862
-0.0040713856 0.022837644 0.07947516 -0.05057359 -0.014371759 -0.0071750428 0.00014184257 -0.001914943
0.00135373 -0.006937978 -0.0089019025 -0.004749742 -0.00667733 -0.010902344 -0.0031671736 0.0030499746
0.0076655755 0.0022804502 -0.005060706 -0.0050078672 0.001216485 -0.006696759 -0.009114758 -0.004858093
-0.0011061219 0.0037384706 0.005490851 -0.006166381 0.0016579239 0.012410703 -0.0010516887 0.0027347927
0.008929136 0.029375026 -0.025252234 -0.21842091 0.053638216 0.27359495 0.094537854 -0.19285934
-0.015867101 -0.025010588 0.027033832 -0.031670976 -0.091430806 0.017062027 0.09158366 0.09198238
-0.10897964 -0.01867899 -0.007975967 0.0027222144 0.0063302126 -0.00074303 0.008108923 0.008648075
0.0019036643 0.0113452105 0.008133048 -0.0021091916 -2.7985123e-05 0.0009537353 -0.000706658 0.008337974
0.0074286005 0.0029262172 0.0057548042 0.010305032 0.0020907887 0.0027284669 0.00022583855 0.0027551893
0.0041385754 0.0009957203 0.0028168582 -0.0014263929 0.0044288463 0.006199287 0.01827303 -0.036858365
-0.025998767 -0.0016882177 0.023450509 0.075323455 -0.051452983 -0.01300832 -0.0064808168 0.050697736
-0.017018452 -0.32569003 0.12598538 0.5514977 0.104058415 -0.2772434 0.016234627 -0.047120064
0.0017060926 0.0040156133 0.0042795506 0.0020965412 0.004932958 0.0039494936 0.00414732 0.0042192726
0.0029425116 0.00999341 0.013034405 0.021308865 0.03117634 0.020195885 0.06988458 0.025846824
0.04756426 0.07383716 0.001501921 0.0017560503 0.0029631879 0.0021952488 0.0015943799 0.0027043659
0.0030993929 0.0030117964 0.0046075988 0.010094649 0.012294361 0.06602414 0.04318291 0.025792254
0.12219992 0.034339175 0.06371093 0.12886876 -0.010405188 -0.012603241 -0.06059444 -0.043042313
-0.025980491 -0.11892498 -0.034175266 -0.06345442 -0.12573546 0.0087225335 0.010522094 0.08661564
0.045538902 0.025572883 0.14319523 0.035974037 0.067132354 0.14976716 -0.006779146 -0.002540361
0.00030254092 -0.0016896081 -0.0031674257 0.0024360013 -0.0017106835 -0.0041520596 0.0046642027 -0.009526745
-0.0058012195 0.0010061833 -0.009083416 -0.0042480603 -0.0005444555 -0.0052897925 -0.0042342735 -0.0005262906
-0.0007436193 0.0044790027 0.00021109695 0.0002920316 0.0044144387 0.0031405177 0.00054795056 0.0020736426
0.0046431236 0.043107804 0.060812924 0.22213233 -0.060116887 -0.09244947 0.22520095 0.0251378
-0.0009954106 0.21006088 0.018072104 0.027416138 0.1452678 0.024724077 -0.012748393 0.18692888
0.042095475 0.048270527 0.2232239 -0.0043937126 -0.0029807317 -0.0019289989 -0.007988924 -0.0017922248
-0.004859372 -0.007964876 -0.002902337 -0.0068558888 0.005554475 0.0023298769 0.0016211068 -0.00013783149

bias f4 [16]
00000000: 3c16 5b39 f536 fa38 25b4 0080 6825 48b9
00000010: c04d a8b7 f91d 8f38 bb70 e3b8 84d7 0738
00000020: 25fa bb89 aa86 e338 f6c8 99b8 48c1 0000
00000030: 2bfa 872c 0eb9 2239 3b10 0080 13b9 40b8
0.0002089375 0.000119311655 -6.4624e-41 -0.00019087421 -2.0063366e-05 6.824354e-05 -0.00010845201 3.2387223e-05
-4.5253847e-33 0.000108492866 -7.3330404e-05 6.9336e-41 3.864705e-12 0.00015518462 -5.822e-42 -4.594873e-05

weight f4 [16]
00000000: 2286 e13e 50d6 9a3e 87b8 0100 9c12 7f3e
00000010: 9d23 d23d 1680 d53e 31ba a03e 76a9 703e
00000020: bd5e a08f d626 073f f05c 9d3e ebf2 0080
00000030: 9b11 e3b6 1bfa 4a3e 721e 0000 369d de3e
0.44047648 0.30241632 1.58031e-40 0.24909443 0.10260699 0.41699284 0.31392053 0.23502144
-1.581371e-29 0.52793634 0.30734968 -8.7143e-41 -6.7671767e-06 0.1982197 1.0922e-41 0.43479317

bias f4 [16]
00000000: 94af 09bd 71ef 233e da98 11bb f26c 24be
00000010: caba 7b3e 9db1 f7be 33f8 84be fe14 dfbe
00000020: 5310 9fbb 1341 d1bd 9698 8ebe 3ae4 1593
00000030: 6b4c 1abc 9083 3a3e 7fa2 1fb4 69a1 00be
-0.03361471 0.16009308 -0.002221635 -0.16057184 0.24582973 -0.48377696 -0.2597061 -0.43570703
-0.004854241 -0.1021749 -0.2785079 -1.8918968e-27 -0.0094176335 0.1821425 -1.4867145e-07 -0.12561573

running_mean f4 [16]
00000000: 9017 f7be 31b7 393f 9276 0f83 5ea9 a33f
00000010: cbcb 563f 5c84 02c0 ba91 1fbf f990 9b3e
00000020: 8fd0 8a93 d4ac 8dbf bf72 753f 4f4f 0080
00000030: fdf6 1635 a94e 8a3f 901b 0080 8fcd ac3f
-0.48260164 0.7254515 -4.2160035e-37 1.2786062 0.83904713 -2.0393286 -0.62331736 0.30384043
-3.5041752e-27 -1.1068368 0.95878214 -2.845e-41 5.623877e-07 1.0805255 -9.888e-42 1.3500232

running_var f4 [16]
00000000: 86b2 f03d e414 f73e 0400 0000 ab8b 3c3e
00000010: 9935 c23d 419f 153f c31e 0e3e 4647 8a3d
00000020: 0400 0000 2cfe 933e 0712 483e 0400 0000
00000030: b33b 3a2d a9c6 523e 0400 0000 ac17 483e
0.11752801 0.48258126 6e-45 0.18412654 0.09482879 0.5844613 0.13878922 0.067518756
6e-45 0.28904855 0.19538127 6e-45 1.0586132e-11 0.20583595 6e-45 0.1954028

weight f4 [16, 16, 3, 3]
00000000: 1ff0 94bc 2b0c fdbd 4105 54bb 89c9 ad3c
00000010: 6888 15be ece4 ccbc da31 d2bd 918c a13c
00000020: b926 2b3e f763 d73d 5d06 dfbd a792 5cbd
00000030: cf95 a03b 4e31 c7bc 8ef0 313d b982 acbd
00000040: e204 d4bd 7726 a2bd 5382 bab6 2b25 3fb7
00000050: bdf2 3bb6 65c1 5eb6 56e1 10af e4ed 9036
00000060: ed7e e7b6 27f7 47b6 962a 7a36 e0d3 39bc
00000070: 4a01 bc3d dda1 913d dd44 c3bd 93a8 743d
00000080: 47b8 bfbd 1a69 083e 1aab 273e af2d 45be
00000090: ee0c 0ebe 2b89 003d c0a0 5fbd 5f0d c63d
000000a0: b383 07bc e072 8c3d 006d 0bbe 3e9b e0bd
000000b0: a9e5 b23d ffa0 003e a77a 743d 752e e6bd
000000c0: d02a 563d 071a 513d ff01 1bbe 7e4d 4abd
000000d0: 14f8 3d3d a5bd 843d 1be3 a73d e508 f9bc
000000e0: 75bd 17bd 6a02 c73d 8fed b83c 1a9b dbbd
000000f0: 850d 97bd babc 91bd 0012 ce3d d32e 883d
00000100: 720f b33c 4ebe b93d acbf df3d 50d1 ef3b
00000110: 2325 3c3e 3568 dbbd 4501 63be 4ecb ae3d
00000120: c837 372f 7602 89b6 cd1a e4b8 30bb 94ad
00000130: 2a6d ab25 a6df e3b3 a5fd 1534 2d1c 1d2e
00000140: a6d4 7dab 45f1 943d 67e6 12be 892c e5bd
00000150: 16bb e53d 426d 953d f1a1 18be 416a 39bd
00000160: b62f 823c 5ad3 d6bc d380 04bd 2cea 63bd
00000170: 5c5f 25bc 6130 523d 9286 b93d 49e0 f23c
00000180: ac9a 663d e8ba 3cba f201 b73d 72b5 678e
00000190: a96a 1890 31ea 4410 93c7 1691 ccde 8789
000001a0: b7e2 3b10 590c 3290 1880 230f 67e8 2c10
000001b0: 8788 3f3c 56cc 99ba 8228 f63b 3e83 203c
000001c0: 0c46 5bb4 0505 1c3c 4380 d63b 6e8c b0ba
000001d0: 71df 393c ca28 2bbe bedf 3ebd 970b f4bc
000001e0: 8c9c d53c cc5d 6fbe f4e6 3d3e d368 063e
000001f0: 5621 9c3c f974 3dbc 0110 0000 980e 0000
00000200: a10e 0080 1216 0080 0f05 0000 e518 0000
00000210: 3b1b 0080 ba0d 0080 671a 0000 b3b5 013d
00000220: e3ed 84bd 90a1 32be afc6 a9be 110a 83bd
00000230: 90f0 243d 88c7 d53d 78c6 753e 7ee5 383e
00000240: ae8b 843c 5efc d5bc f066 4f3c 365c 9d3d
00000250: 1407 e13d 71cf 67be d2de 053c 6d22 adbe
00000260: 58b4 babd b45e f0bc 82ae 8c3d 2bd5 79be
00000270: 906d 193d 936d 303e 9090 f3bd 086a cabc
00000280: 8363 8bbd 7d92 73bd ce45 03b6 7399 f3b6
00000290: 50d4 c736 7aa4 3635 4847 e82d 64b9 14b6
000002a0: d0e3 9c34 0f53 3536 4554 4435 1147 b73c
000002b0: 974b dbbc 7825 ee3c ce96 33bd 6a52 9fbd
000002c0: 91ec 80bd 6f81 f5bb c757 953d 5c5f 1d3d
000002d0: d67a c53d 1e4f ee3c 94c1 18bd 63e9 4d3c
000002e0: 1aaa eebd af29 13be a3f0 613c e3b7 b4bd
000002f0: cb4d 50be fbb4 103d 2859 513d a1e8 bc3d
00000300: d474 333c 6816 80ba fafc ff3d 6325 dc3b
00000310: 41e1 89bd 4b9a 463e f62f 993d fae3 cb3d
00000320: e9aa c43c 8e66 0b3c 7711 a8bd 8861 03bd
00000330: 50bf d2bb 9738 e5bd f87a c33d f188 a53d
00000340: 5789 dfbb b1f8 d7bc b5fc 863c ef9e d43d
00000350: a419 663d f06a 5fbd ed9b 5cbd 4f1f 1fbd
00000360: cfb6 3136 fb94 5436 1ea6 193a d7de 802a
00000370: ca9e 0823 8d61 7839 ba60 49a9 0a87 78aa
00000380: 75fc 4239 d842 923e 810d fcbd 839b 463d
00000390: e96d 673d 71c8 78be e8d7 9ebd 9c74 72bd
000003a0: 9dee 483d 3702 8c3d ac0a bebd 725b 89bd
000003b0: 4e0b c03d b82f 01be 0136 35bd 1c06 313e
000003c0: a45c 95bd f160 36be 9f83 353d 17d9 db0f
000003d0: e969 e50f eae2 3f90 fa33 990e 6635 110a
000003e0: 9d89 6b90 1e91 0311 d6ec 4691 7bff 0d91
000003f0: 9ba4 09ba f19e 2aba 4ca0 7fbb 8185 3b3b
-0.018180905 -0.123558365 -0.0032351764 0.021214264 -0.14602816 -0.025011502 -0.10263415 0.019720348
0.1671399 0.10517114 -0.108898856 -0.053850796 0.004900671 -0.024315502 0.0434423 -0.08423371
-0.10352494 -0.07917493 -5.5584037e-06 -1.1393141e-05 -2.8006464e-06 -3.3193148e-06 -1.3176779e-10 4.3192285e-06
-6.8991126e-06 -2.9797172e-06 3.7277691e-06 -0.011342019 0.09179933 0.07110951 -0.09534619 0.059731077
-0.0936132 0.13321343 0.16373864 -0.19255708 -0.1387212 0.031380814 -0.054596663 0.09670519
-0.008271146 0.06857848 -0.13615799 -0.1096711 0.087352104 0.12561415 0.059687283 -0.1123933
0.052286923 0.051050212 -0.1513748 -0.04939031 0.046379164 0.06481484 0.08197614 -0.030399749
-0.037045915 0.09717257 0.022574214 -0.10722943 -0.073756255 -0.07116075 0.10062027 0.06649556
0.02185795 0.09069501 0.109252304 0.007318653 0.18373542 -0.10713235 -0.22168453 0.08534871
1.666357e-10 -4.0832047e-06 -0.00010876879 -1.690878e-11 2.9737744e-16 -1.06111926e-07 1.3968982e-07 3.5722692e-11
-9.0178765e-13 0.07272581 -0.14345704 -0.11190135 0.112173244 0.0729623 -0.14905526 -0.045267347
0.015891891 -0.026223827 -0.03234942 -0.055643246 -0.010093536 0.05131567 0.090588704 0.029647963
0.05629985 -0.0007199482 0.08935918 -2.8560311e-30 -3.0058882e-29 3.88346e-29 -1.1894412e-28 -3.2709585e-33
3.7053902e-29 -3.5113823e-29 8.0611904e-30 3.4100055e-29 0.0116902655 -0.001173387 0.007512153 0.009796916
-2.0421447e-07 0.009522681 0.0065460517 -0.0013469586 0.0113447765 -0.16714779 -0.046600096 -0.029790683
0.026075624 -0.23375624 0.18545133 0.13125925 0.019058865 -0.011563533 5.741e-42 5.235e-42
-5.248e-42 -7.917e-42 1.815e-42 8.93e-42 -9.768e-42 -4.924e-42 9.471e-42 0.031667423
-0.06490686 -0.17444444 -0.33159396 -0.063984044 0.04026848 0.10438448 0.24001491 0.18056294
0.016179886 -0.026121315 0.01265882 0.076836035 0.10987678 -0.22637726 0.0081708 -0.33815327
-0.09116429 -0.029342033 0.06869222 -0.24397723 0.037458003 0.17229299 -0.118928075 -0.024708763
-0.0680609 -0.059465874 -1.9561153e-06 -7.259828e-06 5.9553786e-06 6.803963e-07 2.6407002e-11 -2.216163e-06
2.922302e-07 2.7019448e-06 7.313832e-07 0.022372754 -0.026769442 0.0290706 -0.04384499 -0.07779391
-0.062951215 -0.0074922363 0.07292133 0.03842102 0.0964257 0.02909046 -0.037293985 0.012567851
-0.11653538 -0.1437137 0.013790282 -0.08824136 -0.20342176 0.035328846 0.051110417 0.09224058
0.010953147 -0.0009772303 0.12499423 0.006718324 -0.06732417 0.19394796 0.07479851 0.099555925
0.024007278 0.008508338 -0.08206456 -0.032075435 -0.0064314976 -0.11192434 0.09544939 0.0808276
-0.006821792 -0.026363702 0.016477922 0.10381877 0.056176797 -0.054545343 -0.05385964 -0.038848218
2.6481464e-06 3.167718e-06 0.000586124 2.2891994e-13 7.4062e-18 0.00023687464 -4.4714863e-14 -2.2073676e-13
0.0001859533 0.28566623 -0.12307263 0.04848815 0.056501303 -0.24295212 -0.077560246 -0.05919324
0.049055684 0.0683636 -0.09279379 -0.06706895 0.09377156 -0.1261586 -0.044240955 0.17287487
-0.072930604 -0.17810418 0.044314977 2.1678687e-29 2.2621939e-29 -3.7842916e-29 3.7767464e-30 6.991539e-33
-4.6451592e-29 1.0378796e-28 -1.5692427e-28 -1.1201665e-28 -0.00052506634 -0.00065086695 -0.0039005456 0.002861351

bias f4 [16]
00000000: 6cb9 213a 11f7 5c38 fbc9 3fb6 2d8a 3fb9
00000010: 8fdc 0080 5e69 adb8 0357 0080 5360 a337
00000020: 2182 51b8 222f 03b9 cef9 97b8 b673 c2b9
00000030: 25c5 0000 0b33 0000 32ce 0080 97bf 0000
0.00061692926 5.2682186e-05 -2.8578786e-06 -0.00018266654 -7.9122e-41 -8.268909e-05 -3.1214e-41 1.9475969e-05
-4.9950675e-05 -0.00012510692 -7.246771e-05 -0.00037088775 7.0722e-41 1.8311e-41 -7.3969e-41 6.873e-41

weight f4 [16]
00000000: 31c5 883e 3fc9 883e 972e 913e 82d3 e03e
00000010: 0f3b 0080 6059 933e 4c22 3431 9e9d be3e
00000020: d1e4 bd3e ba12 9a3e 6537 af3e 7e08 b43e
00000030: ae5c 0080 5619 0080 7681 a237 d938 cb39
0.26712945 0.2671604 0.28355858 0.43911368 -2.1186e-41 0.28779125 2.6212943e-09 0.37229627
0.37088636 0.30092412 0.3422195 0.3516273 -3.3247e-41 -9.089e-42 1.937219e-05 0.00038761532

bias f4 [16]
00000000: fae5 ba3d 54cd 053d c081 cbbd ad32 b2be
00000010: f963 57a8 4bb1 f13d 106c 5aba 4705 52be
00000020: 1b74 1c3c b8a7 e8bd abef 82be e4f1 5ebc
00000030: b06e 8291 2db8 abb0 6617 87b7 46fd 4abb
0.09125896 0.03266652 -0.09936857 -0.34804288 -1.1956576e-14 0.11801394 -0.00083321426 -0.20509826
0.009549166 -0.11360115 -0.25573477 -0.013607476 -2.05786e-28 -1.2494233e-09 -1.610415e-05 -0.0030973717

running_mean f4 [16]
00000000: 3c84 2dbe 66b7 5cbe d418 5fbd 2765 08ba
00000010: cb06 0080 6a46 96bd c10c 0000 8200 bc3d
00000020: f85e 8fbd 9a82 68be c9d3 c73d b5c8 3f3e
00000030: 5510 0000 6009 0000 2a01 0080 803d 5222
-0.16944975 -0.21554336 -0.054467037 -0.0005203061 -2.437e-42 -0.07337649 4.575e-42 0.09179784
-0.07000536 -0.2270607 0.09757192 0.18728907 5.859e-42 3.363e-42 -4.18e-43 2.8492865e-18

running_var f4 [16]
00000000: 9470 a63c 82f3 bc3c 2d92 543c dc35 c33c
00000010: 0400 0000 de24 903c 0400 0000 620c 1f3d
00000020: 5d8f 873c 58c9 833d a1f2 cb3c 1f57 373d
00000030: 0400 0000 0400 0000 0400 0000 b713 9306
0.020317353 0.023065332 0.012974304 0.023829393 6e-45 0.017595705 6e-45 0.03883017
0.016547853 0.06434888 0.024895968 0.04476082 6e-45 6e-45 6e-45 5.532422e-35

weight f4 [16, 16, 3, 3]
00000000: 80dc 213c ba51 41bc bc8e b3bc 7fab 60bd
00000010: 1bbe 763c 1562 37bd e6c9 a53d f23c 8cbd
00000020: f2b4 3abd c728 15bd a2be de3c f4b3 bcbb
00000030: 79b4 213c 68c0 1d3e 5666 ec3d c51d 79bd
00000040: b0ce 083c 46aa 85bd 27a5 79bc 501e d2bc
00000050: 0329 7c3b 3098 753d 8cdc 05bd 977e 0c3e
00000060: d982 9b3b 48c4 0c3d 83a4 b73c 6622 c5bd
00000070: 4185 313d ea66 233d a273 3e3e 2b19 14be
00000080: e4b8 07be d38c 0d3e bf4d f33d a0dc 32bd
00000090: 1d1c 0080 c108 0080 aa16 0000 1a28 0080
000000a0: 5de0 0080 e80e 0080 0d20 0080 ec18 0080
000000b0: 5226 0080 9818 9abb 9918 1d3e c8a5 e63b
000000c0: f421 21be 6afe a03d e3ce edbd 482f 0fbd
000000d0: a2c0 48bd 9af2 02bd e407 0000 9e11 0000
000000e0: 5d02 0000 700f 0000 2c05 0000 b10d 0080
000000f0: 1807 0000 4017 0080 9608 0080 8cb1 00be
00000100: 2036 c63d a84c 10be 9142 3b3c e81e 233e
00000110: 3f58 4bbd f8fd 013e 87f2 5bbc 06b7 48be
00000120: a2ec 953b 5c78 39bc c530 1a3e 3639 2a3d
00000130: aa1e 2e3e 6fea ecbd c188 6bbd d50a a33d
00000140: efa1 09be 75dc f0bd d42f 8c3d 8a55 703c
00000150: cb8a 3abe ad52 103e cba4 8fbc c88e 2c3c
00000160: c5c3 c43d eab4 85bc 59f4 933c 8bb6 893d
00000170: b7ab 97bd 1d1a e3bd 53d4 edbb 90ea af3c
00000180: 7956 0abe 7ee9 19be 4fe7 333d 54ef 483d
00000190: 77c0 813c 0c37 2c3d 3d8f 283d ca7a 403e
000001a0: 88a9 c93d b8af 533e 31a3 6abc e2e0 8bbc
000001b0: b75a 8d0f 6521 378f aef1 b40e 753e 730c
000001c0: 229a 4d08 4566 0a90 6e2a 3e8d e389 348f
000001d0: 9269 9790 531a 0080 f318 0000 3602 0000
000001e0: 5a1d 0080 b611 0180 a411 0000 340f 0000
000001f0: e302 0000 9109 0080 b30b 0000 0d05 0000
00000200: 8b0a 0000 3609 0080 f109 0080 b10f 0000
00000210: e308 0080 3d19 0000 2114 0080 fd49 0480
00000220: 3021 0000 e4e5 b201 2007 0000 1511 0000
00000230: ff00 0080 090b 0000 5f11 0000 730e 0000
00000240: 32ae 5bbd 56dc b0bb 57e9 8ebc 6d5b 51be
00000250: b273 d13b 9560 753b 698e cc3c 7f7e c63d
00000260: 07e1 c1bd 3867 32bd a076 593e ac76 ed3d
00000270: 96d5 613c b4c6 b83d e65e abbd 1bf0 a5bd
00000280: 3358 e03d 5234 cfbd fc9e a0bd e9c6 7c3c
00000290: 5fd9 bfbd b201 0d3e e814 b8bc d01b ce3b
000002a0: f5e6 d5bc 3f9e 563d ff27 523c 4394 e7bd
000002b0: d24a 213d 3664 d43d 251a 473e dd64 cc3c
000002c0: 5c73 0ebe d7bb 5ebc c1b5 bfbc 13ea e4bd
000002d0: 7c11 0000 a501 0080 be11 0000 5837 0000
000002e0: 644d 0080 2f1c 0000 242a 0080 2f41 0000
000002f0: ed10 0000 0675 aabd 0108 1b3d 96f0 d0bb
00000300: 403f 78bd 8e2b 973c 5f73 023e aa8a 61bb
00000310: da03 abbd bc0a b5bd b212 0080 6a01 0000
00000320: 1d08 339c 1009 0080 d308 0000 cb3b 6389
00000330: ac0b 0000 1514 0000 ce65 0000 1e94 15bd
00000340: aed7 4fbc ff95 ecbd 2424 023e 0b15 b33d
00000350: f6ad 213e 35c7 d1bd 1142 56bd 44d2 69bc
00000360: f0f1 25be db8f e4bd 70d0 c7bc 8e38 ed3d
00000370: 006b a23e 42bd dbbd af0d 0cbd 0684 06be
00000380: dd56 59bd 89bd c33d ed41 99bd 8b88 ab3d
00000390: 2c8c a8bd 49fe 26bc bf44 a03d 3a01 debd
000003a0: 93f7 20be 753d 6b3d 1f5d 803e 56b3 8a3d
000003b0: bac4 4ebd 4684 8f3d 39c5 173e 8407 2cbd
000003c0: 8803 f73d 9829 2bbd 9ea6 debd bcbb e5bb
000003d0: 1a46 33bd 5514 c63d 2714 e4bd 50c5 bf3d
000003e0: 30c7 133e c506 523e bb4f 89bd 23e8 adbc
000003f0: ee31 7210 9649 5f10 5fd4 758e 14f2 f80e
0.009879231 -0.01179927 -0.021918647 -0.05485105 0.015059973 -0.044771273 0.0809515 -0.06847562
-0.04558272 -0.03641584 0.02719051 -0.005758757 0.009869688 0.15405428 0.115429565 -0.060819406
0.008350059 -0.06526618 -0.015237129 -0.02564922 0.0038476593 0.05995959 -0.032681033 0.13720165
0.004745823 0.034366876 0.022417312 -0.096257016 0.04333997 0.03989307 0.18598798 -0.14462726
-0.13254124 0.13823251 0.11880063 -0.043667436 -1.0085e-41 -3.14e-42 8.13e-42 -1.4386e-41
-8.0486e-41 -5.347e-42 -1.1498e-41 -8.94e-42 -1.3747e-41 -0.004702639 0.15341415 0.0070388056
-0.15735608 0.07861026 -0.11611726 -0.0349572 -0.049011834 -0.031969644 2.83e-42 6.32e-42
8.48e-43 5.538e-42 1.855e-42 -4.912e-42 2.545e-42 -8.34e-42 -3.08e-42 -0.12567729
0.09678292 -0.14091742 0.011429445 0.15929759 -0.049644705 0.12694538 -0.013424522 -0.19601068
0.004575328 -0.0113202 0.15057667 0.041558467 0.17003885 -0.11568152 -0.057503466 0.079610504
-0.13440679 -0.11760799 0.0684506 0.014668832 -0.18217008 0.14094038 -0.017534634 0.010532089
0.096076526 -0.016321618 0.01806085 0.067242704 -0.07405799 -0.11088965 -0.007257977 0.021474153
-0.13509549 -0.15030476 0.043921765 0.049056366 0.015838845 0.042044684 0.041152228 0.1879684
0.09846789 0.206725 -0.014321134 -0.017075006 1.3938616e-29 -9.029028e-30 4.4606155e-30 1.8738834e-31
6.1871126e-34 -2.7294487e-29 -5.8599343e-31 -8.901241e-30 -5.9721655e-29 -9.443e-42 8.95e-42 7.93e-43
-1.053e-41 -9.8189e-41 6.328e-42 5.454e-42 1.036e-42 -3.432e-42 4.197e-42 1.812e-42
3.782e-42 -3.304e-42 -3.566e-42 5.629e-42 -3.188e-42 9.054e-42 -7.221e-42 -3.93884e-40
1.1905e-41 6.571675e-38 2.556e-42 6.128e-42 -3.57e-43 3.959e-42 6.232e-42 5.183e-42
-0.053632922 -0.00539736 -0.01744525 -0.20445032 0.006391966 0.00374416 0.02497025 0.09692096
-0.09466749 -0.04355547 0.21236658 0.115949005 0.013783833 0.090222746 -0.0836771 -0.08102437
0.10954323 -0.10117401 -0.07842824 0.015428283 -0.09367632 0.13770178 -0.022470906 0.0062899366
-0.026111105 0.05239701 0.012826919 -0.113075756 0.039377995 0.10370676 0.19443567 0.02495044
-0.13911194 -0.013594589 -0.023402097 -0.111774586 6.272e-42 -5.9e-43 6.365e-42 1.9854e-41
-2.7763e-41 1.011e-41 -1.5117e-41 2.3383e-41 6.072e-42 -0.08323102 0.03784943 -0.0063763363
-0.060607195 0.018453386 0.12739323 -0.0034414926 -0.08350344 -0.08839938 -6.707e-42 5.07e-43
-5.923662e-22 -3.251e-42 3.166e-42 -2.7352246e-33 4.187e-42 7.204e-42 3.652e-41 -0.03651821
-0.012685699 -0.11552047 0.12709099 0.08744248 0.15789017 -0.10243074 -0.0523091 -0.014271323
-0.16205573 -0.11160251 -0.024391383 0.115830526 0.3172226 -0.107294574 -0.034192737 -0.131363
-0.053061355 0.09557635 -0.074832775 0.08375653 -0.08229861 -0.010192462 0.07825612 -0.10840078
-0.15719442 0.057431657 0.25071046 0.06772487 -0.05048058 0.07007651 0.14821328 -0.041999355
0.120612204 -0.041787714 -0.108716235 -0.007010905 -0.043768026 0.09671847 -0.11136656 0.09363806
0.14431453 0.20510395 -0.067046605 -0.021228855 4.776455e-29 4.4035684e-29 -3.0300834e-30 6.1369833e-30

bias f4 [16]
00000000: ed12 be38 787b f738 4ac1 a939 fbb4 6d39
00000010: f56d 89b9 283e 1aba 413a 7538 86f9 0080
00000020: 3b71 e2b9 b243 a539 c590 9039 96d7 5ab8
00000030: f0b9 c238 78b3 7239 7745 8939 3a46 5ab9
9.063431e-05 0.00011800876 0.00032378203 0.00022669502 -0.000262126 -0.0005883896 5.8466805e-05 -8.9512e-41
-0.00043190442 0.0003152169 0.00027573682 -5.217603e-05 9.2852744e-05 0.00023145776 0.00026182432 -0.00020816262

weight f4 [16]
00000000: f8c0 8b3f 2fcb 8b3f 83e5 7b3f 0d6a 343f
00000010: 980d 293f eed6 143f 90ad 653f 1901 0080
00000020: 792b 6f3f c41d 3f3f ee62 1d3f 2d75 593f
00000030: b021 723f 8627 563f 174a 253f ec6b 903f
1.0918264 1.0921382 0.9839708 0.7047432 0.6603637 0.58140457 0.8971796 -3.94e-43
0.9342571 0.74654794 0.6147908 0.8494442 0.94582653 0.8365406 0.6456618 1.1282935

bias f4 [16]
00000000: 85e1 393e 53a0 583d 22aa a5bd 2afd 19bc
00000010: 9f0f 383e 59a8 413d e3c8 933e ce8d 99aa
00000020: 03d8 143f 0b10 b4bd 4d10 ad3e 036b 323e
00000030: b834 f6bd 7176 123d 9d15 863d 2a27 b5be
0.18152435 0.052887272 -0.08089091 -0.009398738 0.17974709 0.04727969 0.28864202 -2.7276656e-13
0.5814211 -0.087921225 0.338015 0.17423634 -0.12021774 0.035757486 0.06547091 -0.35381442

running_mean f4 [16]
00000000: 45ae 933d 1f40 09bc 816d f5bc 2d48 9cbd
00000010: 1008 8cbd c0cd 92b9 e0ee be3d d905 0000
00000020: 996c 37bd a561 e73b 8329 ddbd e1ea bdbd
00000030: 8725 003b 5974 21bc dcef 863c 7585 563d
0.07210974 -0.008377104 -0.029959442 -0.07630954 -0.06837475 -0.00028000586 0.093229055 2.098e-42
-0.0447813 0.0070612007 -0.10798933 -0.09273315 0.0019553618 -0.0098544 0.016471796 0.05237337

running_var f4 [16]
00000000: 209b 6c3c d70a 463c 5b53 fd3b 3532 b73b
00000010: 48a2 c63b c7be 7b3b 11a1 023c 0400 0000
00000020: 05d9 333c 591d b53b db5f 013c 4538 1e3c
00000030: 1e99 f63b 45aa f73b 4b2b 813b c178 013c
0.014441282 0.012087545 0.007730884 0.005590702 0.006061826 0.0038413273 0.007972972 6e-45
0.010977034 0.00552718 0.007896389 0.00965697 0.007525577 0.0075581395 0.0039419285 0.007902325

weight f4 [1, 16, 1, 1]
00000000: 3782 89bf bb20 89bf c901 743f 9199 2f3f
00000010: 776f 293f 0d2f 123f 2e6c 69bf 6f98 50a8
00000020: 75ce 86bf 6b07 403f 478e 303f 55ed 58bf
00000030: 1365 6d3f 2c45 4f3f 9d36 233f 6c2a 923f
-1.0742863 -1.0713114 0.95315224 0.685937 0.66185707 0.57103044 -0.91180694 -1.1579373e-14
-1.0531756 0.7501132 0.689671 -0.8473714 0.9273235 0.8096492 0.6375521 1.1419196

weight f4 [1, 134]
00000000: 196a d435 4a88 6734 a4a3 9f35 ceb8 04b6
00000010: b8e4 a9b5 8bba 1635 0562 dd35 fcbc 99b5
00000020: fdc4 1234 07d9 d234 f5d3 c2b5 58a7 df35
00000030: d45d 2e38 66e5 ea37 d45f 8835 e70d bdb5
00000040: a9ad b5b5 ffd2 a835 6b10 c2b3 0c4f 8635
00000050: 2ff7 9935 1485 7534 94be 00b5 e4c2 0c35
00000060: afcc bab5 6751 6835 1f24 df35 7463 9933
00000070: fc61 f835 ea8a f4b5 453c 50b5 bdd1 4035
00000080: ef36 adb5 8ce7 9ab5 9f5e efb5 7e19 8a34
00000090: 8fb7 e334 6d2e 0d35 470a 9ab5 e5ce 0335
000000a0: 95ed 00b6 932f e4b5 3dfb 34b4 cd35 12b6
000000b0: 51ef 24b8 a8dd 14b5 fbf6 a735 9ed0 34b5
000000c0: 5509 f1b4 15c6 0db5 8e64 3c34 b731 dfb5
000000d0: 6bfd 50b6 a829 a5b4 b4d1 0435 99e6 7ab5
000000e0: d1cc 0b36 7a14 8135 06a0 f934 7bec db34
000000f0: 63d4 8236 fd53 5735 576a dab5 0196 a5b5
00000100: de41 de35 db7a 41b5 926b 1936 9237 19b6
00000110: 01a8 18b6 e696 96b5 b3b8 5936 6175 27b6
00000120: 43e3 6535 79da b4b4 5575 8934 1e92 8b35
00000130: c3db f037 b0bd db37 da4e 9635 326a bfb5
00000140: 2ac6 e7b5 3a07 8235 34fc 45b5 7110 5436
00000150: 37e1 6936 0e26 26b3 ecd8 19b6 a479 5836
00000160: 740b 4cb6 c396 91b5 6f51 3836 82f0 69b4
00000170: c780 0a36 7081 59b6 7d80 a435 ec6c d8b3
00000180: 9673 f2b5 8b8c 09b6 30ff 03b6 54cd 35b4
00000190: b787 6835 afa9 0235 6126 b0b5 88b8 c535
000001a0: fc5d c0b6 17c4 00b6 164d fb34 e8e5 43b6
000001b0: 530c 9137 fa3e 7bb5 72f2 2436 0dff 16b5
000001c0: 128f 0cb6 700f 88b5 bedb 2834 65e7 14b6
000001d0: cb28 cfb7 ff13 d0b5 64c8 86b5 f285 66b5
000001e0: 4e26 4f36 44ae c235 a768 f234 38fb 70b5
000001f0: 8138 abb4 04e6 9d35 5c9f 12b6 0efa dfb5
00000200: 6b71 fc3c 64b9 cd3c 08d3 913c 50fe 0b3c
00000210: 1a8c 64bb 8e23 24bd
1.5826109e-06 2.1563133e-07 1.1894049e-06 -1.9777103e-06 -1.2658047e-06 5.615081e-07 1.649431e-06 -1.145439e-06
1.3668974e-07 3.9273456e-07 -1.4515814e-06 1.6663498e-06 4.1572217e-05 2.8001796e-05 1.0160679e-06 -1.4085643e-06
-1.3536093e-06 1.2578383e-06 -9.0368154e-08 1.0006784e-06 1.1471328e-06 2.2865817e-07 -4.7961043e-07 5.243767e-07
-1.3917651e-06 8.654519e-07 1.6625307e-06 7.142708e-08 1.8505957e-06 -1.8219846e-06 -7.757374e-07 7.1830783e-07
-1.2905492e-06 -1.1541283e-06 -1.7834426e-06 2.572305e-07 4.24156e-07 5.259415e-07 -1.1476885e-06 4.9102374e-07
-1.9211777e-06 -1.700117e-06 -1.6855206e-07 -2.1787012e-06 -3.9323528e-05 -5.545685e-07 1.251435e-06 -6.7358803e-07
-4.4896538e-07 -5.281484e-07 1.7545446e-07 -1.6629264e-06 -3.1141924e-06 -3.0763954e-07 4.947899e-07 -9.346782e-07
2.0831833e-06 9.617208e-07 4.6496297e-07 4.096399e-07 3.899027e-06 8.021596e-07 -1.6273215e-06 -1.2337115e-06
1.6559459e-06 -7.207688e-07 2.286139e-06 -2.2831123e-06 -2.2747556e-06 -1.1219788e-06 3.244303e-06 -2.4953263e-06
8.563986e-07 -3.3686572e-07 2.560361e-07 1.0398833e-06 2.8712564e-05 2.6195165e-05 1.119882e-06 -1.4261516e-06
-1.7268515e-06 9.687858e-07 -7.375522e-07 3.1600032e-06 3.4850798e-06 -3.8684497e-08 -2.2925042e-06 3.2257312e-06
-3.0405035e-06 -1.0847219e-06 2.7465537e-06 -2.1787312e-07 2.063856e-06 -3.2410862e-06 1.2256347e-06 -1.00780966e-07
-1.8064045e-06 -2.0496398e-06 -1.966906e-06 -1.6931637e-07 8.6624226e-07 4.8675696e-07 -1.3124192e-06 1.473135e-06
-5.732987e-06 -1.9187626e-06 4.680848e-07 -2.9191087e-06 1.7291086e-05 -9.359643e-07 2.4579026e-06 -5.62505e-07
-2.0944904e-06 -1.0137283e-06 1.5726161e-07 -2.2188408e-06 -2.4695319e-05 -1.5503027e-06 -1.0042099e-06 -8.5876593e-07
3.08677e-06 1.4504844e-06 4.5152157e-07 -8.977254e-07 -3.1892344e-07 1.1764355e-06 -2.1848455e-06 -1.668757e-06
0.0308158 0.025112815 0.017800823 0.00854452 -0.0034873546 -0.04007297

weight_ih_l0 f4 [256, 600]
00000000: bf89 4e38 872b 7937 78c2 8237 d307 56b8
00000010: c326 54b8 ff6f b636 b261 8f37 9e58 7438
00000020: c9aa 4e38 4ad3 bc38 a3fa c738 c936 ab38
00000030: ec3b 9e38 a233 8738 c5e2 a538 2ff2 b038
00000040: 1a23 2138 977a 1638 b024 ef37 e5a4 ecb7
00000050: b367 6ab8 0328 26b9 a0f0 09b9 8f47 d237
00000060: d824 1a38 eef7 f337 b431 2138 f0b3 d6b6
00000070: d665 4737 0683 1ab9 db3d d4b8 c527 6bb8
00000080: 421b eab8 6429 92b8 eb71 b738 e006 4538
00000090: 9d88 8b37 cb45 f5b7 c8fd 8cb7 617d 9138
000000a0: a37f 82b7 5e33 e2b8 7c78 4ab8 2e06 bdb8
000000b0: f977 51b8 0885 abb8 ebbd 89b8 f20b 0bb9
000000c0: 60ce 19b9 c179 2ab8 f948 08b9 4c49 a4b8
000000d0: 2a01 d7b8 8189 dbb8 3adb c7b8 7cff 3ab9
000000e0: d0b2 47b9 f84d 09b9 0e11 46b7 1f70 f937
000000f0: 1afd c6b7 0fd5 f937 fc46 c9b5 b12f 40b8
00000100: 4291 fe37 19cb 5a37 e2c2 07b8 4ae7 11b4
00000110: 58e0 f535 b0ab 1f34 1046 10b8 804c 70b8
00000120: 3233 e2b7 a183 42b8 ad06 e7b7 c471 d3b7
00000130: 7724 fc36 7976 4ab6 ed66 5d38 b352 0fb7
00000140: d806 83b8 2b2e 75b7 3e51 61b8 9d46 00b8
00000150: d444 cab7 a479 69b7 8f1f a8b8 10be 8336
00000160: 383a 94b8 3fb8 c1b8 9ef0 92b5 4ceb 07b8
00000170: 7407 bbb7 d329 34b8 5357 e2b7 6ad1 7ab8
00000180: 899c 42b8 4cdf 26b6 b5b5 4836 0c11 fe35
00000190: d795 4237 10fd afb7 8d00 0736 2516 32b8
000001a0: c0d8 02b7 37fc 6eb7 2e74 0cb8 73d7 36b8
000001b0: a0aa cfb7 9b7e 18b7 d2dc 7537 c724 b5b7
000001c0: 2b49 f4b7 72f3 0936 8426 28b8 e3cf 0638
000001d0: 05b9 1a35 07a8 2237 614e 0eb8 d1e0 9eb6
000001e0: cd5e 6db6 887a ad37 e168 aa36 bbe2 02b8
000001f0: 05df e2b7 3eaf 0fb8 f24c 1e35 1b89 1137
00000200: aaae 2cb7 19c7 6336 e48c 62b8 f91d 19b8
00000210: 3c94 dcb7 3aa1 1bb7 659f adb7 bdef 6637
00000220: cadf 4a38 4857 3db7 eb14 84b7 6641 84b7
00000230: ec74 9bb8 0c0e 0c35 7a22 00b8 6cea 0337
00000240: c3cb d0b6 f5e9 dab4 4f30 01b8 3ddc a5b7
00000250: 467a e636 bdf5 bab7 f798 aeb7 4340 b5b7
00000260: e6f5 cab6 f065 90b6 676a 5937 b155 7f37
00000270: 360a 7038 6d28 7236 149a 24b5 090d ca37
00000280: 6fd4 1cb8 25e1 2bb8 bd5a 8ab7 05fa 49b6
00000290: 56a6 a9b7 8e08 76b7 b062 61b8 f23b 90b8
000002a0: 6491 5736 82a3 e836 364d dab6 c9e6 33b8
000002b0: fef5 0cb8 103c fe36 d6af 4eb7 3bd5 abb7
000002c0: a33b a638 fe35 cbb8 f5e2 7db6 d8c6 a2b7
000002d0: 1278 9f38 5f47 9fb7 b8b5 09b6 98de 9bb7
000002e0: d0fc 02b8 bce9 89b8 d61b 46b7 8dd9 aab7
000002f0: 27f1 1fb8 0718 aeb7 0a2a 6bb8 2baf 9937
00000300: ecdc 49b8 043c 2fb9 aee5 8a38 3e6d 01b8
00000310: 174f e1b7 ca6b 7238 5861 1ab7 72c2 8ab8
00000320: ff85 9ab8 f253 92b8 5523 ae36 70e7 c7b7
00000330: 1a24 d836 baf1 0ab8 3e06 59b8 2a67 3fb7
00000340: 582c ccb8 a65e 6035 9ada b937 afc4 6a38
00000350: 04e8 1cb8 7615 c9b8 9c43 73b9 2ba2 9038
00000360: 58c5 c037 67c6 53b8 9fde bfb6 b45a 3db8
00000370: 0743 02b9 32a9 47b5 09ec 17b7 f0ae a936
00000380: 4f23 17b8 f502 ba37 6140 78b8 7294 15b7
00000390: f134 b836 5cce 0f38 eb4c 95b7 c9f8 99b7
000003a0: eece e5b7 3c43 4db9 aebd 8438 34aa e338
000003b0: 2f94 a6b7 0776 8839 b7d3 3237 5af5 e2b5
000003c0: 3581 89b8 5698 5437 fa85 50b7 511d c836
000003d0: 86d6 10b8 6fd6 2338 5c1b 0d38 0700 6f37
000003e0: 6231 1738 e9e8 77b8 6eb2 dcb7 5694 0bb8
000003f0: 4c14 5138 d77e b9b9 4619 a1b8 530c ce36
4.9242513e-05 1.4851691e-05 1.5587764e-05 -5.1028863e-05 -5.058084e-05 5.4370607e-06 1.7092421e-05 5.8256664e-05
4.9273283e-05 9.003894e-05 9.535744e-05 8.16412e-05 7.5451884e-05 6.446919e-05 7.910052e-05 8.437444e-05
3.8418082e-05 3.5876958e-05 2.8508104e-05 -2.8210177e-05 -5.5886525e-05 -0.00015845899 -0.00013154978 2.5067273e-05
3.6750775e-05 2.9083309e-05 3.843168e-05 -6.3986445e-06 1.1885035e-05 -0.00014735395 -0.00010120469 -5.6065404e-05
-0.00011163067 -6.969532e-05 8.747339e-05 4.6974863e-05 1.6633707e-05 -2.9238776e-05 -1.6807477e-05 6.9374924e-05
-1.5556643e-05 -0.00010786088 -4.8272763e-05 -9.013373e-05 -4.9941216e-05 -8.1786944e-05 -6.568044e-05 -0.00013260523
-0.00014668098 -4.064455e-05 -0.00012997155 -7.833782e-05 -0.00010252216 -0.00010468346 -9.5298936e-05 -0.00017833518
-0.00019044732 -0.00013094384 -1.18056905e-05 2.9735324e-05 -2.3721299e-05 2.9782326e-05 -1.4996326e-06 -4.5820783e-05
3.03468e-05 1.30411e-05 -3.2368007e-05 -1.358832e-07 1.8319215e-06 1.4870488e-07 -3.4397526e-05 -5.7291705e-05
-2.696514e-05 -4.6375793e-05 -2.7540455e-05 -2.5206136e-05 7.5144303e-06 -3.0169306e-06 5.2786363e-05 -8.542719e-06
-6.2478415e-05 -1.4613887e-05 -5.3719843e-05 -3.0583342e-05 -2.4112327e-05 -1.3916204e-05 -8.0167425e-05 3.9262304e-06
-7.068034e-05 -9.237276e-05 -1.0947876e-06 -3.2405645e-05 -2.2295608e-05 -4.2954296e-05 -2.6981963e-05 -5.9799677e-05
-4.639899e-05 -2.4865903e-06 2.990809e-06 1.8929436e-06 1.1598188e-05 -2.0979467e-05 2.0116888e-06 -4.245913e-05
-7.79907e-06 -1.4244629e-05 -3.3486802e-05 -4.3592834e-05 -2.4755776e-05 -9.089384e-06 1.4654552e-05 -2.1594007e-05
-2.9121138e-05 2.0556295e-06 -4.009019e-05 3.21417e-05 5.763871e-07 9.695074e-06 -3.3928434e-05 -4.734939e-06
-3.5370933e-06 2.0680265e-05 5.0786043e-06 -3.1205574e-05 -2.7045151e-05 -3.4257064e-05 5.8971557e-07 8.674596e-06
-1.0292666e-05 3.3941526e-06 -5.4013813e-05 -3.6505957e-05 -2.629507e-05 -9.276258e-06 -2.0697431e-05 1.3764887e-05
4.8368973e-05 -1.12856e-05 -1.5745367e-05 -1.576608e-05 -7.412754e-05 5.2174505e-07 -3.0549687e-05 7.862789e-06
-6.222604e-06 -4.077589e-07 -3.0800988e-05 -1.977209e-05 6.8687687e-06 -2.2287359e-05 -2.0813646e-05 -2.1606806e-05
-6.0486955e-06 -4.3034015e-06 1.2958982e-05 1.5219136e-05 5.722997e-05 3.608434e-06 -6.1318974e-07 2.4086346e-05
-3.7391143e-05 -4.097926e-05 -1.6493135e-05 -3.0096865e-06 -2.0223826e-05 -1.4664734e-05 -5.373609e-05 -6.877621e-05
3.2122125e-06 6.9331736e-06 -6.505895e-06 -4.289186e-05 -3.36077e-05 7.576782e-06 -1.2319497e-05 -2.0484082e-05
7.926605e-05 -9.689851e-05 -3.7832044e-06 -1.9404499e-05 7.604076e-05 -1.8987512e-05 -2.0520365e-06 -1.8581093e-05
-3.1229865e-05 -6.5762055e-05 -1.1808201e-05 -2.0366884e-05 -3.8133145e-05 -2.0753605e-05 -5.6067518e-05 1.832059e-05
-4.8127884e-05 -0.00016711658 6.623134e-05 -3.0857736e-05 -2.685892e-05 5.7797683e-05 -9.20178e-06 -6.616571e-05
-7.368251e-05 -6.9774585e-05 5.1897173e-06 -2.383042e-05 6.4415044e-06 -3.312689e-05 -5.1742645e-05 -1.1408507e-05
-9.735738e-05 8.3584234e-07 2.2155513e-05 5.5973123e-05 -3.740938e-05 -9.588424e-05 -0.00023199472 6.896661e-05
2.2980079e-05 -5.0491097e-05 -5.71816e-06 -4.5145585e-05 -0.00012422736 -7.437949e-07 -9.055258e-06 5.056958e-06
-3.603409e-05 2.2174305e-05 -5.9187765e-05 -8.915655e-06 5.4897905e-06 3.4286044e-05 -1.7798002e-05 -1.8354871e-05
-2.7395286e-05 -0.0001957537 6.329581e-05 0.00010855906 -1.9857745e-05 0.0002602788 1.06589205e-05 -1.6909719e-06
-6.556736e-05 1.2671653e-05 -1.242896e-05 5.9638774e-06 -3.4532066e-05 3.9061935e-05 3.36425e-05 1.42455165e-05
3.6047197e-05 -5.9106304e-05 -2.6309131e-05 -3.327833e-05 4.9848386e-05 -0.00035380453 -7.681786e-05 6.140713e-06

weight_hh_l0 f4 [256, 64]
00000000: 4d33 aa37 6974 b2b5 3b25 6a37 65c6 8ab6
00000010: 5fc0 a8b7 4a20 ab37 a360 9137 2a71 7fb7
00000020: cb09 1037 85ad 14b6 bb8c 3e37 f0ec 5f37
00000030: 27f8 b0b9 cf7b aa39 1cdb 9f37 f1b2 7fb7
00000040: a25c e0b7 6a64 b737 5e28 ce37 1774 f8b5
00000050: 5378 5ab6 350b c9b7 061a e536 3786 9637
00000060: d181 e3b7 d8fe 3b37 53d0 a336 ba20 6137
00000070: 4891 8737 e085 a6b7 b0f2 8db6 6860 5537
00000080: 51bf d2b7 88d3 13b5 092d 78b7 e781 b237
00000090: 2ebf 9f36 ac78 d5b6 ff9c 83b7 5ffb 2f35
000000a0: e212 2db8 84f4 1a36 a443 2eb5 cbeb 47b7
000000b0: 31f2 28b9 dac1 9535 f783 c9b6 f04f 80b7
000000c0: aa9f 0637 b52c 3d36 e389 0737 36d8 85b7
000000d0: d15a 1d39 619c 4a35 a97b 2fb5 10b1 a337
000000e0: b5ed 4737 2a25 5937 0ef8 0333 84c3 0ab8
000000f0: 5feb d838 79ba 1d37 b538 89b7 974d 3237
00000100: c772 f7b6 63dd ecb5 3daa 7b36 5c08 3ab6
00000110: ac9b 9e36 c4e9 2537 e0f4 3bb5 96fa dd35
00000120: 3f04 3136 fa8f 21b7 2bf6 4936 7812 3eb6
00000130: 2517 e138 c054 63b9 35d5 89b6 3cae 2136
00000140: a45a 5534 4390 e6b6 c2e6 d636 3022 7035
00000150: 3f6c 90b6 08ba acb7 e20d d7b6 94a8 a5b6
00000160: 15c6 1336 a9cd c132 8660 8d36 a0b7 fd35
00000170: 8345 da35 d1e8 b336 3c1b 1836 b9f9 9a36
00000180: cc77 9535 2a81 afb5 cce3 a8b5 a43c 3db7
00000190: d47a 7e37 9aad d736 e54b ceb5 3431 d6b5
000001a0: 9b9d 1d39 a399 f5b6 110a 09b6 ffad 8db5
000001b0: 0161 2f39 8308 edb6 f993 9035 23d3 d9b6
000001c0: 4b18 9cb4 7309 fdb4 908d 6536 2550 8fb5
000001d0: 23ca 1739 1bcc d036 54b1 1eb7 f872 2535
000001e0: e63e a235 fb9d e236 70be 3a35 b4f9 25b7
000001f0: 6b70 30b9 ef7b 8037 791a 9036 eb52 2db7
00000200: 9513 3a37 b459 bfb6 c857 6e37 3720 18b7
00000210: 271d 14b7 59fe 5837 40d9 69b7 8032 c7b6
00000220: 3829 34b6 9ba5 4337 c285 1437 5b42 3537
00000230: fc22 09b9 b2ae 3039 b094 f536 16af 24b7
00000240: 56c1 7936 9499 2a37 949c 71b6 8cf3 2e37
00000250: ee7e a137 6335 2db7 a209 9db5 2eb0 c236
00000260: 1808 5637 3078 1db7 a9db 1537 a1a6 ef35
00000270: 8f14 e436 bf06 3cb7 d6f8 dcb4 55a4 9837
00000280: af7c c836 56dd 06b7 6b11 e1b6 2fed 43b6
00000290: a261 88b6 c37b 0137 0415 ceb6 27f0 4636
000002a0: 7ebe d5b8 919b 51b7 08bb a835 9207 40b7
000002b0: ad4e 5eb8 1f69 b636 fc6d 2037 b782 6bb6
000002c0: 45a5 1db7 4e1e 8135 de51 b1b6 ab0b 01b7
000002d0: e972 2239 1586 d8b6 3f55 53b5 61ba 36b7
000002e0: cb1d 2a37 c8b0 bdb7 79d4 d8b6 f000 15b7
000002f0: 4620 a0b7 00f7 9f36 3ee9 0ab7 fab0 cc36
00000300: da66 80b7 81b2 bfb5 e191 d435 1a18 a1b6
00000310: 1b57 5e37 ba05 03b7 7cac ecb7 bdd6 a936
00000320: 6755 0437 6b59 b5b6 0b97 5837 0cac 18b6
00000330: fa46 f339 1264 82b8 7ac9 4bb7 45d8 8e36
00000340: 762b a037 b247 94b7 af63 8937 702e 73b3
00000350: 4ea0 27b7 e424 cf35 f500 d3b6 3bf0 5db7
00000360: e117 c437 aa75 c536 447a 0f37 d51d 2d37
00000370: 96a6 fdb5 9249 7137 b5d3 7837 e755 0737
00000380: 90f7 b637 02c2 57b5 d454 16b5 7aa5 8ab7
00000390: 455e f136 5568 d7b6 3561 3636 c356 c9b5
000003a0: 09fc 6138 9279 02b7 3e7f 34b6 d272 e0b5
000003b0: 9139 9d39 95b7 b936 6f2c 6136 caeb 6db7
000003c0: a9a2 21b6 ce0b 7e37 9d20 7eb6 30c5 8035
000003d0: 99f4 a839 295a ac36 4eae 2eb7 2996 0d37
000003e0: c4c3 3236 3298 4fb8 c836 bcb6 0a92 4437
000003f0: ed72 99b9 3121 1037 e3da 0337 d96d d8b6
2.0289468e-05 -1.3295913e-06 1.3956155e-05 -4.1358167e-06 -2.011674e-05 2.0399824e-05 1.7330347e-05 -1.52255325e-05
8.585349e-06 -2.215472e-06 1.1357649e-05 1.3347002e-05 -0.00033754224 0.0003251717 1.9056308e-05 -1.52408475e-05
-2.6746016e-05 2.1862059e-05 2.4575911e-05 -1.8511226e-06 -3.255457e-06 -2.3966286e-05 6.8277614e-06 1.7943892e-05
-2.712096e-05 1.1205404e-05 4.8820307e-06 1.3418665e-05 1.6160906e-05 -1.9851082e-05 -4.23038e-06 1.2718236e-05
-2.512304e-05 -5.5069586e-07 -1.47924375e-05 2.1279744e-05 4.7608255e-06 -6.3619427e-06 -1.5689524e-05 6.5558373e-07
-4.1264e-05 2.3090115e-06 -6.491848e-07 -1.1916224e-05 -0.00016111952 1.1157783e-06 -6.0056295e-06 -1.5296013e-05
8.024197e-06 2.8189218e-06 8.078731e-06 -1.5955517e-05 0.00015006519 7.5478425e-07 -6.537253e-07 1.9513565e-05
1.191667e-05 1.2942861e-05 3.072642e-08 -3.3083852e-05 0.00010343524 9.401346e-06 -1.6358079e-05 1.0627692e-05
-7.3745355e-06 -1.7647802e-06 3.7501006e-06 -2.7721026e-06 4.7268895e-06 9.889194e-06 -7.001927e-07 1.6538713e-06
2.6377527e-06 -9.62987e-06 3.0094623e-06 -2.8322956e-06 0.00010733147 -0.00021679979 -4.1077387e-06 2.4092287e-06
1.9870146e-07 -6.8713284e-06 6.4045607e-06 8.9456717e-07 -4.304136e-06 -2.0590625e-05 -6.4091155e-06 -4.9370083e-06
2.2020006e-06 2.256168e-08 4.2133643e-06 1.8903411e-06 1.6262496e-06 5.361719e-06 2.2665618e-06 4.618629e-06
1.1136231e-06 -1.3076108e-06 -1.2583273e-06 -1.1279397e-05 1.5168178e-05 6.427709e-06 -1.5370284e-06 -1.5958562e-06
0.000150314 -7.3194547e-06 -2.042045e-06 -1.0555958e-06 0.00016725437 -7.0641413e-06 1.0771902e-06 -6.4916835e-06
-2.907494e-07 -4.7131797e-07 3.420606e-06 -1.0677655e-06 0.00014475784 6.222644e-06 -9.458821e-06 6.163459e-07
1.2088246e-06 6.753716e-06 6.956752e-07 -9.892905e-06 -0.00016826547 1.53165e-05 4.2946162e-06 -1.0330909e-05
1.1091023e-05 -5.7026864e-06 1.4206344e-05 -9.067407e-06 -8.828275e-06 1.2933823e-05 -1.3938465e-05 -5.936541e-06
-2.6846083e-06 1.1661464e-05 8.85263e-06 1.080389e-05 -0.00013078371 0.00016849747 7.3188785e-06 -9.815927e-06
3.7216428e-06 1.0168547e-05 -3.600294e-06 1.0427913e-05 1.9251802e-05 -1.0324034e-05 -1.1700215e-06 5.8021606e-06
1.27572785e-05 -9.385913e-06 8.932236e-06 1.7855383e-06 6.797323e-06 -1.1207244e-05 -4.1159245e-07 1.8196335e-05
5.9749796e-06 -8.038556e-06 -6.7075503e-06 -2.9195323e-06 -4.064482e-06 7.717815e-06 -6.141725e-06 2.9644086e-06
-0.000101921134 -1.2493591e-05 1.2571409e-06 -1.1445854e-05 -5.3002197e-05 5.4362604e-06 9.562351e-06 -3.5093815e-06
-9.396409e-06 9.620069e-07 -5.2845417e-06 -7.691716e-06 0.00015492331 -6.452911e-06 -7.8727675e-07 -1.089144e-05
1.0139726e-05 -2.2612876e-05 -6.4620367e-06 -8.88131e-06 -1.9088515e-05 4.767324e-06 -8.279747e-06 6.1002766e-06
-1.5306683e-05 -1.428256e-06 1.5837687e-06 -4.8009797e-06 1.3252512e-05 -7.809542e-06 -2.8213712e-05 5.0615913e-06
7.887697e-06 -5.40463e-06 1.2909771e-05 -2.274991e-06 0.00046401453 -6.2175226e-05 -1.2146653e-05 4.257107e-06
1.9093724e-05 -1.767636e-05 1.6378091e-05 -5.662008e-08 -9.9912995e-06 1.5433438e-06 -6.2884014e-06 -1.32285595e-05
2.337614e-05 5.8847554e-06 8.551931e-06 1.0318549e-05 -1.8898452e-06 1.4381849e-05 1.4831244e-05 8.066628e-06
2.1811371e-05 -8.037606e-07 -5.6002796e-07 -1.6527938e-05 7.193334e-06 -6.419645e-06 2.7176695e-06 -1.5000918e-06
5.3878906e-05 -7.776909e-06 -2.6896155e-06 -1.6722718e-06 0.00029988264 5.5348014e-06 3.3553476e-06 -1.41812e-05
-2.408555e-06 1.5142328e-05 -3.7867933e-06 9.594132e-07 0.00032225696 5.1364955e-06 -1.0411792e-05 8.439217e-06
2.6638018e-06 -4.949439e-05 -5.609214e-06 1.1716513e-05 -0.0002926806 8.590797e-06 7.859172e-06 -6.4500896e-06

bias_ih_l0 f4 [256]
00000000: 88b1 23bb 24ff 5ebb aad1 67bb 509d 7ebb
00000010: 3eaf 3dbb 1942 39bc 19be b5bb 4ce1 36bb
00000020: 23a4 61bb c0e1 ffbb c8e1 c4bb cd03 dfba
00000030: 4415 ea3e 80eb 093f 2cac 40bb 3734 f8ba
00000040: 4ca9 b8bb ec2a 35bb d23c 00bc 7103 2abb
00000050: 27f1 63bb c188 50bc 31bd 23bc 58da 52bb
00000060: 6864 c5bb 0363 9ebc d69b 2ebb a2fa 5bbb
00000070: a08f 74bb 116e 19bb eb08 4fbc 6193 73bc
00000080: 2122 a9bb 4de9 11bb bb7d 88bb 3795 a6bb
00000090: 8480 bdbb 11c0 05bc 936a 62bb b3f6 98ba
000000a0: 9d14 c23e 9233 63bb 946d 73bb 08a1 17bb
000000b0: 7923 cc3e ecc4 8cbb ef8f cfba 5b06 62bb
000000c0: dfd6 8ebb a536 d1bb 6e61 85bb 533a 39bb
000000d0: 609e d83e efcb d7ba 8ad9 1ebc 10bd 74bb
000000e0: 8109 23bb c502 0bbc 5c1e c6bb c2a7 45bc
000000f0: 4b80 ee3e 3279 9dbc 826c 19bb 6ed2 80bb
00000100: 06c6 11bb d8bf 52bb 0f12 5dbb 80c7 6bbb
00000110: c32a 2fbb 0cfd 2dbc 89aa b1bb 9514 30bb
00000120: 2bdb 5dbb 2483 ebbb 21e3 cabb 3fc7 dbba
00000130: f03c 11bd 9c66 813e fb02 34bb bb58 f5ba
00000140: 14fc a0bb e55b 22bb 7121 01bc 7ccd 27bb
00000150: 04e0 58bb d375 3cbc 99a6 21bc a3d0 3dbb
00000160: eff3 b4bb 7819 99bc 458f 17bb e047 46bb
00000170: 7dc4 5dbb 34b8 09bb b10e 52bc f0cc 70bc
00000180: 56df 92bb 2735 07bb a8b7 75bb b052 9dbb
00000190: 67e4 a4bb 0048 f7bb a14c 52bb e8cc 93ba
000001a0: 32a6 8e3e d1b3 47bb 7362 4fbb 2a52 02bb
000001b0: 8e4d ffbc 5969 8bbb 07f3 c4ba 475a 80bb
000001c0: d911 a0bb 7dda d0bb d97d 84bb 94cb 2ebb
000001d0: 0607 f23d 299f a5ba 7bff 11bc d464 75bb
000001e0: bdac 10bb 1d9f febb a4e1 a3bb 9fed 3cbc
000001f0: 9cf2 7b3e de88 96bc 2faa 11bb f0ad 87bb
00000200: 6db3 9cb8 5268 47b2 7c41 83b8 4015 ab38
00000210: aada 2338 d2d1 44b9 8403 9bb8 7ea8 3738
00000220: 6079 1eba a398 7039 b5db 3fba f2cc e6b9
00000230: b931 c3bd 3c61 71bd e4d2 92b7 94fa 9f39
00000240: c6d1 ab39 d8d3 79b8 3f55 1539 8126 0aba
00000250: fbf7 adb9 3282 18b9 1c8f 0b3a 69a3 d6b8
00000260: 3135 3a39 f952 8737 985a 2239 ac59 98b9
00000270: ce9a 6bb7 d387 c838 d356 e1b9 6bf4 22b9
00000280: 90b6 a939 646d 5c38 06fd 9db8 b237 db38
00000290: d75d 3b39 1c99 6ab8 bfdb 7438 ffd1 0839
000002a0: 049b 72bd 0a62 da38 cfd7 edb9 2862 d238
000002b0: 86d1 4abd 605f fc39 2ea9 a5b9 5d82 3c3a
000002c0: 83ed 3aba 9fae e239 59a1 5539 7b54 b337
000002d0: 1e3f f8bb f950 d639 f0a1 42b8 9f9b edb9
000002e0: 1b3b e2b8 5240 31b8 0a4d cf37 1d1d af39
000002f0: 97c3 ec3d 66c1 8938 7533 8f38 e4d2 0e39
00000300: d1b0 23bb 22ff 5ebb 77d1 67bb bf9d 7ebb
00000310: a5ad 3dbb 3243 39bc 1fa9 b5bb 1be1 36bb
00000320: aaa2 61bb 7ae3 ffbb b1e0 c4bb cf04 dfba
00000330: dffd e43e eb9e 053f 8faa 40bb 5f35 f8ba
00000340: aaa1 b8bb d629 35bb 203d 00bc 0103 2abb
00000350: 75f0 63bb 1e88 50bc c9bd 23bc d8d6 52bb
00000360: ac54 c5bb c964 9ebc 279e 2ebb c7f9 5bbb
00000370: af8e 74bb fc6d 19bb a009 4fbc 3b93 73bc
00000380: 3e1c a9bb 54eb 11bb 4e7d 88bb 9994 a6bb
00000390: 727f bdbb d2be 05bc c869 62bb c7f6 98ba
000003a0: 556b be3e 2f35 63bb 8269 73bb 85a1 17bb
000003b0: 93d6 c53e abc3 8cbb 0691 cfba c705 62bb
000003c0: 99d6 8ebb 3834 d1bb ba60 85bb 0f3b 39bb
000003d0: 1250 d83e 3dcc d7ba 33d9 1ebc 27bd 74bb
000003e0: 7e0a 23bb 2102 0bbc 691d c6bb 03a8 45bc
000003f0: 9add de3e 7c7a 9dbc 8a6c 19bb 1fd4 80bb
-0.0024977643 -0.0034026587 -0.0035372772 -0.003885109 -0.0028943564 -0.011307263 -0.005546343 -0.0027905283
-0.0034430108 -0.007808894 -0.0060083605 -0.0017014683 0.4571935 0.5387497 -0.0029399497 -0.001893646
-0.005635416 -0.0027643992 -0.007827001 -0.0025941993 -0.003478119 -0.012727917 -0.009993837 -0.00321736
-0.0060239322 -0.019334322 -0.0026643178 -0.0033566137 -0.0037317052 -0.0023411552 -0.012636404 -0.014866681
-0.005161539 -0.0022264302 -0.004165379 -0.0050837058 -0.0057831425 -0.008163468 -0.0034548386 -0.0011670202
0.37906352 -0.003466819 -0.003714417 -0.0023136754 0.39870813 -0.004295936 -0.0015835742 -0.0034488651
-0.0043591107 -0.006384688 -0.0040704524 -0.0028263524 0.4230833 -0.0016463975 -0.00969542 -0.0037344135
-0.002487749 -0.008484547 -0.0060460996 -0.012063922 0.46582255 -0.01922283 -0.0023410623 -0.003931335
-0.0022243275 -0.0032157805 -0.0033732688 -0.0035977066 -0.0026728369 -0.010619413 -0.0054219407 -0.0026867737
-0.0033852558 -0.007187264 -0.0061916267 -0.0016767754 -0.035458505 0.25273597 -0.0027467597 -0.001871846
-0.0049128626 -0.0024774012 -0.007881508 -0.0025604656 -0.0033092508 -0.011502701 -0.00986638 -0.0028963469
-0.005522243 -0.018688902 -0.0023126167 -0.0030255243 -0.003383904 -0.0021014335 -0.0128208855 -0.014697298
-0.00448219 -0.0020631047 -0.00374935 -0.004801117 -0.0050321105 -0.007546425 -0.0032089131 -0.0011276277
0.27861172 -0.003047217 -0.0031644374 -0.00198854 -0.03116491 -0.004254502 -0.0015026041 -0.003917012
-0.00488494 -0.006373702 -0.0040433225 -0.0026671635 0.11817746 -0.0012635934 -0.008911009 -0.0037444131
-0.0022075616 -0.0077704326 -0.0050012637 -0.011531263 0.24604267 -0.01837581 -0.0022226681 -0.004140608
-7.47208e-05 -1.1607044e-08 -6.258764e-05 8.1578735e-05 3.9065875e-05 -0.00018770181 -7.391631e-05 4.378752e-05
-0.0006045308 0.00022945045 -0.00073188107 -0.00044021715 -0.09530968 -0.05893062 -1.750276e-05 0.00030513539
0.00032771955 -5.956352e-05 0.00014241504 -0.000527002 -0.0003318189 -0.00014544351 0.0005323754 -0.00010234753
0.00017758158 1.6131891e-05 0.00015483273 -0.0002905851 -1.4043135e-05 9.5620424e-05 -0.00042980033 -0.00015540577
0.00032370212 5.2553965e-05 -7.533473e-05 0.00010453108 0.00017868668 -5.593254e-05 5.8378788e-05 0.000130482
-0.059229866 0.00010413311 -0.00045364953 0.00010031863 -0.049516223 0.00048136245 -0.000315973 0.00071910565
-0.0007130729 0.00043236182 0.0002037337 2.1377802e-05 -0.0075758835 0.0004087759 -4.640402e-05 -0.0004532011
-0.00010787529 -4.225999e-05 2.4712197e-05 0.00033400292 0.11560743 6.568692e-05 6.828356e-05 0.00013620738
-0.0024977217 -0.0034026583 -0.0035372654 -0.0038851348 -0.0028942612 -0.0113075245 -0.0055438424 -0.002790517
-0.003442923 -0.0078090997 -0.0060082306 -0.0017014983 0.44724938 0.52195615 -0.0029398536 -0.0018936804
-0.0056345062 -0.0027643344 -0.007827073 -0.0025941732 -0.0034780775 -0.012727765 -0.009993979 -0.0032171514
-0.0060220566 -0.019335167 -0.002664456 -0.0033565627 -0.0037316491 -0.0023411503 -0.012636572 -0.014866645
-0.0051608374 -0.002226551 -0.004165328 -0.005083632 -0.005783015 -0.008163171 -0.0034547914 -0.0011670225
0.37191263 -0.003466915 -0.0037141745 -0.0023137045 0.3864027 -0.0042957864 -0.0015836067 -0.0034488307
-0.004359078 -0.006384399 -0.0040703686 -0.0028263961 0.4224859 -0.0016464066 -0.009695339 -0.003734419
-0.002487808 -0.008484394 -0.0060459864 -0.012063983 0.43528444 -0.019223444 -0.0023410642 -0.003931537
