model_new/CNN_1_-1_10.pt (torch, 237054 bytes, 11 tensors)

weight f4 [6, 1, 3, 3]
-0.030296246 -0.20589334 -0.27679166 0.49162948 0.19457823 -0.18955156 -0.2581209 -0.15454678
0.017743785 0.6543157 -0.33606058 -0.38301197 -0.7251627 0.47646338 0.43035296 0.056922626
-0.046545263 0.035269376 -0.18259212 0.28305823 -0.035442222 0.10181225 -0.42289707 0.4550829
0.33868903 -0.12608393 -0.16909067 -0.6250701 -0.04371026 0.39066467 -0.0016294365 0.22321887
0.047718164 0.33448452 0.17261331 -0.28029174 0.3163008 -0.5412111 -0.23135877 -0.5846907
0.23092459 0.40258822 -0.01920233 -0.19094177 -0.085598744 -0.48612607 -0.14627038 -0.13678382
0.48281932 -0.2520138 0.0627805 0.40133044 -0.50010896 -0.42004877
00000000: d52f f8bc b4d5 52be a3b7 8dbe dcb6 fb3e
00000010: 843f 473e ce19 42be 6c28 84be 8341 1ebe
00000020: 6a5b 913c 3c81 273f 2210 acbe 251a c4be
00000030: 43a4 39bf 02f3 f33e 3957 dc3e b327 693d
00000040: 3fa6 3ebd 9f76 103d 6ef9 3abe 02ed 903e
00000050: dd2b 11bd f182 d03d f785 d8be a000 e93e
00000060: a668 ad3e 251c 01be 1b26 2dbe 9804 20bf
00000070: 8809 33bd 3305 c83e d192 d5ba 7d93 643e
00000080: 1f74 433d 8e41 ab3e 8bc1 303e 6682 8fbe
00000090: 2ef2 a13e d08c 0abf 50e9 6cbe 4aae 15bf
000000a0: 7f77 6c3e 0b20 ce3e 344e 9dbc 3d86 43be
000000b0: 654e afbd 84e5 f8be e7c7 15be 0f11 0cbe
000000c0: 1834 f73e f407 81be 1093 803d 2f7b cd3e
000000d0: 2407 00bf a210 d7be

bias f4 [6]
1.2253504e-05 -6.523401e-05 -9.5484254e-05 0.00012446707 2.8779481e-05 -0.00011542468
00000000: 6694 4d37 3ece 88b8 b83e c8b8 6083 0239
00000010: 776b f137 2710 f2b8

weight f4 [6, 6, 1, 1]
-0.30995718 0.62809 0.3222185 -0.15686662 0.033049833 0.27984518 -0.14095259 -0.40466493
0.22526991 0.2373929 -0.45294717 0.49441466 0.41533607 -0.09266257 0.11224444 0.11192393
0.49303085 -0.46898124 -0.10628362 -0.74950075 0.10329115 -0.4451295 0.09384795 -0.21762602
-0.068835266 0.48233768 -0.044222303 -0.49206164 0.4754613 -0.28841195 0.12803741 -0.74139917
0.14310496 0.1610119 -0.16281468 -0.08057749
00000000: b5b2 9ebe 82ca 203f d3f9 a43e a5a1 20be
00000010: 435f 073d de47 8f3e e055 10be 3e30 cfbe
00000020: 28ad 663e 2017 733e b1e8 e7be eb23 fd3e
00000030: eea6 d43e e0c5 bdbd 6ae0 e53d 6038 e53d
00000040: 8a6e fc3e 4f1e f0be 3aab d9bd 48df 3fbf
00000050: 4f8a d33d 04e8 e3be 5b33 c03d 5bd9 5ebe
00000060: 81f9 8cbd f7f4 f63e 7222 35bd 81ef fbbe
00000070: aa6f f33e bbaa 93be 3d1c 033e 56cc 3dbf
00000080: 1b8a 123e 4ee0 243e e4b8 26be d005 a5bd

bias f4 [6]
-0.00020941773 -8.965789e-06 -7.437305e-06 -3.4840305e-05 0.00011942573 -8.1600636e-05
00000000: 2597 5bb9 c56b 16b7 f78d f9b6 7e21 12b8
00000010: 3374 fa38 0221 abb8

weight f4 [6]
1.2929767 1.1191751 1.0988666 1.1820374 1.1710297 0.93514425
00000000: 4380 a53f 2141 8f3f a9a7 8c3f 004d 973f
00000010: 4de4 953f 9d65 6f3f

bias f4 [6]
-0.6099525 0.06818408 -0.5267412 -0.3685088 -0.05299231 -0.53496826
00000000: d925 1cbf 18a4 8b3d 83d8 06bf 2fad bcbe
00000010: 770e 59bd aef3 08bf

running_mean f4 [6]
-0.3302226 -0.65914154 -0.0477404 -0.112984665 -0.5504277 0.75869316
00000000: f012 a9be 80bd 28bf 708b 43bd 8164 e7bd
00000010: d4e8 0cbf b739 423f

running_var f4 [6]
0.52793986 1.7631367 0.75835377 0.67160547 1.3568995 0.6925636
00000000: 1127 073f 77ae e13f 7923 423f 56ee 2b3f
00000010: e2ae ad3f d94b 313f

weight f4 [16, 3600]
-8.754871e-28 -6.777e-42 2.594e-42 -7.517e-42 -1.522e-42 -1.679e-42 4.928e-42 7.547e-42
-7.477e-42 2.615e-42 8.284e-42 5.731e-42 -7.253e-42 7.8e-43 1.47e-43 -6.701e-42
4.861e-42 -6.735e-42 6.466e-42 -2.1971e-41 3.258e-42 -5.581e-42 -9.005e-42 -3.087e-42
6.977e-42 -1.059e-41 7.49e-42 -7.872e-42 -8.748e-42 1.2431e-41 8.632e-42 8.891e-42
5.639e-42 -8.415e-42 -3.572e-42 -9.851e-42 3.649e-42 6.311e-42 -2.717e-42 -1.0057e-41
-1.3894e-41 9.651e-42 5.41e-42 5.937e-42 8.729e-42 9.505e-42 2.075e-42 8.342e-42
8.703e-42 1.264e-41 -9.633e-42 4.127e-42 -1.1596e-41 -7.938e-42 -2.067e-42 1.0794e-41
1.932e-42 5.978e-42 -1.76e-42 -5.91e-42 -2.0174e-41 8.656e-42 -1.527e-41 -1.1091e-41
1.574e-42 1.1405e-41 -4.934e-42 8.279e-42 -7.382e-42 3.558e-42 4.264e-42 -7.278e-42
1.77e-43 1.767e-42 2.35e-43 1.0284e-41 -8.213e-42 8.149e-42 5.378e-42 -2.973e-41
9.491e-42 8.779e-42 2.705e-42 7.655e-42 -1.1657e-41 1.949e-42 2.431e-42 -1.935e-42
-1.0543e-41 3.915e-42 7.09e-43 9.078e-42 -8.366e-42 1.4056e-41 8.462e-42 1.0763e-41
1.1585e-41 1.039e-41 7.462e-42 3.3078e-41 -9.907e-42 2.78e-42 -9.833e-42 -7.55e-42
1.0095e-41 -5.719e-42 2.335e-42 9.431e-42 7.87e-42 2.503e-42 -1.041e-42 1.1428e-41
1.2243e-41 -2.211e-42 -9.988e-42 3.872e-42 -5.318e-42 3.02e-42 7.45e-43 -1.131e-42
1.5894e-41 2.22e-42 -1.391e-42 -9.94e-43 -3.324e-42 -5.651e-42 9.131e-42 -8.761e-42
8.146e-42 -8.639e-42 5.431e-42 9.613e-42 9.155e-42 7.61e-42 1.2322e-41 1.763e-42
-2.588e-42 8.87e-42 -8.708e-42 8.771e-42 -5.024e-42 9.69e-42 -1.0476e-41 -1.2788e-41
7.361e-42 8.03e-42 3.1e-43 5.03e-43 8.114e-42 -2.627e-42 -4.958e-42 -4.155e-42
-9.083e-42 -1.0926e-41 7.493e-42 4.422e-42 -4.76e-42 9.57e-42 6.338e-42 -1.0494e-41
1.1774e-41 1.1793e-41 2.82e-42 6.67e-42 -3.692e-42 -9.414e-42 -8.708e-42 -8.988e-42
-1.0103e-41 -3.28e-43 -7.966e-42 -4.23e-42 8.151e-42 9.672e-42 -1.0738e-41 -7.417e-42
-3.178e-42 -7.138e-42 -5.28e-43 1.5172e-41 -8.003e-42 -3.725e-42 -1.248e-41 -1.988e-42
7.536e-42 1.024e-41 5.332e-42 7.001e-42 4.401e-42 -4.235e-42 6.7e-43 -9.941e-42
2.005e-42 -8.764e-42 -2.166e-42 6.066e-42 -9.473e-42 -4.66e-42 9.417e-42 1.5728e-41
-2.543e-42 9.058e-42 -1.0127e-41 8.318e-42 6.722e-42 5.695e-42 3.566e-42 8.633e-42
-6.886e-42 -3.6e-44 -9.553e-42 -6.166e-42 -1.0342e-41 -3.359e-42 -7.41e-42 -1.911e-42
4.057e-42 -8.135e-42 -6.391e-42 2.4111e-41 1.214e-41 -8.18e-42 6.43e-42 -4.788e-42
-3.098e-42 -7.343e-42 2.173e-42 -3.079e-42 -1.4e-44 -1.68e-42 6.149e-42 -8.785e-42
5.523e-42 9.051e-42 -2.699e-42 -7.376e-42 6.562e-42 -2.783e-42 -4.864e-42 3.025e-41
1.336e-41 -5.391e-42 1.0371e-41 -1.293e-42 8.894e-42 5.444e-42 2.946e-42 8.894e-42
2.747e-42 4.626e-42 2.86e-42 1.075e-41 4.836e-42 5.007e-42 7.737e-42 9.11e-42
00000000: fab9 8a92 e412 0080 3b07 0000 f414 0080
00000010: 3e04 0080 ae04 0080 bd0d 0000 0a15 0000
00000020: d814 0080 4a07 0000 1817 0000 fa0f 0000
00000030: 3814 0080 2d02 0000 6900 0000 ae12 0080
00000040: 8d0d 0000 c612 0080 0612 0000 3f3d 0080
00000050: 1509 0000 8f0f 0080 1a19 0080 9b08 0080
00000060: 7313 0000 851d 0080 e114 0000 f215 0080
00000070: 6318 0080 a722 0000 1018 0000 c918 0000
00000080: b80f 0000 7517 0080 f509 0080 761b 0080
00000090: 2c0a 0000 9811 0000 9307 0080 091c 0080
000000a0: bb26 0080 e71a 0000 150f 0000 8d10 0000
000000b0: 5518 0000 7f1a 0000 c905 0000 4117 0000
000000c0: 4318 0000 3c23 0000 da1a 0080 810b 0000
000000d0: 5320 0080 2116 0080 c305 0080 171e 0000
000000e0: 6305 0000 aa10 0000 e804 0080 7a10 0080
000000f0: 3d38 0080 2118 0000 912a 0080 eb1e 0080
00000100: 6304 0000 cb1f 0000 c10d 0080 1417 0000
00000110: 9414 0080 eb09 0000 e30b 0000 4a14 0080
00000120: 7e00 0000 ed04 0000 a800 0000 ab1c 0000
00000130: e516 0080 b716 0000 fe0e 0000 e052 0080
00000140: 751a 0000 7918 0000 8a07 0000 5715 0000
00000150: 7f20 0080 6f05 0000 c706 0000 6505 0080
00000160: 641d 0080 ea0a 0000 fa01 0000 4e19 0000
00000170: 5217 0080 2f27 0000 9717 0000 011e 0000
00000180: 4b20 0000 f71c 0000 cd14 0000 355c 0000
00000190: 9e1b 0080 c007 0000 691b 0080 0c15 0080
000001a0: 241c 0000 f10f 0080 8206 0000 4a1a 0000
000001b0: f015 0000 fa06 0000 e702 0080 db1f 0000
000001c0: 2122 0000 2a06 0080 d81b 0080 cb0a 0000
000001d0: d30e 0080 6b08 0000 1402 0000 2703 0080
000001e0: 4e2c 0000 3006 0000 e103 0080 c502 0080
000001f0: 4409 0080 c10f 0080 7419 0000 6c18 0080
00000200: b516 0000 1518 0080 240f 0000 cc1a 0000
00000210: 8519 0000 3715 0000 5922 0000 ea04 0000
00000220: 3707 0080 ba18 0000 4618 0080 7318 0000
00000230: 010e 0080 031b 0000 341d 0080 a623 0080
00000240: 8514 0000 6216 0000 dd00 0000 6701 0000
00000250: 9e16 0000 5307 0080 d20d 0080 950b 0080
00000260: 5219 0080 751e 0080 e314 0000 540c 0000
00000270: 450d 0080 ad1a 0000 ab11 0000 411d 0080
00000280: d220 0000 e020 0000 dc07 0000 9812 0000
00000290: 4b0a 0080 3e1a 0080 4618 0080 0e19 0080
000002a0: 2a1c 0080 ea00 0080 3516 0080 cb0b 0080
000002b0: b916 0000 f61a 0000 ef1d 0080 ad14 0080
000002c0: dc08 0080 e613 0080 7901 0080 4b2a 0000
000002d0: 4f16 0080 620a 0080 ca22 0080 8b05 0080
000002e0: 0215 0000 8c1c 0000 dd0e 0000 8413 0000
000002f0: 450c 0000 ce0b 0080 de01 0000 b61b 0080
00000300: 9705 0000 6e18 0080 0a06 0080 e910 0000
00000310: 681a 0080 fd0c 0080 401a 0000 d82b 0000
00000320: 1707 0080 4019 0000 3b1c 0080 3017 0000
00000330: bd12 0000 e00f 0000 f109 0000 1118 0000
00000340: 3213 0080 1a00 0080 a11a 0080 3011 0080
00000350: d41c 0080 5d09 0080 a814 0080 5405 0080
00000360: 4f0b 0000 ad16 0080 d111 0080 3643 0000
00000370: d721 0000 cd16 0080 ed11 0000 590d 0080
00000380: a308 0080 7814 0080 0f06 0000 9508 0080
00000390: 0a00 0080 af04 0080 2411 0000 7d18 0080
000003a0: 650f 0000 3b19 0000 8607 0080 9014 0080
000003b0: 4b12 0000 c207 0080 8f0d 0080 5354 0000
000003c0: 3e25 0000 070f 0080 e91c 0000 9b03 0080
000003d0: cb18 0000 2d0f 0000 3608 0000 cb18 0000
000003e0: a807 0000 e50c 0000 f907 0000 f71d 0000
000003f0: 7b0d 0000 f50d 0000 9115 0000 6519 0000

bias f4 [16]
5.545e-42 0.2910281 -5.137e-42 -0.00024072015 6.879e-42 0.2990882 -5.338e-42 -4.6695738e-20
0.16824196 0.41510463 -0.00011537504 -0.09633069 -0.013623477 -6.475e-42 0.061649002 0.20174386
00000000: 750f 0000 a301 953e 520e 0080 d369 7cb9
00000010: 2d13 0000 1722 993e e10e 0080 af83 5c9f
00000020: 9f47 2c3e 9888 d43e 81f5 f1b8 0649 c5bd
00000030: 0135 5fbc 0d12 0080 aa83 7c3d f195 4e3e

weight f4 [1, 16]
0.0014334713 0.45599237 0.0053189727 0.0023227392 0.0015290043 0.5138531 -0.005659249 0.0052193026
1.3490506 0.33908132 -0.0016507782 -1.0486376 0.87546355 -0.00041598128 0.5806728 1.0228058
00000000: 51e3 bb3a d577 e93e c74a ae3b 1939 183b
00000010: df68 c83a e08b 033f 3971 b9bb af06 ab3b
00000020: b1ad ac3f 119c ad3e ed5e d8ba c239 86bf
00000030: 611e 603f 1018 dab9 f9a6 143f 4deb 823f
