model_new/LSTM_2_-1_10.pt (torch, 7779 bytes, 21 tensors)

weight_ih_l0 f4 [16, 1]
0.54033214 0.1789641 0.5396271 0.3456845 -0.26636222 0.03456835 -0.37467116 -0.06670488
0.3210025 0.13646002 0.20609817 0.075548366 0.471073 0.19330323 0.50203055 0.4014143
00000000: 3553 0a3f 5d42 373e 0025 0a3f 8ffd b03e
00000010: a160 88be 8b97 0d3d e6d4 bfbe 919c 88bd
00000020: 715a a43e 2dbc 0b3e 660b 533e 1ab9 9a3d
00000030: 7b30 f13e 48f1 453e 1385 003f 2d86 cd3e

weight_hh_l0 f4 [16, 4]
-0.040812045 -0.102931835 -0.12907812 0.16478214 -0.1621244 -0.046393488 -0.035289057 0.16115248
-0.00090468384 -0.06357809 -0.1062472 0.1586531 -0.05859611 -0.047183134 -0.031994816 -0.007854723
-0.07926442 -0.15895645 -0.04629276 0.062197786 -0.06697338 0.055374995 -0.1252354 0.03080333
0.06303275 0.010556342 -0.07395915 0.07282292 -0.040948175 -0.11477873 -0.06989439 -0.11094394
-0.53596455 -1.2936528 0.22833985 -0.35691065 0.26566863 0.012167428 -0.4464465 0.39278045
-1.0964386 -1.0488583 -0.55887294 0.20766874 -0.6437109 -0.87688905 -1.0082755 0.105072975
-0.0417234 -0.12479322 -0.14720395 0.19655947 -0.2946767 -0.135389 -0.03861569 0.25544843
-0.014315627 -0.08903956 -0.15285368 0.22099622 -0.061435793 -0.075454175 -0.008089466 -0.000808481
00000000: 882a 27bd edcd d2bd 0e2d 04be a6bc 283e
00000010: f003 26be 1907 3ebd 428b 10bd 2805 253e
00000020: 4e28 6dba 3b35 82bd 2298 d9bd f575 223e
00000030: 7a02 70bd 1a43 41bd ff0c 03bd 19b1 00bc
00000040: 6255 a2bd 7bc5 22be 7a9d 3dbd 1bc3 7e3d
00000050: 5729 89bd e4d0 623d b53d 00be 4457 fc3c
00000060: 5017 813d 82f4 2c3c e577 97bd 2f24 953d
00000070: 46b9 27bd 1c11 ebbd ca24 8fbd 9436 e3bd
00000080: f934 09bf 6a96 a5bf ecd1 693e febc b6be
00000090: b805 883e e459 473c a394 e4be 851a c93e
000000a0: 1a58 8cbf fd40 86bf 4c12 0fbf 1da7 543e
000000b0: 3dca 24bf cd7b 60bf 2c0f 81bf 8030 d73d
000000c0: 28e6 2abd 9693 ffbd a2bc 16be e346 493e
000000d0: dddf 96be 6aa3 0abe 7c2b 1ebd 23ca 823e
000000e0: 178c 6abc 5f5a b6bd ad85 1cbe d54c 623e
000000f0: 19a4 7bbd b887 9abd ae89 04bc 3ef0 53ba

bias_ih_l0 f4 [16]
0.39074266 0.18796627 0.32761753 0.07291789 -0.04131875 0.112028 0.12898652 -0.0027697964
-0.42062744 -0.45218402 -0.6730619 0.007960642 0.43745428 0.22194165 0.43372884 0.066521004
00000000: 6c0f c83e 3b7a 403e 7cbd a73e fa55 953d
00000010: d93d 29bd f06e e53d 0b15 043e 7985 35bb
00000020: 7b5c d7be aa84 e7be c94d 2cbf 5a6d 023c
00000030: 02fa df3e ac44 633e b511 de3e 2a3c 883d

bias_hh_l0 f4 [16]
0.39074266 0.1879665 0.32761753 0.072913274 -0.041558985 0.11195075 0.12865685 -0.0027464265
-0.4308845 -0.45206094 -0.6341796 -0.043151893 0.43745428 0.2219411 0.43372884 0.06652307
00000000: 6c0f c83e 4a7a 403e 7cbd a73e 8e53 953d
00000010: c139 2abd 6f46 e53d 9fbe 033e 64fd 33bb
00000020: e59c dcbe 8874 e7be 9859 22bf 0ac0 30bd
00000030: 02fa df3e 8744 633e b511 de3e 3f3d 883d

weight_ih_l1 f4 [16, 4]
0.16927065 0.18072523 -0.019236375 0.23563299 -0.026042879 -0.029607058 -0.115263425 0.18986802
0.26600713 0.10531622 0.37302306 0.30449316 0.15391557 0.26233312 0.2503499 0.104163066
-0.19408588 -0.18393809 -0.1453227 -0.0108047025 -0.108814955 -0.078555144 0.009817322 -0.019446697
0.07954429 -0.00909644 -0.2623288 -0.07519949 0.22833575 0.28673187 -0.030552765 -0.30884677
0.78419566 0.5479935 1.2380636 0.63553786 1.12795 0.29031765 0.722432 0.23521201
0.155994 0.12837003 1.4005255 1.1289045 0.51586145 0.65334 0.7713564 0.097139426
0.12700894 0.16968374 -0.00081468467 0.23236635 -0.0088422885 0.0001469588 -0.08277801 0.23511568
0.21257453 0.14202058 0.13937601 0.052280463 0.16740212 0.2541725 0.13350236 0.08540599
00000000: 4955 2d3e 0910 393e 9a95 9dbc c649 713e
00000010: e057 d5bc 808a f2bc 3b0f ecbd c36c 423e
00000020: 1632 883e 08b0 d73d e1fc be3e 87e6 9b3e
00000030: 0b9c 1d3e 8750 863e dd2d 803e 7253 d53d
00000040: 73be 46be 445a 3cbe 79cf 14be 3506 31bc
00000050: 60da debd 85e1 a0bd d5d8 203c ae4e 9fbc
00000060: 1ee8 a23d 3c09 15bc f64f 86be 3102 9abd
00000070: d9d0 693e 85ce 923e cb49 fabc 2a21 9ebe
00000080: 0cc1 483f 4d49 0c3f de78 9e3f 9cb2 223f
00000090: aa60 903f 84a4 943e 4ef1 383f 6bdb 703e
000000a0: e4bc 1f3e 6f73 033e 6b44 b33f f17f 903f
000000b0: 7f0f 043f 4a41 273f 9d77 453f 09f1 c63d
000000c0: a20e 023e 93c1 2d3e 9090 55ba 72f1 6d3e
000000d0: 3fdf 10bc f418 1a39 8487 a9bd 2ac2 703e
000000e0: 23ad 593e d86d 113e 96b8 0e3e 0a24 563d
000000f0: 766b 2b3e e622 823e d8b4 083e 56e9 ae3d

weight_hh_l1 f4 [16, 4]
0.056833476 0.09874254 -0.37966475 0.03806879 -0.061306413 -0.070287175 -0.38084194 0.027885888
-0.025593342 0.039253525 -0.25895363 -0.06265631 0.03125994 0.08140218 -0.048339337 -0.0015727946
-0.07182413 -0.094045065 -0.11275597 -0.03906639 0.021041693 -0.094643556 -0.06475675 0.0961851
0.08001428 0.08830552 0.031998526 -0.1538224 -0.016822265 0.106781475 0.028734801 -0.10011265
-0.8069023 -0.7530676 -0.8718383 -0.198704 0.31145847 -0.27937704 -0.03973376 0.26233688
0.3193601 -0.079998106 0.07390121 -0.041863147 -1.1262925 -0.37223867 -1.0057387 -0.4447876
0.084828876 0.07683059 -0.39013076 0.0695332 0.007007832 -0.08009452 -0.51058614 0.11861905
-0.16874886 0.06860885 -0.15090495 -0.31455457 0.05419155 0.08887687 -0.19519937 0.0023881684
00000000: 38ca 683d 8739 ca3d 6b63 c2be 05ee 1b3d
00000010: 6f1c 7bbd b9f2 8fbd b7fd c2be f270 e43c
00000020: 21a9 d1bc 4ec8 203d 9295 84be f451 80bd
00000030: 6c0a 003d 30b6 a63d 78ff 45bd 3b26 ceba
00000040: 8818 93bd b39a c0bd 9aec e6bd 1404 20bd
00000050: a15f ac3c 7bd4 c1bd 309f 84bd b2fc c43d
00000060: 87de a33d 86d9 b43d e310 033d 9f83 1dbe
00000070: d9ce 89bc 3fb0 da3d 3f65 eb3c dc07 cdbd
00000080: 2691 4ebf 0ac9 40bf cb30 5fbf 1079 4bbe
00000090: 7c77 9f3e 820a 8fbe debf 22bd 0551 863e
000000a0: 2b83 a33e 0cd6 a3bd 8559 973d b178 2bbd
000000b0: 5a2a 90bf 1196 bebe 0cbc 80bf 33bb e3be
000000c0: c3ba ad3d 5b59 9d3d 38bf c7be 6c67 8e3d
000000d0: f5a1 e53b 9808 a4bd c6b5 02bf 8bee f23d
000000e0: 80cc 2cbe cc82 8c3d d486 1abe 4c0d a1be
000000f0: f5f7 5d3d 1405 b63d 58e2 47be d182 1c3b

bias_ih_l1 f4 [16]
0.73095393 0.4300716 0.49381822 0.6229494 -0.21003355 -0.19070956 0.24540552 0.14970326
-0.3368631 0.07013049 -0.3376468 -0.37956247 0.75133413 0.45439097 0.6877633 0.66399044
00000000: cc1f 3b3f 5832 dc3e bed5 fc3e 9d79 1f3f
00000010: 0913 57be 5e49 43be 964b 7b3e d04b 193e
00000020: 5279 acbe 93a0 8f3d 0be0 acbe 0356 c2be
00000030: 6f57 403f efa5 e83e 4111 303f 47fb 293f

bias_hh_l1 f4 [16]
0.73095405 0.44644374 0.4922813 0.6225356 -0.21014461 -0.18397643 0.24513336 0.14781319
-0.33884984 0.095308155 -0.3369667 -0.37530735 0.75133383 0.4564773 0.6894977 0.66433215
00000000: ce1f 3b3f 4694 e43e 4b0c fc3e 7e5e 1f3f
00000010: 2630 57be 5164 3cbe 3d04 7b3e 575c 173e
00000020: ba7d adbe ec30 c33d e686 acbe 4928 c0be
00000030: 6a57 403f 65b7 e93e ec82 303f ac11 2a3f

weight_ih_l2 f4 [16, 4]
0.1309156 0.0746359 -0.02569746 0.054957654 0.0073741814 0.052208 0.019123262 -0.11317208
0.031133495 0.11869906 -0.425939 -0.03543764 -0.033856466 -0.024517613 -0.37465927 -0.010661518
-0.0337018 -0.0046601426 -0.0852358 -0.070437156 0.019935168 0.16124138 0.105129935 -0.035752345
-0.03562141 0.024704814 -0.2088839 0.12080138 -0.0011992415 -0.004515498 -0.3423193 0.23012891
-0.2860173 -0.34120825 -0.2768905 -0.8944987 0.18203041 0.10296617 0.25001344 0.51615214
1.7040718 0.716559 0.29334676 1.1961924 -0.5641924 -1.0070268 -0.16222917 -0.8588026
0.12489637 0.05067147 -0.1905022 0.05541758 0.05045768 0.0685448 0.14241716 -0.16182344
0.030804235 0.11636936 -0.42842478 -0.0040032538 0.015385443 -0.019168723 -0.3994902 0.046574496
00000000: bd0e 063e b5da 983d 7b83 d2bc 471b 613d
00000010: 1ea3 f13b 0ed8 553d 63a8 9c3c c3c6 e7bd
00000020: ac0b ff3c 7e18 f33d ad14 dabe 0f27 11bd
00000030: 14ad 0abd 29d9 c8bc 57d3 bfbe a6ad 2ebc
00000040: e60a 0abd 1cb4 98bb 1b90 aebd 5b41 90bd
00000050: 144f a33c 761c 253e 5d4e d73d 0d71 12bd
00000060: c1e7 11bd c061 ca3c a9e5 55be b766 f73d
00000070: de2f 9dba bef6 93bb 7a44 afbe eaa6 6b3e
00000080: dc70 92be d9b2 aebe 97c4 8dbe defd 64bf
00000090: 2e66 3a3e eddf d23d c301 803e 8c22 043f
000000a0: 061f da3f 6970 373f 8c31 963e d51c 993f
000000b0: ea6e 10bf 41e6 80bf 671f 26be 7dda 5bbf
000000c0: abc9 ff3d e38c 4f3d 0213 43be 8bfd 623d
000000d0: b6ac 4e3d 3761 8c3d ced5 113e 0bb5 25be
000000e0: 2a59 fc3c 0f53 ee3d 7e5a dbbe ba2d 83bb
000000f0: 3a13 7c3c ba07 9dbc fb89 ccbe e6c4 3e3d

weight_hh_l2 f4 [16, 4]
0.037694294 -0.00094672554 0.04108548 0.0064214645 0.019494412 -0.14104053 0.073085144 -0.06202228
0.12326296 -0.45425707 -0.15798621 -0.16404563 0.10584361 -0.20349847 0.032142255 -0.054315798
-0.07266332 0.08686679 0.00085103896 0.03685573 -0.008325819 -0.17382129 0.09382357 -0.077912934
0.103648275 0.06717677 0.1330507 0.09050996 0.11981295 0.10404334 -0.08686849 0.020832088
0.23907885 -0.1952532 -0.67765 0.2133046 0.028697923 0.4818277 -0.16820787 0.2428719
0.5976189 0.121849686 -1.3057495 0.8327873 -0.3917268 -0.29965693 0.1908823 -0.39719242
0.045800585 -0.03445037 -0.0062327944 0.0415531 0.040913988 -0.2180628 0.24297933 -0.05552088
0.18798189 -0.40119624 0.074033566 -0.17522217 0.1845928 -0.19958287 0.28191856 -0.13859457
00000000: 5565 1a3d ad2d 78ba 4049 283d 266b d23b
00000010: bfb2 9f3c ee6c 10be aaad 953d 130b 7ebd
00000020: 4a71 fc3d 6294 e8be 23c7 21be 94fb 27be
00000030: 89c4 d83d e761 50be 99a7 033d 3e7a 5ebd
00000040: 82d0 94bd 37e7 b13d 4218 5f3a 09f6 163d
00000050: 0469 08bc 35fe 31be 9226 c03d d190 9fbd
00000060: 8c45 d43d f993 893d 713e 083e 495d b93d
00000070: 7e60 f53d ad14 d53d 1be8 b1bd 0ea8 aa3c
00000080: 16d1 743e 74f0 47be 787a 2dbf 856c 5a3e
00000090: e817 eb3c 1fb2 f63e af3e 2cbe 69b3 783e
000000a0: 8dfd 183f 548c f93d cd22 a7bf 8c31 553f
000000b0: 6a90 c8be a26c 99be a676 433e ce5c cbbe
000000c0: 6599 3b3d d51b 0dbd 783c ccbb 9533 2a3d
000000d0: 6d95 273d db4b 5fbe 93cf 783e dd69 63bd
000000e0: 537e 403e 9869 cdbe e99e 973d 716d 33be
000000f0: e505 3d3e 745f 4cbe a157 903e bceb 0dbe

bias_ih_l2 f4 [16]
0.43855876 0.2931634 0.74193853 0.49329123 0.16392721 0.40034097 -0.031858847 -0.06412266
0.1783235 -0.39875716 0.10385455 -0.20733014 0.47832528 0.3381823 0.76486284 0.54724693
00000000: c68a e03e 8319 963e afef 3d3f ab90 fc3e
00000010: 89dc 273e 7ef9 cc3e 6c7e 02bd be52 83bd
00000020: 709a 363e e629 ccbe b2b1 d43d 5a4e 54be
00000030: 0de7 f43e 3b26 ad3e 0dce 433f 6018 0c3f

bias_hh_l2 f4 [16]
0.4387089 0.2981865 0.74193794 0.48441732 0.1645268 0.43950772 -0.028883412 0.028513517
-0.18944119 -0.12436602 0.08697748 -0.12703457 0.47827998 0.45843524 0.7648588 0.5418697
00000000: 749e e03e e7ab 983e a5ef 3d3f 8c05 f83e
00000010: b779 283e 2807 e13e e89c ecbc 2e95 e93c
00000020: dffc 41be 9db3 febd 4021 b23d 5a15 02be
00000030: 1de1 f43e 06b8 ea3e c9cd 433f f9b7 0a3f

weight_ih_l3 f4 [16, 4]
0.11140783 -0.34277833 -0.0014623794 -0.09111746 -0.043761924 -0.1767621 0.10094058 -0.1541889
0.034839455 -0.26792458 0.17625917 -0.15638931 0.0078995805 -0.14529225 -0.0074883476 0.0027853854
-0.11050449 0.31301045 -0.039363068 -0.10868906 -0.07856032 -0.17752063 0.21863641 -0.16784494
-0.00041821302 -0.14009677 -0.26088816 -0.015476556 0.049904294 -0.16837831 -0.035962407 0.012603695
-0.47633272 0.3941947 1.5727946 -1.4358574 -0.80864364 0.6505457 0.31176424 -0.40934634
-0.42257372 0.21378167 -0.8063505 0.29040256 0.35076952 -0.022257246 -0.22468704 0.7425704
0.1027996 -0.2952645 -0.08290825 -0.17958634 -0.3286463 0.10696672 0.15761821 -0.19392987
-0.08090665 -0.31760806 -0.087908044 -0.16849194 -0.04314777 -0.25970536 -0.022584684 0.040501416
00000000: ca29 e43d a480 afbe 4fad bfba ca9b babd
00000010: b43f 33bd 2001 35be efb9 ce3d b2e3 1dbe
00000020: d1b3 0e3d 692d 89be 497d 343e 8524 20be
00000030: 3e6d 013c 7ec7 14be d060 f5bb 038b 363b
00000040: 2e50 e2bd e842 a03e 2b3b 21bd 5f98 debd
00000050: 3ce4 a0bd f8c7 35be 39e2 5f3e 8bdf 2bbe
00000060: 9a43 dbb9 8775 0fbe 2293 85be 6191 7dbc
00000070: 7268 4c3d 5d6b 2cbe 514d 13bd ba7f 4e3c
00000080: e2e1 f3be e3d3 c93e 5551 c93f 2dca b7bf
00000090: 4503 4fbf 2a8a 263f 909f 9f3e d895 d1be
000000a0: 955b d8be 95e9 5a3e fd6c 4ebf a5af 943e
000000b0: 1098 b33e d454 b6bc 5c14 66be 1819 3e3f
000000c0: 9988 d23d e92c 97be cdcb a9bd 7be5 37be
000000d0: 5444 a8be 5e11 db3d ab66 213e 8d95 46be
000000e0: 63b2 a5bd 869d a2be 2209 b4bd 2789 2cbe
000000f0: b7bb 30bd 1af8 84be 8403 b9bc d0e4 253d

weight_hh_l3 f4 [16, 4]
-0.04134818 -0.074961215 0.16279386 -0.2727823 0.0955598 0.015906282 0.08839491 -0.12557276
0.054996032 -0.042774566 0.08637107 -0.21258393 -0.0075032767 -0.008036704 0.050301414 -0.09796396
-0.08794655 0.32973984 0.0015344082 0.10293926 0.19686282 -0.0960959 0.03323012 -0.18222794
0.24007381 0.08391499 -0.18938074 -0.029184137 0.020389946 -0.024916202 0.05302227 -0.11831772
0.35491604 -0.15486982 -1.1396594 0.67261416 0.38950962 0.9145538 -0.19375655 0.06187427
0.4375024 0.5230084 0.39796188 -0.5874142 -0.20128933 0.04682867 -0.13709955 0.66567975
0.04942822 0.05450977 0.17881474 -0.2420472 0.44053265 0.19323443 -0.04429175 -0.2660977
0.3073203 -0.003608748 0.1669941 -0.30103368 0.19565031 0.066000596 0.10985678 -0.20233248
00000000: b65c 29bd 4485 99bd 6fb3 263e 1faa 8bbe
00000010: dbb4 c33d e44d 823c 6408 b53d 2596 00be
00000020: 8543 613d 6234 2fbd 51e3 b03d 9aaf 59be
00000030: 0cde f5bb 61ac 03bc db08 4e3d 54a1 c8bd
00000040: 521d b4bd a9d3 a83e 321e c93a d2d1 d23d
00000050: 6896 493e edcd c4bd 4e1c 083d f699 3abe
00000060: e9d5 753e 9fdb ab3d 06ed 41be 9213 efbc
00000070: d108 a73c 101d ccbc e12d 593d 9050 f2bd
00000080: 8eb7 b53e 3296 1ebe 5ce0 91bf 7130 2c3f
00000090: ce6d c73e 3320 6a3f 1e68 46be e06f 7d3d
000000a0: 5100 e03e e1e3 053f a9c1 cb3e c760 16bf
000000b0: ca1e 4ebe 6bcf 3f3d d363 0cbe fd69 2a3f
000000c0: 3f75 4a3d a345 5f3d 361b 373e 39db 77be
000000d0: 7f8d e13e 3fdf 453e 446b 35bd f53d 88be
000000e0: 1659 9d3e bf80 6cbb 8000 2b3e 1621 9abe
000000f0: 8e58 483e 522b 873d 97fc e03d 3f30 4fbe

bias_ih_l3 f4 [16]
0.6910612 0.47784057 0.42705 0.4027765 -0.40794373 0.40620732 0.3040892 0.39457515
0.2967701 -0.34776527 0.1012994 -0.42834514 0.6717393 0.32789433 0.5515979 0.49733
00000000: 63e9 303f 85a7 f43e 4ca6 da3e b938 ce3e
00000010: 00de d0be 68fa cf3e 94b1 9b3e c105 ca3e
00000020: 40f2 973e 4a0e b2be 0f76 cf3d 0e50 dbbe
00000030: 1bf7 2b3f c4e1 a73e 8535 0d3f 0aa2 fe3e

bias_hh_l3 f4 [16]
0.68552786 0.51624763 0.43332168 0.40418673 -0.47548136 0.4049784 0.2985157 0.39448735
0.21464232 0.07318189 0.21800275 -0.10776413 0.63935167 0.33012843 0.5642078 0.49235657
00000000: c17e 2f3f ce28 043f 57dc dd3e 90f1 ce3e
00000010: 4b72 f3be 5459 cf3e 0dd7 983e 3ffa c93e
00000020: 32cb 5b3e 63e0 953d 1d3c 5f3e 71b3 dcbd
00000030: 8dac 233f 9806 a93e ec6f 103f 2916 fc3e

weight_ih_l4 f4 [16, 4]
-0.0519134 -0.06249271 0.1250659 -0.044928223 -0.028887313 0.15836814 0.28965428 -0.18361555
-0.09177624 0.22048873 0.20634675 -0.21598496 0.2672924 0.110765316 0.06988078 -0.15669687
-0.108696066 0.0321034 0.3369792 -0.08607292 0.1862412 0.13234678 0.24165067 -0.17521665
0.45556736 0.4170187 0.4059975 -0.1184414 0.21275494 0.09438212 0.1769297 -0.18941398
0.7955413 0.20964785 0.77061087 -0.36190358 -0.54132634 -0.42465776 -0.5975177 -0.111493036
1.4168448 0.63358974 0.22847056 -0.22960398 0.044827815 0.6294432 0.52630895 0.09925459
0.031198401 0.26471183 0.5266874 -0.15960021 0.110266395 0.29142955 0.48164052 -0.27811
0.09828958 0.1621621 0.3123837 -0.35550627 0.096344754 0.18306448 0.3802917 -0.3520788
00000000: 25a3 54bd 5bf8 7fbd 4611 003e a806 38bd
00000010: 16a5 ecbc 422b 223e 914d 943e b705 3cbe
00000020: 2ef5 bbbd ccc7 613e 904c 533e 292b 5dbe
00000030: 8dda 883e edd8 e23d a81d 8f3d 2575 20be
00000040: 0b9c debd db7e 033d 8a88 ac3e 0047 b0bd
00000050: 03b6 3e3e ea85 073e 4673 773e fe6b 33be
00000060: 2040 e93e 7a83 d53e e8de cf3e 6891 f2bd
00000070: 6edc 593e 6a4b c13d 0f2d 353e bdf5 41be
00000080: 98a8 4b3f edad 563e c146 453f 6d4b b9be
00000090: 5d94 0abf be6c d9be ecf6 18bf 7656 e4bd
000000a0: 2c5b b53f f032 223f 30f4 693e 4e1d 6bbe
000000b0: 5f9d 373d 3123 213f 2fbc 063f fe45 cb3d
000000c0: ca93 ff3c 4f88 873e fcd4 063f 3d6e 23be
000000d0: 59d3 e13d 4136 953e 9699 f63e 6f64 8ebe
000000e0: 0c4c c93d d20d 263e c2f0 9f3e eb04 b6be
000000f0: 6650 c53d 4175 3b3e 98b5 c23e ac43 b4be

weight_hh_l4 f4 [16, 4]
0.14793593 -0.1165921 -0.010930521 0.032016512 0.12587437 -0.119495 0.10300376 0.09421607
0.15186976 -0.120289445 0.25459838 0.041080542 0.124648556 -0.12026845 0.3725285 0.18076362
0.27348343 -0.1853403 0.06332483 0.09966757 0.16389214 -0.14996904 0.26635164 0.07975008
0.08023273 -0.19400926 0.24690098 0.37431544 0.1761648 -0.16994967 0.43775898 0.27263942
0.51326036 -0.16572696 -0.009929808 0.042748794 -0.14208338 0.13465819 -0.15354599 0.321834
-0.0960201 0.08404008 -0.6186167 -0.3390177 0.020072818 -0.3202199 0.22016498 0.14062561
0.32300735 -0.38877067 0.22922733 0.35190585 0.36017492 -0.38228294 0.3867254 0.3643116
0.38274902 -0.35699683 0.3744497 0.31301758 0.39591238 -0.38355842 0.57494485 0.386355
00000000: 847c 173e d7c7 eebd ee15 33bc bf23 033d
00000010: 36e5 003e cbb9 f4bd a3f3 d23d 5bf4 c03d
00000020: bf83 1b3e 505a f6bd b85a 823e 1244 283d
00000030: be47 ff3d 4e4f f6bd 0ebc be3e 191a 393e
00000040: 0506 8c3e d9c9 3dbe 73b0 813d 831e cc3d
00000050: 57d3 273e 7c91 19be 3e5f 883e 0354 a33d
00000060: 0f51 a43d 5daa 46be 9cd3 7c3e 46a6 bf3e
00000070: 8c64 343e 4907 2ebe f221 e03e 6597 8b3e
00000080: 0865 033f 54b4 29be a2b0 22bc 5c19 2f3d
00000090: 4e7e 11be d6e3 093e 293b 1dbe 6dc7 a43e
000000a0: 30a6 c4bd 351d ac3d aa5d 1ebf ba93 adbe
000000b0: c06f a43c ddf3 a3be ee72 613e 2900 103e
000000c0: 3861 a53e f30c c7be 92ba 6a3e 012d b43e
000000d0: d968 b83e 97ba c3be df00 c63e 0d87 ba3e
000000e0: aef7 c33e 4ac8 b6be dfb7 bf3e d743 a03e
000000f0: 07b5 ca3e c561 c4be 962f 133f 53d0 c53e

bias_ih_l4 f4 [16]
0.41330978 0.23491524 0.36640206 0.19937736 0.3220128 0.28270587 -0.13589329 0.17766039
0.3812424 -0.3176644 0.19677866 -0.125702 0.6256276 0.42241046 0.60064185 0.43106616
00000000: 579d d33e 9f8d 703e 0d99 bb3e 9429 4c3e
00000010: ddde a43e d3be 903e 9c27 0bbe 9bec 353e
00000020: 3432 c33e e9a4 a2be 5880 493e 06b8 00be
00000030: 2129 203f 2f46 d83e aac3 193f b4b4 dc3e

bias_hh_l4 f4 [16]
0.39638808 -0.0005786586 0.3814093 0.19747096 0.31699735 0.21609513 -0.09440118 0.20215504
0.13500565 -0.17658564 0.08463329 0.1581187 0.6340046 0.4743429 0.60108507 0.4336829
00000000: 61f3 ca3e 1fb1 17ba 1448 c33e d435 4a3e
00000010: 7a4d a23e 0b48 5d3e 6855 c1bd bb01 4f3e
00000020: ec3e 0a3e ded2 34be 3854 ad3d dee9 213e
00000030: 204e 223f 13dd f23e b6e0 193f af0b de3e

weight f4 [1, 4]
3.2259529 -3.0438304 3.0981836 3.1948793
00000000: 0376 4e40 1ece 42c0 a448 4640 e778 4c40
