model_new/LSTM_2_-1_6.pt (torch, 7587 bytes, 21 tensors)

weight_ih_l0 f4 [16, 1]
000000 3d 7e 81 3e 81 f4 65 3e e8 b9 9a 3e cd 80 48 3e
       0.25291625 0.22456552 0.3021996 0.19580384
000010 65 0a 01 bf 6a 72 c4 3e 05 eb 1b bf 6e e6 1b bf
       -0.50406486 0.3836854 -0.60905486 -0.6089848
000020 56 48 db be 2a 94 10 bd 84 31 42 3e 64 a2 13 be
       -0.42828625 -0.03529755 0.18964201 -0.14417416
000030 ef 13 73 3e 47 78 5b 3e 98 a7 8b 3e db 98 2f 3e
       0.23738073 0.21432601 0.272763 0.17148153

weight_hh_l0 f4 [16, 4]
000000 23 43 fb 3d c6 b7 93 3d 27 bf 63 be fd f9 77 3e
       0.12268665 0.072127864 -0.22240888 0.24216457
000010 17 fa 72 bd 75 52 e2 3c 68 a1 f5 bc e4 ee 2d 3d
       -0.059320536 0.02762721 -0.029984191 0.042464152
000020 27 51 f2 3b a1 04 ae 3d 83 dc 42 bd 4c ae f6 3d
       0.007394928 0.08496977 -0.047573578 0.12044963
000030 9e 4e 8b bd 31 58 fe 3d b6 1e 99 bb 48 07 ae 3d
       -0.068021044 0.12419165 -0.0046728505 0.084974825
000040 45 b4 7c bd 8e 77 e9 bc 71 5b e6 bb 0b 85 34 bd
       -0.061695356 -0.02849939 -0.0070299436 -0.044072192
000050 fc ce 8d bd 15 92 75 3d 9b 31 5a 3b 93 ba bb 3c
       -0.06924245 0.059953768 0.0033293727 0.022916114
000060 e7 4d db 3c ff ef 7a bc 06 0a 20 bb f1 d0 7b 3b
       0.026770545 -0.015316009 -0.0024420037 0.00384241
000070 4c dd 03 bd e3 7c 29 3d 39 8d 86 bc 90 42 19 3d
       -0.032193467 0.041378867 -0.016424762 0.037416995
000080 98 43 2a bf 7a 04 03 3f 05 53 0f 3f 68 8b 82 be
       -0.6650939 0.51178706 0.5598605 -0.25496984
000090 fd ab 37 bf 1f 89 18 3e 7d f7 5b 3e a6 16 2d be
       -0.7174681 0.14896058 0.21481128 -0.16903171
0000a0 5c 77 10 3f 26 d2 c0 bd 53 13 b4 be 91 a8 54 3f
       0.5643213 -0.09415083 -0.35170993 0.8306971
0000b0 d5 af cc be 47 e9 13 3f 2c 5c cc bd 10 75 07 bf
       -0.399779 0.5777783 -0.09978518 -0.52913
0000c0 51 73 06 3e 71 72 93 3d 24 3d 6d be 84 f1 84 3e
       0.13129927 0.07199562 -0.23167855 0.25965512
0000d0 78 1c 9c be c5 b0 16 3e 2d 59 9f 3d 15 20 3f bd
       -0.3049047 0.1471587 0.07780681 -0.046661455
0000e0 9e 52 9d 3c 6b 6b ec 3d 55 90 b1 bd b9 cb 31 3e
       0.019204434 0.11543926 -0.08670107 0.1736287
0000f0 e2 5b 67 bd 56 6b 45 3e fc 8a 91 bd d7 5c 2f 3e
       -0.05648411 0.19279227 -0.07106587 0.1712526

bias_ih_l0 f4 [16]
000000 5a a7 d3 3e 48 e3 b8 3c fa dc 6e 3e 9e f9 83 3e
       0.41338617 0.022569314 0.23326483 0.2577638
000010 ec ac 90 bd 04 bd 7f 3d 88 0d 92 3c e8 b2 ca 3d
       -0.07064232 0.06243612 0.017828718 0.09897405
000020 0c 05 01 3f 14 ef 8d 3e aa 6e 2b bf 0a c7 1a 3f
       0.50398326 0.27721465 -0.66965735 0.6045996
000030 af 64 e6 3e a6 00 32 3e 1a a0 a8 3e dc a6 e2 3e
       0.4499869 0.1738306 0.32934648 0.4426793

bias_hh_l0 f4 [16]
000000 5a a7 d3 3e 6b 79 b6 3c 95 bb 6e 3e 00 e4 83 3e
       0.41338617 0.022274693 0.23313744 0.25759888
000010 ec ac 90 bd 0c 0e 7d 3d 8a 44 92 3c 72 b2 ca 3d
       -0.07064232 0.061780974 0.017854948 0.09897317
000020 dc 59 ff 3e 99 7f 72 3e 2b 45 2a bf 67 15 15 3f
       0.49873245 0.23681487 -0.6651179 0.5823578
000030 af 64 e6 3e 96 fa 81 3e 7c a0 a8 3e 8d a6 e2 3e
       0.4499869 0.25386494 0.3293494 0.44267693

weight_ih_l1 f4 [16, 4]
000000 04 d2 3c bd 12 5d db 3d 30 8b ff bc 86 8f 4c 3d
       -0.046098724 0.10711111 -0.0311943 0.049941562
000010 20 93 0c be c5 8a 30 3e f8 db ee 3d 27 33 c0 bd
       -0.13727999 0.17240436 0.116630495 -0.093847565
000020 6b 4e 4b be 3e e4 b1 3e a8 63 02 3e ca b4 b4 3d
       -0.19854133 0.34744447 0.12733328 0.08823545
000030 7b 36 07 be 81 be 29 bd 4e 67 18 3e fc 69 b8 bd
       -0.13204376 -0.041441444 0.14883158 -0.0900459
000040 19 cb c0 3b 07 d5 8e 3d ff 6c 41 bd 21 c8 13 3d
       0.005883586 0.069742255 -0.047223087 0.03607953
000050 0b 0f c3 3c 50 20 11 3d 65 92 ab bd 3e fb 16 be
       0.023810884 0.035431206 -0.08377532 -0.14744279
000060 a3 4b c6 3d 40 28 b4 bc 4d 18 3a 3d 44 66 72 bd
       0.09682395 -0.021991849 0.04543333 -0.05917956
000070 c3 9e 01 ba 24 7c 1e bb 00 78 a9 bd d7 16 08 3c
       -0.0004944617 -0.002418288 -0.08274841 0.008306227
000080 ed c9 2e bc 0f a6 88 be 1c f9 28 3e 1f 14 2f be
       -0.01066826 -0.26689193 0.16501278 -0.1709752
000090 be b3 3a 3f 52 ea 0b 3f fb ca 25 be 10 03 2c 3f
       0.72930515 0.5465442 -0.16190712 0.67192173
0000a0 d9 de 66 bf ac 6d e7 be ba 74 72 3f a3 75 46 bf
       -0.9018379 -0.4520086 0.9470936 -0.7752325
0000b0 a6 57 b5 3e 3c 52 07 3e 15 7a 37 bf 83 3f 02 3f
       0.35418433 0.13214964 -0.7167066 0.5087816
0000c0 a4 b4 6e 3e b2 8c a7 3d 84 09 48 be 70 74 f3 3d
       0.23311096 0.081811324 -0.1953488 0.11887443
0000d0 e1 68 01 be 8c d4 a9 3e 18 94 d2 3c fa 60 55 bd
       -0.12637664 0.33169973 0.025705382 -0.052094437
0000e0 ff 94 23 be 3c b0 c6 3e 11 4c cc 3d d8 f6 89 3d
       -0.15974806 0.3880633 0.09975446 0.06736535
0000f0 5a 43 b6 bd 5a 70 89 3d be ee 6c 3d 26 61 41 bd
       -0.08899565 0.067108825 0.05784487 -0.04721179

weight_hh_l1 f4 [16, 4]
000000 87 f3 e8 bd b7 cf 50 bd da 7c 88 3d 07 d8 36 3c
       -0.11374574 -0.050979342 0.066644385 0.011159903
000010 9d 5b 21 be bc ea 2e bc 0e 5b b5 3c 71 9b 6b 3d
       -0.15757604 -0.010676082 0.022138145 0.057521287
000020 ba 8a bc be 9f 9c 64 3c 7f b6 2c ba d5 04 50 3e
       -0.3682459 0.013953357 -0.00065884733 0.20314343
000030 35 22 05 bb b5 82 c4 3d 24 20 c6 bd f1 a7 74 3d
       -0.0020314578 0.09595243 -0.09674099 0.059730474
000040 d4 51 df bd dc 71 0b bd 93 21 3a 3d 7c 62 6b 3c
       -0.10904279 -0.03404413 0.045442175 0.014366742
000050 6c 05 54 3d a1 f4 ec bd cd 5d 76 3e d8 ef fe bd
       0.051762983 -0.11570097 0.2405922 -0.1244809
000060 89 db a8 3d 88 ea ae bd 16 d4 25 be 8e 09 8a bd
       0.08244998 -0.08540827 -0.16194186 -0.06740104
000070 68 84 a9 3b 81 07 8d bc fb 89 a7 3d eb 35 1d bc
       0.0051732548 -0.017215492 0.081806146 -0.009595375
000080 1d 2d 62 3e 73 59 e5 3d 57 92 f9 bd 33 18 cc bc
       0.22087522 0.11198702 -0.12186115 -0.024913883
000090 47 0e c3 bd a3 f3 d1 be 97 ac 40 be a5 23 d5 3c
       -0.095242076 -0.41006193 -0.18815838 0.026017973
0000a0 7f a0 47 3e 92 70 91 3f 0d 0d 5b bf bc 9b 80 3e
       0.19494818 1.1362479 -0.8556679 0.25118816
0000b0 69 71 17 3c 5d 56 71 be 49 b1 15 3e e6 8e 06 bd
       0.009243348 -0.23568101 0.1461841 -0.032851122
0000c0 9e 42 df bd 30 6e cb bd 54 11 a7 3d c0 e9 be bc
       -0.10901378 -0.09933126 0.08157602 -0.02330482
0000d0 10 88 68 be 61 5f 0b be 8f fd c1 3d a4 0d 7a bc
       -0.22708154 -0.13610603 0.094721906 -0.015262041
0000e0 53 d8 c2 be 96 bf 3c 3b 22 d9 82 bc fd 7f 45 3e
       -0.38055667 0.0028800718 -0.015972678 0.19287105
0000f0 da 79 82 bd cf bf c8 3c ee ac 91 3b 2d b3 43 3d
       -0.063708976 0.024505524 0.0044456637 0.047778297

bias_ih_l1 f4 [16]
000000 64 87 8d 3e b1 ac f1 3e 71 13 2b 3f 9c a0 a4 3e
       0.27642357 0.47202066 0.6682654 0.32153785
000010 b5 cd 7b 3e 40 74 ab 3d a0 74 c0 bd 3d f0 e8 3d
       0.2459019 0.08371782 -0.093972445 0.11373947
000020 2b 69 c0 be 32 66 23 be e2 68 5c 3e 04 62 28 3d
       -0.37580237 -0.15956953 0.21524385 0.0411091
000030 40 dd 3d 3e c9 03 16 3f 1f 5f 36 3f 3c 60 d3 3e
       0.18541431 0.58599526 0.71238893 0.41284359

bias_hh_l1 f4 [16]
000000 7d b6 6e 3e b1 ac f1 3e 0a 19 2b 3f f0 9e a4 3e
       0.23311801 0.47202066 0.6683508 0.3215251
000010 03 d4 8d 3e eb 7e ab 3d 87 64 f6 bd 82 6f e8 3d
       0.27700815 0.08373817 -0.12030893 0.113493934
000020 20 b3 b8 be 8d d4 2c be 5d 32 1d 3d b5 76 88 3e
       -0.36074162 -0.16877957 0.03837811 0.26653066
000030 d0 d6 bc 3e c9 03 16 3f 78 5e 36 3f 08 59 d3 3e
       0.3688264 0.58599526 0.712379 0.41278863

weight_ih_l2 f4 [16, 4]
000000 ee 71 03 be b1 7d 09 be 82 ac aa 3d 64 a6 44 bc
       -0.1283643 -0.13426854 0.083336845 -0.012002561
000010 17 c1 24 be 5b 41 47 be d5 41 3a 3e 07 00 47 bd
       -0.16089283 -0.19458525 0.18189175 -0.04858401
000020 35 db e8 be 72 20 e6 bd b1 d0 64 bd 20 27 38 3e
       -0.45479742 -0.11236657 -0.055863086 0.17983675
000030 bb cd 83 be 78 22 c7 bd ba 8e 0a 3e c8 65 3f 3d
       -0.25742897 -0.09723371 0.13531008 0.046727926
000040 10 19 fa bd 70 87 41 bd d7 04 28 bd 57 de fd 3c
       -0.122118115 -0.047248304 -0.04102024 0.030989809
000050 17 ed 28 be 65 d2 3b be c2 42 a7 3d db 50 4c bd
       -0.16496693 -0.18341978 0.0816703 -0.049881797
000060 04 3d 91 3d e5 0f 05 3e 5d 78 07 3e dd b6 c6 bc
       0.07091716 0.12994345 0.13229509 -0.024257118
000070 96 1a 8a 3d e0 25 37 3d 53 03 8a bc 1b 42 22 bd
       0.06743352 0.044713855 -0.016847288 -0.039613824
000080 e7 e7 b4 bd 1b cf 9a 3e 95 10 01 bf 32 26 00 3f
       -0.08833294 0.30236134 -0.5041593 0.5005828
000090 5e 31 ed be e2 2e c4 3e 3a 95 3b be 58 ca 66 3f
       -0.46326727 0.3831702 -0.18318644 0.901525
0000a0 1c ef ee 3e 9c 13 82 bf 9d d4 df 3f 81 13 d3 be
       0.466668 -1.0162234 1.748676 -0.41225818
0000b0 15 e7 6a be 8c dc 0a 3f bf 19 80 bf a7 e2 78 3e
       -0.22939713 0.5424278 -1.0007857 0.24305211
0000c0 be cc 1e be a8 01 e5 bd 68 e1 53 bd 8f d4 64 bb
       -0.1550779 -0.111819565 -0.051728636 -0.0034916734
0000d0 b5 88 2f be af 2b 6b be 64 44 e9 3d a7 29 cd bd
       -0.17141993 -0.22965883 0.113899976 -0.1001771
0000e0 22 8d f2 be 85 6f f5 bd 63 5d b6 3d 4b 5b 18 3e
       -0.473733 -0.11984161 0.08904531 0.14878576
0000f0 0b ad 91 be 18 f0 f9 bd 71 00 0c 3e c0 a1 12 3d
       -0.28452334 -0.122039974 0.13672043 0.035798788

weight_hh_l2 f4 [16, 4]
000000 31 be 5f bd bf 22 89 3d 7b 0e 07 3e 31 b4 ab bd
       -0.05462474 0.066960804 0.13189118 -0.08383978
000010 55 dc af bd 67 ab 2b 3d 55 f5 86 3d 68 2c 73 bd
       -0.08586947 0.04191151 0.06589762 -0.05936852
000020 36 a6 ea bc 75 ef 61 3e e4 e9 81 3e c5 26 42 be
       -0.028643709 0.22064002 0.25373757 -0.18960102
000030 23 f1 a5 bd b1 86 e0 3d 34 6a 66 bd 90 26 e4 3c
       -0.08102634 0.1096319 -0.056253627 0.02785042
000040 f7 17 34 be de c3 e9 3d ba b2 98 3d 70 cd f8 bd
       -0.17587267 0.11414312 0.074559644 -0.12148559
000050 ed 9b 26 be 45 2c 7d 3c da ef 0e 3e 3a dd 0d be
       -0.16270418 0.015452449 0.13958684 -0.13853922
000060 bb 07 0a be ef 0c f9 bd a6 22 41 bf 73 6f 86 3e
       -0.13479511 -0.1216067 -0.75443494 0.26256904
000070 0b 06 97 3c 34 7c 3b bd a4 18 49 bc 65 72 a6 3d
       0.018435499 -0.045772746 -0.012273941 0.08127288
000080 d8 40 fb 3e 41 08 b7 3e e9 ca b5 be 1f 18 93 3e
       0.4907291 0.35748485 -0.3550637 0.2872934
000090 5b 80 4f bd 24 60 86 3f 10 10 1b 3c ec 2e 92 3b
       -0.05065952 1.049809 0.009464279 0.00446116
0000a0 94 ba 3e 3f 3a b8 a7 3d 5c 82 4d bf 1e b7 59 3f
       0.74503446 0.08189435 -0.8027704 0.8504504
0000b0 1c 13 af be c8 90 d2 be 61 85 1d bf 70 41 61 be
       -0.34194267 -0.41126084 -0.61531645 -0.21997619
0000c0 21 1a df bd 7b c1 01 3e 9d f4 4d 3e b8 13 1d be
       -0.108936556 0.12671463 0.20112844 -0.15339553
0000d0 0f f0 34 be 93 10 92 bb 85 4d 25 3e 8f ba 12 be
       -0.176697 -0.004457542 0.16142853 -0.14328979
0000e0 37 48 90 bd 6c 26 6a 3e 7e db e3 3d 67 1f fa bd
       -0.07045024 0.2286622 0.11125849 -0.12213021
0000f0 b1 65 ca bd f4 d5 d0 3d 23 b8 11 3d a4 a3 27 3c
       -0.09882677 0.10197058 0.035575997 0.010231886

bias_ih_l2 f4 [16]
000000 f6 71 be 3e ed 03 08 3f 6f e6 51 3f 48 53 08 3f
       0.3719632 0.5313099 0.8199224 0.5325208
000010 73 06 8e 3e 8b 56 c3 3e 02 85 09 be 6a 7f de bd
       0.27739295 0.38151965 -0.13429645 -0.10864146
000020 eb 9c 2f be dd 63 45 3e 45 3d 4a 3e f6 70 8d bd
       -0.17149703 0.19276376 0.19749935 -0.06906311
000030 93 ee c2 3e 8c 1d 00 3f 89 1d 62 3f d5 c6 15 3f
       0.38072643 0.50045085 0.8832632 0.5850652

bias_hh_l2 f4 [16]
000000 d1 6a be 3e 53 3a 08 3f 6f e6 51 3f 48 53 08 3f
       0.3719087 0.53213996 0.8199224 0.5325208
000010 f2 38 8e 3e c5 5c c3 3e d7 75 04 be d5 94 de bd
       0.2777782 0.38156715 -0.12935577 -0.10868231
000020 eb 6b 64 bd 88 8b 2b 3d de bb 87 3e b5 ca 87 bd
       -0.05576698 0.041881114 0.2651052 -0.0663046
000030 85 01 c3 3e 46 49 09 3f 89 1d 62 3f d4 c6 15 3f
       0.38087097 0.5362743 0.8832632 0.5850651

weight_ih_l3 f4 [16, 4]
000000 33 d1 f6 bd dc 6b d6 3d 29 87 3e 3d 8a 0c bc bc
       -0.1205162 0.10469791 0.046515618 -0.022955198
000010 0c 8a 67 be 8f 06 13 bc 50 f7 2d 3e 7e 8c 26 be
       -0.22611254 -0.008973732 0.16988873 -0.16264531
000020 03 90 92 bd 31 26 96 bd 1d f2 f8 3c 14 cb bc bd
       -0.07156374 -0.07331503 0.030388886 -0.092184216
000030 0e 32 05 3e ee 67 a2 3e 7d fe 8d bd de 76 05 be
       0.13007376 0.31719917 -0.069333054 -0.13033625
000040 4d ae dc 3d b6 2b 5c 3d dc 84 57 3e 85 1c 8f 3d
       0.10775433 0.053752623 0.21046776 0.069878615
000050 c9 e6 88 be 49 35 22 3d e0 fc 83 bc 7d 81 de bd
       -0.26738575 0.039601598 -0.016111791 -0.10864542
000060 1e 1c 05 bd d7 5f 88 bd 10 44 eb bb 2b c9 1d bd
       -0.032497518 -0.06658905 -0.0071797445 -0.038521927
000070 2c 2c 81 bd 86 12 54 be 8f 8a 46 3e d1 06 21 3e
       -0.06307253 -0.20710191 0.19388793 0.15725257
000080 42 1f eb be 27 32 13 3e 76 b0 90 3f 17 43 94 bf
       -0.45922285 0.143746 1.1303852 -1.1582974
000090 e6 12 f5 3c 27 f7 44 3f bf f6 0d 3f 1b fd 61 bd
       0.029916238 0.76939625 0.5545463 -0.05517302
0000a0 cb b4 60 be c3 4c 7c be 2a 7d 28 bd 5b a8 55 be
       -0.21943967 -0.24638657 -0.04113499 -0.20865004
0000b0 1e e9 53 be d5 7e c3 be d9 7d 0d 40 a3 f5 17 bf
       -0.20694396 -0.38182703 2.2108061 -0.59359187
0000c0 ae 7e 3f bd 14 7d 85 3d b4 46 04 3e ff 5b 0a be
       -0.04675167 0.065179974 0.12917596 -0.13511656
0000d0 f9 f6 8e be 53 d4 5d 3d ca b9 25 3e 36 b4 32 be
       -0.279228 0.054157566 0.16184154 -0.17451558
0000e0 1b 14 c9 bd 01 da 13 be a1 f4 33 bc ce 9f af bd
       -0.09818288 -0.1443863 -0.010983617 -0.08575402
0000f0 1e 5c ba 3d 0d 1a 82 3e 3c 24 b1 3d 6d ae 08 be
       0.09099601 0.254105 0.08649489 -0.13347788

weight_hh_l3 f4 [16, 4]
000000 9d 72 86 3d de 15 7e be 0d b9 35 3e 7d 99 8e bd
       0.065648295 -0.24813029 0.17746373 -0.06962869
000010 03 6c f6 3d 87 9f 9d bd 69 93 9c 3d 1e 86 28 3e
       0.1203232 -0.07696443 0.07645304 0.16457412
000020 57 b7 bf 3d 45 98 be bc 9b 89 12 3d 3a 14 f0 3d
       0.09361141 -0.023265967 0.035775762 0.11722608
000030 5b 07 b6 3d e5 db c9 bd 9d d9 0d 3e cd 84 91 3e
       0.08888122 -0.09856395 0.13852544 0.2842163
000040 64 f6 0d bd 97 e7 86 be 69 ef e4 bb 7b 83 50 3d
       -0.034658805 -0.26348564 -0.0069865477 0.05090664
000050 f9 3e 3d 3e f9 b9 ac bb 29 f2 03 3e 1b 92 39 3d
       0.18481053 -0.005271193 0.12885346 0.045305353
000060 bf 0b a5 3d fb 3a 04 bd fd a3 f5 3c ec 8a b7 3d
       0.08058881 -0.03228281 0.029985422 0.08962044
000070 c4 e0 e7 bd 25 92 c5 bc 8e 72 3f bb 2d 08 94 be
       -0.113221675 -0.024117539 -0.0029212567 -0.28912488
000080 68 69 3c 3e 51 00 13 3e fe 24 f6 be 55 27 58 be
       0.18399584 0.1435559 -0.48075098 -0.21108754
000090 3f 6f 08 be aa 8f 06 3f 66 dd ce bd 2d 2f cc 3e
       -0.13323687 0.52562964 -0.10100822 0.39879742
0000a0 47 c2 5a 3e 84 aa d8 bd c5 34 77 3d e9 3a 4b 3d
       0.21363173 -0.10579398 0.06035306 0.049616728
0000b0 e4 8e d7 be 52 7b 28 3e d7 b6 8e be db 4d 86 bf
       -0.42101204 0.16453293 -0.2787387 -1.049251
0000c0 a7 a7 b2 3d 2c 7a 8b be da 92 28 3e 8c 1b 7f 3e
       0.087233834 -0.27241647 0.1646227 0.24912852
0000d0 ad 8a 56 3e 21 5b 9c bd dc 1a 12 3e 8c 52 da 3d
       0.20951338 -0.07634569 0.14268059 0.10660276
0000e0 dc a0 2a 3e 37 ea 8e bd 03 8f 9d 3d b1 a0 3a 3e
       0.16662925 -0.06978267 0.07693293 0.18225361
0000f0 08 00 8d 3d ac da 01 be 4e 1a 1f 3e 84 36 63 3e
       0.068847716 -0.12681073 0.15537378 0.22188765

bias_ih_l3 f4 [16]
000000 31 2c 0a 3f e5 14 b7 3e 2a 8b 16 3e 3a 67 41 3f
       0.5397368 0.3575813 0.14701524 0.75548136
000010 30 a6 6a bc 94 89 9b 3e 52 0d b6 3d 1e 06 48 be
       -0.014321849 0.303784 0.088892594 -0.19533584
000020 fb 8c c3 be a4 58 14 be e9 d9 35 3e 02 2d 83 3e
       -0.38193497 -0.14486939 0.17758907 0.25620276
000030 8a 85 28 3f 76 19 ea 3e 46 67 47 3e fa ec 47 3f
       0.65828764 0.4572255 0.1947299 0.7809597

bias_hh_l3 f4 [16]
000000 28 d4 0c 3f 91 12 b7 3e c4 b9 15 3e 3a 67 41 3f
       0.55011225 0.35756353 0.14621645 0.75548136
000010 b6 58 c4 bd 7e 44 9b 3e 66 37 b6 3d 7f de 4b be
       -0.09587233 0.30325693 0.08897285 -0.19909094
000020 4c aa c5 3e f5 9d 72 be d0 3b 58 3e 6a a7 59 3d
       0.3860649 -0.23693068 0.21116567 0.053138174
000030 f4 ad 18 3f 13 18 ea 3e 19 0f 47 3e fc ec 47 3f
       0.5964043 0.45721492 0.19439353 0.78095984

weight_ih_l4 f4 [16, 4]
000000 af d9 ad be bb 2d 20 be c1 a2 d4 3d 2d 88 92 bd
       -0.33955142 -0.15642445 0.10382605 -0.0715488
000010 b2 0b 60 3e d4 da 22 be 5c e6 e7 3d b4 4f f9 3b
       0.21879461 -0.15903789 0.113232344 0.0076083783
000020 df a7 53 3c cd d8 82 bd 41 b0 9d 3d f2 fa 82 3c
       0.012918442 -0.06389008 0.076996334 0.0159888
000030 6a 36 31 3e 1c e0 f7 bd 7c f7 04 3e 62 83 2e 3d
       0.17305914 -0.12103292 0.12985033 0.042605765
000040 4d e1 c9 3e 84 87 a2 be ea 8a e0 3d d7 d3 00 3f
       0.39429703 -0.31744015 0.10963996 0.5032324
000050 dc 33 c3 3e c1 28 1a be c8 56 07 3e 4e 55 19 3d
       0.38125503 -0.15054609 0.13216698 0.03743487
000060 9c ea 10 3e 37 96 32 be ed d2 cf 3d ea 95 3d be
       0.14151996 -0.17440115 0.10147653 -0.18514219
000070 e3 ce 3a 3e cc 1f 9a be 8c e3 f1 3d 11 e1 e2 3d
       0.18242984 -0.30102384 0.11810979 0.11078084
000080 51 b4 82 bf de 00 57 bd 9b c1 52 be 56 8c ed bf
       -1.0211278 -0.05249106 -0.20581667 -1.8558452
000090 59 6c e5 3e f2 e9 1c bf a2 7e 87 3e 70 09 8e be
       0.44809225 -0.6129447 0.264638 -0.27741575
0000a0 cc 5e 5b bf a2 93 3f 3c 84 13 31 be d4 e7 77 bd
       -0.85691524 0.011692913 -0.17292601 -0.060523823
0000b0 d5 32 a0 be b5 9e 52 3f 93 65 36 be 05 43 8d 3e
       -0.31288782 0.8227342 -0.17812185 0.27590194
0000c0 2c 57 8c 3d 9a c9 a0 be d1 23 74 3e ab 2a b4 3e
       0.06852564 -0.3140381 0.23841788 0.35188803
0000d0 59 46 06 3f ab 31 99 be 5f a8 67 3e d2 ab 21 3e
       0.5245109 -0.29920706 0.22622822 0.157882
0000e0 d7 b1 a3 3e 85 90 a5 be b4 57 71 3e 85 1c b8 bd
       0.3197162 -0.32336822 0.23568612 -0.08989815
0000f0 ac 30 cf 3e fb ef 92 be c0 90 71 3e 33 69 42 3e
       0.4046682 -0.28698716 0.23590374 0.18985443

weight_hh_l4 f4 [16, 4]
000000 54 8d d3 be a6 d5 2c 3d 59 41 cc bc 14 e1 b0 3e
       -0.41318762 0.04219594 -0.024933504 0.3454672
000010 e4 2a 42 be e7 ec 22 3e 18 18 36 be 18 a0 d8 bd
       -0.18961674 0.15910684 -0.17782629 -0.105774105
000020 73 20 80 bc a4 8f e5 3d e5 a1 a8 bd a1 d7 dc 3c
       -0.015640473 0.11209038 -0.08234004 0.026958289
000030 55 e8 80 be fc c6 62 3e 15 4f 84 be cf 5e 33 be
       -0.25177255 0.22146219 -0.25841585 -0.17516635
000040 a0 5c d0 be 81 89 5c 3e 0f a6 c9 bd 02 48 82 be
       -0.40695667 0.21536829 -0.09846126 -0.25445563
000050 ec 01 b4 be 5a f9 3a 3e 09 79 3a be 7f f4 27 be
       -0.35157716 0.18259183 -0.18210234 -0.16401862
000060 61 9c 89 be 8c 75 c6 3d 1a 37 79 bd 38 6e 56 bd
       -0.2687712 0.09690389 -0.060843565 -0.052351207
000070 6c 83 77 be f1 18 6e 3e 57 68 17 be 1b ec c2 be
       -0.24171227 0.23251702 -0.14785896 -0.3807076
000080 16 5f 30 bd 74 2c 13 3e e4 cd dc be 73 0e 1d bf
       -0.04305943 0.14372426 -0.43125832 -0.6135017
000090 c6 d0 1c 3e d4 d3 92 3d 5c 63 ab be 86 05 e1 bd
       0.15314016 0.07169309 -0.33474243 -0.10987382
0000a0 94 32 f9 3e 9e 0c ce bb 60 fc 21 3f f9 b4 dd 3d
       0.486714 -0.006288125 0.6327572 0.108255334
0000b0 77 d9 fe 3e 1e 89 82 bd f4 01 42 bd 3a 63 51 bd
       0.49775288 -0.06373809 -0.047365144 -0.05112002
0000c0 bc d1 7f be 7d 40 da 3e 63 2d 90 be 67 1c 97 be
       -0.24982351 0.42627326 -0.28159627 -0.29513857
0000d0 c1 a0 e4 be 85 c9 c4 3e 91 59 c4 be 55 87 c4 be
       -0.44653895 0.38434997 -0.38349584 -0.383845
0000e0 fe ef db be 96 15 bf 3e 1b 42 a5 be 1e e4 90 be
       -0.42956537 0.37321156 -0.32276997 -0.2829904
0000f0 5a d5 9c be bb bf e3 3e bf a4 df be b6 5d e3 be
       -0.30631524 0.44482216 -0.4368038 -0.44407433

bias_ih_l4 f4 [16]
000000 ab 68 fc 3e 95 d7 83 3e 04 04 f7 3e c9 75 9c 3e
       0.49298605 0.25750414 0.4824525 0.30558613
000010 c9 11 8b be 7c 0e 8b 3e 7e 07 92 3e 5d 04 43 3e
       -0.27162006 0.27159488 0.2852134 0.19044633
000020 ff a2 7d be 69 89 62 bd b2 b1 80 bb 92 8b 7f be
       -0.2476921 -0.055306826 -0.003927433 -0.24955586
000030 62 3d 2b 3f 60 14 ea 3e 99 6a 29 3f d0 b2 01 3f
       0.6689054 0.4571867 0.6617828 0.5066347

bias_hh_l4 f4 [16]
000000 5c cd ee 3e 55 45 87 3e 17 57 f7 3e 6d 6f 9d 3e
       0.46641052 0.26420084 0.48308632 0.30749074
000010 bd 08 89 be 1a 30 26 3e a4 92 b4 3e 97 c9 37 3e
       -0.2676448 0.16229287 0.35268128 0.17947994
000020 a8 97 05 3e 6b 4e 4a 3e 3b 22 06 bf ad b6 8a 3e
       0.13046134 0.19756477 -0.5239598 0.27092496
000030 3c c9 2c 3f da 70 e5 3e bf f6 28 3f e7 a6 01 3f
       0.6749456 0.4481266 0.66001505 0.506453

weight f4 [1, 4]
000000 53 cb 42 c0 80 31 4b 40 ff 9f 4a c0 7d de 4c c0
       -3.04366 3.1748962 -3.1660154 -3.2010796
