model_new/LSTM_1_-1_10.pt (torch, 7843 bytes, 21 tensors)

weight_ih_l0 f4 [16, 1]
-0.009990009 0.27351356 0.0015061698 0.09007647 0.5682087 0.18163463 -0.030095555 0.24286501
0.039157692 0.06371989 0.12588046 -0.620413 0.36145556 0.3530202 0.26723665 0.37768054
00000000: 22ad 23bc f809 8c3e ac6a c53a 037a b83d
00000010: 2076 113f 6efe 393e f48a f6bc 9bb1 783e
00000020: d163 203d 937f 823d cfe6 003e 63d3 1ebf
00000030: b410 b93e 10bf b43e 3ed3 883e 585f c13e

weight_hh_l0 f4 [16, 4]
0.26414207 -0.4595069 -0.017124869 -0.27296594 0.041923553 0.07840038 0.096301615 -0.1098883
0.52787864 -0.5864074 0.0082191 -0.7313711 0.085609786 -0.30596444 -0.19641927 0.041787222
0.037078228 -0.06759372 -0.028472995 -0.08675047 0.08156853 0.025160033 0.09181923 -0.18616958
-0.26444876 0.6979856 0.35772154 0.20136106 -0.34185216 0.48129588 0.24097452 0.4674111
0.23191606 -0.57364404 -0.2064712 -0.24421714 -0.3009165 -0.20707698 0.17682374 0.7209839
-0.04517648 0.16080841 -0.82974744 0.010145754 0.5004365 -0.37135717 0.26474854 -0.7307864
-0.80768305 0.49263692 -0.49139604 0.8792975 0.23008543 -0.24311821 -0.013400852 -0.3520148
0.30120504 -0.41390818 -0.16481566 -0.43864626 -0.09021571 0.020422345 -0.10870355 0.3211954
00000000: a13d 873e 7d44 ebbe 7449 8cbc 31c2 8bbe
00000010: 08b8 2b3d 6190 a03d c839 c53d 1e0d e1bd
00000020: 0e23 073f cc1e 16bf 67a9 063c 233b 3bbf
00000030: 2f54 af3d 5fa7 9cbe 2222 49be 1429 2b3d
00000040: 57df 173d 946e 8abd 3340 e9bc 3baa b1bd
00000050: 670d a73d 6a1c ce3c b80b bc3d 3da3 3ebe
00000060: d465 87be 2faf 323f 4727 b73e 9831 4e3e
00000070: 3f07 afbe 6a6c f63e 06c2 763e 8250 ef3e
00000080: 677b 6d3e 56da 12bf 306d 53be 0f14 7abe
00000090: ba11 9abe fd0b 54be 4811 353e 6792 383f
000000a0: f90a 39bd f6aa 243e 546a 54bf 603a 263c
000000b0: 9b1c 003f 8722 bebe 1f8d 873e d114 3bbf
000000c0: 51c4 4ebf e83a fc3e 4398 fbbe a419 613f
000000d0: 849b 6b3e fbf3 78be 3f8f 5bbc 493b b4be
000000e0: 8c37 9a3e c6eb d3be 70c5 28be 3e96 e0be
000000f0: 04c3 b8bd c34c a73c f89f debd b973 a43e

bias_ih_l0 f4 [16]
0.033400018 -0.049676225 0.22128177 0.4379615 0.040707503 -0.09154306 -0.43959627 -0.47829366
-0.025770618 -0.5997887 -0.8301044 0.42343396 -0.30664477 0.25037616 0.39374346 0.29283604
00000000: 75ce 083d 4c79 4bbd b097 623e 7d3c e03e
00000010: e9bc 263d ee7a bbbd c312 e1be e8e2 f4be
00000020: e71c d3bc c18b 19bf b981 54bf 56cc d83e
00000030: 8b00 9dbe 4e31 803e be98 c93e 9bee 953e

bias_hh_l0 f4 [16]
0.07188881 -0.049675602 0.2212821 0.44376707 0.040706392 -0.091543 -0.4705382 -0.4777509
-0.019797746 -0.59655637 -0.8232305 0.42861006 -0.305085 0.25037503 0.39374346 0.29429066
00000000: 713a 933d a578 4bbd c697 623e 7035 e33e
00000010: bfbb 263d e57a bbbd 62ea f0be c49b f4be
00000020: e22e a2bc ebb7 18bf 3cbf 52bf c772 db3e
00000030: 1a34 9cbe 2831 803e be98 c93e 44ad 963e

weight_ih_l1 f4 [16, 4]
0.38902563 -0.62879187 -0.13412228 -0.27403 0.27997857 -0.47629732 -0.017061567 -0.14563762
0.14901291 -0.2536729 0.30301508 0.087068826 0.39572048 -0.63727194 -0.1351822 -0.3809249
-0.15958658 0.15748209 0.07397096 0.2670475 -0.24641116 0.1170873 -0.0789815 0.39727738
0.037676778 -0.17434154 -0.31137598 0.1987281 -0.22659585 0.29304433 0.014874529 0.35780376
0.62502056 0.39485374 1.3418394 -0.7648658 -0.6225779 -0.44099414 -1.0253718 0.71173245
-0.4039213 -0.3775694 -0.7626858 0.46025747 -0.7366512 -0.63828295 -1.2787721 0.5187828
0.39571205 -0.63787794 -0.08948221 -0.2837896 0.25969324 -0.5267664 -0.012928905 -0.15115017
0.16477819 -0.41679934 -0.10991043 -0.054450262 0.39914542 -0.6532436 -0.13503313 -0.3691376
00000000: 5e2e c73e 81f8 20bf 5a57 09be a94d 8cbe
00000010: 5a59 8f3e 3edd f3be b3c4 8bbc 0722 15be
00000020: d796 183e 6ae1 81be cb24 9b3e 2451 b23d
00000030: e09b ca3e 4124 23bf 346d 0abe 9708 c3be
00000040: aa6a 23be fc42 213e 167e 973d 73ba 883e
00000050: 3553 7cbe 77cb ef3d 0dc1 a1bd f167 cb3e
00000060: f752 1a3d 9786 32be ac6c 9fbe 617f 4b3e
00000070: be08 68be e809 963e 4cb4 733c 0e32 b73e
00000080: 5901 203f 452a ca3e 65c1 ab3f 3fce 43bf
00000090: 4461 1fbf fcc9 e1be 623f 83bf 1934 363f
000000a0: c6ce cebe c750 c1be 603f 43bf dea6 eb3e
000000b0: 2c95 3cbf 8366 23bf ceae a3bf f3ce 043f
000000c0: c59a ca3e f84b 23bf 7342 b7bd df4c 91be
000000d0: 83f6 843e 2ada 06bf c2d3 53bc 1cc7 1abe
000000e0: 9dbb 283e b966 d5be b818 e1bd 3d07 5fbd
000000f0: ca5c cc3e f93a 27bf 2046 0abe 9aff bcbe

weight_hh_l1 f4 [16, 4]
-0.018285433 0.0128107155 0.072464176 0.017787842 -0.036834788 0.07305003 0.097690776 0.09187495
0.1358826 0.105230704 0.06406106 0.030009933 -0.0649583 0.06296782 0.12188868 0.024147745
-0.14189419 0.15071149 -0.11865969 0.1667758 -0.20987444 0.39253283 0.1272829 0.07729845
0.12523976 -0.14161979 -0.1207363 -0.14734358 -0.048662428 0.045183178 -0.14077748 0.069357835
-0.6086267 0.80657566 0.9914983 0.020216046 -0.09177108 -0.35631162 -0.89858556 0.025083544
-0.55849373 0.28178477 -0.24374872 0.083042905 1.1741413 -0.7948578 -0.8658052 -0.8396251
-0.010180124 0.024036052 0.10538787 0.0062521864 -0.055458073 0.14791557 0.20938581 0.12615412
0.054349776 0.15242045 0.14641368 -0.095488764 -0.04402626 0.046413325 0.111789905 0.0044635073
00000000: 55cb 95bc 09e4 513c 1968 943d cfb7 913c
00000010: 13e0 16bd 419b 953d 1a12 c83d ef28 bc3d
00000020: cf24 0b3e 3283 d73d 7232 833d 64d7 f53c
00000030: db08 85bd 46f5 803d c6a0 f93d 7ed1 c53c
00000040: b64c 11be 1d54 1a3e da03 f3bd 46c7 2a3e
00000050: 53e9 56be 10fa c83e 7356 023e a64e 9e3d
00000060: da3e 003e c704 11be 9844 f7bd 3ce1 16be
00000070: 4152 47bd ff11 393d f927 10be 7b0b 8e3d
00000080: f6ce 1bbf be7b 4e3f d5d2 7d3f 1f9c a53c
00000090: 7af2 bbbd 7a6e b6be b409 66bf 017c cd3c
000000a0: 72f9 0ebf 1846 903e 4499 79be 6612 aa3d
000000b0: 434a 963f cd7b 4bbf 69a5 5dbf acf1 56bf
000000c0: 89ca 26bc 41e7 c43c 98d5 d73d 24df cc3b
000000d0: 0128 63bd 2e77 173e 3c69 563e 8c2e 013e
000000e0: df9d 5e3d 1b14 1c3e 78ed 153e 9d8f c3bd
000000f0: e154 34bd e61b 3e3d 1bf2 e43d 9d42 923b

bias_ih_l1 f4 [16]
0.6565553 0.5883074 0.45142242 0.7977157 -0.3702176 -0.074097425 0.101295315 -0.5160985
-0.3199348 0.37613413 0.14137207 -0.14893839 0.7186067 0.64891815 0.6861194 0.8373503
00000000: 0214 283f 509b 163f d720 e73e 1937 4c3f
00000010: 298d bdbe 64c0 97bd eb73 cf3d 081f 04bf
00000020: 7ece a3be a794 c03e d7c3 103e 4e83 18be
00000030: 9cf6 373f 801f 263f 85a5 2f3f 975c 563f

bias_hh_l1 f4 [16]
0.65651584 0.58834344 0.46957684 0.7980279 -0.37442654 -0.07204116 0.10242757 -0.5157264
-0.09620039 0.040879205 0.098987006 0.36182705 0.7187166 0.64879435 0.68569136 0.83750266
00000000: 6c11 283f ad9d 163f 606c f03e 8e4b 4c3f
00000010: d6b4 bfbe 518a 93bd 8cc5 d13d a506 04bf
00000020: b604 c5bd f470 273d b3b9 ca3d 6541 b93e
00000030: d0fd 373f 6317 263f 7889 2f3f 9366 563f

weight_ih_l2 f4 [16, 4]
-0.04466402 0.07867823 -0.08908003 -0.02634486 -0.0024465711 -0.058590837 -0.046325218 0.11484072
0.083212346 -0.015466918 0.022356438 0.078506805 0.20493443 0.043441754 0.16436833 -0.19157073
0.2728629 -0.05550312 0.22495504 -0.31629732 0.17791669 0.06620003 0.011841105 -0.21703126
-0.012246127 0.14028782 -0.023166819 -0.19453283 0.18647459 -0.0017515633 0.21058647 -0.06757356
-0.88755655 0.89063805 0.5230826 0.8301735 0.6602992 -0.7558353 -0.7743764 -0.60748
2.075831 -1.1511371 -0.2783858 -3.3129387 0.48420176 -0.6332843 -0.093326345 -0.7881819
0.06528647 0.017537924 -0.086750776 -0.057225395 0.084953666 -0.056680515 -0.04246605 0.04187437
0.11149679 -0.071784 0.007665448 0.06808816 0.28451753 -0.11020497 0.042327177 -0.058656085
00000000: 9ff1 36bd 0d22 a13d 976f b6bd 2dd1 d7bc
00000010: a756 20bb f2fc 6fbd 83bf 3dbd 9d31 eb3d
00000020: 3c6b aa3d f568 7dbc d924 b73c 2dc8 a03d
00000030: 55da 513e fbef 313d 2c50 283e 1e2b 44be
00000040: b0b4 8b3e 3d57 63bd 9d5a 663e b9f1 a1be
00000050: cb2f 363e e293 873d 3201 423c 713d 5ebe
00000060: fba3 48bc 9ca7 0f3e 57c8 bdbc 9d33 47be
00000070: 32f3 3e3e b694 e5ba fba3 573e 0264 8abd
00000080: e836 63bf db00 643f bee8 053f 4086 543f
00000090: 5e09 293f 6c7e 41bf 883d 46bf cf83 1bbf
000000a0: 6ada 0440 7658 93bf 9588 8ebe 3007 54c0
000000b0: 4be9 f73e eb1e 22bf e221 bfbd 4ac6 49bf
000000c0: eab4 853d b1ab 8f3c 64aa b1bd 2d65 6abd
000000d0: 30fc ad3d d429 68bd e1f0 2dbd 7684 2b3d
000000e0: 6e58 e43d 7d03 93bd 702e fb3b ce71 8b3d
000000f0: 48ac 913e 25b3 e1bd 435f 2d3d 5d41 70bd

weight_hh_l2 f4 [16, 4]
-0.103704624 -0.026322167 -0.11240051 0.07952909 -0.103338465 -0.012793931 0.054822978 -0.06520476
0.008200583 0.018992024 0.37913746 -0.07612627 0.2032258 -0.35956323 0.22749797 -0.0565458
-0.28314617 -0.2823327 0.21411693 -0.003108591 -0.015047338 -0.12481356 0.034428388 0.103628576
0.58144975 -0.3836589 -0.8823 -0.17503357 0.10485246 -0.29709968 0.58262587 -0.10186905
0.18403755 -0.6776877 -0.337422 1.0275867 0.63385755 -0.16456753 -0.52049947 -0.93966174
0.59253293 0.05780864 -0.78410274 -0.98687184 -0.5932937 0.40170214 -0.28058204 -0.050897073
-0.09134768 -0.12967244 -0.050148923 0.080643214 -0.017386848 -0.009184107 0.1396048 -0.034819815
-0.086643405 0.017636098 0.2228878 -0.104313456 0.04449026 -0.38959563 0.13460939 -0.077330105
00000000: 1763 d4bd 96a1 d7bc 3d32 e6bd 26e0 a23d
00000010: 1ea3 d3bd a39d 51bc 0f8e 603d 138a 85bd
00000020: bd5b 063c 2995 9b3c 4e1e c23e 17e8 9bbd
00000030: 6d1a 503e ac18 b8be 3af5 683e 929c 67bd
00000040: 89f8 90be e98d 90be 7841 5b3e 81b9 4bbb
00000050: 1c89 76bc 409e ffbd c804 0d3d 383b d43d
00000060: e4d9 143f f06e c4be 6ade 61bf 003c 33be
00000070: e3bc d63d 731d 98be f826 153f b8a0 d0bd
00000080: 5774 3c3e f17c 2dbf 94c2 acbe f687 833f
00000090: 7d44 223f 6484 28be 743f 05bf ac8d 70bf
000000a0: 3db0 173f c1c8 6c3d f5ba 48bf a2a3 7cbf
000000b0: 19e2 17bf e7ab cd3e 73a8 8fbe 7379 50bd
000000c0: 7e14 bbbd dac8 04be f568 4dbd 4528 a53d
000000d0: dd6e 8ebc f078 16bc 90f4 0e3e 399f 0ebd
000000e0: 1972 b1bd 9479 903c b33c 643e 4ba2 d5bd
000000f0: 6b3b 363d 1479 c7be 0bd7 093e 3f5f 9ebd

bias_ih_l2 f4 [16]
0.8838352 0.7843678 1.189274 0.48915097 -0.29336995 -0.14370577 -0.0016827524 0.32221103
-0.31134924 -0.19667949 0.2933013 -0.09837006 1.0100448 0.85379046 1.2460387 0.8584151
00000000: 0643 623f 54cc 483f 213a 983f ff71 fa3e
00000010: 9634 96be 9b27 13be cd8f dcba d8f8 a43e
00000020: 2b69 9fbe 5966 49be 972b 963e 3e76 c9bd
00000030: 2649 813f 0392 5a3f 327e 9f3f 18c1 5b3f

bias_hh_l2 f4 [16]
0.8826721 0.78313 1.1875618 0.5532028 -0.3228839 -0.16121756 0.03874404 0.34028938
0.3866095 0.043775566 -0.1980206 0.09979936 1.0126069 0.8514509 1.2475793 0.86530054
00000000: ccf6 613f 357b 483f 0602 983f b39e 0d3f
00000010: 0a51 a5be 3716 25be 12b2 1e3d 693a ae3e
00000020: aef1 c53e 024e 333d eac5 4abe 9b63 cc3d
00000030: 1a9d 813f b0f8 593f aeb0 9f3f 5684 5d3f

weight_ih_l3 f4 [16, 4]
-0.07302813 -0.11990992 0.2851424 0.26622635 0.29057553 -0.9330954 -1.182319 -0.2169237
0.7928424 -1.0803096 0.07404594 -0.89094794 -0.3702452 0.034962542 0.37425977 0.06841974
0.1496146 -0.16465151 0.099700496 0.021548001 -0.029335449 -0.38666108 -0.015892645 0.14771527
-0.27320763 0.18393996 -0.027352812 0.7491842 -0.27038196 0.024479348 0.03782195 0.285425
0.3161923 -0.24451941 0.33902878 -0.6965176 0.14440648 -0.30796847 -1.8869544 -0.13160959
1.3595359 -0.63952893 0.4874941 -1.0665152 1.355523 -1.4155494 -2.6936836 -0.7755949
-0.042921886 -0.22609624 0.29469082 0.13194539 0.13490692 -0.5081227 -0.23740786 0.022071557
0.2274074 -0.51845205 -0.07329872 0.22709487 -1.2045034 0.1192736 0.98720694 0.20085932
00000000: c68f 95bd 5593 f5bd 2ffe 913e d24e 883e
00000010: 51c6 943e 57df 6ebf 3b56 97bf 3f21 5ebe
00000020: b8f7 4a3f 9647 8abf 66a5 973d 2a15 64bf
00000030: c790 bdbe e234 0f3d fa9e bf3e a61f 8c3d
00000040: 9234 193e 689a 28be c62f cc3d 6f85 b03c
00000050: e550 f0bc 71f8 c5be 4b31 82bc ac42 173e
00000060: dfe1 8bbe c25a 3c3e 0113 e0bc 89ca 3f3f
00000070: 816f 8abe ea88 c83c 30eb 1a3d 3a23 923e
00000080: f5e3 a13e 4c63 7abe 2e95 ad3e fa4e 32bf
00000090: 4bdf 133e 0bae 9dbe b987 f1bf aac4 06be
000000a0: 4605 ae3f 2bb8 23bf d498 f93e 9283 88bf
000000b0: c781 ad3f b930 b5bf 5065 2cc0 638d 46bf
000000c0: dcce 2fbd c685 67be b7e1 963e b11c 073e
000000d0: 0a25 0a3e 5414 02bf 0c1b 73be 69cf b43c
000000e0: 7cdd 683e 46b9 04bf a41d 96bd 8f8b 683e
000000f0: 2b2d 9abf b845 f43d 98b9 7c3f 11ae 4d3e

weight_hh_l3 f4 [16, 4]
-0.07612089 -0.16109137 -0.20485847 -0.06884841 0.006261787 -0.5380462 -0.15549903 -0.62960684
0.52176344 -0.22865807 -0.939933 -0.10490881 -0.2902298 -0.42262024 -0.08234904 0.31704545
-0.2152291 -0.044560745 -0.05724936 -0.10843265 0.038444005 0.19460644 0.09317893 0.22793639
-0.27974302 0.24677569 -0.3211022 -0.31212294 -0.07280085 0.3310863 0.036417726 0.2070057
0.23899093 0.23943001 0.19225337 -0.029802712 0.090397984 -0.13025442 0.16448046 -0.26411784
0.12396067 -0.15540716 -0.03959356 -0.057138592 -0.71468645 -0.073655516 -0.7054341 -0.18605669
-0.17532475 -0.23164481 -0.1540028 -0.3798809 -0.23224686 -0.26458773 0.02542329 -0.16568284
-0.38479298 -0.08844023 -0.3211216 -0.8334724 0.09951248 -0.9470614 -0.09884524 0.23997837
00000000: 45e5 9bbd 23f5 24be 6bc6 51be 6500 8dbd
00000010: ad2f cd3b 65bd 09bf 233b 1fbe ea2d 21bf
00000020: 4a92 053f 5725 6abe 739f 70bf 6eda d6bd
00000030: 0099 94be ae61 d8be 9da6 a8bd c853 a23e
00000040: 0465 5cbe 5485 36bd 4e7e 6abd f011 debd
00000050: 7677 1d3d e946 473e 98d4 be3d 2868 693e
00000060: 7a3a 8fbe c4b2 7c3e 8267 a4be 94ce 9fbe
00000070: 9d18 95bd 2584 a93e c12a 153d 4df9 533e
00000080: 0aba 743e 242d 753e 11de 443e d124 f4bc
00000090: 9422 b93d 6a61 05be 916d 283e 743a 87be
000000a0: 17df fd3d 0e23 1fbe db2c 22bd 280a 6abd
000000b0: b1f5 36bf b4d8 96bd 5497 34bf a585 3ebe
000000c0: 5588 33be 4c34 6dbe e9b2 1dbe c07f c2be
000000d0: 1fd2 6dbe 0b78 87be 8144 d03c c3a8 29be
000000e0: 9603 c5be 2720 b5bd 0d6a a4be 725e 55bf
000000f0: 33cd cb3d 9e72 72bf 606f cabd e4bc 753e

bias_ih_l3 f4 [16]
0.1792442 0.02309347 -0.04575959 0.6965396 0.37419242 0.21607757 0.56669873 -0.1178457
-0.3015007 -0.386307 0.3450434 -0.27974328 0.43465412 0.7707009 0.4917889 0.46290657
00000000: cb8b 373e 842e bd3c 686e 3bbd 6b50 323f
00000010: 2696 bf3e 7043 5d3e 2b13 113f 1659 f1bd
00000020: 4d5e 9abe 08ca c5be 87a9 b03e 833a 8fbe
00000030: fc8a de3e a74c 453f c1cb fb3e 1702 ed3e

bias_hh_l3 f4 [16]
0.3465892 0.12136124 0.22207364 0.8600699 0.40967658 0.18959099 0.5525409 -0.12767375
-0.2192498 0.011928177 -0.34024704 0.35084787 0.39413106 0.7688337 0.6164939 0.20861931
00000000: 2474 b13e 3e8c f83d 4667 633e 8a2d 5c3f
00000010: 21c1 d13e 2424 423e 5273 0d3f e8bc 02be
00000020: 0583 60be 676e 433c dc34 aebe 55a2 b33e
00000030: 8ccb c93e 49d2 443f 8bd2 1d3f 4da0 553e

weight_ih_l4 f4 [16, 4]
-0.16269118 0.06627977 0.07795713 0.18656826 -0.10998747 -0.23962964 -0.21342628 -0.0326355
-0.21242286 -0.19728939 -0.34368843 0.0357466 0.15446877 -1.2892783 -0.7187603 0.9489226
-0.44465163 0.24926691 0.123282485 -2.1450121 -0.19123526 -0.11845684 -0.32500958 -0.0844869
-0.20326675 -0.11905592 -0.28066236 -0.0421825 0.012210914 -0.7589193 -0.729442 0.6020076
-0.12589383 -0.95556915 -0.901389 -0.48863402 -0.6453539 0.28848723 -0.3656361 -0.21931453
-0.29619372 -0.024829501 -0.23782413 0.008906606 0.6121828 -0.6915775 0.3817535 1.5096166
-0.47816044 -0.497316 -0.10589575 -0.47411478 -0.5108941 -0.32011774 -1.3305863 -0.6652998
-0.6147131 -0.1114856 -1.0270498 -0.56118524 -0.33291662 -0.71666366 -0.4386149 2.3810762e-05
00000000: 8498 26be b0bd 873d fda7 9f3d c00b 3f3e
00000010: 1c41 e1bd 7961 75be 6b8c 5abe cdac 05bd
00000020: 6185 59be 3b06 4abe eef7 afbe 076b 123d
00000030: 102d 1e3e 1207 a5bf ad00 38bf 97ec 723f
00000040: 61a9 e3be d33f 7f3e 877b fc3d e147 09c0
00000050: 2dd3 43be 8099 f2bd a867 a6be 7807 adbd
00000060: 2925 50be 97d3 f3bd fab2 8fbe 8fc7 2cbd
00000070: 4910 483c 8948 42bf b6bc 3abf 2c1d 1a3f
00000080: 50ea 00be 2ea0 74bf 6ec1 66bf 3d2e fabe
00000090: ea35 25bf 99b4 933e a834 bbbe fd93 60be
000000a0: b4a6 97be 3d67 cbbc 2b88 73be 03ed 113c
000000b0: 03b8 1c3f 390b 31bf 3275 c33e 1e3b c13f
000000c0: 72d1 f4be 34a0 febe dfdf d8bd 2cbf f2be
000000d0: f5c9 02bf 79e6 a3be a750 aabf 1651 2abf
000000e0: d65d 1dbf 9052 e4bd 5e76 83bf d6a9 0fbf
000000f0: 0c74 aabe 4577 37bf 2292 e0be 39bd c737

weight_hh_l4 f4 [16, 4]
1.086558 0.3128751 0.105914816 -0.19993299 0.022314752 0.11579322 0.1031101 -0.027601372
0.12078142 0.13094513 0.13999704 -0.12972468 0.6431983 0.009088359 -0.034808155 0.39030474
0.11346905 -0.16919105 0.13035925 0.2104551 0.13116169 0.27527562 0.14339852 -0.18786515
0.09031536 0.26616177 0.18473908 -0.22066674 0.44723424 0.29818586 0.08545069 -0.0995295
0.26754847 -0.10108378 -0.30510378 0.03831818 -0.12676759 0.16208854 0.3736503 -0.3466562
-0.11379774 0.208584 0.14557415 -0.14345102 0.49892965 -0.30487254 -0.024783647 -0.16976383
0.47008198 0.68842864 0.6046241 -0.51040405 0.5152928 0.0552672 0.11075512 -0.2092879
0.737338 0.21642044 0.3900995 -0.3185979 0.28236282 0.4976161 0.5141857 -0.2436431
00000000: 5514 8b3f 2a31 a03e dee9 d83d 3cbb 4cbe
00000010: 6dcd b63c ff24 ed3d 632b d33d 461c e2bc
00000020: 405c f73d 7b16 063e 625b 0f3e 8cd6 04be
00000030: a5a8 243f 57e7 143c ff92 0ebd 06d6 c73e
00000040: 7662 e83d 6b40 2dbe e57c 053e 8b81 573e
00000050: 404f 063e edf0 8c3e 10d7 123e b95f 40be
00000060: 42f7 b83d 5b46 883e 3e2c 3d3e 76f6 61be
00000070: e3fb e43e d1ab 983e c500 af3d 1fd6 cbbd
00000080: 1dfc 883e 0305 cfbd 9036 9cbe 86f3 1c3d
00000090: 5dcf 01be 8afa 253e 184f bf3e ec7c b1be
000000a0: ca0e e9bd 0b97 553e 6411 153e d3e4 12be
000000b0: b573 ff3e 4118 9cbe 1307 cbbc 92d6 2dbe
000000c0: 96ae f03e dc3c 303f a5c8 1a3f d7a9 02bf
000000d0: 3bea 033f dc5f 623d 95d3 e23d 914f 56be
000000e0: 2fc2 3c3f 529d 5d3e 1fbb c73e 441f a3be
000000f0: dc91 903e 8ac7 fe3e ada1 033f 947d 79be

bias_ih_l4 f4 [16]
0.40453738 0.41245183 0.024592148 0.3913949 -0.18018125 0.048208013 0.14116359 0.002854143
-0.23490192 0.46750817 0.45389396 -0.30604556 0.5933809 0.42082122 0.28406173 0.82294416
00000000: 861f cf3e e32c d33e 7975 c93c ea64 c83e
00000010: 6f81 38be c475 453d 308d 103e 930c 3b3b
00000020: 218a 70be 3b5d ef3e ca64 e83e 01b2 9cbe
00000030: d0e7 173f e175 d73e 8a70 913e 78ac 523f

bias_hh_l4 f4 [16]
0.39451692 0.3973691 0.26279378 0.020697825 0.15508252 0.4911312 0.5323009 0.2238547
-0.32395566 0.100720696 0.3823583 0.06563426 0.52515244 0.5902294 0.46870568 0.82797223
00000000: 1ffe c93e f673 cb3e e88c 863e 7c8e a93c
00000010: f4cd 1e3e 8c75 fb3e df44 083f 2b3a 653e
00000020: 84dd a5be a746 ce3d 78c4 c33e 416b 863d
00000030: 6470 063f 4619 173f 31fa ef3e fdf5 533f

weight f4 [1, 4]
6.097552 5.182193 5.0867324 -6.0425644
00000000: 251f c340 86d4 a540 83c6 a240 b05c c1c0
