model_new/LSTM_2_-1_8.pt (torch, 7587 bytes, 21 tensors)

weight_ih_l0 f4 [16, 1]
00000000: 8b5d c23d 1385 833e 7c5d ae3e ff89 a63e
00000010: 6a45 e13e a2eb bdbe 2cdb aebe 8915 17bf
00000020: 77f6 78bc bb67 b3be c6ba 343e 7425 25be
00000030: 89b9 9a3e d022 843e afbb 803e d0b5 8c3e
0.09490498 0.25687465 0.34055698 0.32527158 0.4399827 -0.37093836 -0.3415159 -0.59017235
-0.015195481 -0.35040078 0.17649373 -0.16127568 0.30219677 0.2580781 0.2514319 0.27482462

weight_hh_l0 f4 [16, 4]
00000000: 04fe 953d 3a66 38bd 7fb0 90bd 07b7 1abd
00000010: dd4f 423e 54a6 313d a05e acbe ca82 e43d
00000020: 1f1c ba3d 7eaf eabc f0ed e9bd b21a 153d
00000030: 9700 a63d cc91 6c3d 1e13 3bbe 85d6 c83d
00000040: a522 313d 8c21 b5bd 2897 d7bc 87e7 8fbd
00000050: 5d88 80bc 9c5d 18be cca6 41bc c6bd a53d
00000060: a1d0 c43d 00fe 90bc c751 d4bd efc8 e03c
00000070: 5627 433c 2eb0 bb3c 8b67 e6bd 0854 083e
00000080: 53e6 2a3e 03ad eebe a2a9 1c3e e2c4 9cbe
00000090: 4a59 3c3f 534a 27bf 6cda 583e d08b 49bf
000000a0: 38c0 3ebf d6c4 b53e e09e fc3d 53e2 183e
000000b0: 59ce 033d 4342 2ebf 47cd a03f d859 c7bd
000000c0: 22df 333e 93b3 c8bd a893 eabd f66d 8bbd
000000d0: d725 543e cdcd 883c 6271 b0be 903b be3d
000000e0: 364e 5e3e 2f5a 6b3d 86e5 97be a714 cc3d
000000f0: eef1 ef3d 1705 563d f01d 6abe f8f0 c23d
0.0732384 -0.045019366 -0.07064914 -0.037772205 0.18975778 0.043371513 -0.33665943 0.111577585
0.09087395 -0.028648134 -0.11422336 0.03640241 0.08105581 0.05775623 -0.18269011 0.09806541
0.04324593 -0.08844289 -0.026317194 -0.07026582 -0.015690023 -0.14879459 -0.011819553 0.08092837
0.09610105 -0.017699242 -0.1036716 0.027439563 0.011911234 0.022911157 -0.11250218 0.13313305
0.16689424 -0.46616372 0.15299085 -0.3061896 0.73573744 -0.65347785 0.21177071 -0.7872896
-0.7451205 0.35501736 0.123349905 0.14930086 0.03217921 -0.6806986 1.2562646 -0.09733933
0.17565587 -0.09799876 -0.114539444 -0.06808083 0.2071756 0.016699696 -0.34461504 0.092887044
0.21709523 0.057459053 -0.296673 0.099648766 0.11716066 0.052250948 -0.22862983 0.095186174

bias_ih_l0 f4 [16]
00000000: 19a2 c7bc 1d9c d63e 630e 533e 81d9 973e
00000010: c217 053d 9f42 1dbd bb48 153e 1dd0 2f3e
00000020: 26d1 a53e a9a1 e63e d013 3abf 235a 343f
00000030: 2cde 2e3e 93ff ec3e 5f7e fd3e 685d b93e
-0.024369286 0.4191598 0.20610957 0.2965813 0.03249336 -0.038393613 0.14578526 0.17169233
0.3238613 0.45045212 -0.7268648 0.7045004 0.1707694 0.46288738 0.49510476 0.36204076

bias_hh_l0 f4 [16]
00000000: 0c38 dcbc 1d9c d63e 630e 533e 7bd9 973e
00000010: c064 063d af42 1dbd bd48 153e bacd 2f3e
00000020: 8934 a23e 7ce5 d83e 22a0 39bf 1b13 2a3f
00000030: 43e5 2e3e 93ff ec3e 5f7e fd3e 685d b93e
-0.026882194 0.4191598 0.20610957 0.29658112 0.032810926 -0.038393673 0.14578529 0.17168322
0.31680706 0.42362583 -0.7250997 0.664354 0.17079644 0.46288738 0.49510476 0.36204076

weight_ih_l1 f4 [16, 4]
00000000: 9938 d43d 19c9 0fbd 750d dcbd 8822 debd
00000010: 98b1 323e 13bd 5abe 985a a53d 91f1 a9bc
00000020: 1b02 003f db73 90be 2f94 bfbd 17dd b3bc
00000030: 259d 9c3d 5ae2 33be 93ba b63d 2be6 1f3d
00000040: 8d72 643e 4e98 f7bd d3df 9abd bcde 6ebd
00000050: 838c 3f3d 1f3e a4bd c723 8c3c 511a d53d
00000060: 5a63 fd3d 0c5b d23b 687d 3ebd 301c 1039
00000070: 4bfc 313d 841b 9cbd c10b 58bc 948c d33d
00000080: 93d3 1abe e98e a0be 96b8 183f 39c7 483e
00000090: 27c8 e73d 9a2e 433f 9044 1cbf 8624 da3e
000000a0: 5c2c bfbe 8b66 88bf 9a77 4b3f 0359 a3bf
000000b0: ed5e 863b 66c1 02bf 4f68 0e3f 9d72 95be
000000c0: 6acb 473e f949 933e 7c6d 38be 9458 07be
000000d0: 5f8e 733e db0f 3dbe a162 7c3d 01bc 773d
000000e0: ff4d 023f 16dd 53be c42a b0bd a7f0 1ebd
000000f0: 0b8c d73d 274d 20be a66f 683d ffa2 f13d
0.10362358 -0.03510389 -0.10744754 -0.1084643 0.17450559 -0.21361189 0.0807392 -0.02074507
0.5000321 -0.2821339 -0.09354436 -0.02195601 0.076471604 -0.17566815 0.08922305 0.039037865
0.22309323 -0.12089597 -0.07562222 -0.058317885 0.04676486 -0.08019661 0.017106904 0.1040541
0.123724654 0.006419545 -0.046506315 0.00013743411 0.043453496 -0.07622436 -0.013186396 0.103295475
-0.15119772 -0.31359032 0.59656656 0.19607247 0.11317473 0.76242983 -0.6104212 0.4260599
-0.3733853 -1.0656294 0.7947937 -1.2761539 0.0041006715 -0.5107635 0.5562791 -0.29189005
0.1951119 0.28767374 -0.18010515 -0.13217384 0.23784779 -0.1846308 0.061617497 0.06048203
0.5090026 -0.20689806 -0.08601907 -0.038803723 0.10524758 -0.15654431 0.0567471 0.11798667

weight_hh_l1 f4 [16, 4]
00000000: 6a26 3cbe 4af5 08bd faeb 893d 4951 67bc
00000010: 95cc 27bd 6951 46bd fc6c 0f3d 23fe bb3c
00000020: 4732 bdbe 9745 5cbd 2fa5 f3bd dc95 573c
00000030: 70e6 0a3d 92b9 31bd 83ae 303d 73a0 ef3c
00000040: 9fcd 69be e70e a8bd 0ee9 8f3d e84f b83c
00000050: 5784 fd3c ebd3 abbd 503d d03d 724f 033d
00000060: 5c52 fb3d 799b 52be 6a08 343d 4674 203e
00000070: e057 bc3c 9032 89bd b84d 1d3d 215c 173d
00000080: 7950 f53e 6870 af3d 3b48 dfbe a059 783d
00000090: 81f7 d73c 04f1 c5bd 034e c7be 25d6 9c3d
000000a0: 0533 333e d100 963f d80f 91bf 8eaa 18bf
000000b0: d97f dc3c 5b2e 36be 012e 913e 0177 0f3e
000000c0: 2f10 97be 3d0d 69be cc99 093e 5c44 7e3d
000000d0: d044 89bd f4c8 cfbd a30e cabd 38d4 773d
000000e0: d794 babe 0f3e 96bd b3e2 febc 5373 e63c
000000f0: edd5 0b3d 3c6a b7bd bb61 23bd 7ee1 7d3d
-0.18374029 -0.03343705 0.06734462 -0.014118501 -0.04096659 -0.048417483 0.035016045 0.02294833
-0.3695242 -0.053777304 -0.11896741 0.013158288 0.03391117 -0.043389864 0.043135177 0.029251313
-0.22832344 -0.082059674 0.070268735 0.02249904 0.030946894 -0.083900295 0.101679444 0.032058187
0.12271568 -0.2056712 0.043953337 0.15669355 0.02299112 -0.06699097 0.038404197 0.036953095
0.47912958 0.08566362 -0.43609795 0.060632348 0.026363136 -0.09665111 -0.38926706 0.07658032
0.17499931 1.1718999 -1.133296 -0.59635246 0.026916431 -0.1779112 0.2835541 0.1401024
-0.29504535 -0.22758956 0.13437575 0.06207691 -0.06702578 -0.10145751 -0.09866073 0.060505122
-0.3644168 -0.073360555 -0.031113958 0.028131163 0.034139562 -0.089558095 -0.039888125 0.061982624

bias_ih_l1 f4 [16]
00000000: c28d aa3e 06b7 eb3e 31b8 4c3f dad2 903e
00000010: e9ce dd3e bdd5 8d3d 08ed 8c3d ea25 943d
00000020: 5882 53be 1185 5abd 9877 623e 7e90 8fbd
00000030: ee57 a03e bcce 073f de03 5a3f 9132 943e
0.33311278 0.46038073 0.79968554 0.28285867 0.43321922 0.06925533 0.068811476 0.07233794
-0.20655191 -0.05334956 0.22115934 -0.070099816 0.31317085 0.53049827 0.8516215 0.2894483

bias_hh_l1 f4 [16]
00000000: aca1 9a3e feb6 eb3e 08bb 4c3f dad2 903e
00000010: 8cf9 e43e bc15 8e3d 4f98 253d e625 943d
00000020: 7bb8 42be 5729 93bd 89af 493d 32a2 5f3d
00000030: 9209 013f bcce 073f 3a03 5a3f 9132 943e
0.3020147 0.4603805 0.7997289 0.28285867 0.4472164 0.06937739 0.040428456 0.07233791
-0.19015686 -0.07185619 0.04923967 0.05459804 0.5040523 0.53049827 0.85161173 0.2894483

weight_ih_l2 f4 [16, 4]
00000000: ec40 fdbd 4ba5 ebbd 43d4 b43d a769 493d
00000010: af97 e139 fb13 29be 8530 be3c d7ac cc3d
00000020: 8453 dfbe 8e2c d2bd 1369 9ebd 7313 553d
00000030: 0075 a8be 8928 b9bd 09d7 753d 3eb4 573d
00000040: aa2a 88bd fa3b a3bb ee2f 4bbc 5b23 36bc
00000050: da9d f7bd c15b c0bd 3719 08be 22e4 8a3d
00000060: d663 ec3c f02a 8cbc 52ec 79bc 3402 973c
00000070: 5acc a6bc aabd edbd 8472 c03d 491a 123e
00000080: 2503 7e3d 243e da3e 535d 0ebf cce2 3abe
00000090: e4b8 21bf 45e8 d63e fc50 7abe e325 ebbe
000000a0: be78 223f 9bfa 6bbf 7880 d63f aa22 c33e
000000b0: d515 243e 1c7f 99bd c610 f2bf f2c5 213e
000000c0: dbe5 17be 294f 04be ee1a 003c d018 2c3d
000000d0: 7d0f 4fbc 3db4 c0bc 18e4 bfbd 34ea bb3c
000000e0: cba9 e1be 5e9c 05be 94af 96bd b70b 943d
000000f0: 728c b8be afd6 e3bd f501 b13d dce1 a43d
-0.123658985 -0.115061365 0.08829548 0.049173024 0.00043028357 -0.16511528 0.023216495 0.09993904
-0.43618405 -0.102624044 -0.07734885 0.0520205 -0.32901764 -0.090409346 0.060019527 0.052662127
-0.066487625 -0.004981515 -0.012401564 -0.011116828 -0.12090655 -0.09392501 -0.13290869 0.06781794
0.0288562 -0.017110318 -0.015254097 0.018433668 -0.020361114 -0.11608441 0.09396842 0.1426784
0.062014718 0.42625535 -0.5561115 -0.18250579 -0.63172746 0.41974083 -0.24444956 -0.45927343
0.6346549 -0.9217927 1.6757956 0.38112384 0.16023953 -0.07494947 -1.8911369 0.15798166
-0.14833777 -0.12920822 0.007818921 0.04201585 -0.01263797 -0.023523444 -0.09369677 0.022938825
-0.44074854 -0.1304793 -0.073577076 0.07228797 -0.3604465 -0.11124932 0.086429514 0.08050892

weight_hh_l2 f4 [16, 4]
00000000: 3a2e 0abd 15b9 813d 9eec e93d 1a7e fbbc
00000010: 290e 1fbd 1293 b53b e115 763d 24f0 54bd
00000020: c723 74be a562 f83d b6b4 43bd 6478 5abd
00000030: 1c52 0ebe 7ab2 fe3d 8196 673d cd79 e6bc
00000040: 51ab 083c 11a1 61bc 8a80 c93c caf2 76bd
00000050: 0441 f0bd c33c f7bc 4b81 c73c 31ec ea3c
00000060: c80b 1f3c cd78 69be 33c6 e73c 775b 833e
00000070: 810a 09bd d90f 9ebe 8ff9 8e3d ed6e 1dbe
00000080: 5a23 243e ea19 cd3d c7b8 90be 5335 bb3e
00000090: e520 093e 7703 6a3f 419c 0f3e 6ec0 263e
000000a0: e8c5 263f 27f2 db3e 3d62 8abf 6f32 7c3f
000000b0: 456e edbe b46f c9bd ff64 efbe ebb7 c6be
000000c0: ee7f 92bd 3c18 5d3d 4c98 5b3c 9c9a 4bbd
000000d0: 10bb c7bb 1ed6 d6bc da7b 00bd 696c 373e
000000e0: e41e 81be b470 b73d 27fc 483d 5fd5 79bd
000000f0: 37f0 13be dc20 8e3d 1286 df3d e71d c1bd
-0.03373549 0.0633413 0.11422084 -0.030699778 -0.038831864 0.005541214 0.06007946 -0.05198683
-0.23841773 0.1212819 -0.04777976 -0.05333747 -0.1389851 0.124363855 0.056540016 -0.028134251
0.008341626 -0.013771311 0.024597425 -0.060290135 -0.11731151 -0.03018034 0.024353644 0.028677078
0.009707399 -0.22799988 0.028292751 0.2565572 -0.033457283 -0.30871466 0.06981193 -0.15374346
0.1602911 0.10014708 -0.28265974 0.3656412 0.13391455 0.91411537 0.1402445 0.16284344
0.6514573 0.42958185 -1.081123 0.98514456 -0.4637319 -0.09835759 -0.4675674 -0.38812193
-0.07153307 0.05397819 0.01340301 -0.049707994 -0.0060952976 -0.026225146 -0.031368114 0.17912449
-0.2521888 0.08957043 0.049068596 -0.060994502 -0.14447103 0.06939861 0.10914244 -0.094295315

bias_ih_l2 f4 [16]
00000000: c8c5 9e3e 4286 e23e 07ce 5e3f e9fd 383f
00000010: ab47 193e 990b b43e ea77 c5bd 85be 7b3d
00000020: 9a23 1abe a151 c33d 6de8 433e 0b96 3c3c
00000030: b720 c13e e469 e13e 1914 653f 3e7c 3e3f
0.3101027 0.44243056 0.8703312 0.72262436 0.14968745 0.35165098 -0.096420124 0.06146099
-0.15052643 0.09537054 0.19131632 0.011510382 0.37720272 0.440261 0.8948379 0.7440833

bias_hh_l2 f4 [16]
00000000: c3c5 9e3e eae4 e23e facd 5e3f 04fe 383f
00000010: df47 193e ab14 b43e caff 92bd 4622 7b3d
00000020: 03a7 b5bd f96f 66bd 6113 853e 94d2 5f3c
00000030: b920 c13e e852 e33e 2114 653f 217c 3e3f
0.31010255 0.44315273 0.87033045 0.722626 0.14968823 0.35172018 -0.07177694 0.061311983
-0.088697456 -0.05625913 0.25991347 0.013661046 0.37720278 0.4439919 0.8948384 0.74408156

weight_ih_l3 f4 [16, 4]
00000000: a000 40bd 944b 563e 454a 10bd e0aa a83e
00000010: 61e7 9abd dd04 b0bd 6919 8d3d 3777 a33c
00000020: 6c9e 30bd 7178 1f3d 4de3 903d a022 9a3d
00000030: 8c75 063c 2dec 76be dace 1cbf 9843 103f
00000040: 8784 783e 7c1d 94be d8ca 763c 1ef9 203e
00000050: 89ee 20bd d411 adbd 8989 233d f7ef 483d
00000060: 17e2 0f3e 7579 67be 313b a3bd 5cfc 0e3e
00000070: 4706 d9bd 0733 98be f0e7 cc3e 38c4 a83e
00000080: d868 c3be 33d8 4dbd 0331 f73f a4fc 9abf
00000090: 3c0c df3d 690d a53e 4130 adbd 7b86 02be
000000a0: 2d4c aabe 2de1 0fbf 6c31 59bf 2844 6b3f
000000b0: a99c 19be aacc 0abe cd2b ab3f bb00 d53c
000000c0: ced2 64bc 8c6b e63d ebcd 35be cd3c b23e
000000d0: 1cec c3bd 01d2 dfbd c694 a63d c671 903d
000000e0: 1c08 03be 2400 59bc 0e59 673e 0a8a ca3d
000000f0: de68 1dbe 2a68 4abe 8f40 fd3d fd44 a63e
-0.046875596 0.20927268 -0.03522708 0.32942867 -0.07563663 -0.085946776 0.06889612 0.019954307
-0.043119833 0.03893322 0.07074604 0.075261354 0.008206736 -0.24113531 -0.6125313 0.5635314
0.24269305 -0.28928745 0.01506301 0.1572003 -0.039289985 -0.08450666 0.039926086 0.049056973
0.1405109 -0.22604926 -0.07970274 0.13963455 -0.105969004 -0.2972643 0.40020704 0.32962203
-0.38165927 -0.05025501 1.9311832 -1.210835 0.108910054 0.32236794 -0.08456469 -0.12746613
-0.33261243 -0.56202966 -0.84841037 0.91900873 -0.15001167 -0.13554636 1.3372742 0.026001325
-0.013966275 0.11250982 -0.17754333 0.34812012 -0.09566519 -0.10928727 0.08133845 0.070529506
-0.12796062 -0.013244662 0.22592565 0.0988961 -0.15372035 -0.19766298 0.12365829 0.3247451

weight_hh_l3 f4 [16, 4]
00000000: 3e98 bcbd 0a74 e4bc 1c53 c4bd 4ebb b93d
00000010: d563 bc3d c047 e9bc 1d01 a23c 0c2e 7c3d
00000020: 08ca cbbc 1718 7fbd 0b61 e53d 831f 003d
00000030: b909 873e 7c28 57bd 8f2c f1bd fb35 c33e
00000040: 13fe 62bc 1d2c 0e3d 6c5f 0a3e d5db 993d
00000050: ed53 903d dfa7 bfbc bb67 ed3c 8d26 613d
00000060: 3aa0 38bc 78d4 68bd d806 f9bc 60e8 db3d
00000070: 964a 4b3d 0d8b a7bd cd03 963e eae3 adbc
00000080: 1359 5a3e 762d 823e cd11 51bf abc1 69bd
00000090: d2e5 3cbe 71ea 1a3c de03 c33d b841 6dbd
000000a0: 1784 0c3f a25e ad3d 5ac7 503d 68ed a6be
000000b0: 5a3e 46be a08c 3e3d 89e4 2a3e 7726 14bd
000000c0: 746d af3d 756f 5fbc c458 09be 321a 513e
000000d0: 67b6 e53d 1bea 38bd 6106 4e3d 324a a93d
000000e0: ccde da3d 5f94 cabd 323c 143e a5d1 0d3d
000000f0: 3752 7a3d fbae 04be 15fa 273e bb4a 6c3e
-0.092087254 -0.027887363 -0.09586164 0.09068929 0.09198729 -0.028476596 0.019775921 0.06156735
-0.02487661 -0.062278833 0.1120015 0.031280052 0.26374605 -0.052528843 -0.11776077 0.3812712
-0.013854521 0.03471004 0.13512963 0.07512633 0.070472576 -0.023395477 0.028980127 0.054968406
-0.01126867 -0.05684325 -0.030398771 0.107376814 0.049631678 -0.08180819 0.29299775 -0.021226842
0.21323042 0.2542531 -0.81667787 -0.05706946 -0.18447044 0.009455309 0.09522222 -0.057924002
0.54889053 0.084653154 0.050971366 -0.32603002 -0.19359723 0.04652083 0.16688742 -0.036169495
0.085657984 -0.013637413 -0.13412768 0.20420149 0.11216431 -0.045145135 0.050299052 0.08266105
0.106870264 -0.09891581 0.14476088 0.03462376 0.061113562 -0.12957375 0.16403992 0.23075382

bias_ih_l3 f4 [16]
00000000: 0abf 133f d81b bb3d 4f8f 163f ac5f a33d
00000010: 913d 91be 6500 0a3d f0e5 5a3e 3e38 543c
00000020: ba8a b3be 7466 bfbd 4628 a63d f329 0b3e
00000030: b878 173f a724 f13d 573d 1b3f 9752 f13e
0.5771338 0.0913617 0.5881242 0.07977232 -0.28367284 0.033691783 0.21376777 0.012952862
-0.35066777 -0.09345713 0.0811315 0.13590221 0.5916858 0.11774569 0.6064047 0.47133324

bias_hh_l3 f4 [16]
00000000: 9c91 153f d71b bb3d 7363 123f 879f a33d
00000010: 6509 bbbe 5c00 0a3d 8eb7 653e 75c0 c9bc
00000020: 99c4 e33e e5df e7bd f900 163e b181 7cbd
00000030: 2305 083f a724 f13d 0044 193f a142 f23e
0.5842531 0.091361694 0.57183 0.07989412 -0.36530605 0.03369175 0.22433302 -0.024627903
0.4448593 -0.11322001 0.14648809 -0.06164712 0.5313284 0.11774569 0.59869385 0.4731646

weight_ih_l4 f4 [16, 4]
00000000: a3d0 2c3e 1d18 bcbd e619 973c e966 0e3e
00000010: 2a01 203e 0b7e babd 8d59 203e 9946 263e
00000020: aa76 e5bb a179 1fbd 81d0 b73d 6d5a 323d
00000030: 5a85 0f3e 30f2 aabd 9ba7 a73d 5d27 323e
00000040: 6b35 b73e 8551 66be 6fb6 e53e ddf9 b33e
00000050: 3345 383e 26a9 0cbe 601e 933e 24e3 4a3e
00000060: 83d2 27bc 3076 81bd e514 7d3e 990d 313d
00000070: f9c0 d23d adea dbbd 483e 823e 20e2 693e
00000080: 8e9f 8cbf 2608 3e3e d8d9 e5be 7854 95bf
00000090: 3af8 773e 09c1 17be caa0 673f 5537 9f3e
000000a0: df00 45bf d367 c13d 07cf 21bf b03e bebd
000000b0: 7f11 18bf 9fc3 833d 18fe dfbe 8d1d b8be
000000c0: 3c26 673e 193e 34be f39b 1c3e 9243 a73e
000000d0: 1cb1 933d d86b 44be 4c62 dc3e e6c2 a33e
000000e0: 0712 1a3d 6e54 3abe d0aa 003f 1554 9b3e
000000f0: 2d98 f93d 5e02 46be 7614 bc3e ea6f ae3e
0.16876464 -0.09184287 0.018444967 0.13906445 0.15625444 -0.09106072 0.15659161 0.16237868
-0.0070026712 -0.038934354 0.08975316 0.043543268 0.14015713 -0.08346975 0.08186265 0.17397828
0.35782942 -0.22492035 0.44865748 0.35151568 0.17995147 -0.137364 0.28734112 0.1981321
-0.010243061 -0.063213706 0.24715002 0.04322586 0.10290713 -0.1073812 0.25438142 0.22840166
-1.0986192 0.18557796 -0.44892764 -1.1666403 0.24215785 -0.14819731 0.9047972 0.31096902
-0.76954454 0.09443631 -0.63206524 -0.092893004 -0.59401697 0.06433796 -0.43748546 -0.35960045
0.22573179 -0.17601813 0.15293865 0.3266874 0.07211515 -0.19181764 0.43043745 0.31984633
0.03761485 -0.1819627 0.5026064 0.30337587 0.12187228 -0.1933684 0.3673436 0.3406976

weight_hh_l4 f4 [16, 4]
00000000: c22a 62be e7f2 633d 0e53 72be 316a d6bd
00000010: d8b8 6ebe 0c47 fb3d 0f0d 13be d445 b5bd
00000020: c85d 09bd 7d1f a33d fff4 01be c418 67bd
00000030: 8b07 32be 194b 343e ddb7 40be e608 fcbd
00000040: ddbd 13bf 2768 7d3e 77c1 32be 4a8a 6fbe
00000050: 922a c4be e4e0 fa3d 65b3 1abe ba90 29be
00000060: aa42 14be 9687 e23d ef4f 3bbe 6c72 e6bd
00000070: 8a1e 95be ab18 603e 99b2 24be 1bdb 37be
00000080: be34 dabe f8ce 053d 51f8 ebbe 09c2 e5be
00000090: 9e6b f43d 2145 713c cfb1 a6be ecbd c43d
000000a0: a67c 733e f739 0fbe 0a01 2c3f 91e8 4d3e
000000b0: 1ba8 ae3e aaf9 4ebb b802 b0bc 1acd 33bd
000000c0: 901a bcbe c708 be3e 1914 e3be aa13 b5be
000000d0: 169c d3be ea39 b93e cb7d cabe b9cd cabe
000000e0: e969 c1be 35b7 9d3e e54d a3be 34d8 b2be
000000f0: 8e84 cfbe fefa bf3e 349d d3be f1ba c8be
-0.22086623 0.05565157 -0.23664495 -0.10469473 -0.233127 0.122694105 -0.1436045 -0.08851209
-0.033536702 0.0796499 -0.12691115 -0.056420103 -0.1738569 0.17606772 -0.18820138 -0.12306385
-0.57711583 0.24746762 -0.17456613 -0.23392597 -0.3831373 0.12249926 -0.15107496 -0.16559115
-0.14478555 0.11061017 -0.18292211 -0.11252293 -0.29124862 0.2188441 -0.16083755 -0.17954676
-0.42618364 0.032668084 -0.46087888 -0.448746 0.11934589 0.014725954 -0.32557532 0.09606537
0.23778018 -0.13986956 0.67189085 0.20108248 0.3411263 -0.0031581917 -0.021485671 -0.043896772
-0.36739016 0.37116072 -0.4435127 -0.35366565 -0.41330022 0.36176997 -0.39549097 -0.3961008
-0.37776116 0.30803838 -0.31895366 -0.34930575 -0.4053082 0.3749618 -0.41330874 -0.39205125

bias_ih_l4 f4 [16]
00000000: 61ae 1a3f 3dc9 8e3e bebf dc3e c006 903e
00000010: a963 42bd a36c 823e 335c ab3e 88b6 1d3e
00000020: ee54 80be 4de7 07be 5b34 933d 5a52 b7be
00000030: 2c1c 373f a77e 003f 5058 1a3f 7015 023f
0.6042233 0.27887908 0.43115038 0.2813015 -0.047458325 0.25473508 0.3346878 0.15401661
-0.25064796 -0.13271828 0.071877204 -0.35805017 0.7152736 0.50193256 0.60291004 0.5081396

bias_hh_l4 f4 [16]
00000000: 3437 163f cf27 933e 4b4a dd3e a70d 923e
00000010: 462a 37bd 9ec7 0d3e 2be5 cb3e 2efb 0a3e
00000020: 02e5 053e ffc8 163e bc4e f4be 49ca 183e
00000030: 160b 383f d1f1 fc3e 8ea5 193f 59f0 013f
0.58677983 0.2874131 0.43220744 0.2852604 -0.04471805 0.13845679 0.3982328 0.1357238
0.13075641 0.14725111 -0.4771632 0.14920916 0.71891916 0.4940324 0.6001824 0.50757366

weight f4 [1, 4]
00000000: 6162 5cc0 e1df 4940 0ad5 40c0 8f69 46c0
-3.4435046 3.1542895 -3.0130029 -3.1001928
