model_new/LSTM_1_-1_8.pt (torch, 7523 bytes, 21 tensors)

weight_ih_l0 f4 [16, 1]
000000 86 08 a3 3d 2a 41 bb 3d 50 33 18 3e de f7 9c bd
       0.0796061 0.091432884 0.14863324 -0.076644644
000010 90 58 9e bd 26 a7 69 bf af ab 08 bf 5e 41 d0 3e
       -0.07731736 -0.91270673 -0.5338697 0.4067487
000020 3f c0 ae 3d 8c f9 ac 3d 9a e8 78 be 6f e0 b5 be
       0.08532762 0.08446035 -0.2430748 -0.35522792
000030 cd 71 0a 3f 6c 8a d9 3d dc 14 52 3e 90 b8 dc 3e
       0.54079896 0.10622105 0.2051577 0.4310956

weight_hh_l0 f4 [16, 4]
000000 12 da 9d 3e 55 b9 af bd c0 38 ad bd ba f5 a3 be
       0.30830437 -0.08580271 -0.0845809 -0.32023412
000010 ba b7 84 ba 81 56 a1 be a2 5c 2e 3e df 72 7f be
       -0.0010125556 -0.3151131 0.17027524 -0.24946164
000020 ce d2 33 3e 7f 1b 81 be aa f9 f0 3d b8 6c c6 be
       0.17560884 -0.2521629 0.1176637 -0.3875482
000030 37 3b 15 bc f2 bd ef bd 0b 81 70 bd 58 26 7e be
       -0.009108356 -0.11706151 -0.058716815 -0.24819314
000040 9a de 32 be 4e 9d 22 bf 52 c5 47 3e 68 45 2e be
       -0.17467728 -0.6352128 0.19508865 -0.17018664
000050 c3 21 3b 3e eb 6a 8a be 49 4f 2b 3e 6c e1 f8 be
       0.18274598 -0.27034697 0.16729464 -0.48609483
000060 db 5d 03 3e 61 95 c7 39 66 8e f1 bd 94 5b bb be
       0.12828772 0.00038067534 -0.117947385 -0.36593306
000070 de 72 89 bc 1d 86 d8 bd 36 11 77 3d 5e c9 08 be
       -0.016778406 -0.10572455 0.060319148 -0.13358065
000080 64 b3 8e be 66 70 ad bf 80 e8 46 3f 41 ac 69 3d
       -0.2787124 -1.3549926 0.77698517 0.05704904
000090 8d f7 9e bd 23 46 0f be 53 00 27 be 49 bd 0f be
       -0.0776206 -0.13991599 -0.16308717 -0.1403705
0000a0 bb f0 06 bf 45 0e 45 3f 57 fc 51 bf 91 e2 0f be
       -0.52711076 0.769749 -0.82025665 -0.14051272
0000b0 88 35 4b be 54 32 02 3e 63 51 d5 3d 12 5d ca 3e
       -0.1984464 0.12714511 0.10415914 0.39524132
0000c0 f6 2c 4a 3e 95 10 2e be 34 42 26 bd e3 f0 d6 bc
       0.19743714 -0.16998513 -0.04059048 -0.02623791
0000d0 92 64 1d 3e 77 74 b4 be 86 66 52 3e 5c a9 d6 be
       0.15370396 -0.35245106 0.20546922 -0.41926086
0000e0 8d 9b 0c 3e 77 fa 8b be 31 2e 50 3e f4 f2 a4 be
       0.13731213 -0.27339527 0.2033012 -0.3221661
0000f0 c5 d6 33 3d 55 f3 38 be 51 65 c0 3d ff 64 6c be
       0.043905992 -0.18061574 0.093943246 -0.23085402

bias_ih_l0 f4 [16]
000000 24 d1 22 3e ed 8d 65 3e 19 85 00 3f d3 37 84 3e
       0.15900093 0.22417422 0.5020309 0.2582384
000010 bd 0d 33 3e d2 41 d3 3e 09 7c 87 3d 74 61 56 3e
       0.1748571 0.41261154 0.06615455 0.20935613
000020 65 35 b8 be ff e2 47 bf db ab 2b 3f 8b 16 04 3e
       -0.35978237 -0.78080744 0.67059106 0.12899224
000030 3a ca ee 3d c5 be 1b 3f 49 31 11 3f 05 57 a1 3e
       0.116596654 0.60837966 0.5671583 0.31511703

bias_hh_l0 f4 [16]
000000 4c 4b 23 3e 90 a6 69 3e 22 f5 01 3f 48 36 84 3e
       0.15946692 0.22817445 0.5076467 0.25822663
000010 b7 4b 31 3e 74 3f d3 3e cd 7b 87 3d 74 61 56 3e
       0.17314039 0.41259348 0.0661541 0.20935613
000020 17 d7 d5 be 7f 0f 4f bf e4 14 2f 3f 8b 16 04 3e
       -0.41765663 -0.8088302 0.6839125 0.12899224
000030 4e b8 ee 3d c5 be 1b 3f 41 31 11 3f 05 57 a1 3e
       0.11656247 0.60837966 0.5671578 0.31511703

weight_ih_l1 f4 [16, 4]
000000 bd 2b d3 3d c4 98 e6 bd b7 21 8e bd fe bc 09 bf
       0.10311077 -0.112596065 -0.06940024 -0.53804004
000010 e0 28 c6 3d 70 9a b7 bd 6e 70 b5 bd 25 78 fb be
       0.09675765 -0.089650035 -0.08859335 -0.491151
000020 31 aa a3 3d 31 10 01 3d c4 6b 6e 3d ef 79 c2 be
       0.07991446 0.031509582 0.058208242 -0.37983653
000030 cf f8 bc 3d e1 c8 c8 bc d2 a8 82 be 17 de 46 be
       0.09227144 -0.024509849 -0.25519425 -0.19420658
000040 9d ed fa 3d d9 61 d7 3c 4a b5 47 3e c4 4f 49 3e
       0.122523524 0.026291775 0.1950275 0.19659334
000050 73 cb e6 3d 51 eb 96 bd 03 64 fd 3c 4c 52 6d be
       0.112692736 -0.07369102 0.030931478 -0.23175925
000060 8d 79 40 3e a1 7c 88 be 65 bb 21 3e f7 00 b4 3d
       0.18796368 -0.26657584 0.15794142 0.087892465
000070 b1 dc 08 3e 4d fa b1 3d cf 2f 2b be d7 a2 5d be
       0.13365437 0.08690319 -0.16717456 -0.2164415
000080 4e cd 1f bf 37 91 89 bf 95 6f 88 3f 59 db 4f bd
       -0.62422645 -1.0747441 1.0659052 -0.050746296
000090 b3 08 b0 3f a9 75 00 3f bc 03 96 bf 3e be 32 3e
       1.3752655 0.50179535 -1.171989 0.17455384
0000a0 fa f6 3a bf 2d 08 51 bf 17 af 51 3f e0 e6 a8 3e
       -0.73033106 -0.816531 0.8190779 0.32988644
0000b0 20 26 c5 3e 06 2f 31 3f 1b 1b 94 be 0c c7 01 3f
       0.3850565 0.6921238 -0.2892693 0.50694346
0000c0 40 f1 33 3e 66 9f 88 bd 27 c7 d2 bd 9e a4 07 bf
       0.17572498 -0.06671028 -0.102918915 -0.5298556
0000d0 49 5e 87 3e c4 62 71 bc d3 66 08 be a0 f6 ed be
       0.2643912 -0.01473302 -0.13320474 -0.46477222
0000e0 7f 4e 3c 3e c7 96 9a bc 04 10 b2 bd ed 18 d0 be
       0.18389319 -0.018870724 -0.08694461 -0.40644017
0000f0 f3 4a 89 3e 15 43 62 3b 9a d6 42 3e a9 0c b9 bd
       0.26814994 0.0034524847 0.19027176 -0.09035618

weight_hh_l1 f4 [16, 4]
000000 ca 67 bd bd f1 58 0d 3c ff 81 2b b9 28 6c e2 be
       -0.09248312 0.008627162 -0.00016356258 -0.44223142
000010 fb e1 4d bd 54 21 75 3c 23 72 02 bd 60 2d ae be
       -0.05026434 0.014961559 -0.03184713 -0.34018993
000020 d8 68 07 be 60 d0 c4 3d a3 7f a2 bd 6b 94 bb be
       -0.13223588 0.09610057 -0.07934501 -0.3663667
000030 8c d7 8c bd 17 37 17 3d f7 0d 02 3c 17 ce c8 bd
       -0.0687705 0.036917772 0.0079379 -0.098049335
000040 4d 27 04 3e 4e 1f 96 be 52 db ee 3d eb 4f 28 3e
       0.12905617 -0.2932076 0.11662926 0.16436736
000050 30 cb 8d 3e 1b 13 48 be 69 9b 65 3e d7 8e 69 bc
       0.27694082 -0.19538538 0.22422566 -0.014255247
000060 b3 b1 57 3e 37 be dd be 3b df c6 3e e5 6d 7a bc
       0.2106388 -0.43309185 0.38842186 -0.01528499
000070 7c 55 03 be ac 29 ad 3d f6 6f d1 bc 8f c7 13 be
       -0.12825578 0.08455214 -0.025566082 -0.14431594
000080 2b 3b 43 bf 6b d2 73 3f 01 2c 51 bf c8 94 82 be
       -0.7626216 0.9524295 -0.8170777 -0.25504136
000090 1b 98 c9 3d 0f 8e 54 bf 79 2e f5 3d 48 2a ce 3e
       0.09843465 -0.83029264 0.119717546 0.40266633
0000a0 99 b4 2a be 9a 41 5e 3f 72 83 e1 be 0a 50 59 bd
       -0.16670455 0.8681885 -0.44045597 -0.053054847
0000b0 8c 6a 41 3b 94 48 25 be ad f3 8c be 21 91 2e 3f
       0.002951297 -0.16140968 -0.2752966 0.681902
0000c0 25 77 29 bd 99 b5 a6 bb dc cf 36 3c 08 2a df be
       -0.04137339 -0.005087566 0.011157956 -0.43586755
0000d0 68 d7 66 3e 0a ae 83 bd 53 f3 4d 3d 12 03 d8 be
       0.22543108 -0.0642968 0.05028088 -0.42189842
0000e0 1a 1b a2 bb d8 d4 a9 3c c9 84 8e 3c 3b dc c0 be
       -0.0049470784 0.020731375 0.017397301 -0.37668023
0000f0 a3 2f d6 be f9 8b 11 3f 50 13 6a be 26 00 4a 3d
       -0.4183322 0.56854206 -0.2285893 0.049316548

bias_ih_l1 f4 [16]
000000 fb 22 34 3f 2e 2a 1f 3f 37 da 19 3f 60 23 ef 3e
       0.70365876 0.62173736 0.60098594 0.46706676
000010 c6 87 27 be 34 3a e9 3d 23 b3 75 3d 2c d3 c7 3e
       -0.16360387 0.113880545 0.05998529 0.390283
000020 0a fb 92 be ad a8 91 3d 1e e1 90 3e 11 c2 99 be
       -0.28707153 0.071122505 0.2829675 -0.30030873
000030 de 71 3d 3f b1 51 3a 3f 5b 48 35 3f 35 f4 9b 3e
       0.7400187 0.727809 0.7081353 0.30459753

bias_hh_l1 f4 [16]
000000 63 39 34 3f 95 1d 1f 3f 67 e3 19 3f 17 f6 ee 3e
       0.70400065 0.62154514 0.60112613 0.46672127
000010 cb 28 44 be 6b 53 db 3d 3a 75 5d 3d b0 cb c7 3e
       -0.19156186 0.1070927 0.054066874 0.3902259
000020 46 03 82 3e a1 44 40 be cd 02 40 3e 43 15 98 be
       0.25393122 -0.1877618 0.18751068 -0.2970372
000030 8e a9 3d 3f 9b a8 3a 3f 41 71 35 3f 52 2f c7 3e
       0.74086845 0.7291352 0.70875937 0.3890329

weight_ih_l2 f4 [16, 4]
000000 12 09 fa bd c4 2d 59 bc d3 24 82 bd 7e 3e be be
       -0.12208761 -0.01325554 -0.0635468 -0.37157053
000010 06 3b 5a 3e 91 63 bc be 3c 7d b0 3d 1b 66 ec 3e
       0.21311578 -0.36794713 0.086176366 0.4617165
000020 86 ee 25 bd 43 99 12 bd 90 c0 f9 3d ea f3 1a bf
       -0.040510677 -0.035790693 0.121949315 -0.60528433
000030 36 bc 75 3c 9a ca 59 3c ea 86 cf 3d ee 65 a7 be
       0.014998486 0.013292933 0.10133155 -0.32694954
000040 b4 83 27 be d0 40 d1 3b c5 ca 26 3d 9f cd c6 3e
       -0.16358835 0.0063859 0.04072072 0.3882875
000050 05 4a 74 be 41 fd 08 3d ce e8 0e 3e 22 10 42 bc
       -0.23856361 0.033444647 0.13955995 -0.011844667
000060 fb 88 12 be 97 d8 65 3e 37 c7 61 be 4d c6 04 bd
       -0.14310066 0.22445904 -0.2204865 -0.032415677
000070 5f 66 4c be 0d f2 f7 3d fb 1b 20 be 24 e6 d5 3e
       -0.19960926 0.121067144 -0.15635674 0.41777146
000080 0f 86 a5 bf 53 94 a6 3f f9 ca 99 bf f5 00 87 3e
       -1.2931536 1.3014015 -1.2015067 0.26367918
000090 04 a0 9a 3e 48 10 fa be 38 9d 48 3f e6 3e 2e be
       0.30200207 -0.48840547 0.78364897 -0.17016181
0000a0 97 a9 be bf 62 aa 95 3f b9 ab 74 bf 00 97 99 3e
       -1.4895505 1.1692622 -0.9557453 0.29998016
0000b0 65 86 b0 bf 3d 3e 66 3f af e7 76 bf 41 1c 09 3f
       -1.3791014 0.8993872 -0.9644727 0.5355874
0000c0 c4 04 42 be e6 be 4d 3d d5 bf 04 be a9 f0 9a be
       -0.1894713 0.050230883 -0.12963803 -0.30261734
0000d0 51 ab 1c be 81 bd 0b 3e 8b 1c ca 3d 35 24 84 bd
       -0.15299727 0.13646509 0.098687254 -0.064522184
0000e0 35 f2 21 bd e6 53 ad bd ff b0 de 3d 51 71 26 bf
       -0.039537627 -0.08463268 0.10873603 -0.6501666
0000f0 92 5b 13 bb 0c 70 2c 3d c6 4a c3 3d 31 4b 8e be
       -0.0022485 0.042099044 0.09535746 -0.27791741

weight_hh_l2 f4 [16, 4]
000000 25 4e 49 bd e3 af c7 3c 60 69 a0 3c 34 9b 57 3e
       -0.04914679 0.024375862 0.019581497 0.21055299
000010 91 ab 7d 3d 87 0f 04 bd 51 fc f4 bd 23 1d 8c 3d
       0.061931197 -0.03224137 -0.11962188 0.06841495
000020 51 af 22 bc e6 e3 0c 3e c5 fd 82 3d d4 86 ad 3d
       -0.009929494 0.13758811 0.06396059 0.08472982
000030 b9 7f 56 3e 7b 04 8c bd 51 45 19 bc 78 69 d8 bd
       0.2094716 -0.06836792 -0.009354905 -0.105669916
000040 45 51 2a be b7 61 bd b9 06 28 70 be 69 86 e2 bc
       -0.16632564 -0.00036121692 -0.23452768 -0.027651982
000050 43 ba a3 bd 67 8c 24 3e 8e fe b6 bc cc b9 30 3e
       -0.07994511 0.16069184 -0.022338178 0.17258376
000060 47 c3 07 3e b8 85 13 bf af 9b a0 be ee 1d 80 3e
       0.13258086 -0.57625914 -0.31368777 0.25022835
000070 20 81 17 be 36 d6 5a be b7 84 28 bd 04 11 8a 3e
       -0.14795351 -0.21370777 -0.04114219 0.26966107
000080 e6 41 31 be 23 21 a1 3f cd 2a 6f 3f c6 f5 d5 bd
       -0.17310295 1.2588238 0.93424684 -0.10447268
000090 b8 3f 9d be a3 d6 ce 3c 57 53 ac be 0c ff 0a bf
       -0.30712676 0.025248831 -0.33657333 -0.5429542
0000a0 dd f5 83 bf 3b 61 75 3f c9 e3 43 bf 42 3d 51 bf
       -1.0309407 0.95851487 -0.7651945 -0.81734097
0000b0 9a 32 b6 be a0 ba d7 3e a7 67 6f bf 68 28 39 bf
       -0.3558548 0.4213457 -0.93517536 -0.7232728
0000c0 5e bc 17 bd 92 28 81 bd ce 0a dd 3d fc 78 9c 3e
       -0.037044875 -0.06306566 0.107930765 0.30561054
0000d0 39 ae 9b 3d 9e fa d5 bd 2a ad f8 bd f9 63 1e bd
       0.0760159 -0.10448192 -0.121424034 -0.03866956
0000e0 5f 30 2b be 7a 80 ec 3d 2f 71 f4 bb ba d4 8d 3d
       -0.16717671 0.115479425 -0.0074597816 0.0692534
0000f0 fd 3d 3a 3e f7 da 05 bd 9d 54 4c 3e 4e 12 87 3d
       0.18187709 -0.032679524 0.19954152 0.06595288

bias_ih_l2 f4 [16]
000000 75 c8 77 3f 8e c7 6d 3e 71 ea 6e 3f bc 46 59 3f
       0.9679025 0.23220655 0.9332648 0.8487356
000010 9f 4b 79 bc f6 32 fc 3e 74 65 74 be a0 43 89 be
       -0.015215783 0.4925763 -0.23866826 -0.26809406
000020 4b a9 25 3e 09 99 41 bd 33 31 bf 3d c0 ea 38 3e
       0.16177861 -0.047265086 0.09335556 0.180583
000030 29 d9 84 3f 05 69 43 3f 4e b7 70 3f a0 6f 69 3f
       1.0378772 0.7633212 0.940297 0.9118595

bias_hh_l2 f4 [16]
000000 6b c8 77 3f 38 d1 b9 3e 27 eb 6e 3f a1 26 59 3f
       0.9679019 0.36292434 0.93327564 0.8482457
000010 6c 75 b8 bd c0 1b 13 3f af 67 62 be cd 48 79 be
       -0.090067714 0.5746422 -0.22109865 -0.24344178
000020 64 cd 26 be 51 3a 70 3b e0 62 ba 3d 58 5d a1 3e
       -0.16289288 0.0036655853 0.0910089 0.31516528
000030 b8 da 84 3f 7a af 4f 3f 1b b8 70 3f 3e 67 69 3f
       1.0379248 0.8112713 0.9403092 0.9117316

weight_ih_l3 f4 [16, 4]
000000 12 b5 d1 be bc f9 1f be c7 c5 8d bf 3b bc ef be
       -0.40958458 -0.1562261 -1.1075982 -0.46823296
000010 1d 3a b0 3e 7e fd 1a 3b be cb 40 3e 5e 3f 90 3e
       0.34419337 0.0023649628 0.18827721 0.28173345
000020 28 09 17 bf 82 fe 18 3e 1e ff 34 3f 0a a3 bb 3e
       -0.58998346 0.14940837 0.7070178 0.36647826
000030 a3 fc a5 3e de 7c 81 3e f3 57 0e 3e 47 93 fa 3d
       0.3241931 0.2529058 0.13900737 0.12235122
000040 4b a4 74 bd 12 94 87 be 19 f5 69 3e 47 68 6f 3f
       -0.059726994 -0.26480156 0.22847404 0.9351849
000050 c8 bd 21 3f a0 c0 13 3e 20 22 ca 3e 68 43 a8 3e
       0.6318021 0.1442895 0.3947916 0.32863927
000060 92 99 c6 be eb 1c 79 3e 66 5e f2 be 22 70 22 bf
       -0.3878904 0.24327438 -0.47337645 -0.6345235
000070 39 1b 9d be f3 7a 86 bb fe 72 53 be a8 d6 00 be
       -0.30684832 -0.004104012 -0.20649335 -0.12581885
000080 6e 11 2b 3f 5c 57 14 bf 72 27 f8 3e 00 e4 39 3f
       0.6682347 -0.579458 0.48467594 0.72613525
000090 c1 90 3e 3f ba 0e 15 bf 30 e7 d4 be d4 c8 fb 3e
       0.74439627 -0.58225596 -0.41582632 0.49176657
0000a0 9a 39 0f 40 03 3b 52 bd b6 bf fb 3f a6 33 c4 3f
       2.2378907 -0.05132581 1.966788 1.5328262
0000b0 02 70 d0 3e 5e e3 23 bf ca 53 4e 3e 48 1f 62 3f
       0.40710455 -0.6401881 0.2014915 0.8832898
0000c0 40 02 7e be 30 e4 c4 bd e3 82 88 be be 38 97 3e
       -0.24805546 -0.09613836 -0.2666236 0.29535478
0000d0 7e ef 89 3f 06 86 0f 3f c0 6e 88 3f b7 a3 76 3e
       1.0776212 0.5606388 1.0658798 0.2408589
0000e0 d3 48 ca bd fd 1c 1f 3e 5e 4e 2b 3e 07 4a 0a bd
       -0.09877171 0.15538402 0.16729113 -0.033762004
0000f0 cd fa 16 3f a0 19 87 3e 60 3a b5 3d 1d d2 f7 bc
       0.5897644 0.26386738 0.08849025 -0.030251557

weight_hh_l3 f4 [16, 4]
000000 4c 7d cb 3e c3 34 60 3e bb ee 6c bc 78 90 ab 3d
       0.3974403 0.21895127 -0.014461215 0.083771646
000010 43 b9 87 3e ca 59 ee 3d c4 1e 88 3e cb 5e 3f 3e
       0.2650853 0.1163822 0.26585972 0.18688504
000020 ff 02 62 3d b5 d4 aa 3e a8 ec af bf b6 6c ef 3d
       0.05517864 0.33365408 -1.3744097 0.11690657
000030 b3 a0 37 3d c2 c3 09 be 0b 89 55 be 4b 5d 93 bd
       0.04483099 -0.13453582 -0.20853059 -0.071955286
000040 60 1e 22 3e d0 b1 84 bd 2f dd 24 be 7b 20 47 bd
       0.158319 -0.064792275 -0.161 -0.04861496
000050 87 30 02 3e 5c 4b 8a 3d 3d 55 cb 3e 46 3f 05 3e
       0.12713824 0.06752655 0.3971347 0.13012418
000060 74 b8 09 be ca 9e e6 bd 9a f8 f8 3e 06 6e 89 bd
       -0.1344927 -0.11260755 0.48627168 -0.067104384
000070 38 bb 56 bd c0 33 66 3d 45 88 16 3d 16 dc 6c 3e
       -0.05242464 0.056201696 0.03675105 0.23130831
000080 57 b2 0d bf 54 f8 15 be 51 3c 2f 3e 3b 07 19 bf
       -0.5535025 -0.14645511 0.17112853 -0.5977666
000090 e5 03 a7 3d bb 2c 36 3f bf 74 12 bf f3 7c ce bd
       0.0815504 0.71162003 -0.5720939 -0.10082426
0000a0 7c 2b 7b bf 84 bd 39 be cf 04 bc be b2 6a a6 be
       -0.98113227 -0.181387 -0.3672242 -0.32503277
0000b0 7c f5 3d 3e f7 69 2f 3e 61 a9 16 bf a8 b8 af be
       0.18550676 0.17130266 -0.588522 -0.3432057
0000c0 48 c8 83 3e 67 57 75 3e 5a d3 f4 bd 6c 6a 38 3e
       0.2573874 0.23959123 -0.119543746 0.18009347
0000d0 ec 60 fb 3d 07 60 17 3f 1e 30 de 3e c3 c7 b6 3e
       0.12274346 0.591309 0.43396086 0.3569928
0000e0 1d 3b e5 3d 85 5f 2c be 1c e3 3e be 55 e0 df 3d
       0.111929156 -0.16833313 -0.18641323 0.1093146
0000f0 97 2b b5 3d 1b 12 1f be 97 e8 2a 3d 85 25 77 3d
       0.08846205 -0.1553425 0.04172572 0.060338516

bias_ih_l3 f4 [16]
000000 85 04 c3 3d 17 96 d5 3e 59 77 23 3f 42 90 cb 3e
       0.095223464 0.41716072 0.63853985 0.39758497
000010 2d 11 68 3e 68 af 59 3d 13 da 67 be 45 f4 5e 3e
       0.22662802 0.053145796 -0.22641782 0.21772869
000020 e3 59 48 3e f8 c7 10 be 61 86 67 3b 86 58 a1 3e
       0.19565539 -0.14138782 0.0035327899 0.3151285
000030 2d 28 48 3f 0d a0 dd 3e 46 23 7a 3f fa eb 22 3f
       0.78186303 0.43286172 0.97710073 0.6364132

bias_hh_l3 f4 [16]
000000 30 ea d6 3d 0b 20 dc 3e 73 0e 1d 3f 88 dd ca 3e
       0.104938865 0.42993197 0.6135017 0.3962214
000010 56 c4 8d 3e 74 e8 ad 3e 1e 09 ac be 4b 05 5d 3e
       0.27688855 0.3396641 -0.33600706 0.2158405
000020 2f e9 11 3e ea 89 00 bf 10 3e a9 3d 11 06 74 be
       0.14249109 -0.5021044 0.082637906 -0.23830439
000030 48 64 4b 3f f7 a0 17 be f9 83 79 3f 75 a6 08 3f
       0.7944989 -0.14807497 0.97467 0.53378993

weight_ih_l4 f4 [16, 4]
000000 df a0 2c 3f 7d 73 ce 3e 8c 7b a0 bb 06 8e 36 bf
       0.6743297 0.40322486 -0.0048975404 -0.7131046
000010 18 39 7e 3e 7d 63 ce 3d b0 77 a3 3e 99 2e ac 3e
       0.24826467 0.1007757 0.31927252 0.336293
000020 25 0f 98 3d 73 3e af 3e d7 bc 15 bf d8 ff 88 3e
       0.074247636 0.34227332 -0.5849127 0.26757693
000030 93 db e1 3d 26 9d 22 be 99 9c e5 3e db db 6c bd
       0.110282086 -0.1588026 0.44846037 -0.057826858
000040 83 dd d7 3e 88 b0 20 3e f9 54 aa 3e 4d cb a8 3d
       0.42161188 0.15692341 0.33267954 0.082419015
000050 94 ea e9 3e 5c 1a 5c 3e ab 30 53 3e b3 52 7a 3e
       0.4568678 0.2149443 0.20624034 0.2444561
000060 a0 5e 8b 3f 65 74 51 3f 58 2f 1a 3f c3 c2 e6 bd
       1.0888252 0.8181823 0.6022849 -0.112676166
000070 f0 9b 16 3d 42 93 39 3e 35 82 72 be a9 58 7d be
       0.036769807 0.1812258 -0.23682483 -0.24740852
000080 d2 c8 11 3e 4a 1a 6a bf f2 3a 3d 3f 76 c5 74 3e
       0.14236763 -0.91446364 0.7391807 0.2390345
000090 b3 9f b2 bd 86 f1 0d be 3a 10 99 be a9 57 81 be
       -0.087218665 -0.13861665 -0.29895192 -0.25262192
0000a0 40 c9 67 bf 52 5d 05 bf 30 e3 bb bf 1c d9 3e bf
       -0.9054146 -0.5209552 -1.4678707 -0.7455003
0000b0 3e 7b 20 3f 1b 30 5e be 62 85 14 bf 75 14 43 bf
       0.6268805 -0.21698038 -0.58016026 -0.7620309
0000c0 05 94 2d 3f 11 05 91 3e d0 64 27 3e 43 36 06 be
       0.67803985 0.28324178 0.1634705 -0.13106637
0000d0 a0 86 81 3f 36 40 74 3f 67 e3 cc 3e 14 f5 89 3f
       1.0119209 0.9541048 0.40017244 1.0777917
0000e0 48 65 cb 3e 68 24 53 3e bb de 8a 3d 77 81 b4 3e
       0.3972571 0.20619357 0.06780764 0.35255024
0000f0 bb a2 8f 3f 8c d3 6d 3f 2d 35 0c bf db d1 c8 3e
       1.1221536 0.9290092 -0.5476864 0.39222607

weight_hh_l4 f4 [16, 4]
000000 78 e0 48 3e 1d 5d 6d be 1a 11 3d bf 1f 31 43 be
       0.19616878 -0.23180051 -0.7385422 -0.19061707
000010 1e 93 ab bd e3 3e 43 3a d7 31 38 be 72 8b 1e bd
       -0.0837767 0.00074480305 -0.17987762 -0.038707204
000020 e7 30 59 3d ee 47 0a be ac cf e8 be d0 22 31 be
       0.053025153 -0.13504001 -0.4547094 -0.17298436
000030 57 cc ac 3c 3d 90 3c be 44 ba 86 bc bd 62 26 3d
       0.02109353 -0.18414398 -0.01644624 0.040621508
000040 9a 67 32 bd 76 bc c6 be b2 ba b0 be 16 19 cc be
       -0.043555833 -0.3881566 -0.34517437 -0.3986289
000050 ab 49 e0 bd 5f 55 1b be 48 44 e7 be 77 87 40 bd
       -0.10951551 -0.15169285 -0.45169282 -0.04700419
000060 4c af 17 be d5 dd 6c bd e0 c2 49 3e 49 81 70 be
       -0.14812964 -0.057828743 0.19703245 -0.23486818
000070 ba a5 e0 3c 6b 53 90 be 6f 28 e0 be 81 c2 99 bd
       0.027422775 -0.28188643 -0.43780848 -0.07507802
000080 8e f1 ac 3d 60 65 8f 3e 67 22 2c 3f e6 39 bc 3e
       0.084445104 0.2800703 0.67239994 0.36762923
000090 90 3b 3c bd d2 30 16 3d cc a5 7b 3e ec b8 13 3d
       -0.04595524 0.036667652 0.24574965 0.036065027
0000a0 66 6d 04 bf 38 27 7e 3e 07 38 a1 be d0 16 22 bf
       -0.5172943 0.24819648 -0.31488058 -0.6331606
0000b0 09 e1 03 3e fa 95 02 3f 36 c1 a5 3e 74 ee 2e 3f
       0.12878813 0.51010096 0.3237397 0.683326
0000c0 d8 7e 95 be f5 1e 1b bf 39 70 fb be c8 7d 11 bf
       -0.29198337 -0.6059411 -0.49109057 -0.5683255
0000d0 fa 9a ba be 6c 71 07 be 70 c7 00 bf df 0c c2 be
       -0.36446363 -0.13226861 -0.5030432 -0.37900445
0000e0 0b 40 90 be e6 c9 37 bf 14 06 cc be ca 4c 0c bf
       -0.2817386 -0.7179245 -0.39848387 -0.5480467
0000f0 90 9e b6 be ae d4 3e be e3 08 6d bf 70 28 9b bc
       -0.3566785 -0.18635818 -0.92591685 -0.01894018

bias_ih_l4 f4 [16]
000000 53 8c 96 3e ff 13 20 3e d2 10 38 3e 6a ef 14 3f
       0.29403934 0.15632628 0.17975166 0.58177817
000010 c1 b8 ac 3e 1a a5 c9 3e a6 27 05 bd 41 b9 08 3f
       0.33734706 0.39383775 -0.032508515 0.53407675
000020 bc 66 0d 3e 7a e7 e7 be c2 3e b2 be 64 23 09 be
       0.13808721 -0.4529379 -0.34813505 -0.13392407
000030 ee 9f 4f 3f af 0a 29 3e 47 4f 4a 3f f8 fa f8 3e
       0.8110341 0.16507982 0.7902722 0.48628974

bias_hh_l4 f4 [16]
000000 04 35 0e 3e 44 60 a6 3e 50 74 e9 3e 2d 5f 01 3f
       0.13887411 0.3249532 0.45596552 0.5053585
000010 28 b3 bf 3e e0 c1 64 3e d4 e7 ec be ff 4f 0a 3f
       0.37441373 0.22339582 -0.4627062 0.54028314
000020 a0 80 0e be 5a 64 11 bf e7 d7 bc 3e b3 63 b1 be
       -0.13916254 -0.5679375 0.3688347 -0.34646377
000030 e9 7c 39 3f 68 c6 e3 3e 70 5e 4e 3f 66 0d 84 3e
       0.7245622 0.4448731 0.8061285 0.25791472

weight f4 [1, 4]
000000 9c 3d bf c0 8b 78 b1 c0 3f 3a b8 c0 28 2a b1 c0
       -5.9762707 -5.5459647 -5.75711 -5.536396
