model_new/Mult_Conv_2_-1_6.pt (torch, 712456 bytes, 27 tensors)

weight f4 [30, 1, 3, 3]
0.10291987 0.38598225 0.10009097 -0.066139705 0.21437606 0.11954791 -0.32158196 -0.113897964
-0.21842511 0.034102075 -0.10860556 0.11127749 0.067683294 -0.016051129 0.2929613 -0.18663795
-0.26621625 0.08116374 0.00045908653 -0.0024884383 -0.003548871 -0.00428004 -0.0035048143 -0.0046908865
0.0019889951 -0.00013382932 0.0005737799 0.16446607 0.117392085 0.021169998 0.318483 0.058327455
0.018180396 -0.19154127 -0.35535705 -0.13902083 -0.00058811746 0.0010981392 -0.004007051 -0.0010848447
-0.004826759 -0.0036518804 0.0003080585 -0.001019381 0.0021373357 -0.28630522 0.00066120527 0.136816
0.05811915 0.36441925 -0.098771915 -0.04962546 0.0060487483 -0.14827071 -0.05136584 -0.051025145
0.04850418 -0.05035229 -0.06215104 -0.0063350727 0.13378535 -0.08536296 -0.09152953 0.11475818
0.057149567 -0.06877041 0.044203766 0.2438678 0.20984024 -0.2128376 -0.3133101 0.05357934
-0.20602508 0.0044562235 0.1964424 0.0030368196 0.03915172 -0.03428809 0.08499365 0.011569479
-0.23749101 -0.13348271 -0.25907487 0.10496042 -0.1765275 -0.19661902 0.34047905 0.056909814
0.082090475 0.07461818 -0.08704021 0.03903165 -0.039614547 -0.18463948 0.016762687 -0.13475896
-0.019366473 0.2599319 0.12857893 -0.00072520546 -0.0020086123 -0.00038289698 0.0009026037 -0.00010065602
0.00065488927 -0.0026978487 -0.0016376793 -0.0014938458 -0.032464914 0.16295451 -0.055190396 0.0368648
0.23244753 -0.09298885 -0.052643493 0.10455799 -0.061915763 0.29889998 -0.11255149 -0.046536606
0.04604003 -0.116652116 0.11386164 -0.16655384 -0.12744097 0.038188487 -0.18684866 0.12453831
0.33424047 0.020623457 0.19749437 0.2877512 -0.18695006 -0.15326467 -0.14690459 -0.0012754727
0.0033100182 -0.0004155481 0.000589533 -0.0011268716 -0.0019921255 0.0012202605 -0.00013660404 0.0009482489
-0.09487686 0.12148006 -0.12890624 0.19758339 0.23148715 -0.10978902 0.036198176 -0.021572359
-0.18168911 -0.035534035 0.10316956 -0.14541326 0.095527105 0.23072088 -0.14934757 -0.07812913
0.08019513 -0.10620564 0.12478674 0.13739964 0.040268134 0.14774033 0.04735833 0.018832762
-0.3083627 -0.17914002 -0.108913034 0.20536767 0.01461616 -0.05628491 0.077084266 0.06337737
-0.1232445 0.106404066 0.021840638 -0.2568786 0.001980365 0.0018409663 0.0007544385 -0.0025613834
-0.00081603427 -0.0012192124 0.0025636062 0.0017155895 0.00097589364 -0.0009485173 -0.0033680345 -0.000103828665
0.0007510096 0.00049847044 -0.00061716186 -0.00060705974 1.7872171e-05 0.001880827 0.09652336 -0.17463577
-0.10067025 0.08929081 -0.20447506 -0.25640917 0.12380859 0.12676382 0.060595136 -0.20278865
-0.08885061 0.051534023 -0.05856631 -0.078860566 -0.044469874 0.0012132186 0.11388815 0.17510398
0.0021252853 0.0038445345 -0.0016891669 -0.0007389845 0.00085622317 -0.0015630155 -1.12537955e-05 -0.0009188481
-0.001299198 -0.0014802882 0.0024190675 0.002464935 -0.0041002706 -5.1053637e-05 -0.0022685875 -0.0020149685
0.0011707894 0.00089968176 -0.0032561542 -0.0009624172 0.0010203765 -0.0029590009 -0.0017769256 0.00032347062
-0.001100907 -0.00025743485 0.0013721 -0.0036293108 -0.00062769366 0.00066636584 0.0002724131 -0.00058122375
-0.0017143644 -0.0003071737 8.486513e-05 0.0007862097 0.1965736 0.26125637 0.23159848 0.15434492
00000000: a7c7 d23d 779f c53e 7ffc cc3d 4174 87bd
00000010: 6685 5b3e 89d5 f43d 64a6 a4be 5643 e9bd
00000020: d5aa 5fbe 9eae 0b3d 986c debd 74e5 e33d
00000030: 8a9d 8a3d a87d 83bc 06ff 953e 051e 3fbe
00000040: 7f4d 88be 2d39 a63d 8db1 f039 1115 23bb
00000050: 2d94 68bb 943f 8cbb 07b1 65bb 02b6 99bb
00000060: cd59 023b 8954 0cb9 b869 163a cb69 283e
00000070: 436b f03d b46c ad3c 3410 a33e c5e8 6e3d
00000080: 0eef 943c 6523 44be 5cf1 b5be 7a5b 0ebe
00000090: e52b 1aba 70ef 8f3a 944d 83bb 5931 8eba
000000a0: ca29 9ebb 6354 6fbb e982 a139 c09c 85ba
000000b0: 8b12 0c3b 9996 92be bc54 2d3a 7e19 0c3e
000000c0: 590e 6e3d 2995 ba3e ee48 cabd 1144 4bbd
000000d0: 9434 c63b 47d4 17be fd64 52bd beff 50bd
000000e0: 52ac 463d 343e 4ebd 1792 7ebd 7196 cfbb
000000f0: 07ff 083e c7d2 aebd d673 bbbd 5606 eb3d
00000100: aa15 6a3d 80d7 8cbd 020f 353d 7bb8 793e
00000110: 5ce0 563e 1af2 59be 2e6a a0be 0376 5b3d
00000120: 3df8 52be 8305 923b 3228 493e 6105 473b
00000130: 8e5d 203d ab71 0cbd 2711 ae3d e98d 3d3c
00000140: d830 73be b1af 08be 76a5 84be 7df5 d63d
00000150: a0c3 34be 7f56 49be 4553 ae3e 441a 693d
00000160: 0d1f a83d 6bd1 983d 2342 b2bd a7df 1f3d
00000170: dd42 22bd 2212 3dbe e751 893c 41fe 09be
00000180: 70a6 9ebc cb15 853e 32aa 033e b71b 3eba
00000190: eca2 03bb 90bf c8b9 b59c 6c3a 4a17 d3b8
000001a0: e0ac 2b3a 64ce 30bb 66a7 d6ba 26cd c3ba
000001b0: eef9 04bd 8cdd 263e 530f 62bd 8bff 163d
000001c0: ba06 6e3e f070 bebd b4a0 57bd 8022 d63d
000001d0: 629b 7dbd 6b09 993e 6581 e6bd 2b9d 3ebd
000001e0: 7894 3c3d 4ee7 eebd 4b30 e93d 178d 2abe
000001f0: e37f 02be 886b 1c3d 4155 3fbe f10d ff3d
00000200: 9121 ab3e 86f2 a83c f73b 4a3e 2054 933e
00000210: d66f 3fbe 6af1 1cbe 286e 16be c32d a7ba
00000220: e4ec 583b ecdd d9b9 e48a 1a3a 89b3 93ba
00000230: 528e 02bb 26f1 9f3a 5e3d 0fb9 e893 783a
00000240: cd4e c2bd 8aca f83d ffff 03be 4d53 4a3e
00000250: f80a 6d3e 11d9 e0bd 8a44 143d 84b8 b0bc
00000260: b60c 3abe 238c 11bd 904a d33d 37e7 14be
00000270: b7a3 c33d 1842 6c3e 92ee 18be 2a02 a0bd
00000280: 583d a43d 5882 d9bd 3190 ff3d 7eb2 0c3e
00000290: 33f0 243d 3e49 173e cffa 413d 2a47 9a3c
000002a0: b7e1 9dbe 7b70 37be cc0d dfbd e74b 523e
000002b0: 9e78 6f3c 018b 66bd 5bde 9d3d ffcb 813d
000002c0: 9d67 fcbd 60ea d93d 23eb b23c 9885 83be
000002d0: 03c9 013b 944c f13a 83c5 453a e2dc 27bb
000002e0: 22eb 55ba fbcd 9fba 2d02 283b a2dd e03a
000002f0: 1dd3 7f3a eba5 78ba 3eba 5cbb 97be d9b8
00000300: 67df 443a c9ab 023a 08c9 21ba 1723 1fba
00000310: 32ec 9537 1586 f63a 0aae c53d b8d3 32be
00000320: 342c cebd 1ade b63d e961 51be 1048 83be
00000330: 5c8f fd3d 60ce 013e 9b32 783d d4a7 4fbe
00000340: 4ff7 b5bd 5715 533d 3ae3 6fbd a681 a1bd
00000350: 0b26 36bd dc04 9f3a 313e e93d 754e 333e
00000360: 5f48 0b3b 96f4 7b3b 0967 ddba 69b8 41ba
00000370: 2a74 603a 19de ccba afce 3cb7 dade 70ba
00000380: da49 aaba 3b06 c2ba 3889 1e3b bf8a 213b
00000390: 905b 86bb 6d22 56b8 95ac 14bb 900d 04bb
000003a0: 2c75 993a 9fd8 6b3a 3465 55bb ba4a 7cba
000003b0: 27be 853a cceb 41bb bbe7 e8ba 7e97 a939
000003c0: 4f4c 90ba 52f8 86b9 09d8 b33a bbd9 6dbb
000003d0: cf8b 24ba 0eaf 2e3a abd2 8e39 445d 18ba
000003e0: 86b4 e0ba 280c a1b9 9ff9 b138 a419 4e3a
000003f0: 974a 493e 65c3 853e 2728 6d3e 980c 1e3e

bias f4 [30]
3.9266066e-05 1.3935234e-05 8.9053117e-07 -6.0635366e-06 -7.474624e-07 1.0077351e-05 2.2119868e-05 8.291184e-06
4.8773004e-06 2.8071012e-05 -2.4237802e-06 6.5269023e-07 -1.6351134e-05 -1.9487843e-05 -1.9240546e-05 -3.4293328e-06
-1.405001e-05 4.4324233e-06 -5.876168e-06 4.772458e-06 -2.108224e-06 3.7515417e-07 -9.62487e-07 3.121809e-05
-7.7070524e-07 -7.8231756e-07 -5.64171e-07 -9.3534464e-07 -9.969399e-05 -5.746893e-07
00000000: 9eb1 2438 60cb 6937 d60c 6f35 6275 cbb6
00000010: 3aa5 48b5 e511 2937 0e8e b937 5d1a 0b37
00000020: b1a7 a336 0a7a eb37 3aa8 22b6 8834 2f35
00000030: cb29 89b7 d379 a3b7 c266 a1b7 7d23 66b6
00000040: 55b8 6bb7 3aba 9436 e62b c5b6 1a23 a036
00000050: 037b 0db6 cc68 c934 cd2e 81b5 2bf0 0238
00000060: 76e2 4eb5 7400 52b5 8971 17b5 6514 7bb5
00000070: ce12 d1b8 5944 1ab5

weight f4 [30, 30, 1, 1]
1.1331e-41 -7.6704e-41 3.8506e-41 4.4846e-41 6.2892e-41 -5.7375e-41 1.7092e-41 -1.611e-42
7.035e-42 8.9822e-41 6.332e-41 -6.7719e-41 3.0808e-41 1.0477e-40 9.6615e-41 -5.2557e-41
8.1528e-41 1.7546e-41 1.042e-41 3.2385e-41 2.7852e-41 -9.4662e-41 -7.423e-42 2.042e-42
2.8476e-41 -3.6142e-41 -6.8816e-41 -6.4087e-41 -6.0865e-41 -1.3755e-41 2.915e-41 3.02e-42
-8.3012e-41 5.8867e-41 -1.06422e-40 -3.921e-42 4.3017e-41 3.057e-41 -4.502e-41 -2.6337e-41
5.2076e-41 -1.06332e-40 3.7066e-41 -2.6274e-41 -1.6621e-41 -2.14e-42 -3.1047e-41 -5.7333e-41
-2.0582e-41 3.256e-41 1.02393e-40 1.476e-41 1.0769e-41 -1.1463e-41 -4.9637e-41 6.541e-41
-5.3343e-41 -7.9647e-41 -3.5128e-41 -3.626e-41 0.08593508 -0.14361244 0.0027595132 -0.17236324
0.0057378593 -0.11088503 0.020865623 -0.0014580395 0.00905695 0.053942617 -0.2053346 0.003767143
-0.12572213 0.14137805 -0.07432448 -0.0016453989 0.06974847 0.024069013 -0.092126794 -0.072241835
0.00479915 -0.0052639176 -0.17264695 -0.053600006 0.007229291 0.012098485 0.005095881 6.758629e-05
-0.0038725806 0.006333945 7.1853e-41 8.533e-41 -1.2032e-41 1.8482e-41 3.9093e-41 9.6236e-41
5.5187e-41 3.73e-43 -7.844e-42 -4.1788e-41 -5.213e-41 -8.2366e-41 1.3779e-41 -8.9294e-41
9.4862e-41 1.3284e-41 7.4667e-41 1.7216e-41 6.4811e-41 -5.9318e-41 -8.578e-41 7.8407e-41
-8.846e-42 -6.0752e-41 5.6021e-41 -8.2265e-41 1.6925e-41 9.8433e-41 8.6471e-41 6.5148e-41
-4.1293e-41 8.8135e-41 2.5607e-41 -9.4036e-41 9.6671e-41 4.9225e-41 5.5592e-41 6.6011e-41
-7.6135e-41 9.5616e-41 -2.9804e-41 -6.3491e-41 3.0118e-41 -9.3266e-41 -3.2804e-41 -3.4663e-41
-1.3066e-41 5.6918e-41 -8.1127e-41 -9.511e-41 6.3344e-41 -2.803e-42 -1.9038e-41 4.1431e-41
-6.2386e-41 -6.112e-41 -4.1598e-41 5.225e-42 5.8131e-41 -2.881e-42 -0.03546415 -0.22880939
-0.0022951544 0.054934647 0.00049736165 0.06321284 -0.0057999794 -0.13920015 -0.07709439 -0.15777896
-0.010970283 -0.0034709582 0.102043696 -0.06193025 0.24641554 0.0039105606 -0.07297458 -0.20237233
0.13726573 -0.085106425 0.0035827602 -0.0013640521 -0.034327082 -0.10675586 0.0013921026 0.0062422594
0.0027313116 0.00054458994 -0.073946476 -0.001254167 0.5027866 0.06443201 -0.00095070264 -0.12816271
5.003861e-05 0.05768828 -0.004065068 -0.056208443 -0.10622833 -0.08788484 -0.08362479 -0.00028893337
0.07142727 0.17362474 -0.050787862 0.0017822355 0.04989977 0.039100528 0.059393883 0.15726322
-0.00029123944 -2.7990121e-05 0.1848715 -0.09103852 0.0015918174 -0.0033903916 -0.0043209777 -0.0001323164
-0.40068495 0.0021809016 -6.42e-43 -1.477e-42 -1.609e-41 -3.286e-42 -1.9879e-41 -4.987e-42
5.403e-42 2.293e-42 -3.842e-42 -6.817e-42 -6.964e-42 2.5697e-41 5.46e-42 -6.348e-42
-6.715e-42 2.482e-42 6.023e-42 7.13e-42 -3.83e-42 -3.22e-43 2.6664e-41 2.497e-42
2.606e-42 -6.837e-42 -1.9244e-41 5.27e-42 -9.603e-42 5.398e-42 5.148e-42 -1.7854e-41
-9.0667e-41 -3.9653e-41 -3.3582e-41 -6.4554e-41 7.1641e-41 -4.4095e-41 1.04819e-40 -2.8571e-41
6.154e-41 -2.465e-42 1.10759e-40 -8.656e-42 8.5827e-41 7.021e-41 -5.8769e-41 -1.0818e-40
00000000: 961f 0000 d2d5 0080 576b 0000 037d 0000
00000010: 51af 0000 f09f 0080 a52f 0000 7e04 0080
00000020: 9c13 0000 63fa 0000 83b0 0000 c6bc 0080
00000030: e155 0000 0e24 0100 530d 0100 8292 0080
00000040: 44e3 0000 e930 0000 0c1d 0000 475a 0000
00000050: a44d 0000 e107 0180 b114 0080 b105 0000
00000060: 614f 0000 c064 0080 d5bf 0080 a6b2 0080
00000070: aba9 0080 5826 0080 4251 0000 6b08 0000
00000080: 67e7 0080 19a4 0000 a928 0180 ee0a 0080
00000090: ea77 0000 3755 0000 7f7d 0080 6b49 0080
000000a0: 2b91 0000 6928 0180 5367 0000 3e49 0080
000000b0: 552e 0080 f705 0080 8c56 0080 d29f 0080
000000c0: 6039 0080 c45a 0000 6e1d 0100 2529 0000
000000d0: 051e 0000 f41f 0080 5e8a 0080 56b6 0000
000000e0: b394 0080 06de 0080 ec61 0080 1465 0080
000000f0: bbfe af3d 240f 13be f3d8 343b fd7f 30be
00000100: a704 bc3b b117 e3bd 62ee aa3c b01b bfba
00000110: 9a63 143c eff2 5c3d 3c43 52be 2ce2 763b
00000120: 4dbd 00be 68c5 103e 6f37 98bd 6daa d7ba
00000130: 49d8 8e3d 612c c53c f9ac bcbd 87f3 93bd
00000140: 3042 9d3b f17c acbb 5dca 30be ae8b 5bbd
00000150: b0e3 ec3b b938 463c 59fb a63b 1dbd 8d38
00000160: 1fcb 7dbb fb8c cf3b 4cc8 0000 deed 0000
00000170: 8a21 0080 8533 0000 fa6c 0000 440c 0100
00000180: d799 0000 0a01 0000 de15 0080 7d74 0080
00000190: 5191 0080 9ae5 0080 6926 0000 eaf8 0080
000001a0: 7008 0100 0825 0000 24d0 0000 fe2f 0000
000001b0: abb4 0000 5ba5 0080 1fef 0080 91da 0000
000001c0: a918 0080 5aa9 0080 2a9c 0000 52e5 0080
000001d0: 2e2f 0000 6412 0100 0cf1 0000 9bb5 0000
000001e0: 1c73 0080 aff5 0000 6247 0000 2206 0180
000001f0: 7b0d 0100 3889 0000 f89a 0000 03b8 0000
00000200: 3cd4 0080 8a0a 0100 1553 0080 fdb0 0080
00000210: f553 0000 fd03 0180 725b 0080 a060 0080
00000220: 6c24 0080 aa9e 0000 26e2 0080 2109 0180
00000230: 94b0 0000 d007 0080 1235 0080 7e73 0000
00000240: e8ad 0080 61aa 0080 f573 0080 910e 0000
00000250: 0ca2 0000 0808 0080 db42 11bd 024d 6abe
00000260: 4d6a 16bb 2703 613d 6061 023a bc75 813d
00000270: c10d bebb 7c8a 0ebe aae3 9dbd cf90 21be
00000280: b4bc 33bc 0479 63bb 49fc d03d 93aa 7dbd
00000290: 5b54 7c3e 2924 803b b273 95bd b13a 4fbe
000002a0: 638f 0c3e 474c aebd becc 6a3b fec9 b2ba
000002b0: 8e9a 0cbd d1a2 dabd 3677 b63a de8b cc3b
000002c0: ceff 323b d0c2 0e3a 4071 97bd dc62 a4ba
000002d0: 9fb6 003f eef4 833d 9338 79ba 163d 03be
000002e0: 8ce0 5138 8c4a 6c3d 4334 85bb d33a 66bd
000002f0: 3d8e d9bd f8fc b3bd 7943 abbd fb7b 97b9
00000300: 7648 923d afca 313e ef06 50bd e699 e93a
00000310: b463 4c3d e027 203d 0047 733d 9c09 213e
00000320: 7fb1 98b9 54cc eab7 f44e 3d3e 6772 babd
00000330: 87a4 d03a 5531 5ebb fd96 8dbb 6abe 0ab9
00000340: 9426 cdbe 75ed 0e3b ca01 0080 1e04 0080
00000350: da2c 0080 2909 0080 6a37 0080 e70d 0080
00000360: 100f 0000 6406 0000 b60a 0080 0113 0080
00000370: 6a13 0080 a247 0000 380f 0000 b211 0080
00000380: b812 0080 eb06 0000 ca10 0000 e013 0000
00000390: ad0a 0080 e600 0080 544a 0000 f606 0000
000003a0: 4407 0000 0f13 0080 a535 0080 b10e 0000
000003b0: c51a 0080 0c0f 0000 5a0e 0000 c531 0080
000003c0: befc 0080 896e 0080 9d5d 0080 f3b3 0080
000003d0: b5c7 0000 eb7a 0080 3124 0100 a54f 0080
000003e0: 8cab 0000 df06 0080 c034 0100 2118 0080
000003f0: 40ef 0000 b8c3 0000 d3a3 0080 902d 0180

bias f4 [30]
7.3759e-41 -3.7528e-41 7.3507326e-05 -8.072e-41 -3.7382e-41 1.4535846e-05 -2.7909966e-05 -8.8755e-41
-7.8879e-41 2.693919e-06 3.8117e-41 -4.9211e-41 -2.8388196e-05 -3.4315985e-05 2.16311e-05 1.6744e-41
-1.6078424e-05 -0.00013452124 3.783103e-05 -2.1649284e-05 5.734e-41 -1.7179003e-05 -1.1159e-41 -8.5395e-41
8.166e-41 -2.8989e-41 1.0688e-41 1.4007116e-05 2.5789031e-06 1.058367e-05
00000000: 9ccd 0000 9d68 0080 f227 9a38 04e1 0080
00000010: 3568 0080 fcde 7337 3220 eab7 6af7 0080
00000020: e2db 0080 2dc9 3436 416a 0000 2e89 0080
00000030: 3023 eeb7 82ee 0fb8 6f74 b537 ad2e 0000
00000040: 27e0 86b7 450e 0db9 c2ac 1e38 7c9b b5b7
00000050: d79f 0000 a11b 90b7 1b1f 0080 0cee 0080
00000060: a3e3 0000 cf50 0080 cb1d 0000 1b00 6b37
00000070: 3811 2d36 8490 3137

weight f4 [20, 1, 3, 3]
0.007471149 0.18899705 0.30357453 0.108884916 0.22795762 -0.1067776 -0.012948034 -0.06643129
-0.034836233 -0.15368116 -0.33818728 -0.03785311 0.20865624 0.2178487 0.23377725 0.117288075
0.15533124 -0.045636598 0.033119824 0.225029 0.26742044 0.05837752 0.08185194 0.028019566
-0.083687074 -0.17583811 -0.2741069 0.003145652 0.0023488172 -0.0011057671 0.0016605315 0.0003338509
-0.0004156789 -0.00074670155 0.0005743688 -0.0032149632 0.14663346 0.28134203 -0.023123484 0.051745955
-0.16086617 -0.09706625 -0.17337628 -0.3779509 -0.0042439215 -0.0010098208 -0.0018730522 0.0012198112
0.00071670307 -0.0011770086 0.0005821859 0.0014642052 -0.0014478252 -7.22352e-05 0.0015494383 0.0025974484
0.0013983396 0.0009502021 -0.0025661855 -0.00016882668 0.0009836671 -0.0020492484 0.0008099774 -0.0009354517
-0.0026297395 -0.00049836695 -0.00035582727 -0.00028203003 0.0037077472 0.0035508245 -0.00029258677 0.0017880978
0.0014925082 0.0010310105 0.0022163491 8.9575675e-05 0.0010371053 -0.002779482 -0.001477272 5.572073e-06
-0.0022655062 0.0008555711 0.0025729446 0.0020187036 -0.0004637779 0.0018541774 -0.0014553207 -0.00035329186
0.0007724922 -0.002714617 0.14027387 -0.22251843 -0.20177218 0.14647052 -0.13797496 -0.13707955
-0.18966128 -0.1395538 0.12197943 0.0063338275 -0.27160114 -0.023618124 -0.13382323 -0.12163622
0.19340454 0.10635782 0.3654066 0.17634057 -0.032390106 0.08338356 0.24042796 0.039906733
0.12685354 0.19222781 0.078577235 -0.11216074 -0.22042172 -0.1742406 -0.25951135 -0.18372464
0.009631935 0.08205812 -0.046109147 0.072370864 0.22860897 0.22445224 0.09124439 -0.29860857
-0.12498329 0.075389974 0.07622904 -0.027025735 -0.14364369 0.27942738 0.1746073 0.19730213
0.08503275 0.12171877 -0.13519047 0.05618817 0.2021916 0.019709904 -0.17682903 0.20516157
-0.00043328895 -0.006347566 -0.00081712275 0.0039625587 -0.004163978 -3.2414922e-05 0.0035715008 -0.0032968756
0.0025413393 -0.1536915 -0.19270155 -0.067168325 0.09874162 -0.1251923 -0.06904876 0.15228993
-0.07778322 0.0807286 0.20652507 0.10527279 0.10280201 -0.15314347 -0.04010318 -0.0703345
-0.14500517 -0.104222015 -0.11976178 -0.013851305 -0.061239045 0.19593601 0.06229026 0.29905015
0.22087197 0.00024957716 0.02150381 0.06521321
00000000: 8ad0 f43b 7188 413e 1f6e 9b3e 0eff de3d
00000010: b96d 693e 37ae dabd fe23 54bc 210d 88bd
00000020: 70b0 0ebd 985e 1dbe e226 adbe dd0b 1bbd
00000030: fba9 553e bb13 5f3e 4e63 6f3e bb34 f03d
00000040: 270f 1f3e 71ed 3abd a7a8 073d 016e 663e
00000050: 55eb 883e 441d 6f3d fda1 a73d 4a89 e53c
00000060: 2164 abbd e80e 34be bd57 8cbe 4827 4e3b
00000070: 9dee 193b 63ef 90ba 31a6 d93a b608 af39
00000080: 7aef d9b9 4bbe 43ba 3d91 163a 22b2 52bb
00000090: 1527 163e 100c 903e 766d bdbc 91f3 533d
000000a0: 1aba 24be acca c6bd 8d89 31be c882 c1be
000000b0: 9810 8bbb f75b 84ba 3481 f5ba 12e2 9f3a
000000c0: 21e1 3b3a db45 9aba d69d 183a 93ea bf3a
000000d0: f4c4 bdba fa7c 97b8 8616 cb3a f439 2a3b
000000e0: 7e48 b73a fc16 793a 732d 28bb 1107 31b9
000000f0: 64ee 803a af4c 06bb aa54 543a 1a39 75ba
00000100: b557 2cbb d7a4 02ba 548e bab9 6edd 93b9
00000110: adfd 723b f3b4 683b 5566 99b9 9b5e ea3a
00000120: 44a0 c33a f922 873a 2b40 113b 93da bb38
00000130: 7bef 873a f827 36bb 06a1 c1ba bef7 ba36
00000140: e378 14bb 6848 603a d99e 283b 3a4c 043b
00000150: 3727 f3b9 df07 f33a 76c0 beba 083a b9b9
00000160: 1381 4a3a b7e7 31bb f4a3 0f3e dfdb 63be
00000170: 5e9d 4ebe 5efc 153e 4f49 0dbe 955e 0cbe
00000180: 9136 42be 31e7 0ebe 5ad0 f93d ff8b cf3b
00000190: 4e0f 8bbe cc7a c1bc f508 09be 691c f9bd
000001a0: d70b 463e 21d2 d93d 9316 bb3e 9f92 343e
000001b0: 7dab 04bd 00c5 aa3d bf32 763e 3e75 233d
000001c0: e5e5 013e 5ed7 443e 1aed a03d 88b4 e5bd
000001d0: 3bb6 61be 216c 32be acde 84be 5022 3cbe
000001e0: 43cf 1d3c 160e a83d f2dc 3cbd 2d37 943d
000001f0: 7818 6a3e cfd6 653e 57de ba3d 39e3 98be
00000200: 3df7 ffbd 0f66 9a3d f91d 9c3d 1365 ddbc
00000210: 5517 13be 1b11 8f3e 42cc 323e 9209 4a3e
00000220: a725 ae3d b147 f93d 5f6f 0abe 9125 663d
00000230: 510b 4f3e aa76 a13c ab12 35be e015 523e
00000240: 0f2b e3b9 3eff cfbb 2e34 56ba 5ad8 813b
00000250: fb71 88bb 42f5 07b8 d70f 6a3b 6510 58bb
00000260: 998c 263b 4e61 1dbe 8e53 45be 8c8f 89bd
00000270: 0c39 ca3d 6932 00be 7069 8dbd e4f1 1b3e
00000280: cf4c 9fbd 0955 a53d 4f7b 533e 4399 d73d
00000290: dc89 d23d a4d1 1cbe 3b43 24bd 890b 90bd
000002a0: 3c7c 14be 5a72 d5bd aa45 f5bd 95f0 62bc
000002b0: cbd5 7abd 73a3 483e 1224 7f3d 1a1d 993e
000002c0: 432c 623e aed9 8239 c228 b03c 818e 853d

bias f4 [20]
-3.8348357e-05 3.8600956e-06 1.2466958e-05 -2.608884e-07 3.5315952e-05 -1.5267469e-07 7.527595e-07 -9.0682386e-07
2.4808384e-07 6.170706e-07 -3.9651262e-05 -7.3425454e-06 5.482976e-05 6.536269e-06 4.1165207e-05 7.306949e-06
3.103558e-06 -7.984613e-06 -1.8590968e-05 -1.1961152e-05
00000000: 3cd8 20b8 f885 8136 2d29 5137 3b10 8cb4
00000010: 3720 1438 e6ee 23b4 3d11 4a35 766c 73b5
00000020: 6230 8534 c5a4 2535 384f 26b8 fc5f f6b6
00000030: 02f9 6538 2052 db36 cea8 2c38 372e f536
00000040: b846 5036 a7f5 05b7 cdf3 9bb7 c2ac 48b7

weight f4 [20, 20, 1, 1]
0.36680675 0.30356184 -0.020530311 -0.0015507549 -0.15704395 -0.0007409933 -0.00070990954 -0.0010675646
-0.00058175385 0.0003636473 0.15323092 -0.092456646 -0.1321676 -0.029533148 0.007874767 -0.10877675
0.00062870845 -0.08240483 0.15091051 -0.2361041 7.2041e-41 1.9852e-41 9.445e-41 -1.11211e-40
-9.5248e-41 5.6485e-41 -7.8428e-41 8.584e-41 6.621e-41 8.457e-42 1.6081e-41 9.3007e-41
8.2978e-41 5.1572e-41 -1.10354e-40 -3.6116e-41 -8.548e-41 -9.73e-43 -6.9918e-41 -1.254e-42
0.18760544 -0.20133902 -0.27617952 -0.0023887898 0.14039221 0.0025756606 0.0012612388 0.0037945353
-0.002782544 -0.0033370433 0.02940906 0.16175759 0.1651847 -0.15161069 0.2376172 -0.1895178
0.0068667824 0.0771078 -0.017499173 0.07473636 0.0025557892 -0.0047129267 -0.2540139 -0.0066576363
-0.1387534 -0.00071555824 0.0021973841 0.0040772413 -0.0035131462 -0.003733121 0.14214209 -0.15838893
-0.059669044 0.0018943386 -0.044648517 0.22116159 0.0024428805 -0.2761379 0.020556536 -0.13957258
0.05597562 -0.30454716 0.074781284 0.0020129818 0.019295638 -0.0015066639 -0.001697895 -0.0025601566
0.0015144331 0.0023802852 -0.28252485 -0.12450962 0.21040101 0.11486856 0.15338455 -0.1584886
-0.0040081856 0.1478017 -0.13500148 -0.07910823 -4.8719365e-05 -5.23193e-06 2.0856694e-06 -8.896434e-36
2.2198394e-05 -4.4063677e-34 2.1174664e-34 5.678676e-36 -1.2137317e-34 1.3864204e-34 0.00017138915 -1.7389451e-05
-9.513147e-06 -7.042097e-06 -1.8846347e-06 -2.1005952e-05 -4.2576865e-34 2.6001222e-05 1.3199775e-05 -0.0002717789
0.02965871 0.050208986 -0.02055736 -0.0026126688 -0.031907577 0.0019052682 0.0032507868 0.0021690694
-0.0014474394 -0.0018229887 -0.006024656 0.18435913 -0.16272481 -0.2926071 -0.2224988 -0.15480249
0.0070082652 0.016832808 -0.10617187 0.079486474 -3.0075e-41 -9.386e-42 5.073e-42 -7.899e-42
-1.0672e-41 -8.2759e-41 1.7924e-41 -3.2164e-41 -7.63e-42 -7.2091e-41 2.3358e-41 -1.455e-41
-3.8488e-41 1.0616e-41 2.6668e-41 7.539e-42 -4.9609e-41 -1.4389e-41 -3.7668e-41 2.5244e-41
8.610573e-28 -6.097e-42 -3.346e-42 1.7186e-41 5.018e-42 3.91e-43 1.3352e-41 1.0074e-41
-2.2924e-41 -3.1e-42 -1.03415206e-19 5.867e-42 1.9531304e-31 -7.895e-42 -6.408e-42 5.6695004e-20
4.808e-42 -9.502507e-22 -4.127e-42 3.0474153e-13 2.9699e-41 -8.1728e-41 -9.9178e-41 -5.5203e-41
8.1675e-41 1.05287e-40 -8.4851e-41 -8.2681e-41 2.9866e-41 -1.483e-42 8.0827e-41 -8.2586e-41
-9.2455e-41 8.5642e-41 -7.0948e-41 -3.7615e-41 -5.591e-41 4.0433e-41 9.2578e-41 -5.315e-42
-0.056576982 -0.21624795 0.13239123 0.004296199 0.048817474 8.252416e-06 -0.0051082256 -0.003181495
0.0013436002 0.003796144 0.23437056 -0.22549424 0.07769221 -0.028095799 0.17507347 -0.01743385
-0.005753454 0.06503217 -0.14401582 0.3425579 0.27074605 -0.0675476 -0.08530413 0.004394014
0.29235572 0.0016494347 0.004524727 0.0020193069 0.0003288652 -0.0013959778 0.06144427 0.01733959
-0.16343422 0.118924655 0.09189114 -0.06698539 0.0023209667 0.05505142 0.0517463 0.16890977
0.04242139 0.10879972 0.11557243 -0.002885948 0.17893352 -0.0012904985 -0.002804487 -0.0036576812
0.0049945177 0.005171294 0.08604673 0.1527788 -0.16128074 0.1098576 -0.028019885 0.04983106
00000000: 18ce bb3e 756c 9b3e 2f2f a8bc b342 cbba
00000010: 21d0 20be 383f 42ba 3919 3aba 86ed 8bba
00000020: d780 18ba eaa7 be39 91e8 1c3e e959 bdbd
00000030: f156 07be 80ef f1bc 2b05 013c 58c6 debd
00000040: e9cf 243a ddc3 a8bd 4988 1a3e 46c5 71be
00000050: d2c8 0000 5737 0000 4a07 0100 0336 0180
00000060: 8309 0180 759d 0000 a0da 0080 49ef 0000
00000070: 91b8 0000 9317 0000 d42c 0000 4403 0100
00000080: 4fe7 0000 c38f 0000 9f33 0180 ad64 0080
00000090: 49ee 0080 b602 0080 e7c2 0080 7f03 0080
000000a0: a41b 403e d12b 4ebe 6767 8dbe 3e8d 1cbb
000000b0: fac2 0f3e 6acc 283b 2750 a53a bdad 783b
000000c0: 575b 36bb 4cb2 5abb 45eb f03c c8a3 253e
000000d0: 2e26 293e d53f 1bbe ec51 733e f410 42be
000000e0: bf02 e13b b2ea 9d3d 6d5a 8fbc 600f 993d
000000f0: 077f 273b e56e 9abb 1c0e 82be 4d28 dabb
00000100: 5f15 0ebe 4d94 3bba fd01 103b 619a 853b
00000110: d03c 66bb 61a7 74bb b28d 113e b530 22be
00000120: 8767 74bd 754b f83a 5de1 36bd 2f78 623e
00000130: bc18 203b f261 8dbe 2e66 a83c 1dec 0ebe
00000140: b146 653d 9bed 9bbe ee26 993d 3bec 033b
00000150: e311 9e3c 407b c5ba e78b deba 4dc8 27bb
00000160: f17f c63a 8ffe 1b3b 19a7 90be e6fe febd
00000170: 5d73 573e 3540 eb3d d710 1d3e d64a 22be
00000180: 1957 83bb 5459 173e d43d 0abe 7f03 a2bd
00000190: 0558 4cb8 f08d afb6 87f7 0b36 cb34 3d85
000001a0: b036 ba37 3b6d 1288 d3ba 8c07 4e8b f104
000001b0: 2655 2187 7149 3807 edb6 3339 90df 91b7
000001c0: a89a 1fb7 274b ecb6 8ef3 fcb5 f035 b0b7
000001d0: 647c 0d88 331d da37 9a74 5d37 8c7d 8eb9
000001e0: d3f6 f23c f0a7 4d3d e967 a8bc 4f39 2bbb
000001f0: 85b1 02bd 31ba f93a 270b 553b f226 0e3b
00000200: 02b8 bdba 5af1 eeba 7a6a c5bb a4c8 3c3e
00000210: 55a1 26be 99d0 95be bad6 63be 8b84 1ebe
00000220: 97a5 e53b f5e4 893c a370 d9bd cec9 a23d
00000230: d653 0080 2a1a 0080 240e 0000 0516 0080
00000240: c01d 0080 b3e6 0080 f731 0000 a959 0080
00000250: 4515 0080 f6c8 0080 1d41 0000 8f28 0080
00000260: 4a6b 0080 981d 0000 574a 0000 0415 0000
00000270: 4a8a 0080 1c28 0080 0169 0080 5f46 0000
00000280: a270 8812 ff10 0080 5409 0080 e82f 0000
00000290: fd0d 0000 1701 0000 3825 0000 151c 0000
000002a0: e73f 0080 a408 0080 a82e f49f 5b10 0000
000002b0: e487 7d0c 0216 0080 dd11 0080 07de 851f
000002c0: 670d 0000 0b99 8f9c 810b 0080 e28d ab2a
000002d0: ca52 0000 d3e3 0080 7814 0180 e299 0080
000002e0: ade3 0000 7f25 0100 88ec 0080 7be6 0080
000002f0: 4153 0000 2204 0080 50e1 0000 37e6 0080
00000300: ba01 0180 bcee 0000 c6c5 0080 db68 0080
00000310: db9b 0080 b670 0000 1202 0100 d10e 0080
00000320: 44bd 67bd 1a70 5dbe 9191 073e 21c7 8c3b
00000330: d5f4 473d db73 0a37 e762 a7bb a180 50bb
00000340: be1b b03a bac8 783b d6fe 6f3e f6e7 66be
00000350: 181d 9f3d 2929 e6bc 7646 333e 6fd1 8ebc
00000360: 7887 bcbb 962f 853d e278 13be c063 af3e
00000370: 3a9f 8a3e 6556 8abd efb3 aebd a9fb 8f3b
00000380: a6af 953e d831 d83a 2944 943b 5956 043b
00000390: 8a6b ac39 3ef9 b6ba fdac 7b3d c10b 8e3c
000003a0: 4d5b 27be c58e f33d 6c31 bc3d a32f 89bd
000003b0: 5c1b 183b 997d 613d eef3 533d aff6 2c3e
000003c0: 0dc2 2d3d 63d2 de3d 3db1 ec3d 2c22 3dbb
000003d0: 593a 373e f225 a9ba 7ccb 37bb b5b5 6fbb
000003e0: 0da9 a33b f573 a93b 4539 b03d 0c72 1c3e
000003f0: c726 25be 05fd e03d f589 e5bc a71b 4c3d

bias f4 [20]
2.1444821e-05 -1.04852e-40 0.000120676545 2.8555503e-05 3.1740623e-05 -3.4475e-40 -5.788968e-05 -4.2098e-41
3.142e-41 -5.075e-41 3.3216453e-05 -2.2935932e-05 -1.6525211e-05 5.884389e-05 4.383e-42 1.8524452e-05
-8.2536e-41 6.4418e-41 -9.4502e-41 -3.2255488e-05
00000000: 67e4 b337 4924 0180 ba13 fd38 7a8a ef37
00000010: 3c21 0538 06c1 0380 92ce 72b8 5a75 0080
00000020: 9657 0000 788d 0080 e551 0b38 8a66 c0b7
00000030: 9f9f 8ab7 25cf 7638 380c 0000 f564 9b37
00000040: 14e6 0080 92b3 0000 6f07 0180 114a 07b8

weight f4 [6, 1, 3, 3]
-0.31124526 0.35195252 0.10641541 0.30837256 -0.077466406 -0.14804946 0.053340815 -0.20988685
0.10456424 0.11940309 0.24579741 -0.20300922 -0.0052154064 0.10257311 -0.21589004 0.011998197
0.18558736 -0.1216362 0.13177708 -0.33017123 -0.0037549222 -0.098724544 -0.2936365 0.20978332
0.12944481 0.052504983 0.032137685 -0.24911301 0.23415963 -0.093616456 0.016985646 -0.1803384
0.035451137 0.16581282 -0.457439 0.37635094 -0.021868054 0.513637 0.26930726 0.06408748
0.06747525 -0.1558439 0.49967152 -0.34815592 0.14151001 0.48924232 0.095124364 0.2277279
0.4079881 -0.27161303 -0.13183296 -0.42988232 0.6038486 0.13857095
00000000: 8a5b 9fbe 1f33 b43e 53f0 d93d 02e3 9d3e
00000010: b5a6 9ebd 479a 17be e67b 5a3d 94ec 56be
00000020: c725 d63d 9b89 f43d 51b2 7b3e a6e1 4fbe
00000030: 00e6 aabb da11 d23d 4712 5dbe 1694 443c
00000040: 9d0a 3e3e 661c f9bd 92f0 063e 340c a9be
00000050: 2415 76bb 1830 cabd 8657 96be 70d1 563e
00000060: 2e8d 043e 770f 573d cea2 033d 7b17 7fbe
00000070: 8bc7 6f3e fcb9 bfbd 7b25 8b3c a1aa 38be
00000080: 3635 113d d6ca 293e 7235 eabe 12b1 c03e
00000090: a224 b3bc b77d 033f a4e2 893e 4c40 833d
000000a0: 7730 8a3d 8b95 1fbe f2d4 ff3e 7e41 b2be
000000b0: 00e8 103e f87d fa3e 90d0 c23d 8131 693e
000000c0: d1e3 d03e dd10 8bbe 38ff 06be 8919 dcbe
000000d0: d295 1a3f 8be5 0d3e

bias f4 [6]
4.7362035e-05 2.9782324e-05 1.6394669e-06 5.3766973e-05 -7.091542e-05 8.334016e-05
00000000: 99a6 4638 0ed5 f937 a70b dc35 d983 6138
00000010: 6db8 94b8 e8c6 ae38

weight f4 [6, 6, 1, 1]
0.012922338 0.03838472 0.08443958 -0.072830535 -0.39270827 0.28653866 -0.33638427 0.23423071
-0.018178517 0.3857874 -0.16108225 0.22109623 -0.03698836 -0.10684044 0.16174448 -0.23010877
-0.43008006 0.47133777 -0.03821434 -0.05994167 0.00781544 0.14557554 0.49469727 -0.48334035
0.036875788 -0.093235165 -0.17397937 -0.14461939 0.37358376 -0.37696615 0.3795858 0.022384917
-0.060706325 0.4004443 0.20525306 -0.21268675
00000000: 37b8 533c 4c39 1d3d a9ee ac3d 2d28 95bd
00000010: 0f11 c9be 32b5 923e 8f3a acbe 2dda 6f3e
00000020: 1deb 94bc ed85 c53e bff2 24be 0d67 623e
00000030: 1b81 17bd 29cf dabd 58a0 253e a2a1 6bbe
00000040: 7433 dcbe 2f53 f13e a486 1cbd 6685 75bd
00000050: 550c 003c c111 153e f648 fd3e 6378 f7be
00000060: 110b 173d 14f2 bebd a627 32be 1b17 14be
00000070: 5f46 bf3e b501 c1be 1259 c23e 9360 b73c
00000080: 32a7 78bd 0907 cd3e dc2d 523e 8eca 59be

bias f4 [6]
2.5619785e-05 -4.5934117e-05 3.2248587e-05 6.381478e-05 -0.00016852413 5.8336558e-05
00000000: 12ea d637 62a9 40b8 a842 0738 4dd4 8538
00000010: dab5 30b9 67ae 7438

weight f4 [30]
-2.668e-42 -2.789e-42 0.45379353 2.6525e-41 8.9218e-41 0.48050803 0.7241068 9.107712e-07
1.03291e-40 0.5991661 -6.09e-42 2.037e-42 0.50819564 0.56924003 0.491451 1.3018552e-21
0.57563883 0.6891383 0.6002289 0.58049285 -0.00016151895 0.53838825 -1.4295e-41 8.2384e-41
2.066e-42 3.6972e-41 -1.983e-41 0.7040125 0.50778747 0.57066876
00000000: 7007 0080 c607 0080 a057 e83e f149 0000
00000010: b4f8 0000 2605 f63e 105f 393f b87b 7435
00000020: ef1f 0100 f362 193f fa10 0080 ae05 0000
00000030: 1c19 023f b7b9 113f 779f fb3e 15bb c41c
00000040: 115d 133f 5e6b 303f 9aa8 193f 2e9b 143f
00000050: 6a5d 29b9 d0d3 093f d927 0080 a7e5 0000
00000060: c205 0000 1067 0000 4737 0080 2a3a 343f
00000070: 5cfe 013f 5917 123f

bias f4 [30]
-6.865148e-11 -1.5547529e-11 -0.17228436 -0.0010768716 -0.0014369612 -0.4756255 -0.028714329 -0.00012577199
-3.820326e-06 -0.5910707 -4.0697182e-11 -0.0023500263 -0.21256652 -0.058519166 -0.46302882 -8.536251e-10
-0.47719607 -0.09868844 -0.68633235 0.013744211 -0.0070143207 -0.5436548 -1.3634204e-18 -1.7021463e-15
-4.652106e-19 -5.0847824e-09 -3.7537892e-10 0.09801104 -0.084188275 -0.5445383
00000000: 59f7 96ae ecc1 88ad 506b 30be d125 8dba
00000010: 6b58 bcba 2f85 f3be 503a ebbc a9e1 03b9
00000020: 5a30 80b6 6950 17bf f4fc 32ae e602 1abb
00000030: 0aab 59be cbb1 6fbd 1d12 edbe 87a4 6ab0
00000040: 0b53 f4be 2a1d cabd 7ab3 2fbf 662f 613c
00000050: 63d8 e5bb f62c 0bbf 9134 c9a1 1d4e f5a6
00000060: 524e 09a1 38b6 aeb1 e35d ceaf 03ba c83d
00000070: e76a acbd dd66 0bbf

running_mean f4 [30]
-5.876e-42 -6.935e-42 -0.06385126 -3.2527e-41 -3.3696e-41 0.634294 0.13821863 1.0332e-41
5.3485e-41 0.021738462 -1.608e-41 -2.8644e-41 -0.090141624 -0.49032772 -0.052068897 -1.0811e-41
-0.11581631 0.33854753 -0.06475308 0.14695567 -1.7095215e-09 -0.11596131 -1.4072e-41 5.486e-42
2.9273e-41 -3.898e-42 1.4118e-41 -0.06637368 -0.50979096 0.06524539
00000000: 6110 0080 5513 0080 73c4 82bd ac5a 0080
00000010: ee5d 0080 1761 223f 2f89 0d3e cd1c 0000
00000020: 1895 0000 dc14 b23c d32c 0080 d94f 0080
00000030: 2c9c b8bd 3c0c fbbe 3246 55bd 231e 0080
00000040: 1a31 edbd 1a56 ad3e 439d 84bd 8c7b 163e
00000050: 71f4 eab0 207d edbd 3a27 0080 4b0f 0000
00000060: 9a51 0000 de0a 0080 5b27 0000 edee 87bd
00000070: a981 02bf 609f 853d

running_var f4 [30]
6e-45 6e-45 0.034847748 6e-45 6e-45 0.16258691 0.43459415 6e-45
6e-45 0.044458937 6e-45 6e-45 0.02262856 0.24030921 0.030808268 6e-45
0.034394145 0.4177345 0.06831532 0.2892219 2.9526398e-18 0.035608094 6e-45 6e-45
6e-45 6e-45 6e-45 3.8211932 0.1493136 0.026507957
00000000: 0400 0000 0400 0000 83bc 0e3d 0400 0000
00000010: 0400 0000 2f7d 263e 2083 de3e 0400 0000
00000020: 0400 0000 931a 363d 0400 0000 0400 0000
00000030: 885f b93c 9e13 763e 9f61 fc3c 0400 0000
00000040: e0e0 0c3d 4ce1 d53e e7e8 8b3d e514 943e
00000050: cadd 5922 cbd9 113d 0400 0000 0400 0000
00000060: 0400 0000 0400 0000 0400 0000 6e8e 7440
00000070: aae5 183e 3727 d93c

weight f4 [20]
0.4743939 8.2744e-41 0.48960626 0.5371912 0.5337349 0.002239494 0.4297015 -2.433e-42
-0.00012139169 1.7202e-41 0.48931295 0.48220453 0.46169958 0.44278148 7.9e-43 0.54142404
6.055e-42 3.938e-42 4.317e-42 0.5129345
00000000: c2e3 f23e a8e6 0000 acad fa3e 5d85 093f
00000010: daa2 083f 79c4 123b d601 dc3e c806 0080
00000020: ab93 feb8 f42f 0000 3a87 fa3e 83e3 f63e
00000030: e363 ec3e 41b4 e23e 3402 0000 c49a 0a3f
00000040: e110 0000 fa0a 0000 090c 0000 ad4f 033f

bias f4 [20]
-0.070955515 -2.4306885e-06 -0.34381342 -0.55431455 -0.3905822 -0.0054782205 -0.42530793 -0.0007686354
-0.00068815495 -3.0326267e-34 -0.20239338 -0.52796227 -0.38438153 -0.38156506 -3.1745355e-08 -0.5281076
1.1544383e-18 -4.952937e-11 -1.6381794e-08 -0.6526226
00000000: 2051 91bd e91e 23b6 5008 b0be 8fe7 0dbf
00000010: 64fa c7be a582 b3bb f6c1 d9be 407e 49ba
00000020: 4c65 34ba 788d c987 3640 4fbe 8928 07bf
00000030: a8cd c4be 7f5c c3be 6358 08b3 0f32 07bf
00000040: 725d aa21 1dd5 59ae f2b7 8cb2 4612 27bf

running_mean f4 [20]
-0.09163503 -3.6676e-41 -0.015528685 -0.28783798 0.044377845 -0.0025101271 0.09393922 2.3837e-41
1.6757831e-12 1.7045e-41 -0.07903737 -0.041036494 -0.32489613 -0.1652589 6.784e-42 -0.08407072
-1.41933e-40 2.0593e-41 3.9788e-41 0.15493421
00000000: 26ab bbbd 3d66 0080 076c 7ebc 805f 93be
00000010: 8bc5 353d f280 24bb 3563 c03d 7342 0000
00000020: 73d8 eb2b 842f 0000 58de a1bd e215 28bd
00000030: c958 a6be a139 29be e912 0000 452d acbd
00000040: a78b 0180 6839 0000 ea6e 0000 13a7 1e3e

running_var f4 [20]
0.3959233 6e-45 0.026045192 0.05214482 0.13416705 1.5790334e-06 0.020804226 6e-45
8.073754e-25 6e-45 0.20478664 0.049526446 0.03903856 0.03290587 6e-45 0.049087938
6e-45 6e-45 6e-45 0.029370237
00000000: 75b6 ca3e 0400 0000 ba5c d53c cf95 553d
00000010: 1663 093e 2def d335 a06d aa3c 0400 0000
00000020: dfde 7917 0400 0000 97b3 513e 3edc 4a3d
00000030: e6e6 1f3d 4ec8 063d 0400 0000 6f10 493d
00000040: 0400 0000 0400 0000 0400 0000 da99 f03c

weight f4 [6]
0.5818411 0.6444645 0.41337636 0.5353427 0.7117758 1.107993
00000000: 8af3 143f a0fb 243f 11a6 d33e 380c 093f
00000010: f036 363f b7d2 8d3f

bias f4 [6]
-0.33798745 -0.7911322 -0.083878405 0.028624155 -0.8641899 -0.8223656
00000000: b10c adbe a487 4abf 71c8 abbd 347d ea3c
00000010: 8d3b 5dbf 8d86 52bf

running_mean f4 [6]
-0.49138296 -0.019841142 0.5231318 -0.54809546 0.056580864 -0.12582104
00000000: 8c96 fbbe e489 a2bc f7eb 053f fc4f 0cbf
00000010: 56c1 673d 3bd7 00be

running_var f4 [6]
0.10557224 0.035974972 0.13133824 0.15030353 0.058557462 0.08233576
00000000: 4236 d83d 7e5a 133d 887d 063e 2be9 193e
00000010: f3d9 6f3d a79f a83d

weight f4 [16, 10800]
9.0363e-41 -7.1801e-41 -3.0628e-41 -1.0699e-41 -6.1479e-41 -2.8871e-41 8.5465e-41 8.8908e-41
8.9933e-41 -5.9704e-41 -8.856e-42 -3.2492e-41 -7.6592e-41 8.5168e-41 -1.0721e-41 -4.8667e-41
-2.9307e-41 1.2253e-41 8.7524e-41 -3.2751e-41 8.6278e-41 -5.6527e-41 -3.0529e-41 -7.5957e-41
8.834e-42 -6.2082e-41 8.6644e-41 -5.6251e-41 -8.544e-42 -7.7454e-41 1.2865e-41 -7.1884e-41
-6.1284e-41 8.979e-41 9.675e-42 -6.0647e-41 -8.51e-42 -4.3963e-41 8.6405e-41 -1.1716e-41
-5.6243e-41 -9.805e-41 -4.6505e-41 -4.6442e-41 -5.6489e-41 -5.792e-41 -9.8693e-41 -7.0655e-41
-9.494e-42 -5.6656e-41 -5.6753e-41 -9.35e-42 -3.2786e-41 -8.691e-42 -7.6481e-41 -9.721e-42
-7.933e-42 -5.5763e-41 -4.3052e-41 8.6764e-41 -8.594e-42 -5.6908e-41 -4.8856e-41 -9.911e-42
-8.654e-42 -7.7136e-41 8.901e-42 1.1666e-41 -1.1126e-41 8.8506e-41 -7.068e-41 -5.7015e-41
-9.041e-42 -7.6829e-41 -2.9384e-41 -1.1512e-41 -1.1859e-41 8.7632e-41 -7.1545e-41 -7.6476e-41
-7.2102e-41 -7.2943e-41 8.6459e-41 -3.1832e-41 -5.699e-41 -7.4741e-41 -1.0522e-41 -8.331e-42
-5.5658e-41 -3.0009e-41 -1.25e-41 8.8706e-41 -1.2693e-41 -1.2785e-41 -1.0632e-41 -3.0007e-41
-5.9508e-41 -7.026e-41 -7.462e-41 -6.9587e-41 1.2636e-41 8.6932e-41 -6.9497e-41 -3.1462e-41
-5.6296e-41 -5.9028e-41 -4.8858e-41 -3.2872e-41 8.5712e-41 -7.7541e-41 -9.8288e-41 -7.5841e-41
1.2238e-41 -5.6556e-41 -3.1029e-41 -5.757e-42 9.0109e-41 2.8626e-41 -4.8355e-41 -3.1165e-41
2.0944e-41 2.0944e-41 2.0944e-41 2.0944e-41 2.0944e-41 2.0944e-41 2.0944e-41 2.0944e-41
2.0944e-41 2.0944e-41 2.0944e-41 2.0944e-41 2.0944e-41 2.0944e-41 2.0944e-41 2.0944e-41
2.0944e-41 2.0944e-41 2.0944e-41 2.0944e-41 2.0944e-41 2.0944e-41 2.0944e-41 2.0944e-41
2.0944e-41 2.0944e-41 2.0944e-41 2.0944e-41 2.0944e-41 2.0944e-41 2.0944e-41 2.0944e-41
2.0944e-41 2.0944e-41 2.0944e-41 2.0944e-41 2.0944e-41 2.0944e-41 2.0944e-41 2.0944e-41
2.0944e-41 2.0944e-41 2.0944e-41 2.0944e-41 2.0944e-41 2.0944e-41 2.0944e-41 2.0944e-41
2.0944e-41 2.0944e-41 2.0944e-41 2.0944e-41 2.0944e-41 2.0944e-41 2.0944e-41 2.0944e-41
2.0944e-41 2.0944e-41 2.0944e-41 2.0944e-41 2.0944e-41 2.0944e-41 2.0944e-41 2.0944e-41
2.0944e-41 2.0944e-41 2.0944e-41 2.0944e-41 2.0944e-41 2.0944e-41 2.0944e-41 2.0944e-41
2.0944e-41 2.0944e-41 2.0944e-41 2.0944e-41 2.0944e-41 2.0944e-41 2.0944e-41 2.0944e-41
2.0944e-41 2.0944e-41 2.0944e-41 2.0944e-41 2.0944e-41 2.0944e-41 2.0944e-41 2.0944e-41
2.0944e-41 2.0944e-41 2.0944e-41 2.0944e-41 2.0944e-41 2.0944e-41 2.0944e-41 2.0944e-41
2.0944e-41 2.0944e-41 2.0944e-41 2.0944e-41 2.0944e-41 2.0944e-41 2.0944e-41 2.0944e-41
2.0944e-41 2.0944e-41 2.0944e-41 2.0944e-41 2.0944e-41 2.0944e-41 2.0944e-41 2.0944e-41
2.0944e-41 2.0944e-41 2.0944e-41 2.0944e-41 2.0944e-41 2.0944e-41 2.0944e-41 2.0944e-41
-8.046178e-06 -5.939362e-15 -4.9325227e-17 1.6147364e-22 1.6093904e-20 8.6411e-41 5.7716504e-28 -6.4330055e-17
-9.218475e-18 5.221144e-25 -6.0138035e-26 1.282212e-30 6.1645467e-30 -8.8135085e-21 -1.977977e-15 -1.7279161e-17
00000000: e5fb 0000 27c8 0080 6155 0080 d31d 0080
00000010: 61ab 0080 7b50 0080 3eee 0000 d7f7 0000
00000020: b2fa 0000 6ea6 0080 b018 0080 935a 0080
00000030: 82d5 0080 6aed 0000 e31d 0080 aa87 0080
00000040: b251 0080 2822 0000 fbf3 0000 4c5b 0080
00000050: 82f0 0000 939d 0080 1a55 0080 bdd3 0080
00000060: a018 0000 0fad 0080 87f1 0000 ce9c 0080
00000070: d117 0080 e9d7 0080 dd23 0000 62c8 0080
00000080: d6aa 0080 4cfa 0000 f81a 0000 0fa9 0080
00000090: b917 0080 8d7a 0080 ddf0 0000 a920 0080
000000a0: c89c 0080 5311 0180 a381 0080 7681 0080
000000b0: 789d 0080 75a1 0080 1e13 0180 f5c4 0080
000000c0: 771a 0080 ef9d 0080 349e 0080 101a 0080
000000d0: 655b 0080 3a18 0080 33d5 0080 191b 0080
000000e0: 1d16 0080 729b 0080 0378 0080 ddf1 0000
000000f0: f517 0080 a39e 0080 3188 0080 a11b 0080
00000100: 2018 0080 06d7 0080 d018 0000 8520 0000
00000110: 041f 0080 b8f6 0000 07c5 0080 ef9e 0080
00000120: 3419 0080 2bd6 0080 e951 0080 1720 0080
00000130: 0f21 0080 48f4 0000 70c7 0080 2fd5 0080
00000140: fec8 0080 56cb 0080 03f1 0000 bc58 0080
00000150: dd9e 0080 59d0 0080 551d 0080 3917 0080
00000160: 279b 0080 a753 0080 d822 0080 47f7 0000
00000170: 6223 0080 a423 0080 a31d 0080 a653 0080
00000180: e2a5 0080 dbc3 0080 03d0 0080 fbc1 0080
00000190: 3923 0000 55f2 0000 bbc1 0080 b457 0080
000001a0: ee9c 0080 8ca4 0080 3288 0080 a25b 0080
000001b0: eeee 0000 27d8 0080 fd11 0180 6ad3 0080
000001c0: 1d22 0000 a89d 0080 7f56 0080 0c10 0080
000001d0: 30fb 0000 cc4f 0000 cb86 0080 e056 0080
000001e0: 623a 0000 623a 0000 623a 0000 623a 0000
000001f0: 623a 0000 623a 0000 623a 0000 623a 0000
00000200: 623a 0000 623a 0000 623a 0000 623a 0000
00000210: 623a 0000 623a 0000 623a 0000 623a 0000
00000220: 623a 0000 623a 0000 623a 0000 623a 0000
00000230: 623a 0000 623a 0000 623a 0000 623a 0000
00000240: 623a 0000 623a 0000 623a 0000 623a 0000
00000250: 623a 0000 623a 0000 623a 0000 623a 0000
00000260: 623a 0000 623a 0000 623a 0000 623a 0000
00000270: 623a 0000 623a 0000 623a 0000 623a 0000
00000280: 623a 0000 623a 0000 623a 0000 623a 0000
00000290: 623a 0000 623a 0000 623a 0000 623a 0000
000002a0: 623a 0000 623a 0000 623a 0000 623a 0000
000002b0: 623a 0000 623a 0000 623a 0000 623a 0000
000002c0: 623a 0000 623a 0000 623a 0000 623a 0000
000002d0: 623a 0000 623a 0000 623a 0000 623a 0000
000002e0: 623a 0000 623a 0000 623a 0000 623a 0000
000002f0: 623a 0000 623a 0000 623a 0000 623a 0000
00000300: 623a 0000 623a 0000 623a 0000 623a 0000
00000310: 623a 0000 623a 0000 623a 0000 623a 0000
00000320: 623a 0000 623a 0000 623a 0000 623a 0000
00000330: 623a 0000 623a 0000 623a 0000 623a 0000
00000340: 623a 0000 623a 0000 623a 0000 623a 0000
00000350: 623a 0000 623a 0000 623a 0000 623a 0000
00000360: 623a 0000 623a 0000 623a 0000 623a 0000
00000370: 623a 0000 623a 0000 623a 0000 623a 0000
00000380: 623a 0000 623a 0000 623a 0000 623a 0000
00000390: 623a 0000 623a 0000 623a 0000 623a 0000
000003a0: 623a 0000 623a 0000 623a 0000 623a 0000
000003b0: 623a 0000 623a 0000 623a 0000 623a 0000
000003c0: 12fe 06b7 f2fc d5a7 f378 63a4 ac35 431b
000003d0: ac00 981e e1f0 0000 31e9 3612 c355 94a4
000003e0: 040d 2aa3 2a96 2117 02e5 9495 010d d00d
000003f0: 5010 fa0e 837b 269e 3c87 0ea7 445f 9fa3

bias f4 [16]
-0.00014844489 1.677e-42 -2.926911e-07 -2.6545153e-05 -0.0030362946 -0.0031385252 0.22436263 -2.0886036e-29
-5.2815503e-30 -0.00019164069 5.732006e-05 0.07014578 0.00057670806 -1.9088582e-06 -1.3362285e-06 -2.7061933e-17
00000000: dfa7 1bb9 ad04 0000 2923 9db4 48ad deb7
00000010: 92fc 46bb b7af 4dbb 51bf 653e 40cf d38f
00000020: c13e d68e 28f3 48b9 f26a 7038 97a8 8f3d
00000030: 392e 173a ef19 00b6 7658 b3b5 2f9a f9a3

weight f4 [1, 16]
-0.001825725 0.0009957551 -0.006121793 9.6407495e-09 0.0014566998 0.003133212 0.45456058 -0.0032514797
-0.004184845 0.0015521841 2.9543322e-05 1.0901421 -6.1428896e-06 -0.0063001886 -0.0029566188 -0.00089803146
00000000: 2a4d efba ff83 823a 5299 c8bb 77a0 2532
00000010: bcee be3a 9356 4d3b 2abc e83e c716 55bb
00000020: 0621 89bb a872 cb3a cdd3 f737 c789 8b3f
00000030: 051f ceb6 d071 cebb d5c3 41bb df69 6bba
