model_new/Mult_Conv_2_-1_10.pt (torch, 712456 bytes, 27 tensors)

weight f4 [30, 1, 3, 3]
0	0x3e23a47a	0.15980712
1	0x3d184d9a	0.03718338
2	0x3e1d1a83	0.15342145
3	0xbdb67bfb	-0.08910366
4	0xbed081f8	-0.40724158
5	0x3ecf3a59	0.40474203
6	0xbe1ae2be	-0.15125558
7	0xbeb996db	-0.36247906
8	0x3e5f7f76	0.21825966
9	0x3dcef922	0.10106112
10	0x3d894514	0.06702629
11	0xbdb9a3ba	-0.090644315
12	0x3d35652e	0.044285946
13	0xbdb42cdf	-0.08797621
14	0xbd5ded93	-0.054181647
15	0xbc2ed7ac	-0.010671537
16	0xbe0adb59	-0.13560237
17	0xbe188fb2	-0.14898565
18	0x3e85e4e3	0.2615119
19	0x3e8c50c1	0.2740536
20	0x3d314acf	0.043284234
21	0x3dde0577	0.10840886
22	0xbb4c295e	-0.0031152586
23	0xbe207db7	-0.15672956
24	0xbd94353b	-0.072367154
25	0xbe87ecda	-0.2654789
26	0xbe410cc5	-0.18852527
27	0xba5806c9	-0.0008240757
28	0xba2b68ee	-0.0006538768
29	0x3ac9f9da	0.0015409545
30	0xb9b0be29	-0.00033711016
31	0x3a3a6ebf	0.00071118394
32	0x3b855d3b	0.004069952
33	0xbb31f22a	-0.0027152398
34	0xbb61af57	-0.0034436786
35	0xb92cbf64	-0.00016474497
36	0x3aad9a67	0.0013244868
37	0x3a53b71d	0.0008076297
38	0xba94a9c9	-0.0011342104
39	0xb8aa20f6	-8.112371e-05
40	0x39db17e9	0.0004178875
41	0x3a0600fa	0.000511184
42	0x3aa7737d	0.0012775507
43	0x3b35bb6b	0.0027730118
44	0xb9f24533	-0.00046209394
45	0x3e2436c1	0.16036512
46	0x3d9549e5	0.07289485
47	0x3e9f0610	0.31059313
48	0xbd41efea	-0.04734794
49	0xbd9de36d	-0.07709394
50	0xbc9669ec	-0.018361054
51	0xbde12981	-0.10994244
52	0xbe4451a8	-0.19171774
53	0xbd11d3ab	-0.035602253
54	0x3d554396	0.052066408
55	0x3d7fa74b	0.062415402
56	0x3dca5e86	0.0988131
57	0xbe823474	-0.25430644
58	0xbeb456a2	-0.35222346
59	0xbdfaf8e7	-0.122545056
60	0xbd27e314	-0.040988043
61	0xbd9570c2	-0.072968975
62	0x3e26136f	0.16218351
63	0x3a568d80	0.00081845373
64	0xba5f0f44	-0.00085090497
65	0xb9c14dcd	-0.00036869795
66	0x3a878e35	0.0010342064
67	0x3ab416b3	0.0013739675
68	0x3b472fde	0.0030393521
69	0xb9a8b8dc	-0.00032181188
70	0xbac703b7	-0.0015183602
71	0xbac7dd6e	-0.0015248486
72	0xbad340c3	-0.0016117323
73	0x3b165453	0.0022938445
74	0x3a7a2049	0.0009541554
75	0x3a603274	0.000855244
76	0xb786a2d7	-1.6049873e-05
77	0x3ab8dd74	0.0014104084
78	0x39f13c76	0.0004601215
79	0xb9dd4ad1	-0.00042208147
80	0x3ab39b80	0.0013702959
81	0xbe04c3d6	-0.1296533
82	0xbe5d09a9	-0.21585716
83	0xbd686d9e	-0.056745164
84	0xbd5f2ea2	-0.054487832
85	0x3d8f8062	0.07006909
86	0x3d807766	0.062727734
87	0xbd09fcf9	-0.03368852
88	0x3e1ea065	0.15490873
89	0x3e39fda9	0.1816317
90	0xbb28bfd0	-0.0025749095
91	0xbb39df64	-0.002836191
92	0xbb710953	-0.003677924
93	0x376d4984	1.41434175e-05
94	0xbb3f07ce	-0.002914894
95	0xbb872953	-0.0041247993
96	0x3a81b263	0.0009895082
97	0x3a65a724	0.00087605626
98	0x3a91c109	0.0011120151
99	0xbd951723	-0.072798036
100	0xbe9defe8	-0.30847096
101	0x3e0f5511	0.13997294
102	0x3d2b06ba	0.04175446
103	0xbd388e4d	-0.045057584
104	0xbbe1bda3	-0.0068890615
105	0x3d01fec5	0.031737108
106	0x3d9a868b	0.07545193
107	0x3e0ced7f	0.13762473
108	0x3cf02f6c	0.029319488
109	0xbe225496	-0.1585258
110	0x3db1720b	0.0866433
111	0xbdf07b45	-0.11742262
112	0xbe986930	-0.29767752
113	0xbda3b680	-0.079937935
114	0xbd2cf4b5	-0.04222556
115	0x3d0c2465	0.034214396
116	0x3e42a9a9	0.19010033
117	0x3a172965	0.0005766361
118	0x3924806e	0.00015688103
119	0xba5ceea3	-0.00084278936
120	0x39c17cb5	0.00036904743
121	0xbae5d19f	-0.0017533785
122	0xbb03840e	-0.0020067724
123	0x3aa97f92	0.0012931696
124	0x3b174a06	0.0023084893
125	0xba5e1848	-0.0008472246
126	0xbdd99607	-0.106243186
127	0xbe06bc77	-0.13157831
128	0xbe8997b0	-0.2687354
129	0xbc3d0576	-0.0115369465
130	0x3df5461f	0.11976265
131	0xbdf288dd	-0.11842511
132	0x3ea7dcdc	0.3278569
133	0x3e8e58d3	0.27802143
134	0x3d0edb77	0.034877267
135	0xba149acb	-0.0005668818
136	0x3ab47ce0	0.0013770126
137	0x3b0e4033	0.0021705746
138	0xbb96e606	-0.0046050576
139	0xbad1bc3c	-0.0016001533
140	0xb8cba4e3	-9.710507e-05
141	0xb740ee33	-1.1499552e-05
142	0x395e93e3	0.00021226662
143	0x3b3ea7b6	0.0029091663
144	0xbd234b5d	-0.039866794
145	0x3e55e6d4	0.20888835
146	0xbd6da303	-0.05801679
147	0x3de97559	0.113993354
148	0x3e5bb478	0.21455562
149	0x3e61d3a2	0.22053388
150	0xbd1a9066	-0.037735365
151	0xbda2d434	-0.07950631
152	0x3d907673	0.070538424
153	0xba505046	-0.0007946532
154	0xbb9e07cd	-0.0048227073
155	0x3a984e7e	0.0011620072
156	0x3a77dcc6	0.00094552
157	0x3a138437	0.00056273065
158	0x3b11cefe	0.002224862
159	0xbb260116	-0.0025330237
160	0xbb0598a7	-0.0020385177
161	0xbb68a12b	-0.0035496454
162	0xba6d33a2	-0.00090485264
163	0xbb7fc0c9	-0.003902482
164	0xba377883	-0.00069988536
165	0x3b2ce66d	0.0026382462
166	0x3a28b6b3	0.0006435916
167	0x39ae6c0f	0.00033268376
168	0x386bdc9b	5.623382e-05
169	0x3a3d2ad1	0.0007216158
170	0xbb1f32e8	-0.0024291817
171	0xbe3ea48a	-0.18617454
172	0xbd7dea5d	-0.061991084
173	0x3c99794e	0.0187346
174	0x3ca75721	0.020427288
175	0x3e3a08a0	0.18167353
176	0x3e3853c7	0.18000709
177	0xbdfb6c63	-0.122765325
178	0x3dc979e5	0.09837703
179	0x3dbd5951	0.092455514
180	0xba13847c	-0.00056273467
181	0x3adec3de	0.0016995629
182	0x3b039d03	0.00200826
183	0xbb77b425	-0.0037796583
184	0xba82847d	-0.0009957697
185	0xb781550b	-1.54176e-05
186	0xbabcb0eb	-0.0014395987
187	0xba207d52	-0.000612219
188	0x3b9f9274	0.0048697535
189	0xbbc616e5	-0.0060452097
190	0xbb461cd7	-0.0030229592
191	0x3b6f4361	0.0036508667
192	0xbbb3529d	-0.0054724948
193	0xbb630a45	-0.0034643572
194	0x3b164f60	0.0022935495
195	0xbbb37cc4	-0.0054775197
196	0xbbc3013a	-0.005951074
197	0x3b868663	0.0041053756
198	0xbe0586da	-0.13039723
199	0xbd84eedd	-0.06490872
200	0xbd1ab0a9	-0.037766133
201	0xbdded241	-0.108799465
202	0xbda627a8	-0.081130326
203	0x3d900917	0.07032984
204	0x3d832a2f	0.0640453
205	0x3cc77963	0.024349874
206	0x3d54f93c	0.0519955
207	0xbd334bf1	-0.043773595
208	0xbc219f52	-0.009864645
209	0x3e9ae0a1	0.30249503
210	0xbe2df798	-0.16988981
211	0xbc4386e2	-0.011934014
212	0x3e70fe71	0.23534562
213	0xbd1bcfa0	-0.038039804
214	0xbd721978	-0.05910632
215	0xbdd734fe	-0.10508154
216	0xbe22de84	-0.15905195
217	0xbe721110	-0.23639321
218	0xbe2e3d54	-0.17015582
219	0x3e214cb4	0.15751916
220	0x3d976002	0.07391359
221	0xbc80c831	-0.015720459
222	0x3e1762ab	0.14783733
223	0x3c4fbbc8	0.012679048
224	0x3dd0295b	0.10164138
225	0xbb9d4fd1	-0.0048007746
226	0xbc03cecb	-0.008044909
227	0xbb6e7509	-0.0036385676
228	0xbb4f943a	-0.0031674043
229	0xbbbdd3ec	-0.0057930853
230	0xbb8397d5	-0.0040159025
231	0xbba7705d	-0.0051098303
232	0xbbccf44b	-0.006254708
233	0xbb8dcce2	-0.0043274025
234	0x3e3c071a	0.18362084
235	0xbdee70dd	-0.11642621
236	0x3e91021f	0.2832193
237	0xbd8ec7b0	-0.06971681
238	0xbdbf20f3	-0.093324564
239	0xbe7e0356	-0.2480596
240	0xbdcb5ce1	-0.099298246
241	0xbbd168e6	-0.0063906787
242	0xbe442119	-0.19153251
243	0xbeda2dad	-0.42612973
244	0xbce92c62	-0.028463546
245	0xbe24f39a	-0.16108552
246	0xbd5cc144	-0.05389525
247	0x3e2b8c80	0.16752815
248	0x3e2b77fc	0.16744989
249	0x3df39be4	0.11894968
250	0x3df5c46e	0.120003566
251	0x3dd934aa	0.10605748
252	0xbcae1777	-0.021251423
253	0x3e6062d7	0.21912704
254	0x3ca2c327	0.019868447
255	0xbe446f74	-0.19183141

bias f4 [30]
0	0xb80af72f	-3.313197e-05
1	0xb78b6cb8	-1.6620717e-05
2	0x37d64ad0	2.5545625e-05
3	0x343f1710	1.7796651e-07
4	0x32889e71	1.5904535e-08
5	0xb732fd13	-1.066855e-05
6	0xb7bfb8fc	-2.2855114e-05
7	0xb52ceb6a	-6.4417566e-07
8	0xb51366cb	-5.491135e-07
9	0x376f16c1	1.4250808e-05
10	0xb4329f8f	-1.6635589e-07
11	0xb5a9764c	-1.262591e-06
12	0x3770b58e	1.4347386e-05
13	0x35718ad2	8.9981506e-07
14	0xb7974471	-1.8032473e-05
15	0xb2c87727	-2.3337249e-08
16	0xb79349ab	-1.755807e-05
17	0xb62baf5d	-2.558306e-06
18	0xb58b62ab	-1.0385023e-06
19	0x3713ed2c	8.817104e-06
20	0xb501d4a6	-4.836569e-07
21	0xb5d871bd	-1.6126356e-06
22	0x36d55ed3	6.3589337e-06
23	0x36e486d1	6.810624e-06
24	0x36c8622f	5.9718946e-06
25	0xb543a1ea	-7.2878777e-07
26	0xb7ab7193	-2.0437676e-05
27	0x382bd9a7	4.097228e-05
28	0x369f8ad3	4.7547305e-06
29	0x35205441	5.972725e-07

weight f4 [30, 30, 1, 1]
0	0xbdc6009d	-0.09668086
1	0x3ca4ad25	0.020102093
2	0xbdb41f6d	-0.087950565
3	0x3baa0d0b	0.005189543
4	0xbaf55804	-0.0018718247
5	0x3e8bb21e	0.2728433
6	0x3e09334f	0.13398479
7	0x3bb02a83	0.0053761615
8	0x3ac9eed1	0.0015406256
9	0x3de12d93	0.10995021
10	0xbae0a9bf	-0.0017140432
11	0xbe29d420	-0.16584826
12	0xbe1a3393	-0.15058737
13	0xbb51d0d2	-0.0032015336
14	0x3ddd7ce6	0.10814838
15	0xbb58f83c	-0.0033106944
16	0xbe37e97f	-0.17960165
17	0x3bb9bd89	0.0056683463
18	0x3bcd1470	0.00625854
19	0xbd5ddd12	-0.054165907
20	0xbbaa19b0	-0.0051910505
21	0xbb773151	-0.0037718604
22	0xbd76d7e3	-0.06026448
23	0x3e4b2c9d	0.19841237
24	0xbd51064d	-0.0510314
25	0xbbb7fcfb	-0.0056148744
26	0xbe4087c7	-0.18801795
27	0xbc762033	-0.015022325
28	0xbe07c850	-0.13260007
29	0x3b00a9fc	0.0019632569
30	0x80001de9	-1.073e-41
31	0x0000024d	8.25e-43
32	0x00006231	3.5224e-41
33	0x000018ef	8.944e-42
34	0x8001129d	-9.8513e-41
35	0x00011fd9	1.0326e-40
36	0x00004be4	2.7224e-41
37	0x00000fb0	5.628e-42
38	0x8000bf25	-6.857e-41
39	0x00000c76	4.47e-42
40	0x00010c0e	9.616e-41
41	0x80008675	-4.8234e-41
42	0x0000f6a5	8.848e-41
43	0x000034fe	1.901e-41
44	0x0000ba11	6.6748e-41
45	0x0000e197	8.0926e-41
46	0x000028db	1.4656e-41
47	0x0000a526	5.9244e-41
48	0x00012ae5	1.07223e-40
49	0x80001d49	-1.0506e-41
50	0x00007ae0	4.4079e-41
51	0x80007195	-4.0746e-41
52	0x8000148c	-7.371e-42
53	0x80005bb0	-3.2891e-41
54	0x0000c39d	7.0173e-41
55	0x0001285c	1.06314e-40
56	0x0000966f	5.3965e-41
57	0x80000cc6	-4.582e-42
58	0x80005000	-2.8699e-41
59	0x80001648	-7.993e-42
60	0x800092a7	-5.2609e-41
61	0x80000c0f	-4.326e-42
62	0x80004c69	-2.7411e-41
63	0x800057f5	-3.1553e-41
64	0x0000052c	1.855e-42
65	0x0000a63f	5.9638e-41
66	0x00005cce	3.3292e-41
67	0x80000cf7	-4.651e-42
68	0x8000e9a5	-8.3816e-41
69	0x0000fc64	9.054e-41
70	0x80000db3	-4.914e-42
71	0x0000144f	7.285e-42
72	0x0001281c	1.06224e-40
73	0x0000b891	6.621e-41
74	0x00000a94	3.795e-42
75	0x8000f902	-8.9327e-41
76	0x0000e97a	8.3756e-41
77	0x00012849	1.06287e-40
78	0x00002329	1.2613e-41
79	0x0000966c	5.3961e-41
80	0x8000aa60	-6.1119e-41
81	0x00006328	3.557e-41
82	0x00001fd5	1.1419e-41
83	0x0000186c	8.761e-42
84	0x000059f2	3.2266e-41
85	0x0000a1cd	5.8043e-41
86	0x800006a9	-2.389e-42
87	0x00008c15	5.0252e-41
88	0x8000655f	-3.6365e-41
89	0x0000a176	5.7921e-41
90	0x000124a5	1.04981e-40
91	0x80010947	-9.5164e-41
92	0x0000653c	3.6316e-41
93	0x800019ec	-9.299e-42
94	0x000021e1	1.2153e-41
95	0x0000aad1	6.1277e-41
96	0x8000f325	-8.7224e-41
97	0x8001367f	-1.11385e-40
98	0x0000133f	6.904e-42
99	0x00009e34	5.6753e-41
100	0x0000b022	6.3185e-41
101	0x0000e012	8.0381e-41
102	0x0000f451	8.7644e-41
103	0x80008ce2	-5.0539e-41
104	0x0000bb67	6.7227e-41
105	0x0000b764	6.5788e-41
106	0x0000314e	1.7687e-41
107	0x0000a248	5.8216e-41
108	0x000002da	1.023e-42
109	0x000068d8	3.7611e-41
110	0x80002513	-1.33e-41
111	0x8000bd6b	-6.795e-41
112	0x00009950	5.4998e-41
113	0x00005f04	3.4085e-41
114	0x0001001d	9.1876e-41
115	0x8000b467	-6.4716e-41
116	0x8000e257	-8.1195e-41
117	0x8000e783	-8.3051e-41
118	0x0000b33e	6.43e-41
119	0x8000b344	-6.4308e-41
120	0xbd03b48d	-0.03215461
121	0xbe17b339	-0.14814462
122	0xbe5830c4	-0.21112353
123	0xbb4a2e7c	-0.003085046
124	0x3b5d2cc4	0.0033748606
125	0xbd4272cc	-0.04747276
126	0x3e78f6ae	0.24312851
127	0xbabb84a7	-0.0014306501
128	0xba87601b	-0.0010328324
129	0xbe38957d	-0.18025775
130	0xbb39784a	-0.0028300458
131	0xbe50ab16	-0.20377764
132	0xbda54869	-0.08070452
133	0x3b0e7141	0.0021734985
134	0xbde08e8e	-0.1096469
135	0xba1b2b13	-0.00059191993
136	0x3e34756f	0.17622922
137	0xbc0c1b20	-0.008551389
138	0xbba9a439	-0.0051770476
139	0xbe13a9c7	-0.14420234
140	0x3b2b9846	0.0026183291
141	0xbc4a6a59	-0.012354457
142	0xbe224dc8	-0.15849984
143	0xbe0599a0	-0.13046885
144	0xbd8a9422	-0.06766535
145	0xbc6e3bc3	-0.0145406155
146	0x3d20cd4d	0.03925829
147	0x3e19b74f	0.15011333
148	0xbe21e936	-0.15811619
149	0x3c1217c9	0.008916804
150	0x0000caeb	7.2793e-41
151	0x0000b79c	6.5867e-41
152	0x800123ca	-1.04674e-40
153	0x8000f2e7	-8.7137e-41
154	0x8000f720	-8.8652e-41
155	0x8000fe2c	-9.118e-41
156	0x0001010f	9.2215e-41
157	0x8000e147	-8.0814e-41
158	0x80002a6e	-1.5221e-41
159	0x8000f482	-8.7713e-41
160	0x0000a54b	5.9296e-41
161	0x0000ae71	6.2578e-41
162	0x0000fc68	9.0546e-41
163	0x8001231c	-1.0443e-40
164	0x80006dd1	-3.9395e-41
165	0x80002475	-1.3078e-41
166	0x80006a83	-3.8209e-41
167	0x00008306	4.7002e-41
168	0x00001aab	9.567e-42
169	0x80010d3e	-9.6586e-41
170	0x000011f7	6.445e-42
171	0x0000e2ac	8.1315e-41
172	0x00008df0	5.0918e-41
173	0x8000840f	-4.7374e-41
174	0x8000320d	-1.7955e-41
175	0x000020bc	1.1743e-41
176	0x0000cdd9	7.3844e-41
177	0x00009a4b	5.535e-41
178	0x00005f3b	3.4162e-41
179	0x00010f43	9.731e-41
180	0xbe8a74ff	-0.27042386
181	0x3cb451bf	0.022011636
182	0x3e211726	0.15731487
183	0x39151f41	0.0001422139
184	0x3a2a9cef	0.000650837
185	0xbd3270a5	-0.043564457
186	0x3d499985	0.049218673
187	0xb984817a	-0.0002527347
188	0x3a19caad	0.0005866688
189	0xbda3513b	-0.07974478
190	0xbb13770e	-0.0022501382
191	0xbdd8f383	-0.10593321
192	0xbe450d15	-0.19243272
193	0xba166b50	-0.00057380367
194	0x3e5339ce	0.2062752
195	0x39e7446c	0.00044110732
196	0xbe031371	-0.12800385
197	0x3a2fd511	0.00067074696
198	0x3a377635	0.000699851
199	0xbe35449d	-0.17701955
200	0xba7e5e0a	-0.0009703344
201	0xba8fce3a	-0.0010971494
202	0xbb946dd1	-0.0045296927
203	0xbdf6c513	-0.12049308
204	0x3e0d5f26	0.13805827
205	0x3aac435b	0.0013142632
206	0x3dcf3b64	0.1011875
207	0xbe512282	-0.2042332
208	0xbe20eba4	-0.1571489
209	0x3a47bd2d	0.0007619437
210	0x8000ecf2	-8.5e-41
211	0x80009ace	-5.5533e-41
212	0x0000d36f	7.5848e-41
213	0x8000ef5a	-8.5863e-41
214	0x0000e4e0	8.2105e-41
215	0x0000d08d	7.4814e-41
216	0x0000dcca	7.9204e-41
217	0x000096b1	5.4058e-41
218	0x80006f9e	-4.0041e-41
219	0x00002d3f	1.6231e-41
220	0x000103b6	9.3167e-41
221	0x0000f5a1	8.8115e-41
222	0x80006bcb	-3.8669e-41
223	0x0000e1a8	8.095e-41
224	0x00009b62	5.5741e-41
225	0x000050bf	2.8966e-41
226	0x8000e282	-8.1256e-41
227	0x000005b6	2.049e-42
228	0x800037af	-1.9976e-41
229	0x8000a5b3	-5.9442e-41
230	0x8000588b	-3.1763e-41
231	0x00002a57	1.5189e-41
232	0x80006ca4	-3.8973e-41
233	0x0000b62b	6.535e-41
234	0x80012a0e	-1.06922e-40
235	0x80009508	-5.3462e-41
236	0x0000e338	8.1511e-41
237	0x000127c6	1.06104e-40
238	0x80009ec3	-5.6953e-41
239	0x00002ae8	1.5392e-41
240	0x800003df	-1.389e-42
241	0x00000474	1.597e-42
242	0x800013ae	-7.06e-42
243	0x00005ae6	3.2608e-41
244	0x80002906	-1.4716e-41
245	0x80002ca7	-1.6018e-41
246	0x800002ca	-1e-42
247	0x000006bf	2.42e-42
248	0x8000a28b	-5.831e-41
249	0x800036e5	-1.9692e-41
250	0x00000744	2.606e-42
251	0x000047d5	2.5768e-41
252	0x00002c18	1.5818e-41
253	0x80006cca	-3.9026e-41
254	0x800024a4	-1.3144e-41
255	0x8000db96	-7.8773e-41

bias f4 [30]
0	0xb83abb2a	-4.4520166e-05
1	0x0000e8ae	8.347e-41
2	0x0000d8f2	7.7825e-41
3	0x00009718	5.4202e-41
4	0x38147865	3.5398076e-05
5	0x00008897	4.8999e-41
6	0x38842025	6.300238e-05
7	0x80000af4	-3.929e-42
8	0x800087c7	-4.8708e-41
9	0xb5ff47d0	-1.9019881e-06
10	0x8000edd7	-8.5321e-41
11	0x00003396	1.8506e-41
12	0xb6c0b83f	-5.743495e-06
13	0x0000de81	7.982e-41
14	0x00006a3c	3.811e-41
15	0xb84c79cb	-4.875082e-05
16	0x8000030e	-1.096e-42
17	0x80005f89	-3.4272e-41
18	0x0000f1da	8.676e-41
19	0xb82d3ffd	-4.1306008e-05
20	0xb667bece	-3.4532745e-06
21	0x37ba62ed	2.2218994e-05
22	0x3877cd7c	5.908076e-05
23	0x80001a5a	-9.453e-42
24	0x8000a0a5	-5.7628e-41
25	0x35f05394	1.7905718e-06
26	0x38c5dead	9.4351686e-05
27	0x0000679e	3.7171e-41
28	0xb78fcd10	-1.7142418e-05
29	0x80001d71	-1.0562e-41

weight f4 [20, 1, 3, 3]
0	0xbc36aff4	-0.011150349
1	0xbd8d68d8	-0.06904763
2	0x3e2b7295	0.16742928
3	0x3e49efdc	0.19720405
4	0x3e46380b	0.19357316
5	0x3e00e4de	0.12587306
6	0x3d8579f6	0.06517403
7	0xbbfe4f53	-0.007760921
8	0x3dc1bf18	0.09460276
9	0x3dbc19fb	0.09184643
10	0xbe6c95d0	-0.23104024
11	0xbc33e98c	-0.010980975
12	0xbdfede99	-0.12444801
13	0xbe8ea2a1	-0.2785845
14	0xbb3a1e17	-0.0028399283
15	0x3d520534	0.051274493
16	0x3dcf4a7e	0.1012163
17	0x3e9183fd	0.28421012
18	0xb934e5ec	-0.0001725179
19	0x3d9ca1e6	0.07648067
20	0x3c855c84	0.016279466
21	0xbe87f7aa	-0.2655614
22	0xbe331262	-0.17487481
23	0xbde494dd	-0.11161206
24	0x3e1027d0	0.14077687
25	0x3e2d957c	0.16951555
26	0xbc6b01c8	-0.014343686
27	0x3e7f5cd2	0.24937752
28	0x3e182047	0.14856063
29	0x3e0b1a24	0.1358419
30	0xbd70416c	-0.05865614
31	0xbe552ac8	-0.20817101
32	0xbb437a6f	-0.0029827615
33	0xbd975949	-0.07390077
34	0xbe9a96b2	-0.30193096
35	0xbd084efb	-0.033278447
36	0xba9d44c0	-0.0011998639
37	0xbabb3623	-0.0014283102
38	0x3a84b1dc	0.0010123807
39	0x3a4e2919	0.00078644004
40	0x3b04d352	0.0020267558
41	0x3a875f41	0.001032807
42	0x3983b2fd	0.00025119624
43	0x3ae43943	0.0017412085
44	0x3af1a681	0.0018436463
45	0x3b0de6b7	0.002165241
46	0x39fbc7e6	0.00048023387
47	0x3a51f58c	0.00080093066
48	0x3aab804d	0.0013084501
49	0x3a1dc7ee	0.00060188666
50	0x3ba6c622	0.0050895372
51	0x39cd6180	0.0003917329
52	0x3a009c39	0.00049060915
53	0xba5da30d	-0.00084547774
54	0xbddf4ec6	-0.10903697
55	0x3d86c332	0.06580199
56	0xbe2ccd32	-0.16875151
57	0x3db300a3	0.08740356
58	0x3e72a41d	0.23695417
59	0xbdc98e18	-0.09841555
60	0xbd7a7ea4	-0.06115593
61	0x39f68352	0.00047018618
62	0xbe122fd3	-0.14276056
63	0x3eb350c6	0.35022563
64	0x3e0da4b4	0.1383236
65	0x3e59aa7f	0.21256445
66	0x3cac77b9	0.021053182
67	0xbe42b0a8	-0.19012702
68	0x3d82b98f	0.06383049
69	0xbe35eb7f	-0.17765616
70	0xbeb293bc	-0.34878337
71	0xbdd0509b	-0.10171624
72	0x3aee4c17	0.0018180636
73	0xba783b5e	-0.00094692956
74	0x3adb0ea3	0.0016712736
75	0x3b095ef5	0.002096114
76	0x3af73d8c	0.0018862947
77	0x3b80e025	0.00393297
78	0x3a170f86	0.0005762506
79	0xb936e35b	-0.00017441569
80	0xbadd29ea	-0.0016873453
81	0x3d1b7468	0.03795281
82	0x3e816718	0.25273967
83	0xbd719dee	-0.058988504
84	0x3d8a1f1c	0.06744215
85	0x3dd3a17a	0.103335336
86	0xbdfd5e5f	-0.123715155
87	0x3d08d1fe	0.03340339
88	0x3d7463e6	0.059665583
89	0xbe563ef1	-0.20922448
90	0x3c301fd3	0.010749775
91	0x3e2d98ff	0.16952895
92	0xbdcc863d	-0.099865414
93	0xbd943532	-0.07236709
94	0xbce1b001	-0.027549746
95	0xbe8343e2	-0.25637728
96	0xbe4e9b92	-0.20176533
97	0xbcbfde19	-0.023421334
98	0xbe39ea36	-0.1815575
99	0xbe21b551	-0.15791823
100	0x3caa0d00	0.020758152
101	0xbe289837	-0.16464315
102	0xbd8d63a3	-0.0690377
103	0x3d80a5b8	0.06281608
104	0xbdc84cc9	-0.097802706
105	0x3e370625	0.17873438
106	0x3e8cc926	0.27497214
107	0xbdba7bf4	-0.091056734
108	0x3d73f79e	0.059562318
109	0x3dee87b0	0.11646974
110	0x3b81d4af	0.0039621214
111	0x3c6352c5	0.013874714
112	0x3d32dd06	0.043667816
113	0x3cc89904	0.024487026
114	0xbdfc12ae	-0.1230825
115	0xbd4e0181	-0.050294403
116	0xbd4ebd9e	-0.0504738
117	0xbdbb766e	-0.09153448
118	0xbbbb7a6c	-0.005721381
119	0x3cb8726e	0.022515502
120	0xbe8b3281	-0.2718697
121	0xbda60e47	-0.08108192
122	0xbe587f6b	-0.21142356
123	0x3d3afeeb	0.045653265
124	0x3e407560	0.18794775
125	0xbdc84212	-0.09778227
126	0x3bbc39d2	0.0057441974
127	0x3e63bafe	0.222393
128	0xbd84955c	-0.064738005
129	0x3e5c7620	0.21529436
130	0x3ea16d57	0.31528732
131	0xbe291c94	-0.16514808
132	0xbe0b3730	-0.13595271
133	0xbc0f378d	-0.008741272
134	0xbeb2e6ac	-0.34941614
135	0xba4988ff	-0.00076879555
136	0xbaeb4289	-0.0017948906
137	0x3b218eaa	0.0024651685
138	0xb933e13c	-0.00017154677
139	0xbae60cf5	-0.0017551469
140	0xb9fb1f89	-0.00047897946
141	0x399f9508	0.0003043788
142	0xb9a09812	-0.0003063088
143	0xbab187c9	-0.0013544495
144	0xbc6ce88a	-0.0144597385
145	0xbe65b36f	-0.2243173
146	0xbd79ae80	-0.06095743
147	0xbe345c8d	-0.1761343
148	0xbe6435c3	-0.22286133
149	0x3cd66c8f	0.026174812
150	0x3c8a1a2f	0.016858188
151	0x3d80de51	0.062924035
152	0x3e8bb1e8	0.2728417
153	0x3e23fe16	0.16014895
154	0x3e348e3f	0.17632388
155	0x3e5d3585	0.21602447
156	0xbdcbace2	-0.09945084
157	0xbe471ba4	-0.19444138
158	0x3cd26064	0.025680728
159	0xbe0a1b93	-0.13487081
160	0xbe1bc674	-0.15212423
161	0x3d671c80	0.056423664
162	0xbe2f6e9e	-0.17132041
163	0xbe4ff38f	-0.20307754
164	0x3df65659	0.12028188
165	0xbe71e2af	-0.23621629
166	0xbeaf6451	-0.34256223
167	0x3e4bdc46	0.19908246
168	0x3e31315b	0.17303984
169	0x3d2b9c30	0.041897
170	0x3e7bf84d	0.24606438
171	0xbdd89a87	-0.10576349
172	0xbe611622	-0.21981099
173	0xbbc93446	-0.0061402647
174	0xbeadc780	-0.3394127
175	0xbeac1935	-0.3361298
176	0xbe975542	-0.29557234
177	0x3d8aab96	0.06771009
178	0x3e1e288f	0.1544516
179	0x3e644798	0.22292936

bias f4 [20]
0	0xb7d78163	-2.5690248e-05
1	0xb8835fca	-6.264409e-05
2	0xb63d0986	-2.8168738e-06
3	0xb80b5993	-3.3223605e-05
4	0xb48f86f5	-2.673402e-07
5	0x33fa5768	1.1657431e-07
6	0xb7011655	-7.694199e-06
7	0xb83caac1	-4.498172e-05
8	0xb61d9262	-2.348003e-06
9	0xb711c55f	-8.6886275e-06
10	0x37a635d5	1.981381e-05
11	0xb7815678	-1.5418264e-05
12	0x37cad7f0	2.418083e-05
13	0x3782c069	1.5586806e-05
14	0xb7b15494	-2.1139429e-05
15	0xb62f6af9	-2.6139298e-06
16	0xb7e9112a	-2.7783757e-05
17	0xb7dd9f7b	-2.6419517e-05
18	0xb7a50b28	-1.9674728e-05
19	0xb8858b8c	-6.367927e-05

weight f4 [20, 20, 1, 1]
0	0x3e9ac67b	0.30229554
1	0x3e3883ad	0.1801898
2	0x3e2df204	0.16986853
3	0xbe22a088	-0.1588155
4	0xba5827af	-0.00082456594
5	0xbb1f7f22	-0.0024337252
6	0x3e4c2820	0.19937181
7	0xbc84a138	-0.016190156
8	0x39a43678	0.000313211
9	0xbc96beba	-0.018401492
10	0x3eae7244	0.34071553
11	0xbd858f15	-0.06521431
12	0x3dbf6f20	0.09347367
13	0x3c9e2882	0.019306425
14	0xbcfa0737	-0.030521018
15	0x3b04c978	0.0020261686
16	0x3e3dac7a	0.18522826
17	0x3dcf76d0	0.101300836
18	0xbd3428b9	-0.04398415
19	0xbe3c7a7d	-0.184061
20	0x000003f8	1.424e-42
21	0x0000043d	1.52e-42
22	0x8000019f	-5.82e-43
23	0x000009f7	3.575e-42
24	0x0000470a	2.5484e-41
25	0x00007213	4.0922e-41
26	0x80000674	-2.315e-42
27	0x8000016d	-5.11e-43
28	0x00005d1a	3.3399e-41
29	0x800015b1	-7.781e-42
30	0x8000145f	-7.308e-42
31	0x00001985	9.155e-42
32	0x80000db7	-4.92e-42
33	0x00000a9e	3.809e-42
34	0x80000629	-2.21e-42
35	0x80000102	-3.62e-43
36	0x00001261	6.593e-42
37	0x00000094	2.07e-43
38	0x000004e7	1.759e-42
39	0x00000fbf	5.649e-42
40	0x8ab2748e	-1.718462e-32
41	0x09188f8f	1.8363835e-33
42	0x09a8199c	4.046861e-33
43	0x0a206acc	7.723806e-33
44	0x07e1ea5f	3.3991988e-34
45	0x887be6f8	-7.5804067e-34
46	0x898b1471	-3.3482256e-33
47	0x071250eb	1.1007599e-34
48	0x0727a318	1.2611613e-34
49	0x0a25d943	7.9853234e-33
50	0x0a6844e4	1.11833506e-32
51	0x88df5afb	-1.3442714e-33
52	0x0905e58b	1.6117223e-33
53	0x08fa9f5b	1.5083792e-33
54	0x08d9f705	1.3118286e-33
55	0x0638f822	3.4788853e-35
56	0x09d4102e	5.105236e-33
57	0x8802a2c9	-3.9311805e-34
58	0x8a0b62fb	-6.711223e-33
59	0x0ac9d93b	1.9437309e-32
60	0xbc9ede96	-0.019393247
61	0x3d22701b	0.039657693
62	0xbd9f3204	-0.077732116
63	0x3db7d0bc	0.0897536
64	0x3a1227c5	0.0005575384
65	0xb9f4a98b	-0.00046665626
66	0x3dc81f65	0.09771613
67	0x3e9053cb	0.2818893
68	0xba8af026	-0.0010600134
69	0xbe3c0762	-0.18362191
70	0xbe253be3	-0.16136126
71	0xbe4f7681	-0.2026005
72	0x3be850b5	0.007089699
73	0xbe4adad0	-0.19810033
74	0xbe8f2a5c	-0.27962005
75	0xba00fc14	-0.0004920375
76	0x3e2e2924	0.17007881
77	0x3e4fba47	0.20285903
78	0x3e502a00	0.20328522
79	0x3d6c1645	0.057638425
80	0x3d727196	0.059190355
81	0x3ece2e6c	0.40269792
82	0xbd91d755	-0.071211495
83	0x3de5c354	0.112188965
84	0xbb697684	-0.003562362
85	0xbbec5d09	-0.007213239
86	0xbe066de0	-0.13127851
87	0xbbb18ed0	-0.005418636
88	0xb923f64d	-0.00015636646
89	0xbda4a6d8	-0.080396354
90	0xb79ace13	-1.8454191e-05
91	0xbd7a234e	-0.061068825
92	0x3cbedf18	0.023299739
93	0x3d7af96d	0.061273027
94	0x3d1a2197	0.03762969
95	0x3a796538	0.0009513679
96	0xbd83f688	-0.064435065
97	0x3d98c36f	0.07459151
98	0xbc959798	-0.018260762
99	0xba12eb86	-0.0005604554
100	0x3d937baa	0.072013214
101	0xbdcc094e	-0.09962712
102	0xbd5fd416	-0.05464562
103	0xbe3ea4c4	-0.1861754
104	0x3b07bf1e	0.002071328
105	0xbb8f4e3e	-0.004373341
106	0x3e4c9849	0.19979967
107	0x3e7ba7a4	0.24575669
108	0xbb196cc2	-0.0023410772
109	0x3e45fbd5	0.19334348
110	0xbd871d03	-0.065973304
111	0x3e16abd0	0.14713979
112	0xbc1ebc8e	-0.00968851
113	0x3e318273	0.17334919
114	0xbe883382	-0.26601797
115	0xbb8a29be	-0.004216402
116	0x3e92835d	0.28615847
117	0x3d8a62ef	0.06757151
118	0xbdec6241	-0.11542178
119	0xbd2d9851	-0.04238159
120	0xbb02eb21	-0.0019976574
121	0x3987d38d	0.00025906824
122	0x38f23f96	0.00011551303
123	0x39bfa86c	0.00036555843
124	0x000009ca	3.512e-42
125	0x00001382	6.998e-42
126	0x39ec7a97	0.00045104764
127	0xb7c79aec	-2.379479e-05
128	0x80000a41	-3.678e-42
129	0xb9ef524c	-0.00045646948
130	0x3b424d1e	0.0029648016
131	0x39c2ca95	0.000371535
132	0xb7cb8604	-2.4261892e-05
133	0x3b3c5a4b	0.0028740342
134	0xb9152f06	-0.00014227265
135	0x000013da	7.121e-42
136	0x3aeb5496	0.0017954286
137	0xb80abe72	-3.307913e-05
138	0x3ab0b94f	0.0013482961
139	0x3c0102de	0.007874219
140	0x8000757d	-4.2147e-41
141	0x0000f669	8.8395e-41
142	0x80008810	-4.881e-41
143	0x80002bcc	-1.5711e-41
144	0x0000e326	8.1486e-41
145	0x80005479	-3.0303e-41
146	0x8000f4c2	-8.7803e-41
147	0x0000622b	3.5216e-41
148	0x80009ab6	-5.55e-41
149	0x000019f6	9.313e-42
150	0x8000587c	-3.1742e-41
151	0x800002e8	-1.043e-42
152	0x000090df	5.197e-41
153	0x00001f02	1.1124e-41
154	0x800066ac	-3.6832e-41
155	0x0000d39e	7.5914e-41
156	0x800059ea	-3.2255e-41
157	0x0000036d	1.229e-42
158	0x800057bf	-3.1477e-41
159	0x00006e53	3.9577e-41
160	0x000109f2	9.5403e-41
161	0x0000680a	3.7322e-41
162	0x00008a4c	4.9612e-41
163	0x00008aea	4.9833e-41
164	0x80000bf9	-4.295e-42
165	0x8000d064	-7.4756e-41
166	0x0000a14c	5.7862e-41
167	0x0000a110	5.7778e-41
168	0x80010f65	-9.7358e-41
169	0x0000d894	7.7694e-41
170	0x80002a02	-1.507e-41
171	0x800109ab	-9.5304e-41
172	0x8000d2d6	-7.5634e-41
173	0x8000afa3	-6.3007e-41
174	0x80005bbd	-3.291e-41
175	0x00000607	2.162e-42
176	0x80008b26	-4.9917e-41
177	0x80002692	-1.3836e-41
178	0x0000f532	8.796e-41
179	0x80001d16	-1.0434e-41
180	0x3df130e6	0.11776905
181	0xbd4cd023	-0.050003182
182	0x3e48203c	0.19543546
183	0xbc97106d	-0.01844045
184	0xbb78cb7f	-0.003796309
185	0xbad2064f	-0.0016023609
186	0xbcd34291	-0.025788577
187	0x3ea643a4	0.3247348
188	0x3a22314e	0.00061871565
189	0xbce3fdbb	-0.027830949
190	0x3dc606be	0.09669255
191	0xbbdee219	-0.0068018553
192	0xbca40a87	-0.020024551
193	0xbd401a87	-0.0469003
194	0xbe1ee1aa	-0.15515772
195	0x3aee45df	0.0018178782
196	0x3e0ccce0	0.13750029
197	0xbe5d1ad3	-0.21592264
198	0x3e21e6bb	0.15810673
199	0xbd9e0804	-0.077163726
200	0x0000193d	9.054e-42
201	0x80001002	-5.743e-42
202	0x00006774	3.7112e-41
203	0x800068b8	-3.7566e-41
204	0x0000b6ff	6.5647e-41
205	0x0000e255	8.1193e-41
206	0x80004d66	-2.7765e-41
207	0x00006582	3.6414e-41
208	0x8000b850	-6.6119e-41
209	0x00009175	5.218e-41
210	0x00001a57	9.449e-42
211	0x800087a5	-4.866e-41
212	0x800064e8	-3.6198e-41
213	0x80002467	-1.3059e-41
214	0x000034cb	1.8939e-41
215	0x000028d6	1.4649e-41
216	0x8000f08a	-8.6289e-41
217	0x800019b5	-9.222e-42
218	0x8000ede4	-8.5339e-41
219	0x80006a85	-3.8212e-41
220	0x3d9d0595	0.0766708
221	0x3e2ae765	0.16689833
222	0x3e01a48e	0.12660429
223	0xbe587315	-0.2113765
224	0xbac0ca98	-0.0014708815
225	0x3bd7246d	0.0065656216
226	0x3d40fec9	0.047117982
227	0x3dd734f5	0.105081476
228	0xbb709629	-0.0036710596
229	0x3e55a77f	0.20864676
230	0x3da80a09	0.08205039
231	0xbe68e8c4	-0.22745043
232	0x3dfc3543	0.12314846
233	0xbe0d0d61	-0.13774635
234	0x3de67e03	0.112545036
235	0xbadeb5ca	-0.0016991433
236	0xbdb359e4	-0.0875738
237	0xbe021191	-0.12702014
238	0x3e5598dc	0.20859092
239	0x3d96ca91	0.07362855
240	0x3ebfa576	0.37430924
241	0xbe1495b0	-0.14510226
242	0xbe0d0bed	-0.1377408
243	0xbe1b4167	-0.15161668
244	0x39d87005	0.00041282192
245	0xbb83c0b3	-0.0040207743
246	0x3c7bc879	0.015367621
247	0xbe0ee4bb	-0.13954441
248	0xbabc4b65	-0.0014365731
249	0x3dc52a11	0.09627164
250	0x3e5586bd	0.2085218
251	0x3ddb5f9d	0.10711596
252	0x3be6b233	0.007040286
253	0x3e98ba95	0.2982985
254	0x3c8eaa95	0.017415324
255	0x3a70f35e	0.0009191538

bias f4 [20]
0	0x380259ac	3.107793e-05
1	0x0000f4fe	8.7887e-41
2	0x000b51e7	1.039571e-39
3	0x372e79f4	1.0399603e-05
4	0xb8efb39d	-0.00011429864
5	0x388561c9	6.360148e-05
6	0x00003682	1.9554e-41
7	0x0000fb37	9.0119e-41
8	0x8001084b	-9.481e-41
9	0xb7fee0db	-3.0383866e-05
10	0x8001178b	-1.00281e-40
11	0xb6e861a7	-6.925507e-06
12	0xb8a84f6d	-8.0256585e-05
13	0xb6e282de	-6.75056e-06
14	0x0000a4ce	5.9121e-41
15	0x37c928cc	2.3980065e-05
16	0xb894c28d	-7.093428e-05
17	0x371bc7ce	9.285241e-06
18	0xb74175ec	-1.1531152e-05
19	0x8000972c	-5.423e-41

weight f4 [6, 1, 3, 3]
0	0xbe9b4305	-0.3032457
1	0x3da1d969	0.07902796
2	0x3e9ad177	0.30237934
3	0xbde1dad7	-0.110280685
4	0x3d24571f	0.040122148
5	0x3e3e8c10	0.18608117
6	0x3f07da65	0.5306762
7	0xbd3512fe	-0.044207565
8	0xbeb94b39	-0.36190203
9	0xbee7685d	-0.4519681
10	0x3e147b7a	0.14500228
11	0x3e964357	0.2934825
12	0xbd177491	-0.0369764
13	0xbeb3aad0	-0.35091257
14	0xbdb2df2d	-0.08733974
15	0x3edf6c0d	0.43637124
16	0x3bcd6dbc	0.006269185
17	0xbe96681a	-0.29376298
18	0x3ee3f292	0.44521004
19	0xbb8caee0	-0.0042933077
20	0xbec0ec54	-0.37680304
21	0xbda02893	-0.07820239
22	0x3e324184	0.17407805
23	0xbea99e92	-0.33128792
24	0xbe6d2ff4	-0.23162824
25	0xbe95cf4d	-0.2925972
26	0x3efec26a	0.497577
27	0xbec422e0	-0.38307858
28	0xbb34ba4c	-0.0027576862
29	0x3ed929f6	0.42414826
30	0xbbe904ac	-0.0071111526
31	0xbde4e0a8	-0.11175662
32	0x3dae680e	0.085159406
33	0x3ebdbcd5	0.3705813
34	0x3e1b7dbe	0.15184686
35	0xbf2e8fa6	-0.6818794
36	0xbdca84de	-0.09888624
37	0x3cb55e75	0.022139767
38	0x3ec7f420	0.3905344
39	0x3e911ec6	0.2834379
40	0x3e229a77	0.15879236
41	0x3e7dcd6e	0.24785396
42	0x3c8fbc23	0.017545765
43	0x3eafb455	0.3431727
44	0xbe227b85	-0.15867431
45	0x3e19f2bd	0.15034004
46	0xbf086c54	-0.53290296
47	0x3e383d16	0.17992052
48	0x3dba2914	0.09089866
49	0xbf0f3dcf	-0.5595369
50	0xbe6b9abe	-0.23008248
51	0xbd46c610	-0.04852873
52	0x3e705aa1	0.23472072
53	0xbea45bd6	-0.32101315

bias f4 [6]
0	0x363e4078	2.8349732e-06
1	0x38fb6c9a	0.00011988841
2	0xb8d8fcf6	-0.000103468
3	0x38bfda55	9.148257e-05
4	0xb6097bc8	-2.048664e-06
5	0xb7bbfcbc	-2.2409826e-05

weight f4 [6, 6, 1, 1]
0	0x3cfee9dd	0.031117374
1	0x3e903e32	0.2817245
2	0x3eaabf1b	0.33348927
3	0xbe8a418a	-0.27003127
4	0xbe7928dc	-0.24331993
5	0xbec0416f	-0.37549922
6	0xbead078e	-0.33794826
7	0xbee50966	-0.44733733
8	0x3eb35079	0.35022333
9	0xbeeaf516	-0.4589011
10	0xbe899b6c	-0.2687639
11	0xbe4bcc87	-0.1990224
12	0x3e70f2e8	0.23530161
13	0x3e71e3d9	0.23622073
14	0xbe9437ee	-0.2894892
15	0x3dd290fe	0.10281561
16	0x3e4a8e01	0.19780733
17	0x3eb4b842	0.35296828
18	0xbd7f9fff	-0.062408444
19	0xbe619ce5	-0.22032507
20	0x3d9169c5	0.07100252
21	0xbe78765c	-0.242639
22	0x3e9f763e	0.311449
23	0x3ee55aa8	0.44795728
24	0x3e9e20d6	0.30884427
25	0x3ebd7441	0.37002757
26	0xbeb32d6c	-0.34995592
27	0x3f00faaa	0.50382483
28	0x3db1e48c	0.0868617
29	0x3d46c682	0.048529156
30	0x3efe4888	0.49664712
31	0xbdab1cb9	-0.08355088
32	0xbed16640	-0.40898323
33	0x3e83c01a	0.257325
34	0xbe111c86	-0.14171037
35	0x3d5e6110	0.054291785

bias f4 [6]
0	0xb91c8dc2	-0.00014930128
1	0xb85610ef	-5.1037347e-05
2	0x3943c527	0.00018670094
3	0x3814cf7b	3.547918e-05
4	0xb872532d	-5.777476e-05
5	0xb7ea9313	-2.796346e-05

weight f4 [30]
0	0x3f08102e	0.5314969
1	0x00004c61	2.74e-41
2	0x0000d8a3	7.7715e-41
3	0x00004df9	2.7971e-41
4	0x3f066ff4	0.52514577
5	0x80011b80	-1.017e-40
6	0x3f39ff8d	0.72655565
7	0x8000bc39	-6.7522e-41
8	0x00000056	1.2e-43
9	0x3f318444	0.69342446
10	0x000021ec	1.2169e-41
11	0xb70fe658	-8.577095e-06
12	0x3f0fa297	0.5610747
13	0x2989e9fb	6.124611e-14
14	0x80000f77	-5.548e-42
15	0x3edb92f8	0.42885566
16	0x1bed8647	3.9295136e-22
17	0x00008415	4.7382e-41
18	0x36863238	3.9993574e-06
19	0x3ee706b2	0.45122296
20	0x3f112fdc	0.5671365
21	0x3ed5aed9	0.4173496
22	0x3f401e6e	0.7504643
23	0xb71a8ced	-9.211927e-06
24	0x8000e205	-8.108e-41
25	0x3e89ddba	0.26926976
26	0x3f0cf8e3	0.5506727
27	0x800068f8	-3.7656e-41
28	0x3f207f6a	0.6269442
29	0x2bd9bd27	1.5471278e-12

bias f4 [30]
0	0xbef3254d	-0.47489396
1	0xbab2fba1	-0.0013655314
2	0xbbe6da0d	-0.0070450366
3	0x977548fb	-7.9255884e-25
4	0xbf267494	-0.65021634
5	0xbb16a515	-0.002298658
6	0x3e32f408	0.17475903
7	0xbb8624a9	-0.0040937257
8	0xa703d4bc	-1.8295226e-15
9	0xbf1e9fe9	-0.61962754
10	0xb90c4a22	-0.00013379057
11	0xbb8223fb	-0.0039715744
12	0xbeb31aee	-0.34981483
13	0xb6b24a86	-5.313489e-06
14	0xa809a16d	-7.640031e-15
15	0xbe91e158	-0.28492236
16	0xa74dd146	-2.8562912e-15
17	0xbb1958ad	-0.0023398802
18	0xba84f51e	-0.0010143851
19	0xbeb72465	-0.35769954
20	0xbf2c174f	-0.67223066
21	0xbe8851b8	-0.26624846
22	0xbe7446f7	-0.23855196
23	0xb9be693e	-0.00036318036
24	0xb9234a58	-0.00015572587
25	0xbdfe399a	-0.124133304
26	0xbec25ad5	-0.37959924
27	0xb2185eb6	-8.869099e-09
28	0xbedce2ec	-0.43141878
29	0xb88bf403	-6.673487e-05

running_mean f4 [30]
0	0xbd186135	-0.03720208
1	0x0000619d	3.5017e-41
2	0x800069ff	-3.8024e-41
3	0x80007476	-4.1778e-41
4	0x3e80c0bd	0.25147048
5	0x0000b144	6.3591e-41
6	0xbef4d55f	-0.4781904
7	0x800004ae	-1.679e-42
8	0x80005755	-3.1329e-41
9	0x3db04156	0.08606212
10	0x80008a3e	-4.9592e-41
11	0xaa06da71	-1.1977378e-13
12	0xbebb9317	-0.36635658
13	0x00002faf	1.7106e-41
14	0x000024b0	1.3161e-41
15	0xbcbe9679	-0.02326511
16	0x80001bf9	-1.0035e-41
17	0x00009d99	5.6535e-41
18	0xa2db24da	-5.9399087e-18
19	0xbd6aebb8	-0.057353705
20	0x3dc11447	0.09427696
21	0xbf8b9461	-1.0904657
22	0xbf25e703	-0.6480562
23	0x1252a519	6.6467815e-28
24	0x00009bda	5.5909e-41
25	0xbf0269f5	-0.5094293
26	0xbe9fb056	-0.3118922
27	0x8000f7a3	-8.8835e-41
28	0xbece53d9	-0.40298346
29	0x80006207	-3.5166e-41

running_var f4 [30]
0	0x3d1defbd	0.03855871
1	0x00000004	6e-45
2	0x00000004	6e-45
3	0x00000004	6e-45
4	0x3d7e2b53	0.062053036
5	0x00000004	6e-45
6	0x408cee4c	4.404089
7	0x00000004	6e-45
8	0x00000004	6e-45
9	0x3e0fe504	0.14052206
10	0x00000004	6e-45
11	0x138abd13	3.502254e-27
12	0x3d9aed64	0.0756481
13	0x00000004	6e-45
14	0x00000004	6e-45
15	0x3d7daab7	0.061930384
16	0x00000004	6e-45
17	0x00000004	6e-45
18	0x05dfcbe8	2.1045723e-35
19	0x3dfc7b74	0.12328234
20	0x3daa805b	0.08325263
21	0x3f08793f	0.53310007
22	0x3fbfea12	1.4993308
23	0x00000004	6e-45
24	0x00000004	6e-45
25	0x3efeea13	0.4978796
26	0x3d728f70	0.059218824
27	0x00000004	6e-45
28	0x3dbbef7c	0.091765374
29	0x00000004	6e-45

weight f4 [20]
0	0x3f18087c	0.59387946
1	0x35955ca7	1.112833e-06
2	0x88a531bd	-9.94227e-34
3	0x3f3e9721	0.74449354
4	0x3f44a70c	0.76817393
5	0x3f0f953f	0.56087106
6	0xb80ae925	-3.3118897e-05
7	0x8000241a	-1.2951e-41
8	0x800097af	-5.4414e-41
9	0x3f465bd6	0.7748388
10	0x8000382f	-2.0155e-41
11	0x3ee73c47	0.45163175
12	0x3f0d13a5	0.551081
13	0x3f0fa92c	0.5611751
14	0x800084de	-4.7664e-41
15	0x3f15ff6d	0.58592874
16	0x3f0cf3d5	0.5505956
17	0x3eba6eab	0.36412558
18	0x3ec96afa	0.3933943
19	0x000106a7	9.4222e-41

bias f4 [20]
0	0xbf4d1af4	-0.8011925
1	0xb9c3743f	-0.00037279908
2	0xbac0ef97	-0.0014719841
3	0xbe81faa9	-0.2538655
4	0xbea5c91a	-0.3237999
5	0xbf2a2cda	-0.6647469
6	0xb9f1802f	-0.00046062606
7	0xbac640db	-0.001512553
8	0xb8e759c4	-0.000110316585
9	0xbea55074	-0.32287943
10	0xa91dcc00	-3.5037945e-14
11	0xbf0b02b1	-0.5430098
12	0xbe78519f	-0.24249886
13	0xbe826a4a	-0.25471717
14	0xb9dfd730	-0.00042694202
15	0xbebd8409	-0.37014797
16	0xbf3b648a	-0.73200285
17	0xbf3f8dee	-0.7482594
18	0xbf1bd736	-0.6087526
19	0xb62a60d5	-2.5388338e-06

running_mean f4 [20]
0	0x3eb7ba14	0.35884154
1	0x80008184	-4.6461e-41
2	0x0a86a77d	1.2966733e-32
3	0xbf45f57e	-0.77327716
4	0xbe8f0b3e	-0.27938265
5	0x3c3bf3a9	0.011471667
6	0xbd9dfcbc	-0.07714221
7	0x80001df5	-1.0747e-41
8	0x8000aeef	-6.2754e-41
9	0xbea22d34	-0.31675112
10	0x000006b3	2.403e-42
11	0x3e22dd63	0.15904765
12	0x3e28dd99	0.16490783
13	0xbd7e9f9a	-0.062163927
14	0x8000d641	-7.686e-41
15	0xbff02676	-1.8761737
16	0x3eb8e9dc	0.3611592
17	0x3ea43902	0.32074744
18	0x3e6d58d9	0.23178424
19	0x800111d3	-9.823e-41

running_var f4 [20]
0	0x3dc32cde	0.09530042
1	0x00000004	6e-45
2	0x00000004	6e-45
3	0x406a9799	3.6655028
4	0x3ebd9c87	0.37033483
5	0x3d525a58	0.05135569
6	0x3ac6df30	0.0015172716
7	0x00000004	6e-45
8	0x00000004	6e-45
9	0x3eb609d5	0.35554376
10	0x00000004	6e-45
11	0x3d1195f8	0.035543412
12	0x3f740958	0.9532676
13	0x3f4433b7	0.7664141
14	0x00000004	6e-45
15	0x3fde7cda	1.7381852
16	0x3d9e0441	0.07715655
17	0x3d3b22b2	0.045687385
18	0x3d8bd48e	0.06827651
19	0x00000004	6e-45

weight f4 [6]
0	0x3eef72ee	0.46767372
1	0x3f8a3bcf	1.0799502
2	0x3fa29c38	1.2703924
3	0x3f1510c4	0.5822871
4	0x3f9af700	1.2106628
5	0x3f827fcb	1.0195249

bias f4 [6]
0	0xbe9736e3	-0.29534063
1	0xbf04cd40	-0.51875687
2	0xbf71a176	-0.94386995
3	0xbd19cf6b	-0.037551325
4	0xbf0e5029	-0.55591065
5	0xbf6be1bc	-0.9214132

running_mean f4 [6]
0	0xbdbfd1eb	-0.093662106
1	0xbed761fc	-0.42066944
2	0xbf265b5f	-0.6498317
3	0xbe022d7a	-0.1271266
4	0x3ddbb66a	0.10728152
5	0x3b085a3c	0.0020805737

running_var f4 [6]
0	0x3dd90e9c	0.1059849
1	0x3eb55d40	0.35422707
2	0x3e64bdcf	0.22338031
3	0x3e0ec4ff	0.13942336
4	0x3e7b0fa6	0.24517688
5	0x3e0a7863	0.13522486

weight f4 [16, 10800]
0	0x00000192	5.63e-43
1	0x000095a7	5.3685e-41
2	0x8000315e	-1.771e-41
3	0x000006e9	2.479e-42
4	0x80008385	-4.718e-41
5	0x800052f4	-2.9758e-41
6	0x000029de	1.5019e-41
7	0x0000430c	2.4052e-41
8	0x00001b11	9.71e-42
9	0x80003889	-2.0281e-41
10	0x80002e0c	-1.6519e-41
11	0x00009fd8	5.7341e-41
12	0x80000e76	-5.188e-42
13	0x80002f41	-1.6952e-41
14	0x80003f8e	-2.2799e-41
15	0x0000087c	3.044e-42
16	0x00000798	2.724e-42
17	0x8000c9d2	-7.24e-41
18	0x800035e2	-1.933e-41
19	0x80000d04	-4.669e-42
20	0x80005f63	-3.4218e-41
21	0x00001f34	1.1194e-41
22	0x8000007c	-1.74e-43
23	0x80004d82	-2.7805e-41
24	0x000017b1	8.499e-42
25	0x8000101e	-5.782e-42
26	0x00002db4	1.6395e-41
27	0x8000152b	-7.594e-42
28	0x80000438	-1.513e-42
29	0x8000cca6	-7.3414e-41
30	0x80003075	-1.7383e-41
31	0x0000012d	4.22e-43
32	0x00000071	1.58e-43
33	0x00002e36	1.6577e-41
34	0x000028a2	1.4576e-41
35	0x80011cf4	-1.02222e-40
36	0x80001abc	-9.59e-42
37	0x80005d57	-3.3484e-41
38	0x0000200d	1.1498e-41
39	0x00000ff8	5.729e-42
40	0x80002641	-1.3723e-41
41	0x00003b7b	2.1338e-41
42	0x0000134b	6.921e-42
43	0x800030a2	-1.7446e-41
44	0x0000089c	3.088e-42
45	0x000049bd	2.6452e-41
46	0x0000190b	8.984e-42
47	0x0000430b	2.405e-41
48	0x800025e9	-1.36e-41
49	0x00000730	2.578e-42
50	0x8000530f	-2.9796e-41
51	0x000032ae	1.818e-41
52	0x8000052d	-1.857e-42
53	0x000042e8	2.4001e-41
54	0x80001fa9	-1.1358e-41
55	0x000029da	1.5014e-41
56	0x00000654	2.27e-42
57	0x80000d4b	-4.769e-42
58	0x00000a61	3.723e-42
59	0x00001f8e	1.132e-41
60	0x800039b3	-2.0699e-41
61	0x000037d9	2.0034e-41
62	0x00003ba3	2.1394e-41
63	0x80003ba1	-2.1391e-41
64	0x80003c6f	-2.168e-41
65	0x80004cbc	-2.7527e-41
66	0x800001e1	-6.74e-43
67	0x800086b4	-4.8322e-41
68	0x800021c1	-1.2109e-41
69	0x80001431	-7.243e-42
70	0x80003319	-1.833e-41
71	0x8000a677	-5.9716e-41
72	0x8000264c	-1.3738e-41
73	0x00001c2e	1.0109e-41
74	0x8000151b	-7.571e-42
75	0x00005d68	3.3508e-41
76	0x000032c7	1.8215e-41
77	0x0000dcd3	7.9217e-41
78	0x80000ebb	-5.284e-42
79	0x800019fc	-9.321e-42
80	0x80000814	-2.898e-42
81	0x80005632	-3.0921e-41
82	0x80003a0a	-2.082e-41
83	0x0000512f	2.9123e-41
84	0x80002bfe	-1.5781e-41
85	0x800025bb	-1.3535e-41
86	0x00004ee3	2.8299e-41
87	0x00004216	2.3707e-41
88	0x800003c5	-1.352e-42
89	0x8000a366	-5.8616e-41
90	0x80001619	-7.927e-42
91	0x80005900	-3.1927e-41
92	0x00004ece	2.827e-41
93	0x800011fc	-6.452e-42
94	0x8000546f	-3.0289e-41
95	0x80007c53	-4.4599e-41
96	0x000032b2	1.8186e-41
97	0x00003a1e	2.0849e-41
98	0x00003235	1.8011e-41
99	0x8000040b	-1.45e-42
100	0x800045ee	-2.5086e-41
101	0x0000bff1	6.8856e-41
102	0x00002c15	1.5814e-41
103	0x0000348e	1.8853e-41
104	0x8000515c	-2.9186e-41
105	0x00002e7f	1.668e-41
106	0x00004e0f	2.8002e-41
107	0x0000a45a	5.8958e-41
108	0x80001cf1	-1.0382e-41
109	0x80002c92	-1.5989e-41
110	0x00003298	1.815e-41
111	0x00001dae	1.0647e-41
112	0x800024d4	-1.3211e-41
113	0x8000728a	-4.1089e-41
114	0x800010cf	-6.03e-42
115	0x00009269	5.2522e-41
116	0x80001024	-5.79e-42
117	0x000044bc	2.4657e-41
118	0x0000ef4f	8.5848e-41
119	0x80006ad9	-3.833e-41
120	0x8000d657	-7.689e-41
121	0x8000d657	-7.689e-41
122	0x8000d657	-7.689e-41
123	0x8000d657	-7.689e-41
124	0x8000d657	-7.689e-41
125	0x8000d657	-7.689e-41
126	0x8000d657	-7.689e-41
127	0x8000d657	-7.689e-41
128	0x8000d657	-7.689e-41
129	0x8000d657	-7.689e-41
130	0x8000d657	-7.689e-41
131	0x8000d657	-7.689e-41
132	0x8000d657	-7.689e-41
133	0x8000d657	-7.689e-41
134	0x8000d657	-7.689e-41
135	0x8000d657	-7.689e-41
136	0x8000d657	-7.689e-41
137	0x8000d657	-7.689e-41
138	0x8000d657	-7.689e-41
139	0x8000d657	-7.689e-41
140	0x8000d657	-7.689e-41
141	0x8000d657	-7.689e-41
142	0x8000d657	-7.689e-41
143	0x8000d657	-7.689e-41
144	0x8000d657	-7.689e-41
145	0x8000d657	-7.689e-41
146	0x8000d657	-7.689e-41
147	0x8000d657	-7.689e-41
148	0x8000d657	-7.689e-41
149	0x8000d657	-7.689e-41
150	0x8000d657	-7.689e-41
151	0x8000d657	-7.689e-41
152	0x8000d657	-7.689e-41
153	0x8000d657	-7.689e-41
154	0x8000d657	-7.689e-41
155	0x8000d657	-7.689e-41
156	0x8000d657	-7.689e-41
157	0x8000d657	-7.689e-41
158	0x8000d657	-7.689e-41
159	0x8000d657	-7.689e-41
160	0x8000d657	-7.689e-41
161	0x8000d657	-7.689e-41
162	0x8000d657	-7.689e-41
163	0x8000d657	-7.689e-41
164	0x8000d657	-7.689e-41
165	0x8000d657	-7.689e-41
166	0x8000d657	-7.689e-41
167	0x8000d657	-7.689e-41
168	0x8000d657	-7.689e-41
169	0x8000d657	-7.689e-41
170	0x8000d657	-7.689e-41
171	0x8000d657	-7.689e-41
172	0x8000d657	-7.689e-41
173	0x8000d657	-7.689e-41
174	0x8000d657	-7.689e-41
175	0x8000d657	-7.689e-41
176	0x8000d657	-7.689e-41
177	0x8000d657	-7.689e-41
178	0x8000d657	-7.689e-41
179	0x8000d657	-7.689e-41
180	0x8000d657	-7.689e-41
181	0x8000d657	-7.689e-41
182	0x8000d657	-7.689e-41
183	0x8000d657	-7.689e-41
184	0x8000d657	-7.689e-41
185	0x8000d657	-7.689e-41
186	0x8000d657	-7.689e-41
187	0x8000d657	-7.689e-41
188	0x8000d657	-7.689e-41
189	0x8000d657	-7.689e-41
190	0x8000d657	-7.689e-41
191	0x8000d657	-7.689e-41
192	0x8000d657	-7.689e-41
193	0x8000d657	-7.689e-41
194	0x8000d657	-7.689e-41
195	0x8000d657	-7.689e-41
196	0x8000d657	-7.689e-41
197	0x8000d657	-7.689e-41
198	0x8000d657	-7.689e-41
199	0x8000d657	-7.689e-41
200	0x8000d657	-7.689e-41
201	0x8000d657	-7.689e-41
202	0x8000d657	-7.689e-41
203	0x8000d657	-7.689e-41
204	0x8000d657	-7.689e-41
205	0x8000d657	-7.689e-41
206	0x8000d657	-7.689e-41
207	0x8000d657	-7.689e-41
208	0x8000d657	-7.689e-41
209	0x8000d657	-7.689e-41
210	0x8000d657	-7.689e-41
211	0x8000d657	-7.689e-41
212	0x8000d657	-7.689e-41
213	0x8000d657	-7.689e-41
214	0x8000d657	-7.689e-41
215	0x8000d657	-7.689e-41
216	0x8000d657	-7.689e-41
217	0x8000d657	-7.689e-41
218	0x8000d657	-7.689e-41
219	0x8000d657	-7.689e-41
220	0x8000d657	-7.689e-41
221	0x8000d657	-7.689e-41
222	0x8000d657	-7.689e-41
223	0x8000d657	-7.689e-41
224	0x8000d657	-7.689e-41
225	0x8000d657	-7.689e-41
226	0x8000d657	-7.689e-41
227	0x8000d657	-7.689e-41
228	0x8000d657	-7.689e-41
229	0x8000d657	-7.689e-41
230	0x8000d657	-7.689e-41
231	0x8000d657	-7.689e-41
232	0x8000d657	-7.689e-41
233	0x8000d657	-7.689e-41
234	0x8000d657	-7.689e-41
235	0x8000d657	-7.689e-41
236	0x8000d657	-7.689e-41
237	0x8000d657	-7.689e-41
238	0x8000d657	-7.689e-41
239	0x8000d657	-7.689e-41
240	0x000016a6	8.125e-42
241	0x000016a6	8.125e-42
242	0x000016a6	8.125e-42
243	0x000016a6	8.125e-42
244	0x000016a6	8.125e-42
245	0x000016a6	8.125e-42
246	0x000016a6	8.125e-42
247	0x000016a6	8.125e-42
248	0x000016a6	8.125e-42
249	0x000016a6	8.125e-42
250	0x000016a6	8.125e-42
251	0x000016a6	8.125e-42
252	0x000016a6	8.125e-42
253	0x000016a6	8.125e-42
254	0x000016a6	8.125e-42
255	0x000016a6	8.125e-42

bias f4 [16]
0	0x00001436	7.25e-42
1	0x80000317	-1.108e-42
2	0x3d652c08	0.055950195
3	0x00000f43	5.475e-42
4	0x80000af2	-3.926e-42
5	0xbb939302	-0.0045036087
6	0x3e3259f7	0.17417131
7	0x00000f6c	5.532e-42
8	0x3d41d83a	0.04732535
9	0x8000123f	-6.545e-42
10	0x00000e36	5.098e-42
11	0x00000a7f	3.765e-42
12	0x90dc5616	-8.6907336e-29
13	0xbdda8067	-0.10669022
14	0x8000039e	-1.298e-42
15	0xab813123	-9.17964e-13

weight f4 [1, 16]
0	0x800004fc	-1.788e-42
1	0x3b701ad0	0.0036637075
2	0x3f19fbe2	0.6014997
3	0xb6b6cf4f	-5.4481566e-06
4	0x3b024639	0.0019878282
5	0xbb740483	-0.0037234135
6	0x3ee5a62a	0.44853336
7	0xb50aee36	-5.175565e-07
8	0x3fa0018e	1.2500474
9	0xb78c331c	-1.67131e-05
10	0x3b7ba76c	0.0038399352
11	0x3ad4d5e9	0.0016238067
12	0x39b16470	0.00033834903
13	0xbf6685f7	-0.90048164
14	0x3a2dced3	0.00066302455
15	0xbb7beca4	-0.003844061
