model_new/Mult_Conv_2_-1_8.pt (torch, 712456 bytes, 27 tensors)

weight f4 [30, 1, 3, 3]
000000 36 62 6d 3e 2c 4e 83 3e 2d 8a 29 be ea 27 c7 3d
       0.23181996 0.25645578 -0.16556616 0.0972441
000010 41 3f c6 3e d0 f1 16 bd cf e7 96 be dc 2b db bd
       0.38720134 -0.036851704 -0.2947373 -0.10701725
000020 38 f9 08 be f6 88 1e be 47 a1 e1 bd a0 a4 bd 3d
       -0.1337632 -0.15481934 -0.11017089 0.09259915
000030 c0 0c d5 3d c3 ea e0 3d 30 f9 e8 3e 27 93 eb 3b
       0.104028225 0.10982277 0.45502615 0.007189173
000040 17 96 91 be b5 a8 c6 3d b7 7b 4a bb a7 4b 39 3a
       -0.28434822 0.09700147 -0.0030896494 0.0007068463
000050 21 93 31 ba 15 71 f8 39 19 3a 99 ba a5 a9 23 ba
       -0.0006773938 0.000473865 -0.0011690288 -0.00062432355
000060 bb ea 00 38 10 20 bf ba 0a 25 60 3a e6 09 45 3e
       3.0736188e-05 -0.0014581699 0.0008550441 0.19242057
000070 3b 28 9d 3e 5f f4 8f bb 66 0c 56 3e 90 2e 84 3e
       0.30694756 -0.004393145 0.20903167 0.25816774
000080 52 ab 14 bd 7a 8d 48 be 32 e1 2e be f2 40 91 be
       -0.036296196 -0.19585219 -0.17078093 -0.28369862
000090 e2 1b 79 3a 7e 02 06 bb 71 bf 2b ba 47 f3 b5 3a
       0.0009502751 -0.0020448263 -0.00065516593 0.0013881706
0000a0 06 2d 6d 3a bf c3 7f 39 68 67 13 bb a8 e7 56 39
       0.00090475415 0.00024391616 -0.0022492055 0.00020494929
0000b0 9e 73 ef 3a 31 71 20 bc 61 44 fc 3d 11 c6 51 3e
       0.001826871 -0.009792612 0.1231773 0.20485713
0000c0 12 71 69 3d b0 74 8a 3d 58 8a 42 be 62 6c 35 be
       0.056992598 0.067605376 -0.18998086 -0.17717126
0000d0 81 e0 18 be b3 34 56 be cb 19 5e 3e bc d9 12 bc
       -0.14929391 -0.2091854 0.21689527 -0.008963045
0000e0 1f cb c9 bd 76 14 0d 3e 6f c4 0c 3c d5 60 61 be
       -0.098531954 0.13777336 0.008591755 -0.22009595
0000f0 0e d9 c8 3d c5 40 7c bd db a1 cb bd 4e 9c 61 b9
       0.09807025 -0.061585207 -0.09942981 -0.000215159
000100 c1 d8 12 bb 65 62 23 bb 23 6e 95 3a fb d4 5f 39
       -0.0022407027 -0.0024930474 0.0011400621 0.00021346279
000110 0c 1c 29 bb 3f b7 92 3a 17 33 b7 ba 7c 60 eb ba
       -0.002580407 0.0011193528 -0.0013977018 -0.0017957832
000120 62 0f 41 3a fb fe 92 ba 77 7b 59 bb 0d 57 83 3a
       0.0007364658 -0.0011214906 -0.0033185163 0.001002045
000130 84 b2 fa 37 f0 84 1d ba 99 68 4f 3a db 88 81 ba
       2.988545e-05 -0.0006008884 0.00079120096 -0.0009882705
000140 3c b9 3e b9 2b 99 bc 3a df 43 aa 3d 9b aa eb 3d
       -0.00018188817 0.0014388909 0.08313727 0.1150715
000150 72 53 19 be 55 5a 2d 3d 99 4f 72 3e be a8 08 be
       -0.14973238 0.042322475 0.23663177 -0.1334562
000160 92 b7 9d bd 85 d8 07 3d fa 5e d5 ba 06 bf 81 ba
       -0.07701029 0.033165473 -0.0016278916 -0.0009898848
000170 98 3c 01 bb 57 0e 18 bb e9 32 04 3a 6f 9d 22 3b
       -0.0019719955 -0.0023201907 0.00050429866 0.0024813076
000180 5c 4c 55 b8 ee 41 20 3a bb be 08 ba ee 94 15 3e
       -5.0854273e-05 0.000611334 -0.00052164093 0.14607593
000190 9e 69 2d 3d ce bb 16 bd 75 13 4b 3e 09 56 3d bc
       0.042337053 -0.0368002 0.19831641 -0.011556157
0001a0 fc 58 35 be c8 29 82 3d 87 43 52 bc e9 cc 37 be
       -0.17709726 0.063556254 -0.012833483 -0.17949261
0001b0 52 b8 94 3a 1e 47 71 3b 02 fb 06 3b 00 50 1b 3b
       0.0011346436 0.003681607 0.002059639 0.0023698807
0001c0 3e 21 54 3b ce d7 85 3a 5e 26 26 3b d1 5a 36 3a
       0.0032368447 0.001021141 0.0025352458 0.0006956282
0001d0 81 1a 6a 3b c4 74 9c 3e 1b ee cd 3d 46 ff 08 3e
       0.0035721364 0.30557835 0.10055181 0.13378629
0001e0 cd 64 85 bc ea ed 54 be 7d 41 05 3e f2 fb 35 bd
       -0.016283417 -0.20793882 0.13013263 -0.044429727
0001f0 92 2c 8a be 5d f2 8e bd da c2 75 3d 57 b0 63 3e
       -0.2698713 -0.06979821 0.060000278 0.22235237
000200 46 94 b0 3e bc 4b 55 be 09 99 60 be 0c e1 40 3d
       0.34488124 -0.20829672 -0.21933378 0.04708962
000210 2e 87 ef bd f1 b7 4f be f2 e1 17 be ab 8f 2c ba
       -0.11695705 -0.20285012 -0.14832285 -0.00065826875
000220 6f aa 4c bb 99 7c 03 bb 86 75 93 ba fc 27 ef ba
       -0.0031229516 -0.002006328 -0.0011250235 -0.0018246169
000230 40 dc 9a ba da 57 1a bb 75 c9 1a bb f7 11 33 ba
       -0.0011814907 -0.0023550899 -0.0023618613 -0.0006830985
000240 6b 4d 9a 3c 2d 98 42 3e 2a 0d 88 bd 07 7b 8d 3c
       0.018835744 0.19003363 -0.06643136 0.017270578
000250 88 68 77 bd 08 15 9a be 32 2d b1 3d 5e 29 1f bd
       -0.060402423 -0.3009417 0.086511984 -0.03885781
000260 90 bc 24 be 1e 95 ed 39 6d 22 7d 3e 69 bb 26 bd
       -0.16087556 0.00045315264 0.24720164 -0.040706072
000270 5b fb 80 bd 71 18 36 3e d9 f1 cb bd f8 07 1e 3c
       -0.06297942 0.17782761 -0.09958238 0.009645455
000280 ad 57 16 bd 3f 8a e2 bd 1f 49 86 3d 53 87 73 3e
       -0.036704708 -0.110615246 0.065569155 0.23782091
000290 81 22 3b bb d3 a6 28 3e 84 4b 06 3e 60 04 91 3d
       -0.0028554501 0.16469888 0.13114744 0.070809126
0002a0 2c 7b 26 be e1 8e a3 bd eb 8a ae bd f3 d8 d1 ba
       -0.16257924 -0.07986236 -0.0852259 -0.001601009
0002b0 cb 7f 3a 3a bb 72 00 b9 28 ba e6 3a 8e 43 52 ba
       0.00071143796 -0.00012249772 0.0017603086 -0.00080209307
0002c0 0e 69 25 39 ac 91 8a 3a 0a 8c 84 b8 f4 41 90 b8
       0.00015774762 0.0010571978 -6.320335e-05 -6.87874e-05
0002d0 91 06 f1 ba f7 ea 0c 3a 75 84 12 ba 12 4d b5 3a
       -0.0018388798 0.00053755887 -0.00055891956 0.0013832173
0002e0 ac fd a6 b9 02 ae 07 ba 15 a8 8d 3a aa ad e1 b8
       -0.00031850988 -0.00051757705 0.0010807539 -0.000107611835
0002f0 65 e4 82 3a f5 0d 15 3b 56 5c 66 39 bd c0 7e 3a
       0.000998628 0.0022743915 0.00021968907 0.00097180513
000300 22 f0 1e ba 7d 88 13 ba 52 4f 99 ba 75 cc ea b9
       -0.0006063004 -0.00056279433 -0.0011696613 -0.0004478429
000310 c9 10 e3 ba d3 a8 c8 37 17 d4 1f 3e 22 8e 89 3e
       -0.0017323728 2.3920473e-05 0.1560825 0.2686625
000320 b2 ba f9 bd 6c 84 00 3e b7 78 a2 bc 0a 5b 7b be
       -0.121938124 0.12550515 -0.019832952 -0.24546447
000330 77 f9 c2 3d ea 06 b3 bd 18 1e 20 be 97 cb da bd
       0.09520238 -0.08741553 -0.1563648 -0.10683363
000340 85 55 25 be a8 e8 e6 bd 2a 38 ba bc cb 2e 17 3d
       -0.16145904 -0.112748444 -0.02273186 0.03690986
000350 8a d3 ca 3d 80 5f 03 3e 0f 9e 21 3e 46 06 69 3e
       0.09903629 0.12829399 0.15782951 0.227563
000360 46 17 a1 bd 70 82 2e 3c 01 cd 30 3d 58 07 e2 3d
       -0.07865767 0.010651216 0.043164257 0.11036557
000370 e0 e0 84 3d 90 ed 38 bd b9 45 47 bc e6 c2 e0 bb
       0.06488204 -0.045148432 -0.012162619 -0.006859171
000380 e8 e2 b1 bc 7c 85 0f ba d8 1c 64 3a 80 64 b3 ba
       -0.021714643 -0.0005474908 0.0008701808 -0.0013686568
000390 34 d8 c3 b9 ed ec 56 3b 61 18 04 ba 53 f4 f9 b9
       -0.00037354382 0.0032795027 -0.0005039033 -0.00047675017
0003a0 95 44 c6 ba f1 22 b1 ba b7 ed 54 3b 1c 99 3b 3a
       -0.001512664 -0.0013514442 0.0032490322 0.0007156299
0003b0 1c 5c e0 3a 57 7a 4a 3a 33 b1 74 3a 8f 82 4b 39
       0.0017117294 0.00077239185 0.0009334266 0.00019408225
0003c0 6e 53 b1 3a 15 9a 20 39 ae 8d 0c 3b e9 bd d1 3a
       0.0013528892 0.00015316189 0.0021446752 0.0016002032
0003d0 c3 1a 66 ba bc 3d 58 3a af 81 cf b8 05 c4 31 ba
       -0.00087777915 0.0008248945 -9.8946846e-05 -0.00067812233
0003e0 47 fe 01 38 a3 d0 cf 39 c2 fd f5 b9 52 87 57 3b
       3.099281e-05 0.00039637563 -0.00046919106 0.0032887054
0003f0 d5 85 00 3d ae 97 ef 3d 4b 3b 0e 3d 2c f3 14 3e
       0.031377632 0.116988525 0.034724515 0.14545888

bias f4 [30]
000000 dc 4d 3a b7 bc 80 42 b8 c1 13 aa b3 dc da f0 b7
       -1.1104592e-05 -4.6373098e-05 -7.919835e-08 -2.8712144e-05
000010 b2 ee e7 35 6c 20 9f 38 f3 0e 04 36 32 b5 26 b6
       1.7280311e-06 7.58775e-05 1.9678234e-06 -2.4841397e-06
000020 ad b9 89 35 86 66 2a 37 3b 8e b8 b5 0c 44 8a 37
       1.0261334e-06 1.015666e-05 -1.3750463e-06 1.6482569e-05
000030 ea 55 b8 35 71 05 25 b6 38 f1 b7 b7 1d 7e 79 b5
       1.3734073e-06 -2.4590083e-06 -2.1927626e-05 -9.294325e-07
000040 2e 07 79 b7 c7 a7 bb b7 be 0f 2a 37 bd 54 40 b4
       -1.4843228e-05 -2.2370265e-05 1.0136455e-05 -1.7912221e-07
000050 9b 13 15 35 3f 44 0a b5 0d c0 93 b7 30 36 f8 37
       5.5535355e-07 -5.150832e-07 -1.7613196e-05 2.9589137e-05
000060 72 d8 ac b6 ff b9 85 b5 07 12 b8 34 11 fb 90 35
       -5.151197e-06 -9.963404e-07 3.4285787e-07 1.0801906e-06
000070 e3 1a 79 38 49 54 ea 37
       5.9391266e-05 2.7934222e-05

weight f4 [30, 30, 1, 1]
000000 0a 1b 00 00 8d 10 00 80 c1 17 00 00 b0 03 00 80
       9.7e-42 -5.937e-42 8.521e-42 -1.323e-42
000010 a2 21 00 00 0f 0c 00 80 4e 10 00 80 8e a3 00 00
       1.2065e-41 -4.326e-42 -5.849e-42 5.8672e-41
000020 6c 4e 00 00 01 1e 00 00 19 0a 00 80 69 1e 00 00
       2.8132e-41 1.0763e-41 -3.622e-42 1.0909e-41
000030 e9 34 00 00 bd 03 00 00 76 15 00 00 be 59 00 80
       1.898e-41 1.341e-42 7.699e-42 -3.2193e-41
000040 ac 05 00 00 b8 15 00 00 6f 12 00 00 26 7f 00 00
       2.035e-42 7.791e-42 6.613e-42 4.5612e-41
000050 52 c3 00 80 b4 3a 00 00 6b 19 00 80 88 0b 00 00
       -7.0068e-41 2.1059e-41 -9.118e-42 4.137e-42
000060 4f 38 00 00 51 7a 00 00 c7 35 00 80 b6 53 00 00
       2.02e-41 4.3879e-41 -1.9292e-41 3.003e-41
000070 ef 29 00 00 d9 13 00 80 7d 4e 00 00 39 47 00 00
       1.5043e-41 -7.12e-42 2.8156e-41 2.555e-41
000080 0d b6 00 80 e3 ab 00 00 85 59 00 80 04 ae 00 80
       -6.5308e-41 6.1661e-41 -3.2114e-41 -6.2425e-41
000090 c0 fe 00 80 86 21 00 00 77 3c 00 80 16 6b 00 80
       -9.1387e-41 1.2026e-41 -2.169e-41 -3.8415e-41
0000a0 f8 c1 00 80 07 6b 00 00 a8 60 00 80 bb 22 00 80
       -6.9583e-41 3.8394e-41 -3.4674e-41 -1.2459e-41
0000b0 4f 92 00 80 99 16 00 00 96 32 00 80 33 ef 00 00
       -5.2486e-41 8.107e-42 -1.8147e-41 8.5809e-41
0000c0 ef 1f 00 00 f2 1e 00 80 09 ab 00 80 de 08 00 80
       1.1456e-41 -1.1101e-41 -6.1356e-41 -3.181e-42
0000d0 7c 2f 00 00 7e 61 00 80 dd 5d 00 00 6a 31 00 00
       1.7034e-41 -3.4974e-41 3.3672e-41 1.7726e-41
0000e0 75 6b 00 80 17 bc 00 80 7f cb 00 80 42 1a 00 80
       -3.8548e-41 -6.7474e-41 -7.3e-41 -9.42e-42
0000f0 5b 31 00 00 dc 0f 00 80 42 9f 00 80 00 46 00 80
       1.7705e-41 -5.689e-42 -5.7131e-41 -2.5111e-41
000100 4c f8 00 80 de 91 00 80 69 be 00 80 e8 cd 00 00
       -8.9072e-41 -5.2327e-41 -6.8306e-41 7.3865e-41
000110 ac e2 00 00 d5 3a 00 00 69 03 01 00 fa f3 00 00
       8.1315e-41 2.1105e-41 9.3059e-41 8.7522e-41
000120 b2 2e 01 80 aa 96 00 00 29 d3 00 00 db a9 00 00
       -1.08587e-40 5.4048e-41 7.575e-41 6.0933e-41
000130 37 a7 00 80 27 05 00 00 0d 6f 00 00 41 4e 00 80
       -5.9985e-41 1.848e-42 3.9838e-41 -2.8072e-41
000140 0b b0 00 00 d7 4c 00 00 1f 68 00 00 b3 f3 00 00
       6.3152e-41 2.7565e-41 3.7352e-41 8.7423e-41
000150 5f 1a 00 00 7b a0 00 00 a8 6f 00 80 06 23 00 00
       9.46e-42 5.757e-41 -4.0055e-41 1.2564e-41
000160 f7 e1 00 80 58 ad 00 00 7c c3 00 00 d3 c9 00 00
       -8.1061e-41 6.2184e-41 7.0127e-41 7.2401e-41
000170 14 1d 00 00 00 5c 00 00 93 b8 00 00 45 01 00 00
       1.0431e-41 3.3003e-41 6.6213e-41 4.55e-43
000180 89 3d 00 80 51 75 00 80 87 1e 00 00 a8 4a 00 80
       -2.2075e-41 -4.2085e-41 1.0951e-41 -2.6782e-41
000190 97 d4 00 80 10 58 00 80 f3 63 00 00 1c a8 00 00
       -7.6263e-41 -3.1591e-41 3.5855e-41 6.0306e-41
0001a0 73 30 00 80 aa 4c 00 00 f9 17 00 80 ef bf 00 00
       -1.738e-41 2.7502e-41 -8.6e-42 6.8853e-41
0001b0 4e bd 00 80 18 7a 00 80 e4 62 00 80 78 13 00 80
       -6.791e-41 -4.3799e-41 -3.5475e-41 -6.984e-42
0001c0 26 49 00 00 a6 cd 00 80 24 b3 00 80 b2 5b 00 80
       2.6241e-41 -7.3773e-41 -6.4264e-41 -3.2894e-41
0001d0 e0 89 00 80 5b 24 00 80 be 10 00 80 a1 08 00 80
       -4.946e-41 -1.3042e-41 -6.006e-42 -3.095e-42
0001e0 bb bc 2d bb 9c dc e4 3a 74 49 85 18 63 f3 2a bb
       -0.0026510197 0.0017460766 3.4453863e-24 -0.0026085011
0001f0 89 d5 9d 28 82 ce d2 b9 dd 14 6f bb c7 cb 53 99
       1.7523108e-14 -0.00040208182 -0.0036480941 -1.0949597e-23
000200 e0 1c 34 18 79 d0 96 3a 67 8a 09 1a ca 42 7d bb
       2.3279033e-24 0.0011506221 2.8442737e-23 -0.0038644546
000210 82 ed 18 a6 bb 91 7b 39 09 eb 87 3b a1 7c fb 2c
       -5.3057477e-16 0.00023991514 0.0041478914 7.1476857e-12
000220 04 71 31 ba a2 20 05 bb f8 62 6e bb cb 0d 16 99
       -0.0006768855 -0.002031364 -0.0036374908 -7.757604e-24
000230 34 0e 04 1a 78 d0 51 a2 35 4a 7a bb 2b 80 00 bb
       2.7308433e-23 -2.8435144e-18 -0.0038191203 -0.0019607644
000240 34 b9 a2 ba 6f bf a2 a3 2f 44 e1 17 c1 83 2c 1b
       -0.0012414814 -1.764515e-17 1.4557496e-24 1.4270079e-22
000250 54 8c 86 bb 6d 24 dc bb 67 58 00 00 53 77 00 80
       -0.004106084 -0.0067182095 3.1713e-41 -4.2805e-41
000260 de 0f 00 00 e7 6f 00 00 55 a6 00 80 6f c6 00 00
       5.692e-42 4.0143e-41 -5.9669e-41 7.1185e-41
000270 3d 06 00 00 37 5f 00 00 df 37 00 00 c8 0b 01 80
       2.238e-42 3.4157e-41 2.0043e-41 -9.6062e-41
000280 ae bb 00 00 6d 9b 00 80 20 a2 00 80 17 ce 00 80
       6.7327e-41 -5.5756e-41 -5.816e-41 -7.3931e-41
000290 90 50 00 00 80 9f 00 00 9c 89 00 80 ce 6c 00 80
       2.89e-41 5.7218e-41 -4.9365e-41 -3.9032e-41
0002a0 4d 53 00 00 c3 e0 00 00 83 62 00 80 ac a9 00 00
       2.9883e-41 8.063e-41 -3.534e-41 6.0867e-41
0002b0 ab b2 00 00 ad aa 00 00 74 33 00 80 53 5a 00 00
       6.4094e-41 6.1227e-41 -1.8458e-41 3.2402e-41
0002c0 4c 39 00 80 87 0a 01 00 f3 c6 00 80 39 7a 00 00
       -2.0554e-41 9.5612e-41 -7.137e-41 4.3845e-41
0002d0 cb 5e b3 3e 5e 1d 65 3e 06 af 77 ba 0a c2 82 bc
       0.3503326 0.22374484 -0.0009448383 -0.015961666
0002e0 6f 45 c7 3a 20 55 fb bd 3a 58 d5 bb 71 bf fa ba
       0.0015203188 -0.12272096 -0.0065107616 -0.001913054
0002f0 c4 66 d4 ba 9b 68 78 bd 55 8c 41 bb 9d b2 3c bc
       -0.0016204943 -0.060646635 -0.0029533107 -0.011517194
000300 a8 1f d4 ba 38 23 03 be e9 0d 0f be 64 82 58 39
       -0.0016183751 -0.12806404 -0.1397015 0.0002064794
000310 5c fa 4d 3e 3f 89 ab 3d ca 3b a6 3c ee 7a 9a b9
       0.20115036 0.08375787 0.020292182 -0.0002946476
000320 9c 22 1e 39 3c b3 1b ba 3a 22 34 3e 7a 7b 3b bd
       0.00015080947 -0.0005939489 0.17591181 -0.045772053
000330 58 20 de bb 96 52 65 bb ef 56 9f ba 36 67 7d 3a
       -0.006778758 -0.0034991852 -0.0012156646 0.0009666564
000340 50 d0 6a be 0e 1e 7b be 92 62 1a 3a 82 52 92 3a
       -0.22931027 -0.24523184 0.0005889322 0.0011163505
000350 d2 ba d0 80 0f 2f 98 39 17 a5 e2 89 4f 1f fb b9
       -1.9168802e-38 0.0002902676 -5.456277e-33 -0.00047897777
000360 93 c2 05 ba 07 01 6b 01 1d 76 f8 94 a6 96 1d 3a
       -0.0005102541 4.316342e-38 -2.5088188e-26 0.0006011523
000370 6e 35 85 0b 17 03 56 b9 20 81 00 00 be b4 53 b9
       5.131013e-32 -0.00020409781 4.6321e-41 -0.0002018986
000380 3f 09 b0 b9 b0 7d 0b 00 94 ec b0 ba 1e ca a5 38
       -0.00033576225 1.055279e-39 -0.001349824 7.9054604e-05
000390 75 d3 53 3a 86 1b 5d 1c f3 78 c9 01 cb 32 12 80
       0.0008080521 7.315834e-22 7.400929e-38 -1.67126e-39
0003a0 05 27 27 ba 8a 18 0b 3a b5 ee 03 35 90 62 01 00
       -0.0006376359 0.0005306086 4.914867e-07 1.27193e-40
0003b0 79 57 03 80 4d c3 02 00 2f 30 ab 3a 19 f4 a3 38
       -3.06886e-40 2.53732e-40 0.0013060624 7.8179124e-05
0003c0 76 09 00 80 6a 0d 00 00 52 1f 00 00 35 0b 00 80
       -3.394e-42 4.812e-42 1.1236e-41 -4.02e-42
0003d0 46 0a 00 80 2e 00 00 00 ba 06 00 80 53 50 00 00
       -3.685e-42 6.4e-44 -2.413e-42 2.8815e-41
0003e0 b9 0b 00 80 8c 12 00 00 45 46 00 80 e7 13 00 00
       -4.205e-42 6.653e-42 -2.5208e-41 7.14e-42
0003f0 02 06 00 80 d7 15 00 80 7a 11 00 00 bd 32 00 80
       -2.155e-42 -7.835e-42 6.27e-42 -1.8201e-41

bias f4 [30]
000000 4c 95 00 80 97 0d 00 80 1e 03 01 00 23 1a 01 80
       -5.3558e-41 -4.875e-42 9.2954e-41 -1.01212e-40
000010 58 57 a4 14 9d 24 00 00 bb 4c 0f 38 10 23 00 00
       1.6594219e-26 1.3134e-41 3.4165318e-05 1.2578e-41
000020 74 e6 00 80 34 27 18 b8 2d 67 00 80 58 e4 00 00
       -8.2671e-41 -3.6276135e-05 -3.7012e-41 8.1914e-41
000030 12 5c a1 37 fc 7d f5 37 fa 4d 7e b7 19 2e 00 00
       1.923557e-05 2.9264942e-05 -1.5157735e-05 1.6537e-41
000040 cf 0a 00 80 a1 fa 3c 37 f7 79 c4 36 90 29 01 80
       -3.877e-42 1.1264027e-05 5.8554538e-06 -1.06745e-40
000050 15 e8 00 00 5d 28 75 38 87 6d 00 80 f3 24 00 00
       8.3255e-41 5.8450143e-05 -3.9291e-41 1.3255e-41
000060 d1 ac 74 37 70 8e a0 b7 70 ca 21 b8 bd b3 ad b6
       1.458377e-05 -1.9139814e-05 -3.8573926e-05 -5.176726e-06
000070 d1 a2 01 38 33 e0 00 80
       3.090763e-05 -8.0428e-41

weight f4 [20, 1, 3, 3]
000000 28 6d 1b 3e d1 83 72 bd cb 83 69 3e f3 10 e4 3d
       0.15178359 -0.05920774 0.22804181 0.11136045
000010 bb 44 80 3e b2 ac 15 3e b4 6d 0e be 4b 3f 7f be
       0.25052437 0.1461666 -0.13909036 -0.24926488
000020 30 c8 91 3d 7f 9c e9 bd cf 3a 87 be 1e 69 09 be
       0.07118261 -0.114068024 -0.26412055 -0.13419005
000030 e8 56 8d 3e 03 32 75 3e 81 bf a6 3e 88 d9 c5 3d
       0.27605367 0.23944859 0.3256798 0.096606314
000040 83 ab 35 bb 08 d1 1d bd 80 f9 86 3b 15 b9 a1 3e
       -0.0027720637 -0.038529426 0.004119098 0.3158652
000050 b7 a1 59 3e 16 13 0f 3e e7 5f 38 3e 4c 9f e0 3d
       0.21253096 0.13972124 0.18005334 0.109678835
000060 cf 8b 02 be e3 2d c3 be 24 2d 78 be f3 4d cf 39
       -0.12748645 -0.38120946 -0.2423597 0.00039540193
000070 46 8e 48 ba a9 a2 29 39 c4 da e2 3a b5 b8 92 39
       -0.0007650595 0.00016177692 0.0017307629 0.00027984908
000080 16 8d 1e 3b 08 63 13 ba 7b 8e 52 3a ba 44 59 3a
       0.002419298 -0.0005622362 0.00080320955 0.0008288134
000090 da b7 15 3e f6 85 b8 3e f7 d3 55 3e 63 e6 83 bd
       0.14620915 0.36039704 0.2088164 -0.06440427
0000a0 cd 07 dc bd 7f e8 7c be da f6 ac bd 6a a6 92 be
       -0.107436754 -0.24698065 -0.08445521 -0.2864259
0000b0 2f b3 87 be c2 e4 96 ba 06 e6 df b9 5d 80 89 39
       -0.26503894 -0.0011512267 -0.00042705255 0.00026226314
0000c0 b2 b3 17 bb 46 ed 1f 3a a8 1a 2d b9 21 97 93 b9
       -0.0023147878 0.0006100725 -0.00016508496 -0.00028150625
0000d0 5c 89 17 39 a0 d2 14 ba 90 61 36 ba 75 d7 91 b9
       0.00014451653 -0.00056771375 -0.0006957287 -0.00027817083
0000e0 87 a1 35 ba 2e e7 65 bb a0 3c 34 ba c2 23 94 b9
       -0.00069286715 -0.003508042 -0.0006875489 -0.000282554
0000f0 84 50 58 bb 83 7e c2 ba f8 1e 91 ba a9 84 ab 3d
       -0.0033006975 -0.0014838729 -0.0011071851 0.08374912
000100 db 69 97 be ef ab 44 be 1c ae 84 3d ed ad 02 bd
       -0.2957295 -0.19206212 0.06478521 -0.03190415
000110 f5 9d 1d 3d 96 58 bc 3d b6 1e 34 3d 3a 5b 00 3e
       0.038480718 0.09196584 0.0439746 0.125348
000120 49 90 14 3b c2 45 8d bb bd 70 27 3a e6 46 79 bb
       0.0022669008 -0.0043112943 0.0006387344 -0.0038036644
000130 f1 5a da ba 25 74 31 bb 11 80 82 bb 02 5b 9c bb
       -0.0016659183 -0.0027077284 -0.003982552 -0.004771591
000140 ac 1e 35 ba 08 95 73 3e 3b 8a d5 3d 37 a8 33 3e
       -0.00069091725 0.2378732 0.10426756 0.17544638
000150 96 98 9e 3c 21 a9 c7 3d c4 16 40 3d 6f c2 2f be
       0.019359868 0.09749056 0.04689671 -0.17164014
000160 5b c8 7a be 04 47 c6 be 5d 8f 8d bd 36 c8 92 be
       -0.24490492 -0.38726056 -0.0691211 -0.28668374
000170 f2 6f bf bd 40 2b 85 3e c4 06 14 be bc 0c 4d bd
       -0.09347524 0.2600956 -0.14455706 -0.050060973
000180 a4 1c a6 3c 36 10 60 bd 0f d4 87 3e b8 0a 0d be
       0.020277329 -0.05470296 0.26528975 -0.1377362
000190 46 8e 9a be 7b 83 28 3e 75 2b ef bd af 71 20 be
       -0.3018667 0.16456406 -0.11678211 -0.15668367
0001a0 d7 23 6f 3e 44 1e 35 3e f4 8c 40 3e b4 66 2c 3d
       0.23353516 0.17687327 0.1880377 0.042090133
0001b0 d9 6f bc bd ca f7 93 bc 1c 20 5a 3c 49 91 f3 3d
       -0.09201021 -0.018062491 0.0133133195 0.11892945
0001c0 d3 b1 46 3e 01 0e 3b 3e 7a 37 42 3e 75 4f 9b 3d
       0.19403772 0.18267061 0.18966475 0.075835146
0001d0 cd 0e 2b be 66 4c 4c be 7f b0 8b be 82 33 0a be
       -0.16704865 -0.19951019 -0.27283093 -0.13496211
0001e0 92 44 ca bd 22 d3 cd bd e9 92 c0 bd 81 1f f9 3d
       -0.0987636 -0.10050036 -0.09403021 0.12164212
0001f0 69 0e 91 3e 39 33 95 3e 34 6d e9 bd e7 ba 9d bd
       0.28331307 0.29140642 -0.11397782 -0.077016644
000200 1d e8 a0 bd 87 37 0a be 0e 12 eb 3c c3 d9 02 3d
       -0.07856772 -0.13497745 0.028695133 0.031945955
000210 c3 fa b5 3d 48 a8 92 3e 6b 7d fe 3d 81 75 b8 3d
       0.088857196 0.28644013 0.12426265 0.09006787
000220 07 f3 6b 3e 82 da ae 3d 3a 60 64 bc 97 08 73 3e
       0.23041926 0.08537771 -0.013938958 0.23733746
000230 fa e2 3c 3e 52 2c 79 bd ff 46 a8 be 0b d1 c2 bc
       0.1844596 -0.060833283 -0.32866666 -0.02378132
000240 ca a3 a7 3a c3 ab 1e bb fa 4e b2 3a a9 42 68 3a
       0.0012789902 -0.0024211265 0.0013603859 0.0008860031
000250 38 15 d4 3a 02 0e d0 b9 a8 f5 3d 3a d7 7b 00 3a
       0.001618064 -0.00039683288 0.00072463835 0.0004901266
000260 82 96 d7 3a 3f 0d d9 3d dc ff 62 be bb 88 88 be
       0.0016448053 0.105982296 -0.22167915 -0.26666817
000270 7e b4 86 bd 09 55 29 be 0b cb 5d bc 78 f7 fc bc
       -0.06577395 -0.16536345 -0.013537179 -0.030879721
000280 b5 22 5e bd a2 77 ad 3e 6d 21 45 3e b0 fc 54 3e
       -0.054232318 0.33880335 0.19251032 0.20799518
000290 7e e5 69 3e b6 6c 07 be 14 a2 9d 3d a9 82 87 be
       0.2284145 -0.13225064 0.076969296 -0.26466873
0002a0 01 49 16 be ca 8b c8 bd 33 56 8f be 9e 4f 66 3c
       -0.14676286 -0.09792288 -0.27995452 0.014057068
0002b0 8c aa ff 3d 1e 48 bc 3e 9f 70 aa bc 66 f2 35 3d
       0.12483701 0.3677377 -0.020805655 0.044420622
0002c0 d0 b1 54 3e c0 35 14 be 49 6c a8 3a 67 96 11 be
       0.20770955 -0.14473629 0.0012849654 -0.1421753

bias f4 [20]
000000 64 35 78 b8 62 bd d1 37 aa 5f 5e 37 19 c9 8f b4
       -5.917753e-05 2.500293e-05 1.3254505e-05 -2.6782143e-07
000010 46 22 f2 36 41 1d db b5 60 f1 82 35 3d 19 d8 34
       7.216152e-06 -1.6325286e-06 9.756004e-07 4.0251498e-07
000020 bf be 91 35 44 b1 71 38 eb 1e 64 b8 55 15 d3 b7
       1.0858856e-06 5.762397e-05 -5.438823e-05 -2.5163094e-05
000030 be ae b2 37 d5 ab 12 b8 bb f9 0c 37 86 b8 bd 36
       2.1300624e-05 -3.4969144e-05 8.402795e-06 5.6541203e-06
000040 57 c4 86 b4 7f 57 87 b7 99 ea 56 b8 b6 fd 01 b8
       -2.51023e-07 -1.6133998e-05 -5.1240062e-05 -3.0992283e-05

weight f4 [20, 20, 1, 1]
000000 fd 1a d5 3d 40 68 cc 3c 11 45 22 3e c0 d4 ac ba
       0.10405538 0.024952054 0.15846659 -0.0013185963
000010 14 2e ad be 9f b7 30 ba f0 aa 88 bb db 62 14 be
       -0.33824217 -0.0006741229 -0.004170768 -0.14490835
000020 1b 2f 06 bb fb a6 ad bd c5 1e 3f 3e bf d7 10 be
       -0.0020474854 -0.084791146 0.18664081 -0.141448
000030 59 7a 8a be f3 65 3c be bd c1 45 3d d1 4e 0e 3b
       -0.2704647 -0.18398266 0.048280466 0.0021714459
000040 07 eb c0 3a b8 93 a4 bd d4 63 e1 3d 70 19 92 be
       0.0014718481 -0.080359876 0.11005369 -0.28535032
000050 ce 08 00 80 d7 09 00 80 86 08 00 80 bb 1f 00 80
       -3.159e-42 -3.53e-42 -3.058e-42 -1.1383e-41
000060 d7 01 00 80 1f 28 00 00 47 00 00 80 86 0d 00 80
       -6.6e-43 1.4393e-41 -1e-43 -4.851e-42
000070 5d 20 00 80 6d 15 00 00 09 08 00 80 45 10 00 80
       -1.161e-41 7.686e-42 -2.882e-42 -5.836e-42
000080 08 1d 2e 05 f3 02 00 00 43 02 00 00 9b 10 00 80
       8.186773e-36 1.058e-42 8.11e-43 -5.957e-42
000090 cf 22 00 80 76 11 00 80 21 12 00 80 5e 00 00 00
       -1.2487e-41 -6.264e-42 -6.503e-42 1.32e-43
0000a0 c7 4d 5c 3e 42 5d 2f be 8f 89 ca bd 5d fc bc 3a
       0.21514045 -0.17125419 -0.098895185 0.0014418472
0000b0 f9 8b 9e 3d 25 01 f7 3a 67 f0 04 3c 19 89 1a bd
       0.077415414 0.0018844946 0.008113957 -0.037728403
0000c0 20 de d2 3b 3f cc 93 3d 3d 1b 48 3e ce 76 38 3e
       0.006435171 0.07216691 0.1954164 0.1801407
0000d0 fd eb ac 3d c0 c0 92 bd a5 ee cb 3c 8a bd ac bd
       0.08443449 -0.071656704 0.024894068 -0.08434589
0000e0 39 f4 06 3a 7d 33 67 3e 66 db 95 bd c2 ee ec 3d
       0.00051480863 0.22578235 -0.073172376 0.11568977
0000f0 84 d6 14 3e 1b 6c 35 be e2 4a a1 be a9 90 55 3b
       0.14534956 -0.1771702 -0.31502444 0.0032587445
000100 56 95 24 3d 56 6f 80 ba c7 4a ed 39 65 f7 29 be
       0.04018148 -0.0009798806 0.00045259876 -0.1659828
000110 12 05 30 3b 29 79 b2 3d 2c 39 08 3e 24 98 38 3e
       0.002685849 0.08714516 0.1330306 0.18026787
000120 98 9e ab bc 5a 84 c0 bd 9c 41 89 3d e8 d0 82 3d
       -0.020949647 -0.09400244 0.06701967 0.06387502
000130 81 02 2d 3b de 79 8e be d3 e9 75 bb 88 7f 4d be
       0.0026399198 -0.27827352 -0.0037523403 -0.2006818
000140 dc da b0 be cb ee 45 be 86 8c 1c 3c 55 dd 16 3b
       -0.34541976 -0.19329374 0.009554988 0.0023020108
000150 ce 9c 6a 3c 70 35 13 bb 96 fd 5b bb 91 4f aa 3c
       0.014319612 -0.002246227 -0.0033567897 0.020789893
000160 7d ac aa bb 89 6b 1e 3e 10 1d a6 bc e4 9f 92 3d
       -0.0052085505 0.15470709 -0.02027753 0.07159403
000170 67 74 7c 3e f7 12 fd 3d 30 24 b4 bc 5c 98 8d 3e
       0.24653779 0.12357133 -0.021989912 0.27655303
000180 a0 23 28 3a 4e b0 f6 bd 94 1d 89 bd e1 70 3e bd
       0.0006414 -0.12045346 -0.06695095 -0.04649437
000190 88 88 fb 3d 7b 84 15 3e 08 7f 01 bc 8d 34 4e 3b
       0.12281901 0.14601319 -0.007903822 0.0031464428
0001a0 5d 69 3e 3e 43 eb 27 bb 8d e5 9a b7 c1 92 a2 bd
       0.1859488 -0.0025622405 -1.8465124e-05 -0.07938147
0001b0 f1 6a 8c b9 63 56 ab be ab c5 ab bd 4c db 76 be
       -0.00026782558 -0.33464345 -0.083873115 -0.24107093
0001c0 47 62 96 be 0d bb b0 3d ef 70 e7 bd b8 e8 34 3e
       -0.29371855 0.08629427 -0.11300837 0.176669
0001d0 05 a1 26 3a b8 b5 ee bd 88 72 2a be 4f 2e 05 be
       0.0006356391 -0.11655754 -0.16645253 -0.13005947
0001e0 27 c3 a2 3d dd 71 13 be ad 56 cc 3c 1f 2c e2 ba
       0.079473786 -0.14398904 0.024943674 -0.0017255581
0001f0 cb 03 ea 3d 95 37 20 3b 58 46 4e ba 4c 2d a7 bd
       0.11426505 0.0024447192 -0.00078687584 -0.081629366
000200 29 7e 5b bb 03 19 3d be aa 89 3e be 22 b2 3b bd
       -0.0033491945 -0.18466572 -0.18607202 -0.045824178
000210 7f a3 05 3e 60 fe d9 bd 69 9b 1f 3e 1d b2 b9 3d
       0.1305065 -0.10644221 0.15586628 0.090671755
000220 68 c6 94 ba 73 ac 32 3e 82 e0 31 be 35 f0 30 be
       -0.0011350634 0.17448597 -0.17370799 -0.17279132
000230 24 6c 00 80 59 6c 00 00 3a 3c 00 00 01 f9 00 00
       -3.8794e-41 3.8868e-41 2.1605e-41 8.9326e-41
000240 b6 41 00 80 94 66 00 80 06 34 00 80 aa d0 00 00
       -2.3573e-41 -3.6798e-41 -1.8662e-41 7.4855e-41
000250 b1 ee 00 00 cd 71 00 00 b4 c0 00 00 33 06 00 00
       8.5626e-41 4.0824e-41 6.9129e-41 2.224e-42
000260 81 6b 00 00 d4 08 00 80 36 87 00 80 91 2e 00 80
       3.8565e-41 -3.167e-42 -4.8505e-41 -1.6705e-41
000270 9a 7f 00 00 76 0a 00 80 66 30 00 80 f8 38 00 80
       4.5775e-41 -3.753e-42 -1.7362e-41 -2.0437e-41
000280 39 06 00 80 6d 0b 00 80 7b 0a 00 00 ef 36 00 00
       -2.232e-42 -4.099e-42 3.76e-42 1.9706e-41
000290 1e 07 00 00 63 27 00 80 97 67 00 00 95 1a 00 80
       2.553e-42 -1.4129e-41 3.7161e-41 -9.536e-42
0002a0 0c 45 00 80 a4 17 00 00 1a 0b 00 80 2a 16 00 80
       -2.477e-41 8.48e-42 -3.982e-42 -7.951e-42
0002b0 12 10 00 00 d3 10 00 80 63 1a 00 80 b1 12 00 80
       5.765e-42 -6.035e-42 -9.466e-42 -6.705e-42
0002c0 15 40 00 00 1d 10 00 00 26 15 00 00 d5 07 00 80
       2.2988e-41 5.78e-42 7.587e-42 -2.81e-42
0002d0 d5 51 00 80 15 16 00 00 db 4c 00 80 36 c9 00 00
       -2.9356e-41 7.922e-42 -2.757e-41 7.2181e-41
0002e0 ff c6 00 80 af 08 01 00 39 9a 00 00 8a 75 00 80
       -7.1386e-41 9.495e-41 5.5325e-41 -4.2165e-41
0002f0 11 09 00 00 fe b1 00 80 1c 05 01 80 76 04 00 00
       3.252e-42 -6.3852e-41 -9.3668e-41 1.6e-42
000300 28 8b 00 00 2d 2a 00 00 aa 8a 00 00 53 89 00 80
       4.992e-41 1.513e-41 4.9743e-41 -4.9263e-41
000310 b3 1b 01 80 48 b4 00 00 58 6d 00 80 9a ae 00 00
       -1.01772e-40 6.4673e-41 -3.9225e-41 6.2635e-41
000320 58 b3 a7 3d a8 a5 60 bd 9f d0 90 be e9 c8 5a ba
       0.08188504 -0.054845482 -0.28284165 -0.0008345978
000330 46 5f 22 3e 3f 80 98 ba 29 26 01 bc 7b 52 20 be
       0.15856656 -0.00116349 -0.007882633 -0.15656464
000340 12 43 38 bc 53 b7 2d 3c 2e b4 b5 3c bd 3b b2 bd
       -0.01124646 0.01060279 0.022180643 -0.087028004
000350 54 5e 04 3e 20 fa 40 be 3a a9 2f bd 7f 56 f4 bd
       0.12926608 -0.18845415 -0.042885996 -0.1193056
000360 6c e1 67 3a 43 e9 a0 3d c1 e1 43 be 78 9e 33 3e
       0.0008845541 0.07856991 -0.19129087 0.1754092
000370 2f 49 05 3e 1d 68 bc 3d c9 17 07 3e ae 0b c3 ba
       0.13016199 0.091995455 0.13192667 -0.00148808
000380 02 71 9f 3e 0e ed 04 3b 89 fa ba 39 7d 2a 11 3e
       0.31140906 0.0020282897 0.00035663348 0.14176364
000390 9b 5a 7b 3b 02 5d b4 bd ce 82 62 3e 53 ad 12 be
       0.0038353566 -0.08806802 0.2212021 -0.1432393
0003a0 f6 82 bc bc 99 87 15 3e 8c bf 49 3e ed 17 d5 bd
       -0.023011666 0.14602508 0.19701976 -0.10404954
0003b0 d3 1c 82 b9 8b 2e 54 bc fa 9b a0 3d 87 ff 43 3e
       -0.00024817008 -0.01295055 0.0784225 0.19140445
0003c0 4a 1f 00 80 c9 32 00 00 b1 22 00 80 22 62 00 80
       -1.1224e-41 1.8218e-41 -1.2445e-41 -3.5203e-41
0003d0 49 f6 00 80 aa bf 00 00 e8 d8 00 00 f6 21 00 80
       -8.835e-41 6.8756e-41 7.7811e-41 -1.2183e-41
0003e0 f7 ab 00 00 31 27 00 80 ea ce 00 00 e1 d4 00 80
       6.169e-41 -1.4059e-41 7.4227e-41 -7.6367e-41
0003f0 c0 6f 00 80 ec 60 00 00 55 92 00 00 1e da 00 00
       -4.0088e-41 3.4769e-41 5.2494e-41 7.8246e-41

bias f4 [20]
000000 b6 85 3a b8 b8 1a 01 00 a3 b3 8e b8 8e b0 51 b8
       -4.4470384e-05 1.0142e-40 -6.8045476e-05 -4.9993912e-05
000010 ec 97 1e 38 66 2e 84 35 a2 8b 3c b8 6d e4 00 00
       3.7811624e-05 9.84827e-07 -4.4952736e-05 8.1944e-41
000020 ff 23 00 80 eb af 00 80 a3 a3 6a b5 af f7 83 b8
       -1.2913e-41 -6.3107e-41 -8.7409916e-07 -6.2927014e-05
000030 9a b2 00 80 c7 25 f8 37 e2 00 01 80 9e 95 00 b8
       -6.407e-41 2.9581495e-05 -9.2152e-41 -3.065692e-05
000040 77 d5 f8 b7 11 a2 a5 0f c6 e0 c6 b7 1f 74 d0 b8
       -2.9663306e-05 1.6332682e-29 -2.3708108e-05 -9.939842e-05

weight f4 [6, 1, 3, 3]
000000 8b c3 0e bf 03 2e e3 3e c4 40 38 3e 6d b2 92 3e
       -0.55767125 0.44371042 0.17993456 0.28651753
000010 65 0f 90 3d c7 c4 fc bd 93 7b a6 bb a5 6f ee bd
       0.07034186 -0.1234222 -0.005080649 -0.11642388
000020 e3 d1 89 bc e5 df 57 3e de 55 83 3d ad c4 b5 be
       -0.016823715 0.21081503 0.06412862 -0.35501614
000030 a0 52 d3 bd 48 5d cc 3c f2 25 7c 3d ab b5 81 be
       -0.10318494 0.024946824 0.061559625 -0.25333914
000040 38 15 0f 3e be b2 06 3e 7d 6e d3 3e 60 c7 8d be
       0.13972938 0.13154122 0.41295233 -0.27691174
000050 df 64 2b be 76 6b d8 bc da 2a 7a be 80 1c 64 3e
       -0.16737698 -0.026418429 -0.24430409 0.22276497
000060 59 c2 2a be 1e f4 44 bd a0 9e 5c 3e b9 e5 8f be
       -0.166757 -0.04808437 0.21544886 -0.28104952
000070 78 5b a1 3e 72 fd 6d be e6 7b 51 3c c2 e2 17 be
       0.31515098 -0.23241213 0.012785887 -0.14832595
000080 ce 00 79 3c a7 89 df 3d 26 f6 cc be bf 9e c0 3e
       0.015197946 0.10914927 -0.40031546 0.37621114
000090 ae 0a e4 3d 02 2b c2 3e 27 02 e9 3e 93 7f 49 3c
       0.111348495 0.37923437 0.45509455 0.0122984825
0000a0 60 bd ec bd b1 6e 81 be 83 43 d8 3e 78 37 98 be
       -0.11559558 -0.25279763 0.42239007 -0.2972982
0000b0 42 cc 7d 3e 1e c7 d6 3e 99 c1 a8 3e 7c b8 30 3e
       0.2478495 0.4194879 0.32960203 0.17257875
0000c0 4c 16 33 3e 5f 5c 7a be fa d3 ca bd 4d 8b 0e bf
       0.17488974 -0.244493 -0.099037126 -0.55681306
0000d0 6a af 10 3f b7 1f 8c 3e
       0.5651766 0.27367947

bias f4 [6]
000000 52 0f b2 38 6a 23 29 38 b4 52 15 b8 ed fa 5d b8
       8.490555e-05 4.032572e-05 -3.560139e-05 -5.29242e-05
000010 55 2b 38 38 9a 33 a5 b7
       4.3909375e-05 -1.9693562e-05

weight f4 [6, 6, 1, 1]
000000 21 e0 56 be 4a b1 42 3e a4 44 35 3d 69 bc fa bc
       -0.20983936 0.19012943 0.044254914 -0.03060742
000010 d5 ab fb bd f2 a1 55 bd 27 28 e4 be 96 eb 23 3e
       -0.12288634 -0.052156396 -0.44561884 0.16007838
000020 22 e7 f4 bd a8 8e a1 3e 89 04 fc bc a4 30 2b 3e
       -0.119581476 0.3155415 -0.030763881 0.16717774
000030 c8 f6 9e be 54 df 8c 3d 8c d7 aa 3e 15 dd 17 be
       -0.31047654 0.06878534 0.33367574 -0.1483043
000040 75 ef cf be 95 db ea 3e 49 d0 bd bc 41 91 ce bd
       -0.4061238 0.45870653 -0.023170607 -0.10086299
000050 a8 7b 3c be 65 38 a9 bd ac fb 03 3f 95 25 0f bf
       -0.18406546 -0.082627095 0.51555896 -0.5591672
000060 f2 05 96 3e bc 76 4e be 0c 32 76 be 04 1b 9c 3c
       0.2930141 -0.20162481 -0.24042529 0.01905585
000070 10 bf 8b 3e b6 db 9d be 4b eb 4d 3e 9c 20 b4 bc
       0.27294207 -0.3083169 0.20109288 -0.021988206
000080 da 2b ea 3b 07 dc 0f 3f 30 13 88 3e 97 c5 23 be
       0.007146341 0.5619511 0.2657714 -0.15993343

bias f4 [6]
000000 84 2d 94 b8 2f 7b db b8 66 db f0 b7 15 6c ab 37
       -7.065668e-05 -0.000104656785 -2.8712395e-05 2.0435118e-05
000010 5f 89 06 39 df a8 c6 b8
       0.0001283041 -9.4728304e-05

weight f4 [30]
000000 f4 21 42 a4 63 8a 00 80 3d 31 00 80 4f 0d 00 80
       -4.2095804e-17 -4.9644e-41 -1.7663e-41 -4.774e-42
000010 85 c4 96 3a a9 25 00 00 83 4e 2c 3f 66 74 08 39
       0.0011502659 1.351e-41 0.673073 0.00013013333
000020 66 c0 dd 37 ee 51 0c 3f 57 f7 71 38 8e a9 00 00
       2.6434845e-05 0.54812515 5.768923e-05 6.0825e-41
000030 5d 59 1f 3f e9 ed 20 3f 61 f9 e5 3e e9 b8 00 00
       0.6224573 0.6286302 0.44916824 6.6333e-41
000040 25 09 f7 36 65 ea 3c 3f ce 3d 23 3f 17 97 00 00
       7.362238e-06 0.7379516 0.6376618 5.4201e-41
000050 01 ab 16 b6 84 67 0e 3f ac 83 3e ac 45 23 00 80
       -2.245128e-06 0.556267 -2.7073717e-12 -1.2652e-41
000060 9e 38 15 3f 37 21 1a 3f 12 c2 04 3f 39 85 56 3f
       0.58289516 0.6020693 0.5185863 0.8379703
000070 a0 eb 0f 3f f6 11 00 00
       0.5621891 6.443e-42

bias f4 [30]
000000 be 89 08 af 83 38 a2 9d b7 94 c8 b6 7a cb 91 b4
       -1.2418064e-10 -4.2939475e-21 -5.977777e-06 -2.7156403e-07
000010 7c 29 f5 bb ba af db 89 73 fa 4a bd ac 42 e0 bb
       -0.007481752 -5.2887585e-33 -0.049555253 -0.0068438854
000020 32 cd 3b b9 57 30 09 bf 0d b7 96 b9 0e 48 26 bb
       -0.00017910151 -0.53589386 -0.00028746613 -0.0025372538
000030 b7 48 8e be 11 38 d6 bd 99 02 90 be 3e b7 e1 9f
       -0.27789852 -0.104599126 -0.28126982 -9.5594355e-20
000040 c0 9a 5a b9 ab 98 ec 3a 96 be 2a bf 5e dd 11 bb
       -0.00020847749 0.001805087 -0.6669706 -0.002225719
000050 bf 15 8a bb 12 9c 0b bf 90 c9 4b ba 4a 70 7d 97
       -0.004214018 -0.5453502 -0.00077738706 -8.189044e-25
000060 0e 59 2f bf 8e 94 9d be 2b 12 de be f3 91 3a 3e
       -0.6849526 -0.307774 -0.43373236 0.18219738
000070 06 b7 ea bd ab 0b 5f b9
       -0.1146069 -0.00021271284

running_mean f4 [30]
000000 c0 44 00 80 ee 09 00 80 7f 13 00 00 7c 0b 00 80
       -2.4663e-41 -3.562e-42 6.994e-42 -4.12e-42
000010 ea c7 3e bd f5 20 00 80 c4 4c 40 3e d5 15 5d 3c
       -0.04657737 -1.1823e-41 0.18779284 0.013493975
000020 75 4c 00 00 9c 97 29 3e ff a5 bc bc 8b 34 00 80
       2.7428e-41 0.1656174 -0.023028372 -1.8849e-41
000030 6a 9f bb bd b7 0a 15 bf de 2e d1 be 1d 5e 00 00
       -0.09161265 -0.58219475 -0.4085607 3.3761e-41
000040 cd 2c 00 00 f3 94 b4 3e cd 6c 73 3d 50 48 00 80
       1.6071e-41 0.3526989 0.059429932 -2.5941e-41
000050 cc bf 05 aa 97 75 8d 3d ea 79 00 80 d8 71 00 00
       -1.1879316e-13 0.06907194 -4.3735e-41 4.084e-41
000060 2c f1 93 3e 4b 75 95 bd 8f 11 5a be 8a 68 34 be
       0.28894937 -0.072977625 -0.2129576 -0.17618003
000070 17 4d 32 bf 89 1b 00 00
       -0.6964888 9.878e-42

running_var f4 [30]
000000 04 00 00 00 04 00 00 00 04 00 00 00 04 00 00 00
       6e-45 6e-45 6e-45 6e-45
000010 cc 71 38 3b 04 00 00 00 bb 50 a1 3e 8f bd b4 38
       0.0028144 6e-45 0.31506905 8.618377e-05
000020 04 00 00 00 36 c4 b3 3d 18 e1 0b 3c 04 00 00 00
       6e-45 0.08777659 0.008537553 6e-45
000030 c2 8b 55 3e 65 00 03 3f 9c 2c 11 3e 04 00 00 00
       0.20854095 0.51172477 0.14177173 6e-45
000040 04 00 00 00 a3 f3 45 3f a2 c2 fa 3d 04 00 00 00
       6e-45 0.77324885 0.122441545 6e-45
000050 20 8d ca 14 8d 61 47 3d 04 00 00 00 04 00 00 00
       2.0452452e-26 0.048677016 6e-45 6e-45
000060 a7 50 9f 3d 48 3c d5 3d 66 3d 4f 3d 98 da be 40
       0.07779055 0.10411888 0.050595663 5.964184
000070 15 b6 84 3e 04 00 00 00
       0.25920168 6e-45

weight f4 [20]
000000 a4 64 0c 3f 23 af 0b 35 5d 08 4e 3f 32 2c 28 3f
       0.54841065 5.203639e-07 0.8048151 0.65692437
000010 c8 0b f4 3e 1c 15 08 3f c6 0b 05 3f 54 1e 00 80
       0.47665238 0.5315721 0.5197109 -1.088e-41
000020 2e c0 be 32 23 1d 00 80 03 3d f1 3e 6d 49 0e 3f
       2.2206304e-08 -1.0452e-41 0.4711686 0.5558079
000030 cb 0f 01 00 2f 76 0e 3f 07 78 00 80 9b 32 16 3f
       9.7501e-41 0.55649084 -4.3058e-41 0.5867097
000040 77 ce 1e 3f fe 4e 65 ba 08 52 13 3f 71 06 04 3f
       0.6203379 -0.00087474275 0.57547045 0.5157233

bias f4 [20]
000000 75 d4 de be ab 11 30 ba 29 55 86 be b8 59 08 bf
       -0.43521467 -0.00067165 -0.26236847 -0.532619
000010 ae bf 5b be fc 3f dc be e9 d9 2d bf 9a 1a 0b bb
       -0.21459839 -0.43017566 -0.6791063 -0.0021225573
000020 4c d3 38 b8 41 4c cd a5 1e 80 14 bf ca 11 ab be
       -4.4065804e-05 -3.5613503e-16 -0.5800799 -0.3341201
000030 bc 84 ee b5 ff 7e 4c bf 21 d8 1a b7 b9 74 d1 be
       -1.7771013e-06 -0.7988128 -9.229437e-06 -0.40909365
000040 51 ea 04 bf 39 21 1a bc dd b9 db be ba 4a 7c be
       -0.5192004 -0.009407335 -0.4291524 -0.24637881

running_mean f4 [20]
000000 e1 71 f5 bd 1f a5 f6 86 3d de ac be c7 ed 26 be
       -0.11984611 -9.277754e-35 -0.33763304 -0.16301642
000010 54 04 e3 bc 81 7d 36 3d ee e6 9d 3e dc 28 00 80
       -0.027712025 0.044553284 0.30840248 -1.4658e-41
000020 fc 05 00 80 5a 19 00 00 57 2d 61 3e 2d 1c 2f bd
       -2.147e-42 9.094e-42 0.21989952 -0.04275148
000030 93 6a 00 00 8a 4f 9f 3e c3 52 00 00 e0 53 86 be
       3.8232e-41 0.3111537 2.969e-41 -0.26235867
000040 fb 11 05 be 05 d2 22 3e 31 bc 1f be 43 92 2c be
       -0.1299514 0.15900429 -0.15599133 -0.1685267

running_var f4 [20]
000000 c0 5b d3 3d 04 00 00 00 a9 27 a3 3e 36 44 3f 3d
       0.10320234 6e-45 0.31866196 0.04669591
000010 7b c4 31 3e 45 ce 25 3d fd ab 9a 3d 04 00 00 00
       0.17360108 0.040479917 0.075523354 6e-45
000020 04 00 00 00 04 00 00 00 bb e7 70 3d 25 b1 9b 3d
       6e-45 6e-45 0.058814745 0.07602147
000030 04 00 00 00 3d c8 81 3d 04 00 00 00 b1 08 b7 3d
       6e-45 0.063370205 6e-45 0.08937205
000040 d7 d7 5f 3d 84 4f 27 3c 94 9f 7c 3d cc d4 4c 3d
       0.0546492 0.010211829 0.061675623 0.050007626

weight f4 [6]
000000 1d 47 01 3f c6 4c 3f 3f 12 0c e8 3e 0f ad 1c 3f
       0.50499135 0.7472652 0.4532171 0.61201566
000010 67 42 5d 3f a9 0d 98 3f
       0.86429447 1.1879169

bias f4 [6]
000000 ae 60 de be 76 33 56 bf b6 a7 bc bd 09 cd d4 bc
       -0.43433136 -0.83672273 -0.09211676 -0.025976675
000010 d6 0f 47 bf 48 55 1c bf
       -0.7775854 -0.6106763

running_mean f4 [6]
000000 d1 31 af bf da 15 91 bd bb 8b 8a 3e 40 0a cb be
       -1.3687078 -0.07084246 0.2705973 -0.39656258
000010 a4 83 f8 3d d0 c0 0c be
       0.121344835 -0.13745427

running_var f4 [6]
000000 a5 8e 06 3f 07 8c 73 3d f8 cc 01 3e 1d 73 97 3e
       0.5256141 0.059459712 0.12675846 0.29580012
000010 7d b8 99 3d 6c ff d7 3d
       0.075058915 0.10546765

weight f4 [16, 10800]
000000 2b 20 01 80 2b 20 01 80 2b 20 01 80 2b 20 01 80
       -1.03375e-40 -1.03375e-40 -1.03375e-40 -1.03375e-40
000010 2b 20 01 80 2b 20 01 80 2b 20 01 80 2b 20 01 80
       -1.03375e-40 -1.03375e-40 -1.03375e-40 -1.03375e-40
000020 2b 20 01 80 2b 20 01 80 2b 20 01 80 2b 20 01 80
       -1.03375e-40 -1.03375e-40 -1.03375e-40 -1.03375e-40
000030 2b 20 01 80 2b 20 01 80 2b 20 01 80 2b 20 01 80
       -1.03375e-40 -1.03375e-40 -1.03375e-40 -1.03375e-40
000040 2b 20 01 80 2b 20 01 80 2b 20 01 80 2b 20 01 80
       -1.03375e-40 -1.03375e-40 -1.03375e-40 -1.03375e-40
000050 2b 20 01 80 2b 20 01 80 2b 20 01 80 2b 20 01 80
       -1.03375e-40 -1.03375e-40 -1.03375e-40 -1.03375e-40
000060 2b 20 01 80 2b 20 01 80 2b 20 01 80 2b 20 01 80
       -1.03375e-40 -1.03375e-40 -1.03375e-40 -1.03375e-40
000070 2b 20 01 80 2b 20 01 80 2b 20 01 80 2b 20 01 80
       -1.03375e-40 -1.03375e-40 -1.03375e-40 -1.03375e-40
000080 2b 20 01 80 2b 20 01 80 2b 20 01 80 2b 20 01 80
       -1.03375e-40 -1.03375e-40 -1.03375e-40 -1.03375e-40
000090 2b 20 01 80 2b 20 01 80 2b 20 01 80 2b 20 01 80
       -1.03375e-40 -1.03375e-40 -1.03375e-40 -1.03375e-40
0000a0 2b 20 01 80 2b 20 01 80 2b 20 01 80 2b 20 01 80
       -1.03375e-40 -1.03375e-40 -1.03375e-40 -1.03375e-40
0000b0 2b 20 01 80 2b 20 01 80 2b 20 01 80 2b 20 01 80
       -1.03375e-40 -1.03375e-40 -1.03375e-40 -1.03375e-40
0000c0 2b 20 01 80 2b 20 01 80 2b 20 01 80 2b 20 01 80
       -1.03375e-40 -1.03375e-40 -1.03375e-40 -1.03375e-40
0000d0 2b 20 01 80 2b 20 01 80 2b 20 01 80 2b 20 01 80
       -1.03375e-40 -1.03375e-40 -1.03375e-40 -1.03375e-40
0000e0 2b 20 01 80 2b 20 01 80 2b 20 01 80 2b 20 01 80
       -1.03375e-40 -1.03375e-40 -1.03375e-40 -1.03375e-40
0000f0 2b 20 01 80 2b 20 01 80 2b 20 01 80 2b 20 01 80
       -1.03375e-40 -1.03375e-40 -1.03375e-40 -1.03375e-40
000100 2b 20 01 80 2b 20 01 80 2b 20 01 80 2b 20 01 80
       -1.03375e-40 -1.03375e-40 -1.03375e-40 -1.03375e-40
000110 2b 20 01 80 2b 20 01 80 2b 20 01 80 2b 20 01 80
       -1.03375e-40 -1.03375e-40 -1.03375e-40 -1.03375e-40
000120 2b 20 01 80 2b 20 01 80 2b 20 01 80 2b 20 01 80
       -1.03375e-40 -1.03375e-40 -1.03375e-40 -1.03375e-40
000130 2b 20 01 80 2b 20 01 80 2b 20 01 80 2b 20 01 80
       -1.03375e-40 -1.03375e-40 -1.03375e-40 -1.03375e-40
000140 2b 20 01 80 2b 20 01 80 2b 20 01 80 2b 20 01 80
       -1.03375e-40 -1.03375e-40 -1.03375e-40 -1.03375e-40
000150 2b 20 01 80 2b 20 01 80 2b 20 01 80 2b 20 01 80
       -1.03375e-40 -1.03375e-40 -1.03375e-40 -1.03375e-40
000160 2b 20 01 80 2b 20 01 80 2b 20 01 80 2b 20 01 80
       -1.03375e-40 -1.03375e-40 -1.03375e-40 -1.03375e-40
000170 2b 20 01 80 2b 20 01 80 2b 20 01 80 2b 20 01 80
       -1.03375e-40 -1.03375e-40 -1.03375e-40 -1.03375e-40
000180 2b 20 01 80 2b 20 01 80 2b 20 01 80 2b 20 01 80
       -1.03375e-40 -1.03375e-40 -1.03375e-40 -1.03375e-40
000190 2b 20 01 80 2b 20 01 80 2b 20 01 80 2b 20 01 80
       -1.03375e-40 -1.03375e-40 -1.03375e-40 -1.03375e-40
0001a0 2b 20 01 80 2b 20 01 80 2b 20 01 80 2b 20 01 80
       -1.03375e-40 -1.03375e-40 -1.03375e-40 -1.03375e-40
0001b0 2b 20 01 80 2b 20 01 80 2b 20 01 80 2b 20 01 80
       -1.03375e-40 -1.03375e-40 -1.03375e-40 -1.03375e-40
0001c0 2b 20 01 80 2b 20 01 80 2b 20 01 80 2b 20 01 80
       -1.03375e-40 -1.03375e-40 -1.03375e-40 -1.03375e-40
0001d0 2b 20 01 80 2b 20 01 80 2b 20 01 80 2b 20 01 80
       -1.03375e-40 -1.03375e-40 -1.03375e-40 -1.03375e-40
0001e0 19 aa 00 80 5e cb 00 00 d9 28 01 80 31 f5 00 80
       -6.102e-41 7.2954e-41 -1.06489e-40 -8.7958e-41
0001f0 c2 cc 00 00 88 11 01 00 54 11 01 80 80 df 00 80
       7.3453e-41 9.8125e-41 -9.8052e-41 -8.0177e-41
000200 62 fa 00 80 65 34 00 80 62 8e 00 80 0d 5f 00 80
       -8.982e-41 -1.8796e-41 -5.1077e-41 -3.4098e-41
000210 16 a9 00 00 89 9e 00 80 ed 9f 00 80 a5 c9 00 80
       6.0657e-41 -5.6872e-41 -5.737e-41 -7.2336e-41
000220 83 1c 01 80 9a 1d 00 00 5a a6 00 80 c1 af 00 80
       -1.02064e-40 1.0619e-41 -5.9676e-41 -6.3049e-41
000230 c9 99 00 00 2c 36 00 80 d0 0d 01 00 95 bf 00 00
       5.5168e-41 -1.9433e-41 9.679e-41 6.8727e-41
000240 9b 63 00 00 2b e4 00 00 0e bc 00 00 ae 41 00 80
       3.5732e-41 8.1851e-41 6.7461e-41 -2.3561e-41
000250 14 7a 00 80 9f 19 00 00 bc f4 00 80 51 f8 00 80
       -4.3793e-41 9.191e-42 -8.7794e-41 -8.9079e-41
000260 55 f4 00 00 69 8c 00 80 59 5c 00 00 d8 08 00 80
       8.765e-41 -5.037e-41 3.3128e-41 -3.173e-42
000270 dc ff 00 00 49 d7 00 00 85 8f 00 00 86 ef 00 80
       9.1785e-41 7.723e-41 5.1485e-41 -8.5925e-41
000280 5d 53 00 00 06 ea 00 80 e6 85 00 80 90 a1 00 80
       2.9905e-41 -8.3952e-41 -4.8034e-41 -5.7958e-41
000290 61 12 00 00 c1 c9 00 80 48 6a 00 80 2e 63 00 80
       6.593e-42 -7.2376e-41 -3.8127e-41 -3.5579e-41
0002a0 39 26 00 80 77 79 00 80 ab 1d 01 00 7c 48 00 00
       -1.3712e-41 -4.3573e-41 1.02478e-40 2.6002e-41
0002b0 98 d9 00 00 e2 16 00 00 a6 a5 00 00 3f 41 00 80
       7.8058e-41 8.209e-42 5.9423e-41 -2.3406e-41
0002c0 06 db 00 00 ff 18 00 80 49 7b 00 00 3d 69 00 80
       7.8571e-41 -8.967e-42 4.4226e-41 -3.7752e-41
0002d0 2a 1e 01 00 aa d3 00 80 15 a6 00 80 d4 28 00 80
       1.02656e-40 -7.5931e-41 -5.9579e-41 -1.4646e-41
0002e0 48 ec 00 00 be 6a 00 80 86 b8 00 80 d1 5f 00 80
       8.4762e-41 -3.8292e-41 -6.6195e-41 -3.4372e-41
0002f0 b5 05 01 00 fd 05 00 00 f9 65 00 80 cc 42 00 80
       9.3883e-41 2.148e-42 -3.6581e-41 -2.3962e-41
000300 3c 4b 00 80 64 aa 00 00 49 64 00 80 36 e2 00 00
       -2.6989e-41 6.1125e-41 -3.5976e-41 8.1149e-41
000310 4f 09 00 80 69 dd 00 80 d5 2f 00 00 2a e4 00 00
       -3.339e-42 -7.9427e-41 1.7159e-41 8.185e-41
000320 cb e6 00 80 af b7 00 80 be 6e 00 80 06 b2 00 00
       -8.2793e-41 -6.5893e-41 -3.9727e-41 6.3863e-41
000330 9b 3f 00 00 c7 1e 00 00 3f be 00 00 63 f8 00 80
       2.2817e-41 1.1041e-41 6.8247e-41 -8.9104e-41
000340 f6 9c 00 00 40 06 00 80 a1 e1 00 80 da 7c 00 80
       5.6307e-41 -2.242e-42 -8.094e-41 -4.4788e-41
000350 42 15 01 00 aa c1 00 80 d8 ab 00 00 4d 1b 00 00
       9.9461e-41 -6.9474e-41 6.1646e-41 9.794e-42
000360 0e 37 00 00 fc 5e 00 80 e1 d0 00 00 f4 fb 00 00
       1.975e-41 -3.4074e-41 7.4932e-41 9.0384e-41
000370 92 07 00 00 3c 30 00 00 88 aa 00 80 be 87 00 80
       2.716e-42 1.7303e-41 -6.1175e-41 -4.8695e-41
000380 50 20 00 00 3b b6 00 00 c2 f1 00 00 fb 6a 00 80
       1.1592e-41 6.5372e-41 8.6726e-41 -3.8377e-41
000390 7a 94 00 80 79 66 00 80 2e 49 00 80 aa 59 00 00
       -5.3263e-41 -3.676e-41 -2.6252e-41 3.2165e-41
0003a0 53 2c 01 80 aa 29 00 80 88 91 00 80 82 d1 00 00
       -1.07736e-40 -1.4946e-41 -5.2207e-41 7.5157e-41
0003b0 a9 db 00 00 df 2e 00 00 88 ed 00 80 b2 ce 00 00
       7.8799e-41 1.6814e-41 -8.521e-41 7.4148e-41
0003c0 5d c1 00 00 38 f7 00 80 91 a3 00 00 e8 a7 00 00
       6.9366e-41 -8.8685e-41 5.8677e-41 6.0233e-41
0003d0 44 9d 00 00 63 26 00 00 54 c4 00 00 74 65 00 00
       5.6416e-41 1.377e-41 7.0429e-41 3.6395e-41
0003e0 ca 12 00 80 7f 27 01 00 9e a2 00 80 91 a0 00 80
       -6.74e-42 1.06004e-40 -5.8336e-41 -5.76e-41
0003f0 28 8d 00 80 b3 01 00 00 6a dd 00 00 34 98 00 80
       -5.0637e-41 6.1e-43 7.9428e-41 -5.46e-41

bias f4 [16]
000000 67 f4 0c 80 1d 6f b1 b8 50 02 00 80 35 94 3b b7
       -1.189701e-39 -8.460714e-05 -8.3e-43 -1.1180576e-05
000010 90 a4 cc a7 90 22 8e 2a 7e b0 6b 3e bc ef 49 a3
       -5.6799793e-15 2.524825e-13 0.23016545 -1.09469976e-17
000020 50 a8 7a 3d 37 d8 df b3 f1 d4 db b6 18 19 9a bb
       0.06119567 -1.0423576e-07 -6.5514982e-06 -0.0047026984
000030 56 d8 4a b7 c0 b3 0b ba f4 d7 38 bb 4a 0f 2e ba
       -1.2090508e-05 -0.0005329214 -0.002820489 -0.00066398515

weight f4 [1, 16]
000000 2b e9 41 bb 3c 51 eb 3a 53 d6 8e bb 3e f5 a5 b9
       -0.0029588442 0.0017953287 -0.0043590455 -0.00031653972
000010 68 7f 21 bb 8f 99 53 ba 50 9e fe 3e 2b d1 70 3b
       -0.002464259 -0.0008071893 0.49730158 0.0036745768
000020 d7 4a 9a 3f 12 6e 6b 3b fc 91 df bb 43 a9 91 3f
       1.2054089 0.0035923761 -0.0068228226 1.137978
000030 20 f3 a4 34 42 38 01 bb 46 1d df 3b 11 8b 4b 3b
       3.0724277e-07 -0.001971737 0.0068089096 0.0031058232
